Results/0050_discriminator1.pth (torch, 250863 bytes, 35 tensors)

weight_ih_l0 f4 [120, 20]
0	0x3d6f336f	0.05839866
1	0xbd664289	-0.056215797
2	0xbda6bf15	-0.08141915
3	0xbe00df4c	-0.12585181
4	0x3d11b98b	0.03557734
5	0x3cd55ee6	0.026046228
6	0x3d3784ad	0.044804264
7	0xbd02d8a8	-0.0319449
8	0xbd46e57d	-0.0485587
9	0xbd9c0989	-0.07619006
10	0xbdc5bc9f	-0.09655117
11	0x3dedd6a5	0.11613206
12	0x3e1468df	0.1449313
13	0x3d0db611	0.03459746
14	0x3c6bcc81	0.014392019
15	0x3e061670	0.13094497
16	0x3de73ab9	0.11290497
17	0xba1859c9	-0.0005811719
18	0xbd0db3ba	-0.03459523
19	0x3c19170c	0.009343874
20	0xbe0c80f4	-0.13721067
21	0xbdc251bb	-0.09488245
22	0x3e25b79f	0.16183327
23	0xbe12f44e	-0.14351007
24	0x3e0f217e	0.1397762
25	0xbcf41f32	-0.029800031
26	0x3d915998	0.07097167
27	0xbd469d8d	-0.048490096
28	0x3e1ced1a	0.15324822
29	0xbce96b98	-0.028493688
30	0x3c9c23f0	0.019060105
31	0xbd0efaa2	-0.03490699
32	0x3b6a0477	0.0035708228
33	0x3cbf4770	0.023349494
34	0xbdc63d2e	-0.09679638
35	0x3db9bcbb	0.090692006
36	0xbc865a3a	-0.016400445
37	0x3df618b6	0.12016432
38	0xbe067f9f	-0.13134621
39	0x3db5c4ef	0.08875453
40	0xbde4424b	-0.11145457
41	0x3cbf29ca	0.023335356
42	0xbb5ad239	-0.0033389463
43	0x3dc57f0b	0.09643372
44	0xbe236f71	-0.1596048
45	0x3db6ac65	0.089196004
46	0x3bd8ab94	0.0066122506
47	0xbe1ebd0d	-0.15501805
48	0x3c4c023e	0.012451706
49	0xbe34f6fb	-0.1767234
50	0x3baa24f3	0.005192393
51	0x3dfd6359	0.12372465
52	0x3ddd09d5	0.10792891
53	0x3e3cd605	0.18441017
54	0xbe0186a0	-0.12649012
55	0xbcc76648	-0.024340764
56	0x3da11947	0.078661494
57	0x3c0adc06	0.008475309
58	0x3e101e93	0.14074163
59	0xbe329069	-0.174379
60	0x3de64cae	0.11245094
61	0x3df65f0b	0.12029847
62	0x3dfb2354	0.12262598
63	0x3d8c33b8	0.06845802
64	0xbc851f6c	-0.016250335
65	0x3dcb285f	0.099198096
66	0x3d5045bc	0.050847754
67	0x3bc90f07	0.0061358246
68	0x3e07d375	0.13264258
69	0xbe0273cd	-0.12739487
70	0x3dd4f660	0.10398555
71	0xbd73a644	-0.059484735
72	0xbe311439	-0.1729287
73	0xbe13c4a8	-0.14430487
74	0x3de1a5d0	0.11017954
75	0xbe02a4df	-0.12758206
76	0x3e21fa1e	0.15818068
77	0x3d38df35	0.04513474
78	0xbd5ea2ab	-0.05435435
79	0xbc5c4156	-0.013443312
80	0x3b4a54cd	0.00308733
81	0xbd607e09	-0.054807696
82	0xbde6d523	-0.11271121
83	0xbddabdb1	-0.10680712
84	0xbe07ca4a	-0.13260761
85	0x3d86b2e8	0.065770924
86	0xbd4c67c7	-0.049903657
87	0xbc4dd3ca	-0.0125627015
88	0xbd2fe345	-0.04294135
89	0xbd9642f8	-0.07336992
90	0x3d87f314	0.0663816
91	0xbdea1184	-0.11429122
92	0xbd6794f5	-0.05653854
93	0x3d05bb43	0.03264929
94	0xbe234eea	-0.15948072
95	0xbd05e5ec	-0.032689974
96	0xbddf641d	-0.10907767
97	0x3df87a84	0.12132743
98	0x3cc3a6af	0.023883192
99	0xbe16828c	-0.14698237
100	0xbde038d2	-0.109483376
101	0x3e1556c7	0.14583884
102	0x3e314b06	0.17313775
103	0x3da7d62a	0.081951454
104	0x3dc2ab4a	0.09505327
105	0x3cf0ce4d	0.029395247
106	0xbd4bd0b1	-0.04975957
107	0x3c9c5e07	0.019087804
108	0x3d238373	0.03992028
109	0x3df17bd3	0.11791196
110	0xbe25eb89	-0.16203131
111	0x3c287a79	0.010283106
112	0xbc44d255	-0.012013038
113	0xbc61b70f	-0.013776555
114	0x3cccf6e5	0.025020072
115	0x3dba8945	0.09108213
116	0xbd6f7427	-0.05846038
117	0xbd15d878	-0.036583394
118	0xbd1b5bed	-0.037929464
119	0xbd94ac44	-0.072594196
120	0x3c963bc4	0.018339045
121	0x3e1752a3	0.14777617
122	0x3de27f83	0.11059477
123	0x3df94316	0.12170999
124	0x3e1aa737	0.1510285
125	0x3d6ff53c	0.058583483
126	0x3c00ebf5	0.007868757
127	0xbe02d2d8	-0.12775743
128	0x3e1a7e6b	0.15087287
129	0xbcd17f6a	-0.025573451
130	0xbdf37fbe	-0.11889599
131	0x3d956951	0.07295478
132	0xbd095ec0	-0.033537626
133	0x3d8212df	0.063512556
134	0x3cb78a7d	0.022404904
135	0x3d06059e	0.0327202
136	0xbe386eef	-0.18011068
137	0x3cf9ef8e	0.030509736
138	0x3da78721	0.08180071
139	0x3dbccc1a	0.09218617
140	0xbe2fb43f	-0.17158602
141	0x3ca6b1d5	0.020348469
142	0x3dd35500	0.10318947
143	0xbc1ca9ec	-0.009561997
144	0xbde4afa7	-0.111663155
145	0xbdf65097	-0.1202709
146	0xbd9ddad4	-0.07707754
147	0xbe1af2a6	-0.15131626
148	0xbcb837c3	-0.022487527
149	0x3d21ea5a	0.039530136
150	0xbdcd6c67	-0.10030442
151	0x3e12e850	0.14346433
152	0x3dc3ed14	0.095667034
153	0x3e1ddb42	0.15415671
154	0x3cb191b0	0.021675915
155	0xbdb798eb	-0.08964714
156	0xbe17e89e	-0.1483483
157	0xbe17b73a	-0.14815989
158	0x3dcf7ebe	0.10131596
159	0x3b4be737	0.0031113157
160	0x3e12ce29	0.14336456
161	0x3de64256	0.11243121
162	0x3ba3833b	0.004990009
163	0x3ce479c8	0.027890101
164	0x3cea501c	0.028602652
165	0x3d80773b	0.062727414
166	0x3e282953	0.16422014
167	0x3dae47ea	0.0850981
168	0xbc4f1e9c	-0.012641575
169	0x3d853c30	0.065056205
170	0xbca546a0	-0.020175278
171	0xbde06daf	-0.109584205
172	0xbcda284f	-0.026630549
173	0x3c74dfde	0.014945952
174	0x3e3656d7	0.17806564
175	0xbd11eae1	-0.03562439
176	0xbd688d71	-0.056775514
177	0xbce7dfb8	-0.02830492
178	0x3e1002ec	0.14063615
179	0x3e254f5f	0.16143559
180	0x3d65160a	0.05592922
181	0x3d844b79	0.06459708
182	0xbd60be5b	-0.054869037
183	0xbdfa6915	-0.12227074
184	0x3d982c08	0.07430273
185	0xbe189d4c	-0.14903754
186	0xbe1b70b3	-0.1517971
187	0xbe2228fd	-0.15835948
188	0xbbe3a6c1	-0.006947369
189	0x3e0012da	0.12507191
190	0xbe234fa0	-0.15948343
191	0x3e03f8f2	0.12887934
192	0x3d326380	0.04355192
193	0xbdad7a3f	-0.08470582
194	0xbe3c819a	-0.18408814
195	0x3e20eaf5	0.15714629
196	0xbdd7781a	-0.105209544
197	0xbd4ee46a	-0.0505108
198	0x3d9aaba2	0.075522676
199	0xbbabbc6e	-0.0052409684
200	0x3de77aa9	0.113026924
201	0x3e1a38a4	0.15060669
202	0xbd20a3a4	-0.03921856
203	0xbe0b86e1	-0.13625671
204	0x3d5d36b1	0.054007236
205	0x3dd4a7a3	0.10383537
206	0xbdfb296a	-0.122637585
207	0x3cfa411d	0.030548627
208	0xbe1aaf8d	-0.1510603
209	0xbda7185f	-0.08158945
210	0x3d0deced	0.03464978
211	0x3dc7af93	0.09750285
212	0xbe0c9e4f	-0.13732265
213	0xbccaba5a	-0.024747062
214	0xbdd0589a	-0.101731494
215	0x3d48fac2	0.049067266
216	0x3df3cb23	0.1190398
217	0x3dbba2ec	0.09161934
218	0xbc4c303a	-0.01246267
219	0x3db0d396	0.08634107
220	0x3e1969b9	0.14981736
221	0xbe089335	-0.13337405
222	0x3d46e305	0.048556346
223	0x3e07d4e7	0.1326481
224	0xbcab9891	-0.020946773
225	0xbd8aed9d	-0.067836024
226	0x3df7d7b7	0.12101691
227	0x3e05415b	0.13013212
228	0x3def12a0	0.11673474
229	0xbc31364d	-0.010816169
230	0x3dc86073	0.09784021
231	0xbe1c4481	-0.15260507
232	0xbc631101	-0.0138590345
233	0x3d465610	0.04842192
234	0x3e23d79c	0.16000217
235	0x3ca1b8a4	0.019741364
236	0x3e25ea2d	0.16202612
237	0xbe03c5dd	-0.12868448
238	0x3ab73e16	0.0013980295
239	0x3e168ca6	0.1470209
240	0x3ddeef9a	0.10885544
241	0x3e0d788a	0.13815513
242	0xbd859375	-0.06522266
243	0x3e11061a	0.14162484
244	0x3d01b1eb	0.031663816
245	0x3df409ee	0.119159564
246	0x3d2b0556	0.041753136
247	0xbdadacfa	-0.08480258
248	0x3e0015e4	0.1250835
249	0x3d23f845	0.04003169
250	0x3d692deb	0.056928556
251	0x3d7b0841	0.06128717
252	0x3db913fd	0.090370156
253	0xbdeed52a	-0.116617516
254	0xbd47ef19	-0.048812006
255	0xbdf4fc31	-0.11962164

weight_hh_l0 f4 [120, 40]
0	0xbdde6f56	-0.108610794
1	0xbe29a226	-0.16565761
2	0xbe09638f	-0.13416885
3	0xbdfd069f	-0.123547785
4	0x3dd3120b	0.10306176
5	0x3ce67061	0.028129758
6	0x3d3ebdcd	0.046567727
7	0x395e9c14	0.00021229713
8	0x3d95b2cb	0.07309493
9	0x3db51529	0.088419266
10	0xbe002cb8	-0.12517059
11	0xbde9bf3f	-0.114134304
12	0x3d61a776	0.055091344
13	0xbddab761	-0.10679508
14	0x3c86f645	0.016474852
15	0x3ca5a701	0.020221235
16	0x3da6176b	0.081099354
17	0xbd31883a	-0.043342806
18	0x3d3a67a5	0.045509
19	0x3a4baefa	0.0007769909
20	0xbdf40b47	-0.119162135
21	0xbb05a147	-0.0020390318
22	0x3e17927e	0.14801976
23	0xbd511d34	-0.05105324
24	0x3c6c3d2d	0.014418882
25	0x3d37dd2f	0.04488867
26	0xbdfe4545	-0.12415556
27	0xbd5a5836	-0.05330678
28	0xbc859c50	-0.016309887
29	0x3dab8074	0.0837411
30	0x3dfe1847	0.12406974
31	0x3d7fd44d	0.062458325
32	0xbdff8be5	-0.12477855
33	0xbdfb9f79	-0.12286276
34	0x3d17a93b	0.037026625
35	0x3dbc37a7	0.09190302
36	0x3dac52dd	0.084142424
37	0xbcf19e12	-0.02949432
38	0xbdf87764	-0.12132147
39	0x3df64908	0.12025648
40	0x3d52dc2c	0.051479504
41	0x3d35ddba	0.044400908
42	0xbc4bc8d5	-0.012438019
43	0x3da127e6	0.07868938
44	0xbce79f77	-0.028274281
45	0xbd11c6b0	-0.035589874
46	0xbda1431b	-0.078741275
47	0x3e051b3b	0.12998669
48	0xbe3869b0	-0.18009067
49	0xbe2fb93a	-0.17160502
50	0x3e1a2492	0.15053013
51	0x3d04abc2	0.032390364
52	0xbe0496b7	-0.12948118
53	0x3de0078f	0.10938942
54	0x3db14d89	0.08657367
55	0xbd3d303a	-0.04618857
56	0xbc8f985f	-0.01752871
57	0x3de16211	0.11005033
58	0xbcff969f	-0.031199751
59	0x3dc1c794	0.09461895
60	0xbdd3f9ca	-0.10350378
61	0xbdafe4d3	-0.08588567
62	0xbdd82fc4	-0.105559856
63	0x3c4ad24c	0.01237924
64	0x3dafdc33	0.085869215
65	0x3e178aba	0.14799014
66	0xbdcdb6c4	-0.100446254
67	0x3dd3d074	0.10342494
68	0x3d048753	0.032355618
69	0x3e1b475b	0.15163939
70	0x3dbd88c9	0.09254605
71	0x3b9f86c3	0.00486836
72	0xbd962b7d	-0.073325135
73	0xbcf6f51e	-0.030146178
74	0xbd890793	-0.06690898
75	0x3e058ad4	0.1304124
76	0x3d472e3a	0.04862807
77	0xbdece825	-0.115677156
78	0xbdc04c9d	-0.09389613
79	0xbd7ca0db	-0.06167684
80	0x3cf92d61	0.030417146
81	0x3d2dc638	0.042425364
82	0x3da873a1	0.082251795
83	0x3de93a40	0.113880634
84	0x3d72a9af	0.059243854
85	0xbdccba39	-0.09996457
86	0x3e122426	0.14271602
87	0xbd90bd39	-0.07067341
88	0xbc8c7822	-0.017147128
89	0xbdbcbe71	-0.09216011
90	0xbdc0e298	-0.09418219
91	0x3d9432f6	0.072362825
92	0x3e032786	0.12808046
93	0x3c930afb	0.017949572
94	0xbd029128	-0.031876713
95	0xbe22c601	-0.15895845
96	0xbcfbeeb6	-0.030753475
97	0x3aa81a70	0.0012825262
98	0x3aef10d6	0.001823927
99	0x3b8a4d5d	0.004220648
100	0x3e46f4c7	0.19429313
101	0xbd9d72d7	-0.076879196
102	0x3e163ca4	0.1467157
103	0x3c451426	0.01202873
104	0x3d79710d	0.06089883
105	0x3dad3ba9	0.08458645
106	0xbe190cf1	-0.14946343
107	0xbdac9a3d	-0.08427856
108	0x3df16914	0.1178762
109	0xbe0c85b5	-0.1372288
110	0xbe1c119b	-0.15241091
111	0xbd87772d	-0.06614528
112	0x3e30daa7	0.17270909
113	0xbdcd4154	-0.10022226
114	0xbd917312	-0.07102026
115	0x3e263a1e	0.16233107
116	0xbd659044	-0.056045786
117	0xbbd4c5a1	-0.0064932858
118	0x3e0c354d	0.13692208
119	0xbd955d1d	-0.072931506
120	0x3e09d7c7	0.13461219
121	0x3d8df151	0.06930793
122	0xbca897fe	-0.020580288
123	0x3dc37046	0.09542899
124	0x3da67a22	0.08128764
125	0xbc2c6eae	-0.010524435
126	0x386e45c0	5.680858e-05
127	0x3d4638c2	0.048393972
128	0xbd6cf5bf	-0.05785155
129	0x3deb1051	0.114777215
130	0x3b8ee5b5	0.0043608793
131	0xbda5dcc2	-0.08098747
132	0x3d91166c	0.07084355
133	0xbd4ad39f	-0.049518224
134	0x3cdb4d80	0.026770353
135	0xbe3534f6	-0.17695984
136	0x3e1ab71c	0.15108913
137	0x3d5d8552	0.054082222
138	0x3dd15d1a	0.10222836
139	0xbe055712	-0.13021496
140	0xbda50ac2	-0.080586925
141	0x3d4a6a61	0.049417857
142	0xbd8e6a5c	-0.0695388
143	0x3c072c05	0.008250241
144	0x3cf954c1	0.030435922
145	0x3d8ced6c	0.06881222
146	0xbdd36cee	-0.10323511
147	0xbd9fb2be	-0.07797764
148	0x3e0e88b9	0.13919343
149	0xbde53c12	-0.11193098
150	0x3e3fb9e6	0.18723258
151	0x3d68b675	0.05681463
152	0xbd563af5	-0.05230232
153	0x3d1cf74a	0.03832177
154	0x3d02fc32	0.031978793
155	0xbe1f69d3	-0.15567712
156	0x3c9ba647	0.019000186
157	0xbe14c379	-0.14527692
158	0x3dce4628	0.10071975
159	0x3d2bcc86	0.041943096
160	0xbe3fbe59	-0.18724956
161	0xbe307b6d	-0.17234583
162	0x3e063d67	0.1310936
163	0x3d830032	0.06396522
164	0xbe00f680	-0.12594032
165	0x3d0cfddb	0.034421783
166	0x3e103461	0.14082481
167	0xbbbdf664	-0.0057971943
168	0xbdb29413	-0.08719649
169	0x3dd116a4	0.102093965
170	0x3e1cfa1b	0.15329783
171	0xbdfb3a4d	-0.12266979
172	0xbe18bafa	-0.14915076
173	0xbdeb8a42	-0.1150098
174	0xbdbbf2c8	-0.09177166
175	0x3c4edc5f	0.012625783
176	0x3dc9e464	0.09858015
177	0xbd04a061	-0.03237951
178	0x3de102e0	0.109868765
179	0x3c88091e	0.01660591
180	0x3d622641	0.055212263
181	0xbdd1a833	-0.102371596
182	0x3df5495a	0.11976881
183	0x3e333dea	0.17504087
184	0x3dc8b63b	0.09800383
185	0xbc906887	-0.017627968
186	0x3dddd906	0.108324096
187	0x3d062b0c	0.032755896
188	0xbdc05cca	-0.09392698
189	0x3ce5915d	0.028023416
190	0xbd9b697a	-0.075884774
191	0x3dafd8e5	0.08586291
192	0xbd652f0d	-0.055953074
193	0xbd8c7a87	-0.06859308
194	0x3d635170	0.055497587
195	0x3e273036	0.16326985
196	0xbe0ee0bd	-0.13952918
197	0xbde3ab3f	-0.11116647
198	0xbc40b909	-0.011762866
199	0xbbea5e09	-0.007152323
200	0x3d9fc1f0	0.078006625
201	0xbdd43c21	-0.10363031
202	0xbd721792	-0.05910451
203	0x3da92f6d	0.08260999
204	0x3d8e8963	0.06959798
205	0xbd8f3609	-0.06992728
206	0x3d1c7bf5	0.038204152
207	0xbdeba751	-0.115065224
208	0x3d555f9b	0.05209313
209	0x3df8d843	0.12150624
210	0xbc119a11	-0.00888683
211	0xbd26f21a	-0.04075823
212	0x3b506162	0.0031796326
213	0x3e0f4640	0.13991642
214	0xbdaed063	-0.0853584
215	0xbdae21df	-0.08502554
216	0x3d60b36b	0.054858606
217	0x3e0034f5	0.12520202
218	0x3dc01c0a	0.09380348
219	0xbd5d5e5c	-0.054045066
220	0xbe288018	-0.16455114
221	0x3d25d54b	0.040486615
222	0x3d0cf422	0.03441251
223	0xba8708f8	-0.0010302356
224	0xbe29c13f	-0.16577624
225	0xbe161515	-0.1465648
226	0xbda606e4	-0.08106783
227	0xbe29338b	-0.16523568
228	0xbe32d080	-0.17462349
229	0x3dd122f5	0.10211746
230	0xbe23c27f	-0.15992163
231	0x3d6f2ea4	0.05839409
232	0x3e13bceb	0.14427535
233	0x3d989d28	0.0745185
234	0xbba9b814	-0.0051794145
235	0xbdb9f174	-0.09079257
236	0x3de698cb	0.11259612
237	0x3e1aef72	0.15130404
238	0x3c04e3c6	0.008110946
239	0x3dd0d3c3	0.1019664
240	0xbe3d49f3	-0.1848524
241	0xbc700622	-0.0146499
242	0x3e03c264	0.12867123
243	0xbdfad275	-0.12247173
244	0xbdbb0858	-0.09132451
245	0x3d8898b5	0.066697516
246	0xbcb6a47d	-0.022295231
247	0x3e239d37	0.15977941
248	0xbdfadd33	-0.12249222
249	0x3d7c3784	0.06157638
250	0x3df96d4c	0.1217905
251	0x3de5a3c2	0.11212875
252	0x3bb98298	0.00566132
253	0x3e40648d	0.18788357
254	0x3e000ecc	0.12505645
255	0x3e15ece1	0.14641143

bias_ih_l0 f4 [120]
0	0x3c821a95	0.015881816
1	0x3e06d01e	0.13165328
2	0xbd225c49	-0.03963879
3	0x3ab80748	0.0014040256
4	0x3dcff2f0	0.101537585
5	0x3d22b99a	0.039727785
6	0xbe0cb893	-0.13742284
7	0xbdd6e3f9	-0.10492701
8	0xbe2b2804	-0.16714483
9	0xbd52bbca	-0.05144862
10	0xbb55d05a	-0.0032625408
11	0xbc43b029	-0.011943855
12	0xbd072285	-0.032991905
13	0xbd9d0dd7	-0.07668655
14	0x3dc61d16	0.096735165
15	0xbaf7a5ac	-0.0018893979
16	0x3c34931c	0.011021402
17	0x3de4cde4	0.11172083
18	0x3dd96b0c	0.10616121
19	0xbc627502	-0.013821842
20	0xbce97af8	-0.028501019
21	0x3ae29181	0.0017285795
22	0x3cfb8225	0.030701706
23	0xbdffb892	-0.12486376
24	0xbde1ff39	-0.11035008
25	0xbda8c247	-0.082401805
26	0x3de82f48	0.11337143
27	0x3ca0d31f	0.01963192
28	0x3d953034	0.07284585
29	0xbda09975	-0.078417696
30	0x3dc3e109	0.095644064
31	0xbe06ce46	-0.13164625
32	0x3b889d6c	0.004169157
33	0x3befb7c6	0.0073156087
34	0xbda3d187	-0.079989485
35	0xbdf6b13a	-0.12045522
36	0x3d242828	0.04007736
37	0xbd280e3d	-0.041029204
38	0xbd5bf844	-0.05370356
39	0xbdaedc0a	-0.08538063
40	0x3dd2ddf8	0.102962434
41	0xbd970429	-0.0737384
42	0x3dbc7735	0.092024244
43	0x3debefb7	0.11520331
44	0x3e07a908	0.13248074
45	0xbbb2cd29	-0.005456586
46	0x3dd7a5d9	0.1052968
47	0xbe0357a3	-0.128264
48	0x3caa33ad	0.020776594
49	0xbdc72de1	-0.097255476
50	0xbd3fe415	-0.046848375
51	0x3e269ff1	0.1627195
52	0xbdb359c8	-0.08757359
53	0x3e3ab943	0.18234734
54	0x3e2b54fd	0.16731639
55	0x3cd50a9c	0.026006036
56	0xbd3a5ccf	-0.045498665
57	0x3bf57a5d	0.0074913935
58	0x3e0e54cf	0.1389954
59	0xbb858234	-0.0040743593
60	0xbde45366	-0.111487195
61	0x3dacc4dd	0.08435986
62	0xba1c629b	-0.0005965621
63	0x3ddaaf48	0.106779635
64	0x3e065122	0.13116887
65	0xbc56cb60	-0.013110012
66	0x3cff502e	0.031166162
67	0xbd9e5bda	-0.07732363
68	0x3d8beed4	0.06832662
69	0xbd0bbf9d	-0.034118284
70	0xbd066583	-0.032811653
71	0xbd24afbf	-0.040206667
72	0x3df954fa	0.12174411
73	0x3d5796c1	0.052634005
74	0x3e238d83	0.15971951
75	0x3e42fbb2	0.19041327
76	0x3d8bd12c	0.06827006
77	0xbe08f881	-0.13376047
78	0x3d057998	0.032586664
79	0xbd424b4f	-0.0474351
80	0xbc741fd3	-0.014900166
81	0xbd4bf30f	-0.049792346
82	0x3d695a0b	0.056970637
83	0xbd02d9f0	-0.031946123
84	0x3d77eecf	0.06053048
85	0x3d595ddc	0.053068027
86	0x3de2f810	0.110824704
87	0xbdc2a3ad	-0.09503875
88	0x3de9e3ff	0.1142044
89	0xbd780f7f	-0.060561653
90	0xbd6e7ef5	-0.058226544
91	0x3e0ca345	0.13734157
92	0xbde5bf28	-0.11218101
93	0xbadb5818	-0.0016734628
94	0xbb776661	-0.0037750232
95	0xbdb46d01	-0.08809853
96	0xbc7bc122	-0.015365871
97	0xbc2aeda1	-0.010432632
98	0xbe04d697	-0.12972485
99	0xbbcdaaf6	-0.0062764836
100	0xbc12d6d6	-0.008962354
101	0xbcaf0d74	-0.02136872
102	0x3e1b6d69	0.15178455
103	0x3df4b68e	0.11948882
104	0xbd8f8edd	-0.07009671
105	0x3e02782c	0.12741154
106	0xbd2dc5f2	-0.042425103
107	0xbd00ec2c	-0.03147523
108	0x3d619736	0.055075847
109	0x3d877f55	0.066160835
110	0xbe0fcad5	-0.14042218
111	0x3cdaa1a8	0.026688412
112	0x3e160a9b	0.14652483
113	0xbcab66f9	-0.020923125
114	0x3ce3a356	0.027787846
115	0xbd9559fc	-0.07292554
116	0x3e0f66cc	0.14004058
117	0x3e1e20da	0.1544222
118	0x3d319bfd	0.043361653
119	0xbd2caae4	-0.04215516

bias_hh_l0 f4 [120]
0	0x3e28be42	0.16478828
1	0x3dc98102	0.098390594
2	0x3e2ee909	0.17081083
3	0xbd058559	-0.032597873
4	0x3e2c9fcf	0.16857837
5	0xbd2c25c5	-0.042028207
6	0x3a13e155	0.0005641182
7	0x3da48c89	0.080346175
8	0xbcda3630	-0.026637167
9	0xbde1bcd2	-0.11022343
10	0xbd07ea60	-0.0331825
11	0x3db5593e	0.08854912
12	0x3df4f154	0.11960092
13	0xbe320588	-0.17384923
14	0x3d7358c8	0.05941084
15	0x3db55a9d	0.08855174
16	0xbcdffc4b	-0.027341982
17	0xbdb03c16	-0.086052105
18	0xbdd8154d	-0.10550938
19	0x3e387997	0.18015133
20	0x3c5c3e3f	0.013442575
21	0xbdcf8ea0	-0.101346254
22	0x3dec2011	0.11529554
23	0x3c8b24e6	0.016985368
24	0x3c1e6df6	0.009669771
25	0xbda5a4b9	-0.08088059
26	0xbd8bdf98	-0.068297565
27	0x3d8f58cc	0.069993585
28	0x3dd4cacd	0.10390244
29	0xbd98ace5	-0.07454852
30	0xbcb13d28	-0.021635607
31	0xbd3aad25	-0.04557528
32	0x3cb81c8a	0.022474546
33	0xbe0e0207	-0.13867961
34	0xbe02a962	-0.12759927
35	0x3d3ef06a	0.046615995
36	0xbe0472bc	-0.12934393
37	0x3d35f9d7	0.04442772
38	0x3e1562d6	0.14588484
39	0x3dc4938c	0.09598455
40	0xbdfcd195	-0.12344662
41	0x3dd2a38b	0.102850996
42	0x3e1cabff	0.15299986
43	0xbd6e36d8	-0.05815777
44	0xbdd47505	-0.10373882
45	0x3e271365	0.16315992
46	0x3dd5dfa4	0.10443047
47	0xbdc4ad17	-0.09603327
48	0xbdc8dfa7	-0.09808283
49	0x3e2b7d43	0.16747002
50	0x3b96139e	0.0045799753
51	0xbe027f9f	-0.12743996
52	0x3de6a3bb	0.11261698
53	0x3a59e6b7	0.0008312272
54	0x3e07fbf9	0.13279714
55	0x3d96ec74	0.073693186
56	0xbde344d0	-0.11097109
57	0xbd8f3b4e	-0.06993733
58	0x3de91bd3	0.1138226
59	0x3e3a9611	0.18221308
60	0xbdc221f7	-0.094791345
61	0x3d9a57f6	0.075363085
62	0x3ce4fab5	0.027951578
63	0xbda6bff6	-0.081420824
64	0x3de9e46d	0.11420522
65	0x3d18c21d	0.037294496
66	0xbdc24f50	-0.09487784
67	0x3c7d4e26	0.015460527
68	0xbe052eb9	-0.13006105
69	0x3e2d70ac	0.16937512
70	0x3d7c57c3	0.061607134
71	0x3d8a1880	0.06742954
72	0xbdcb52fa	-0.09927936
73	0x3dd3c477	0.10340207
74	0x3d50fa75	0.051020104
75	0xbcb83c1e	-0.022489604
76	0x3d257fe2	0.04040516
77	0xbe124f8f	-0.14288162
78	0x3cd3eac1	0.025868775
79	0x3de09d78	0.10967535
80	0x3e40e30a	0.18836609
81	0x3cd46b0a	0.025929946
82	0x3d8d8043	0.069092296
83	0x3d65f1d7	0.05613884
84	0xbd8de18c	-0.06927785
85	0xbddef71b	-0.108869754
86	0xbda9cc78	-0.082909524
87	0xbd442ec1	-0.04789615
88	0x3e0c0e85	0.13677414
89	0x3d6a6447	0.05722454
90	0x3dceeb92	0.10103525
91	0xbe230afa	-0.15922156
92	0x3de5f67c	0.11228654
93	0xbd091a79	-0.033472512
94	0x3d7b54bb	0.061360102
95	0x3e14e947	0.14542113
96	0xbd604937	-0.054757323
97	0x3db2ff5e	0.08740114
98	0x3ddaea6a	0.10689242
99	0x3e0a3ad3	0.13499002
100	0x3dab7bc4	0.08373216
101	0xbd58d141	-0.052933935
102	0x3c7e06df	0.015504568
103	0xbda1bc85	-0.07897285
104	0x3d389fe1	0.045074347
105	0x3d775516	0.06038388
106	0x3c860b51	0.016362818
107	0x3d894924	0.067034036
108	0xbd25c53b	-0.040471297
109	0x3e168d50	0.14702344
110	0x3e12d865	0.1434036
111	0x3d57c517	0.052678194
112	0xbd21511a	-0.039383985
113	0x3dd9c638	0.1063351
114	0x3e066c5b	0.13127272
115	0x3dd98a69	0.10622103
116	0xbd8437c8	-0.06455952
117	0xbce7047d	-0.028200382
118	0xbce46116	-0.027878325
119	0xbe1390ce	-0.14410707

weight_ih_l1 f4 [120, 40]
0	0xbd8ce30f	-0.068792455
1	0x3e0daf37	0.1383637
2	0xbdc0aa1b	-0.09407445
3	0x3def7c15	0.11693589
4	0x3e2b001a	0.16699257
5	0x3d496c75	0.0491757
6	0x3d4e362b	0.050344627
7	0x3d13089f	0.035896894
8	0xbdbe8155	-0.09302012
9	0xbdb7f00f	-0.089813344
10	0x3de95688	0.11393458
11	0xbd038415	-0.032108385
12	0xbda9953c	-0.08280417
13	0xbca363cd	-0.01994505
14	0xbdf836d2	-0.12119831
15	0xbdd056bf	-0.101727955
16	0xbd24c315	-0.040225107
17	0x3c29c6ab	0.010362308
18	0xbde96023	-0.1139529
19	0x3db136de	0.08653043
20	0xbe2113d0	-0.15730214
21	0xbe1109eb	-0.1416394
22	0x3cef5ac0	0.029218078
23	0xbe13d5d8	-0.14437044
24	0x3e1058ef	0.14096425
25	0x3b89ad1a	0.0042015435
26	0x3d7ed2ae	0.06221264
27	0xbdbfec5a	-0.09371252
28	0xbdebf6c4	-0.11521676
29	0x3e1557f8	0.14584339
30	0xbd5cd49a	-0.05391369
31	0xbd4c9633	-0.04994793
32	0xbccf3a48	-0.025296345
33	0xbd54bec9	-0.05193976
34	0x3d825a98	0.06364936
35	0xbdb67852	-0.08909668
36	0x3decc3d7	0.11560791
37	0xbe100a8d	-0.14066525
38	0xbd6b1f8b	-0.05740313
39	0xbd7d3f33	-0.06182785
40	0xbe157d8d	-0.14598675
41	0xbdaa0eae	-0.08303581
42	0x3d9c82ae	0.07642113
43	0x3e02977a	0.12753096
44	0xbdd6cdd3	-0.104884766
45	0xbe30be7e	-0.17260167
46	0xbe0bda9c	-0.13657612
47	0xbe316916	-0.17325243
48	0x3e1bd0dc	0.15216392
49	0xbd974aff	-0.07387351
50	0x3dd3ab8a	0.10335453
51	0x3e0676b3	0.13131218
52	0x3ddafdb1	0.10692919
53	0xbe30b583	-0.17256741
54	0xbddada63	-0.10686185
55	0xbdab1444	-0.08353475
56	0x3e01c117	0.12671314
57	0xbda17c13	-0.078849934
58	0x3c3ce180	0.011528373
59	0xbb8c41c9	-0.004280303
60	0x3d9f6079	0.077820726
61	0xbddf08e3	-0.10890367
62	0xbd68a7d4	-0.05680068
63	0xbdb38ad2	-0.08766712
64	0x3d915c77	0.070977144
65	0x3d42aba2	0.047526963
66	0xba7dcef5	-0.0009682023
67	0x3d5abbd0	0.05340177
68	0xbe09a0d3	-0.13440256
69	0xbe03ce55	-0.12871678
70	0x3e093a63	0.13401179
71	0x3c19b45a	0.009381378
72	0x3df790fd	0.12088201
73	0xbde11821	-0.1099093
74	0x3c6d1b43	0.014471832
75	0x3c39a132	0.011329936
76	0xbd871fde	-0.06597875
77	0x3dd90bd3	0.105979584
78	0x3e1dda12	0.15415218
79	0xbce07c95	-0.027403155
80	0x3d8df83a	0.06932111
81	0x3e35ca5c	0.17752975
82	0x3e0e0caa	0.13872018
83	0xbdf25ea8	-0.118344605
84	0x3c4816ca	0.012212465
85	0xbd8fe03b	-0.070251904
86	0xbdd87461	-0.105690725
87	0x3de91d40	0.11382532
88	0xbd732459	-0.059360836
89	0xbdbea236	-0.09308283
90	0xbd65506a	-0.055984892
91	0xbde3b8c3	-0.11119225
92	0x3c1dbafa	0.009627098
93	0x3de7a8f5	0.11311523
94	0xbde336fc	-0.11094472
95	0x3dff43ea	0.124641255
96	0xbcad2b20	-0.021138728
97	0x3debad66	0.115076825
98	0x3e0ee290	0.13953614
99	0x3c864591	0.016390594
100	0x3e155b59	0.14585628
101	0x3b4b1715	0.00309891
102	0xbc456d2c	-0.012049954
103	0xbcfc2fc0	-0.030784488
104	0xbce3337e	-0.027734514
105	0x3da0d88f	0.07853805
106	0xbdfdc7df	-0.12391638
107	0x3e095ca8	0.13414252
108	0x3da0bb8c	0.07848272
109	0x3cc8bb7c	0.024503462
110	0x3d7e66ef	0.062109884
111	0xbd129ef6	-0.03579613
112	0x3d28527e	0.041094296
113	0xbdda7695	-0.10667149
114	0xbdae57b5	-0.085128225
115	0xbd1ac129	-0.037781868
116	0xbdf0b33c	-0.11752936
117	0xbd532d09	-0.05155662
118	0x3ded33fe	0.11582182
119	0xbdce179b	-0.10063096
120	0x3e1ec556	0.15504965
121	0x3d76e2ab	0.06027476
122	0x3e022b87	0.12711917
123	0xbdfbe253	-0.12299027
124	0x3db9ddb6	0.09075491
125	0x3df7de15	0.12102906
126	0xbdfc59f0	-0.12321842
127	0x3c2c3e37	0.01051288
128	0xbca87ae9	-0.02056642
129	0x3d6dd29d	0.058062185
130	0xbd9768ca	-0.07393034
131	0x3e22195b	0.15829985
132	0xbc256af8	-0.010096304
133	0x3e17d278	0.14826381
134	0xbdd9269f	-0.106030695
135	0xbdcfb36e	-0.10141645
136	0xbdef0af2	-0.116720095
137	0x3deb2090	0.1148082
138	0xbdf206d0	-0.11817706
139	0x3e27d6e3	0.16390567
140	0xbd8aa66f	-0.06770026
141	0xbd98d9b0	-0.074633956
142	0xbd83b7fa	-0.06431575
143	0xbd624264	-0.055239096
144	0x3c8c272b	0.01710852
145	0xbd6a6e1e	-0.057233922
146	0x3e15458a	0.14577308
147	0x3dd2c463	0.10291364
148	0xbdbafe25	-0.091305055
149	0xbd9d86b1	-0.07691706
150	0x3d32f6ae	0.043692283
151	0x3e015b3d	0.12632461
152	0x3dd2e3f9	0.102973886
153	0x3d9f5f4f	0.077818505
154	0x3c9ca304	0.0191207
155	0xbe12ed58	-0.14348352
156	0xbb3c6feb	-0.0028753232
157	0xbdf99c82	-0.121880546
158	0xbc841233	-0.01612196
159	0xbe1670af	-0.14691423
160	0x3d3b35a6	0.04570546
161	0xbd25c3ba	-0.040469863
162	0x3dac20f0	0.0840472
163	0xbe1637bc	-0.14669698
164	0x3d97c77e	0.07411097
165	0xbd84c9f2	-0.064838305
166	0x3dabf251	0.083958276
167	0xbd9034f1	-0.07041348
168	0x3db4cf4d	0.08828602
169	0x3da8e36f	0.082465045
170	0x3d96e5e8	0.0736807
171	0x3bf861e3	0.0075800284
172	0x3d815f66	0.06317024
173	0xbd4219ae	-0.04738777
174	0xbccf9044	-0.025337346
175	0x3e405acc	0.18784636
176	0x3dbbb706	0.09165768
177	0x3d812bb2	0.06307162
178	0xbbda0862	-0.0066538313
179	0xbe0e9d67	-0.13927232
180	0x3e0462b4	0.12928277
181	0x3d03293e	0.032021753
182	0x3e03fa0c	0.12888354
183	0xbb571c3c	-0.0032823225
184	0x3d637020	0.055526853
185	0xbe10cd13	-0.1414073
186	0xbd940c95	-0.07228962
187	0x3ddd4e01	0.10805894
188	0xbd98323e	-0.07431458
189	0xbd2f5aec	-0.04281132
190	0x3d86a25b	0.065739356
191	0x3c5578e8	0.013029315
192	0x3df8b579	0.12143988
193	0x3e3b45cd	0.18288346
194	0xbc70c18f	-0.014694585
195	0x3e11b9da	0.14231053
196	0x3e034f22	0.12823156
197	0x3d3214b6	0.043476783
198	0x3db11f57	0.08648556
199	0x3cc69aa6	0.024243664
200	0xbe09871b	-0.13430445
201	0x3dea1200	0.114292145
202	0xbd871747	-0.06596237
203	0x3c80b6b5	0.015712122
204	0x3dcfcf47	0.10146957
205	0xbdb0dd9f	-0.08636021
206	0xbe2aa8dc	-0.16665977
207	0x3cb24344	0.02176059
208	0xbd4b9d12	-0.04971034
209	0x3d919a54	0.07109514
210	0x3d34ebc3	0.044170152
211	0xbdcaef47	-0.0990892
212	0xbd8b0251	-0.06787551
213	0x3da1c022	0.078979746
214	0x3e3280c4	0.17431933
215	0x3d69ebe5	0.057109732
216	0xbd4f11a9	-0.05055395
217	0x3d305be2	0.043056376
218	0xbddc0caf	-0.10744607
219	0xbc9d0aed	-0.019170249
220	0xbe314ed4	-0.17315227
221	0x3d1b46f4	0.037909463
222	0xbdd77062	-0.10519482
223	0xbe47ed1d	-0.19524045
224	0xbe2f096d	-0.1709344
225	0x3d9546d4	0.072889
226	0xbca69161	-0.020332994
227	0x3d213f89	0.039367232
228	0x3e0ea245	0.13929088
229	0x3c3b466f	0.011430367
230	0x3d9f28c0	0.07771444
231	0xbcaa9ed8	-0.020827696
232	0xbd27dda4	-0.040982857
233	0x3df6d906	0.12053113
234	0x3d3b1e42	0.045683153
235	0xbde163ee	-0.11005388
236	0xbcd918a1	-0.026501002
237	0x3e1b2103	0.15149312
238	0xbd24a03e	-0.04019188
239	0xbe1e6afa	-0.15470496
240	0x3affdab5	0.0019520136
241	0xbdbb4aa3	-0.09145095
242	0x3db78034	0.0896
243	0x3dea0f02	0.11428644
244	0xbd986a24	-0.0744212
245	0xbe3908fe	-0.18069836
246	0x3e052b94	0.13004905
247	0x3e1117cf	0.14169239
248	0xbd4de112	-0.050263472
249	0xbe07de1d	-0.13268323
250	0x3dd9fa6f	0.106434695
251	0x3d9b49ee	0.0758246
252	0xbd22de9c	-0.039763078
253	0x3e34ef78	0.17669475
254	0xbc8eb56b	-0.017420491
255	0x3c6e0ec8	0.014529891

weight_hh_l1 f4 [120, 40]
0	0xbd29b059	-0.041427944
1	0x3d13108a	0.035904445
2	0xbda46945	-0.08027891
3	0xbc447998	-0.011991881
4	0xbdec2333	-0.11530151
5	0x3d8587e2	0.06520058
6	0xbd61cfc2	-0.055129774
7	0xbd67e61b	-0.05661593
8	0x3df6af73	0.12045183
9	0xbc9af1c6	-0.018914115
10	0xbba06738	-0.004895117
11	0x3dca7b12	0.09886755
12	0x3da17f7f	0.07885646
13	0x3d472ef0	0.048628747
14	0x3dc01b06	0.09380154
15	0x3d808a3f	0.06276368
16	0xbd275e0a	-0.040861167
17	0xbd57d3b5	-0.052692134
18	0xbd833dab	-0.064082466
19	0xbcb81e62	-0.022475425
20	0xbe3ea9b5	-0.18619426
21	0xbd4f2615	-0.050573427
22	0x3e23ab07	0.1598321
23	0x3e1bee62	0.15227655
24	0xbdd2fc58	-0.10302037
25	0xbe33d95a	-0.17563382
26	0x3e063eb7	0.13109861
27	0xbdd2c36f	-0.10291182
28	0xbd853290	-0.06503785
29	0xbe0ece7c	-0.13945955
30	0x3d8fee57	0.070278816
31	0x3e19129f	0.1494851
32	0xbd846363	-0.06464269
33	0xbd09f049	-0.03367642
34	0xbde6a9e9	-0.112628765
35	0x3e30c7fa	0.17263785
36	0x3d4cb6b0	0.049978912
37	0xbd35f2a8	-0.04442087
38	0xbcaee3d2	-0.021348868
39	0xbd949097	-0.07254141
40	0xbbbe2ad8	-0.005803447
41	0xbd94028c	-0.07227048
42	0xbdedc2dd	-0.11609433
43	0xbd1d6c84	-0.038433567
44	0xbd162056	-0.03665193
45	0xbcb88d98	-0.022528455
46	0xbd237e92	-0.03991563
47	0xbdc58cdb	-0.09646007
48	0xbd62efb5	-0.055404384
49	0x3e11aaf2	0.14225367
50	0x3c26a782	0.010171773
51	0xbd991d3e	-0.07476281
52	0x3d99d502	0.07511331
53	0x3d838636	0.06422083
54	0x3d99695a	0.07490797
55	0xbe03d88d	-0.12875576
56	0xbe04b15d	-0.12958284
57	0xbe00630f	-0.12537788
58	0x3c42e202	0.011894705
59	0xbdcfa44b	-0.10138758
60	0xbe015c62	-0.12632897
61	0xbb9f9636	-0.0048702015
62	0xbd916af5	-0.071004786
63	0xbdd56672	-0.104199305
64	0xbd9da7ec	-0.07698044
65	0xbce0fdd8	-0.027464792
66	0x3d768f7c	0.06019543
67	0xbde8a457	-0.1135947
68	0xbd5d894a	-0.054086007
69	0x3e102f3e	0.14080521
70	0xbd80111d	-0.06253264
71	0x3b862856	0.004094164
72	0x3c7a1afd	0.015265224
73	0x3e0af0bc	0.13568395
74	0x3da611c5	0.08108858
75	0x3c445651	0.01198347
76	0xbe2bb208	-0.16767132
77	0x3dd75223	0.10513713
78	0x3d436c54	0.04771073
79	0xbd52d31f	-0.051470872
80	0xbdad5f15	-0.08465401
81	0xbe141626	-0.14461574
82	0xbae21f1e	-0.0017251705
83	0xbd6a3a51	-0.05718452
84	0x3d9177aa	0.07102902
85	0xbe2e43e7	-0.1701809
86	0x3e097e60	0.13427114
87	0x3d672e50	0.05644065
88	0x3c0ed1b4	0.008716989
89	0xbe0c5a94	-0.13706428
90	0x3d6376bd	0.05553316
91	0xbdd10130	-0.102053046
92	0xbc9ff900	-0.019527912
93	0xbe26a992	-0.16275623
94	0x3da6efc8	0.081512034
95	0xbe12ad09	-0.1432382
96	0xbe3aead2	-0.1825364
97	0xbd124b5d	-0.035716403
98	0xbd1ddeb7	-0.038542476
99	0x3bc5d4a8	0.0060373135
100	0x3dbfaba2	0.09358908
101	0x3d2d3d38	0.04229471
102	0xbdbc8c04	-0.09206393
103	0xbdd60f49	-0.10452134
104	0xbdf136ea	-0.11778052
105	0xbd833655	-0.064068474
106	0x3d817ed5	0.063230194
107	0xbdf02416	-0.11725633
108	0x3c9b2b46	0.018941533
109	0x3cd1c977	0.025608761
110	0xbdd053fb	-0.10172268
111	0x3d2c3b0b	0.042048495
112	0x3dc9ee21	0.098598726
113	0x3d2121bd	0.039338816
114	0xbe1cc363	-0.15308909
115	0xbe0734a9	-0.13203682
116	0xbd23ba5e	-0.039972655
117	0x38a94ab0	8.0724596e-05
118	0x3d4dc396	0.050235353
119	0xbe11ce0c	-0.14238757
120	0xbe2ddca1	-0.16978694
121	0x3c3b7ebd	0.011443791
122	0x3d2362a4	0.039888993
123	0xbd79750c	-0.06090264
124	0xbdba87b8	-0.091079175
125	0x3db19cc9	0.086724825
126	0xbdb0fa25	-0.08641461
127	0x3bb343e5	0.00547074
128	0x3bb9282c	0.005650541
129	0xbd92cbbd	-0.07167766
130	0xbd3b5c8e	-0.045742564
131	0x3e093153	0.13397722
132	0x3e07f2b1	0.13276173
133	0xbddfe28a	-0.10931881
134	0xbe3e0bea	-0.18559232
135	0xbd979685	-0.07401756
136	0x3d440f7d	0.047866333
137	0x3c8333fa	0.016015995
138	0xbc93cbd5	-0.01804153
139	0xbdc7de28	-0.0975917
140	0x3ca06cc9	0.019583123
141	0x3d89a2bc	0.06720492
142	0xbdd1057a	-0.10206123
143	0x3d3e62dc	0.046481
144	0x3c43c19c	0.011948016
145	0x3deda4dc	0.1160371
146	0xbd1aa735	-0.037757117
147	0xbd2cff72	-0.0422358
148	0x3ddd497f	0.10805034
149	0x3d20a23f	0.03921723
150	0xbe0250d4	-0.12726146
151	0x3d82a553	0.06379189
152	0x3ab122d6	0.001351441
153	0x3d8ff76e	0.07029615
154	0xbdd23198	-0.102633655
155	0xbdb055e5	-0.08610133
156	0xbdc21368	-0.09476358
157	0xbd2b7990	-0.041863978
158	0xbe0ade98	-0.13561475
159	0x3e037b7c	0.12840074
160	0xbdec92ef	-0.11551463
161	0xbcc61a98	-0.024182603
162	0xbdc18fce	-0.09451257
163	0xbd01aa77	-0.03165671
164	0x3d606256	0.05478128
165	0xbde3ce2e	-0.1112331
166	0x3d132ef9	0.03593347
167	0x3db2d035	0.087311186
168	0xbdd48867	-0.10377579
169	0x3d146227	0.036226418
170	0xbd9f17d0	-0.07768214
171	0x3b6023e2	0.0034201075
172	0x3d16a98e	0.036782794
173	0x3c36e4b1	0.011162923
174	0xbbfb1b26	-0.0076631485
175	0x3cbe240e	0.023210552
176	0x3de0f013	0.109832905
177	0xbdaac7d4	-0.083388954
178	0x3c369ab7	0.011145285
179	0xbded1f6f	-0.11578261
180	0x3d087199	0.03331146
181	0xbdde1e95	-0.10845677
182	0xbd75ac81	-0.059978966
183	0xbe0ecec4	-0.13946062
184	0xbca75e13	-0.0204306
185	0xbdb9233b	-0.09039923
186	0x3c6fc969	0.014635422
187	0x3d0de902	0.03464604
188	0x3dd2e673	0.10297861
189	0x3d65ea8c	0.056131884
190	0xbe0d8f92	-0.13824299
191	0xbe012cd5	-0.12614758
192	0x3dc88ac0	0.097920895
193	0xbbbcc89c	-0.005761219
194	0x3d8b0263	0.067875646
195	0xbb8935fd	-0.004187344
196	0xbd20956a	-0.039204992
197	0xbd8347ba	-0.06410165
198	0x3d88ba3a	0.06676145
199	0x3d25a4da	0.040440418
200	0xbe07235b	-0.13197081
201	0xbdedab4e	-0.116049394
202	0xbde9705a	-0.113983825
203	0xbd6fdae8	-0.058558375
204	0xbd8c256f	-0.068430774
205	0x3ddad7c6	0.10685687
206	0xbd7fcef2	-0.062453218
207	0x3d15d41d	0.03657924
208	0xbe2ed754	-0.17074329
209	0xbd9e6286	-0.077336356
210	0x3d06138d	0.03273349
211	0xbe0a04c0	-0.13478374
212	0x3daaaa89	0.08333308
213	0x3d2e3bae	0.042537384
214	0xbe00e09c	-0.12585682
215	0xbdcc3cc9	-0.09972531
216	0xbd09647a	-0.033543088
217	0xbd02af86	-0.031905673
218	0xbc27ac1f	-0.010233908
219	0x3e1f85e0	0.15578413
220	0xbca8c98b	-0.020603916
221	0x3e01dc2f	0.1268165
222	0x3d02b89a	0.03191433
223	0x3e206367	0.15662919
224	0x3e37ec5f	0.17961262
225	0xbd58952b	-0.052876633
226	0x3e19b1cb	0.15009229
227	0x3e0aa558	0.13539636
228	0x3c9db3cd	0.019250775
229	0x3e10ef88	0.14153874
230	0xbe0f18e2	-0.13974336
231	0x3e1a4dee	0.1506879
232	0xbd547f9d	-0.051879514
233	0x3c7c5ad2	0.015402513
234	0x3de247da	0.11048861
235	0x3df6d360	0.12052035
236	0x3dc02cab	0.0938352
237	0x3e010a24	0.12601525
238	0x3c4fbab0	0.012678787
239	0x3e40e843	0.18838601
240	0xbc1d6776	-0.009607187
241	0xbdc987d8	-0.09840363
242	0xbe0a8ccf	-0.13530277
243	0x3d90682e	0.07051121
244	0x3e0ea417	0.13929783
245	0xbe26b86b	-0.16281287
246	0xbd187508	-0.037220985
247	0x3e115f4f	0.14196514
248	0xbcba1f94	-0.022720136
249	0x3d7c3eee	0.061583452
250	0xbe231746	-0.15926847
251	0x3e169f23	0.14709143
252	0x3e1435b3	0.1447361
253	0x3e03496e	0.1282098
254	0xbe0db6f7	-0.13839327
255	0x3de1a101	0.11017037

bias_ih_l1 f4 [120]
0	0x3db8b177	0.09018224
1	0xbdd1a5c9	-0.10236699
2	0x3d531f4f	0.05154353
3	0x3db09096	0.086213276
4	0x3d5d1eef	0.05398458
5	0x3e020b5c	0.12699646
6	0xbde6eb56	-0.112753555
7	0x3e16adcb	0.14714734
8	0xbe2ab08a	-0.16668907
9	0x3dd17876	0.10228054
10	0x3de076a9	0.10960133
11	0x3d943ef3	0.07238569
12	0xbd1ab0ed	-0.037766386
13	0xbd4e1d0f	-0.05032068
14	0x3e1907ef	0.14944433
15	0x3d67fada	0.056635715
16	0xbd0574fd	-0.03258227
17	0x3dd63e2d	0.10461078
18	0x3e2f6218	0.17127264
19	0xbd24d8ce	-0.040245824
20	0xbda36963	-0.07979085
21	0x3e228d73	0.15874271
22	0xbc23e234	-0.0100026615
23	0x3d48103b	0.048843604
24	0xbe0d5dd4	-0.13805324
25	0x3e17019f	0.14746712
26	0xbe005874	-0.12533742
27	0x3d5cd7c4	0.053916708
28	0xbe0d0275	-0.13770469
29	0x3d98d413	0.07462325
30	0xbd4607ad	-0.048347164
31	0x3dbd9695	0.09257237
32	0x3d4f3911	0.050591532
33	0xbc406c0c	-0.01174451
34	0x3df56bde	0.11983465
35	0xbc9d98f7	-0.019237978
36	0xbd61cd9d	-0.05512773
37	0x3d947e4d	0.072506525
38	0x3dd43e35	0.103634275
39	0xbd890b79	-0.06691641
40	0xbdc0db42	-0.0941682
41	0xbdbf8254	-0.0935103
42	0x3dbd06ba	0.092297986
43	0x3e491244	0.19635874
44	0x3de05f90	0.10955727
45	0x3d89c40b	0.06726845
46	0xbc81b312	-0.015832458
47	0xbd8d33f7	-0.06894677
48	0xbc8be9da	-0.017079283
49	0xbdef65f6	-0.116893694
50	0x3e0c883c	0.13723844
51	0xbd234ef4	-0.039870217
52	0xbdc12393	-0.09430613
53	0xbdb63754	-0.08897272
54	0x3d8ef7bd	0.06980846
55	0xbd8c7db1	-0.06859911
56	0x3de3b110	0.11117756
57	0x3af641d4	0.0018787929
58	0x3e1e5e42	0.15465644
59	0x3dda0a04	0.106464416
60	0x3e3d7e84	0.18505293
61	0xbd04e106	-0.03244116
62	0xbdafa2a2	-0.085759416
63	0x3d5ccd32	0.053906627
64	0x3e1a2eae	0.1505687
65	0x3d1353aa	0.03596846
66	0x3c431de7	0.011908985
67	0x3e03e68f	0.1288092
68	0xbdcd1e68	-0.10015565
69	0x3c709349	0.014683553
70	0xbdc1171d	-0.09428237
71	0xbd820b70	-0.06349838
72	0x3d7c928c	0.061663195
73	0xbc997757	-0.018733663
74	0xbd1c6fb7	-0.038192477
75	0xbc2d12ba	-0.010563547
76	0xbe02abef	-0.127609
77	0xbdb139c5	-0.08653597
78	0x3d31c5df	0.043401595
79	0xbe2b6a67	-0.16739808
80	0xbdfc8012	-0.12329115
81	0x3e27daea	0.16392103
82	0x3dc247df	0.094863646
83	0xbddbe076	-0.10736172
84	0x3dec2805	0.115310706
85	0x3d86366f	0.06553351
86	0x3da870de	0.08224653
87	0xbd9c4f14	-0.076322705
88	0xbd9f51d2	-0.07779278
89	0x3ddd0368	0.10791665
90	0x3d75a53f	0.059972044
91	0x3d95a3c6	0.07306628
92	0x3e2f5f03	0.17126088
93	0xbd261868	-0.04055062
94	0x3e0bfeb2	0.13671377
95	0xbd957708	-0.07298094
96	0xbdb95065	-0.09048537
97	0xbc00248c	-0.007821213
98	0x3cd1efb7	0.025627
99	0xbe181fb6	-0.14855847
100	0x3ce1cb56	0.027562778
101	0x3d47767e	0.048696987
102	0x3e2ac2a9	0.1667582
103	0x3dc92812	0.09822096
104	0x3e00c359	0.12574519
105	0xbc22a377	-0.009926668
106	0xbdeef58e	-0.116679296
107	0xbdd67755	-0.104719795
108	0x3d78f335	0.060778815
109	0x3e0d12ae	0.13776657
110	0xbdf8d4e1	-0.121499784
111	0x3d60d127	0.054886963
112	0x3d35fd25	0.04443087
113	0xbe269821	-0.1626897
114	0x3e1a0f4a	0.15044895
115	0x3d98406f	0.07434165
116	0x3bcfd9df	0.006343111
117	0x3d38dcb9	0.045132373
118	0x3c36a4d5	0.011147697
119	0x3e01e87f	0.12686346

bias_hh_l1 f4 [120]
0	0x3d8db4c3	0.06919243
1	0xbdbf6f66	-0.093474194
2	0x3d13707d	0.03599595
3	0x3db48747	0.088148646
4	0x3de42b1b	0.11141034
5	0xbb356812	-0.002768044
6	0x3dcc898c	0.099871725
7	0xbdb9426a	-0.090458706
8	0xbe02ce88	-0.12774098
9	0xbdeb34d2	-0.11484684
10	0x3c97490d	0.01846745
11	0xbcba1758	-0.02271621
12	0xbd73b356	-0.0594972
13	0xbd1674c5	-0.036732454
14	0x3e1e6b6c	0.15470666
15	0x3db6bf08	0.08923155
16	0x3dec2f6d	0.11532483
17	0x3e381575	0.17976935
18	0x3e0943f1	0.13404824
19	0xbdc0ac69	-0.09407885
20	0xbd9aa07b	-0.075501405
21	0x3cab0e3d	0.020880813
22	0xbdbf61a0	-0.09344792
23	0xbd3ba7c0	-0.045814276
24	0xbd029fe7	-0.031890776
25	0x3d38d40a	0.04512409
26	0x3de358a3	0.111008905
27	0x3ddc03c1	0.107429035
28	0x3d0856d5	0.033285934
29	0xbd59ac36	-0.05314275
30	0x3db586b2	0.08863582
31	0x3d754f49	0.059890065
32	0x3d233559	0.0398458
33	0xbd90bc8e	-0.07067214
34	0xbdd1927e	-0.10233019
35	0xbdc36ff5	-0.095428385
36	0xbe0b52fd	-0.13605876
37	0x3c9b05dd	0.018923694
38	0x3d378142	0.044801004
39	0x3e090d7f	0.13384055
40	0x3e0c1ebf	0.13683604
41	0x3e1308ee	0.14358875
42	0xbdc9f116	-0.098604366
43	0x3e0b5893	0.13608007
44	0x3d66051c	0.056157216
45	0x3e11b185	0.14227875
46	0xbd59808c	-0.053101107
47	0x3e30f8df	0.17282437
48	0x3e233eab	0.15941875
49	0x3cc3445d	0.02383631
50	0x3dcd4e1f	0.10024666
51	0x3b83a02f	0.004016898
52	0xbcd7aa16	-0.02632622
53	0xbdd3aa9b	-0.10335275
54	0xbe13ce1c	-0.14434093
55	0xbdaccf64	-0.08437994
56	0xbd5b64a0	-0.05356276
57	0x3dbc2750	0.09187186
58	0xbcd94948	-0.026524201
59	0x3e14798c	0.14499491
60	0x3e2a466e	0.1662843
61	0x3d9307eb	0.071792446
62	0x3d3b4b69	0.045726214
63	0x3dd3060f	0.1030389
64	0xbe24b549	-0.1608478
65	0x3dbe1514	0.09281364
66	0xbcb91242	-0.022591714
67	0x3e42be17	0.19017826
68	0x3d469c68	0.048489004
69	0xbd960d89	-0.073268004
70	0xbdde018a	-0.10840137
71	0x3d940ae4	0.0722864
72	0x3d954b26	0.07289724
73	0x3bd040c0	0.006355375
74	0x3dea1719	0.11430187
75	0xbd34a3a9	-0.04410139
76	0xbd941559	-0.07230634
77	0x3d48ba91	0.04900605
78	0xbc76e89e	-0.015070109
79	0x3cfdb477	0.030969841
80	0x3db71dd4	0.08941236
81	0x3e02a3fa	0.12757865
82	0x3bb76c9d	0.0055976645
83	0xbde4c9d3	-0.111713074
84	0x3adacfc6	0.0016694001
85	0x3ca2529e	0.019814786
86	0x3de9d4c1	0.11417533
87	0xbdae9196	-0.08523862
88	0xbbd6e5be	-0.006558149
89	0xbe0b52a5	-0.13605745
90	0x3d20c214	0.039247587
91	0x3d755637	0.059896674
92	0xbcb17a8b	-0.021664878
93	0xbd87874b	-0.06617602
94	0xbe02e9bd	-0.12784477
95	0xbc39524a	-0.011311123
96	0x3e1d6e9c	0.15374225
97	0x3d70d0b2	0.058792777
98	0xbdde5461	-0.10855938
99	0x3d87d19d	0.066317774
100	0xbbe1d030	-0.006891273
101	0xbd1a3afa	-0.0376539
102	0x3e35d3eb	0.17756622
103	0x3d914fc3	0.070952915
104	0xbdd1de24	-0.10247448
105	0xbd354f1b	-0.044264894
106	0x3deb9812	0.115036145
107	0xbe05d77a	-0.13070479
108	0xbe139862	-0.14413598
109	0xbd52f012	-0.05149848
110	0x3db4c896	0.08827321
111	0x3da8d898	0.08244437
112	0xbe012542	-0.12611869
113	0xbe298d1e	-0.16557738
114	0xbd5f1aee	-0.05446904
115	0x3df6ddec	0.12054047
116	0xbe152f53	-0.14568834
117	0xbdaa2f68	-0.08309823
118	0x3d5e0095	0.054199774
119	0x3e04b7c6	0.12960729

weight f4 [40, 40]
0	0xbda33b02	-0.07970239
1	0x3d91fb08	0.071279585
2	0xbda4f4f4	-0.080545336
3	0xbd9e54cf	-0.0773102
4	0xbdec512f	-0.11538922
5	0x3d9420cb	0.07232817
6	0xbde54b8d	-0.11196051
7	0x3da04c77	0.078270845
8	0x3d9da2b8	0.07697052
9	0xbdc41d33	-0.09575882
10	0xbd481b65	-0.04885425
11	0x3dd54efb	0.10415455
12	0xbde085c7	-0.10963016
13	0xbbedeedc	-0.0072611403
14	0xbdfd427c	-0.123661965
15	0xbdc330cc	-0.09530792
16	0x3da3fc36	0.0800709
17	0x3df31656	0.118694946
18	0xbdcefa9f	-0.10106396
19	0x3da7137c	0.08158013
20	0xbdba442e	-0.090950355
21	0x3d8349db	0.06410571
22	0x3d1b66a7	0.037939694
23	0x3e106aaa	0.14103189
24	0x3daa2aab	0.083089195
25	0xbe06fc0e	-0.13182089
26	0x3db5dc7d	0.088799454
27	0xbdf0b09c	-0.117524356
28	0xbcd92e0a	-0.026511211
29	0x3e0fc6dc	0.14040703
30	0xbe061671	-0.13094498
31	0x3d04f71b	0.03246222
32	0x3d2f4904	0.042794243
33	0x3d0a5d9d	0.033780683
34	0x3d4d4f4e	0.05012446
35	0x3e10b4e3	0.14131503
36	0xbe062181	-0.13098718
37	0x3dc8f12a	0.098116234
38	0xbdc2a04d	-0.09503231
39	0x3e2bbebb	0.16771977
40	0x3d91a666	0.07111816
41	0x3dc1216a	0.09430201
42	0xbcd107bd	-0.025516385
43	0xbdf1cef1	-0.11807049
44	0xbdc61292	-0.09671511
45	0xbda66e3b	-0.081264935
46	0x3e03d74c	0.12875098
47	0x3e2a7d8a	0.16649452
48	0x3e198b36	0.14994511
49	0xbd6853ef	-0.05672067
50	0xbe0cf31b	-0.13764612
51	0xbe166aa5	-0.14689119
52	0x3cf38e7e	0.029731032
53	0x3db4684c	0.088089556
54	0xbd25818c	-0.04040675
55	0xbdb9277f	-0.090407364
56	0xbc82767d	-0.01592564
57	0xbd49ff7c	-0.049315915
58	0xbdd54466	-0.104134366
59	0x3d89dbd3	0.06731381
60	0x3d26a866	0.04068794
61	0xbe30100d	-0.17193623
62	0xbd9ec4c5	-0.077523746
63	0x3dc21d8d	0.094782926
64	0xbdca345f	-0.0987327
65	0x3c709f1c	0.014686372
66	0xbd043a29	-0.03228203
67	0x3ccc375c	0.024928741
68	0xbdf6233c	-0.12018439
69	0xbddfdbe6	-0.10930614
70	0x3e1319fd	0.14365382
71	0xbdd0e842	-0.1020055
72	0x3dfabad0	0.12242663
73	0x3dbf27f7	0.093337946
74	0xbe1cadb7	-0.15300642
75	0xbe2f24cc	-0.1710388
76	0xbc65c9a0	-0.014025122
77	0x3ded8907	0.115984015
78	0x3e132597	0.14369808
79	0xbbcaf2b8	-0.006193485
80	0xbda2e12a	-0.07953103
81	0x3e0096d9	0.12557544
82	0x3df7ad98	0.12093657
83	0xbe05a4ab	-0.13051097
84	0x3e0b5895	0.1360801
85	0x3d3d6634	0.046240047
86	0x3d27a3b8	0.04092762
87	0xbddb1377	-0.10697072
88	0x3dbb6e47	0.09151893
89	0x3c079729	0.0082757855
90	0x3d82dc12	0.06389631
91	0xbd327faf	-0.0435788
92	0x3e2c4e33	0.16826706
93	0x3dcf5293	0.10123172
94	0x3d617cf4	0.055050805
95	0x3d183da8	0.037168175
96	0xbde3e371	-0.111273654
97	0xbb719cfa	-0.0036867247
98	0xbdfb0b61	-0.1225803
99	0xbd49d1e6	-0.04927244
100	0xbdf958cc	-0.1217514
101	0xbdfd67ac	-0.123732895
102	0xbca4bc2c	-0.020109259
103	0x3e3ed356	0.18635306
104	0xbd8709c5	-0.0659366
105	0xbd9ff4ed	-0.07810388
106	0x3e2a13a4	0.16609055
107	0xbdcf5b18	-0.10124797
108	0xbdf9050a	-0.12159164
109	0xbb2335a5	-0.00249038
110	0xbd6ef6a5	-0.058340687
111	0x3d93bdbf	0.072139256
112	0xbc9a00f6	-0.018799286
113	0x3d0703eb	0.03296272
114	0x3dd04012	0.101684704
115	0x3d92494d	0.07142887
116	0x3db3c0c9	0.08777005
117	0xbcd98370	-0.026551932
118	0x3e0dca6a	0.13846746
119	0x3db37013	0.08761611
120	0x3dfd4ece	0.123685464
121	0xbceb5685	-0.02872778
122	0xbcbfe31d	-0.023423726
123	0x3bf29b1b	0.007403744
124	0xbdd65b6e	-0.104666576
125	0x3e02ca8f	0.12772582
126	0xbb6d7701	-0.0036234262
127	0xbdc40929	-0.0957206
128	0xbd00db08	-0.031458884
129	0xbd7e522c	-0.062090084
130	0x3d0aac90	0.033855975
131	0x3d8a0336	0.06738894
132	0x3e020d96	0.12700495
133	0x3e2fa89d	0.17154165
134	0x3e048480	0.1294117
135	0xbd58dc66	-0.052944563
136	0x3e1105ed	0.14162417
137	0x3c60ffe5	0.013732885
138	0xbd5a2d1e	-0.053265683
139	0xbdc7fc8c	-0.09764966
140	0xbb861cec	-0.004092803
141	0xbbd30623	-0.0064399405
142	0xbb4e44cf	-0.0031474119
143	0xbdd5f0a9	-0.10446293
144	0xbe184ec4	-0.14873797
145	0xbd91f969	-0.07127649
146	0x3daf007b	0.085450135
147	0x3de69d26	0.112604424
148	0x3dcafbab	0.09911283
149	0x3db0fd14	0.08642021
150	0x3e232ba3	0.15934615
151	0xbdfbc8a2	-0.12294127
152	0xbc0c979b	-0.008581067
153	0x3d26aec5	0.040694017
154	0xbd29ccba	-0.041455008
155	0xbe060e1a	-0.13091317
156	0xbe040c46	-0.12895307
157	0xbdcd5419	-0.10025806
158	0x3dab2e90	0.083584905
159	0x3dafbede	0.08581327
160	0x3e43c6d5	0.19118817
161	0x3de4f827	0.11180144
162	0x3c743e34	0.0149074085
163	0x3dad0967	0.08449059
164	0xbe0d6c03	-0.13810734
165	0x3e42c413	0.19020109
166	0xbcb70dcc	-0.022345446
167	0xbd98db1d	-0.074636675
168	0x3d6e293f	0.058144804
169	0xbcfb2ffc	-0.03066253
170	0x3e09e885	0.13467605
171	0x3d50af79	0.050948594
172	0xbddbdcd8	-0.10735482
173	0x3e231fc8	0.15930092
174	0x3e023021	0.12713672
175	0x3d84e15e	0.06488298
176	0x3bcbc5cd	0.006218648
177	0x3d6b2f9f	0.057418462
178	0x3c3ad368	0.011402942
179	0xbe1d73e5	-0.15376242
180	0xbde3164d	-0.11088238
181	0x3dcc056f	0.09961974
182	0xbc945a3e	-0.018109437
183	0x3d72125e	0.059099548
184	0x3e0a5787	0.13509952
185	0xbd1d3183	-0.038377296
186	0xbd071b5c	-0.032985076
187	0x3dd8bb1e	0.10582565
188	0xbd4556c4	-0.04817845
189	0x3da15e9d	0.07879374
190	0x3dfd8409	0.12378699
191	0x3ccfa856	0.025348824
192	0x3d8bb6d7	0.06821983
193	0xbd84e8a0	-0.06489682
194	0xbd7561f4	-0.05990787
195	0x3da61b19	0.08110637
196	0x3d156bb2	0.03647966
197	0xbe167157	-0.14691673
198	0xbe194628	-0.14968169
199	0xbd85b039	-0.065277524
200	0x3daea3c7	0.08527332
201	0xbd679d02	-0.05654622
202	0xbe2ec7a4	-0.17068344
203	0x3e02f4a4	0.12788635
204	0x3e294af6	0.16532502
205	0xbbc42480	-0.0059857965
206	0x3d43f625	0.047842164
207	0x3e019b43	0.12656884
208	0xbe0fd894	-0.14047462
209	0xbddeea03	-0.10884478
210	0xbe16cf73	-0.14727573
211	0x3dbbfa22	0.091785684
212	0xbd51d8b4	-0.051232055
213	0xbd3ec2c3	-0.046572458
214	0xbbfe4714	-0.007759938
215	0xbe273969	-0.16330494
216	0xbe14bacf	-0.14524387
217	0xbd1173a8	-0.03551069
218	0x3e02eaca	0.12784877
219	0xbda766e7	-0.08173924
220	0xbda33787	-0.079695754
221	0xbd52aed1	-0.05143625
222	0x3dff1d41	0.124567516
223	0xbda69910	-0.08134663
224	0xbd3fec75	-0.046856362
225	0xbcae35dd	-0.021265918
226	0x3dc0ee51	0.09420455
227	0xbe350f4f	-0.17681621
228	0x3cb7f550	0.022455841
229	0xbd1fd8d9	-0.03902516
230	0xbd75efff	-0.06004333
231	0xbd5b5fe8	-0.05355826
232	0x3d8aa7c7	0.06770282
233	0x3dfb286d	0.1226357
234	0x3d92015d	0.07129166
235	0xbe11ff5f	-0.14257573
236	0xbd959261	-0.0730331
237	0xbce444dc	-0.027864866
238	0x3d8cc3a2	0.068732515
239	0x3e0b7099	0.13617171
240	0x3d0c832b	0.03430478
241	0x3dff6437	0.12470286
242	0x3e260ca7	0.16215764
243	0xbdbf2dd5	-0.09334914
244	0xbc4fe7a4	-0.012689505
245	0x3e1230d2	0.14276436
246	0x3df4c105	0.11950878
247	0xbd779d0a	-0.0604525
248	0xbd0122e8	-0.03152743
249	0x3e028449	0.12745775
250	0xbd28e282	-0.04123164
251	0xbc978ca4	-0.01849968
252	0xbbdaa0d4	-0.0066720042
253	0xbce7e94e	-0.02830949
254	0xbdea7c79	-0.114495225
255	0x3cae4221	0.021271767

bias f4 [40]
0	0xbda21093	-0.079133175
1	0xbd07a39c	-0.033115014
2	0x3d700dc5	0.05860688
3	0xbd209120	-0.039200902
4	0x3d405c7e	0.046963207
5	0xbe0a4b05	-0.1350518
6	0x3e1359ab	0.14389674
7	0xbd9a08f4	-0.07521239
8	0xbdfc6704	-0.12324336
9	0x3dacb22e	0.084324226
10	0x3df1fba9	0.118155785
11	0x3df7784e	0.12083493
12	0xbdd5942c	-0.10428652
13	0x3c3d7c16	0.011565229
14	0xbd8d5b9f	-0.06902241
15	0xbc75da4c	-0.015005659
16	0x3dc55889	0.09636027
17	0x3d1bcd40	0.03803754
18	0x3c9655ae	0.018351402
19	0x3dc164d6	0.09443061
20	0xbc84da36	-0.016217332
21	0xbd00b99b	-0.031427007
22	0xbd5dbd10	-0.054135382
23	0xbcac4ecd	-0.021033669
24	0xbc09bb37	-0.008406452
25	0x3d33d106	0.043900512
26	0x3caf94ec	0.021433316
27	0x3de82ed8	0.1133706
28	0xbe08a619	-0.13344611
29	0x3c96c91a	0.01840644
30	0x3d809c94	0.06279865
31	0xbb5c50c2	-0.0033617471
32	0xbc42814c	-0.011871647
33	0xbdcc20ed	-0.099672176
34	0x3dc2104b	0.09475764
35	0xba8dafa5	-0.0010809792
36	0xbe00d334	-0.12580568
37	0x3dd9815b	0.10620376
38	0x3e00ca63	0.12577204
39	0x3cbfa9b3	0.023396349
