Results/0050_generator1_adjusted.pth (torch, 159945 bytes, 32 tensors)

weight_ih_l0 f4 [120, 20]
0	0xbe152845	-0.14566143
1	0x3cff3dd2	0.031157408
2	0xbdf37251	-0.118870385
3	0x3df188fd	0.117937066
4	0xbd800933	-0.062517546
5	0x3bcacc4e	0.006188906
6	0x3dc4fa00	0.09617996
7	0xbdc62d01	-0.096765526
8	0x3da7bcfc	0.08190343
9	0xbd874176	-0.066042826
10	0x3e06afed	0.13153048
11	0xbe1bde2b	-0.15221469
12	0x3e117e90	0.14208436
13	0xbcfff487	-0.03124453
14	0xbe493701	-0.19649889
15	0x3e4ed0af	0.20196794
16	0x3e544df2	0.20732859
17	0xbd1a1a1e	-0.037622564
18	0x3d30df15	0.043181498
19	0x3dda51ae	0.106601104
20	0xbc83bad6	-0.016080301
21	0xbc51187d	-0.012762186
22	0x3bcdc6b0	0.006279789
23	0x3e15931b	0.14606898
24	0x3d9f8cdb	0.07790538
25	0x3e213883	0.15744214
26	0x3d803d4d	0.06261692
27	0x3c1d1ba6	0.009589111
28	0x3c1735d5	0.009229143
29	0xbccb9df5	-0.024855593
30	0x3e298cc3	0.16557603
31	0x3d1685f7	0.036748853
32	0xbe434621	-0.19069721
33	0xbe029464	-0.12751919
34	0x3ca7976f	0.020457951
35	0x3e6fc6f8	0.23415744
36	0x3e262505	0.1622506
37	0xbdbb9986	-0.09160142
38	0x3d007044	0.031357065
39	0xbcc1f8d9	-0.02367823
40	0x3cfc5f71	0.030807229
41	0x3e388e87	0.1802312
42	0x3dd809c2	0.10548736
43	0x3d142ecd	0.036177445
44	0x3e4292c1	0.19001295
45	0x3e516fde	0.2045283
46	0xbb62e248	-0.0034619737
47	0xbaa54e13	-0.0012611769
48	0x3da15afa	0.078786805
49	0x3d89c1a0	0.06726384
50	0x3d0440aa	0.03228823
51	0xbd358636	-0.044317447
52	0x3e1cd816	0.15316805
53	0xbcb51260	-0.022103488
54	0x3e27bdfb	0.16381066
55	0x3dc62e09	0.09676749
56	0xbe1986f2	-0.14992884
57	0xbe3495d4	-0.1763528
58	0x3d5d078b	0.05396227
59	0xbdc27b49	-0.09496171
60	0x3d269a0f	0.040674265
61	0xbdeb8042	-0.114990726
62	0x3d15b3d3	0.036548447
63	0xbdb2c8f4	-0.08729735
64	0xbde9019a	-0.113772586
65	0x3dcde163	0.10052755
66	0xbd1edfbc	-0.03878759
67	0x3e2301b7	0.15918623
68	0xbdebb632	-0.115093604
69	0x3e085dab	0.13316981
70	0x3e796966	0.24356613
71	0xbe4dc805	-0.20095833
72	0xbe559893	-0.20858984
73	0xbc77dfd0	-0.015129045
74	0xbe834283	-0.25636682
75	0x3da52819	0.08064289
76	0x3e912ebe	0.28355974
77	0x3df8581e	0.12126182
78	0x3d36a6da	0.044592716
79	0xbc06cd5f	-0.008227675
80	0xbd2f8475	-0.04285093
81	0x3cba00da	0.022705484
82	0xbe569ce6	-0.2095829
83	0xbd7a6d8a	-0.06113962
84	0x3d00b9dc	0.03142725
85	0x3dc2a4ac	0.09504065
86	0x3d0167fc	0.031593308
87	0x3ca8cb71	0.02060482
88	0xbdca181a	-0.09867878
89	0xbd9ced83	-0.07662489
90	0xbdd08d52	-0.10183205
91	0x3d93ab07	0.07210355
92	0xbdc9a23b	-0.09845396
93	0xbd65d533	-0.056111526
94	0x3e0b1577	0.13582407
95	0xbe7154a4	-0.23567444
96	0xbdf1aab5	-0.11800138
97	0x3d9b61d9	0.07587022
98	0x3e297bbc	0.16551107
99	0xbe37e477	-0.17958246
100	0x3e1f387d	0.15548892
101	0x3d42c709	0.047553096
102	0x3cb485bc	0.022036426
103	0xbde26e85	-0.11056236
104	0xbd741f83	-0.059600364
105	0xbd7588ef	-0.059945043
106	0x3ceef6bb	0.029170385
107	0xbd86863d	-0.06568573
108	0xbbfbd166	-0.0076848743
109	0xbd3f53ed	-0.046710897
110	0x3dfaeae2	0.122518316
111	0xbe0c5cc4	-0.13707262
112	0xba8f3d38	-0.0010928279
113	0x3ba0dd0e	0.0049091643
114	0xbd205622	-0.039144643
115	0x3d825bf1	0.06365193
116	0x3d9068a3	0.07051208
117	0x3db45a14	0.088062435
118	0x3c8fba59	0.017544912
119	0x3e5ac951	0.21365859
120	0x3e1f2b63	0.15543894
121	0x3de63202	0.11240007
122	0x3dc0193a	0.093798116
123	0x3e0e70ce	0.13910219
124	0xbd899d8a	-0.06719501
125	0xbc51cc43	-0.012805047
126	0x3dfc3caa	0.12316258
127	0x3d2bde94	0.041960314
128	0x3e1d796d	0.15378352
129	0x3d0d24c5	0.034458894
130	0x3c8eb089	0.017418163
131	0xbdce3712	-0.100690976
132	0xbd1fe425	-0.039035935
133	0xbd952e4c	-0.07284221
134	0xbd8728ff	-0.06599616
135	0x3da67672	0.081280604
136	0x3e06df0a	0.1317102
137	0xbde7e07c	-0.11322114
138	0xbe16c08b	-0.14721887
139	0x3e3421ab	0.17590968
140	0xbdbe1250	-0.092808366
141	0xbd312250	-0.043245614
142	0x3e363c5c	0.17796463
143	0x3cb13ab4	0.021634437
144	0xbda781ed	-0.08179078
145	0xbda5b84f	-0.08091795
146	0x3ceccf00	0.028907299
147	0xbd109a26	-0.035303257
148	0xbdb17895	-0.08665577
149	0x3e3b75a0	0.18306589
150	0x3dfa3194	0.122164875
151	0xbd124e2c	-0.03571908
152	0x3c8b867f	0.017031906
153	0xbe4509b8	-0.19241989
154	0xbdc1610b	-0.094423376
155	0x3de2b875	0.11070339
156	0xbdd2d171	-0.10293854
157	0x3d453abf	0.048151728
158	0x3cf93d58	0.030424759
159	0x3e522474	0.20521718
160	0x3de296aa	0.11063893
161	0x3dae17b1	0.085006125
162	0x3b11a88f	0.0022225713
163	0xbde7530d	-0.112951376
164	0x3df8e692	0.12153353
165	0xbd426445	-0.047458906
166	0x3e0f97b7	0.14022718
167	0xbc799ddf	-0.015235393
168	0x3d7d2fb6	0.06181308
169	0x3d35049a	0.04419384
170	0x3e1ee5ec	0.15517396
171	0xbda9ab1a	-0.08284588
172	0xbe84b3e9	-0.2591851
173	0x3b90557e	0.0044047227
174	0xbe848479	-0.2588232
175	0x3e0e5bd4	0.13902217
176	0x3d2b2359	0.041781757
177	0x3dbb3ab0	0.09142053
178	0xbd3107f7	-0.043220486
179	0x3dc69d34	0.09697953
180	0x3e0b0170	0.13574767
181	0x3e14ac21	0.14518787
182	0x3dd1cca2	0.10244109
183	0xbd23cc4f	-0.039989766
184	0x3df5f258	0.12009114
185	0xbd7d2dcf	-0.061811265
186	0x3df74fb5	0.1207575
187	0x3c428ee6	0.01187489
188	0xbcb74d07	-0.022375597
189	0xba85177a	-0.0010154091
190	0x3dc4e433	0.09613838
191	0xbcbbf09b	-0.022941878
192	0xbe8c7eda	-0.2744053
193	0x3d479955	0.048730213
194	0xbd7a8c93	-0.06116922
195	0xbd243447	-0.040088918
196	0x3e2939f3	0.16526012
197	0x3db45184	0.0880461
198	0xbd08d14b	-0.033402722
199	0x3e4a1ea2	0.19738248
200	0xbd973103	-0.07382395
201	0x3db5e3c8	0.088813365
202	0xbdefff19	-0.11718578
203	0xbd50627b	-0.05087517
204	0x3de313b9	0.11087746
205	0xbe1a09ca	-0.15042797
206	0xbd88c7b5	-0.06678716
207	0xbe04d189	-0.12970556
208	0x3d25dc35	0.04049321
209	0xbe24b260	-0.1608367
210	0x3d9126f5	0.070875086
211	0xbe499304	-0.19684988
212	0x3c68d180	0.014210105
213	0xbde55b96	-0.11199109
214	0xbe089ae4	-0.13340336
215	0xbcf8f84f	-0.03039184
216	0x3e2f209c	0.17102283
217	0x3de30b33	0.110861205
218	0xbe259cff	-0.1617317
219	0x3dd554f6	0.10416596
220	0xbd9112f9	-0.07083697
221	0xbe41377d	-0.18868823
222	0x3dfbf2d6	0.12302177
223	0x3d6a7a11	0.057245318
224	0xbd717cb7	-0.058956828
225	0xbd331719	-0.0437232
226	0x3dda3720	0.106550455
227	0x3c9aa382	0.018876795
228	0xbe11cb3d	-0.14237686
229	0xbe008db7	-0.1255406
230	0x3d8b9c58	0.068169296
231	0x3d632af7	0.055460896
232	0xbc87e88d	-0.016590381
233	0xbe325cb2	-0.17418173
234	0xbddc070b	-0.10743531
235	0x3e2ae000	0.16687012
236	0x3dd42c68	0.10360032
237	0x3e6a55da	0.22884312
238	0x3d1010c1	0.035172228
239	0x3dc269fc	0.09492871
240	0x3d8a6b2f	0.06758725
241	0xbcdbf7d0	-0.026851565
242	0xbd3b8823	-0.045784127
243	0x3c596bd7	0.01327034
244	0x3b093529	0.0020936227
245	0x3e034fe1	0.1282344
246	0x3e0ff3b7	0.14057814
247	0xbda6c3ab	-0.081427895
248	0x3e09748c	0.13423365
249	0x3d397800	0.045280457
250	0xbc93ab1f	-0.018025933
251	0x3d199c8d	0.037502814
252	0x3cb6560f	0.022257833
253	0xbbc198eb	-0.005908122
254	0xbe28446e	-0.16432354
255	0x3e01d650	0.1267941

weight_hh_l0 f4 [120, 40]
0	0x3d20ea94	0.03928621
1	0x3e2aa939	0.16666116
2	0x3ca47225	0.02007396
3	0x3bf29f6f	0.00740426
4	0xbcd72084	-0.026260622
5	0xbd969898	-0.07353324
6	0x3d991e72	0.0747651
7	0xbdb30675	-0.08741466
8	0x3ca6600f	0.020309476
9	0x3d34ab60	0.04410875
10	0xbde44047	-0.111450724
11	0xbc4406ba	-0.011964494
12	0xbe01b858	-0.12667978
13	0x3d2227e2	0.039588816
14	0xbe10efc5	-0.14153965
15	0x3cc86e46	0.024466645
16	0x3cc75358	0.024331734
17	0xbdb8f32b	-0.090307556
18	0x3d7279d6	0.059198223
19	0x3d995b5b	0.07488128
20	0x3de8a228	0.11359054
21	0x3ca88de3	0.02057547
22	0x3e0d866c	0.13820809
23	0x3defb13b	0.11703726
24	0x3e162acc	0.14664763
25	0xbc4550be	-0.012043176
26	0x3d965634	0.07340661
27	0x3de0360e	0.1094781
28	0x3d0bf4b4	0.034168914
29	0xbc964537	-0.018343551
30	0x3e09aa90	0.1344397
31	0x3d844285	0.06458
32	0xbdcaee02	-0.09908678
33	0xbd8e643c	-0.06952712
34	0x3dca65cc	0.098826975
35	0x3d66be53	0.05633385
36	0x3c81295e	0.015766796
37	0xbc7da042	-0.015480103
38	0xbde650f4	-0.11245909
39	0xbd72bd39	-0.059262488
40	0xbd17f0bf	-0.037094828
41	0xbdddef14	-0.10836616
42	0x3b34b3a8	0.0027572904
43	0x3e483b8c	0.19553965
44	0x3dccab6e	0.09993635
45	0xbd64e620	-0.055883527
46	0x3d64de41	0.05587602
47	0x3c5c043e	0.013428746
48	0xbd23ccd6	-0.03999027
49	0xbcbf1e9d	-0.023330027
50	0x3d865331	0.06558836
51	0x3e1e3b9e	0.1545243
52	0xbd5c4db6	-0.05378505
53	0xbcdc9802	-0.026927952
54	0xbd0bf6db	-0.034170967
55	0xbe272685	-0.16323288
56	0xbd5feeda	-0.054671146
57	0x3bffa2a0	0.007801369
58	0xbe5e4afc	-0.21708292
59	0xbe01fb43	-0.12693505
60	0x3c0cba6a	0.008589366
61	0xbd79aa57	-0.060953464
62	0x3d543fdf	0.051818725
63	0x3dee2472	0.11628045
64	0xbdb00672	-0.08594979
65	0x3d080368	0.033206373
66	0xbdacc878	-0.08436674
67	0x3d30173e	0.042990915
68	0x3e658be7	0.2241665
69	0xbdf3aa48	-0.11897713
70	0x3d5c962c	0.053854153
71	0xbda5f699	-0.081036754
72	0xbe1e42c7	-0.15455161
73	0xbda4803d	-0.08032272
74	0x3e3aef38	0.18255317
75	0xbd84716d	-0.06466947
76	0x3e59df75	0.21276648
77	0xbde1b981	-0.1102171
78	0x3e26dbc7	0.16294776
79	0xbe03b833	-0.12863235
80	0xbe045d14	-0.12926131
81	0xbe12daca	-0.14341274
82	0x3d1073be	0.03526663
83	0xbcbcc139	-0.023041354
84	0xbcc05a7a	-0.023480643
85	0x3e3cf22f	0.1845176
86	0xbdb00649	-0.08594949
87	0x3dc29514	0.09501091
88	0xbe1c88ff	-0.15286635
89	0xbdf46063	-0.11932447
90	0x3d9a8bc1	0.07546187
91	0x3cb6245e	0.022234138
92	0xbdd8a5ba	-0.10578485
93	0xbdbe8a28	-0.09303695
94	0x3e0da57a	0.13832656
95	0x3dfc0abc	0.12306735
96	0xbddca186	-0.10772996
97	0xbcd9e531	-0.026598545
98	0x3d64db72	0.05587334
99	0x3c9b642b	0.018968662
100	0x3dcd1241	0.10013247
101	0x3dbaef06	0.09127621
102	0xbda49204	-0.08035663
103	0x3d0459c7	0.03231218
104	0xbd90e3b4	-0.07074681
105	0xbcd73496	-0.026270192
106	0x3e1c6d4b	0.15276067
107	0xbdf69655	-0.12040392
108	0xbe322f60	-0.17400885
109	0xbdfb52cb	-0.12271651
110	0x3dd7f227	0.10544234
111	0x3d9ae88b	0.07563885
112	0xbe06b94e	-0.13156626
113	0x3ce2322c	0.027611814
114	0x3e033956	0.1281484
115	0xbdd62173	-0.10455599
116	0xbd8f5e51	-0.07000411
117	0xbd943aff	-0.07237815
118	0xbc35e32c	-0.011101525
119	0xbe306409	-0.1722566
120	0x3e1499b0	0.14511752
121	0xbe0c0bdb	-0.13676398
122	0xbd34263e	-0.043981783
123	0x3e55e9c7	0.2088996
124	0xbe3d1a3b	-0.18467037
125	0xbd838eba	-0.06423707
126	0xbdc6fc73	-0.097161196
127	0xbe3627d4	-0.1778863
128	0x3df67dad	0.120356895
129	0x3e00bec7	0.12572776
130	0x3c9f6019	0.019455003
131	0x3d29767c	0.04137276
132	0x3e5b0db7	0.2139195
133	0xbd07c6dd	-0.033148635
134	0xbe3647a8	-0.17800772
135	0xbe050f2e	-0.12994072
136	0x3c64c31d	0.013962534
137	0xbd8bb6ef	-0.06822001
138	0xbc9414da	-0.018076349
139	0x39d4e110	0.00040603476
140	0xbce4bcaa	-0.027921993
141	0xbe18f8ee	-0.14938709
142	0x3d8d18e1	0.06889511
143	0x3e1db622	0.1540151
144	0x3dcd65be	0.100291714
145	0xbe30421b	-0.17212717
146	0x3dfbf8fa	0.12303348
147	0x3c3c4761	0.011491627
148	0x3e1060ed	0.14099474
149	0xbcfb66cb	-0.030688664
150	0xbe6601a2	-0.2246156
151	0xbce2d6db	-0.027690342
152	0x3c80fb1f	0.015744744
153	0xbcbfd8cc	-0.023418806
154	0xbd96cc86	-0.073632285
155	0xbca7db30	-0.020490259
156	0x3dbedd60	0.09319568
157	0x3d8b16c8	0.067914546
158	0xbd752d78	-0.059857816
159	0x3dae1eba	0.085019544
160	0xbe1c8c0b	-0.15287797
161	0x3e2c26d8	0.16811693
162	0xbc19f581	-0.009396912
163	0x3d2ed8af	0.042687114
164	0xbe002723	-0.1251493
165	0xbd60e5fc	-0.05490683
166	0x3e18762e	0.14888832
167	0x3c9d75e4	0.019221254
168	0xbe6a96ec	-0.22909135
169	0xbd2f0f61	-0.042739276
170	0x3a8fbf5a	0.0010967061
171	0x3d78c7ef	0.060737547
172	0xbe06902f	-0.13140939
173	0xbcbb73e7	-0.022882415
174	0x3e62453c	0.22096723
175	0xbd86dc0c	-0.06584939
176	0x3d530b63	0.05152453
177	0xbda5ac34	-0.08089486
178	0x3e43b7fa	0.1911315
179	0xbddb574f	-0.10710012
180	0xbe425883	-0.18979077
181	0xbc3126b1	-0.010812447
182	0x3e08ac6b	0.13347022
183	0xbd969c6f	-0.07354056
184	0xbdf81e90	-0.12115204
185	0x3e0e107a	0.13873473
186	0x3dba054c	0.090830415
187	0xbe329f39	-0.17443551
188	0x3c506f64	0.01272187
189	0x3e615973	0.22006778
190	0x3e57fc46	0.21092328
191	0xbd17a1c2	-0.0370195
192	0x3ddfb66b	0.10923465
193	0x3e09af96	0.13445887
194	0x3e03a5f1	0.1285627
195	0xbc66157c	-0.014043208
196	0xbe3ac1fa	-0.18238059
197	0x3db45882	0.08805944
198	0x3db7daaa	0.08977254
199	0x3cca03a6	0.024659943
200	0x3d9b7bc0	0.07591963
201	0x3d31ec14	0.043438032
202	0xbbc1adfb	-0.0059106327
203	0x3e41d2fe	0.18928143
204	0x3ce21491	0.027597697
205	0xbe386926	-0.18008861
206	0xbdc7a701	-0.0974865
207	0xbe22ae1c	-0.1588673
208	0x3e4aadc7	0.19792853
209	0xbd8977f0	-0.067123294
210	0xbb42c926	-0.0029721945
211	0xbd10ff46	-0.035399698
212	0xbd952288	-0.07281977
213	0x3dcde00c	0.10052499
214	0x3dd3e39f	0.1034615
215	0xbc47b58b	-0.012189279
216	0x3d21ea9a	0.039530374
217	0x3ce49b94	0.027906217
218	0x3d2da26c	0.042391226
219	0x3e32c2ca	0.17457119
220	0x3e17e2e7	0.1483265
221	0xbd0c4349	-0.034243856
222	0x3c7db268	0.01548443
223	0x3e3d80aa	0.18506113
224	0xbc53c566	-0.012925481
225	0x3b245ba8	0.0025079045
226	0x3d239435	0.039936263
227	0xbdedca26	-0.116108224
228	0x3d11ab1b	0.03556357
229	0xbe192c74	-0.14958364
230	0xbe5f258d	-0.21791668
231	0x3c541547	0.012944526
232	0x3dc38ffa	0.09548946
233	0xbd665ed4	-0.05624278
234	0x3c4b9739	0.012426191
235	0xbd2c3b42	-0.0420487
236	0xbd0f167e	-0.03493356
237	0xbc8a5c59	-0.016889738
238	0x3e0eb32e	0.13935539
239	0x3cd21ae6	0.025647592
240	0xbd485674	-0.048910573
241	0x3e1b24a0	0.1515069
242	0xbe4ce1c4	-0.20007998
243	0x3dff9130	0.12478864
244	0x3df64119	0.12024135
245	0xbc23e5ff	-0.010003566
246	0x3e1832b4	0.14863092
247	0xbca47dd1	-0.020079525
248	0xbe1f1393	-0.1553481
249	0xb9bcb4e0	-0.00035992917
250	0x3d5d1c5f	0.053982135
251	0xbdb3cae8	-0.08778936
252	0xbe02fd81	-0.12792017
253	0x3d34a1b1	0.044099513
254	0xbc73b647	-0.014875001
255	0x3d6fe0ef	0.058564123

bias_ih_l0 f4 [120]
0	0x3d3f6fb2	0.04673738
1	0x3de8fb02	0.11376001
2	0xbe0de693	-0.13857488
3	0x3dc5d94a	0.09660585
4	0x3dd3ebe6	0.103477284
5	0xbc646dca	-0.013942191
6	0x3e386837	0.18008505
7	0xbd9b151b	-0.07572385
8	0x3e2be5ab	0.1678683
9	0x3df336ae	0.11875664
10	0xbce74fbd	-0.028236264
11	0x3e225592	0.15852955
12	0xbd4aabc7	-0.049480226
13	0xbdbac2d5	-0.091191925
14	0x3c94521d	0.01810556
15	0xbcc36410	-0.023851424
16	0x3dba6c36	0.09102671
17	0xbe1ad394	-0.15119773
18	0xbe28102d	-0.1641242
19	0xbdebcc11	-0.11513532
20	0xbd31f67d	-0.04344796
21	0x3da12ca4	0.07869843
22	0xbdf044e7	-0.11731892
23	0x3e4f7795	0.2026046
24	0x3d86e331	0.06586302
25	0x3ccd4a5f	0.025059877
26	0xbe2789ad	-0.16361113
27	0x3dc0b6dc	0.09409878
28	0x3c99a37e	0.018754717
29	0x3e5be813	0.21475248
30	0xbdb239a7	-0.087024026
31	0x3dea6932	0.11445846
32	0x3e49e9f1	0.19718148
33	0x3e17658a	0.14784828
34	0xbd2884f9	-0.041142438
35	0x3a48b745	0.0007656704
36	0xbd425fc6	-0.047454618
37	0xbd104379	-0.035220597
38	0xbe0315a2	-0.12801221
39	0x3dcd5426	0.10025816
40	0xbd080217	-0.033205118
41	0xbe2b9b60	-0.1675849
42	0xbde1888c	-0.110123724
43	0xbe8deca6	-0.2771961
44	0xbe12aace	-0.1432297
45	0xbc9c8176	-0.0191047
46	0xbe6dcf3e	-0.23223588
47	0xbd5f70a8	-0.054550797
48	0xbe6f36f7	-0.23360811
49	0xbe2c0a4a	-0.168008
50	0xbe23cc48	-0.15995896
51	0x3b950d4b	0.004548704
52	0xbdb2dbfd	-0.08733366
53	0xbe1d6db1	-0.15373875
54	0xbe82f849	-0.25580052
55	0xbe6e8246	-0.23291883
56	0xbe75cd1a	-0.24004021
57	0xbe0178eb	-0.12643783
58	0xbe87a82b	-0.2649549
59	0xbe6085ce	-0.21926042
60	0xbd469afc	-0.04848765
61	0xbdee4808	-0.116348326
62	0x3db3588a	0.08757122
63	0xbe52f591	-0.20601489
64	0xbe58f901	-0.21188737
65	0xbde788bf	-0.11305379
66	0xbe52c3da	-0.20582524
67	0xbe3b28bb	-0.18277256
68	0xbe6db220	-0.2321248
69	0xbe040c98	-0.12895429
70	0xbd894d76	-0.067042276
71	0xbade6b42	-0.0016969221
72	0xbd0bf762	-0.03417147
73	0xbd9a689c	-0.07539484
74	0x3cd3717a	0.025810946
75	0xbe90c15a	-0.28272516
76	0xbe52236e	-0.20521328
77	0x3cf15fdd	0.029464656
78	0xbe01e458	-0.12684762
79	0xbe3dc1c1	-0.18530942
80	0xbc9e0c9e	-0.019293126
81	0x3d54a1cd	0.051912118
82	0x3b8e0824	0.0043344665
83	0x3dca7350	0.09885275
84	0x3b98a679	0.004658517
85	0xbdf5313d	-0.11972282
86	0x3d944472	0.072396174
87	0xbd72f396	-0.059314333
88	0xbd272972	-0.04081101
89	0x3dbfa193	0.0935699
90	0x3e0dd2de	0.1384997
91	0x3d8b8e48	0.06814247
92	0x3c8f4f87	0.017493976
93	0x3e70097a	0.23441115
94	0x3ca6e5df	0.020373283
95	0xbe336fa4	-0.17523056
96	0x3e0199e2	0.12656358
97	0xbe5e448c	-0.21705836
98	0x3c6a159e	0.0142873805
99	0xbe5eb43a	-0.21748438
100	0xbe2f1109	-0.17096342
101	0x3e5f6b79	0.21818341
102	0xba730fe7	-0.0009272084
103	0xbe22c046	-0.15893659
104	0xbdeb09a8	-0.11476451
105	0x3e50671b	0.20351832
106	0xbdb90aa7	-0.09035235
107	0xbe0c8177	-0.13721262
108	0x3e4dc8f6	0.20096192
109	0xbd99c3d9	-0.07508058
110	0x3dd033c8	0.101661265
111	0x3e5723ce	0.21009752
112	0xbdb9d75c	-0.0907428
113	0x3e06dc14	0.1316989
114	0x3e32f8de	0.17477748
115	0x3de83508	0.1133824
116	0xbe366670	-0.17812514
117	0xbe134eef	-0.1438558
118	0xbe584e48	-0.21123612
119	0x3e1456cc	0.14486235

bias_hh_l0 f4 [120]
0	0x3dc378c1	0.09544516
1	0x3e1485da	0.14504185
2	0x3da64f3e	0.08120583
3	0xbdce74ce	-0.100808725
4	0x3dc5019c	0.096194476
5	0xbe0d5851	-0.13803221
6	0x3e4352d0	0.19074559
7	0x3e462df9	0.19353475
8	0x3ddd7058	0.108124435
9	0x3df350fa	0.118806794
10	0x3e1ffec7	0.15624534
11	0xbe152721	-0.14565708
12	0x3dedb549	0.11606843
13	0xbdc1f14f	-0.09469854
14	0xbc13d226	-0.009022271
15	0x3cd1d9ce	0.025616553
16	0x3d781959	0.06057105
17	0xbe040f15	-0.12896378
18	0xbdcfd52e	-0.10148083
19	0xbdca96e1	-0.09892059
20	0x3dd77263	0.105198644
21	0xbced4503	-0.028963571
22	0xbe071ea9	-0.1319529
23	0x3dd50c6d	0.10402761
24	0x3cd2f1ab	0.025750002
25	0xbdc5fc39	-0.09667248
26	0x3cf6161c	0.03003984
27	0x3de0fa51	0.10985244
28	0x3cb5d45a	0.022195984
29	0x3e455d57	0.19273888
30	0xbc1ae45b	-0.009453858
31	0x3be2b538	0.0069185756
32	0x3cbdf1f4	0.023186661
33	0x3dab9b11	0.08379186
34	0xbb83161d	-0.004000439
35	0xba22ec90	-0.000621506
36	0x3e1fba76	0.15598473
37	0x3e127ae0	0.14304686
38	0x3cf68494	0.030092515
39	0xbccb0d44	-0.024786599
40	0xbe1ee5fa	-0.15517417
41	0xbda23ed6	-0.07922141
42	0x3c73c504	0.014878515
43	0xbdefd7ce	-0.11711083
44	0xbe3c3347	-0.18378936
45	0xbbed1820	-0.007235542
46	0xbe8a7f8a	-0.2705043
47	0xbe6dcb59	-0.23222102
48	0xbda9af53	-0.082853936
49	0xbe65d6b7	-0.22445188
50	0xbbcd4f60	-0.0062655658
51	0xbd3e2740	-0.04642415
52	0x3cb72e96	0.022361081
53	0xbd8ca073	-0.06866541
54	0xbe3875e6	-0.18013725
55	0xbe3b0448	-0.18263352
56	0xbe312b44	-0.17301661
57	0x3ab0aa62	0.0013478512
58	0xbe4b6716	-0.19863543
59	0xbe66fa78	-0.22556484
60	0xbe249745	-0.1607333
61	0xbd02138d	-0.031756926
62	0x3df08444	0.11743978
63	0xbd8ec78d	-0.06971655
64	0xbe12ae5e	-0.14324328
65	0x3d8b6d4f	0.06807958
66	0xbe85dffa	-0.26147443
67	0xbd3681df	-0.04455745
68	0xbdf1c855	-0.118057884
69	0xbe2c14f0	-0.16804862
70	0xbe5bb5c3	-0.21456055
71	0xbe3f2379	-0.18665875
72	0x3d8caf38	0.06869358
73	0xbe039b5e	-0.12852237
74	0xbe2c28c8	-0.16812432
75	0xbe829010	-0.25500536
76	0xbd880757	-0.06642025
77	0xbd75b0f0	-0.059983194
78	0xbe536b40	-0.20646381
79	0xbe0f378d	-0.13986035
80	0xbdf4469e	-0.11927532
81	0x3d8386b2	0.064221755
82	0x39174e00	0.0001442954
83	0xbe0ba5ca	-0.13637462
84	0xbcfcda8e	-0.030865934
85	0xbd3a14e5	-0.045430083
86	0x3e41fcd0	0.18944097
87	0x3dfc9204	0.12332538
88	0xbdb92ded	-0.09041963
89	0xbd54c0e2	-0.05194176
90	0x3e500ea8	0.20318091
91	0xbdaeb77b	-0.0853109
92	0xbd8cc915	-0.06874291
93	0x3dc19b3b	0.09453436
94	0x3cc9b9c1	0.024624707
95	0xbce6d01d	-0.028175408
96	0x3df60988	0.12013537
97	0x3cbbbfd2	0.022918615
98	0xbe11f2ab	-0.14252727
99	0xbdc82117	-0.097719364
100	0xbe020c53	-0.12700014
101	0x3c8a5064	0.016884036
102	0xbd9c6fae	-0.07638489
103	0xbe36ae71	-0.17839982
104	0xbc3a906e	-0.011386974
105	0x3e2eed18	0.17082632
106	0xbe170e7f	-0.14751624
107	0x3d6ede94	0.058317736
108	0x3e2fb7c3	0.17159943
109	0xbe0aaf4a	-0.1354343
110	0x3dc58cfc	0.09646031
111	0xbd0ab461	-0.03386343
112	0xbe3344d2	-0.17506722
113	0x3cfbeb75	0.030751923
114	0x3b9a1f33	0.0047034263
115	0x3e02538f	0.12727188
116	0xbdb0d3f9	-0.086341806
117	0xbd230ae6	-0.039805315
118	0xbdac3602	-0.08408739
119	0x3d6fa2e9	0.058504973

weight f4 [40, 40]
0	0x3cb6d30e	0.022317436
1	0x3e10b688	0.1413213
2	0xbda86a01	-0.08223344
3	0x3d6c83db	0.057742935
4	0x3dc6807d	0.09692476
5	0xbd1be6d8	-0.038061947
6	0x3d705744	0.058676973
7	0x3dc02274	0.093815714
8	0x3e0928f3	0.13394527
9	0x3ddd5bc9	0.10808522
10	0xbd3e3922	-0.046441205
11	0xbd83c397	-0.0643379
12	0x3c9881cf	0.018616585
13	0xbcb103fa	-0.021608341
14	0x3e121196	0.14264521
15	0x3d73df44	0.059539095
16	0xbbdec215	-0.0067980387
17	0x3b8d7378	0.0043167435
18	0x3cb96f18	0.022635981
19	0x3e2ffe80	0.17186928
20	0x3d153a6b	0.036432665
21	0xbe44b57a	-0.19209853
22	0x3da68134	0.08130112
23	0x3e048517	0.12941395
24	0xbe162bd4	-0.14665157
25	0xbe0cd814	-0.13754302
26	0xbca9cf56	-0.020728748
27	0xbd95d1e1	-0.07315422
28	0xbe2fb1db	-0.1715769
29	0x3e1e9fcb	0.15490644
30	0xbcbe9750	-0.02326551
31	0xbd88a35e	-0.06671785
32	0xbc8f0bbc	-0.01746165
33	0x397b6f60	0.00023978716
34	0xbcc38620	-0.023867667
35	0x3c5f260b	0.01361991
36	0xbd549659	-0.051901195
37	0xbd95800c	-0.07299814
38	0xbbfa6a2d	-0.0076420517
39	0xbe018007	-0.12646495
40	0xbdeefdfe	-0.11669539
41	0x3e611f0a	0.21984497
42	0xbe74a022	-0.23889211
43	0xbe08e913	-0.13370161
44	0x3daae275	0.083439745
45	0x3e453218	0.1925739
46	0xbce72a18	-0.028218314
47	0x3e38e668	0.18056643
48	0xbdded411	-0.10880292
49	0x3ce42e62	0.027854148
50	0x3e69f927	0.2284895
51	0xbda31ecb	-0.07964858
52	0xbe0bf28a	-0.1366674
53	0x3e006834	0.1253975
54	0xbbb77d19	-0.0055996296
55	0xbd47b75c	-0.04875885
56	0xbd1619d5	-0.03664573
57	0x3c58b1c0	0.013225973
58	0x3e4095ea	0.18807188
59	0xbdaa942c	-0.08329043
60	0xbe72bcb8	-0.23704803
61	0xbd190042	-0.03735376
62	0x3d23b2c7	0.039965417
63	0xbdd057ee	-0.10173021
64	0xbe4a26fa	-0.19741431
65	0x3e41fe44	0.18944651
66	0x3df1be69	0.11803896
67	0xbe946e6a	-0.2899049
68	0x3db51e32	0.0884365
69	0xbe586dc1	-0.21135618
70	0x3dfd2340	0.12360239
71	0xbd20445e	-0.0391277
72	0xbdf2f22c	-0.11862597
73	0x3e3c1ae4	0.18369633
74	0xbd4ecf51	-0.05049068
75	0x3e5cf9fb	0.21579735
76	0xbe1b65c2	-0.15175536
77	0xbe5b12a2	-0.21393827
78	0xbe47b78b	-0.1950361
79	0x3db56cba	0.088586286
80	0xbd8b31ec	-0.06796631
81	0xbdcf5d06	-0.10125165
82	0xbd3aefb5	-0.04563876
83	0x3da3a584	0.07990554
84	0x3c03b54a	0.008038828
85	0xbe18fa72	-0.14939287
86	0xbd1e31df	-0.03862178
87	0xbd865e3d	-0.06560943
88	0x3dfff670	0.12498176
89	0x3c9d381c	0.019191794
90	0xbdd131c0	-0.10214567
91	0x3e34f07e	0.17669865
92	0x3deb8f88	0.11501986
93	0x3e0cf52a	0.13765398
94	0xbe25f98e	-0.16208479
95	0xbc310569	-0.010804513
96	0x3e8672ef	0.26259562
97	0xbd9fdfd9	-0.078063674
98	0xbe16b73d	-0.14718337
99	0xbd569de1	-0.05239666
100	0xbdee5b5d	-0.1163852
101	0xbd84f4a3	-0.06491973
102	0xbc8abab3	-0.016934728
103	0x3d020ff5	0.0317535
104	0x3d8ac820	0.06776452
105	0x3e101c52	0.14073303
106	0xbe591f68	-0.21203387
107	0x3ab7e0d2	0.0014028794
108	0x3dfa7520	0.12229371
109	0xbe5705da	-0.20998326
110	0xbbf8dcbf	-0.0075946744
111	0x3dfd3be6	0.1236494
112	0xbe4ab0c2	-0.1979399
113	0x3cfa5b96	0.03056125
114	0xbcce352c	-0.025171839
115	0x3e3c7987	0.18405734
116	0xbc238e78	-0.009982698
117	0xbdbed703	-0.09318354
118	0xbdbd1198	-0.09231871
119	0x3da4b8f7	0.08043092
120	0xbdf069eb	-0.11738952
121	0x3c8e3618	0.017359778
122	0xbcc20e6c	-0.023688518
123	0xbd89d944	-0.06730893
124	0x3d1adaab	0.037806194
125	0xbe0342cb	-0.12818448
126	0x3d067493	0.032826018
127	0xbdf7d152	-0.121004716
128	0x3e0658f8	0.13119876
129	0x3d241efa	0.040068604
130	0x3d7ff252	0.062486954
131	0x3e23e995	0.16007073
132	0x3d57a300	0.052645683
133	0xbdd0f9d8	-0.10203904
134	0xbe2d14c1	-0.16902448
135	0xbcf243d5	-0.02957336
136	0x3dc427d2	0.095779076
137	0x3d07bd3c	0.033139452
138	0xbd1ad927	-0.03780475
139	0xbc427301	-0.011868239
140	0x3dc0ec33	0.094200514
141	0xbe36aadc	-0.17838615
142	0xbd288b5f	-0.04114854
143	0xbd705eb2	-0.05868406
144	0x3e112b2b	0.14176624
145	0xbdb503b4	-0.08838597
146	0x3b68d498	0.0035527106
147	0x3d1057d8	0.035240024
148	0xbc2cbc8a	-0.010542998
149	0xbd98f7e5	-0.07469157
150	0xbe5e1c9a	-0.21690598
151	0xbdbe04b1	-0.092782386
152	0xbda900a1	-0.08252073
153	0xbe0aded9	-0.13561572
154	0x3be6ae90	0.0070398524
155	0x3e040d9e	0.1289582
156	0xbc9336fe	-0.017970558
157	0xbdb895df	-0.09012961
158	0xbd0bc2db	-0.034121376
159	0xbdb2e205	-0.08734516
160	0xbe599c96	-0.21251139
161	0x3e1b7eb4	0.15185052
162	0x3d9cf578	0.07664007
163	0xbc47e900	-0.012201548
164	0xbd40d413	-0.04707725
165	0x3d8dc587	0.06922441
166	0x3db38477	0.087655
167	0x3cf5823d	0.029969329
168	0xbe0db680	-0.1383915
169	0xbdc56a3e	-0.09639405
170	0x3d5fc280	0.05462885
171	0xbe058f0f	-0.13042854
172	0x3cd83a0a	0.026394863
173	0x3e42155f	0.18953465
174	0x3e3357b9	0.17513932
175	0x3e19729a	0.14985123
176	0xbd1cf599	-0.038320158
177	0xbe92274f	-0.28545615
178	0x3e1fcd75	0.1560572
179	0xbe7e4dd5	-0.24834378
180	0xbd95b1a0	-0.0730927
181	0x3d87d3d0	0.06632197
182	0xbdb2a777	-0.08723348
183	0xbe173cfa	-0.14769354
184	0xbd5fa657	-0.054601993
185	0xbd13761a	-0.036001302
186	0x3e51aa95	0.20475228
187	0xbe3fc3c3	-0.18727021
188	0xbd9d039f	-0.07666706
189	0xbdb46fb2	-0.08810367
190	0x3e519624	0.2046743
191	0x3b08e88f	0.002089057
192	0x3c3660e5	0.0111315
193	0x3e18169f	0.1485238
194	0x3ce6aa8f	0.0281575
195	0x3e864893	0.26227245
196	0x3d40dd66	0.047086142
197	0xbdf27da2	-0.11840369
198	0xbdc75dcd	-0.09734688
199	0xbdf073f7	-0.117408685
200	0x3e7f8126	0.2495161
201	0x3ca4e0be	0.020126697
202	0x3dfcc157	0.12341564
203	0x3e45cf76	0.19317421
204	0x3e611550	0.21980786
205	0xbdc7f7eb	-0.097640835
206	0x3c13d28e	0.009022368
207	0xbe6e2435	-0.23256
208	0xbd911714	-0.0708448
209	0x3e8ca039	0.2746599
210	0x3e1f49a5	0.15555437
211	0x3e471003	0.19439702
212	0x3cf067b8	0.029346332
213	0x3e53723f	0.2064905
214	0x3c751d06	0.014960533
215	0xbe917da6	-0.28416175
216	0x3e1d2a0d	0.15348072
217	0xbd89b7ab	-0.06724485
218	0xbe355956	-0.1770986
219	0xbe223f3e	-0.15844437
220	0x3cdb9ce5	0.026808212
221	0x3dd53851	0.10411132
222	0xbdcd4e4d	-0.100247
223	0x3c8bf46c	0.017084323
224	0x3e3ea4dd	0.18617578
225	0x3e289b1d	0.16465421
226	0xbe7da764	-0.24770886
227	0x3b2c9ec4	0.002633975
228	0x3e7c4825	0.24636896
229	0xbd536a3f	-0.051614996
230	0x3dbf2c46	0.09334616
231	0x3e751b57	0.2393621
232	0xbe2cc978	-0.16873729
233	0x3d9dbbef	0.07701861
234	0x3e85e71e	0.2615289
235	0xbd3e9ed5	-0.046538193
236	0x3dc755fc	0.09733197
237	0xbe11821d	-0.1420979
238	0xbe07db12	-0.13267162
239	0x3d84caa6	0.064839646
240	0xbe06c7f8	-0.1316222
241	0x3e9032df	0.28163812
242	0xbe2b8b3c	-0.16752332
243	0xbe688cbb	-0.22709934
244	0xbe1c8436	-0.1528481
245	0x3de4c379	0.11170096
246	0xbd22a06a	-0.039703764
247	0x3e8c79b0	0.2743659
248	0xbe479c7a	-0.19493285
249	0xbe7639de	-0.24045512
250	0x3e00ebe0	0.12589979
251	0xbe3bdd6d	-0.18346186
252	0xbe22c831	-0.1589668
253	0x3bfc2656	0.0076949997
254	0x3e3770ec	0.1791417
255	0x3e4cfa43	0.20017342

bias f4 [40]
0	0xbbc9df78	-0.0061606728
1	0xbd1997e3	-0.037498366
2	0x3c913189	0.017723816
3	0x3dfb02be	0.122563824
4	0x3c4ca1a8	0.012489714
5	0x3e4acf19	0.19805564
6	0x3c9c4a1f	0.019078312
7	0xbdd52049	-0.104065485
8	0x3e180c57	0.14848457
9	0x3c6245b2	0.013810562
10	0xbd5c1824	-0.05373396
11	0x3df3b0d1	0.118989594
12	0x3e17ec26	0.14836177
13	0x3d7627fc	0.060096726
14	0xbdc45815	-0.09587113
15	0x3de2023e	0.11035584
16	0xbd7def1b	-0.061995607
17	0xbe86a1a2	-0.2629519
18	0xbc5cb0d3	-0.013469893
19	0x3e3b9a73	0.18320636
20	0x3dac1905	0.084032096
21	0x3d89f06f	0.06735312
22	0xbb539b80	-0.003228873
23	0x3dd79361	0.10526157
24	0xbd2bf3b4	-0.04198046
25	0xbc0060f4	-0.007835615
26	0x3d20f357	0.039294567
27	0xbd71b322	-0.059008725
28	0xbd302ce4	-0.04301156
29	0xbe34818e	-0.17627546
30	0x3dea13d7	0.114295654
31	0xbd0b2a04	-0.033975616
32	0x3d0be0bc	0.03414987
33	0x3e09cc84	0.13456923
34	0xbc237e61	-0.009978862
35	0x3d06332c	0.032763645
36	0x3e58eb44	0.21183497
37	0x3db0708e	0.08615218
38	0x3e1329cc	0.14371413
39	0xbce6675b	-0.028125456

weight f4 [40, 40]
0	0x3e3f3c35	0.18675311
1	0xbd4d73e9	-0.05015937
2	0x3e79df07	0.24401484
3	0xbd0a201c	-0.033722028
4	0x3e0aafdc	0.13543648
5	0x3e2e7704	0.17037588
6	0xbdfdc2db	-0.12390681
7	0x3d877eab	0.06615957
8	0x3c31410e	0.010818733
9	0x3e26450f	0.16237281
10	0xbbef1f69	-0.0072974456
11	0x3e413c42	0.18870643
12	0x3e4c1e14	0.19933349
13	0x3cfe9559	0.031077074
14	0xbe027c59	-0.12742747
15	0x3cca5d2e	0.024702635
16	0x3e08d604	0.1336289
17	0xbd882e99	-0.06649513
18	0x3e1a89d4	0.1509164
19	0x3e23044b	0.15919606
20	0xbd4c48e0	-0.049874187
21	0x3e8475b8	0.25871062
22	0xbd89a12f	-0.067201965
23	0x3d4640e4	0.04840173
24	0xbe38e900	-0.18057632
25	0xbb122bd6	-0.002230396
26	0xbd80766b	-0.062725864
27	0x3cd46a10	0.02592948
28	0xbe3875bb	-0.1801366
29	0x3d4e1037	0.050308432
30	0x3e5416d7	0.20711838
31	0xbd3c22bb	-0.04593156
32	0xbd20a2c3	-0.03921772
33	0x3d5887f5	0.052864034
34	0x3e19518a	0.14972511
35	0x3dcac178	0.099001825
36	0x3e8d940f	0.27652022
37	0xbe2a4dc8	-0.16631234
38	0x3d14c601	0.036321644
39	0xbd9f7a69	-0.0778702
40	0xbd05de02	-0.032682426
41	0x3d0a94b4	0.03383322
42	0x3c28a1c9	0.010292479
43	0x3e331794	0.17489463
44	0x3b95d12a	0.0045720534
45	0xbcc0ba9f	-0.023526488
46	0xbd03a317	-0.032137956
47	0x3e246753	0.1605504
48	0x3e84c0a2	0.25928217
49	0xbd03def8	-0.03219506
50	0x3d8a44ab	0.067513786
51	0x3d592afe	0.053019516
52	0x3e0dcd52	0.13847855
53	0x3e27f092	0.16400364
54	0x3e00cda4	0.12578446
55	0x3db9c5b5	0.09070913
56	0x3e34fdbc	0.17674917
57	0x3d7cd26d	0.061724115
58	0x3dc06787	0.09394746
59	0x3d102d95	0.03519972
60	0x3e46225c	0.19349045
61	0x3e3c25a2	0.18373731
62	0x3e2abecf	0.1667435
63	0xbc0ca52e	-0.008584304
64	0x3e815b7b	0.25265107
65	0x3dae48ef	0.08510005
66	0x3e3fd2fc	0.18732828
67	0xbbfffbe1	-0.0078120087
68	0x3d931a17	0.071827106
69	0x3d60df2f	0.054900344
70	0xbda7295b	-0.08162185
71	0x3e7fca87	0.24979602
72	0x3e246849	0.16055407
73	0x38fd35e0	0.00012074015
74	0x3e5b366d	0.2140748
75	0x3e7a81a1	0.24463512
76	0x3df09787	0.117476515
77	0x3e86ec9b	0.2635239
78	0x3e027030	0.12738109
79	0xbdd9f745	-0.10642866
80	0x3c81c113	0.015839135
81	0xbc2d0004	-0.010559086
82	0x3da5fec6	0.08105235
83	0x3d67453c	0.05646251
84	0x3d825177	0.063631944
85	0xbb47fe8b	-0.003051671
86	0xbe77653a	-0.24159709
87	0xbe472a85	-0.19449814
88	0xbe0ce038	-0.13757408
89	0x3caee761	0.021350564
90	0xbd539ffd	-0.05166625
91	0xbc07d72b	-0.008291046
92	0x3cac4fac	0.021034084
93	0x3ccaedc1	0.024771573
94	0x3c0e5b0e	0.008688701
95	0xbd294b4a	-0.041331567
96	0x3cbfb0de	0.023399767
97	0xb998176b	-0.00029009147
98	0x3e1e81bd	0.15479179
99	0x3ddb3a4b	0.10704478
100	0xbe87854f	-0.26468894
101	0x3df30a76	0.1186723
102	0xbe088b47	-0.1333438
103	0x3cc030ed	0.02346083
104	0xbe393bd4	-0.18089229
105	0x3d534ca1	0.05158675
106	0xbc601179	-0.013676041
107	0xbe451b20	-0.19248629
108	0xbce9e425	-0.02855117
109	0xbd4003bc	-0.04687856
110	0xbe359bac	-0.17735165
111	0xbe3ada2b	-0.18247287
112	0xbdaebde7	-0.08532315
113	0x3a5360e6	0.000806345
114	0xbe3a0f46	-0.18169889
115	0x3bbc0754	0.0057381783
116	0x3dddf13d	0.10837028
117	0xbe2173c0	-0.15766811
118	0xbdbf1d9a	-0.09331818
119	0xbe4ea9b7	-0.20181929
120	0x3d839caf	0.064263694
121	0x3b497133	0.0030737638
122	0x3e200a46	0.15628919
123	0x3d174305	0.03692915
124	0xbd384097	-0.044983473
125	0x3e8db11c	0.27674186
126	0xbe523765	-0.20528944
127	0xbe3bb28c	-0.18329829
128	0xbe5f5fa2	-0.21813825
129	0xbe430162	-0.19043496
130	0x3d9a15d0	0.07523692
131	0x3d8218c5	0.06352381
132	0x3da755b4	0.081706434
133	0x3ddbe1fc	0.107364625
134	0x3d72652f	0.059178527
135	0x3c3ad861	0.011404128
136	0x3ba5e975	0.0050632306
137	0xbdaccf14	-0.084379345
138	0x3de6cce0	0.112695456
139	0x3de940a5	0.11389283
140	0xbe6b1bff	-0.22959898
141	0x3e453fcd	0.1926262
142	0xbdadb6a8	-0.084821045
143	0x3e10fdcd	0.14159317
144	0xbe031cb1	-0.12803914
145	0x3e20ec40	0.15715122
146	0xbd078e3f	-0.03309464
147	0xbe67e705	-0.2264672
148	0xbe760592	-0.24025562
149	0x3d8c2aaa	0.06844075
150	0x3e628c19	0.22123756
151	0x3da05a2e	0.078297004
152	0xbe15bb9e	-0.14622352
153	0x3dc35ba4	0.095389634
154	0xbc94fd03	-0.018187052
155	0x3d3f09c2	0.046640165
156	0x3e609200	0.21930695
157	0xbe5ca89c	-0.21548694
158	0x3da68ea1	0.08132673
159	0xbd0eead0	-0.034891903
160	0x3de2a072	0.11065759
161	0x3e18d86f	0.14926313
162	0x3d8b311b	0.067964755
163	0x3c952f87	0.01821114
164	0x3d4c6d63	0.049909007
165	0x3e01abd4	0.12663203
166	0x3dbe2ca3	0.092858575
167	0x3d907cbe	0.07055043
168	0x3de381ed	0.11108766
169	0xbd5a10ce	-0.053238682
170	0x3e22115e	0.15826938
171	0x3e81b6be	0.25334734
172	0x3d639039	0.055557463
173	0x3c279518	0.010228418
174	0xbc014edd	-0.007892338
175	0x3dc189a9	0.09450085
176	0x3cf47e09	0.029845254
177	0x3d690302	0.056887634
178	0x3e75760b	0.23970811
179	0x3dea9652	0.114544526
180	0xbe0f011c	-0.13965267
181	0x3d256239	0.040376876
182	0x3d206624	0.03915991
183	0x3b0a9d43	0.0021150864
184	0xbd8ce8fa	-0.06880374
185	0x3e09f98a	0.13474098
186	0xbdb4741f	-0.08811211
187	0xbde7bf69	-0.113158055
188	0x3d9432d7	0.072362594
189	0x3daf1a5f	0.08549952
190	0xbced7375	-0.028985718
191	0x3debfd23	0.11522891
192	0x3d40940a	0.04701618
193	0x3d45ddb8	0.04830715
194	0xbc4fae2a	-0.012675801
195	0xbde04335	-0.10950319
196	0x3e178333	0.14796142
197	0xbd9ed8aa	-0.07756169
198	0x3e4f47ff	0.20242308
199	0xbe1ca65c	-0.15297836
200	0x3c258d2c	0.010104459
201	0x3e485373	0.19563083
202	0x3de1269b	0.109936915
203	0x3e37a86e	0.17935345
204	0x3e615fe9	0.22009243
205	0x3e222158	0.15833032
206	0x3e66ee92	0.22551945
207	0x3e748bc7	0.23881446
208	0x3e8678ca	0.2626403
209	0x3e125d31	0.14293362
210	0x3e5acf4b	0.21368138
211	0x3e2ee221	0.17078449
212	0x3d90af8f	0.07064735
213	0x3de99f8e	0.11407386
214	0xbb9f139f	-0.004854634
215	0x3e7fb9e0	0.2497325
216	0x3d1f2f23	0.038863312
217	0xbe28d58c	-0.16487712
218	0xbdf34c57	-0.11879795
219	0x3e8e4bc4	0.2779218
220	0x3e505525	0.2034498
221	0x3d6feb71	0.058574144
222	0x3e814e33	0.25254974
223	0xbcfde3bf	-0.030992387
224	0x3cb038e7	0.021511508
225	0x3c220a84	0.009890202
226	0x3d89c150	0.067263246
227	0x3e436f32	0.19085386
228	0x3e72cd0e	0.23711035
229	0x3e1af3a1	0.15132
230	0x3dda589a	0.10661431
231	0x3dd01f5d	0.10162232
232	0x3d466555	0.04843648
233	0xbdc23de1	-0.09484459
234	0x3cf759f6	0.030194264
235	0x3e03edf4	0.1288374
236	0x3e22110e	0.15826818
237	0x3e0d7891	0.13815524
238	0xbde11976	-0.109911844
239	0xbde4ea32	-0.11177482
240	0xbd3399b9	-0.043847773
241	0xbc28ee49	-0.010310718
242	0x3dd2316d	0.102633335
243	0xbdbb4210	-0.0914346
244	0x3c9a7ba3	0.018857783
245	0xbe400443	-0.18751626
246	0x3e32d47b	0.17463867
247	0x3e5191b8	0.20465744
248	0x3cd1840c	0.02557566
249	0x3d621c11	0.055202547
250	0x3def6152	0.11688484
251	0xbe4a1fdb	-0.19738714
252	0xbd6d2f19	-0.057906244
253	0x3c445e88	0.011985429
254	0xbd9af9a0	-0.075671434
255	0xbbe97898	-0.0071249716

bias f4 [40]
0	0x3e2ccadc	0.1687426
1	0x3e239a9a	0.15976945
2	0x3a1ea2ad	0.0006051462
3	0xbc6da8a4	-0.014505539
4	0x3e6746a8	0.22585547
5	0x3d9c855b	0.07642623
6	0xbd48803f	-0.04895043
7	0xbd544a9b	-0.05182896
8	0x3e0766d9	0.13222827
9	0xbca711de	-0.020394262
10	0x3e2975b5	0.16548808
11	0x3d96a62a	0.07355912
12	0xbbba429f	-0.0056842114
13	0x3e2d1909	0.16904081
14	0x3ca1aa54	0.01973454
15	0xbd6d719b	-0.05796967
16	0xbe3d15c5	-0.18465336
17	0xbdb9f9b0	-0.09080827
18	0x3dfc9bb6	0.12334387
19	0xbd5a0217	-0.05322465
20	0xbe325e20	-0.17418718
21	0x3d94aae2	0.07259156
22	0x3d934045	0.07189993
23	0xbd8e99cf	-0.069629304
24	0xbdb840c8	-0.08996731
25	0xbd5e25a9	-0.054235134
26	0x3e127f15	0.1430629
27	0x3dcb23c2	0.0991893
28	0xbe4d0881	-0.20022775
29	0xbd8b4d57	-0.06801861
30	0xbdf0c18c	-0.11755666
31	0xbd911dca	-0.0708576
32	0xbcdc7302	-0.026910309
33	0x3da04f58	0.078276336
34	0xbe370c91	-0.17875887
35	0x3e5475d8	0.20748079
36	0x3daacb9e	0.08339618
37	0x3e208b6b	0.15678184
38	0x3b599c7a	0.003320484
39	0xbda480d0	-0.080323815

weight_ih_l0 f4 [120, 40]
0	0xbdc48731	-0.09596098
1	0xbbcc59b4	-0.0062362794
2	0xbdf8b5d5	-0.12144057
3	0x3e152478	0.14564693
4	0x3dcb40ca	0.09924467
5	0x3dc5ac24	0.09651974
6	0xbd283f9e	-0.041076295
7	0x3df2bef9	0.118528314
8	0xbd11d928	-0.035607487
9	0xbdd645e7	-0.104625516
10	0xbd8a2b61	-0.06746555
11	0x3d1c13d0	0.038104832
12	0xbc8a2c1a	-0.016866732
13	0xbe21668f	-0.15761779
14	0xbdd0fd7d	-0.10204599
15	0xbdc749fb	-0.097309075
16	0x3aade89e	0.0013268178
17	0x3df0d433	0.11759224
18	0xbbf0a3b5	-0.007343734
19	0xbdd25a07	-0.102710776
20	0x3c5e8b03	0.013582948
21	0x3e0a2039	0.13488854
22	0x3d8b20e4	0.06793383
23	0xbde1ee9c	-0.11031839
24	0x3e04e3c5	0.12977512
25	0x3dd1728a	0.10226925
26	0x3dfde3bd	0.12396953
27	0xbdb9fcd5	-0.09081427
28	0x3cbcbdb7	0.023039682
29	0xbe347e8b	-0.17626397
30	0xbe18a7ec	-0.14907807
31	0xbdfcc4c6	-0.12342219
32	0x3e1f1189	0.15534033
33	0xbd576c0c	-0.052593276
34	0x3de941d9	0.113895126
35	0xbdc67bea	-0.096916035
36	0xbd33dc25	-0.043911118
37	0xbd295aad	-0.04134624
38	0x3e2daf9b	0.1696152
39	0xbdef7d94	-0.11693874
40	0x3e3a1649	0.18172564
41	0x3df868d1	0.12129367
42	0xbde97e2e	-0.1140102
43	0x3e5b82f3	0.21436672
44	0x3dd840ad	0.10559211
45	0x3dc98303	0.098394416
46	0xbe07cae4	-0.1326099
47	0x3de6bae1	0.11266113
48	0xbd5b34c1	-0.053517107
49	0xbe06dbfe	-0.13169858
50	0x3d284e91	0.04109055
51	0xbe869444	-0.26284993
52	0xbd776b22	-0.060404904
53	0x3dd41dca	0.10357244
54	0xbe73fcb0	-0.23826861
55	0xbde51bc2	-0.11186935
56	0x3c8b1ef2	0.01698253
57	0x3e2a60e3	0.16638522
58	0x3d2089b4	0.039193824
59	0xbe2faf93	-0.1715682
60	0xbe0f5042	-0.1399546
61	0x3df3b5c0	0.118999004
62	0xbd853727	-0.0650466
63	0xbdb833fd	-0.08994291
64	0xbe2961b4	-0.16541177
65	0xbe2c9862	-0.16855004
66	0x3e0f5d6c	0.14000481
67	0xbe6776ff	-0.22603987
68	0x3e1b2f5f	0.1515479
69	0xbd98e479	-0.07465453
70	0xbd9fc246	-0.078007266
71	0x3b83654c	0.0040098783
72	0x3d868951	0.0656916
73	0xbe01bab5	-0.1266888
74	0xbe165e17	-0.1468433
75	0xbdb39d2c	-0.087702125
76	0x3e8ba76a	0.27276164
77	0xbe1a88fe	-0.15091321
78	0x3d1e344d	0.038624097
79	0x3b3ff7b3	0.0029291927
80	0x3d9f2243	0.07770207
81	0xbdb077fb	-0.086166345
82	0xbd7ef9dd	-0.062250007
83	0x3df84f1d	0.12124465
84	0xbe233069	-0.15936436
85	0x3dc5c2e7	0.09656315
86	0x3e601024	0.21881157
87	0x3d85ae17	0.06527346
88	0xbe101e98	-0.1407417
89	0xbd8bf9cd	-0.06834755
90	0xbe24fd1e	-0.16112182
91	0x3de8732e	0.11350094
92	0xbe01f484	-0.12690932
93	0xbe11070f	-0.14162849
94	0x3da1d73a	0.07902379
95	0x3e3b582c	0.18295354
96	0xbc640038	-0.013916068
97	0xbe25c641	-0.16188909
98	0x3bcc7ab8	0.006240215
99	0x3c5b3dd1	0.013381437
100	0x3d96fa85	0.073720016
101	0x3e023d06	0.12718591
102	0xbe2404b0	-0.16017413
103	0xbd91d634	-0.07120934
104	0x3e0cc59d	0.13747258
105	0x3dcaa3c3	0.09894516
106	0xbc8c7001	-0.017143251
107	0xbe09da07	-0.13462077
108	0x3d4525af	0.04813164
109	0xbc5c46c2	-0.013444604
110	0x3e188777	0.14895426
111	0x3e2c09fc	0.16800684
112	0xbd09c30c	-0.033633277
113	0xbdf14a18	-0.117817104
114	0x3d4b6e76	0.04966589
115	0xbd9e2d3b	-0.07723471
116	0x3e2654fd	0.16243358
117	0xbdc5762a	-0.09641679
118	0x3cff74fa	0.031183708
119	0x3e1a197d	0.15048786
120	0x3c9a6490	0.01884678
121	0x3d62048e	0.055180125
122	0xbd4f5cd4	-0.050625637
123	0x3cd7789d	0.02630263
124	0x3e0bf633	0.13668136
125	0x3e04863f	0.12941836
126	0xbdb83c2d	-0.089958526
127	0xbe01e945	-0.12686642
128	0x3e09d9fe	0.13462064
129	0xbe27c925	-0.16385324
130	0xbd5ca932	-0.053872295
131	0xbdf7a7ca	-0.1209255
132	0x3da28ae2	0.07936646
133	0x3dd5a782	0.1043234
134	0xbe17bcc6	-0.14818105
135	0xbde78c21	-0.11306024
136	0xbd285ce2	-0.041104205
137	0x3aca1fde	0.0015420874
138	0x3e07bb13	0.13254957
139	0xbdf9fb9b	-0.12206193
140	0xbcb75448	-0.022379056
141	0x3e15e354	0.146375
142	0xbd50336c	-0.05083029
143	0xbe0c9029	-0.13726868
144	0xbdf65818	-0.12028521
145	0xbd06d3bb	-0.032916766
146	0x3e5cd189	0.21564306
147	0xbd9c241b	-0.07624074
148	0xbdbc95f6	-0.0920829
149	0xbe8a55a7	-0.27018473
150	0xbd397694	-0.0452791
151	0x3e17078f	0.14748977
152	0xbe2280a1	-0.1586938
153	0xbe328acf	-0.17435764
154	0xbaf77f58	-0.0018882556
155	0x3d3f279c	0.046668634
156	0x3dea6f5f	0.114470236
157	0x3b57325f	0.003283642
158	0x3dba770c	0.09104738
159	0xbe4fd71b	-0.202969
160	0xbdf6fd1e	-0.12059997
161	0xbd86ac5d	-0.065758444
162	0x3d521ecd	0.051298905
163	0x3e27c129	0.16382279
164	0xbe1c7f08	-0.15282834
165	0xbc64605c	-0.0139389895
166	0xbe391019	-0.18072547
167	0xbbfa3110	-0.0076352432
168	0x3e295a52	0.1653836
169	0xbb18d3b5	-0.0023319547
170	0xbdb03ba3	-0.08605125
171	0xbdc809e7	-0.09767514
172	0xbddddd9b	-0.108332835
173	0xbe6b6e6b	-0.2299134
174	0x3c2d6233	0.010582495
175	0x3d90664e	0.07050763
176	0xba7e980e	-0.0009711989
177	0x3e4bd125	0.19904001
178	0xbdbf1a6d	-0.09331212
179	0xbddcd90e	-0.107835874
180	0x3c18ba74	0.009321798
181	0xbdbd0df5	-0.09231178
182	0xbbef6746	-0.0073060123
183	0x3dd96b78	0.10616201
184	0x3d1b29d0	0.037881672
185	0xbdac3f79	-0.08410544
186	0xbc70c00b	-0.014694224
187	0x3d139724	0.03603281
188	0x3e3a743c	0.18208402
189	0x3da3f663	0.08005979
190	0x3c84385c	0.016140155
191	0xbe3ad90e	-0.18246862
192	0x3d8a875e	0.067641005
193	0x3e39ce95	0.18145211
194	0xbd9ef685	-0.077618636
195	0x3d903c85	0.07042793
196	0xbd6caba3	-0.057780873
197	0xbe436966	-0.19083175
198	0x3d9e8672	0.07740487
199	0xbc857cbd	-0.016294831
200	0xbd0a9fec	-0.03384392
201	0xbdef39c3	-0.11680939
202	0x3d87fb0f	0.066396825
203	0xbdb5312b	-0.08847269
204	0x3e14754e	0.14497873
205	0x3e4060a7	0.1878687
206	0xbca21d40	-0.019789338
207	0xbc1ed3a9	-0.009694018
208	0xbe245908	-0.16049588
209	0x3b14eff7	0.0022726038
210	0x3d8fff7d	0.070311524
211	0xbdf42d53	-0.119227074
212	0xbe4c8507	-0.19972621
213	0x3e32764c	0.17427939
214	0x3d6d026a	0.05786363
215	0x3e072ed4	0.13201457
216	0x3dc8bc03	0.098014854
217	0xbe3c1585	-0.18367584
218	0xbc7a9675	-0.015294661
219	0xbdb985fe	-0.0905876
220	0xbcda1e10	-0.026625663
221	0xbcf01ac9	-0.029309647
222	0xbdcb54b0	-0.09928262
223	0x3dc47aac	0.0959371
224	0xbcf5518d	-0.029946113
225	0xbd394092	-0.045227595
226	0x3cc9a684	0.024615534
227	0xbda0539b	-0.078284465
228	0x3a737fbc	0.0009288748
229	0x3d9be495	0.07611958
230	0x3de08bf6	0.109641954
231	0x3e1c00a5	0.15234621
232	0xbc7cdd56	-0.01543363
233	0xbe0e16a3	-0.13875823
234	0xbde4d2c9	-0.111730166
235	0x3d169fbd	0.036773432
236	0x3e7949de	0.24344584
237	0xbdd5cc77	-0.10439389
238	0xbdeb3917	-0.114854984
239	0xbc9db943	-0.019253379
240	0xbd9b72f1	-0.07590283
241	0xbd99177d	-0.07475183
242	0xbdd4ed06	-0.10396771
243	0x3da0faf5	0.07860366
244	0x3b2136d2	0.0024599326
245	0x3e06eee6	0.1317707
246	0x3d49947c	0.04921387
247	0x3c0d9b45	0.008642976
248	0xbe25caba	-0.16190615
249	0xbd5bb2f6	-0.053637467
250	0xbd1f7043	-0.03892542
251	0xbe1311fc	-0.14362329
252	0x3def3d9f	0.11681675
253	0x3c79ca24	0.015245948
254	0xbe2c17d4	-0.16805965
255	0x3cc4df8f	0.024032382

weight_hh_l0 f4 [120, 40]
0	0xbd455e3a	-0.048185565
1	0xbc8fb2c8	-0.017541304
2	0x3d733677	0.059378114
3	0xbd4c04bf	-0.049809214
4	0x3e0fc1df	0.140388
5	0x3dc5b0b0	0.09652841
6	0x3dbf3cb0	0.09337747
7	0x3c4448b9	0.011980229
8	0x3c6fb9fb	0.014631744
9	0x3dfb28c0	0.12263632
10	0xbdfaf29b	-0.122533046
11	0xbd427cc9	-0.047482286
12	0x3cc5008e	0.024048116
13	0xbe326f2e	-0.17425224
14	0x3e368066	0.17822418
15	0x3d937b21	0.07201219
16	0x3bfdee26	0.007749337
17	0xbe55e479	-0.20887937
18	0x3e0d243c	0.13783354
19	0xbe1eec7a	-0.15519896
20	0xba8fb841	-0.0010964946
21	0x3decbb70	0.11559188
22	0x3ab507aa	0.0013811488
23	0x3ddc92b8	0.10770172
24	0x3d71c9d9	0.059030388
25	0xbd88902d	-0.06668124
26	0xbc54df7c	-0.012992736
27	0xbd6944e4	-0.056950465
28	0xbd89c412	-0.067268506
29	0x3d901144	0.07034543
30	0x3cb483db	0.02203553
31	0x3c54905e	0.012973873
32	0xbdb32e88	-0.087491095
33	0x3c99de66	0.018782806
34	0xbd12ce88	-0.035841495
35	0xbdc8ff21	-0.09814287
36	0xbe20cac2	-0.15702346
37	0xbd7725a0	-0.060338616
38	0x3e2c6be6	0.16838035
39	0x3e22aa32	0.15885237
40	0x3e20b9ee	0.15695927
41	0x3da3fda8	0.080073655
42	0x3c99880c	0.01874163
43	0x3ccf6c0f	0.025320081
44	0x3d4f93ef	0.05067819
45	0x3e8057d7	0.25067016
46	0xbd0fcf10	-0.03510958
47	0x3e118e4f	0.14214443
48	0xbdc10af9	-0.09425921
49	0xbe5db65e	-0.21651599
50	0x3d3e6b3f	0.046488997
51	0xbe2ca83b	-0.1686105
52	0xbd3de012	-0.04635627
53	0x3e256e47	0.16155349
54	0x3e701655	0.23446019
55	0xbd0c9b7c	-0.03432797
56	0x3d187d8d	0.03722911
57	0xbd60897a	-0.054818608
58	0x3c83c431	0.016084762
59	0xbe567277	-0.20942102
60	0x3e21ae52	0.15789154
61	0x3e2eebb3	0.170821
62	0xbd77cf1c	-0.06050025
63	0x3e1f68f4	0.1556738
64	0xbddab907	-0.106798224
65	0xbc95d825	-0.018291542
66	0xbd78cc1b	-0.060741525
67	0x3e50636a	0.20350423
68	0xbe1f9d98	-0.15587461
69	0xbd409ab4	-0.047022536
70	0xbe65fd85	-0.22459991
71	0xbe6a38ad	-0.22873183
72	0x3e77fe7a	0.24218169
73	0x3cc8a97c	0.024494879
74	0xbb9b2338	-0.004734423
75	0x3dd6e007	0.104919486
76	0xbe532914	-0.20621139
77	0x3d44e226	0.048067234
78	0xbdc29433	-0.09500923
79	0x3e5a17f6	0.21298203
80	0xbcee61d7	-0.029099388
81	0xbb2cb1fe	-0.0026351209
82	0xbddf91df	-0.109164946
83	0x3ddf07b6	0.108901426
84	0xbe1c2241	-0.15247442
85	0x3e317be1	0.17332412
86	0xbde06e68	-0.10958558
87	0x3da837a2	0.08213736
88	0x3c20fae4	0.009825442
89	0xbd096b6f	-0.033549722
90	0x3e00ed2a	0.12590471
91	0x3cab308d	0.020897174
92	0x3c98386a	0.018581588
93	0x3d5ba394	0.053622797
94	0xbdb60011	-0.088867314
95	0xbdb373ee	-0.08762346
96	0x3e0c082c	0.13674992
97	0xbe0cd21f	-0.1375203
98	0xbd97ebf7	-0.074180536
99	0x3afaec78	0.001914396
100	0x3ded6611	0.11591733
101	0x3dc72189	0.09723193
102	0xbc064767	-0.008195735
103	0xbe5524e4	-0.20814854
104	0xbd2288f7	-0.0396814
105	0x3bef06fd	0.0072945342
106	0xbd43fb9f	-0.047847386
107	0xbd46b533	-0.04851265
108	0x3c532294	0.012886662
109	0xbdbdc841	-0.09266711
110	0x3c9b4b44	0.018956788
111	0xbc8dfc52	-0.01733223
112	0x3db76eca	0.08956678
113	0xbd0e5192	-0.03474576
114	0xbc5383ce	-0.012909843
115	0x398ab070	0.00026452867
116	0x3cf6d573	0.030131077
117	0xbd51b127	-0.051194336
118	0xbe00d315	-0.12580521
119	0xbddcd271	-0.10782326
120	0x3e306a82	0.1722813
121	0x3d459cd3	0.048245262
122	0xbe8bf6cc	-0.2733673
123	0x3dbc4c47	0.09194236
124	0x3e47fcf1	0.19530083
125	0x3ce07437	0.027399166
126	0xbda59305	-0.080846824
127	0xbbc59030	-0.0060291514
128	0x3cee0836	0.02905665
129	0xbd907635	-0.07053796
130	0xbe3210c1	-0.17389204
131	0x39dcd084	0.00042117026
132	0xbe458b68	-0.1929146
133	0xbd9cfb51	-0.07665122
134	0x3e4e7a1c	0.20163769
135	0x3e4ec1ee	0.20191166
136	0x3d45423f	0.04815888
137	0x3de78b82	0.11305906
138	0xbc56fcd0	-0.013121799
139	0x3baad8c4	0.0052138288
140	0x3e354977	0.17703806
141	0x3d6e77b6	0.058219634
142	0x3e10a78a	0.14126411
143	0x3e43ff6f	0.19140409
144	0xbe13ffdc	-0.14453071
145	0x3c0ee15a	0.00872072
146	0x3e2c9e01	0.16857149
147	0x3e1ad88d	0.1512167
148	0xbe4dfa15	-0.2011493
149	0xbca83911	-0.020535024
150	0xbde5af24	-0.11215046
151	0xbd9b7b29	-0.0759185
152	0x3dfe0e19	0.12405033
153	0x3e38c730	0.18044734
154	0x3ca104ea	0.019655664
155	0x3db6e6be	0.08930729
156	0xbe76e70a	-0.24111572
157	0x3d5ad406	0.053424858
158	0x3dc363e8	0.0954054
159	0xbbfb4670	-0.007668309
160	0x3bfd43b4	0.007729018
161	0xbe30e6ba	-0.17275515
162	0x3d9feb0d	0.07808504
163	0xbd237fbf	-0.03991675
164	0x3e31e950	0.17374158
165	0xbe58b6b9	-0.21163453
166	0x3d2ff850	0.04296142
167	0x3c813fe3	0.015777534
168	0x3e085fa1	0.1331773
169	0x3e82d26f	0.25551173
170	0x3e266335	0.16248782
171	0x3d8a1edd	0.06744168
172	0xbd052416	-0.032505117
173	0x3d91de11	0.07122434
174	0xbe26a4d8	-0.1627382
175	0x3d00c51d	0.031437982
176	0x3d007180	0.031358242
177	0xbda0d22a	-0.078525856
178	0x3d2fee21	0.042951707
179	0x3e71a977	0.23599802
180	0xbc11f741	-0.008909048
181	0x3ce2e944	0.02769912
182	0x3d11912b	0.035538834
183	0x3de8f573	0.11374941
184	0x3d218a92	0.03943879
185	0xbe264f9a	-0.16241303
186	0x3d0d3383	0.034472954
187	0x3d4c4cd3	0.049877953
188	0xbdf2d6cf	-0.11857378
189	0x3d03fdb6	0.03222438
190	0x3e40f6e0	0.18844175
191	0x3de7fd7b	0.113276444
192	0xbe3ed027	-0.18634091
193	0x3d39efb0	0.0453946
194	0xbe3c978e	-0.18417189
195	0x3d49df78	0.049285382
196	0x3d15ebc8	0.03660181
197	0x3da79d95	0.08184353
198	0x3da71b8b	0.0815955
199	0x3caf3c71	0.021391125
200	0xbd4c088e	-0.049812846
201	0x3d6b86e0	0.057501674
202	0x3dd70503	0.10499003
203	0x3e446eb9	0.19182862
204	0x3ccab1a2	0.024742905
205	0x3e34ae24	0.17644554
206	0x3d8842ad	0.066533424
207	0x3e78292b	0.24234454
208	0x3d8adc9d	0.0678036
209	0xbcd1f752	-0.025630627
210	0xbe530411	-0.2060702
211	0xbe04c569	-0.12965931
212	0xbdc394f5	-0.09549896
213	0x3dff5795	0.12467877
214	0x3c090dcb	0.008365105
215	0x3d8f0485	0.06983284
216	0x3e44a26c	0.19202584
217	0xbe25ffd2	-0.16210869
218	0x3e4780b7	0.19482695
219	0x3cd2dfea	0.025741536
220	0x3e58f215	0.21186097
221	0xbd3c5651	-0.045980755
222	0x3e060274	0.13086873
223	0xbb7f4356	-0.0038950047
224	0xbdabae6a	-0.08382876
225	0x3cb37ec4	0.021911032
226	0x3d0e5a84	0.03475429
227	0xbd44ffe7	-0.04809561
228	0x3db4d1a3	0.088290475
229	0x3e3d1668	0.18465579
230	0x3cd1c903	0.025608545
231	0xbe85e80b	-0.26153597
232	0x3c976c5e	0.01848429
233	0x3d8dbcf9	0.06920809
234	0xbd070233	-0.03296108
235	0x3ca51325	0.02015073
236	0xbd687370	-0.056750715
237	0x3e5c56c0	0.21517467
238	0xbd256441	-0.040378813
239	0x3d2fca38	0.04291746
240	0x3da3ef14	0.08004585
241	0x3c24f222	0.010067495
242	0x3de15e31	0.11004294
243	0x3e42fdbb	0.19042103
244	0xbdf608f8	-0.120134294
245	0x3daf9602	0.085735336
246	0x3e2f2db2	0.17107275
247	0xbda30991	-0.07960809
248	0xbc22bb6f	-0.009932383
249	0x3dea2df9	0.1143455
250	0x3e1e14bf	0.15437602
251	0xbe0cdaaf	-0.13755296
252	0x3c637344	0.013882462
253	0x3dce81a1	0.100833185
254	0x3d717ea2	0.058958657
255	0xbcb4367a	-0.021998633
