Results/0050_discriminator1_adjusted.pth (torch, 251305 bytes, 35 tensors)

weight_ih_l0 f4 [120, 20]
0	0x3d87c06c	0.066284984
1	0xbd54fe01	-0.05200005
2	0xbd95f7f6	-0.073226854
3	0xbdf4f0e2	-0.11960007
4	0x3d3239b8	0.043512076
5	0x3cef4fc7	0.029212845
6	0x3d515d85	0.051114578
7	0xbcee3c4a	-0.029081482
8	0xbd1127e1	-0.035438422
9	0xbd8b564e	-0.06803571
10	0xbdc1daad	-0.09465537
11	0x3df28219	0.118412204
12	0x3e0a53fb	0.13508599
13	0x3ce42150	0.027847916
14	0x3c5bb709	0.013410338
15	0x3e0b631d	0.13612027
16	0x3ddbcd0c	0.10732469
17	0xbbae1950	-0.005313076
18	0xbd0e58da	-0.034752704
19	0x3c9b32b8	0.018945083
20	0xbe1d1746	-0.1534091
21	0xbdb1a913	-0.086748265
22	0x3e1a7855	0.15084966
23	0xbe085913	-0.13315229
24	0x3e056f67	0.13030778
25	0xbcf12a09	-0.02943899
26	0x3d7a3f92	0.06109578
27	0xbd21c0f8	-0.03949067
28	0x3e0b06a2	0.13576749
29	0xbd223646	-0.03960254
30	0x3d41808e	0.04724174
31	0xbd2b2d0f	-0.041791018
32	0xbcb2004a	-0.021728653
33	0x3d09f888	0.033684283
34	0xbdb78a61	-0.089619406
35	0x3d9cfc3b	0.07665297
36	0xbb9a9429	-0.004717369
37	0x3ddf25ab	0.108958565
38	0xbdff3301	-0.124609
39	0x3d9535a7	0.07285624
40	0xbdc979b6	-0.09837668
41	0x3c9ef5da	0.01940434
42	0x3bca1069	0.006166507
43	0x3dbb0487	0.09131723
44	0xbe19041d	-0.14942975
45	0x3dd278e6	0.10276966
46	0x3ca06dac	0.019583546
47	0xbe226aaf	-0.15861009
48	0x3cc4a063	0.02400226
49	0xbe2b29d9	-0.16715182
50	0xbcbee229	-0.023301201
51	0x3e070c41	0.13188268
52	0x3e0c65f3	0.13710766
53	0x3e35aa02	0.17740634
54	0xbe08ee46	-0.13372144
55	0xbc91de3c	-0.017806165
56	0x3d96a4f2	0.073556796
57	0x3cb34358	0.021882698
58	0x3e0b1c65	0.1358505
59	0xbe2944b3	-0.16530113
60	0x3dc0b4a7	0.09409457
61	0x3dc2d0f9	0.095125146
62	0x3e100a3b	0.14066403
63	0x3d33797d	0.043817032
64	0xbb324f83	-0.0027208037
65	0x3dc1e595	0.094676174
66	0x3d68b36b	0.05681173
67	0xbc94e52d	-0.018175686
68	0x3e18d500	0.14925003
69	0xbdd9620c	-0.10614404
70	0x3dd9206b	0.10601886
71	0xbcde5018	-0.027137801
72	0xbe27524e	-0.1633999
73	0xbe305043	-0.17218117
74	0x3da6414d	0.08117924
75	0xbddd619e	-0.108096346
76	0x3e0abccb	0.13548581
77	0x3d50d789	0.0509868
78	0xbda14563	-0.078745626
79	0x3c1f6b2c	0.009730142
80	0x3c75802b	0.014984171
81	0xbd33125a	-0.043718673
82	0xbdc5da75	-0.09660808
83	0xbdc6328e	-0.09677611
84	0xbe01589c	-0.12631458
85	0x3da25146	0.07925658
86	0xbd19544f	-0.03743392
87	0xba8cff08	-0.0010757158
88	0xbd026498	-0.031834215
89	0xbd7a5b0a	-0.061121978
90	0x3dc1b874	0.0945901
91	0xbdc40239	-0.095707364
92	0xbdaabe15	-0.083370365
93	0x3d122e9f	0.035688993
94	0xbe2031e9	-0.15644039
95	0xbce51189	-0.027962463
96	0xbdd25af7	-0.102712564
97	0x3e030d2c	0.12797993
98	0x3cfd2eaa	0.03090604
99	0xbe1fccf3	-0.15605526
100	0xbdf51e78	-0.11968702
101	0x3e20bfb5	0.1569813
102	0x3e23bcbc	0.15989965
103	0x3dbbe21f	0.091739886
104	0x3dad1b37	0.084524564
105	0x3cc957c5	0.024577985
106	0xbd8296ad	-0.063763954
107	0x3cdb7d52	0.026793156
108	0x3c344f5e	0.011005251
109	0x3dd05316	0.101720974
110	0xbe11b8c8	-0.14230645
111	0xbc9047f4	-0.017612435
112	0xbcf56534	-0.029955484
113	0xb9f4be25	-0.00046680975
114	0x3cff5e49	0.031172888
115	0x3d90abc6	0.07064013
116	0xbd549c65	-0.051906962
117	0xbd2cfe75	-0.042234857
118	0xbd02cc7e	-0.0319333
119	0xbdc29d70	-0.09502685
120	0x3c343d1f	0.0110009005
121	0x3e197d26	0.14989147
122	0x3dce8b8e	0.10085212
123	0x3df83b7d	0.121207215
124	0x3e0fd2c2	0.14045241
125	0x3d8a3a7a	0.06749435
126	0x3bd7187a	0.006564197
127	0xbe035840	-0.12826633
128	0x3e0e7049	0.13910021
129	0xbd15772f	-0.036490615
130	0xbdb8a41d	-0.09015677
131	0x3d96b3ed	0.07358537
132	0xbd70ff07	-0.058836963
133	0x3d896f1b	0.06710645
134	0x3cd3f5c4	0.025874026
135	0x3cf53bf7	0.02993582
136	0xbe2acf4a	-0.16680637
137	0x3d21cbe8	0.0395011
138	0x3db409b2	0.08790912
139	0x3da3ba66	0.07994537
140	0xbe2cfd09	-0.168934
141	0x3c5752ee	0.013142331
142	0x3dc41aaa	0.09575398
143	0xbc12db77	-0.008963457
144	0xbdf8e43c	-0.12152907
145	0xbe011e93	-0.1260932
146	0xbda4d5eb	-0.08048614
147	0xbe25b212	-0.1618121
148	0xbce26fcc	-0.0276412
149	0x3cfdb2a6	0.030968975
150	0xbdb89db7	-0.09014457
151	0x3e0bfc76	0.13670525
152	0x3d96e98f	0.073687665
153	0x3e0d6a7a	0.13810149
154	0xbb2e6753	-0.002661188
155	0xbdc34997	-0.095355205
156	0xbe24f34d	-0.16108437
157	0xbe28cb0d	-0.16483708
158	0x3dd401a2	0.10351874
159	0xbb83e773	-0.0040253936
160	0x3e04c520	0.12965822
161	0x3dcc5f00	0.09979057
162	0xbb8b4863	-0.0042505725
163	0x3c8217e2	0.015880529
164	0x3cd482bd	0.025941247
165	0x3d47a44b	0.048740666
166	0x3e1960ba	0.14978305
167	0x3d9585f4	0.0730094
168	0xbcc653d4	-0.024209894
169	0x3d7316ca	0.059347905
170	0xbd362d5c	-0.04447685
171	0xbdeb6350	-0.11493552
172	0xbc6bda91	-0.014395372
173	0x3be52861	0.006993339
174	0x3e2fcc27	0.17167722
175	0xbd02ad45	-0.031903524
176	0xbd6915ae	-0.05690544
177	0xbcb13de4	-0.021635957
178	0x3e07bca6	0.13255557
179	0x3e29a784	0.16567808
180	0x3d8d466a	0.06898196
181	0x3d98ab55	0.07454554
182	0xbd64b286	-0.055834316
183	0xbde438e9	-0.11143667
184	0x3d80ba93	0.06285586
185	0xbe0e5b62	-0.13902047
186	0xbe1818fd	-0.14853282
187	0xbe1774a6	-0.14790592
188	0xbc0dee11	-0.0086627165
189	0x3df8e2f7	0.12152665
190	0xbe06132b	-0.1309325
191	0x3e002866	0.12515411
192	0x3c5bea0c	0.0134225
193	0xbd9ffa71	-0.0781144
194	0xbe364437	-0.1779946
195	0x3e19a20f	0.15003227
196	0xbdcbf532	-0.09958877
197	0xbd9e802c	-0.077392906
198	0x3dac9b00	0.084280014
199	0xbc3bab68	-0.011454441
200	0x3e017c46	0.12645063
201	0x3e12537e	0.14289662
202	0xbcee09e7	-0.029057456
203	0xbe0fe91f	-0.14053772
204	0x3d8236ea	0.0635813
205	0x3dd47ebf	0.103757374
206	0xbdd1f23f	-0.10251283
207	0x3cb50cac	0.022100769
208	0xbe02d1a7	-0.12775289
209	0xbd96a530	-0.07355726
210	0x3d030e25	0.03199591
211	0x3dc1f1a2	0.09469916
212	0xbe0891d3	-0.13336878
213	0xbd111dce	-0.035428815
214	0xbde4ff6e	-0.11181532
215	0x3d71a0bc	0.05899118
216	0x3df08fb6	0.11746161
217	0x3dc3cbc8	0.095603526
218	0xbc9f11bb	-0.019417634
219	0x3ddd5b27	0.108084016
220	0x3e0f0f21	0.13970615
221	0xbe0cc68a	-0.13747612
222	0x3d22b040	0.039718866
223	0x3e06c174	0.13159734
224	0xbd0cc885	-0.034370918
225	0xbd9cd103	-0.07657053
226	0x3de6c67c	0.11268327
227	0x3dfc2757	0.12312191
228	0x3ddd3cb9	0.108025976
229	0xbca06d47	-0.019583357
230	0x3deb077a	0.114760354
231	0xbe221aa6	-0.15830478
232	0xbd1b76aa	-0.037954964
233	0x3d3bcc32	0.045849033
234	0x3e1f732b	0.15571277
235	0x3c9613f3	0.01832006
236	0x3e219040	0.15777683
237	0xbe12c673	-0.14333515
238	0x3b6ffb92	0.0036618453
239	0x3e112860	0.14175558
240	0x3dde7ada	0.10863276
241	0x3e0b32c0	0.13593578
242	0xbd9efac0	-0.077626705
243	0x3e0bc6a8	0.1365
244	0x3cad97c0	0.021190524
245	0x3dfa266f	0.12214362
246	0x3d397f2b	0.045287292
247	0xbdb53ee2	-0.088498846
248	0x3df63ba1	0.12023092
249	0x3cb41108	0.021980777
250	0x3d7621ea	0.060090937
251	0x3d6cfc18	0.057857603
252	0x3daa2ff4	0.083099276
253	0xbdd80ced	-0.105493404
254	0xbd2f7175	-0.04283281
255	0xbdeacca2	-0.11464812

weight_hh_l0 f4 [120, 40]
0	0xbde69880	-0.11259556
1	0xbe23cd67	-0.15996324
2	0xbe073ce4	-0.13206822
3	0xbe02d59a	-0.12776795
4	0x3ddb3242	0.10702945
5	0x3d120f39	0.03565905
6	0x3d2afe65	0.041746516
7	0x3c05a14f	0.008156135
8	0x3d75231b	0.059847932
9	0x3daaa07c	0.08331391
10	0xbe02fc75	-0.12791617
11	0xbdf7124b	-0.12064036
12	0x3d67fa5d	0.05663525
13	0xbdd9e109	-0.10638625
14	0x3c867bd0	0.01641646
15	0x3d0c6142	0.03427244
16	0x3db222e0	0.08698058
17	0xbd243485	-0.04008915
18	0x3d410294	0.0471216
19	0x3c351408	0.011052139
20	0xbe00054d	-0.12502022
21	0xbc3dbc97	-0.011580608
22	0x3e101f8c	0.14074534
23	0xbd5504c2	-0.05200649
24	0x3cac73be	0.021051284
25	0x3d0d5f65	0.034514803
26	0xbdfc4d77	-0.12319463
27	0xbd641dc2	-0.05569244
28	0xbc8983b9	-0.016786443
29	0x3db8874a	0.09010179
30	0x3e0cb14b	0.13739507
31	0x3d8d0f86	0.068877265
32	0xbe07c928	-0.13260329
33	0xbdec3237	-0.11533015
34	0x3cec88d9	0.028873848
35	0x3db607c0	0.08888197
36	0x3db38555	0.087656654
37	0xbd15e3e9	-0.036594305
38	0xbe002491	-0.12513949
39	0x3e03d82f	0.12875436
40	0x3d72ece5	0.05930795
41	0x3d0057f5	0.031333882
42	0xbcb4b7a4	-0.022060223
43	0x3db4fd40	0.08837366
44	0xbd2260c4	-0.039643064
45	0xbd07fd33	-0.033200454
46	0xbd90b109	-0.07065017
47	0x3e0e51e6	0.1389843
48	0xbe2cc09f	-0.16870354
49	0xbe275f16	-0.16344866
50	0x3e146af2	0.14493921
51	0x3cddcad3	0.027074253
52	0xbdd3650a	-0.10322006
53	0x3dcab2d2	0.098973885
54	0x3dc6c299	0.09705085
55	0xbd67153f	-0.056416746
56	0xbcfbb8c4	-0.030727752
57	0x3df90f78	0.121611536
58	0xbcb6326b	-0.022240838
59	0x3da46360	0.08026767
60	0xbdad43e1	-0.084602125
61	0xbd950d09	-0.07277877
62	0xbded7ee9	-0.11596472
63	0x3c580677	0.013185135
64	0x3dceca98	0.100972354
65	0x3e187eba	0.14892092
66	0xbddf8be6	-0.109153554
67	0x3de971f7	0.1139869
68	0x3d5b2f30	0.0535118
69	0x3e07a62b	0.13246982
70	0x3ddf7506	0.10910992
71	0x3a25eb36	0.00063292996
72	0xbd9af76b	-0.075667225
73	0xbd423e9c	-0.04742299
74	0xbd6fbef7	-0.058531728
75	0x3e002f0d	0.12517948
76	0x3d01a5c0	0.031652212
77	0xbe0bdabd	-0.13657661
78	0xbdc9848a	-0.09839733
79	0xbd79183d	-0.06081413
80	0x3cd2b1fa	0.025719631
81	0x3d61c22d	0.05511682
82	0x3dc0751c	0.09397337
83	0x3dd3a63b	0.1033444
84	0x3d906703	0.07050898
85	0xbdc947d5	-0.09828154
86	0x3e045172	0.12921694
87	0xbda9121b	-0.082554065
88	0xbcdc4f4e	-0.026893284
89	0xbdca68c7	-0.09883266
90	0xbdb3ae7c	-0.08773515
91	0x3d944c9c	0.072411746
92	0x3dd67abe	0.1047263
93	0x3ca97877	0.020687325
94	0xbd1a0758	-0.03760466
95	0xbe17f263	-0.14838557
96	0xbcc96428	-0.024583891
97	0xbc03fa8b	-0.00805534
98	0xbbaa963a	-0.0052058967
99	0x3c787a85	0.01516593
100	0x3e3c4ed9	0.18389453
101	0xbdb1af0b	-0.08675965
102	0x3e150b66	0.1455513
103	0x3bb8c061	0.0056381677
104	0x3d6418cb	0.055687707
105	0x3da47318	0.08029765
106	0xbe1379e7	-0.14401971
107	0xbdabbf97	-0.08386152
108	0x3dc8d3e9	0.09806044
109	0xbe00c55d	-0.12575288
110	0xbe194124	-0.14966255
111	0xbd5c3849	-0.053764615
112	0x3e285d29	0.16441788
113	0xbdb71c48	-0.08940941
114	0xbda301e2	-0.079593435
115	0x3e1ac6bf	0.15114878
116	0xbd379b7c	-0.044826016
117	0x3b5aef16	0.0033406666
118	0x3e0c4866	0.13699493
119	0xbd8aba5c	-0.067738265
120	0x3dd4c79e	0.103896365
121	0x3dadd788	0.08488375
122	0xbae19130	-0.0017209407
123	0x3d8be135	0.06830064
124	0x3d982f46	0.07430892
125	0xbd036738	-0.03208086
126	0xbb590982	-0.003311724
127	0x3cb79d7c	0.022413962
128	0xbd9c10ca	-0.0762039
129	0x3dca0add	0.09865353
130	0x3cb951ed	0.022622073
131	0xbd645526	-0.055745266
132	0x3d8856b8	0.06657165
133	0xbcbb2253	-0.022843516
134	0x3c764b96	0.0150326695
135	0xbe220075	-0.15820487
136	0x3e2f10f1	0.17096306
137	0x3cfcfb2a	0.030881483
138	0x3d9eb54a	0.07749422
139	0xbdebeefb	-0.11520191
140	0xbda9c9b5	-0.08290426
141	0x3d0519ff	0.032495495
142	0xbd4ddbab	-0.05025832
143	0x3d083690	0.03325516
144	0x3c87ee4c	0.016593121
145	0x3d856638	0.06513637
146	0xbdae1293	-0.084996365
147	0xbda7bd4d	-0.08190403
148	0x3df29853	0.1184546
149	0xbdbd0878	-0.09230131
150	0x3e327029	0.17425598
151	0x3d611514	0.054951742
152	0xbd22bbfe	-0.039730065
153	0x3d398e90	0.045301974
154	0x3c8386e2	0.016055528
155	0xbe15bab4	-0.14622003
156	0x3d302c2c	0.043010876
157	0xbe07eb67	-0.13273393
158	0x3def99a2	0.11699225
159	0x3ce01d95	0.027357856
160	0xbe320ab7	-0.173869
161	0xbe187e92	-0.14892033
162	0x3e0d16e2	0.1377826
163	0x3d55d64f	0.052206334
164	0xbdff64fb	-0.12470432
165	0x3d1180da	0.035523273
166	0x3e064ba2	0.13114789
167	0xbb815fdb	-0.0039481944
168	0xbdbc44c0	-0.091928005
169	0x3dc6704f	0.0968939
170	0x3e119d1c	0.14220089
171	0xbe049b2e	-0.12949821
172	0xbe0450e7	-0.12921487
173	0xbdfd57ee	-0.12370287
174	0xbdb7499c	-0.08949587
175	0x3cacd4dd	0.021097595
176	0x3dc8cf70	0.098051906
177	0xbcad1281	-0.021126987
178	0x3ddf9cb2	0.10918559
179	0x3d043276	0.032274686
180	0x3d360baa	0.044444717
181	0xbdf0a7ee	-0.1175078
182	0x3dec789b	0.11546441
183	0x3e2cf9f9	0.16892232
184	0x3ddbfcc5	0.10741571
185	0xbc8c250d	-0.017107511
186	0x3e0339fb	0.12815087
187	0x3d32275e	0.043494575
188	0xbdaf5aa1	-0.08562208
189	0x3d2aaf48	0.041671067
190	0xbd8e9a17	-0.06962984
191	0x3dba75fa	0.091045335
192	0xbd74326c	-0.0596184
193	0xbd9c1f41	-0.07623149
194	0x3d84fbc1	0.06493331
195	0x3e193828	0.14962828
196	0xbdf8c500	-0.1214695
197	0xbdeae17d	-0.1146879
198	0xbc9e42f7	-0.01931904
199	0xbc45ea57	-0.012079797
200	0x3daef3da	0.08542605
201	0xbdee5d9d	-0.11638949
202	0xbd912206	-0.070865676
203	0x3dbd73db	0.09250613
204	0x3d8d02bd	0.06885288
205	0xbd8e6601	-0.069530495
206	0x3d4292bd	0.04750322
207	0xbddc7944	-0.10765317
208	0x3d9a9864	0.075485975
209	0x3e084969	0.13309254
210	0xbca990d2	-0.020698939
211	0xbd2cffe5	-0.042236228
212	0x3bd6f36d	0.0065597803
213	0x3e071267	0.13190614
214	0xbda1f280	-0.07907581
215	0xbdcb98d6	-0.099412605
216	0x3d19ddbc	0.037564978
217	0x3e03181b	0.12802164
218	0x3dcece0d	0.10097895
219	0xbd96a06a	-0.07354815
220	0xbe0bcd36	-0.136525
221	0x3d4bd3d4	0.049762562
222	0x3d1a6e64	0.037702933
223	0x3af70c2c	0.0018848232
224	0xbe2700b7	-0.16308866
225	0xbe0d6e6d	-0.13811655
226	0xbddbe89d	-0.10737727
227	0xbe2373ac	-0.15962094
228	0xbe2b690f	-0.16739295
229	0x3dc25faa	0.09490903
230	0xbe2948ae	-0.16531631
231	0x3d6a7d22	0.057248242
232	0x3e1a38c9	0.15060724
233	0x3d816483	0.06317999
234	0x3b9d7eba	0.0048063667
235	0xbdbaa6f8	-0.09113878
236	0x3dd45527	0.10367804
237	0x3e1df31e	0.15424773
238	0x3bc06921	0.0058719073
239	0x3dbf6343	0.093451045
240	0xbe3279c3	-0.17429261
241	0xbcde81b5	-0.027161459
242	0x3df41205	0.119174995
243	0xbde63057	-0.11239689
244	0xbdabf358	-0.083960235
245	0x3d7ec7c0	0.062202215
246	0xbccedc5e	-0.025251564
247	0x3e225794	0.15853721
248	0xbdddd721	-0.10832048
249	0x3d908397	0.07056349
250	0x3deefb17	0.11668985
251	0x3dd48b4f	0.103781335
252	0x3d02ea97	0.031962004
253	0x3e32f41e	0.17475936
254	0x3de8f564	0.113749295
255	0x3e099823	0.13436942

bias_ih_l0 f4 [120]
0	0x3c0ae927	0.008478439
1	0x3df1a870	0.11799705
2	0xbd17ac4e	-0.037029557
3	0x3ca0af05	0.019614706
4	0x3dd40807	0.103530936
5	0x3d36075f	0.044440623
6	0xbe094ec5	-0.13408954
7	0xbde04b74	-0.109518915
8	0xbe2ac3b6	-0.1667622
9	0xbd86f25d	-0.06589196
10	0xbc7253e7	-0.014790512
11	0xbc98d3e1	-0.01865572
12	0xbd131de3	-0.035917174
13	0xbda362bf	-0.07977819
14	0x3db99c81	0.09063054
15	0x3b4e7d7b	0.0031507898
16	0x3c3f83ff	0.011689185
17	0x3dd2fb57	0.103018455
18	0x3ddde217	0.10834139
19	0xbcb783aa	-0.02240165
20	0xbd2399c5	-0.039941568
21	0x3c0474c8	0.008084483
22	0x3cf7f78a	0.030269403
23	0xbdf98810	-0.12184155
24	0xbde3c9cb	-0.11122473
25	0xbd9d1d9a	-0.07671662
26	0x3de72524	0.11286381
27	0x3c71abf3	0.014750469
28	0x3daded0d	0.084924795
29	0xbda38764	-0.07984808
30	0x3db75ab2	0.08952846
31	0xbe00061f	-0.12502335
32	0x3b8e3f2f	0.004341028
33	0x3b3d5824	0.0028891647
34	0xbda98637	-0.082775526
35	0xbdec522b	-0.1153911
36	0x3d45435f	0.048159953
37	0xbd079038	-0.033096522
38	0xbd4eb2df	-0.050463554
39	0xbdba7ad8	-0.09105462
40	0x3db8781d	0.09007285
41	0xbd944a95	-0.07240788
42	0x3dcfc774	0.101454645
43	0x3dd20305	0.10254482
44	0x3e030201	0.12793733
45	0xbc681f82	-0.014167668
46	0x3de113b3	0.109900855
47	0xbe0de95b	-0.1385855
48	0x3ce2dd2c	0.027693354
49	0xbddcc5d8	-0.10779923
50	0xbd149614	-0.03627594
51	0x3e178b87	0.14799319
52	0xbd880b02	-0.066427246
53	0x3e21387e	0.15744206
54	0x3e2107d2	0.1572564
55	0x3cf43505	0.029810438
56	0xbd6e472f	-0.058173355
57	0x3c93e9d5	0.018055836
58	0x3e0e1ab1	0.1387737
59	0xbc962ef1	-0.01833293
60	0xbdef85e6	-0.11695461
61	0x3db9dad9	0.09074945
62	0xbbad3419	-0.0052857515
63	0x3dd9b21d	0.106296755
64	0x3e040b71	0.1289499
65	0xbcb1d301	-0.02170706
66	0x3d0cbe9f	0.034361478
67	0xbda6ce1a	-0.081447795
68	0x3d8da6e5	0.06916598
69	0xbd4e4f7f	-0.050368782
70	0xbcb29762	-0.0218007
71	0xbd506195	-0.05087431
72	0x3de4867f	0.111584656
73	0x3d80e7a5	0.06294183
74	0x3e1ddd04	0.15416342
75	0x3e2ae6cf	0.16689609
76	0x3d7980b3	0.060913753
77	0xbdf17e5e	-0.11791681
78	0x3cea549a	0.028604794
79	0xbd7666fd	-0.06015681
80	0xbcbd149b	-0.023081115
81	0xbd578f04	-0.052626625
82	0x3d78ca84	0.06074001
83	0xbd21a3b6	-0.039462768
84	0x3d5b4838	0.05353567
85	0x3d36162a	0.04445473
86	0x3de3b427	0.11118346
87	0xbdbafdb3	-0.091304205
88	0x3ddff56c	0.109354824
89	0xbd83a8a8	-0.06428653
90	0xbd666f38	-0.05625841
91	0x3e12c98e	0.143347
92	0xbdf00deb	-0.11721405
93	0x3b8d5567	0.0043131593
94	0x3a827583	0.0009953234
95	0xbda9da9c	-0.082936496
96	0xbc9cfee3	-0.019164508
97	0xbc9de83d	-0.019275779
98	0xbe016f60	-0.12640142
99	0xbc403348	-0.011730976
100	0x3b374b57	0.002796849
101	0xbcb22338	-0.02174531
102	0x3e262742	0.16225913
103	0x3e0051b9	0.12531175
104	0xbd9cba12	-0.076526776
105	0x3e075fe6	0.13220176
106	0xbd42114c	-0.047379777
107	0xbd178f0c	-0.037001655
108	0x3d479871	0.048729364
109	0x3d7c1cae	0.06155079
110	0xbe136d1c	-0.1439709
111	0x3cac7f32	0.021056745
112	0x3e1ee2f5	0.15516265
113	0xbccec71f	-0.025241433
114	0x3ca91693	0.020640647
115	0xbd892b66	-0.06697731
116	0x3e08bc84	0.13353163
117	0x3e1c3768	0.15255511
118	0x3d321a63	0.043482196
119	0xbd099c93	-0.033596586

bias_hh_l0 f4 [120]
0	0x3e212988	0.15738499
1	0x3dad8932	0.084734336
2	0x3e31950c	0.17342013
3	0xbc6bb842	-0.014387192
4	0x3e2eaa5c	0.17057174
5	0xbd18d801	-0.037315372
6	0x3b7f6c76	0.003897456
7	0x3d9b2510	0.075754285
8	0xbcd713ca	-0.026254553
9	0xbdff514c	-0.12466678
10	0xbd372258	-0.044710487
11	0x3da79a4c	0.08183727
12	0x3deef3a6	0.11667566
13	0xbe352fff	-0.1769409
14	0x3d5a579a	0.0533062
15	0x3dbfad1f	0.09359192
16	0xbcda83dc	-0.026674204
17	0xbdc20ea3	-0.09475448
18	0xbdd39e41	-0.10332919
19	0x3e2fb073	0.17157154
20	0x3b03344f	0.0020020192
21	0xbdc28a50	-0.09499037
22	0x3deb3d72	0.11486329
23	0x3ca3e6ca	0.02000751
24	0x3c10199b	0.008795167
25	0xbd9a000c	-0.0751954
26	0xbd8ce9bb	-0.06880518
27	0x3d855981	0.06511212
28	0x3ded87a6	0.115981385
29	0xbd9b9ad4	-0.075978905
30	0xbce35688	-0.027751222
31	0xbd1f8c7f	-0.038952347
32	0x3cb984fb	0.022646418
33	0xbe128a64	-0.14310604
34	0xbe0583bc	-0.13038534
35	0x3d53ae9a	0.051680185
36	0xbdf857db	-0.12126132
37	0x3d5677dc	0.0523604
38	0x3e18b436	0.14912495
39	0x3db8f4be	0.09031056
40	0xbe0b9bbb	-0.13633625
41	0x3dd55d20	0.10418153
42	0x3e26541b	0.16243021
43	0xbd91081d	-0.070816256
44	0xbdddc318	-0.10828227
45	0x3e1e27d4	0.1544488
46	0x3ddf4d7f	0.10903453
47	0xbdd9d08c	-0.1063548
48	0xbdbab545	-0.09116606
49	0x3e20b142	0.15692618
50	0x3c7841cf	0.015152409
51	0xbe119409	-0.14216627
52	0x3e08f93b	0.13376324
53	0xbcc5371d	-0.024074132
54	0x3dfb5d94	0.12273708
55	0x3d9eb711	0.07749761
56	0xbdfd39fc	-0.12364575
57	0xbd7330fb	-0.059372883
58	0x3de8a7a4	0.113601
59	0x3e2bfc4c	0.16795462
60	0xbdcd546e	-0.10025869
61	0x3da76df1	0.081752665
62	0x3cbe90c1	0.023262383
63	0xbda7bd21	-0.0819037
64	0x3de5590b	0.11198624
65	0x3ceb16ea	0.02869745
66	0xbdbbc40a	-0.09168251
67	0x3c39bc4d	0.011336398
68	0xbe0452ba	-0.12922183
69	0x3e1cccb7	0.15312468
70	0x3d94b8c7	0.07261806
71	0x3d687f24	0.056761876
72	0xbde02171	-0.109438784
73	0x3de8e0b8	0.11370987
74	0x3d3a3872	0.045463987
75	0xbd3c719d	-0.046006788
76	0x3d075e42	0.033048876
77	0xbe021638	-0.12703788
78	0x3cb34c2a	0.021886904
79	0x3dc68fa4	0.09695366
80	0x3e38c743	0.18044762
81	0x3cae8429	0.021303253
82	0x3d970da0	0.07375646
83	0x3d4732ed	0.04863255
84	0xbd9caefc	-0.07650563
85	0xbdf05d62	-0.11736561
86	0xbda7b688	-0.08189112
87	0xbd35e4b3	-0.044407558
88	0x3e06afc6	0.1315299
89	0x3d5e90e6	0.054337405
90	0x3dd1cbdb	0.102439605
91	0xbe1d736d	-0.15376063
92	0x3dda75a2	0.10666968
93	0xbce261bc	-0.027634494
94	0x3d88c266	0.066777036
95	0x3e1a36b0	0.15059924
96	0xbd741bc3	-0.05959679
97	0x3d9fa095	0.077943005
98	0x3de2b86c	0.11070332
99	0x3e05333e	0.13007829
100	0x3dc422e0	0.095769644
101	0xbd5d5c02	-0.054042824
102	0x3cd4d625	0.025981018
103	0xbd9478fe	-0.0724964
104	0x3d1f0d6d	0.038831163
105	0x3d892801	0.06697083
106	0x3c36c9d6	0.01115652
107	0x3d7d17a1	0.061790112
108	0xbd42141a	-0.04738245
109	0x3e1038f2	0.14084223
110	0x3e0f3fb9	0.13989152
111	0x3d3c00c9	0.045899186
112	0xbcfe0a5b	-0.031010797
113	0x3dd13538	0.10215229
114	0x3dfd38f7	0.12364381
115	0x3de579ed	0.11204896
116	0xbd8e0445	-0.06934408
117	0xbcf58948	-0.029972687
118	0xbce8341d	-0.028345162
119	0xbe0a3a0c	-0.13498706

weight_ih_l1 f4 [120, 40]
0	0xbda60b4e	-0.08107625
1	0x3e153f6a	0.14574972
2	0xbdb72eef	-0.08944499
3	0x3ddf0200	0.10889053
4	0x3e299ffa	0.16564932
5	0x3d477ad7	0.048701134
6	0x3d3adaf5	0.04561897
7	0x3d0fb04c	0.03508024
8	0xbde5fe58	-0.11230153
9	0xbdc42297	-0.0957691
10	0x3df97693	0.12180819
11	0xbd04759c	-0.032338724
12	0xbdaa7d9b	-0.083247386
13	0xbc8bcd8a	-0.017065782
14	0xbdfedfb7	-0.12445014
15	0xbdb0b314	-0.086279064
16	0xbcfa2d46	-0.030539166
17	0x3c09151b	0.008366848
18	0xbdecf486	-0.11570077
19	0x3dbb6182	0.091494575
20	0xbe2245df	-0.15846966
21	0xbe18443a	-0.14869776
22	0x3cd45589	0.025919693
23	0xbe177e40	-0.14794254
24	0x3e106dd2	0.14104393
25	0xbaf60103	-0.0018768612
26	0x3d80d29f	0.06290173
27	0xbdd10516	-0.10206048
28	0xbdf27018	-0.118377864
29	0x3e169037	0.14703451
30	0xbd485ec8	-0.048918515
31	0xbd5b2e02	-0.053510673
32	0xbce6b22d	-0.028161133
33	0xbd4e80e1	-0.050415877
34	0x3d54167a	0.051779248
35	0xbdb1bfd1	-0.08679164
36	0x3de8c779	0.113661714
37	0xbe140760	-0.14455938
38	0xbd719637	-0.058981147
39	0xbd5f43a1	-0.054507855
40	0xbe10ea73	-0.14151935
41	0xbdb20234	-0.086918265
42	0x3d907343	0.070532344
43	0x3de900b6	0.11377089
44	0xbdc94517	-0.09827631
45	0xbe273440	-0.16328526
46	0xbe063ce5	-0.13109167
47	0xbe2c90e5	-0.16852148
48	0x3e14c634	0.14528733
49	0xbd92d141	-0.07168818
50	0x3dd02f52	0.10165276
51	0x3dfd53af	0.12369477
52	0x3dd098b3	0.10185375
53	0xbe345d72	-0.17613772
54	0xbdedf5e5	-0.11619166
55	0xbda52bf2	-0.080650225
56	0x3e08580a	0.13314834
57	0xbda8d1da	-0.08243151
58	0x3b97a5bc	0.0046279114
59	0x3c173dfb	0.009231086
60	0x3da67c88	0.08129221
61	0xbdf24035	-0.11828653
62	0xbd661dd3	-0.056180786
63	0xbd9f7237	-0.07785457
64	0x3da3dcea	0.080011204
65	0x3d22ceb9	0.039747927
66	0xbc027eee	-0.007964833
67	0x3d4b224c	0.049593255
68	0xbe0d8082	-0.13818553
69	0xbdf91f31	-0.121641524
70	0x3e0dea5c	0.13858932
71	0x3c7582dd	0.0149848135
72	0x3df74073	0.120728396
73	0xbdd9d08b	-0.106354795
74	0x3cb4f47d	0.022089237
75	0x3c229791	0.009923832
76	0xbd77bb55	-0.060481388
77	0x3dd90189	0.10595996
78	0x3e24cbab	0.16093318
79	0xbc815446	-0.015787255
80	0x3da95f49	0.08270127
81	0x3e284ec5	0.16436298
82	0x3e0156c7	0.12630759
83	0xbddbaf8f	-0.107268445
84	0x3cc0db28	0.023542002
85	0xbd8a8484	-0.067635566
86	0xbdcc0595	-0.09962002
87	0x3de55f98	0.11199874
88	0xbd41aef6	-0.047285996
89	0xbda7c99b	-0.0819275
90	0xbd6c41d0	-0.05767995
91	0xbdf42013	-0.1192018
92	0x3c11b935	0.008894254
93	0x3dcfca18	0.10145968
94	0xbdf72c17	-0.12068956
95	0x3de8369a	0.113385394
96	0xbccbc8f5	-0.024876097
97	0x3de7bc95	0.11315266
98	0x3e0f4df1	0.13994576
99	0xbb0c4a0f	-0.0021406447
100	0x3e2271a9	0.1586367
101	0x3b815e70	0.0039480254
102	0xbc18d329	-0.009327688
103	0xbcc25246	-0.023720872
104	0xbcb5c018	-0.022186324
105	0x3d94a860	0.072586775
106	0xbe0612f7	-0.13093172
107	0x3e09e851	0.13467528
108	0x3db303e9	0.0874098
109	0x3d021b44	0.031764284
110	0x3d83b14c	0.06430301
111	0xbcd6cb7b	-0.026220074
112	0x3d325515	0.04353817
113	0xbde8699f	-0.113482706
114	0xbd9160c3	-0.07098534
115	0xbd2d2148	-0.042268068
116	0xbdde9685	-0.10868553
117	0xbd5961c5	-0.053071756
118	0x3dfe26d9	0.12409753
119	0xbdcdd3b5	-0.100501455
120	0x3e377472	0.17915514
121	0x3d400723	0.046881806
122	0x3dea57f6	0.114425585
123	0xbde5a9fa	-0.11214061
124	0x3dd11264	0.10208586
125	0x3e0edf79	0.13952436
126	0xbde0f0b9	-0.10983414
127	0x3ca89dc6	0.020583045
128	0xb9643350	-0.0002176289
129	0x3d91181a	0.07084675
130	0xbdb8e090	-0.09027207
131	0x3e19a902	0.15005878
132	0xbc231bd9	-0.00995537
133	0x3e0bfd0c	0.13670748
134	0xbdf0b61f	-0.11753487
135	0xbde9354d	-0.113871194
136	0xbe016307	-0.12635432
137	0x3dd4fd0f	0.103998296
138	0xbde4fa2d	-0.1118053
139	0x3e1bd94c	0.15219611
140	0xbd5fccea	-0.05463878
141	0xbd80252f	-0.06257092
142	0xbd8d2660	-0.06892085
143	0xbd42ca17	-0.04755601
144	0x3ca875e2	0.020564023
145	0xbd8d36d8	-0.06895226
146	0x3e0532f2	0.13007715
147	0x3dc2982b	0.0950168
148	0xbd939e8c	-0.07207975
149	0xbdaff592	-0.08591761
150	0x3d372cb5	0.04472037
151	0x3e0da15a	0.13831082
152	0x3de4b4ab	0.11167272
153	0x3d6aaac5	0.057291765
154	0x3cf193c9	0.029489415
155	0xbe057c89	-0.13035788
156	0xbc375f22	-0.011192115
157	0xbe011371	-0.12605073
158	0xbbc676ba	-0.006056634
159	0xbe0d0cdc	-0.13774437
160	0x3d846a5c	0.06465599
161	0xbd59b0cd	-0.053147126
162	0x3da0baf7	0.07848161
163	0xbe0d9eac	-0.1383006
164	0x3d9b93ed	0.07596574
165	0xbd863cb7	-0.06554549
166	0x3db762a8	0.08954364
167	0xbd9580a4	-0.07299927
168	0x3de0d388	0.109778464
169	0x3db77c47	0.08959251
170	0x3d7bfb49	0.06151894
171	0x3bb74fd7	0.0055942344
172	0x3d80d5ab	0.06290754
173	0xbd6834a4	-0.056690827
174	0xbcb3d1cf	-0.02195063
175	0x3e28c0ae	0.16479751
176	0x3da72269	0.0816086
177	0x3d8bc5f7	0.06824868
178	0xbb582350	-0.0032980032
179	0xbe1c3fe3	-0.15258746
180	0x3e08af8b	0.13348214
181	0x3d14cab0	0.03632611
182	0x3e083b42	0.13303855
183	0xbb4d6b96	-0.0031344644
184	0x3d5f0831	0.05445117
185	0xbe099899	-0.13437118
186	0xbd9bf9e9	-0.07616026
187	0x3deeb83a	0.11656232
188	0xbd8ef4a9	-0.06980259
189	0xbd20e24d	-0.039278317
190	0x3d682984	0.056680217
191	0x3c6387aa	0.013887325
192	0x3e0179e9	0.12644161
193	0x3e326d18	0.17424428
194	0xbb1f99da	-0.0024353177
195	0x3e0dbd79	0.1384181
196	0x3e0a3e74	0.13500386
197	0x3d43c568	0.047795683
198	0x3dabbc2d	0.08385501
199	0x3c7ee113	0.015556592
200	0xbe044d6c	-0.12920159
201	0x3dd01e37	0.10162013
202	0xbda259cf	-0.07927286
203	0x3cecba41	0.028897407
204	0x3dddf48c	0.10837659
205	0xbdba88e5	-0.09108142
206	0xbe1d7e52	-0.15380219
207	0x3cb24f6f	0.021766393
208	0xbd2f9b88	-0.042872936
209	0x3dad386d	0.08458028
210	0x3d386169	0.045014773
211	0xbde239f1	-0.11046208
212	0xbd90febd	-0.070798375
213	0x3d86923a	0.06570859
214	0x3e27a26e	0.16370556
215	0x3d324323	0.043521058
216	0xbd475fca	-0.048675336
217	0x3d045085	0.032303352
218	0xbddd518b	-0.10806569
219	0xbd047234	-0.032335475
220	0xbe242657	-0.1603025
221	0x3d4d4cc9	0.050122056
222	0xbdd8271a	-0.10554333
223	0xbe3dacfb	-0.18523018
224	0xbe2665c1	-0.16249754
225	0x3d7de411	0.06198508
226	0xbce11021	-0.027473511
227	0x3ce4bb5e	0.027921375
228	0x3e1f9f17	0.15588032
229	0x3c1c2fdd	0.009532896
230	0x3dc4e1c5	0.096133746
231	0xbcd2e52f	-0.025744049
232	0xbd0a96f3	-0.033835363
233	0x3ddffd64	0.10937002
234	0x3d726103	0.05917455
235	0xbdc55d4d	-0.09636936
236	0xbd0165d5	-0.031591255
237	0x3e0f3290	0.13984132
238	0xbce29e4d	-0.027663374
239	0xbe160c92	-0.14653233
240	0xbc0bea5c	-0.008539762
241	0xbd9cf6cd	-0.07664261
242	0x3dd62508	0.10456282
243	0x3dc1acd3	0.09456792
244	0xbd8dd771	-0.06925858
245	0xbe310ab8	-0.17289245
246	0x3df2c300	0.118535995
247	0x3e098b1d	0.13431974
248	0xbd854f08	-0.06509215
249	0xbe16a620	-0.14711809
250	0x3df36b38	0.11885685
251	0x3d891ed7	0.06695335
252	0xbd238046	-0.039917253
253	0x3e2ff250	0.17182279
254	0xbccaab6b	-0.024739942
255	0x3d09cf2f	0.03364485

weight_hh_l1 f4 [120, 40]
0	0xbd57ae06	-0.052656196
1	0x3ceb5a14	0.028729476
2	0xbdafc1e0	-0.085819006
3	0xbb94b9fd	-0.004538773
4	0xbdf1274f	-0.11775076
5	0x3d6a7919	0.057244394
6	0xbd66a94e	-0.056313805
7	0xbd6d90d1	-0.057999436
8	0x3df940fb	0.12170597
9	0xbc7057da	-0.014669383
10	0xbc51dbad	-0.012808722
11	0x3db35eee	0.08758341
12	0x3d8d9813	0.069137715
13	0x3d3bd132	0.0458538
14	0x3dce36e5	0.10069064
15	0x3d944f28	0.0724166
16	0xbd2780d8	-0.04089436
17	0xbd5adacb	-0.053431313
18	0xbd803f8b	-0.0626212
19	0xbc4ddcc8	-0.012564845
20	0xbe34a968	-0.17642748
21	0xbd7a8e64	-0.06117095
22	0x3e209525	0.15681894
23	0x3e128376	0.14307961
24	0xbdd17647	-0.10227638
25	0xbe2f67a6	-0.17129382
26	0x3e088bb3	0.13334541
27	0xbdcdf922	-0.10057284
28	0xbd8bf69e	-0.06834148
29	0xbe0fbc0e	-0.14036581
30	0x3d949bcf	0.07256281
31	0x3e1a3ac1	0.15061475
32	0xbd86269f	-0.06550335
33	0xbcead9df	-0.028668342
34	0xbdf32d6a	-0.118738964
35	0x3e279145	0.1636401
36	0x3d60eeb7	0.054915156
37	0xbd32a830	-0.043617427
38	0xbc806116	-0.015671294
39	0xbd9ebc4a	-0.07750757
40	0xbbe1f99f	-0.006896212
41	0xbd93470e	-0.07191287
42	0xbde4ae90	-0.11166108
43	0xbd2f0aba	-0.04273484
44	0xbd401b5b	-0.04690109
45	0xbc88e586	-0.016711008
46	0xbd2fc7f4	-0.0429153
47	0xbdd39ba6	-0.10332422
48	0xbd332f5a	-0.04374633
49	0x3e11c76a	0.14236227
50	0x3c63d163	0.013904902
51	0xbd92b635	-0.071636595
52	0x3da42481	0.08014775
53	0x3d8d78dc	0.06907818
54	0x3d90badb	0.0706689
55	0xbdf1082a	-0.11769135
56	0xbdfb8ddf	-0.12282919
57	0xbdf545af	-0.11976182
58	0x3bae30a4	0.005315857
59	0xbdcf3b91	-0.10118783
60	0xbe06d20a	-0.13166061
61	0x39f0e9d7	0.0004595059
62	0xbd8ad4c4	-0.06778863
63	0xbdc91f1c	-0.09820387
64	0xbdacd035	-0.0843815
65	0xbd0fa470	-0.03506893
66	0x3d8c2d61	0.06844593
67	0xbdd4effb	-0.10397335
68	0xbd42606d	-0.04745524
69	0x3e0b5979	0.1360835
70	0xbd8c92e3	-0.06863954
71	0x3c4d7445	0.012539928
72	0x3ca75c11	0.020429643
73	0x3e0c868e	0.13723204
74	0x3dae4803	0.08509829
75	0x3c8d1caf	0.017225591
76	0xbe2370d8	-0.15961015
77	0x3dd12d72	0.10213746
78	0x3d3600a1	0.044434194
79	0xbd2cfdc5	-0.0422342
80	0xbd8c7888	-0.06858927
81	0xbe0f48cf	-0.13992618
82	0x3c1686ff	0.009187459
83	0xbd844b23	-0.06459644
84	0x3d76ff2f	0.060301956
85	0xbe21ed85	-0.15813263
86	0x3e00cdb1	0.12578465
87	0x3d46b8b8	0.048516005
88	0x3ca268cb	0.01982536
89	0xbe112bfa	-0.14176932
90	0x3d7dc343	0.061953794
91	0xbdb2f1d6	-0.08737533
92	0xbbe8c830	-0.0071039423
93	0xbe1a91da	-0.150947
94	0x3d9d0bd9	0.076682754
95	0xbe1579ec	-0.14597291
96	0xbe32e949	-0.17471804
97	0xbd04f02e	-0.032455616
98	0xbd50aab6	-0.050944053
99	0xb93614aa	-0.0001736457
100	0x3da68634	0.08131066
101	0x3d5d1a2a	0.05398003
102	0xbdc16942	-0.094439045
103	0xbdc9c881	-0.09852696
104	0xbe03dde5	-0.12877615
105	0xbd9c0459	-0.07618017
106	0x3d916e27	0.07101088
107	0xbde93ab9	-0.113881536
108	0x3cf8ce32	0.03037176
109	0x3cad8b3e	0.02118456
110	0xbde129f0	-0.10994327
111	0x3d424fb0	0.047439277
112	0x3dccac8a	0.09993847
113	0x3d1a3876	0.0376515
114	0xbe165e59	-0.14684428
115	0xbdf7933b	-0.12088629
116	0xbd2365f8	-0.039892167
117	0xbb40f47d	-0.0029442601
118	0x3d3ae6ea	0.045630373
119	0xbe0e4b06	-0.13895807
120	0xbe0d7c1b	-0.13816874
121	0x3c6ba1f6	0.014381876
122	0x3cf9c5d2	0.030489836
123	0xbd79712e	-0.060898952
124	0xbdd5e880	-0.104447365
125	0x3dcd67bb	0.10029551
126	0xbdccbef1	-0.09997357
127	0x3c7fa2cd	0.01560278
128	0x3c8abf91	0.01693705
129	0xbd93114e	-0.07181035
130	0xbd53285b	-0.051552158
131	0x3e1c4626	0.15261135
132	0x3e000931	0.12503506
133	0xbdc5b79a	-0.0965416
134	0xbe3b412b	-0.18286578
135	0xbd920674	-0.07130137
136	0x3d6238fc	0.055230126
137	0x3b51d875	0.0032019888
138	0xbd00580a	-0.03133396
139	0xbddcdc34	-0.10784188
140	0xb8b2fe30	-8.5350475e-05
141	0x3d95d48a	0.07315929
142	0xbdead35b	-0.11466094
143	0x3d223c3c	0.039608225
144	0x3a9d410e	0.0011997537
145	0x3ddae1a2	0.10687567
146	0xbd579544	-0.052632585
147	0xbd1837e3	-0.037162673
148	0x3df27f98	0.11840743
149	0x3d02323f	0.0317862
150	0xbe058009	-0.13037123
151	0x3d7ed9b8	0.06221935
152	0xbb11f200	-0.0022269487
153	0x3d939cae	0.07207619
154	0xbdcd6626	-0.10029249
155	0xbda49be4	-0.08037546
156	0xbdbc8303	-0.09204676
157	0xbd3921bd	-0.04519819
158	0xbe097bc3	-0.13426118
159	0x3dfe4044	0.124146014
160	0xbdce4141	-0.1007104
161	0xbc7ef149	-0.015560457
162	0xbda45531	-0.080240615
163	0xbd26f6ce	-0.040762715
164	0x3d75e1fa	0.06002996
165	0xbdcde6c1	-0.100537784
166	0x3d208520	0.039189458
167	0x3dafdab3	0.085866354
168	0xbdd77465	-0.10520247
169	0x3d03765e	0.032095306
170	0xbd892e7d	-0.0669832
171	0x3cbd8c70	0.023138255
172	0x3d517989	0.051141296
173	0x3c5e9e2a	0.013587514
174	0xbc99f885	-0.018795261
175	0x3c561665	0.013066863
176	0x3de319b4	0.11088887
177	0xbda70198	-0.08154601
178	0x3c0ba28a	0.008522639
179	0xbe006b34	-0.12540895
180	0x3cab4818	0.0209084
181	0xbdc7171b	-0.09721204
182	0xbd5e58b8	-0.054283828
183	0xbe05a935	-0.13052829
184	0xbcb270e0	-0.021782339
185	0xbdc6d06d	-0.09707723
186	0x3c413853	0.011793214
187	0x3cf6b5fc	0.030116074
188	0x3ddb1ab8	0.106984556
189	0x3d70cab8	0.058787078
190	0xbe0fe7b2	-0.14053228
191	0xbdffcf9c	-0.1249077
192	0x3dcf544a	0.10123499
193	0xbc407564	-0.011746738
194	0x3d9b2992	0.07576288
195	0x3bd6f90c	0.0065604504
196	0xbd3e4de6	-0.04646101
197	0xbd8794eb	-0.06620201
198	0x3d75c683	0.06000377
199	0x3d30c211	0.043153826
200	0xbdfd27b7	-0.12361091
201	0xbdf13cff	-0.11779212
202	0xbdf9d4bd	-0.1219878
203	0xbd71da62	-0.059046157
204	0xbda63eb8	-0.081174314
205	0x3df5e762	0.120070234
206	0xbd97fdad	-0.07421432
207	0x3d27bdbd	0.040952433
208	0xbe218190	-0.1577208
209	0xbda43e92	-0.08019747
210	0x3caed34f	0.021340994
211	0xbe0246b3	-0.12722282
212	0x3d94bc37	0.07262462
213	0x3d63e203	0.055635463
214	0xbdf04717	-0.11732309
215	0xbdc8b9b9	-0.09801049
216	0xbcd1528a	-0.025552053
217	0xbd382092	-0.044952936
218	0xbcbc54ef	-0.022989718
219	0x3e1b5a8f	0.15171264
220	0xbcd489ee	-0.025944676
221	0x3e076dba	0.13225451
222	0x3c9ec45a	0.019380737
223	0x3e168685	0.14699753
224	0x3e2bf965	0.16794355
225	0xbd856a99	-0.065144725
226	0x3e1c1ca9	0.15245308
227	0x3e140855	0.14456303
228	0x3cfe99ca	0.031079192
229	0x3e090306	0.1338006
230	0xbe175752	-0.14779404
231	0x3e1ee45c	0.155168
232	0xbd377811	-0.04479224
233	0x3cb936fe	0.02260923
234	0x3ddae3d3	0.10687985
235	0x3dfa87ff	0.122329704
236	0x3dccc0c4	0.099977046
237	0x3dee980f	0.116500966
238	0x3c0214ec	0.0079395585
239	0x3e39591a	0.18100396
240	0xbcdf471b	-0.027255585
241	0xbddad7ee	-0.106857166
242	0xbe06c524	-0.1316114
243	0x3d8e52e3	0.06949403
244	0x3e0d1fbe	0.1378164
245	0xbe357c93	-0.17723303
246	0xbd09a46e	-0.033604078
247	0x3e05e32e	0.13074943
248	0xbc9ef6b2	-0.019404743
249	0x3d8bafb9	0.06820626
250	0xbe2001f0	-0.15625739
251	0x3e0efcac	0.13963574
252	0x3e11d737	0.14242254
253	0x3df4e410	0.11957562
254	0xbe03554f	-0.12825511
255	0x3df6c6b3	0.120496176

bias_ih_l1 f4 [120]
0	0x3dab354d	0.08359776
1	0xbdd54a63	-0.10414579
2	0x3d58dac3	0.052943002
3	0x3da6c3d3	0.08142819
4	0x3d76af71	0.060225908
5	0x3df8a459	0.12140722
6	0xbdf2cfef	-0.118560664
7	0x3e18e895	0.14932473
8	0xbe2ca256	-0.16858801
9	0x3dd9ff25	0.10644368
10	0x3dd1d9c9	0.10246617
11	0x3d84fcd7	0.06493538
12	0xbd3f5345	-0.04671027
13	0xbd39102a	-0.04518143
14	0x3e13a5e8	0.14418757
15	0x3d7f8c9a	0.062389947
16	0xbd2871cc	-0.04112415
17	0x3dbe3bea	0.092887715
18	0x3e276de8	0.1635052
19	0xbd3c2240	-0.0459311
20	0xbdbe602f	-0.09295689
21	0x3e234ac1	0.15946485
22	0xbc36e387	-0.011162645
23	0x3d350f21	0.04420388
24	0xbe167db9	-0.14696397
25	0x3e130b70	0.14359832
26	0xbe06f975	-0.13181098
27	0x3d471d7a	0.048612095
28	0xbe09db68	-0.13462603
29	0x3d96ea1e	0.07368873
30	0xbd4e27bb	-0.05033086
31	0x3dbcef0c	0.09225282
32	0x3d53250d	0.051549006
33	0xbbee6f76	-0.007276471
34	0x3de5e9b2	0.112262145
35	0xbcc51481	-0.024057629
36	0xbd52f5eb	-0.051504057
37	0x3d9eae35	0.07748071
38	0x3dd3897c	0.103289574
39	0xbd7cfe52	-0.061765976
40	0xbde61d36	-0.1123604
41	0xbdd931f1	-0.10605229
42	0x3da795bb	0.08182856
43	0x3e3b773b	0.18307202
44	0x3dc890c6	0.09793238
45	0x3d59111f	0.052994844
46	0xbcc86210	-0.024460822
47	0xbda4eca3	-0.08052947
48	0xbd04d338	-0.032427996
49	0xbdd26db7	-0.10274833
50	0x3dfa2d67	0.12215691
51	0xbd2e2d11	-0.042523447
52	0xbddd13f3	-0.10794821
53	0xbd987952	-0.07445015
54	0x3d91e57f	0.07123851
55	0xbda8fadd	-0.082509734
56	0x3dc80586	0.097666785
57	0xbc166807	-0.0091800755
58	0x3e1122a3	0.14173369
59	0x3de7535c	0.112951964
60	0x3e2e0fad	0.16998167
61	0xbd33d046	-0.043899797
62	0xbda18aae	-0.07887779
63	0x3d284e55	0.04109033
64	0x3e1793dd	0.14802499
65	0x3cbce3cc	0.02305784
66	0x38c0f670	9.201176e-05
67	0x3df29e5b	0.1184661
68	0xbdceb406	-0.100929305
69	0x3b9dc5ed	0.0048148544
70	0xbdcbf59e	-0.09958957
71	0xbd942938	-0.07234424
72	0x3d623204	0.05522348
73	0xbce5fdc5	-0.028075108
74	0xbd4e1e8e	-0.050322108
75	0xbca9d25f	-0.020730196
76	0xbe156e8a	-0.14592949
77	0xbd9e9686	-0.07743554
78	0x3d032534	0.0320179
79	0xbe29961a	-0.16561165
80	0xbe03c314	-0.12867385
81	0x3e2720d5	0.16321118
82	0x3db4be5d	0.088253714
83	0xbdd8279e	-0.105544314
84	0x3df76747	0.120802455
85	0x3d79bf13	0.06097324
86	0x3dae7fe3	0.08520486
87	0xbd93e237	-0.072208814
88	0xbdaaec8d	-0.083459
89	0x3dd1fc2f	0.10253178
90	0x3d5cc58c	0.053899333
91	0x3d88223a	0.06647153
92	0x3e2a30ab	0.16620128
93	0xbd35af8c	-0.044356868
94	0x3e105a64	0.14096981
95	0xbd95c4ed	-0.07312951
96	0xbdc6edde	-0.09713338
97	0xbc48ef83	-0.012264135
98	0x3d020489	0.031742606
99	0xbe190656	-0.14943823
100	0x3d01e579	0.031712983
101	0x3d34c48e	0.04413276
102	0x3e23c7fb	0.15994255
103	0x3dbe378c	0.092879385
104	0x3e066d29	0.13127579
105	0xbba3b178	-0.004995521
106	0xbdfa6532	-0.12226333
107	0xbde04239	-0.10950131
108	0x3d5edeaa	0.054411568
109	0x3e155321	0.14582492
110	0xbdf68f94	-0.12039104
111	0x3d642dd8	0.055707783
112	0x3d2c67f7	0.042091336
113	0xbe2a2db7	-0.16619001
114	0x3e14a4f0	0.14516044
115	0x3d8eb692	0.06968416
116	0x3b33ccd9	0.002743533
117	0x3d23d738	0.04000017
118	0x3c5e867d	0.013581869
119	0x3dfdc858	0.12391728

bias_hh_l1 f4 [120]
0	0x3d803896	0.06260793
1	0xbdc31403	-0.09525301
2	0x3d192bf3	0.03739543
3	0x3daaba82	0.08336355
4	0x3df0f35f	0.11765169
5	0xbc08ed05	-0.008357291
6	0x3dc0a4f6	0.09406464
7	0xbdb4ccdb	-0.088281356
8	0xbe04c050	-0.12963986
9	0xbde2ae22	-0.110683694
10	0x3c39ab49	0.0113323415
11	0xbcf71fcd	-0.030166531
12	0xbd8c2ad5	-0.06844107
13	0xbd0167de	-0.031593196
14	0x3e190966	0.14944991
15	0x3dc287e5	0.09498576
16	0x3ddab106	0.10678296
17	0x3e2c1452	0.16804627
18	0x3e014fbb	0.12628071
19	0xbdcc5124	-0.09976414
20	0xbdb59746	-0.08866744
21	0x3cb0f8d0	0.021603018
22	0xbdc1c1c5	-0.09460787
23	0xbd4ea8d1	-0.050453965
24	0xbd271f79	-0.0408015
25	0x3d28fb4a	0.041255273
26	0x3dd616a9	0.10453541
27	0x3dd126a1	0.10212446
28	0x3d14f312	0.036364622
29	0xbd5d8025	-0.054077286
30	0x3db176ac	0.08665213
31	0x3d740038	0.05957052
32	0x3d272159	0.040803287
33	0xbd879607	-0.06620412
34	0xbde114aa	-0.109902695
35	0xbdcd4ed8	-0.10024804
36	0xbe079d0e	-0.13243505
37	0x3cc3c56e	0.023897853
38	0x3d3617d0	0.044456303
39	0x3e0e53a9	0.13899101
40	0x3df2fb87	0.11864381
41	0x3e063120	0.13104677
42	0xbddf6215	-0.109073795
43	0x3dfb7b09	0.122793265
44	0x3d36678a	0.044532336
45	0x3e0313c8	0.12800515
46	0xbd7cd7ff	-0.061729427
47	0x3e251c8f	0.16124175
48	0x3e138719	0.14407004
49	0x3d1b92b1	0.037981693
50	0x3dae6b10	0.08516514
51	0x3ab2bc80	0.00136365
52	0xbd23b5c5	-0.03996827
53	0xbdb5ec98	-0.08883017
54	0xbe125741	-0.14291097
55	0xbdc94c8f	-0.098290555
56	0xbd895dd9	-0.06707353
57	0x3da5814c	0.08081302
58	0xbd21931f	-0.039446946
59	0x3e1b1e41	0.1514826
60	0x3e1ad795	0.151213
61	0x3d7720a2	0.060333855
62	0x3d577b4d	0.052607823
63	0x3db8c6a6	0.09022264
64	0xbe275019	-0.16339149
65	0x3da3a435	0.079903044
66	0xbd0cf021	-0.034408692
67	0x3e3826b5	0.17983516
68	0x3d437130	0.047715366
69	0xbdaa4390	-0.08313668
70	0xbde8e009	-0.11370856
71	0x3d81ed1a	0.06344052
72	0x3d881ae1	0.06645752
73	0xbb43b1dc	-0.002986065
74	0x3dd13fb1	0.10217226
75	0xbd5e4827	-0.05426803
76	0xbdb99a92	-0.09062685
77	0x3d6e0113	0.058106493
78	0xbcd8b5a4	-0.0264538
79	0x3d062b77	0.032756295
80	0x3dace54d	0.08442173
81	0x3e026924	0.1273542
82	0xbab7ab0b	-0.0014012767
83	0xbddf19c5	-0.10893587
84	0x3be11bd0	0.0068697706
85	0x3c83872e	0.01605567
86	0x3ded9221	0.116001375
87	0xbda6b2aa	-0.08139546
88	0xbc4d0117	-0.012512467
89	0xbe10d4d0	-0.14143682
90	0x3d080af4	0.03321357
91	0x3d592e78	0.05302283
92	0xbcdd1568	-0.026987746
93	0xbd8d2aae	-0.06892906
94	0xbdfca8b1	-0.12336863
95	0xbc3d345f	-0.011548131
96	0x3e165c00	0.14683533
97	0x3d5f9cf5	0.054593045
98	0xbdd05c30	-0.10173833
99	0x3d859b16	0.06523721
100	0xbb2f719f	-0.0026770604
101	0xbd2f2439	-0.042759154
102	0x3e2f15d9	0.17098178
103	0x3d8477d6	0.064681694
104	0xbdc5322f	-0.096287124
105	0xbd1f80b9	-0.03894112
106	0x3de1c675	0.11024181
107	0xbe0a7881	-0.13522531
108	0xbe1ad7a9	-0.1512133
109	0xbd3085e7	-0.04309645
110	0x3db87a5f	0.090077154
111	0x3da92e29	0.082607575
112	0xbe039c04	-0.12852484
113	0xbe2d0825	-0.16897638
114	0xbd76feea	-0.0603017
115	0x3ded5423	0.115883134
116	0xbe197692	-0.14986637
117	0xbdb29ff6	-0.087219164
118	0x3d67ff57	0.056639995
119	0x3e01aaf3	0.12662868

weight f4 [40, 40]
0	0xbdb6f0c5	-0.08932642
1	0x3d896bd0	0.06710017
2	0xbdb0402c	-0.0860599
3	0xbda28eef	-0.07937419
4	0xbdebb2fb	-0.11508747
5	0x3d89aa92	0.06721987
6	0xbde5c18f	-0.11218559
7	0x3d98415c	0.07434341
8	0x3d99c03e	0.075073704
9	0xbdc3e601	-0.09565354
10	0xbd3f63cb	-0.04672603
11	0x3dc23e1f	0.09484505
12	0xbde29961	-0.11064411
13	0xbc9f6825	-0.01945884
14	0xbdedf55d	-0.11619065
15	0xbdae79a5	-0.085192956
16	0x3da54835	0.08070413
17	0x3e001093	0.12506323
18	0xbdce2430	-0.10065496
19	0x3db879ba	0.090075925
20	0xbdb33169	-0.087496586
21	0x3d83c332	0.06433715
22	0x3d2d8567	0.04236355
23	0x3e1699ca	0.14707103
24	0x3db1e432	0.08686103
25	0xbe0a149c	-0.13484424
26	0x3dc3ff3b	0.09570166
27	0xbdef1c04	-0.116752654
28	0xbcf6eb56	-0.030141514
29	0x3e11d2b7	0.14240538
30	0xbe07aaa8	-0.13248694
31	0x3d211a6c	0.03933184
32	0x3d40d605	0.047079105
33	0x3d08ce5c	0.033399925
34	0x3d4cebe7	0.05002966
35	0x3e0e3426	0.1388708
36	0xbe0004ac	-0.12501782
37	0x3dc9290e	0.09822284
38	0xbdbb9790	-0.09159768
39	0x3e2e51fb	0.1702346
40	0x3da2603b	0.07928511
41	0x3dd12a4e	0.10213147
42	0xbce2ad46	-0.027670514
43	0xbdfc83a5	-0.12329797
44	0xbdc4dd28	-0.09612495
45	0xbd9805c5	-0.074229755
46	0x3e02da32	0.12778547
47	0x3e300ebd	0.17193122
48	0x3e15dedb	0.14635794
49	0xbd8176d2	-0.06321491
50	0xbe0e7fe7	-0.13915978
51	0xbe15a09f	-0.14612053
52	0x3ce54783	0.027988201
53	0x3dc27a06	0.094959304
54	0xbd42f62c	-0.04759805
55	0xbdcb8423	-0.099373125
56	0xbca5abe1	-0.02022356
57	0xbd5b81f2	-0.053590722
58	0xbdd300f1	-0.10302914
59	0x3d6df153	0.058091473
60	0x3d08711f	0.033311006
61	0xbe29c8f5	-0.16580565
62	0xbda8ffda	-0.08251925
63	0x3dbb6d8b	0.09151753
64	0xbdc5d8aa	-0.09660466
65	0x3c878b3d	0.016545886
66	0xbd1e1250	-0.038591683
67	0x3c9ab1c5	0.018883595
68	0xbdfb3b08	-0.12267119
69	0xbdd65b1a	-0.10466595
70	0x3e13b109	0.14423002
71	0xbdda0d59	-0.10647077
72	0x3dfa384a	0.122177675
73	0x3db29534	0.087198645
74	0xbe1653d9	-0.14680423
75	0xbe279b56	-0.1636785
76	0xbcae304a	-0.02126326
77	0x3de5934b	0.112097345
78	0x3e0bea52	0.13663605
79	0xba9c4eb2	-0.0011925308
80	0xbdb5f449	-0.08884484
81	0x3dfa9d9f	0.12237095
82	0x3de60f38	0.112333715
83	0xbe053532	-0.13008574
84	0x3e0776fe	0.13228986
85	0x3d3cf8a9	0.04613558
86	0x3d0a11c9	0.033708367
87	0xbdd9775f	-0.10618471
88	0x3dbf3501	0.093362816
89	0x3bd4087c	0.006470738
90	0x3d6f1561	0.058369998
91	0xbd60cdfc	-0.054883942
92	0x3e255e5d	0.16149278
93	0x3dd0d1ee	0.10196291
94	0x3d7562f0	0.059908807
95	0x3d3ab1a0	0.045579553
96	0xbde77360	-0.11301303
97	0xbbe06353	-0.006847778
98	0xbdfb299f	-0.12263798
99	0xbd31c479	-0.04340026
100	0xbdf2d27d	-0.11856554
101	0xbe02d615	-0.12776978
102	0xbccab093	-0.0247424
103	0x3e3b766d	0.18306895
104	0xbd84c816	-0.06483476
105	0xbda4107e	-0.08010958
106	0x3e2bc8d5	0.1677583
107	0xbdcfa2c5	-0.10138468
108	0xbdfed0fa	-0.12442203
109	0xbadb4a48	-0.0016730512
110	0xbd795a14	-0.06087692
111	0x3da1c676	0.078991815
112	0xbc66c3c9	-0.014084765
113	0x3d0aa2e9	0.03384677
114	0x3dcc4e57	0.0997588
115	0x3d8c2b9e	0.06844257
116	0x3dbb2524	0.091379434
117	0xbcf97d6c	-0.030455314
118	0x3e0d7b02	0.13816455
119	0x3db84bd2	0.089988366
120	0x3e0373c9	0.12837137
121	0xbcebfaca	-0.028806109
122	0xbc78c263	-0.015183064
123	0x3b5e9de6	0.0033968627
124	0xbde3d222	-0.11124064
125	0x3e067460	0.13130331
126	0xb9872ece	-0.0002578408
127	0xbdd6788a	-0.1047221
128	0xbcd46565	-0.025927255
129	0xbd67ff6e	-0.05664008
130	0x3d2378b3	0.03991003
131	0x3d987bf4	0.07445517
132	0x3e097a8a	0.13425651
133	0x3e2984ce	0.16554567
134	0x3e015b41	0.12632467
135	0xbd2a4b59	-0.041575763
136	0x3e187085	0.14886673
137	0x3cb3d6b4	0.021952964
138	0xbd7282fa	-0.05920694
139	0xbdc61559	-0.096720405
140	0xbc19ad58	-0.009379707
141	0xbac7fef6	-0.0015258479
142	0x3c149299	0.009068155
143	0xbdc618cd	-0.09672699
144	0xbe21838c	-0.15772837
145	0xbda14262	-0.0787399
146	0x3dbbb026	0.09164457
147	0x3e009db2	0.12560156
148	0x3ddbfe69	0.10741884
149	0x3da91ab3	0.082570456
150	0x3e1c0c8e	0.15239164
151	0xbde946f6	-0.11390488
152	0xbc022b55	-0.0079449015
153	0x3d297cb2	0.041378684
154	0xbd172abc	-0.03690599
155	0xbe001293	-0.12507086
156	0xbdf6449d	-0.12024806
157	0xbdccc62d	-0.099987365
158	0x3db5b66f	0.08872687
159	0x3dc58658	0.09644765
160	0x3e3b7594	0.18306571
161	0x3ddb67bf	0.10713147
162	0x3c329405	0.010899548
163	0x3dadc5aa	0.08484967
164	0xbe105d7a	-0.14098158
165	0x3e3cc013	0.18432645
166	0xbcb9f7d6	-0.022701185
167	0xbda041be	-0.07825039
168	0x3d746875	0.05966993
169	0xbce694a0	-0.028147042
170	0x3e0c775d	0.13717408
171	0x3d23d496	0.03999766
172	0xbdda0f2e	-0.106474265
173	0x3e1e873c	0.15481275
174	0x3e06611c	0.13122982
175	0x3d99977c	0.074995965
176	0x3c007ea0	0.00784269
177	0x3d7e035a	0.062014915
178	0x3c566cc7	0.013087458
179	0xbe16c395	-0.14723046
180	0xbddcf3b2	-0.10788669
181	0x3dca42a2	0.098759905
182	0xbc51284d	-0.012765956
183	0x3d8570e1	0.065156706
184	0x3e0a392e	0.13498375
185	0xbd2b9cb2	-0.041897483
186	0xbcd704d4	-0.02624742
187	0x3de182d6	0.11011283
188	0xbd5069d8	-0.05088219
189	0x3d9f0cf4	0.077661425
190	0x3df6aeab	0.12045034
191	0x3d03a8a3	0.032143246
192	0x3d918be5	0.07106761
193	0xbd821c94	-0.06353107
194	0xbd7844b8	-0.06061241
195	0x3da38f8d	0.079863645
196	0x3d2a9925	0.041649956
197	0xbe16e0d0	-0.14734197
198	0xbe15a7a5	-0.14614733
199	0xbd810d9d	-0.06301425
200	0x3dae3b9f	0.085074656
201	0xbd5bb263	-0.05363692
202	0xbe3066ce	-0.17226717
203	0x3def9ad2	0.116994515
204	0x3e257b76	0.16160378
205	0x3a960801	0.0011446477
206	0x3d2e3470	0.042530477
207	0x3e02009b	0.12695543
208	0xbe0d4872	-0.13797167
209	0xbde79da2	-0.11309363
210	0xbe125ddf	-0.14293621
211	0x3db24caa	0.08706029
212	0xbd572762	-0.052527793
213	0xbd2dd02f	-0.042434867
214	0xbbddf9b3	-0.006774151
215	0xbe282060	-0.164186
216	0xbe126d8a	-0.14299598
217	0xbd0fc822	-0.03510297
218	0x3dff65af	0.124705665
219	0xbdad270b	-0.084547125
220	0xbdb4170b	-0.087934576
221	0xbd2be5cb	-0.041967195
222	0x3df90f0a	0.121610716
223	0xbd9668cd	-0.07344208
224	0xbd4deaa7	-0.05027261
225	0xbce1457c	-0.027498953
226	0x3dc4bb6c	0.096060604
227	0xbe34bd2d	-0.1765029
228	0x3cdb3523	0.026758736
229	0xbd256e56	-0.040388428
230	0xbd926ab6	-0.0714926
231	0xbd5bcd8e	-0.05366283
232	0x3d949805	0.07255558
233	0x3df7641d	0.12079642
234	0x3d9df55e	0.07712816
235	0xbe0ece6e	-0.13945934
236	0xbd95b7b4	-0.07310429
237	0xbcf62774	-0.03004811
238	0x3d8b3807	0.06797796
239	0x3e0c9d87	0.13731967
240	0x3cc6543a	0.024210084
241	0x3df83258	0.12118977
242	0x3e1e09c0	0.15433407
243	0xbdbb99b1	-0.09160174
244	0xbc80ee01	-0.01573849
245	0x3e110078	0.14160335
246	0x3dea46d1	0.114392884
247	0xbd72c539	-0.059270117
248	0xbd016630	-0.031591594
249	0x3e01a37f	0.12660025
250	0xbd460902	-0.048348434
251	0xbcf9f973	-0.030514454
252	0xbc61a8b2	-0.01377313
253	0xbcf0bfa1	-0.02938825
254	0xbddf4e48	-0.10903603
255	0x3cecd485	0.028909931

bias f4 [40]
0	0xbda47988	-0.08030993
1	0xbcc96f19	-0.024589108
2	0x3d630bc5	0.055431146
3	0xbd159430	-0.036518276
4	0x3d3a1cc3	0.045437586
5	0xbe0a1402	-0.13484195
6	0x3e0e6a25	0.13907678
7	0xbd94b884	-0.07261756
8	0xbe0349c1	-0.12821104
9	0x3da55bf2	0.08074178
10	0x3dfa1707	0.12211423
11	0x3de9af80	0.11410427
12	0xbdc5e871	-0.09663475
13	0x3c628b1d	0.0138271125
14	0xbd8d2572	-0.06891908
15	0xbc2bcddb	-0.0104860915
16	0x3db74673	0.08948984
17	0x3d0a7b91	0.03380925
18	0x3cd15343	0.025552398
19	0x3dc8f7cb	0.09812888
20	0xbc9dbf83	-0.019256359
21	0xbd41344f	-0.047169026
22	0xbd7ab7c3	-0.061210405
23	0xbc9794f4	-0.018503644
24	0xbbda6a83	-0.006665529
25	0x3d22de96	0.039763056
26	0x3cca00dc	0.024658613
27	0x3defc85d	0.11708138
28	0xbe04a8b5	-0.12954982
29	0x3cd304da	0.02575915
30	0x3d856765	0.065138616
31	0xbc9851db	-0.01859372
32	0xbc2694e7	-0.010167337
33	0xbdc9446c	-0.098275036
34	0x3dba64ae	0.091012344
35	0x3b8acc62	0.00423579
36	0xbdfa0045	-0.12207083
37	0x3dde5ace	0.10857163
38	0x3e089690	0.13338685
39	0x3c98632d	0.018601978
