Results/0050_generator1.pth (torch, 159475 bytes, 32 tensors)

weight_ih_l0 f4 [120, 20]
-0.072905116 0.10398729 -0.046064306 0.1912556 0.009439019 0.07727107 0.16713716 -0.026114114
0.1525382 0.004591907 0.0644461 -0.15424313 0.19900699 0.027550492 -0.24170579 0.22742955
0.14117225 -0.12764482 -0.09280138 0.060443956 0.03850894 0.041847527 0.060813557 0.20126845
0.13209489 0.21464726 0.1195565 0.06657441 0.06619962 0.032114916 0.1684498 0.0688207
-0.14555606 -0.107855015 -0.0056882007 0.26899764 0.15675154 -0.08050009 0.01906947 -0.043648053
0.12949379 0.27896518 0.20421866 0.135131 0.2878236 0.30043456 0.09230828 0.09436753
0.17441194 0.16288899 0.09022673 -0.017817905 0.11089365 -0.04057212 0.12141657 0.13680501
-0.09883221 -0.12569304 0.05926156 -0.021253118 0.039561696 -0.11596603 0.03547119 -0.088252425
-0.11626863 0.096105635 -0.043129124 0.1551552 -0.119151145 0.12911235 0.20652977 -0.1273236
-0.15769958 0.012378095 -0.26367337 0.08728313 0.27737045 0.13171104 0.17214467 0.027734017
-0.05397728 0.011608643 -0.22075894 -0.07235588 0.02023178 0.09296943 0.029346585 0.018373549
-0.10096911 -0.07891522 -0.034769475 0.14176083 -0.12666835 -0.07315861 0.08964638 -0.2173042
-0.06630261 0.13105981 0.22130209 -0.13018395 0.18966581 0.08174395 0.056209918 -0.075807355
-0.026745226 -0.03422446 0.05634727 -0.039005123 0.018983971 -0.020042066 0.10889229 -0.11163148
0.034804273 0.034196585 -0.04324496 0.08996755 0.07606287 0.11952096 -0.005426349 0.20088021
0.11840468 0.075498015 0.056965854 0.10293126 -0.10273749 -0.057066824 0.079425976 -0.001531762
0.1105668 -0.008757852 0.01503478 -0.034693886 0.0060501844 -0.030291755 -0.07786419 0.070539474
0.12333357 -0.07815694 -0.042596083 0.19921732 -0.033604432 0.015938118 0.23710223 0.08124478
-0.023235278 -0.025034882 0.08428391 0.020008061 -0.031381566 0.23834012 0.1417092 0.014828509
0.065842174 -0.17574261 -0.14270873 0.099322475 -0.10353041 0.09041016 0.03333247 0.18701018
0.1255161 0.099932 0.017130896 -0.09738596 0.13552673 -0.039461937 0.14943379 -0.0062152566
0.07083719 0.053217895 0.15079166 -0.045203887 -0.21756727 0.03227515 -0.27027008 0.17612828
0.07553332 0.13513878 -0.052853122 0.09324057 0.15308955 0.16254304 0.11969744 -0.022059528
0.13868637 -0.038117237 0.14509399 0.036175214 0.0019416633 0.023301853 0.063011646 -0.006871762
-0.28448224 0.06368832 -0.091384724 0.012780816 0.17760755 0.111293934 0.04814134 0.24029072
-0.08363704 0.07907831 -0.12685582 -0.060359545 0.100562625 -0.16847476 -0.08498436 -0.14863788
0.021561049 -0.17976883 0.09671166 -0.1252014 0.072220825 -0.094756 -0.1487604 -0.024509728
0.18301207 0.13989961 -0.15372859 0.108087175 -0.02573366 -0.14351045 0.16814385 0.102522604
-0.016128475 -0.003640328 0.14720654 0.059375834 -0.10190401 -0.0850677 0.03245554 0.08041227
0.054546706 -0.1350446 -0.121062584 0.20862103 0.12259184 0.2334656 0.011780312 0.078380734
0.13197123 0.03764286 0.018693417 0.07783643 0.06576724 0.1862962 0.20201416 -0.020990688
0.1946289 0.10567582 -0.06146787 0.13698126 0.13248564 0.07938321 -0.13228603 0.099385805
00000000: 474f 95bd 4af7 d43d edad 3cbd 82d8 433e
00000010: 1da6 1a3c 4b40 9e3d 0126 2b3e 44ed d5bc
00000020: f932 1c3e b577 963b 51fc 833d e9f1 1dbe
00000030: 7dc8 4b3e 92b1 e13c b981 77be 4be3 683e
00000040: 758f 103e 53b5 02be a60e bebd 1594 773d
00000050: 8dbb 1d3d 5068 2b3d a317 793d 5119 4e3e
00000060: e243 073e 7ecc 5b3e 0ada f43d 2a58 883d
00000070: ab93 873d ee8a 033d 1b7e 2c3e def1 8c3d
00000080: a60c 15be 17e3 dcbd 1664 babb 0fba 893e
00000090: 7a83 203e 3bdd a4bd 9437 9c3c 4dc8 32bd
000000a0: 059a 043e 86d4 8e3e b21e 513e c85f 0a3e
000000b0: 9d5d 933e 8fd2 993e 200c bd3d c343 c13d
000000c0: 0b99 323e 5fcc 263e cbc8 b83d dbf6 91bc
000000d0: 361c e33d f42e 26bd 40a9 f83d 9d16 0c3e
000000e0: 8b68 cabd adb5 00be 40bc 723d 051b aebc
000000f0: 720b 223d 997f edbd 3d4a 113d b0bd b4bd
00000100: 3f1e eebd 08d3 c43d 2aa8 30bd 01e1 1e3e
00000110: 8405 f4bd 0736 043e 8a7c 533e 1e61 02be
00000120: 007c 21be 7ecd 4a3c 3200 87be 7fc1 b23d
00000130: 8003 8e3e 42df 063e b146 303e 7332 e33c
00000140: 4817 5dbd 2e32 3e3c a20e 62be 522f 94bd
00000150: 1ebd a53c c266 be3d 4068 f03c 2084 963c
00000160: e5c8 cebd 4e9e a1bd 706a 0ebd c029 113e
00000170: 59b5 01be 2ed4 95bd 8598 b73d fe84 5ebe
00000180: aac9 87bd 8b34 063e 049d 623e f14e 05be
00000190: c137 423e 5f69 a73d 5f3c 663d e340 9bbd
000001a0: ce18 dbbc f32e 0cbd 65cc 663d d6c3 1fbd
000001b0: 4684 9b3c 422f a4bc ec02 df3d 0c9f e4bd
000001c0: ed8e 0e3d b811 0c3d a121 31bd e840 b83d
000001d0: dac6 9b3d 68c7 f43d 84cf b1bb 8bb3 4d3e
000001e0: 277e f23d b49e 9a3d 0755 693d a0cd d23d
000001f0: 0868 d2bd e7be 69bd 16aa a23d 67c5 c8ba
00000200: d970 e23d 187d 0fbc 7054 763c 2d1b 0ebd
00000210: a040 c63b 6a26 f8bc 4377 9fbd 0077 903d
00000220: 5096 fc3d bf10 a0bd 3b79 2ebd a0ff 4b3e
00000230: cda4 09bd a890 823c edca 723e aa63 a63d
00000240: e957 bebc f415 cdbc 0b9d ac3d f2e7 a33c
00000250: f589 00bd 6f0f 743e 371c 113e 46f3 723c
00000260: 43d8 863d dff5 33be 3d22 12be 9569 cb3d
00000270: c007 d4bd f628 b93d a187 083d 997f 3f3e
00000280: 4b87 003e 26a9 cc3d 1856 8c3c 4a72 c7bd
00000290: 85c7 0a3e d7a2 21bd 2c05 193e 5aa9 cbbb
000002a0: 1713 913d 02fb 593d 2169 1a3e b627 39bd
000002b0: f4c9 5ebe f332 043d d760 8abe f95a 343e
000002c0: 37b1 9a3d d261 0a3e 847c 58bd e9f4 be3d
000002d0: 82c3 1c3e af71 263e ee23 f53d 2fb6 b4bc
000002e0: cd03 0e3e d220 1cbd 8593 143e 762c 143d
000002f0: 697f fe3a 87e3 be3c 400c 813d 852c e1bb
00000300: a8a7 91be 066f 823d ea27 bbbd a166 513c
00000310: c1de 353e 13ee e33d db2f 453d c50e 763e
00000320: e549 abbd cff3 a13d 7ee6 01be 923b 77bd
00000330: c7f3 cd3d a684 2cbe 480c aebd 8734 18be
00000340: cca0 b03c 5215 38be c310 c63d cc34 00be
00000350: 83e8 933d 6f0f c2bd a554 18be a0c8 c8bc
00000360: 8467 3b3e d841 0f3e 076b 1dbe cf5c dd3d
00000370: 66cf d2bc 67f4 12be e72d 2c3e 5ff7 d13d
00000380: dd1f 84bc 9292 6ebb 50bd 163e 1334 733d
00000390: 0db3 d0bd f937 aebd 1af0 043d 30af a43d
000003a0: 5e6c 5f3d 2249 0abe a9ef f7bd c0a0 553e
000003b0: 6e11 fb3d 9b11 6f3e 3602 413c 1486 a03d
000003c0: 7723 073e 662f 1a3d f022 993c b568 9f3d
000003d0: fab0 863d 6ec4 3e3e cddc 4e3e aaf4 abbc
000003e0: cc4c 473e 906c d83d bcc5 7bbd d144 0c3e
000003f0: 51aa 073e aa93 a23d fd75 07be c98a cb3d

weight_hh_l0 f4 [120, 40]
0.02636365 0.1301606 -0.056791514 0.0850106 -0.03144915 -0.12988771 0.06717102 -0.12394266
0.07483743 0.094057 -0.13044383 0.015020104 -0.06145454 0.016747111 -0.27792358 -0.01941888
0.03350572 -0.03049849 -0.025619088 0.09174244 0.15493378 -0.02391233 0.019526465 0.14807096
0.253029 -0.01251326 0.0647983 0.22693716 0.037689105 -0.02572038 0.115655854 0.05759511
-0.10186804 -0.09120932 0.10446084 0.043034248 0.07056807 -0.0188863 -0.06840657 -0.054262217
-0.07260358 -0.10457271 -0.023600046 0.20857982 0.09595045 -0.049941096 0.041217446 0.0372817
-0.022815246 0.008883913 0.057870872 0.1870898 -0.07370552 -0.03013654 -0.07529799 -0.19153668
-0.054413293 0.02763033 -0.2758837 -0.12089348 0.0091628665 -0.082850546 -0.028966157 0.13952425
-0.04657069 0.033098865 -0.079702854 0.08156936 0.23258363 -0.11900714 0.05076171 -0.09922407
-0.15375768 -0.07950878 0.187443 -0.04687947 0.24892095 -0.119605355 0.18236671 -0.13447763
-0.16568774 -0.15142389 -0.051191363 0.073258184 0.039471913 0.17338601 -0.053549968 0.09769896
-0.13230222 -0.06800024 0.106094845 0.06066636 -0.046233345 -0.070464626 0.07307891 0.029926343
-0.030996801 -0.024461411 -0.028339954 -0.018962804 0.1026042 0.08893248 -0.16617416 0.02862065
0.014330719 0.0053455243 0.03379615 -0.06999376 -0.12515213 -0.18203029 0.12915555 0.11706472
-0.17989387 0.04084301 0.1742851 -0.0714567 -0.051556353 -0.122701585 -0.022892393 -0.06250284
0.16985442 -0.14422831 0.033931315 0.22371371 -0.14782268 -0.10054694 -0.10849046 -0.17757525
0.13948342 0.16413462 0.016318213 0.105815716 0.2338007 -0.019009095 -0.20229647 -0.15042822
-0.0068338835 -0.049635768 -0.053894266 -0.0024098828 -0.019500967 -0.15928458 0.031056367 0.16893266
0.13941035 -0.14367826 0.1425392 0.05261182 0.1179836 0.01868121 -0.22378804 -0.03581769
0.039438386 -0.017532613 -0.08587623 -0.02876933 0.1240799 0.07876449 -0.035193976 0.13990624
-0.14714232 0.19040404 0.005752717 0.004872932 -0.05987936 -0.010097355 0.19024661 0.045951083
-0.2607948 -0.072253466 0.043318998 0.012724389 -0.16537692 0.01572673 0.25280854 -0.017881192
0.14512092 -0.11970555 0.23777823 -0.14838772 -0.22741723 0.022361817 0.17660202 -0.107736565
-0.14120592 0.17912512 -0.0034246081 -0.2350205 0.05855965 0.13301057 0.24911872 0.021817593
0.051593117 0.17250256 0.15712251 0.015635688 -0.21603113 0.05290981 0.05020183 0.070977844
0.06180367 0.054819643 -0.019333672 0.18812396 0.037621636 -0.18015735 -0.08837717 -0.13661206
0.18863584 -0.040462 0.006979168 -0.02693225 -0.099427104 0.11514202 0.09594864 -0.030454805
0.042006586 0.0416697 0.0040291133 0.16743761 0.14325547 -0.028853368 -0.038468834 0.19362682
-0.003406754 0.022389403 0.02805419 -0.10626076 0.057392463 -0.14264598 -0.20820287 0.015050222
0.08814415 -0.04110742 0.03782162 -0.03533995 -0.030554432 -0.05196661 0.15009281 0.019077204
-0.14723906 0.23534708 -0.19090578 0.11522635 0.18112832 0.12588087 0.2163491 0.082960375
-0.24846543 0.034662064 0.124259956 -0.052368972 -0.1833757 0.11809761 0.1340298 0.026758572
00000000: 95f8 d73c d248 053e 389e 68bd 0a1a ae3d
00000010: d3d0 00bd 4901 05be f690 893d a6d5 fdbd
00000020: 5e44 993d f5a0 c03d 1193 05be e216 763c
00000030: c1b7 7bbd 3d31 893c 004c 8ebe 5814 9fbc
00000040: 4b3d 093d f8d7 f9bc 1fdf d1bc 76e3 bb3d
00000050: f6a6 1e3e cae3 c3bc f7f5 9f3c ea9f 173e
00000060: 048d 813e 6b04 4dbc f9b4 843d 3762 683e
00000070: e45f 1a3d 8cb3 d2bc fadc ec3d dae8 6b3d
00000080: 31a0 d0bd f4cb babd 91ef d53d ae44 303d
00000090: fe85 903d 71b7 9abc be18 8cbd 0f42 5ebd
000000a0: 30b1 94bd 382a d6bd e254 c1bc f395 553e
000000b0: ab81 c43d 098f 4cbd a0d3 283d b2b4 183d
000000c0: 0ae7 babc d58d 113c 020a 6d3d 7894 3f3e
000000d0: ebf2 96bd e8e0 f6bc d535 9abd 3122 44be
000000e0: 79e0 5ebd 0059 e23c a140 8dbe 0097 f7bd
000000f0: d91f 163c 8cad a9bd 6f4a edbc 72df 0e3e
00000100: e8c0 3ebd ad92 073d 403b a3bd d60d a73d
00000110: 672a 6e3e 04ba f3bd 83eb 4f3d fd35 cbbd
00000120: a772 1dbe 80d5 a2bd 0ff1 3f3e b004 40bd
00000130: 22e5 7e3e a7f3 f4bd 57be 3a3e 81b4 09be
00000140: 0caa 29be dd0e 1bbe 09ae 51bd 6308 963d
00000150: 4dad 213d 1a8c 313e 3657 5bbd 6416 c83d
00000160: 3c7a 07be b643 8bbd 4148 d93d 4a7d 783d
00000170: 2d5f 3dbd c24f 90bd 65aa 953d 1728 f53c
00000180: 01ed fdbc 4c63 c8bc 3129 e8bc e257 9bbc
00000190: 2722 d23d 3b22 b63d 8f29 2abe da75 ea3c
000001a0: 64cb 6a3c 8229 af3b d56d 0a3d e358 8fbd
000001b0: e127 00be 2666 3abe 5a41 043e a1bf ef3d
000001c0: 1936 38be 004b 273d cb77 323e e457 92bd
000001d0: c12c 53bd f84a fbbd d488 bbbc 7d01 80bd
000001e0: 51ee 2d3e 96b0 13be 90fb 0a3d 3515 653e
000001f0: d45e 17be 8eeb cdbd 3f30 debd 49d6 35be
00000200: bed4 0e3e e812 283e c6ad 853c e9b5 d83d
00000210: 7369 6f3e f6b8 9bbc ce26 4fbe db09 1abe
00000220: c5ee dfbb e04e 4bbd 3cc0 5cbd 20ef 1dbb
00000230: 7ec0 9fbc 7f1b 23be ec69 fe3c affc 2c3e
00000240: 96c1 0e3e 6520 13be ccf5 113e 7e7f 573d
00000250: 63a1 f13d 5609 993c b128 65be 92b5 12bd
00000260: 258a 213d 8ea0 8fbc e0df afbd a8ad ebbc
00000270: 9a1d fe3d 474f a13d 8f27 10bd 9543 0f3e
00000280: 7aac 16be 47f9 423e 4a81 bc3b 1ead 9f3b
00000290: 0f44 75bd 606f 25bc 02d0 423e 3437 3c3d
000002a0: e586 85be a0f9 93bd 436f 313d f579 503c
000002b0: 9158 29be 58d5 803c 1f70 813e 947b 92bc
000002c0: 949a 143e 2f28 f5bd 237c 733e f3f2 17be
000002d0: 10e0 68be 2130 b73c 29d7 343e fda4 dcbd
000002e0: 4998 10be 936c 373e 646f 60bb 37a9 70be
000002f0: 3edc 6f3d ec33 083e fa18 7f3e cfba b23c
00000300: 4e53 533d 83a4 303e b9e4 203e 6a16 803c
00000310: 4437 5dbe f5b7 583d 6fa0 4d3d d55c 913d
00000320: d825 7d3d 908a 603d a661 9ebc 91a3 403e
00000330: 2519 1a3d 2b7b 38be 17ff b4bd 08e4 0bbe
00000340: c129 413e 7bbb 25bd 81b1 e43b 06a1 dcbc
00000350: 70a0 cbbd 94cf eb3d b880 c43d 5b7c f9bc
00000360: 190f 2c3d d9ad 2a3d a706 843b c474 2b3e
00000370: 90b1 123e e65d ecbc 7f91 1dbd 1c46 463e
00000380: d943 5fbb fb69 b73c e7d1 e53c 3e9f d9bd
00000390: 5c14 6b3d ca11 12be 2233 55be 3595 763c
000003a0: ec84 b43d 4160 28bd d8ea 1a3d a0c0 10bd
000003b0: 4a4d fabc f1da 54bd eeb1 193e cc47 9c3c
000003c0: d6c5 16be d3fe 703e ce7c 43be cbfb eb3d
000003d0: b479 393e eae6 003e 9e8a 5d3e 21e7 a93d
000003e0: b96d 7ebe cff9 0d3d 017c fe3d d980 56bd
000003f0: d7c6 3bbe 29dd f13d 1c3f 093e cb34 db3c

bias_ih_l0 f4 [120]
0.05538428 0.114178434 -0.100266606 0.11910357 0.14804795 0.014188169 0.24057053 -0.055670124
0.16967371 0.14659977 0.00900051 0.16732405 -0.058730554 -0.059963103 0.04081745 -0.044487756
0.113073155 -0.17100467 -0.20221177 -0.08842252 -0.025331913 0.08661836 -0.13735603 0.2149102
0.020197023 0.052053045 -0.07280486 0.06664283 0.0819476 0.24445045 -0.040544398 0.12421928
0.2717463 0.1629141 -0.010425745 0.045503393 -0.056008816 -0.0038450102 -0.078562856 0.13790204
-0.05146956 -0.1970736 -0.13221198 -0.30032536 -0.17207213 -0.044322465 -0.20841402 -0.08373139
-0.26210433 -0.19381759 -0.19142176 -0.007852809 -0.08870427 -0.18864879 -0.26480734 -0.25926682
-0.26816434 -0.13571219 -0.29183596 -0.24003 -0.07894397 -0.13657884 0.050068468 -0.22815473
-0.23562585 -0.16106558 -0.21554765 -0.20658599 -0.2697604 -0.15314065 -0.101022094 -0.03181428
-0.056254305 -0.11317726 0.0017279094 -0.30818748 -0.22689204 -0.018445358 -0.14597455 -0.20813401
-0.06239626 0.07652143 -0.049652506 0.087680764 -0.009975012 -0.084028356 0.12560739 -0.029683197
-0.06725075 0.06996851 0.17888597 0.02897338 0.02475093 0.2746719 0.06736829 -0.16862684
0.13460016 -0.2599481 0.048975848 -0.2504549 -0.1969799 0.23556574 0.14298938 -0.18932626
-0.14065109 0.22641657 -0.1239615 -0.1432416 0.24912035 -0.14949852 0.14616121 0.19901049
-0.14199103 0.16329145 0.21146576 0.1549114 -0.22154003 -0.1813185 -0.25094074 0.12716149
00000000: a0da 623d 62d6 e93d 9458 cdbd 93ec f33d
00000010: e299 173e 7e75 683c 1f58 763e 5b06 64bd
00000020: f2be 2d3e 401e 163e e076 133c ff56 2b3e
00000030: 738f 70bd df9b 75bd 3330 273d cb38 36bd
00000040: e692 e73d d91b 2fbe 9a10 4fbe de16 b5bd
00000050: df84 cfbc f764 b13d 0fa7 0cbe 6b11 5c3e
00000060: 3a74 a53c 9335 553d b71a 95bd 097c 883d
00000070: 25d4 a73d 3851 7a3e e211 26bd ae66 fe3d
00000080: 5522 8b3e f4d2 263e bed0 2abc c461 3a3d
00000090: 8069 65bd 91fc 7bbb 90e5 a0bd 3136 0d3e
000000a0: bfd1 52bd a9cd 49be 9462 07be 3fc4 99be
000000b0: ad33 30be 798b 35bd 7c6a 55be 5d7b abbd
000000c0: 8a32 86be 1e78 46be 1104 44be 11a9 00bc
000000d0: 96aa b5bd 262d 41be d494 87be 9fbe 84be
000000e0: d64c 89be 23f8 0abe 866b 95be 6dca 75be
000000f0: 60ad a1bd 53db 0bbe 9814 4d3d 65a1 69be
00000100: e747 71be 60ee 24be 86b8 5cbe 478b 53be
00000110: 091e 8abe e7d0 1cbe ace4 cebd b14f 02bd
00000120: ea6a 66bd 7bc9 e7bd 057b e23a c0ca 9dbe
00000130: 6356 68be b81a 97bc 5a7a 15be 1521 55be
00000140: 3993 7fbd 44b7 9c3d 6d60 4bbd f991 b33d
00000150: 3c6e 23bc 0f17 acbd 399f 003e 2d2a f3bc
00000160: c3ba 89bd a64b 8f3d e22d 373e 9559 ed3c
00000170: 76c2 ca3c cca1 8c3e 63f8 893d 84ac 2cbe
00000180: a0d4 093e eb17 85be e69a 483d a03b 80be
00000190: 19b5 49be 2538 713e cf6b 123e bede 41be
000001a0: d706 10be bfd9 673e 87df fdbd edad 12be
000001b0: 6819 7f3e 2416 19be 49ab 153e 68c9 4b3e
000001c0: 1966 11be e035 273e 7b8a 583e 18a1 1e3e
000001d0: 64db 62be 8fab 39be 4e7b 80be 9f36 023e

bias_hh_l0 f4 [120]
0.10409209 0.1454603 0.11951413 -0.07831104 0.14076513 -0.10990189 0.25123104 0.21358852
0.10992986 0.14664997 0.19348212 -0.13686259 0.10681815 -0.0634697 0.013689628 0.0049802465
0.08261752 -0.14877073 -0.1395684 -0.072207764 0.12331473 -0.021043634 -0.15199001 0.11633317
-0.019915994 -0.06967934 0.1208461 0.08239646 0.08538886 0.22243686 0.037025683 0.016679358
0.0977514 0.09885763 0.026716279 0.044116214 0.1474305 0.17442243 0.079541825 0.0128573105
-0.17343861 -0.1087101 -0.007209711 -0.14024006 -0.21263175 -0.03245331 -0.2466824 -0.2614016
-0.11135004 -0.2502615 -0.037728384 -0.05882566 0.020990469 -0.10357547 -0.18914406 -0.20898157
-0.20114076 -0.007926551 -0.22551647 -0.24633445 -0.19118968 -0.05198745 0.07993703 -0.09185632
-0.1669817 0.020067824 -0.27119687 -0.068370864 -0.1556935 -0.1922349 -0.24854037 -0.21677618
0.04661073 -0.16630475 -0.19220737 -0.28046766 -0.08809902 -0.10789316 -0.22559074 -0.16268493
-0.15112913 0.086095415 -0.05013952 -0.13383645 -0.043579902 -0.012581951 0.24350835 0.15309009
-0.11313969 -0.074826606 0.24272358 -0.13149014 -0.06384252 0.13043539 0.057427183 -0.022725744
0.13185617 -0.030975763 -0.11105983 -0.12545449 -0.14532958 0.03350293 0.039321315 -0.20427415
-0.041929133 0.19721024 -0.17613944 0.05011104 0.21992533 -0.20051642 0.1424872 -0.035352945
-0.22704549 0.060757015 0.04041622 0.1664397 -0.12977992 -0.0768933 -0.11806149 0.046658378
00000000: 3c2e d53d 8bf3 143e d3c3 f43d 8a61 a0bd
00000010: bc24 103e 3e14 e1bd 5ba1 803e f3b6 5a3e
00000020: e822 e13d 692b 163e 2d20 463e b525 0cbe
00000030: 79c3 da3d 67fc 81bd 764a 603c 5631 a33b
00000040: 6033 a93d 5b57 18be 05eb 0ebe aae1 93bd
00000050: 6f8c fc3d b363 acbc 45a3 1bbe 1640 ee3d
00000060: de26 a3bc 0bb4 8ebd 297e f73d 7abf a83d
00000070: 5be0 ae3d 7dc6 633e 3ea8 173d 26a3 883c
00000080: e331 c83d de75 ca3d 19dc da3c 34b3 343d
00000090: 05f8 163e cb9b 323e d3e6 a23d 78a7 523c
000000a0: e499 31be 67a3 debd 703f ecbb 179b 0fbe
000000b0: 23bc 59be c3ed 04bd 509a 7cbe 6ed6 85be
000000c0: 7d0b e4bd 4622 80be 1489 1abd 2df3 70bd
000000d0: 34f4 ab3c 601f d4bd fbae 41be 44ff 55be
000000e0: d8f7 4dbe 5dde 01bc caed 66be 193f 7cbe
000000f0: 3ac7 43be cbf0 54bd 07b6 a33d 2b1f bcbd
00000100: 40fd 2abe 4765 a43c 51da 8abe 0606 8cbd
00000110: 1e6e 1fbe 3ad9 44be 5e81 7ebe 93fa 5dbe
00000120: e5ea 3e3d cb4b 2abe 02d2 44be 7599 8fbe
00000130: 426d b4bd 17f7 dcbd 4201 67be e196 26be
00000140: 98c1 1abe cb52 b03d 195f 4dbd 6c0c 09be
00000150: d780 32bd 8724 4ebc 415a 793e a6c3 1c3e
00000160: c8b5 e7bd b13e 99bd 888c 783e 5aa5 06be
00000170: debf 82bd db90 053e c438 6b3d 572b babc
00000180: 4e05 073e e2c0 fdbc 5673 e3bd 2477 00be
00000190: 47d1 14be 5e3a 093d 630f 213d 3e2d 51be
000001a0: e2bd 2bbd 7bf1 493e e65d 34be 3c41 4d3d
000001b0: 1b34 613e 2d54 4dbe 2ae8 113e 40ce 10bd
000001c0: 9d7e 68be 59dc 783d 7a8b 253d 2b6f 2a3e
000001d0: 07e5 04be 3c7a 9dbd 39ca f1bd db1c 3f3d

weight f4 [40, 40]
0.018041767 0.10482595 -0.07092594 0.06874997 0.12899056 -0.043187317 0.0837002 0.07018489
0.13500668 0.117137216 -0.044529304 -0.059703074 0.035941333 -0.023219109 0.14366817 0.060015555
0.0013391364 -0.014976849 0.032286096 0.18101907 0.048764203 -0.18967128 0.096271664 0.13536634
-0.14113376 -0.1191751 -0.021388592 -0.043698847 -0.16133156 0.14591782 -0.023525644 -0.025338056
-0.04128158 -0.0055893175 -0.030480135 0.013630708 -0.043599624 -0.06882206 -0.016998911 -0.11679013
-0.12960444 0.27139091 -0.28168273 -0.14009747 0.07955804 0.19675176 -0.022059232 0.23655096
-0.15855904 0.021307094 0.24007456 -0.079698704 -0.20135477 0.13815716 0.040374428 -0.05785463
0.0069871987 -0.008391418 0.1752154 -0.08940299 -0.25979766 -0.018044641 0.020839166 -0.12613192
-0.18484695 0.19524728 0.0805873 -0.3165229 0.11411829 -0.21761565 0.15145092 -0.006302016
-0.16461518 0.20854327 -0.031364653 0.2146089 -0.16493128 -0.21634357 -0.1977223 0.10205418
-0.04824743 -0.118743174 0.01856243 0.084827796 0.035881933 -0.14982279 -0.014711989 -0.09836793
0.1155815 0.046368673 -0.095084585 0.17105037 0.18878834 0.14375527 -0.19211775 -0.020750547
0.2673501 -0.08863082 -0.15280773 -0.06976326 -0.12245296 -0.04815682 -0.0022476537 0.019297956
0.0573669 0.15811716 -0.22354941 0.049163878 0.12446472 -0.21564437 0.0009869738 0.13971405
-0.20147353 0.014721304 -0.024876956 0.1944515 -0.03572365 -0.08650468 -0.1144549 0.097087264
-0.14746793 0.012943197 -0.02751573 -0.049766824 0.054140717 -0.12632553 0.047400028 -0.113391176
0.1450919 0.040630594 0.06312972 0.15865433 0.064259805 -0.08669714 -0.20241597 -0.038892806
0.11066779 0.042955104 -0.053067185 -0.024973117 0.08755516 -0.1803345 -0.08011215 -0.0802345
0.17070867 -0.061014537 -0.008488281 0.08784379 -0.00070973404 -0.077056475 -0.21728122 -0.0757152
-0.09335031 -0.1355123 0.021582423 0.1487333 -0.031627044 -0.101528324 -0.03844279 -0.08158994
-0.21904029 0.16886844 0.033665456 -0.008842086 -0.0652204 0.06575609 0.083184876 0.043154575
-0.15422924 -0.11130593 0.054765005 -0.13687395 -0.0036744305 0.18960367 0.18745868 0.13548529
-0.0048635234 -0.27963454 0.14389294 -0.2385695 -0.07577762 0.064903855 -0.06744892 -0.14537716
-0.04487234 -0.026564907 0.1739993 -0.1915844 -0.03467139 -0.10523347 0.20108663 0.041968536
-0.036767665 0.1579469 0.05585701 0.24762778 0.05169288 -0.118696265 -0.075080596 -0.11486838
0.27083287 0.018850425 0.18342604 0.1920952 0.24681728 -0.08964046 0.017002286 -0.24056107
-0.070343405 0.29652995 0.14804107 0.194852 0.110264845 0.18249588 -0.00639768 -0.27893353
0.15489815 -0.0864339 -0.16892622 -0.1517899 0.051807713 0.089834526 -0.07226962 0.046412524
0.16857597 0.16068922 -0.24493563 -0.0043550525 0.2322606 -0.09505683 0.10376551 0.25350085
-0.1703316 0.061702006 0.2407504 -0.05121347 0.12442096 -0.1429545 -0.13660304 0.08210451
-0.12171765 0.29005423 -0.15254591 -0.21960016 -0.17301169 0.11202922 -0.012190737 0.27734044
-0.19832624 -0.26019323 0.15055837 -0.17647573 -0.1988952 0.039899405 0.17406785 0.18222935
00000000: 54cc 933c fdae d63d 9f41 91bd c9cc 8c3d
00000010: 1a16 043e 2fe5 30bd 036b ab3d 18bd 8f3d
00000020: 313f 0a3e a3e5 ef3d 5c64 36bd 368b 74bd
00000030: 3837 133d 0036 bebc c01d 133e dfd2 753d
00000040: f685 af3a 7561 75bc 6d3e 043d 105d 393e
00000050: f9bc 473d 3039 42be 142a c53d 799d 0a3e
00000060: 5e85 10be 1312 f4bd 2137 afbc 90fd 32bd
00000070: 1a34 25be 7b6b 153e dab8 c0bc c191 cfbc
00000080: e016 29bd 9826 b7bb 7ab1 f9bc 5553 5f3c
00000090: 8595 32bd 95f2 8cbd 4d41 8bbc aa2f efbd
000000a0: 07b7 04be c0f3 8a3e b838 90be b675 0fbe
000000b0: 53ef a23d 4b79 493e 90b5 b4bc 6a3a 723e
000000c0: 4d5d 22be 378c ae3c 1bd6 753e 1339 a3bd
000000d0: f22f 4ebe 1279 0d3e a85f 253d faf8 6cbd
000000e0: dff4 e43b 287c 09bc aa6b 333e ea18 b7bd
000000f0: 3304 85be 5bd2 93bc e6b6 aa3c ba28 01be
00000100: 8548 3dbe e7ee 473e f40a a53d 4a0f a2be
00000110: dab6 e93d a3d6 5ebe f315 1b3e 2481 cebb
00000120: e290 28be 5e8c 553e 3978 00bd 6fc2 5b3e
00000130: bfe3 28be 2b89 5dbe b777 4abe c801 d13d
00000140: 199f 45bd 9f2f f3bd 3d10 983c 32ba ad3d
00000150: eff8 123d 256b 19be 8e0a 71bc 2075 c9bd
00000160: feb5 ec3d 14ed 3d3d b5bb c2bd d427 2f3e
00000170: bb51 413e 9534 133e 84ba 44be 0dfd a9bc
00000180: 1de2 883e 1384 b5bd a179 1cbe 0ae0 8ebd
00000190: 9ec8 fabd 1640 45bd 5f4d 13bb bf16 9e3c
000001a0: 8ef9 6a3d 77e9 213e 23ea 64be 1060 493d
000001b0: 5ce7 fe3d e1d1 5cbe 585d 813a 3311 0f3e
000001c0: 144f 4ebe a031 713c c2ca cbbc 4b1e 473e
000001d0: f652 12bd 5e29 b1bd 5567 eabd b0d5 c63d
000001e0: d501 17be b40f 543c ab68 e1bc 4cd8 4bbd
000001f0: a8c2 5d3d 7b5b 01be 8826 423d a239 e8bd
00000200: f992 143e 446c 263d 284a 813d 4876 223e
00000210: a59a 833d 458e b1bd 2246 4fbe 104e 1fbd
00000220: cba5 e23d b1f1 2f3d fa5c 59bd 6c94 ccbc
00000230: 1f50 b33d 9ba9 38be d711 a4bd fc51 a4bd
00000240: 41ce 2e3e 61ea 79bd 6e12 0bbc 72e7 b33d
00000250: 720d 3aba c9cf 9dbd f87e 5ebe 9210 9bbd
00000260: 732e bfbd bdc3 0abe 9fcd b03c 8b4d 183e
00000270: 5c8b 01bd 15ee cfbd 3076 1dbd a018 a7bd
00000280: 194c 60be d9eb 2c3e cae4 093d 66de 10bc
00000290: 4692 85bd 21ab 863d d55c aa3d dac2 303d
000002a0: 45ee 1dbe 5df4 e3bd 4551 603d af28 0cbe
000002b0: b7ce 70bb 7727 423e 2bf5 3f3e a8bc 0a3e
000002c0: 315e 9fbb 422c 8fbe ac58 133e 904b 74be
000002d0: 4c31 9bbd 50ec 843d a922 8abd c0dd 14be
000002e0: 0fcc 37bd a69e d9bc df2c 323e b32e 44be
000002f0: 9603 0ebd a584 d7bd a7e9 4d3e 33e7 2b3d
00000300: b199 16bd d5bc 213e 52ca 643d 2392 7d3e
00000310: eabb 533d 0717 f3bd dbc3 99bd 1d40 ebbd
00000320: 9baa 8a3e 356c 9a3c 09d4 3b3e 9bb4 443e
00000330: abbd 7c3e 6b95 b7bd 6148 8b3c a455 76be
00000340: 3410 90bd c6d2 973e 1498 173e 4887 473e
00000350: 89d2 e13d 33e0 3a3e a1a3 d1bb 60d0 8ebe
00000360: 9f9d 1e3e 4204 b1bd fffa 2cbe d06e 1bbe
00000370: 5334 543d 2afb b73d 1802 94bd 0f1b 3e3d
00000380: 2e9f 2c3e b78b 243e 68d0 7abe d4b4 8ebb
00000390: b9d5 6d3e 28ad c2bd 0383 d43d ddca 813e
000003a0: 686b 2ebe 3ebb 7c3d 4687 763e 37c5 51bd
000003b0: 6bd0 fe3d aa62 12be abe1 0bbe 6926 a83d
000003c0: 1a47 f9bd fd81 943e ff34 1cbe ddde 60be
000003d0: fa29 31be 936f e53d a8bb 47bc 91ff 8d3e
000003e0: 0916 4bbe 0c38 85be f92b 1a3e 0eb6 34be
000003f0: 2fab 4bbe 8f6d 233d d83e 323e 559a 3a3e

bias f4 [40]
-0.009474349 -0.026474575 0.02272391 0.13454877 0.019854946 0.17541978 0.07373843 -0.0775425
0.1817216 0.03784823 -0.011254592 0.12378878 0.16951296 0.09067786 -0.17752773 0.13774066
-0.034517486 -0.30436346 -0.038418747 0.21477291 0.14478926 0.08514128 0.025436552 0.13703649
0.002870932 -0.009527472 0.06892032 -0.02815892 0.0057824347 -0.24401166 0.14104582 -0.026845131
0.055465814 0.10986841 0.023505205 0.089471646 0.22385867 0.0008051041 0.017233737 -0.047393154
00000000: 4d3a 1bbc 35e1 d8bc 7e27 ba3c 27c7 093e
00000010: d7a6 a23c 3ea1 333e 2d04 973d 9ace 9ebd
00000020: 3a15 3a3e bf06 1b3d 2e65 38bc f984 fd3d
00000030: ce94 2d3e 50b5 b93d d4c9 35be e30b 0d3e
00000040: 3562 0dbd 87d5 9bbe fa5c 1dbd 6eed 5b3e
00000050: a343 143e 8d5e ae3d 5160 d03c 4b53 0c3e
00000060: 3f26 3c3b 1d19 1cbc 1926 8d3d 89ad e6bc
00000070: 947a bd3b 31de 79be 516e 103e 52ea dbbc
00000080: 1f30 633d b002 e13d fd8d c03c e93c b73d
00000090: 353b 653e 9f0d 533a c42d 8d3c 531f 42bd

weight f4 [40, 40]
0.16846251 -0.033895116 0.26379776 -0.005256915 0.1593359 0.19159462 -0.12446111 0.0857008
0.01813385 0.17605034 -0.00076475774 0.21256226 0.22289898 0.06008349 -0.15484084 0.035631146
0.15191741 -0.08116389 0.17226763 0.1740816 -0.041201513 0.27728152 -0.058119208 0.06505272
-0.17035806 0.010793254 -0.034794398 0.035954926 -0.18244863 -0.05985371 0.22245428 -0.034981783
-0.024157675 0.07410186 0.15611984 0.11109901 0.29447457 -0.19888468 0.06343327 -0.09908423
-0.044641994 -0.026925867 0.018287174 0.12889747 -0.05672504 -0.012340534 -0.13130063 0.088502236
0.18800311 -0.093906604 0.0054189814 0.06500646 0.12201274 0.19157177 0.027443726 0.023738904
0.11522187 0.103007436 0.10984625 -0.017976671 0.11788697 0.18425621 0.1248667 0.041973397
0.1962764 0.13307989 0.17903347 -0.05964543 -0.020731648 -0.0259565 -0.06635143 0.15634747
0.086150326 0.053458665 0.14835808 0.1828427 0.14469697 0.08743814 0.15994142 -0.03944036
0.032991998 -0.034847725 0.05247989 -9.103661e-05 0.04957911 -0.08083666 -0.23133992 -0.18338396
-0.13354889 0.028651424 -0.08627065 -0.07345368 -0.044987153 0.0007075211 0.08101206 -0.0514262
0.03376663 0.0543176 0.09965029 0.06929337 -0.275401 0.060914055 -0.17005171 -0.021218656
-0.18133698 -0.011837421 -0.08414899 -0.18726543 -0.03312509 0.03116918 -0.20731886 -0.17148906
-0.08533534 -0.061508782 -0.19195576 -0.013177178 0.034568854 -0.15743 -0.11019542 -0.13875419
0.06982005 0.0012774342 0.14770602 0.026941897 -0.020559462 0.27112088 -0.19932418 -0.14602792
-0.21108462 -0.17700209 0.08769666 0.058975935 0.07693077 0.12830488 0.081385136 0.017661316
0.03902464 -0.0714379 0.09755066 0.11886314 -0.21722433 0.18318671 -0.07758219 0.14670195
-0.09991677 0.1640578 -0.039912716 -0.21208534 -0.22816238 -0.0036746697 0.20233501 0.08802175
-0.13511382 0.11095181 -0.0055182334 0.057989918 0.23013702 -0.20034257 0.081245385 -0.04275371
0.11553681 0.14080709 0.01632227 -0.003744826 0.053511977 0.10386468 0.09538355 0.060430106
0.12653483 -0.041545518 0.16731402 0.21599253 0.027582938 0.020814307 -0.013182038 0.10519646
0.043683104 0.08050524 0.1897579 0.115597844 -0.14642794 -0.0069293105 0.058341186 0.014495478
-0.060096163 0.12869693 -0.097440384 -0.08475625 0.06813823 -0.019781275 -0.08598685 0.12670249
0.06090961 0.051672846 0.008152414 -0.103781365 0.12917931 -0.14453457 0.22694862 -0.13942628
-0.017737709 0.2296307 0.20159961 0.2337699 0.23772368 0.23178937 0.24880894 0.24432722
0.28372934 0.17070927 0.22920664 0.25874436 0.12353162 0.16353264 -0.12624468 0.27929553
0.037734333 -0.19783424 -0.031777386 0.30182734 0.23540717 0.1585761 0.2637462 0.032798532
0.037616882 0.08431024 0.122284755 0.21325408 0.26179612 0.025582034 0.18963519 0.109412484
0.07869035 -0.011045818 0.04353961 0.15654016 0.24901652 0.018884351 -0.037037943 -0.16346148
-0.07624972 0.03164834 0.15929408 -0.026576197 0.03434014 -0.10684001 0.1754814 0.22887728
0.034345165 0.06634611 0.1409103 -0.1292066 0.0056343386 0.046412062 -0.17539106 0.014091013
00000000: 7081 2c3e 9bd5 0abd 8010 873e 3342 acbb
00000010: f328 233e 6131 443e 77e5 febd e783 af3d
00000020: 718d 943c 8a46 343e 067a 48ba eca9 593e
00000030: a13f 643e 1b1a 763d 998e 1ebe f7f1 113d
00000040: 3d90 1b3e 4139 a6bd ed66 303e 7242 323e
00000050: ebc2 28bd d8f7 8d3e 680e 6ebd 5c3a 853d
00000060: 5872 2ebe 30d6 303c 9284 0ebd 7945 133d
00000070: d0d3 3abe 2a29 75bd 0ecb 633e 0f49 0fbd
00000080: 51e6 c5bc b7c2 973d e1dd 1f3e e187 e33d
00000090: 5fc5 963e 6da8 4bbe 4de9 813d acec cabd
000000a0: 86da 36bd a393 dcbc fcce 953c b3fd 033e
000000b0: 8458 68bd f32f 4abc ac73 06be a940 b53d
000000c0: e383 403e 1b52 c0bd b691 b13b 1b22 853d
000000d0: d1e1 f93d 642b 443e aad1 e03c 1778 c23c
000000e0: 72f9 eb3d 90f5 d23d 12f7 e03d d043 93bc
000000f0: b96e f13d a9ad 3c3e 1dba ff3d 4cec 2b3d
00000100: aefc 483e 1846 083e 8d54 373e c44e 74bd
00000110: 6bd5 a9bc baa2 d4bc 42e3 87bd 8d19 203e
00000120: 956f b03d 79f7 5a3d 2eeb 173e 1e3b 3b3e
00000130: 712b 143e c412 b33d afc7 233e 378c 21bd
00000140: 9e22 073d 7dbc 0ebd 27f5 563d e8ea beb8
00000150: 7713 4b3d b18d a5bd 5fe4 6cbe 01c9 3bbe
00000160: 0ac1 08be 64b6 ea3c abae b0bd e26e 96bd
00000170: 7344 38bd f078 393a a7e9 a53d 47a4 52bd
00000180: e14e 0a3d 227c 5e3d 7415 cc3d afe9 8d3d
00000190: 5c01 8dbe 0481 793d 0922 2ebe bfd2 adbc
000001a0: 67b0 39be bef1 41bc 4e56 acbd 82c2 3fbe
000001b0: 2dae 07bd 8256 ff3c 654b 54be d49a 2fbe
000001c0: 4bc4 aebd a2f0 7bbd 0d90 44be 17e5 57bc
000001d0: 1298 0d3d 5435 21be 23ae e1bd 9415 0ebe
000001e0: d0fd 8e3d 946f a73a 3f40 173e 41b5 dc3c
000001f0: 516c a8bc 5bd0 8a3e a31b 4cbe 5888 15be
00000200: 9126 58be 0940 35be 4e9a b33d c090 713d
00000210: e18d 9d3d 5b62 033e 40ad a63d 77ae 903c
00000220: 4dd8 1f3d 094e 92bd a4c8 c73d 856e f33d
00000230: 0e70 5ebe 4c95 3b3e 69e3 9ebd 0939 163e
00000240: 2aa1 ccbd c5fe 273e 847b 23bd e62c 59be
00000250: 66a3 69be bad2 70bb e930 4f3e bf44 b43d
00000260: 475b 0abe b43a e33d 4cd2 b4bb d686 6d3d
00000270: 0aa9 6b3e 9a26 4dbe fb63 a63d 841e 2fbd
00000280: 909e ec3d bc2f 103e 48b6 853c c16b 75bb
00000290: 602f 5b3d 01b7 d43d 7358 c33d 8f85 773d
000002a0: 5992 013e a22b 2abd 5e54 2b3e 252d 5d3e
000002b0: 9df5 e13c c482 aa3c 7af9 57bc 3e71 d73d
000002c0: 0eed 323d eedf a43d e54f 423e 90be ec3d
000002d0: 35f1 15be 450f e3bb 2bf7 6e3d 717e 6d3c
000002e0: 6527 76bd 21c9 033e d38e c7bd af94 adbd
000002f0: 0e8c 8b3d 570c a2bc e019 b0bd 4cbe 013e
00000300: 5b7c 793d e8a6 533d b491 053c 538b d4bd
00000310: 9547 043e df00 14be 3865 683e c3c5 0ebe
00000320: ac4e 91bc 4f24 6b3e 2170 4e3e 6061 6f3e
00000330: d66d 733e 315a 6d3e c5c7 7e3e ea30 7a3e
00000340: f944 913e 69ce 2e3e 25b5 6a3e 247a 843e
00000350: 25fe fc3d 1a75 273e 4946 01be d3ff 8e3e
00000360: 518f 1a3d 0f95 4abe 0129 02bd 1d89 9a3e
00000370: 940e 713e c661 223e be09 873e c157 063d
00000380: 2914 1a3d d9aa ac3d 6e70 fa3d 475f 5a3e
00000390: 240a 863e 6a91 d13c ba2f 423e a713 e03d
000003a0: 6828 a13d 85f9 34bc 9756 323d 104c 203e
000003b0: 30fe 7e3e 5bb3 9a3c 19b5 17bd 7262 27be
000003c0: d028 9cbd b1a1 013d fd1d 233e 53b6 d9bc
000003d0: 3fa8 0c3d efce dabd 65b1 333e ce5e 6a3e
000003e0: 84ad 0c3d 78e0 873d ca4a 103e bc4e 04be
000003f0: 42a0 b83b 931a 3e3d b799 33be fedd 663c

bias f4 [40]
0.19148937 0.15606382 -0.06887419 -0.032189466 0.22647673 0.12229441 0.08488846 -0.1646988
0.146175 -0.09869199 0.17585932 0.16194026 0.13901661 0.21191849 0.040345203 -0.039781332
-0.20496249 -0.1391406 0.11157498 -0.035475392 -0.17528765 0.0834413 0.057210825 -0.12808156
-0.15078954 -0.05070843 0.17976414 0.17310068 -0.2665651 -0.092250995 -0.09887542 -0.037261073
-0.090629384 0.014479217 -0.2253352 0.23739238 0.09058366 0.2096457 -0.014995546 -0.10775934
00000000: ca15 443e 32cf 1f3e e90d 8dbd 1ad9 03bd
00000010: 84e9 673e 7e75 fa3d 00da ad3d cda6 28be
00000020: e6ae 153e 071f cabd 7714 343e abd3 253e
00000030: 5f5a 0e3e 2901 593e 0341 253d c0f1 22bd
00000040: b0e1 51be e07a 0ebe 6c81 e43d a54e 11bd
00000050: 9b7e 33be 46e3 aa3d e655 6a3d d027 03be
00000060: 9368 1abe a5b3 4fbd 1714 383e 4e41 313e
00000070: 397b 88be 17ee bcbd 327f cabd 119f 18bd
00000080: e69b b9bd 3d3a 6d3c 45be 66be fd16 733e
00000090: ed83 b93d 5dad 563e e1af 75bc eeb0 dcbd

weight_ih_l0 f4 [120, 40]
-0.3019402 -0.11404346 -0.108411096 -0.055167127 -0.08257124 -0.03295058 0.080586895 -0.044222467
-0.08693952 0.07781145 -0.048770003 0.20239264 0.19306588 -0.08917452 0.10847766 0.09286366
0.116876416 0.16102603 0.08645527 -0.034611683 0.12687822 -0.06124361 0.043298345 -0.21484572
0.2452872 0.28143385 -0.05085256 -0.075771645 0.10183927 0.049469177 -0.06704716 -0.13406539
0.084330566 0.01897177 0.23972005 -0.08918012 -0.26043946 0.032780457 0.01806162 -0.022797158
0.22925809 0.21675451 -0.13860063 0.21796563 0.119456895 0.13167922 -0.017136564 0.037519015
-0.071654625 -0.16745998 0.057864882 -0.20388679 0.033237353 0.12928893 -0.31214035 -0.09239087
0.05323796 0.14416607 0.068651155 -0.14008203 -0.09259151 0.20759955 -0.052860085 -0.15313444
-0.16111223 -0.20648378 0.18021527 -0.17502768 0.11957738 -0.09415601 -0.03678807 0.03210743
0.038272973 -0.1519293 -0.18722126 -0.06088417 0.31642562 -0.1181607 -0.018401809 -0.03208234
0.17804606 -0.03834338 -0.10725981 0.24921553 -0.06642682 0.17259647 0.20338063 0.0653009
-0.18587202 -0.18105479 -0.087324895 -0.031230934 -0.21116386 -0.062135383 -0.022559552 0.01364745
-0.005831753 -0.22609517 0.03951408 0.03908328 0.083011046 0.22594874 -0.08560763 -0.11916497
0.1714433 0.011064404 0.060851634 -0.09014762 -0.015505388 -0.16705054 0.17720443 0.22363056
-0.07220241 -0.18339069 -0.022159057 -0.016788725 0.26820198 -0.06343367 0.025032245 0.08387568
0.04996496 0.055501137 -0.09069385 0.062910475 0.14788204 0.16503671 -0.021529041 -0.20478855
0.099106684 -0.22118208 -0.015296395 -0.15713924 0.12506224 0.16806638 -0.18536665 -0.16704302
0.0071282773 -0.034852423 0.17213568 -0.07985427 0.03154934 0.20322627 -0.015157684 -0.20922723
-0.07899958 -0.04473897 0.25174084 -0.018573498 -0.13178414 -0.3195591 -0.002927878 0.18651155
-0.19848424 -0.21196312 -0.04127029 0.08470641 0.14429548 0.046239037 0.035278987 -0.24331203
-0.11496785 -0.021886539 0.115438886 0.1683103 -0.19317412 -0.058360144 -0.18109202 0.04968105
0.22774552 0.039384115 -0.14568788 -0.09728046 -0.12820502 -0.24809006 -0.028374758 0.07070256
-0.05722029 0.25779262 -0.1617838 -0.17104894 -0.048143204 -0.06147188 -0.058413118 0.15224487
-0.008657672 -0.061895307 -0.046131857 -0.01790295 0.23412366 0.0898299 -0.048942126 -0.24701914
0.13599563 0.24190994 -0.039453246 0.009837281 -0.051106323 -0.25424978 0.12522885 0.034263976
-0.011252798 -0.10517896 0.017078066 -0.014878856 0.17789975 0.22935197 -0.11030275 -0.01063955
-0.23239362 -0.059954353 0.10990666 -0.26920408 -0.23913112 0.124692924 0.044459745 0.05330119
0.13922255 -0.23509772 0.056161243 -0.008956294 0.022587985 -0.017656362 -0.060033727 0.10073386
0.010642899 -0.09079522 0.06170384 -0.049600415 -0.04179026 0.0017615462 0.17644121 0.2144433
-0.080363244 -0.18755983 -0.15066074 0.09234419 0.26058263 -0.04200111 -0.09568848 -0.063822955
-0.057839803 -0.16653821 -0.18315831 -0.031077256 0.04520086 0.20359911 0.088851295 -0.08347731
-0.24607082 -0.06710523 0.03574418 -0.03648854 0.19129847 -0.010952087 -0.08582089 0.106936604
00000000: e897 9abe 9e8f e9bd a306 debd edf6 61bd
00000010: 1c1b a9bd 30f7 06bd be0a a53d 9e22 35bd
00000020: 590d b2bd 9c5b 9f3d 0ec3 47bd 0440 4f3e
00000030: 10b3 453e 21a1 b6bd 8929 de3d 4d2f be3d
00000040: e75c ef3d 02e4 243e 760f b13d fbc4 0dbd
00000050: 5dec 013e 94da 7abd 9b59 313d 8400 5cbe
00000060: 912c 7b3e 1918 903e c64a 50bd 2a2e 9bbd
00000070: 1b91 d03d 31a0 4a3d 0550 89bd 7048 09be
00000080: 81b5 ac3d af6a 9b3c 2c79 753e 11a4 b6bd
00000090: 5258 85be cd44 063d f6f5 933c 1bc1 babc
000000a0: a2c2 6a3e e5f4 5d3e 53ed 0dbe 6232 5f3e
000000b0: d1a5 f43d ebd6 063e fb61 8cbc 8aad 193d
000000c0: a9bf 92bd a17a 2bbe ba03 6d3d b3c7 50be
000000d0: e423 083d 5164 043e dcd0 9fbe 6d37 bdbd
000000e0: 0c10 5a3d 45a0 133e fa98 8c3d aa71 0fbe
000000f0: 9ea0 bdbd fa94 543e d183 58bd 46cf 1cbe
00000100: 9bfa 24be 7c70 53be 5a8a 383e 753a 33be
00000110: fce4 f43d ded4 c0bd 16af 16bd 1583 033d
00000120: 1fc4 1c3d 5b93 1bbe eeb6 3fbe ae61 79bd
00000130: 8a02 a23e 3dfe f1bd 64bf 96bc c668 03bd
00000140: b551 363e f30d 1dbd 08ab dbbd 5b32 7f3e
00000150: c90a 88bd 21bd 303e 0343 503e 7abc 853d
00000160: 3c55 3ebe 6d66 39be 65d7 b2bd 04d8 ffbc
00000170: 573b 58be ac81 7ebd cfce b8bc 8e99 5f3c
00000180: 4a18 bfbb 7e85 67be 84d9 213d ca15 203d
00000190: b201 aa3d 1b5f 673e 0e53 afbd c40c f4bd
000001a0: d58e 2f3e 7947 353c 903f 793d 519f b8bd
000001b0: 500a 7ebc 4c0f 2bbe 1475 353e 69ff 643e
000001c0: dbde 93bd c5ca 3bbe e986 b5bc 8288 89bc
000001d0: c551 893e 83e9 81bd 6c10 cd3c 03c7 ab3d
000001e0: 0fa8 4c3d 2955 633d b2bd b9bd 35d7 803d
000001f0: 646e 173e 62ff 283e ac5d b0bc 17b4 51be
00000200: 72f8 ca3d 8e7d 62be bb9d 7abc 1ce9 20be
00000210: 5110 003e 9819 2c3e c1d0 3dbe 530d 2bbe
00000220: 5394 e93b 6ac1 0ebd 5644 303e a38a a3bd
00000230: e139 013d 8c1a 503e ef57 78bc aa3f 56be
00000240: 88ca a1bd 3640 37bd 2de4 803e 7327 98bc
00000250: 6cf2 06be 409d a3be a4e1 3fbb e2fc 3e3e
00000260: 743f 4bbe dc0c 59be 090b 29bd 8e7a ad3d
00000270: 32c2 133e 2565 3d3d b380 103d ca26 79be
00000280: 4474 ebbd 664b b3bc 396b ec3d 8959 2c3e
00000290: 70cf 45be 0c0b 6fbd 3070 39be 5b7e 4b3d
000002a0: 1f36 693e 3d51 213d 342f 15be fa3a c7bd
000002b0: 2d48 03be 520b 7ebe 2e72 e8bc 81cc 903d
000002c0: d35f 6abd 65fd 833e a7aa 25be 7427 2fbe
000002d0: cf31 45bd f0c9 7bbd 9842 6fbd 14e6 1b3e
000002e0: e9d8 0dbc ef85 7dbd c2f4 3cbd 35a9 92bc
000002f0: 1dbe 6f3e bdf8 b73d 8a77 48bd 96f2 7cbe
00000300: 7042 0b3e 3db7 773e ba99 21bd 8c2c 213c
00000310: dd54 51bd 072d 82be fe3b 003e 6258 0c3d
00000320: a85d 38bc 1168 d7bd 4de7 8b3c 72c6 73bc
00000330: 5a2b 363e 3edb 6a3e 68e6 e1bd 8251 2ebc
00000340: 98f8 6dbe b292 75bd be16 e13d 1ed5 89be
00000350: cade 74be 015f ff3d 6c1b 363d 5952 5a3d
00000360: 5b90 0e3e 75bd 70be 5509 663d 6bbd 12bc
00000370: 700a b93c 13a4 90bc ede5 75bd 8e4d ce3d
00000380: 8e5f 2e3c d8f2 b9bd 2abd 7c3d ce29 4bbd
00000390: 432c 2bbd afe3 e63a 01ad 343e 0697 5b3e
000003a0: 7c95 a4bd af0f 40be cf46 1abe f31e bd3d
000003b0: 166b 853e 5b09 2cbd 52f8 c3bd 9cb5 82bd
000003c0: 6ee9 6cbd fe88 2abe da8d 3bbe bb95 febc
000003d0: 8924 393d 497c 503e abf7 b53d 27f6 aabd
000003e0: fdf9 7bbe 786e 89bd 7d68 123d 0275 15bd
000003f0: bfe3 433e 6270 33bc ddc2 afbd 9401 db3d

weight_hh_l0 f4 [120, 40]
-0.15207912 -0.037946813 0.22535975 -0.16432847 0.118992254 -0.10129042 0.26387137 -0.117973305
0.161089 0.31259713 0.009319335 0.05437783 0.1407652 -0.30204633 -0.019853007 -0.07026817
-0.10078204 -0.038606044 -0.035676423 0.026975857 -0.18036391 -0.054009467 0.05326006 0.085137464
0.07541838 -0.22523959 -0.06781212 -0.115304895 -0.061735786 -0.008820726 0.20881632 0.06577161
-0.2820058 -0.074253865 -0.22736548 -0.2463301 -0.12697433 -0.16157821 0.18558681 -0.037223853
0.22265624 0.048672687 0.022582015 -0.07822049 0.11509067 0.2905135 0.022407329 0.20342006
-0.17126231 -0.25225413 -0.00994249 -0.20107849 0.018870346 0.26487875 0.27252293 0.015363801
0.04468888 -0.13280086 -0.0013457458 -0.2531774 0.18856174 0.2168143 -0.21181811 0.22235279
0.027821833 0.012291978 0.0044083083 0.2642833 -0.22268681 0.022313213 -0.26514208 -0.29249108
0.27482504 0.08726786 0.035126626 0.15583713 -0.26726252 0.10828477 -0.06636478 0.25147393
0.0222271 0.10636782 -0.2145359 0.19243342 -0.22262016 0.25238767 -0.19474629 0.1630621
-0.07760683 -0.107738346 0.042170983 -0.027180186 -0.0548395 0.1396245 -0.012040285 -0.014211613
0.20921052 -0.22420503 -0.0046301843 -0.07564066 0.19180746 0.17511627 -0.112893365 -0.25442886
-0.06778813 0.087561175 -0.0017249566 -0.021097314 0.026294645 -0.045616575 -0.056883313 -0.091260776
0.17299528 0.04043142 0.070029445 0.05837015 0.14152762 0.029218458 -0.20190683 -0.029592356
0.20758556 0.021975273 -0.30422893 -0.061120898 0.22844192 0.048549943 -0.11017896 -0.0042289724
0.0025321874 -0.080335476 -0.20068955 -0.014488865 -0.0649895 -0.00494612 0.22384882 0.23407643
0.06744148 0.08305196 0.022388835 -0.008889142 0.20716894 0.0836845 -0.020622402 0.22794928
0.008904887 0.028702948 0.19258651 0.17677929 -0.24215752 0.01544155 -0.123249605 -0.097278945
0.14681803 0.21033345 0.04422645 0.106556736 -0.2700457 0.07599128 0.11692291 0.015219259
-0.019582082 -0.21685736 0.1552772 -0.08799606 0.20943248 -0.22646096 0.09977868 0.07807793
0.04941796 0.26746562 0.15147303 0.014214514 0.026467597 0.0646225 -0.18306482 0.013408368
-0.05227083 -0.12683363 -0.030192124 0.23058416 -0.023047186 0.03209304 0.06318137 0.1647752
0.103200376 -0.17709506 0.06761038 0.09028361 -0.13750409 0.053486206 0.19135058 0.09116687
-0.20310698 0.10237184 -0.19525465 -0.00057681196 -0.012025605 0.15312323 0.14448054 0.005843946
-0.036228567 0.08408114 0.11297923 0.13206276 0.016468301 0.2068753 0.054695457 0.2740158
0.026097653 -0.056972787 -0.23337075 -0.1682856 -0.037791245 0.1579293 0.036334712 0.08782652
0.17423631 -0.21029676 0.22020078 -0.0035044267 0.24244526 -0.024138143 -0.019194493 -0.0073655043
0.066504404 0.043442253 0.064889446 -0.023194741 0.17240788 0.21153666 -0.0032402952 -0.29009393
0.046802476 0.09697521 -0.005154123 0.047571998 -0.03360605 0.24807514 -0.11839882 0.07528475
0.11771933 -0.038094733 0.04094619 0.12677392 -0.09487354 0.10234528 0.18202434 -0.045533862
-0.031796798 0.09343923 0.13337177 -0.14797863 0.1062401 0.11037034 0.0756655 0.0016214653
00000000: a1ba 1bbe 1e6e 1bbd b5c4 663e b945 28be
00000010: 36b2 f33d 5a71 cfbd 261a 873e fd9b f1bd
00000020: 84f4 243e bb0c a03e 20b0 183c 4abb 5e3d
00000030: c124 103e d1a5 9abe c6a2 a2bc c2e8 8fbd
00000040: d066 cebd 5f21 1ebd 7121 12bd 79fc dc3c
00000050: 51b1 38be 0839 5dbd 3827 5a3d 8d5c ae3d
00000060: f474 9a3d 35a5 66be 15e1 8abd f924 ecbd
00000070: aade 7cbd ce84 10bc f2d3 553e 44b3 863d
00000080: 1063 90be 6912 98bd 7fd2 68be f53d 7cbe
00000090: 8f05 02be c274 25be 780a 3e3e 0a78 18bd
000000a0: ffff 633e 035d 473d ebfd b83c 1032 a0bd
000000b0: a8b4 eb3d 2fbe 943e 938f b73c 594d 503e
000000c0: 635f 2fbe 7427 81be d3e5 22bc 85e7 4dbe
000000d0: fc95 9a3c 309e 873e 2088 8b3e 74b8 7b3c
000000e0: b00b 373d f3fc 07be bc63 b0ba 78a0 81be
000000f0: 5416 413e 9104 5e3e d9e6 58be 73b0 633e
00000100: 9dea e33c 4b64 493c 9273 903b 2450 873e
00000110: 0308 64be 33ca b63c b4c0 87be 64c1 95be
00000120: deb5 8c3e 7eb9 b23d f0e0 0f3d c593 1f3e
00000130: a2d6 88be 68c4 dd3d 42ea 87bd 31c1 803e
00000140: 9b15 b63c 5fd7 d93d 4daf 5bbe 440d 453e
00000150: 8af6 63be f538 813e 926b 47be c0f9 263e
00000160: 54f0 9ebd eca5 dcbd 7bbb 2c3d fba8 debc
00000170: 629f 60bd baf9 0e3e 9e44 45bc d3d7 68bc
00000180: 483b 563e 0196 65be cdb8 97bb 7ee9 9abd
00000190: 2d69 443e ae51 333e a334 e7bd 8044 82be
000001a0: 81d4 8abd 4653 b33d f017 e2ba 46d4 acbc
000001b0: de67 d73c 72d8 3abd 7afe 68bd eee6 babd
000001c0: ad25 313e 6b9b 253d 996b 8f3d 8a15 6f3d
000001d0: 9eec 103e 8c5b ef3c aac0 4ebe ab6b f2bc
000001e0: 4f91 543e 7d05 b43c e5c3 9bbe e859 7abd
000001f0: aeec 693e 4edc 463d 82a5 e1bd 3193 8abb
00000200: 0ef3 253b ed86 a4bd 9081 4dbe b462 6dbc
00000210: 3719 85bd 1013 a2bb a038 653e bbb1 6f3e
00000220: c21e 8a3d 2517 aa3d ca68 b73c c4a3 11bc
00000230: 1824 543e c762 ab3d 50f0 a8bc 896b 693e
00000240: cee5 113c 7222 eb3c 6635 453e a105 353e
00000250: 24f8 77be 8efe 7c3c 4a6a fcbd 2f3a c7bd
00000260: 7757 163e a761 573e cb26 353d 6b3a da3d
00000270: 6e43 8abe 51a1 9b3d 4775 ef3d 335a 793c
00000280: 9a6a a0bc db0f 5ebe fc00 1f3e 4737 b4bd
00000290: 7875 563e 62e5 67be c458 cc3d 52e7 9f3d
000002a0: 7d6a 4a3d 41f1 883e bf1b 1b3e fee3 683c
000002b0: 93d2 d83c cd58 843d 5875 3bbe c6ae 5b3c
000002c0: f019 56bd ade0 01be 7955 f7bc 411e 6c3e
000002d0: 74cd bcbc fe73 033d 3c65 813d d4ba 283e
000002e0: b85a d33d 6858 35be 5077 8a3d 9de6 b83d
000002f0: dfcd 0cbe 5a14 5b3d 68f1 433e b2b5 ba3d
00000300: 47fb 4fbe 54a8 d13d d6f0 47be 3235 17ba
00000310: 0b07 45bc 56cc 1c3e b5f2 133e 927e bf3b
00000320: 6864 14bd bc32 ac3d a861 e73d 763b 073e
00000330: 88e8 863c 1ed7 533e 5808 603d cd4b 8c3e
00000340: bfca d53c 4c5c 69bd bef8 6ebe 0f53 2cbe
00000350: feca 1abd 38b8 213e b5d3 143d 64de b33d
00000360: 016b 323e 0958 57be 507c 613e 86aa 65bb
00000370: 9243 783e 5bbd c5bc c53d 9dbc 545a f1bb
00000380: 7633 883d 81f0 313d c2e4 843d e602 bebc
00000390: b18b 303e 119d 583e 225b 54bb 3187 94be
000003a0: f4b3 3f3d f09a c63d ebe3 a8bb dbda 423d
000003b0: 7fa6 09bd 6907 7e3e 157b f2bd e42e 9a3d
000003c0: d516 f13d 3909 1cbd 31b7 273d 06d1 013e
000003d0: 0f4d c2bd 679a d13d 9764 3a3e b781 3abd
000003e0: 5c3d 02bd 115d bf3d 9c92 083e b687 17be
000003f0: 6994 d93d d809 e23d 83f6 9a3d 5987 d43a

bias_ih_l0 f4 [120]
-0.06471862 0.077243015 -0.06019136 0.03901457 -0.06054998 0.22829226 -0.03811714 -0.07063354
0.0027028671 0.069736905 -0.039087 0.0132222865 0.037684556 0.18584494 0.26717582 -0.08015149
-0.0065474394 -0.09410483 0.04203267 0.03384873 -0.07124331 -0.002749268 -0.16755353 -0.07710562
-0.13873184 0.15000744 0.16725205 0.1204408 -0.040446743 0.0005677829 0.0023599635 0.04696059
0.041644834 -0.18190193 0.113639906 -0.083198644 -0.038731705 0.088769384 0.2397318 0.27894646
-0.19098756 -0.035960894 0.21018866 -0.28748587 -0.22602843 -0.1363451 -0.20607816 -0.13749102
-0.29053858 0.07117698 -0.068430245 -0.29517984 -0.052291553 -0.19700179 -0.18789425 -0.32530788
0.13971578 -0.2788968 -0.1414058 -0.23335369 -0.16750696 -0.027387908 -0.050211117 -0.24842152
-0.18374515 0.009140447 -0.07041141 -0.15781994 -0.24614726 -0.29820564 -0.008635938 -0.23032491
-0.13337801 -0.17883979 0.054236975 -0.112013415 -0.21999398 -0.07064229 -0.33247748 -0.033848364
0.05817708 -0.039637335 -0.14985512 0.06748101 -0.10382258 0.14030309 -0.2589814 0.11855343
6.195734e-05 -0.09365755 -0.18073869 -0.05355373 -0.20691708 0.20511666 0.21489978 0.17154229
0.2227404 -0.07852264 0.1602719 -0.023951225 -0.02257311 -0.0058928393 0.07681606 0.08794218
-0.12567486 -0.05368225 0.013826141 -0.019356292 -0.16445917 0.0030181694 -0.016780945 0.002407635
0.027214428 0.05968335 0.09842747 0.0047263964 -0.20674671 0.24238849 -0.012432127 0.24460936
00000000: 328b 84bd 9631 9e3d 378b 76bd becd 1f3d
00000010: 4103 78bd 72c5 693e b820 1cbd 51a8 90bd
00000020: 9622 313b 39d2 8e3d b119 20bd 4aa2 583c
00000030: 1f5b 1a3d 234e 3e3e 45cb 883e 7726 a4bd
00000040: e78b d6bb 08ba c0bd 732a 2c3d f7a4 0a3d
00000050: 03e8 91bd 102d 34bb 2793 2bbe 8de9 9dbd
00000060: b80f 0ebe 8d9b 193e 1f44 2b3e aba9 f63d
00000070: 7cab 25bd 44d7 143a 9ea9 1a3b bf59 403d
00000080: c693 2a3d 8044 3abe 0abc e83d 0d64 aabd
00000090: 23a5 1ebd b9cc b53d 417c 753e 12d2 8e3e
000000a0: 3e92 43be bb4b 13bd b23b 573e 5931 93be
000000b0: ff73 67be 0d9e 0bbe 2706 53be 72ca 0cbe
000000c0: 79c1 94be 3dc5 913d 2825 8cbd d021 97be
000000d0: ab2f 56bd d6ba 49be 5a67 40be c18e a6be
000000e0: a711 0f3e 90cb 8ebe afcc 10be 45f4 6ebe
000000f0: f286 2bbe 9b5c e0bc 2caa 4dbd 3662 7ebe
00000100: b027 3cbe d0c1 153c db33 90bd 8d9b 21be
00000110: 070e 7cbe 69ae 98be c07d 0dbc 4bda 6bbe
00000120: 3f94 08be c721 37be 9727 5e3d 4a67 e5bd
00000130: 1a46 61be e8ac 90bd 7d3a aabe 95a4 0abd
00000140: 174b 6e3d c25a 22bd 9f73 19be 7c33 8a3d
00000150: efa0 d4bd 9dab 0f3e 3699 84be 24cc f23d
00000160: 18ef 8138 88cf bfbd 9013 39be 285b 5bbd
00000170: 12e2 53be 1a0a 523e b00e 5c3e c8a8 2f3e
00000180: 0f16 643e 7ad0 a0bd 511e 243e 5c35 c4bc
00000190: 3eeb b8bc b818 c1bb bd51 9d3d 081b b43d
000001a0: e9b0 00be ebe1 5bbd 0a87 623c 1691 9ebc
000001b0: fc67 28be 7bcc 453b 3178 89bc 6ac9 1d3b
000001c0: cbf0 de3c 8776 743d 5794 c93d e3df 9a3b
000001d0: 69b5 53be b034 783e 1fb0 4bbc e07a 7a3e
