Results/0056_generator1_adjusted.pth (torch, 160009 bytes, 32 tensors)

weight_ih_l0 f4 [120, 20]
0	0xbe0da8e8	-0.13833964
1	0x3d1dc0ca	0.038513936
2	0xbde46af5	-0.11153213
3	0x3e017a63	0.12644343
4	0xbd5ed867	-0.054405596
5	0x3c868278	0.016419634
6	0x3dd8df30	0.10589445
7	0xbdb13ec1	-0.086545475
8	0x3dbcd5ca	0.092204645
9	0xbd642d48	-0.055707246
10	0x3dc58109	0.09643752
11	0xbe4b1416	-0.19831881
12	0x3e15f61f	0.14644669
13	0x3d124322	0.035708554
14	0xbd99e142	-0.07513668
15	0x3dcb2ee3	0.09921052
16	0x3dfd8361	0.12378574
17	0xbe08bbc6	-0.1335288
18	0xbcfb215d	-0.030655557
19	0x3d811a69	0.063038655
20	0xbb023dc4	-0.001987324
21	0x3aa749e8	0.0012763115
22	0x3ca614bc	0.020273559
23	0x3e24cf48	0.16094697
24	0x3dbd0c1d	0.09230826
25	0x3e34ba4a	0.17649189
26	0x3da64796	0.08119123
27	0x3cea0733	0.028567886
28	0x3ce6ef76	0.028190356
29	0xbbc15be6	-0.0059008477
30	0x3e591f75	0.21203406
31	0x3d8f2fef	0.069915645
32	0xbe2703f2	-0.16310099
33	0xbdeef257	-0.116673164
34	0x3d79f447	0.061023977
35	0x3e5e1dea	0.21691099
36	0x3dd80b41	0.105490215
37	0xbd875a53	-0.06609025
38	0x3cd73bff	0.026273726
39	0xbd36d8cd	-0.04464035
40	0x3cd5b098	0.026085183
41	0x3e33df7f	0.17565726
42	0x3dcf4184	0.10119918
43	0x3d03b459	0.032154415
44	0x3e3f20dc	0.18664879
45	0x3e4b7ad8	0.1987108
46	0xbc1f01a3	-0.00970498
47	0xbbeaf4ec	-0.0071703102
48	0x3d954dfc	0.07290265
49	0x3d7b5820	0.06136334
50	0xbb9ea653	-0.0048416047
51	0xbcfd0311	-0.030885251
52	0x3e2cd7a5	0.16879137
53	0xbc534684	-0.01289523
54	0x3e401129	0.18756546
55	0x3d78d9cc	0.060754582
56	0xbe396ef4	-0.18108732
57	0xbe7d35ab	-0.24727504
58	0x3d8050f0	0.062654376
59	0xbda7f8af	-0.082017295
60	0x3cea546a	0.028604705
61	0xbe02247c	-0.1270923
62	0x3cc58df5	0.024115542
63	0xbdcafdae	-0.09911667
64	0xbe0306da	-0.12795582
65	0x3db34e5e	0.08755182
66	0xbd540cfc	-0.051770195
67	0x3e15dd37	0.14635168
68	0xbe0318ec	-0.12802476
69	0x3df63493	0.120217465
70	0x3e818c68	0.25302434
71	0xbe36fbd4	-0.17869502
72	0xbd988366	-0.07446937
73	0x3cac87a8	0.02106078
74	0xbe833094	-0.25623
75	0x3d8eabb3	0.06966343
76	0x3e311e4e	0.17296717
77	0x3dff2436	0.124580786
78	0x3d08cdcc	0.03339939
79	0x3bf18bdd	0.0073714093
80	0xbd1915f8	-0.037374467
81	0x3ce6fec0	0.028197646
82	0xbe50f5b7	-0.20406233
83	0xbd631db9	-0.055448268
84	0x3d194f2d	0.037429024
85	0x3dcbe5b8	0.09955925
86	0x3d11452a	0.03546635
87	0x3cc94189	0.024567382
88	0xbdc20245	-0.09473089
89	0xbd94e42d	-0.072700836
90	0xbe2c1c7e	-0.16807744
91	0x3ca9f8b1	0.020748468
92	0xbe1576d4	-0.1459611
93	0xbd70cddc	-0.058790073
94	0x3e0f285a	0.13980237
95	0xbe829d37	-0.2551057
96	0xbe035782	-0.1282635
97	0x3d04c28e	0.032412104
98	0x3e4cf4b5	0.20015223
99	0xbe3bf9fc	-0.1835708
100	0x3e6fb405	0.23408516
101	0x3e013c85	0.12620743
102	0x3dce1d73	0.10064211
103	0xbcfe8114	-0.031067409
104	0x3c991de1	0.018691005
105	0x3ca424ee	0.02003714
106	0x3ddecc72	0.108788386
107	0x3c6936bf	0.014234244
108	0x3d93f91f	0.072252505
109	0x3d0848d3	0.033272576
110	0x3e113647	0.14180861
111	0xbd918b0a	-0.07106598
112	0x3d9c345b	0.076271735
113	0x3d19aaab	0.037516277
114	0xbc910b93	-0.017705714
115	0x3d450124	0.04809679
116	0x3ca360a6	0.019943547
117	0x3e2312b5	0.15925105
118	0x3d211c77	0.039333787
119	0x3e712bf9	0.2355193
120	0x3daeb6ab	0.08530935
121	0x3d2c7ed0	0.042113125
122	0x3cc03a4e	0.023465302
123	0x3d8d6efa	0.06905933
124	0xbe0c8b02	-0.13724902
125	0xbda5b67c	-0.08091447
126	0x3d5f1e84	0.05447246
127	0xbcd91d65	-0.026503274
128	0x3daebc38	0.08531994
129	0xbd0b2d41	-0.033978704
130	0x3d20c17f	0.039247032
131	0xbdca8de4	-0.09890345
132	0xbd3050a2	-0.043045647
133	0xbda2456d	-0.07923398
134	0xbcb0368c	-0.021510385
135	0x3cd6c58d	0.026217246
136	0x3dd7cc88	0.10537058
137	0xbdb28ec4	-0.08718637
138	0xbe215bdd	-0.157577
139	0x3dee38de	0.1163194
140	0xbd97488f	-0.07386886
141	0xbcc7544e	-0.024332192
142	0x3e49959f	0.19685982
143	0x3d289243	0.04115511
144	0xbd8071ad	-0.06271682
145	0xbd8336fd	-0.064069726
146	0x3d37f110	0.04490763
147	0xbc9c2ca5	-0.019064257
148	0xbd9022c6	-0.070378825
149	0x3e4c17c2	0.19930938
150	0x3e404c29	0.18779053
151	0xbd73a3a4	-0.05948223
152	0x3c651cd1	0.013983921
153	0xbe5870ef	-0.21136831
154	0xbdb408b1	-0.0879072
155	0x3d7de392	0.061984606
156	0xbe6cc1db	-0.23120825
157	0x3da9abd0	0.08284724
158	0xbc057906	-0.00814653
159	0x3e2e55b6	0.17024884
160	0x3e1d0242	0.15332893
161	0x3e02c4aa	0.12770334
162	0x3d37933e	0.044818155
163	0xbd8ebae2	-0.06969239
164	0x3e27a579	0.16371717
165	0xbb1a4c25	-0.002354392
166	0x3e3d54e9	0.18489422
167	0x3cf38ada	0.029729296
168	0x3ddabee5	0.106809415
169	0x3db69b80	0.08916378
170	0x3e39f01c	0.18158
171	0xbba365d3	-0.0049865036
172	0xbe4407c1	-0.19143583
173	0x3d1a4667	0.037664797
174	0xbe7a59ff	-0.24448393
175	0x3e1315a4	0.14363724
176	0xbceeb8be	-0.029140826
177	0x3e18f6b6	0.14937863
178	0xbcdf6b64	-0.027272888
179	0x3e067ecd	0.13134308
180	0x3e0de41d	0.1385655
181	0x3e179289	0.14801992
182	0x3dd778eb	0.1052111
183	0xbd14c792	-0.036323138
184	0x3dfacaac	0.12245688
185	0xbd74b768	-0.059745222
186	0x3dfae7a4	0.12251213
187	0x3c627749	0.013822385
188	0xbca72a13	-0.020405805
189	0x3a78b614	0.0009487581
190	0x3db3c27a	0.08777328
191	0xbd2fde05	-0.042936344
192	0xbe7e5105	-0.24835594
193	0x3c9ac997	0.018894954
194	0xbd92573b	-0.07145544
195	0xbdc46c3a	-0.09590955
196	0x3ccee3a0	0.025255024
197	0x3dce684d	0.100784875
198	0xbd2f973e	-0.042868845
199	0x3e5a8984	0.2134152
200	0xbdec07a9	-0.115248986
201	0x3d423d9e	0.047422044
202	0xbe225ca4	-0.15855652
203	0xbdbbdf45	-0.09173445
204	0x3d8efe6f	0.06982123
205	0xbe45f542	-0.1933184
206	0xbde144d0	-0.10999453
207	0xbe31004b	-0.17285268
208	0xbb2d58c4	-0.0026450614
209	0xbe50e156	-0.20398459
210	0x3e07ad6b	0.13249747
211	0xbd92e90a	-0.07173355
212	0x3d2f3726	0.042777203
213	0xbdb212ca	-0.0869499
214	0xbdeb0e90	-0.11477387
215	0xbdc00522	-0.09375979
216	0x3e1dfd2a	0.15428606
217	0x3e2ae753	0.16689806
218	0xbe1aa872	-0.1510332
219	0x3e03244a	0.12806812
220	0xbdab8979	-0.0837583
221	0xbe4e6794	-0.201567
222	0x3de1063b	0.109875165
223	0x3d361f89	0.044463668
224	0xbd940732	-0.07227935
225	0xbd85e204	-0.0653725
226	0x3dad9c98	0.084771335
227	0xbb257c11	-0.0025250951
228	0xbe27c919	-0.16385306
229	0xbe16ad90	-0.14714646
230	0x3da6c75b	0.08143493
231	0x3d6591d2	0.05604727
232	0x3d82d173	0.063876055
233	0xbe0f8d45	-0.14018734
234	0xbdf78c8b	-0.12087353
235	0x3e03dc5c	0.12877029
236	0x3c68f73f	0.014219104
237	0x3e3a036b	0.18165366
238	0xbd641258	-0.055681556
239	0x3e00b517	0.1256908
240	0x3d473fc1	0.048644785
241	0xbd3b354d	-0.04570513
242	0xbd847b0c	-0.06468782
243	0xbb9905c0	-0.004669875
244	0xbc852c1c	-0.016256385
245	0x3de6c19a	0.11267395
246	0x3dff051e	0.12452148
247	0xbdc6dd8c	-0.097102255
248	0x3df2d8ca	0.118577555
249	0x3cf2682e	0.029590692
250	0xbd3624fd	-0.04446887
251	0x3dd3f5dd	0.10349629
252	0x3da067ba	0.07832284
253	0x3d682740	0.056678057
254	0xbe0653d9	-0.13117923
255	0x3de905ae	0.113780364

weight_hh_l0 f4 [120, 40]
0	0x3ca3db0e	0.020001914
1	0x3e4ce2ba	0.20008364
2	0x3c599a07	0.013281352
3	0x3c8cac7b	0.017172089
4	0xbc42e59f	-0.011895566
5	0xbd2ff02a	-0.042953648
6	0x3dd6f8ca	0.104966715
7	0xbd8261ab	-0.06366285
8	0xbc235391	-0.009968654
9	0x3c7b0cf1	0.01532291
10	0xbdca12d6	-0.09866874
11	0xbd02c784	-0.031928554
12	0xbe14b0c7	-0.1452056
13	0x3d15f67a	0.03661201
14	0xbe30ac0d	-0.17253132
15	0x3db84263	0.08997037
16	0x3d2cecbf	0.042217966
17	0xbdd9ca31	-0.10634268
18	0x3dbdbaad	0.09264121
19	0x3d494af2	0.04914374
20	0x3db417c2	0.08793594
21	0x3d2f1748	0.042746812
22	0x3dde5598	0.108561695
23	0x3dac2dc1	0.08407164
24	0x3dfbaa67	0.12288361
25	0xbbd27de3	-0.0064236983
26	0x3d7161fb	0.058931332
27	0x3e080907	0.13284694
28	0x3cea9283	0.028634315
29	0xbc46b40a	-0.012127886
30	0x3e149afc	0.14512247
31	0x3dba9c07	0.09111791
32	0xbdc5e97b	-0.096636735
33	0xbd8d26ec	-0.068921894
34	0x3e0b9f4a	0.13634983
35	0x3db3b342	0.08774425
36	0xbc2f9095	-0.010715623
37	0xbc989171	-0.01862404
38	0xbe15e5da	-0.14638463
39	0xbdac2d53	-0.084070824
40	0xbae06797	-0.0017120716
41	0xbd7eb95e	-0.0621885
42	0x3d448ab6	0.047983848
43	0x3e32747c	0.17427248
44	0x3dfede06	0.12444691
45	0x3d088fb7	0.033340182
46	0x3d81adfd	0.06332014
47	0x3da731a4	0.08163765
48	0xbdd1fb14	-0.102529675
49	0xbd0c4a61	-0.03425062
50	0x3da91178	0.08255285
51	0x3e496677	0.19667993
52	0xbe1d750a	-0.15376678
53	0xbcdd7948	-0.02703537
54	0x3bc0f996	0.005889128
55	0xbdfbdb98	-0.122977436
56	0xbda77ae2	-0.08177735
57	0x3ca70fd2	0.020393286
58	0xbe3a85f6	-0.18215165
59	0xbdfdc830	-0.12391698
60	0xbcb719d9	-0.022351192
61	0xbd409bd9	-0.047023628
62	0x3b5f772f	0.0034098139
63	0x3dc57f93	0.096434735
64	0xbddeed0a	-0.10885055
65	0x3cb54619	0.022128152
66	0xbd741465	-0.059589762
67	0x3bbdbe6b	0.005790522
68	0x3e515d87	0.20445834
69	0xbdd33078	-0.10311979
70	0x3daad1e0	0.08340812
71	0xbdafd42a	-0.08585389
72	0xbe198c41	-0.14994909
73	0xbd3643ef	-0.04449838
74	0x3e321e92	0.17394474
75	0xbd2fff72	-0.04296822
76	0x3e5d238f	0.21595596
77	0xbdde6621	-0.10859323
78	0x3e2a5903	0.16635518
79	0xbe01beb8	-0.1267041
80	0xbdf482af	-0.119389884
81	0xbe3008fb	-0.17190926
82	0x3c61ba97	0.013777397
83	0xbc1176a1	-0.008878381
84	0xba3802ca	-0.00070194586
85	0x3e2d74f5	0.16939147
86	0xbdd73190	-0.105075
87	0x3d967d96	0.07348172
88	0xbdffde2e	-0.12493549
89	0xbdcc6426	-0.09980039
90	0x3d40a03e	0.04702782
91	0x3d5d1714	0.053977087
92	0xbda2e68d	-0.0795413
93	0xbddaf176	-0.10690586
94	0x3e00a693	0.12563543
95	0x3de4bf78	0.11169332
96	0xbd970372	-0.07373704
97	0xbc83a694	-0.016070642
98	0x3d65c924	0.056100026
99	0x3d0ddd98	0.034635156
100	0x3df79493	0.12088885
101	0x3da9cfc8	0.08291584
102	0xbd8ec491	-0.06971086
103	0x3d3f0cdd	0.046643127
104	0xbd362f68	-0.044478804
105	0xbce2293e	-0.027607556
106	0x3db21e62	0.08697201
107	0xbde66b4c	-0.11250934
108	0xbe2789c6	-0.1636115
109	0xbe0bf111	-0.13666178
110	0x3dcc732f	0.09982907
111	0x3d8f9b2c	0.070120186
112	0xbe135536	-0.14387974
113	0x3b6ebbe0	0.00364279
114	0x3e08b3d5	0.1334985
115	0xbe07ccfb	-0.13261788
116	0xbd64c6d5	-0.055853684
117	0xbd6db00b	-0.058029216
118	0x3a8ef4ff	0.0010906755
119	0xbe133d32	-0.14378813
120	0x3e13a15d	0.14417024
121	0xbd9593c4	-0.07303575
122	0xbb19fe9b	-0.0023497704
123	0x3e381c76	0.17979607
124	0xbe51411b	-0.20434992
125	0xbc2ef0f2	-0.010677563
126	0xbda5dac2	-0.08098365
127	0xbde28026	-0.110595986
128	0x3d9252f9	0.07144732
129	0x3d871bf5	0.06597129
130	0x3d23e358	0.040011734
131	0x3d635ece	0.055510335
132	0x3e18aed3	0.1491044
133	0x3ac01f39	0.0014657743
134	0xbdf6a138	-0.12042469
135	0xbd79e7d8	-0.06101212
136	0xbd45ebe3	-0.048320662
137	0xbdb7d8d0	-0.089769006
138	0x3d5f9036	0.05458089
139	0xbb9c0d24	-0.0047623087
140	0xbd8f9691	-0.0701114
141	0xbdf1430f	-0.117803685
142	0x3d5041eb	0.050844114
143	0x3df74666	0.12073974
144	0x3da128cc	0.078691095
145	0xbe155149	-0.14581789
146	0x3e244e34	0.16045457
147	0x3b1355c4	0.002248154
148	0x3dbe1c70	0.09282768
149	0x3b9ce125	0.0047875815
150	0xbe467834	-0.19381791
151	0xbd4dad78	-0.05021426
152	0x3ce42c59	0.027853178
153	0x3c437ab0	0.011931106
154	0xbde92fca	-0.11386068
155	0x3c8ac7a0	0.016940892
156	0x3d6c1c36	0.05764409
157	0x3da38347	0.079840235
158	0xbdb1515b	-0.086580954
159	0x3dba9002	0.091094986
160	0xbe3de4f8	-0.18544376
161	0x3e269ff4	0.16271955
162	0xbd82eee8	-0.06393224
163	0x3d67c073	0.05658002
164	0xbdfe3dcc	-0.124141306
165	0xbd88fcbc	-0.0668883
166	0x3e0bd8fa	0.13656989
167	0x3c872cb4	0.016500808
168	0xbe65dfd3	-0.22448663
169	0xbd1a862a	-0.037725605
170	0xbc9979a5	-0.018734762
171	0x3cd9048d	0.026491428
172	0xbdf2cbc2	-0.1185527
173	0xbce3608d	-0.027756
174	0x3e57acbb	0.21061985
175	0xbd840382	-0.064459816
176	0x3d8cb08d	0.06869612
177	0xbda82bc5	-0.082114734
178	0x3e23c53c	0.15993208
179	0xbde42bcc	-0.11141166
180	0xbe3e4983	-0.1858273
181	0xbc7ee9eb	-0.0155587
182	0x3e0d7d03	0.1381722
183	0xbd983e05	-0.07433704
184	0xbde13b29	-0.10997612
185	0x3dff5c50	0.12468779
186	0x3cab5912	0.020916495
187	0xbe37755f	-0.17915867
188	0x3b235464	0.0024922127
189	0x3e33d32d	0.17561026
190	0x3e5a0b68	0.21293414
191	0xbce2d5f6	-0.027689915
192	0x3dc87ee0	0.097898245
193	0x3de7f568	0.113261044
194	0x3dbd0081	0.09228612
195	0xbd0b041f	-0.033939477
196	0xbe3700b2	-0.17871359
197	0x3dba5460	0.090981245
198	0x3db2321b	0.08700963
199	0xbd6218e0	-0.055199504
200	0x3dbf93ca	0.093543604
201	0x3da52512	0.08063711
202	0x3ca90259	0.020631002
203	0x3e3eac22	0.18620351
204	0x3d945401	0.07242585
205	0xbe097be8	-0.13426173
206	0xbd568a70	-0.052378118
207	0xbdd8ba01	-0.105823524
208	0x3e20f8f6	0.15719971
209	0xbd9b431b	-0.07581159
210	0x3d3e0f50	0.046401322
211	0xbc848650	-0.016177326
212	0xbe0bf2a2	-0.13666776
213	0x3e0afc4c	0.13572806
214	0x3db01320	0.08597398
215	0xbc988a09	-0.018620508
216	0x3d0c1ce2	0.034207232
217	0x3d2d12c0	0.04225421
218	0x3d8d9b03	0.06914332
219	0x3e1e5f97	0.15466152
220	0x3de3d3a9	0.11124355
221	0xbc89d880	-0.016826868
222	0xbcc4a324	-0.024003573
223	0x3e293de9	0.16527523
224	0xbc6af314	-0.014340181
225	0x3d30b2b3	0.04313917
226	0x3dd6251f	0.10456299
227	0xbe0bc22a	-0.13648286
228	0x3d2fd98a	0.04293207
229	0xbe1d81c8	-0.15381539
230	0xbe5286e3	-0.20559268
231	0x3d2f2d86	0.042768024
232	0x3d99483f	0.07484483
233	0x3c03e786	0.008050805
234	0x3cb991c5	0.022652516
235	0x3c16958f	0.009190931
236	0xbd65f0c4	-0.056137815
237	0xbd58f25f	-0.052965518
238	0x3e1d6d34	0.15373689
239	0x3da89dcc	0.08233222
240	0xbc59e7fe	-0.01329994
241	0x3e1ddbb0	0.15415835
242	0xbde924dd	-0.11383984
243	0x3dcf6d0e	0.101282224
244	0x3dd002ee	0.10156809
245	0x3bbd6497	0.0057798135
246	0x3e214b7b	0.1575145
247	0x39975550	0.00028864527
248	0xbe2437b1	-0.1603687
249	0xbacc3b10	-0.0015581567
250	0x3d6c31e4	0.057664767
251	0xbddbd922	-0.10734774
252	0xbe1d931a	-0.15388146
253	0x3d74ab61	0.059733752
254	0xbb4540bc	-0.00300984
255	0x3d905efc	0.07049367

bias_ih_l0 f4 [120]
0	0x3d8b3a50	0.067982316
1	0x3de04e04	0.1095238
2	0xbe204f4f	-0.15655254
3	0x3e011419	0.12605323
4	0x3dd1839e	0.10230182
5	0x3d4138ba	0.04717324
6	0x3e3b54c1	0.1829405
7	0xbdbf3993	-0.09337153
8	0x3e3cb186	0.18427095
9	0x3e37a110	0.17932534
10	0xbceea3b6	-0.029130798
11	0x3de30d93	0.110865735
12	0x3cb7b970	0.02242729
13	0xbe12fbb2	-0.14353827
14	0x3cc8d8d4	0.024517454
15	0x3c8ebbca	0.01742353
16	0x3d9ee91c	0.07759306
17	0xbe148b84	-0.14506346
18	0xbe1375ac	-0.14400357
19	0xbdf9aef4	-0.12191573
20	0xbd1fcf65	-0.039016146
21	0x3dc906ac	0.09815726
22	0xbe250536	-0.16115269
23	0x3e4fa5d9	0.2027811
24	0x3c5b7eb5	0.0133969085
25	0xbcbef2ff	-0.023309229
26	0xbd867866	-0.06565933
27	0x3e3bd22a	0.1834189
28	0xbd501a86	-0.050806545
29	0x3e427ced	0.18992968
30	0xbe03710e	-0.12836096
31	0x3dc72742	0.09724285
32	0x3e421b5b	0.18955748
33	0x3e01174f	0.12606548
34	0xbd996259	-0.074894615
35	0x3c3c9049	0.01150901
36	0xbcfb44f3	-0.030672526
37	0xbc70a3b5	-0.014687468
38	0xbdb5efa4	-0.088835984
39	0x3da8c8d5	0.08241431
40	0xbd1c5ed0	-0.038176358
41	0xbe2e280b	-0.17007463
42	0xbe3dd479	-0.18538083
43	0xbe8dcc6b	-0.2769502
44	0xbe028aa0	-0.12748194
45	0xbc64afe6	-0.013957953
46	0xbe2eb037	-0.17059408
47	0xbd42692f	-0.047463592
48	0xbe6e4565	-0.2326866
49	0xbe3672cd	-0.1781723
50	0xbe134628	-0.14382231
51	0xbb018008	-0.001976015
52	0xbdb58931	-0.08864058
53	0xbe22ce55	-0.15899022
54	0xbe8bb029	-0.27282837
55	0xbe6ea5f6	-0.23305497
56	0xbe65e8fd	-0.22452159
57	0xbdd8b410	-0.10581219
58	0xbe881dbd	-0.26585189
59	0xbe342ffe	-0.17596433
60	0xbd40a259	-0.047029827
61	0xbde4af7e	-0.11166285
62	0x3d7fdd6a	0.062467016
63	0xbde62d0a	-0.11239059
64	0xbe59c299	-0.2126564
65	0xbe41dbaa	-0.18931451
66	0xbe2de158	-0.16980493
67	0xbe19a69c	-0.15004963
68	0xbe618aef	-0.22025655
69	0xbdfc66d8	-0.123243034
70	0xbd38b0d6	-0.04509052
71	0xbc694f23	-0.014240059
72	0xbc4a4956	-0.012346586
73	0xbda40d5a	-0.08010359
74	0xbb42b66c	-0.0029710783
75	0xbe90afc5	-0.28259102
76	0xbe54ca99	-0.2078041
77	0xbd8a5607	-0.0675469
78	0xbde3106a	-0.11087115
79	0xbe3f6699	-0.18691482
80	0xbd1257e1	-0.03572834
81	0x3db2c636	0.08729212
82	0xbd422ff3	-0.04740901
83	0x3d8fadb3	0.07015552
84	0xba011704	-0.0004924389
85	0xbd7a2d03	-0.061078083
86	0x3d8c8284	0.068608314
87	0xbcde52fe	-0.027139183
88	0xbdc15aad	-0.09441123
89	0x3d97e690	0.07417023
90	0x3e03c469	0.12867893
91	0x3cdcf85b	0.026973894
92	0xbd622f16	-0.055220686
93	0x3e3b65b6	0.18300518
94	0x3b21532f	0.0024616232
95	0xbe1d2c30	-0.15348887
96	0x3da27f68	0.07934457
97	0xbe3de479	-0.18544187
98	0x3d35a788	0.044349223
99	0xbe434db8	-0.19072616
100	0xbe30b070	-0.17254806
101	0x3e5d7297	0.21625744
102	0x3ce1c7a3	0.027561015
103	0xbe198d89	-0.14995398
104	0xbe17b3b3	-0.14814644
105	0x3e12cb1c	0.14335293
106	0xbdb9a8bd	-0.090653874
107	0xbddf9b88	-0.10918337
108	0x3e086ab7	0.13321958
109	0xbda40da1	-0.08010412
110	0x3d6ac90a	0.057320632
111	0x3e3630cc	0.17792052
112	0xbd9bd73e	-0.076094136
113	0x3e1ff4c1	0.1562071
114	0x3e158036	0.1459969
115	0x3ddacce3	0.1068361
116	0xbe1f1bcf	-0.15537952
117	0xbe0fa33a	-0.1402711
118	0xbe38ee87	-0.18059741
119	0x3db8d6fe	0.090253815

bias_hh_l0 f4 [120]
0	0x3deefb3a	0.116690114
1	0x3e102f57	0.14080559
2	0x3d817dca	0.063228205
3	0xbd9225e9	-0.07136137
4	0x3dc29956	0.09501903
5	0xbd9d868a	-0.07691677
6	0x3e463f59	0.19360103
7	0x3e341bc1	0.17588712
8	0x3dff080f	0.12452709
9	0x3e37ae36	0.1793755
10	0x3e1f144a	0.15535083
11	0xbe45f5e9	-0.19332089
12	0x3e407cc7	0.18797599
13	0xbe1692ee	-0.14704487
14	0xbb2b12cc	-0.0026103733
15	0x3d88fe68	0.06689149
16	0x3d41132a	0.047137417
17	0xbdfb8e0e	-0.12282954
18	0xbda6a028	-0.08136016
19	0xbdd879c4	-0.105701
20	0x3de085f4	0.109630495
21	0xbc1bb9b6	-0.009504726
22	0xbe34016b	-0.17578666
23	0x3dd56900	0.10420418
24	0xbcdadbc0	-0.026716113
25	0xbe1485c9	-0.1450416
26	0x3e03103c	0.12799162
27	0x3e4bf3e6	0.19917259
28	0xbd42021c	-0.047365293
29	0x3e2bf231	0.16791607
30	0xbd5009fd	-0.050790776
31	0xbc28b505	-0.010297065
32	0x3c7efa6d	0.015562636
33	0x3d7dfd32	0.062009044
34	0xbd1aa27b	-0.03775261
35	0x3c25d604	0.010121826
36	0x3e30e9c8	0.1727668
37	0x3e278182	0.16357997
38	0x3d8ddcbc	0.06926867
39	0xbd2e9d44	-0.04263045
40	0xbe23fd2a	-0.16014543
41	0xbda7582a	-0.08171113
42	0xbd774f8d	-0.0603786
43	0xbdef56e0	-0.11686492
44	0xbe2c1318	-0.16804159
45	0xbb08e40d	-0.0020887882
46	0xbe55e00e	-0.20886251
47	0xbe66897a	-0.2251338
48	0xbda7cc33	-0.08193245
49	0xbe703f38	-0.23461616
50	0x3c21ba63	0.009871098
51	0xbd58e0f5	-0.05294891
52	0x3cac79af	0.021054117
53	0xbd9761b7	-0.073916845
54	0xbe49e5a4	-0.19716507
55	0xbe3b27f8	-0.18276966
56	0xbe214724	-0.15749794
57	0x3cb401aa	0.02197345
58	0xbe4c5238	-0.19953239
59	0xbe3aa4a9	-0.18226875
60	0xbe231920	-0.15927553
61	0xbcddc507	-0.027071489
62	0x3dbd1a71	0.09233559
63	0x3cc3da25	0.02390773
64	0xbe1377f7	-0.14401232
65	0xbc060a38	-0.008181147
66	0xbe66dd70	-0.22545409
67	0xbc41e5a4	-0.011834536
68	0xbdd979fa	-0.10618968
69	0xbe263bc1	-0.16233732
70	0xbe453b41	-0.19260885
71	0xbe4bfb95	-0.1992019
72	0x3db961c1	0.09051848
73	0xbe086dbb	-0.13323109
74	0xbe49a1cf	-0.19690631
75	0xbe827e7e	-0.2548713
76	0xbd8d55af	-0.069011085
77	0xbe20c33a	-0.15699473
78	0xbe430f1b	-0.19048731
79	0xbe10dc66	-0.14146575
80	0xbdfb0067	-0.12255936
81	0x3db73a84	0.08946708
82	0xbd2ee277	-0.042696442
83	0xbe1aa3df	-0.15101574
84	0xbd1deb49	-0.038554464
85	0x3c92af53	0.017905867
86	0x3e3e78f9	0.18600835
87	0x3e27e0ab	0.16394298
88	0xbe0872ab	-0.13324992
89	0xbd875423	-0.06607845
90	0x3e46f249	0.19428362
91	0xbdfe66b7	-0.12421935
92	0xbe10ffc5	-0.14160068
93	0x3d4c626b	0.049898546
94	0xbbda094b	-0.00665394
95	0x3a8eaac9	0.0010884638
96	0x3d8de87a	0.06929107
97	0x3d576ca7	0.052593853
98	0xbdf9239b	-0.12164994
99	0xbd824280	-0.0636034
100	0xbdea294f	-0.1143366
101	0x3c997b15	0.018735448
102	0xbd542092	-0.051788874
103	0xbe2bff72	-0.16796663
104	0xbd4bca55	-0.049753506
105	0x3de6e341	0.11273814
106	0xbe15ad08	-0.14616787
107	0x3db17894	0.086655766
108	0x3dd830a5	0.10556153
109	0xbe03e2dc	-0.12879509
110	0x3d63df1b	0.05563269
111	0xbd79976c	-0.060935423
112	0xbe236512	-0.15956524
113	0x3d399f8f	0.045318183
114	0xbcbffbcf	-0.023435501
115	0x3df9d9d0	0.121997476
116	0xbd833e60	-0.064083815
117	0xbd354cb2	-0.044262595
118	0xbd79df9d	-0.06100427
119	0x3b954b0d	0.004556066

weight f4 [40, 40]
0	0xbc09dc52	-0.008414345
1	0x3e0a2226	0.13489589
2	0xbdbe6859	-0.092972465
3	0x3d4945b6	0.049138747
4	0x3c44407e	0.011978267
5	0xbd4630bb	-0.048386317
6	0x3d8def6b	0.06930431
7	0x3e05acf6	0.1305426
8	0x3e0299f8	0.12754047
9	0x3d9b241d	0.075752474
10	0xbd331cc0	-0.04372859
11	0xbddd6ca0	-0.10811734
12	0xbc86ebf3	-0.016469931
13	0xbc03475e	-0.008012621
14	0x3e240b69	0.16019978
15	0x3d880f3e	0.06643532
16	0xbc4afb30	-0.012388989
17	0x3d09d16e	0.033646993
18	0x3d2db2e4	0.04240693
19	0x3e2e391c	0.17013973
20	0x3cc2acf4	0.023764111
21	0xbe110433	-0.14161758
22	0x3e06fbb8	0.1318196
23	0x3dc4ef10	0.0961591
24	0xbe2fb24a	-0.17157856
25	0xbe04a876	-0.12954888
26	0xbca5deb4	-0.020247795
27	0xbd92f27b	-0.07175156
28	0xbe3b797d	-0.18308063
29	0x3e3207c8	0.17385781
30	0xbd1c0bd5	-0.03809722
31	0xbdd737d4	-0.10508695
32	0xbb096641	-0.002096549
33	0xbbd76088	-0.0065727867
34	0xbd8d60ce	-0.0690323
35	0x3d16df90	0.0368343
36	0xbda93768	-0.08262521
37	0xbda61ed2	-0.08111347
38	0xbc2083b5	-0.009797026
39	0xbe1591ba	-0.14606372
40	0x3d6fee52	0.05857689
41	0x3e016512	0.12636212
42	0xbda39dee	-0.07989107
43	0xbc8f4e60	-0.017493427
44	0x3e6a054d	0.22853585
45	0x3dc4061c	0.09571478
46	0xbd355362	-0.044268973
47	0x3dea156f	0.114298694
48	0xbd0af0dd	-0.03392111
49	0x3e529979	0.20566358
50	0x3e45494d	0.19266243
51	0x3d66f8a2	0.05638946
52	0xbde012e3	-0.10941102
53	0x3db1ed44	0.08687833
54	0xbe0446e9	-0.12917675
55	0xbe385f47	-0.18005095
56	0x3e073692	0.1320441
57	0x3dfd656d	0.12372861
58	0x3e078855	0.132356
59	0xbdbbf093	-0.09176745
60	0xbe430414	-0.19044524
61	0xbd813ac6	-0.06310038
62	0xbe0bae48	-0.13640702
63	0xbd78909c	-0.060684785
64	0xbd97705b	-0.07394477
65	0x3e6e92dc	0.2329821
66	0xbd6643b1	-0.0562169
67	0xbe95e10f	-0.2927327
68	0x3e1b379f	0.15157937
69	0xbe76f505	-0.24116905
70	0x3e4fda54	0.2029813
71	0x3d669526	0.056294583
72	0xbe45f822	-0.19332936
73	0x3e23a575	0.15981086
74	0x3c9158a6	0.017742466
75	0x3e06b8fe	0.13156506
76	0xbd6eefc3	-0.058334123
77	0xbe5d69d6	-0.21622404
78	0xbde34512	-0.110971585
79	0x3e8706a3	0.2637225
80	0xbde24773	-0.11048784
81	0xbdc16e64	-0.094448835
82	0xbd9d80c3	-0.07690575
83	0x3d2a6ad5	0.04160579
84	0xbb29ad3c	-0.002589061
85	0xbe084ad5	-0.13309796
86	0xbd99fbaf	-0.07518708
87	0xbdaef6e9	-0.08543188
88	0x3e191f29	0.14953293
89	0xbe021bf1	-0.12705971
90	0xbdf89c20	-0.121391535
91	0x3dc19c1c	0.094536036
92	0x3e294987	0.16531955
93	0x3d2f89a2	0.042855866
94	0xbe542a70	-0.20719314
95	0x3d73c3e3	0.059512984
96	0x3e3b5ad6	0.1829637
97	0xbdefe4ab	-0.11713537
98	0xbd8ef410	-0.06980145
99	0xbc93d944	-0.018047936
100	0xbd86bef1	-0.06579388
101	0xbde4fbab	-0.11180814
102	0x3ca19a31	0.019726845
103	0x3d3af17f	0.045640465
104	0xbbe6e814	-0.007046709
105	0x3de32d85	0.110926665
106	0xbdc4b807	-0.09605413
107	0x3c4bc0a5	0.012436067
108	0x3d9f66db	0.0778329
109	0xbe50e26f	-0.20398878
110	0xbd947d98	-0.072505176
111	0x3d13eb09	0.03611282
112	0xbe2c9b77	-0.1685618
113	0xbd167a45	-0.0367377
114	0xbde76479	-0.112984605
115	0x3e370449	0.17872728
116	0x3d4a06a3	0.049322736
117	0xbcd16ee1	-0.025565566
118	0xbde68183	-0.11255171
119	0xbdaca3ae	-0.08429657
120	0xbe283261	-0.16425468
121	0x3d81f894	0.06346241
122	0xbcdfc1ca	-0.027314086
123	0xbdc285bf	-0.09498166
124	0xbd0f9eb5	-0.035063464
125	0xbdc7ea24	-0.09761456
126	0x3d287a68	0.04113236
127	0xbdab82ff	-0.08374595
128	0x3db92584	0.09040359
129	0xbd1263f9	-0.035739873
130	0x3d469a43	0.04848696
131	0x3dd8c0b0	0.10583627
132	0x3d706bc0	0.05869651
133	0xbddadf83	-0.10687163
134	0xbde2d79f	-0.11076283
135	0x3c39c99d	0.011339572
136	0x3d5bec51	0.053692166
137	0x3cc48553	0.023989355
138	0x3c5ccd37	0.013476661
139	0xbc665552	-0.014058428
140	0x3dd2ec6f	0.102990024
141	0xbe370a31	-0.17874981
142	0xbc964d7a	-0.01834749
143	0xbdd6ebd6	-0.10494201
144	0x3dc825a6	0.09772806
145	0xbdbdf9b8	-0.09276146
146	0x3d1b3a69	0.0378975
147	0x3ccb253d	0.02479803
148	0xbcc71149	-0.024300234
149	0xbd77a84e	-0.060463242
150	0xbe5d71cb	-0.2162544
151	0xbe09b5f7	-0.1344832
152	0xbd6897e2	-0.05678547
153	0xbe33e08b	-0.17566125
154	0xbd0c2def	-0.034223493
155	0x3e132426	0.14369258
156	0xbd60a6c6	-0.054846548
157	0xbdae21de	-0.085025534
158	0xbd78bef8	-0.060728997
159	0xbe201139	-0.1563157
160	0xbe1bd936	-0.15219578
161	0x3d5365db	0.05161081
162	0x3ddfbd10	0.10924733
163	0x3e15ea9d	0.14640279
164	0x3db94936	0.09047167
165	0x3d0efdd9	0.034910057
166	0x3d5a5e49	0.053312574
167	0xbd626dcd	-0.055280495
168	0xbd37b534	-0.044850543
169	0x3d17a8b9	0.03702614
170	0xbc83a463	-0.016069597
171	0xbb3e5119	-0.0029040037
172	0x3dc6934f	0.09696066
173	0x3deabb2a	0.1146148
174	0x3d23c8ba	0.03998635
175	0x3d421a63	0.047388446
176	0x3da798f2	0.08183469
177	0xbe289913	-0.16464643
178	0x3db74373	0.08948412
179	0xbe33d2d8	-0.175609
180	0x3c1cd88b	0.009573112
181	0xbc836872	-0.016041014
182	0xbe76b59e	-0.24092719
183	0xbd77224c	-0.060335442
184	0x3d60cd45	0.05488326
185	0xbcfb1030	-0.030647367
186	0x3dea9caf	0.11455666
187	0xbddff2f1	-0.10935009
188	0xbd1b51a6	-0.037919663
189	0xbdd7da58	-0.10539693
190	0x3e21be15	0.15795167
191	0x3d8a0440	0.06739092
192	0xbd9af2e4	-0.07565859
193	0x3d6e1bbc	0.05813192
194	0x3d6e3087	0.058151748
195	0x3e3c1293	0.1836646
196	0x3e2a2498	0.16615522
197	0xbdcb99ad	-0.09941421
198	0x3cce0a7a	0.02515148
199	0x3b7f0c12	0.0038917107
200	0x3e838696	0.25688618
201	0x3d1faecb	0.038985055
202	0x3e16968d	0.14705868
203	0x3e24a395	0.16078027
204	0x3e6ba799	0.23013152
205	0xbdb85de3	-0.090022825
206	0xbc6d7335	-0.0144927995
207	0xbe64f645	-0.2235957
208	0xbd9676aa	-0.07346852
209	0x3e8ac102	0.27100378
210	0x3e264841	0.162385
211	0x3e29bdc6	0.16576299
212	0x3a689e61	0.0008873698
213	0x3e28dae5	0.16489752
214	0xbd2e5d10	-0.04256922
215	0xbe8cdf4c	-0.27514112
216	0x3e1108d0	0.14163518
217	0xbd5794f6	-0.052632295
218	0xbe24a4f3	-0.16078548
219	0xbe75512e	-0.23956749
220	0x3d6fa1c2	0.058503874
221	0x3dd3fe73	0.10351267
222	0xbd61b7ec	-0.055107042
223	0x3afa7cb8	0.0019110655
224	0x3e05fd8f	0.13085006
225	0x3e0d5f2c	0.13805836
226	0xbe6ee956	-0.23331198
227	0xbe07d23f	-0.13263796
228	0x3e86d99f	0.26337907
229	0xbe24c142	-0.16089347
230	0x3ded034f	0.11572897
231	0x3e60f815	0.21969636
232	0xbe33aa16	-0.17545351
233	0x3df8d0b2	0.121491805
234	0x3e831627	0.25602838
235	0xbd384665	-0.04498901
236	0x3e1b837d	0.15186878
237	0xbe285a66	-0.16440734
238	0xbdb9fd55	-0.090815224
239	0x3d783eaf	0.060606655
240	0xbe0ccb76	-0.13749489
241	0x3e7bebae	0.24601623
242	0xbe39796f	-0.1811273
243	0xbe27e143	-0.16394524
244	0xbe130fd6	-0.1436151
245	0x3db28311	0.08716405
246	0xbc2e2f7a	-0.0106314365
247	0x3e6e11c0	0.23248959
248	0xbe1a5393	-0.15070944
249	0xbe628b45	-0.2212344
250	0x3df2f1d8	0.11862534
251	0xbe1296f9	-0.14315404
252	0xbe1612e1	-0.14655639
253	0x3bab8296	0.005234073
254	0x3e2b1334	0.16706544
255	0x3e3bde0e	0.18346426

bias f4 [40]
0	0x3bc2686a	0.0059328573
1	0xbd3a3487	-0.04546025
2	0xbd8a9d08	-0.067682326
3	0x3df411e6	0.11917476
4	0xbd1cab37	-0.03824922
5	0x3e29282e	0.16519234
6	0x3d400359	0.046878193
7	0xbe10dbdc	-0.1414637
8	0x3e3aa447	0.1822673
9	0x3d0441b2	0.032289214
10	0xbd2d834f	-0.042361554
11	0x3dc7ecb6	0.09761946
12	0x3ddb45b7	0.107066564
13	0x3bd98da6	0.0066392003
14	0xbdf49d99	-0.11944122
15	0x3e176849	0.14785875
16	0xbda044c0	-0.07825613
17	0xbe868dc0	-0.26280022
18	0xbd264a0f	-0.04059797
19	0x3e447d42	0.19188407
20	0x3df102f1	0.11768139
21	0xbc2d3525	-0.010571753
22	0x3d0c3d4e	0.034238152
23	0x3dd7a6df	0.10529875
24	0xbe1cc3bd	-0.15309043
25	0xbd0d01e9	-0.03442565
26	0x3d26a8b3	0.040688228
27	0xbd05e0f4	-0.032685235
28	0xbc2140c8	-0.009842105
29	0xbe30fca7	-0.17283879
30	0x3dd8b581	0.10581494
31	0x3cc8beb3	0.024504995
32	0x3d8041f6	0.06262581
33	0x3dbe3cbf	0.0928893
34	0x3ce81709	0.028331297
35	0x3d39e442	0.0453837
36	0x3e320607	0.17385112
37	0xbc19b882	-0.009382369
38	0x3e1088b9	0.14114656
39	0xba077ec4	-0.0005168731

weight f4 [40, 40]
0	0x3e29a62a	0.16567293
1	0xbc97ac6b	-0.018514832
2	0x3e4b3ffc	0.19848627
3	0xbc941761	-0.018077554
4	0x3e50728d	0.20356198
5	0x3e008162	0.12549356
6	0xbc5b47be	-0.013383804
7	0x3e14ee03	0.1454392
8	0x3dba991f	0.09111237
9	0x3e6854f8	0.22688663
10	0x3d09b3fa	0.033618905
11	0x3e16043f	0.14650057
12	0x3e36a273	0.17835407
13	0x3bd97472	0.006636196
14	0xbdd6d5f2	-0.104900256
15	0x3dc00884	0.09376624
16	0x3e4b99b9	0.1988286
17	0xbd8386ed	-0.064222194
18	0x3dd5ed0e	0.10445605
19	0x3e43e3e1	0.19129898
20	0x3c70bd24	0.014693532
21	0x3e4d126e	0.20026562
22	0xbd436489	-0.0477033
23	0x3bc3aa3c	0.0059712213
24	0xbe4c5005	-0.199524
25	0xbda854a3	-0.08219268
26	0xbd685f4f	-0.05673152
27	0x3dba16a9	0.09086353
28	0xbde16424	-0.110054284
29	0xbd54144a	-0.05177716
30	0x3e2977fb	0.16549675
31	0x3cfaffeb	0.03063961
32	0x3d27b0ae	0.04093998
33	0x3b5050a2	0.0031786342
34	0x3e4ef9b4	0.20212442
35	0x3e3ac5cd	0.18239518
36	0x3e64337c	0.22285265
37	0xbdab29ed	-0.08357606
38	0xbc66b206	-0.01408053
39	0xbd2e6176	-0.042573415
40	0x3c632325	0.01386336
41	0xbd9f6eed	-0.07784829
42	0xbd806169	-0.062685795
43	0x3deeb566	0.11655693
44	0xbdeed620	-0.11661935
45	0xbe255649	-0.16146196
46	0xbdc36ade	-0.09541868
47	0x3ddf40b9	0.10901017
48	0x3e478052	0.19482544
49	0xbde3e186	-0.111269996
50	0xbc90a8b0	-0.017658561
51	0xbdc1b6be	-0.094586834
52	0x3bfeeb1e	0.007779493
53	0x3db22d8b	0.08700093
54	0x3e18dbe6	0.14927635
55	0x3cc3d69b	0.023906043
56	0x3dbf6140	0.09344721
57	0x3e1679d7	0.14694916
58	0xba4eb6de	-0.00078855257
59	0xbd38d7f3	-0.04512782
60	0x3e0f9f3e	0.1402559
61	0x3d6a409d	0.057190526
62	0x3da3625c	0.07977745
63	0xbdd1835c	-0.10230133
64	0x3e3cf769	0.18453754
65	0xbc8fa756	-0.017535847
66	0x3e3ad9ca	0.18247142
67	0xbde18262	-0.11011197
68	0x3cd08f61	0.025458993
69	0x3b59cf98	0.0033235308
70	0xbe437518	-0.19087636
71	0x3d4f88c5	0.050667543
72	0x3dba7bbf	0.09105634
73	0xbe088fab	-0.13336055
74	0x3dd63675	0.104596056
75	0x3e231cd7	0.1592897
76	0xbd1ca750	-0.0382455
77	0x3e0e5a69	0.13901676
78	0xbcee0f2d	-0.02905997
79	0xbdbccaf8	-0.09218401
80	0x3c6bf0ce	0.014400674
81	0xbd1a7426	-0.037708424
82	0xbc0a6bee	-0.008448584
83	0x3d8580ae	0.06518684
84	0x3d123cd5	0.035702545
85	0xbdd93a36	-0.10606806
86	0xbdd2859b	-0.102793895
87	0xbdb39def	-0.08770358
88	0xbd0c0583	-0.034184944
89	0x3deefcc6	0.116693065
90	0xbd0433ec	-0.03227608
91	0xbdb82b80	-0.08992672
92	0xbd6ceeb7	-0.057844844
93	0xbc11c961	-0.00889811
94	0x3db5fe70	0.08886421
95	0x3d1b8224	0.03796591
96	0x3dc645b8	0.096812665
97	0x3cc6e434	0.024278738
98	0x3df74378	0.120734155
99	0x3de07065	0.109589376
100	0xbe25fc7b	-0.16209595
101	0x3c2263b9	0.009911471
102	0xbde43748	-0.111433566
103	0xbd489780	-0.048972607
104	0xbd88d05e	-0.06680368
105	0xbd28b162	-0.04118479
106	0x3ad0f4da	0.0015942112
107	0xbde73289	-0.11288936
108	0x3db1d62b	0.086834274
109	0xbc7128f5	-0.014719238
110	0xbe4eb1e0	-0.20185041
111	0xbe1f1c3e	-0.15538117
112	0xbbd018ae	-0.0063505983
113	0xbdda4845	-0.106583156
114	0xbe0034e2	-0.12520173
115	0x3d19e2cb	0.037569802
116	0xbc9e606c	-0.019333087
117	0xbdcf2c54	-0.10115877
118	0xbe3c675a	-0.183988
119	0xbe642b51	-0.22282149
120	0x3cc889c4	0.024479754
121	0x3d99066f	0.0747193
122	0x3dd65461	0.10465313
123	0x3d1f0f6d	0.03883307
124	0x3d7fc39e	0.062442414
125	0x3e867991	0.26264623
126	0xbe0d370c	-0.1379053
127	0xbe0b4769	-0.1360146
128	0xbe18d032	-0.1492317
129	0xbde944f7	-0.11390107
130	0x3e032db2	0.128104
131	0x3d3927a9	0.04520384
132	0x3d91745a	0.071022704
133	0x3d87c237	0.066288404
134	0x3d6f3ab6	0.0584056
135	0x3d9539ab	0.0728639
136	0x3dc5fd21	0.09667421
137	0xbd99918d	-0.07498465
138	0x3d9e9da2	0.0774491
139	0x3e1da4b3	0.15394859
140	0xbe3d893a	-0.18509379
141	0x3e3ab403	0.18232732
142	0xbce4d64d	-0.027934218
143	0x3dfcb9e2	0.12340142
144	0xbdd8495b	-0.105608664
145	0x3dfd7724	0.1237624
146	0xbdb3b033	-0.08773842
147	0xbe06b188	-0.1315366
148	0xbe425bfb	-0.189804
149	0x3c1c021e	0.009521989
150	0x3e461259	0.19342937
151	0x3e8143aa	0.25246936
152	0xbd9a1af6	-0.07524674
153	0x3d953272	0.07285012
154	0x3dabb5c7	0.08384281
155	0x3deab457	0.11460178
156	0x3e4ff67a	0.20308867
157	0xbe004922	-0.12527898
158	0x3d9bf611	0.07615293
159	0xbb31ca7a	-0.0027128742
160	0x3dd88642	0.10572483
161	0x3e08b72e	0.13351128
162	0x3ceecaba	0.029149402
163	0xbd3777c4	-0.04479195
164	0x3d95fadf	0.073232405
165	0x3dbaae0a	0.091152266
166	0x3cfeb70e	0.031093147
167	0xbbf82e54	-0.007573882
168	0x3d7a43a3	0.06109966
169	0xbdc5a9c2	-0.09651519
170	0x3dd4b813	0.10386672
171	0x3e566fb0	0.20941043
172	0x3c3ad910	0.011404291
173	0xbd43a971	-0.047769014
174	0x3c3be9e7	0.011469341
175	0x3d20f567	0.039296534
176	0xbc21d35b	-0.009877051
177	0x3de0c466	0.1097496
178	0x3e6289a5	0.2212282
179	0x3d9399d4	0.07207075
180	0xbe4ad1cb	-0.19806592
181	0xbce84157	-0.028351469
182	0xbca9b53d	-0.020716304
183	0xbd177b86	-0.036983036
184	0xbdf9e8b9	-0.122025914
185	0x3cf839d0	0.030301005
186	0xbe158d41	-0.14604665
187	0xbe179f09	-0.14806761
188	0x3c8a3572	0.016871188
189	0x3ca2b1f1	0.01986024
190	0xbd92ee2a	-0.071743324
191	0x3e45254d	0.1925251
192	0x3c05d413	0.008168238
193	0x3bb1add4	0.0054223333
194	0xbd1cc10d	-0.038270045
195	0xbe1092db	-0.14118521
196	0x3dd4809c	0.10376093
197	0xbe0465bf	-0.12929438
198	0x3e3f8ab9	0.18705262
199	0xbd87320a	-0.06601341
200	0x3d8d136c	0.0688847
201	0x3e089e38	0.13341606
202	0x3dc440e9	0.09582693
203	0x3e344441	0.17604162
204	0x3e085447	0.133134
205	0x3daf2d0f	0.08553516
206	0x3e478ec5	0.19488056
207	0x3e71431b	0.23560755
208	0x3e6cb8c8	0.23117363
209	0x3dd5f747	0.10447555
210	0x3e34d1ff	0.17658232
211	0x3dbfd475	0.09366695
212	0x3cfc5ab0	0.030804962
213	0x3dddc05c	0.10827705
214	0x3c55a0c7	0.013038821
215	0x3e62960d	0.22127552
216	0xbc2d8bac	-0.010592382
217	0xbe104b09	-0.14091124
218	0xbe2df7cc	-0.16989058
219	0x3e7b3261	0.24530937
220	0x3e42b623	0.19014792
221	0x3c7eeacc	0.01555891
222	0x3e5208ae	0.20511124
223	0xbda20c42	-0.07912494
224	0xbda897e5	-0.082320966
225	0xbca4ddbd	-0.020125264
226	0x3dbfd3e0	0.09366584
227	0x3e12a04e	0.14318964
228	0x3e5e030f	0.21680854
229	0x3d971442	0.07376911
230	0x3d664300	0.05621624
231	0xbda25cd6	-0.07927863
232	0x3c9c89cb	0.019108674
233	0xbe0dab15	-0.13834794
234	0xbca2ed9b	-0.01988869
235	0x3db94b06	0.09047513
236	0x3da4c5d4	0.08045545
237	0x3dca999f	0.09892582
238	0xbe566ca3	-0.20939879
239	0xbdd8979a	-0.10575791
240	0xbbac2806	-0.0052537946
241	0xbd3760f6	-0.044770204
242	0x3e03ccf4	0.12871152
243	0xbcc63bf5	-0.024198512
244	0xbda39d24	-0.079889566
245	0xbe1f7cdc	-0.15574974
246	0x3e1c3536	0.15254673
247	0x3e4384d1	0.19093634
248	0x3bb4471e	0.005501642
249	0x3c1dfd9c	0.009642985
250	0x3dda657e	0.10663889
251	0xbe25fed6	-0.16210493
252	0xbb6b05aa	-0.003586153
253	0x3db6c3aa	0.08924039
254	0xbdfefec3	-0.12450936
255	0xbccc9aef	-0.024976222

bias f4 [40]
0	0x3e1041d6	0.14087614
1	0x3d6060f7	0.054779973
2	0xbd9293d2	-0.07157101
3	0xbcacf824	-0.021114416
4	0x3e39593d	0.18100448
5	0x3cdaf987	0.026730312
6	0x3be0af9d	0.0068568722
7	0xbd88daf7	-0.06682389
8	0x3d0917b7	0.03346988
9	0xbccb86ca	-0.024844546
10	0x3de4c8b1	0.11171091
11	0x3d9bd2bc	0.07608554
12	0x3be4993d	0.0069762752
13	0x3d9f70e9	0.07785208
14	0x3ca20b23	0.019780701
15	0x3beef1ed	0.0072920234
16	0xbe077bdb	-0.13230841
17	0xbda3a95b	-0.07991286
18	0x3dd0b4f6	0.101907656
19	0xbcfc5c00	-0.030805588
20	0xbde79b88	-0.11308962
21	0x3d67fc65	0.056637187
22	0x3d9611b3	0.073275946
23	0x3b800f85	0.0039081
24	0xbd6e4df4	-0.05817981
25	0xbc1bf3a0	-0.009518534
26	0x3dc8b76a	0.098006085
27	0x3db9458e	0.0904647
28	0xbe1ece9a	-0.155085
29	0xbd070781	-0.03296614
30	0xbdaa5c39	-0.08318371
31	0xbd28217c	-0.04104756
32	0xbd47f662	-0.048818953
33	0x3d2b944b	0.04188947
34	0xbe1b331d	-0.15156217
35	0x3e3e491f	0.18582581
36	0x3d790380	0.060794353
37	0x3e22e0f8	0.15906131
38	0x3d2f000b	0.04272465
39	0x39ec3bb9	0.00045057925

weight_ih_l0 f4 [120, 40]
0	0xbe2a2a20	-0.16617632
1	0xbd786a5c	-0.060648307
2	0xbdcf6bcc	-0.101279825
3	0x3dc9e50a	0.09858139
4	0x3d158f1b	0.03651343
5	0x3d37c703	0.044867527
6	0xbc23b9f2	-0.009993063
7	0x3d98dcbc	0.07463977
8	0x3ca135a4	0.019678898
9	0xbd834273	-0.064091586
10	0xbdc243af	-0.09485566
11	0x3d12406a	0.03570596
12	0x3d409f45	0.04702689
13	0xbe294cff	-0.16533278
14	0xbd3f0fef	-0.046646055
15	0xbdd9a583	-0.10627272
16	0xbb42ca3b	-0.002972259
17	0x3e235b4f	0.159528
18	0xbd4a4fa4	-0.049392357
19	0xbe1e5f50	-0.15466046
20	0x3d1fd5c0	0.039022207
21	0x3d76ebd4	0.060283497
22	0x3d32e2b4	0.043673232
23	0xbde1ccfa	-0.11025424
24	0x3e01b459	0.12666453
25	0x3e1ed81b	0.15512125
26	0x3d8bba80	0.068226814
27	0xbe098e2b	-0.13433139
28	0x3d883db5	0.06652395
29	0xbd9617a5	-0.073287286
30	0xbe3cf23a	-0.18451777
31	0xbe2fb13c	-0.17157453
32	0x3e48de9b	0.19616167
33	0xbc1d89b1	-0.009615348
34	0x3e2e379b	0.170134
35	0xbe112e76	-0.1417788
36	0xbdc647cd	-0.09681664
37	0xbdb78a32	-0.089619055
38	0x3e219cf9	0.15782537
39	0xbd56e8b7	-0.052468028
40	0x3df131e9	0.11777098
41	0x3d8f66aa	0.070020035
42	0xbe144f15	-0.14483292
43	0x3e387293	0.18012457
44	0x3d9199db	0.07109424
45	0x3d95c82d	0.07313571
46	0xbdfe86d2	-0.12428059
47	0x3dc9f0d0	0.098603845
48	0xbda958be	-0.08268879
49	0xbe16128c	-0.14655513
50	0x3d053a33	0.032526206
51	0xbe76ea5e	-0.24112841
52	0x39869d2c	0.00025675574
53	0x3d05f5ed	0.032705236
54	0xbe45d0b1	-0.1931789
55	0xbd92ecaf	-0.0717405
56	0x3d2f0a0a	0.042734183
57	0x3e35c209	0.177498
58	0x3d27965f	0.04091489
59	0xbe49f04e	-0.19720575
60	0xbde4d2bb	-0.11173006
61	0x3d6a5bc8	0.057216436
62	0xbd106f78	-0.035262555
63	0xbdbf1628	-0.09330398
64	0xbe4699c3	-0.19394593
65	0xbe2c5dbd	-0.16832633
66	0x3de706d6	0.11280601
67	0xbe7200b4	-0.2363308
68	0x3e2912b6	0.16511044
69	0x3d02c8e6	0.031929873
70	0xbd8849e1	-0.06654716
71	0x3b43af9d	0.0029859312
72	0x3d6f4159	0.05841193
73	0xbdf411e1	-0.11917473
74	0xbde5b949	-0.11216981
75	0xbdb6fab0	-0.089345336
76	0x3e78a9d2	0.24283531
77	0xbe1f9f21	-0.15588047
78	0x3c99937d	0.018747086
79	0x3ce8aa42	0.028401498
80	0x3dc81850	0.09770262
81	0xbe0a3b5e	-0.1349921
82	0xbd101c8d	-0.03518348
83	0x3e70e77e	0.23525807
84	0xbe19c242	-0.1501551
85	0x3db0d3ed	0.08634172
86	0x3e660b62	0.2246528
87	0x3de3b068	0.11117631
88	0xbdf8f719	-0.12156505
89	0xbd9af73d	-0.07566688
90	0xbe349bad	-0.1763751
91	0x3d0f9cd9	0.03506169
92	0xbe470d59	-0.19438685
93	0xbe300301	-0.17188646
94	0x3c2a6626	0.010400331
95	0x3df9378f	0.121688
96	0xbd566445	-0.05234172
97	0xbe110d61	-0.1416526
98	0xbd4c6e85	-0.049910087
99	0xbd5eaac5	-0.054362077
100	0x3d3b5b15	0.04574116
101	0x3e12de95	0.14342721
102	0xbe40aaa7	-0.18815099
103	0x3cd00018	0.02539067
104	0x3e1d4b3e	0.15360734
105	0x3db03c73	0.0860528
106	0xbca7f7d7	-0.020503921
107	0xbe417e04	-0.18895727
108	0x3d8a7fb7	0.06762641
109	0xbdcf03b0	-0.10108125
110	0x3dbb7137	0.091524534
111	0x3e0a11a9	0.134833
112	0x3c668d7c	0.014071818
113	0xbdcbe9f0	-0.099567294
114	0x3d6c62c9	0.057711396
115	0xbdcc117f	-0.099642746
116	0x3e689b97	0.22715603
117	0xbe1a1cd1	-0.15050055
118	0x3e112524	0.14174324
119	0x3e40eb45	0.18839748
120	0xbac83d46	-0.001527705
121	0x3cd3c515	0.025850812
122	0xbdb713d8	-0.08939332
123	0xbc8ae340	-0.016954064
124	0x3df0e31c	0.11762068
125	0x3e28d302	0.16486743
126	0xbdaacd46	-0.08339934
127	0xbe00aab5	-0.1256512
128	0x3db9a157	0.09063976
129	0xbe2fcff6	-0.17169175
130	0xbd2fadf4	-0.042890504
131	0xbda9727a	-0.08273788
132	0x3e10a345	0.14124782
133	0x3ce8ea00	0.028431892
134	0xbdc29042	-0.09500171
135	0xbdab5473	-0.08365717
136	0xbd1884b6	-0.037235938
137	0xbd311d2e	-0.04324072
138	0x3e3f924c	0.18708152
139	0xbde44a40	-0.111469746
140	0x3b969fe0	0.0045966953
141	0x3e0a0549	0.13478579
142	0xbd0f7878	-0.035026997
143	0xbdd54df7	-0.10415261
144	0xbdf0d826	-0.11759977
145	0xbcc2bf52	-0.02377287
146	0x3e608bb7	0.21928297
147	0xbd6f8115	-0.05847271
148	0xbe071468	-0.13191378
149	0xbe90d6c3	-0.2828885
150	0x3c4ad692	0.012380259
151	0x3e505d75	0.20348151
152	0xbe5e2145	-0.21692379
153	0xbe5faa28	-0.21842253
154	0xbce36373	-0.027757382
155	0x3db42d44	0.08797696
156	0x3d114df6	0.03547474
157	0x3d7a6a79	0.061136696
158	0x3d710264	0.05884017
159	0xbe4ee181	-0.2020321
160	0xbd297a54	-0.041376427
161	0xbd398be1	-0.045299415
162	0xbac3f642	-0.001495071
163	0x3e2fdc89	0.17173971
164	0xbdafd5b1	-0.0858568
165	0x3d428d30	0.04749793
166	0xbdffcd54	-0.12490335
167	0xbc4c3ead	-0.012466115
168	0x3e09c4c6	0.1345397
169	0xbccfbfd2	-0.025360022
170	0xbd52fc15	-0.051509935
171	0xbdc3ae7d	-0.095547654
172	0xbdf3c903	-0.11903574
173	0xbe4e4e6b	-0.20147102
174	0xbd95afe6	-0.073089406
175	0x3d97a714	0.074049145
176	0x3cf22f63	0.029563611
177	0x3e05d61f	0.13069962
178	0xbdabfd06	-0.0839787
179	0xbdc13c97	-0.09435385
180	0x3d7cb1c8	0.061692983
181	0xbc93f391	-0.018060477
182	0x3d8701f5	0.0659217
183	0x3dae5237	0.08511775
184	0x3dea48da	0.114396766
185	0xbe112a19	-0.14176215
186	0x3d400713	0.046881747
187	0x3d5bd078	0.05366561
188	0x3df71469	0.1206444
189	0x3d9c86a8	0.07642871
190	0x3d160caa	0.03663317
191	0xbe110a6f	-0.14164136
192	0x3d243797	0.040092077
193	0x3dfe9c6b	0.12432178
194	0xbe051315	-0.1299556
195	0x3dedd901	0.11613656
196	0x3cc2e541	0.023790957
197	0xbe31064c	-0.17287558
198	0x3da9c05a	0.08288641
199	0xbca3de61	-0.0200035
200	0xbdd01b4e	-0.10161458
201	0xbe75538a	-0.23957649
202	0x3dee02e5	0.11621646
203	0xbd20a914	-0.039223745
204	0x3daafa0c	0.08348474
205	0x3df49d04	0.11944011
206	0xbd07c07f	-0.033142563
207	0x3d8c2afa	0.06844135
208	0xbe081b9a	-0.13291779
209	0x3cdcde47	0.026961459
210	0xbac988fa	-0.0015375905
211	0xbe5c3c32	-0.21507338
212	0xbe21b97d	-0.15793414
213	0x3d5ac0fe	0.053406708
214	0x3da5d268	0.080967724
215	0x3dcd7e71	0.100338824
216	0x3dd092fa	0.101842836
217	0xbdf60b6d	-0.12013898
218	0xbdaaa0bb	-0.08331438
219	0xbe155570	-0.14583373
220	0xbd1dea12	-0.038553305
221	0xbdc556e1	-0.096357115
222	0xbe0f239e	-0.1397843
223	0x3e61275e	0.21987674
224	0xbc44af38	-0.012004666
225	0xbc4d68dd	-0.012537208
226	0xbd0a0bf3	-0.033702802
227	0xbe34add3	-0.17644434
228	0x3d907efc	0.0705547
229	0x3d2ac231	0.0416891
230	0x3d6aa959	0.05729041
231	0x3db92d49	0.090418406
232	0x3d4871ae	0.04893654
233	0xbdab14e9	-0.08353598
234	0xbd26ced4	-0.04072459
235	0xbcc2dbb1	-0.023786398
236	0x3e55b930	0.20871425
237	0xbe409f20	-0.18810701
238	0xbd518132	-0.0511486
239	0x3d9c5e8a	0.076352194
240	0xbdb57d23	-0.088617586
241	0xbe15eea3	-0.14641814
242	0xbd967988	-0.07347399
243	0x3d9f8bf7	0.07790368
244	0xbc25ae00	-0.010112286
245	0x3dd3688b	0.10322674
246	0x3d0a73dd	0.033801902
247	0x3d424691	0.04743058
248	0xbe01909e	-0.12652823
249	0xbd84ea64	-0.06490019
250	0xbda61c54	-0.08110872
251	0xbe139c4e	-0.14415094
252	0x3ddeab0d	0.10872469
253	0xbd91065d	-0.07081292
254	0xbe2e0ff4	-0.16998273
255	0x3c4b8361	0.01242146

weight_hh_l0 f4 [120, 40]
0	0xbd8c8fe9	-0.06863386
1	0x3bfc7fc3	0.00770566
2	0x3e0b8973	0.13626651
3	0xbddcc53b	-0.10779806
4	0x3deba43f	0.11505937
5	0x3d0ad9ce	0.03389912
6	0x3e1dc6f3	0.15407924
7	0xbd0f1895	-0.034935553
8	0x3dac7e64	0.084225446
9	0x3e2fc06c	0.17163247
10	0xbd802199	-0.06256408
11	0x3b9d8655	0.0048072734
12	0x3da1d0d5	0.0790116
13	0xbe2c2319	-0.16810264
14	0x3de8665d	0.11347649
15	0x3cc251de	0.023720678
16	0xbd59fa03	-0.053216945
17	0xbe30d2d5	-0.17267926
18	0x3dbba2ff	0.091619484
19	0xbdbdd228	-0.092686
20	0xbdc46b0e	-0.095907316
21	0x3d7e132f	0.062030014
22	0xbd27c1c8	-0.04095629
23	0x3d6d7266	0.057970427
24	0x3de68040	0.112549305
25	0xbdd5023c	-0.10400817
26	0xbd5693f4	-0.052387193
27	0xbdc637df	-0.09678625
28	0xbcc26e7a	-0.02373432
29	0x3d94e046	0.07269339
30	0x3d965105	0.07339672
31	0x3d77c98c	0.060494944
32	0xbe12ece8	-0.14348185
33	0xbd061d50	-0.0327428
34	0xbdc51f9a	-0.09625168
35	0xbe1514bf	-0.14558695
36	0xbdf13775	-0.11778156
37	0xbdf09b52	-0.11748375
38	0x3e0635d6	0.13106474
39	0x3dcf8e8b	0.1013461
40	0x3e1660c6	0.14685354
41	0x3dac6a34	0.08418694
42	0x3db4f0ce	0.08834992
43	0xbceda9d8	-0.029011652
44	0x3cf706b9	0.030154573
45	0x3e42b980	0.19016075
46	0x3c994227	0.018708302
47	0x3dc39c76	0.09551327
48	0xbce05927	-0.027386261
49	0xbe2864e0	-0.16444731
50	0x3d93ace4	0.07210711
51	0xbe01f85a	-0.12692395
52	0x3cd1b4e7	0.025598956
53	0x3e361a57	0.17783485
54	0x3e377e40	0.17919254
55	0xbda100f9	-0.07861514
56	0x3cad0194	0.021118917
57	0x3b6b47f8	0.003590105
58	0xbd3f3bea	-0.046687998
59	0xbe283d9e	-0.16429755
60	0x3e0beb11	0.1366389
61	0x3e1e1532	0.15437773
62	0xbd78dddc	-0.060758457
63	0x3e109bdf	0.1412196
64	0xbd4d13d5	-0.05006774
65	0xbdab1620	-0.083538294
66	0xbd9d3863	-0.076767705
67	0x3e37837c	0.17921251
68	0xbe17804c	-0.14795035
69	0xbda826b3	-0.08210506
70	0xbe3a46b5	-0.18191035
71	0xbe5005ac	-0.20314664
72	0x3e422cdc	0.18962425
73	0xbc9a703e	-0.01885235
74	0xbd52c0a3	-0.051453244
75	0x3ddb719b	0.10715028
76	0xbe3ba571	-0.1832483
77	0xbb80690b	-0.003918772
78	0xbe359685	-0.177332
79	0x3e1c6040	0.15271091
80	0xbd9c6b83	-0.07637694
81	0x3d638515	0.05554684
82	0xbd930a9d	-0.07179759
83	0x3e136038	0.14392173
84	0xbe50b6c1	-0.20382215
85	0x3e43ce63	0.19121699
86	0xbde46ea6	-0.11153917
87	0x3dd4fe87	0.1040011
88	0xbb9c485e	-0.004769369
89	0xbd85d478	-0.06534666
90	0x3e05d902	0.13071063
91	0x3d0fc080	0.03509569
92	0x3b5986d9	0.0033191948
93	0x3d7b15d1	0.061300103
94	0xbda012f2	-0.078161135
95	0xbdbc4863	-0.09193494
96	0x3d900362	0.07031895
97	0xbe52a5a7	-0.20571004
98	0xbd02f7cc	-0.0319746
99	0xbb88019c	-0.0041505825
100	0x3dd1a481	0.10236455
101	0x3dc971c8	0.09836155
102	0xbd485abe	-0.048914663
103	0xbe7a9939	-0.24472512
104	0x3d48b978	0.049005
105	0x3d98a6c7	0.07453685
106	0xbdb310a8	-0.08743411
107	0xbd9ade96	-0.07561986
108	0x3da58cf3	0.080835246
109	0xbdacd303	-0.08438685
110	0xbb12fb1f	-0.0022427512
111	0xbcc102f2	-0.023560975
112	0x3dd7d162	0.105379835
113	0xbd3074ab	-0.043080013
114	0x3b62f98d	0.0034633607
115	0xbc8ef60f	-0.017451314
116	0x3d6e83a2	0.058231004
117	0xbd38e094	-0.04513605
118	0xbdc97bfe	-0.09838103
119	0xbdc4875a	-0.09596129
120	0x3e255e79	0.1614932
121	0x3d997339	0.0749268
122	0xbe7b7452	-0.24556091
123	0x3d2ca670	0.042150915
124	0x3e308e1d	0.17241712
125	0xbc42351c	-0.011853483
126	0xbd8a57ad	-0.06755004
127	0xbcfffbe0	-0.031248033
128	0x3d71a61d	0.05899631
129	0xbcdab51e	-0.026697692
130	0xbe2fcdc4	-0.17168337
131	0x3c836842	0.016040925
132	0xbe319cc2	-0.17344955
133	0xbda27cce	-0.07933961
134	0x3e32bcf9	0.174549
135	0x3e4d0dd3	0.20024805
136	0x3c5d4ef6	0.013507595
137	0x3e21f1a2	0.15814832
138	0xbd40fb8a	-0.047114886
139	0x3d3399bc	0.043847784
140	0x3e665292	0.22492436
141	0x3d2c984c	0.04213743
142	0x3e0f2c68	0.13981783
143	0x3e195ca5	0.14976747
144	0xbd3a8f0d	-0.04554658
145	0xbd194756	-0.037421547
146	0x3e27fd41	0.16405202
147	0x3e1a6245	0.1507655
148	0xbe341faf	-0.17590211
149	0xbd831381	-0.064002044
150	0xbd9d6cec	-0.07686791
151	0xbd7e4e62	-0.06208647
152	0x3dbd4240	0.09241152
153	0x3e36797a	0.17819777
154	0xbb17c999	-0.0023160933
155	0x3c031f1c	0.0080030225
156	0xbe75d548	-0.24007142
157	0x3d36a93f	0.044595
158	0x3d9c83c7	0.07642322
159	0xbcf9f45e	-0.030512031
160	0xbc54837e	-0.012970803
161	0xbd8e9667	-0.06962281
162	0x3d9c754c	0.0763956
163	0x3d7ad389	0.061236892
164	0x3dfd1fb5	0.12359563
165	0xbde5596f	-0.11198699
166	0xbd3846b1	-0.04498929
167	0x3da69dbe	0.08135556
168	0x3d2a094b	0.04151277
169	0x3e10a803	0.14126591
170	0x3e0c8b7f	0.13725089
171	0x3d5524eb	0.05203716
172	0xbde37992	-0.11107172
173	0x3e2704bb	0.16310398
174	0xbd81fd48	-0.06347138
175	0x3d8628c0	0.06550741
176	0xbca00610	-0.01953414
177	0xbe389ea0	-0.1802926
178	0x3df38c50	0.11891997
179	0x3e22c6d4	0.1589616
180	0x3d50a173	0.05093522
181	0x3de0e45f	0.10981058
182	0x3a26686a	0.00063479564
183	0x3d344008	0.044006377
184	0x3d7f88cc	0.06238632
185	0xbd981834	-0.074264914
186	0x3c9d134f	0.019174246
187	0x3d249b50	0.04018718
188	0xbce0989c	-0.02741652
189	0x3cd4a1b3	0.02595601
190	0x3dba19a8	0.09086925
191	0x3df4e6c6	0.11958079
192	0xbdb37c04	-0.087638885
193	0x3d843426	0.06455259
194	0xbdb97a1e	-0.09056495
195	0x3d19bb7d	0.03753232
196	0x3d3136cf	0.04326516
197	0x3e11d469	0.14241184
198	0x3d93c0fa	0.07214542
199	0x3e01f31c	0.12690395
200	0xbde4eda7	-0.11178141
201	0x3da67d3f	0.081293575
202	0x3e61cd1c	0.220509
203	0x3e11d3a5	0.14240892
204	0xbd1e39f7	-0.0386295
205	0x3def6e3b	0.11690947
206	0x3e0b457b	0.13600723
207	0x3e40a3f6	0.18812546
208	0x3e213ce1	0.1574588
209	0x3ca4fab7	0.020139081
210	0xbe087618	-0.13326299
211	0xbd8ba175	-0.06817905
212	0xbcc7c2ac	-0.024384819
213	0x3d876b64	0.0661228
214	0xbd51cdf8	-0.051221818
215	0xbb90b265	-0.0044157975
216	0x3de15fdb	0.11004611
217	0xbdf0169a	-0.11723061
218	0x3e14b950	0.14523816
219	0x3db16607	0.08662038
220	0x3e04155b	0.12898771
221	0xbd9502d2	-0.072759286
222	0x3da327c8	0.07966572
223	0xbe1951c8	-0.14972603
224	0x3cae96bc	0.02131211
225	0xbc3faf70	-0.011699542
226	0xbce737e4	-0.028224893
227	0xbdf3b9fc	-0.11900708
228	0x3dffa094	0.124818
229	0x3e3941d8	0.18091524
230	0x3d8be85d	0.06831429
231	0xbe5dc3f3	-0.2165678
232	0xbd1015fa	-0.03517721
233	0x3aeb551e	0.0017954444
234	0xbdbc551b	-0.0919592
235	0xbc90fdee	-0.017699208
236	0x3c4da7a9	0.01255218
237	0x3e13e13e	0.14441392
238	0xbe05e8be	-0.13077065
239	0xbcc4f173	-0.024040913
240	0x3d1e15db	0.03859506
241	0x3b622f96	0.0034513227
242	0x3d95e19c	0.07318422
243	0x3e300673	0.1718996
244	0xbe256f81	-0.16155817
245	0x3d852d2d	0.06502757
246	0x3e49b10d	0.19696446
247	0xbdde70cd	-0.10861359
248	0x3c36dc6e	0.011160953
249	0x3e03815e	0.12842318
250	0x3e793c7a	0.24339476
251	0xbdedf3a6	-0.11618738
252	0x3d0c02b3	0.03418226
253	0x3c2c2cc0	0.010508716
254	0x3d0f480d	0.034980822
255	0xbd48cb78	-0.049022168
