Results/0056_discriminator1_adjusted.pth (torch, 251305 bytes, 35 tensors)

weight_ih_l0 f4 [120, 20]
0.06556553 -0.04198011 -0.06990857 -0.110080644 0.04877755 0.028220816 0.04968057 -0.020618413
-0.04646192 -0.07575969 -0.1115467 0.11925857 0.12322043 0.008648174 -0.013079346 0.1369537
0.10435702 9.536196e-05 -0.044372182 0.03351341 -0.11617571 -0.06501684 0.1490446 -0.11971964
0.119828045 -0.0061933165 0.08803727 -0.02595578 0.15823707 -0.0475059 0.05275768 -0.04738572
-0.01351347 0.0406999 -0.07015578 0.08217519 0.014288867 0.13187328 -0.10942218 0.06950015
-0.095671706 0.019842051 0.02242854 0.09777324 -0.14709745 0.10548611 0.021370811 -0.15419975
0.026249647 -0.1651464 -0.004104787 0.13192062 0.12150871 0.17383847 -0.1516422 -0.015106052
0.058241475 0.014622947 0.11826395 -0.16277076 0.11323506 0.09806567 0.12699305 0.04547854
0.008248405 0.097549334 0.058969457 -0.0133429505 0.15807179 -0.1033354 0.10291424 -0.03762546
-0.16045065 -0.16605192 0.09510278 -0.11461511 0.14387554 0.06442425 -0.063048944 0.0048646047
0.016888008 -0.036650714 -0.10843286 -0.0933974 -0.14340328 0.07859112 -0.036768444 0.0060957703
-0.030846536 -0.076987654 0.09846495 -0.11297947 -0.080001585 0.05561604 -0.15672594 -0.0434633
-0.10241346 0.12881777 0.03194962 -0.18014035 -0.10483594 0.15053697 0.15095252 0.082875766
0.08378677 0.03272661 -0.056708954 0.020079438 0.029113593 0.10588688 -0.16576387 -0.012981319
-0.02999297 0.013016138 0.04707517 0.072621875 -0.04539645 -0.035490647 -0.013282615 -0.08565751
0.036555294 0.14909156 0.07807446 0.11823725 0.14411077 0.07307636 0.0087173935 -0.12575811
0.14964786 -0.02827931 -0.107589364 0.06539085 -0.051665243 0.07820464 0.051171664 0.036425255
-0.14375722 0.06732238 0.11215479 0.052671865 -0.17742638 0.030150281 0.09064567 -0.0031355158
-0.14721583 -0.14379077 -0.09041673 -0.15315217 -0.05264053 0.005339921 -0.07011877 0.13561288
0.07961248 0.15616854 -0.0046757115 -0.12493496 -0.16331604 -0.15320343 0.10040745 -0.023145327
0.12379267 0.09737438 0.004100111 0.012884317 0.033030912 0.04238809 0.14469235 0.0671126
-0.030505868 0.060720723 -0.050123144 -0.10692259 -0.022906654 -0.011652469 0.16682002 -0.025318673
-0.05765739 -0.016936075 0.12709697 0.1702392 0.07180132 0.07561241 -0.06895452 -0.10939525
0.06414422 -0.14264366 -0.15217875 -0.14582232 -0.020585688 0.11000384 -0.151743 0.10878617
0.012380617 -0.068108246 -0.17755651 0.13476409 -0.0832397 -0.06196656 0.09251412 -0.031443484
0.12699613 0.15004621 -0.032200024 -0.13624011 0.06207836 0.11123397 -0.09394331 0.028155841
-0.13505967 -0.079703026 0.018771494 0.09084919 -0.13475741 -0.054012246 -0.113639206 0.076932095
0.12198613 0.08963578 -0.017643828 0.10664318 0.13902107 -0.11928346 0.03711844 0.14112778
-0.048865262 -0.078351565 0.1106071 0.13251613 0.102854565 -0.033489678 0.10614562 -0.16914526
-0.038167182 0.04109121 0.15752383 0.01372306 0.15898284 -0.1395841 0.007332253 0.13737698
0.12579127 0.13772875 -0.08071176 0.13607027 0.01864307 0.1315206 0.055333905 -0.08639879
0.13034715 0.024672933 0.03545618 0.052788377 0.079354286 -0.08734588 -0.040502615 -0.121960774
00000000: 3847 863d 56f3 2bbd 392c 8fbd f671 e1bd
00000010: f8ca 473d 572f e73c da7d 4b3d f2e7 a8bc
00000020: db4e 3ebd e527 9bbd 9972 e4bd d63d f43d
00000030: fe5a fc3d 12b1 0d3c c14a 56bc 973d 0c3e
00000040: 22b9 d53d 10fd c738 9bbf 35bd 5b45 093d
00000050: 88ed edbd 8d27 85bd 269f 183e 922f f5bd
00000060: 6868 f53d 4ef1 cabb e24c b43d 37a1 d4bc
00000070: e608 223e 8c95 42bd 7018 583d 8717 42bd
00000080: 9a67 5dbc f0b4 263d d5ad 8fbd 774b a83d
00000090: da1b 6a3c ca09 073e bc18 e0bd 1856 8e3d
000000a0: 87ef c3bd cc8b a23c 0fbc b73c 563d c83d
000000b0: b7a0 16be 1a09 d83d d711 af3c 8ae6 1dbe
000000c0: 8009 d73c 231c 29be 7381 86bb 3316 073e
000000d0: 8fd9 f83d b602 323e 1848 1bbe 607f 77bc
000000e0: 9d8e 6e3d 1695 6f3c 5f34 f23d 61ad 26be
000000f0: c8e7 e73d a7d6 c83d 770a 023e b547 3a3d
00000100: 5124 073c f2c7 c73d f589 713d 649c 5abc
00000110: 92dd 213e 83a1 d3bd b3c4 d23d 281d 1abd
00000120: 2d4d 24be 8409 2abe 3fc5 c23d 54bb eabd
00000130: 1c54 133e dcf0 833d ce1f 81bd 4367 9f3b
00000140: b858 8a3c 0f1f 16bd 0c12 debd 2347 bfbd
00000150: 4fd8 12be 62f4 a03d 829a 16bd 07bf c73b
00000160: e0b1 fcbc b4ab 9dbd fea7 c93d c861 e7bd
00000170: dfd7 a3bd a5cd 633d c47c 20be 9306 32bd
00000180: 26be d1bd cee8 033e 9bdd 023d b676 38be
00000190: 3ab4 d6bd 5d26 1a3e 4c93 1a3e c5ba a93d
000001a0: 6698 ab3d 560c 063d a647 68bd a27d a43c
000001b0: a17f ee3c 38db d83d 01be 29be 99af 54bc
000001c0: d1b3 f5bc a441 553c e5d1 403d c7ba 943d
000001d0: a1f1 39bd a45e 11bd 539f 59bc 346d afbd
000001e0: 01bb 153d 75ab 183e 81e5 9f3d 5f26 f23d
000001f0: c691 133e 0fa9 953d 66d3 0e3c bcc6 00be
00000200: 4a3d 193e 03aa e7bc d057 dcbd a3eb 853d
00000210: ef9e 53bd c129 a03d 6199 513d a632 153d
00000220: 1835 13be 51e0 893d 69b1 e53d 74be 573d
00000230: 43af 35be b9fd f63c 70a4 b93d 3a7d 4dbb
00000240: bfbf 16be e33d 13be 682c b9bd ecd3 1cbe
00000250: 999d 57bd 81fa ae3b 6e9a 8fbd 1ade 0a3e
00000260: de0b a33d a5ea 1f3e b636 99bb e6dd ffbd
00000270: 523c 27be 5ce1 1cbe 6ca2 cd3d 459b bdbc
00000280: 0387 fd3d 386c c73d 395a 863b be18 533c
00000290: 6c4b 073d 229f 2d3d 3b2a 143e 5572 893d
000002a0: 71e7 f9bc 4bb6 783d ed4d 4dbd 3bfa dabd
000002b0: bca6 bbbc ffe9 3ebc ded2 2a3e 1b69 cfbc
000002c0: 282a 6cbd 86bd 8abc b525 023e 2f53 2e3e
000002d0: 920c 933d aeda 9a3d 0738 8dbd 9e0a e0bd
000002e0: 0b5e 833d 2e11 12be bfd4 1bbe 7252 15be
000002f0: 51a3 a8bc b149 e13d 8462 1bbe 49cb de3d
00000300: 12d8 4a3c 567c 8bbd 60d1 35be 99ff 093e
00000310: 9379 aabd a6d0 7dbd 0b78 bd3d e2ca 00bd
00000320: 460b 023e b7a5 193e 2ce4 03bd 8782 0bbe
00000330: e145 7e3d a3ce e33d 5a65 c0bd 14a7 e63c
00000340: 154d 0abe 573b a3bd adc6 993c 240f ba3d
00000350: d9fd 09be f23b 5dbd acbb e8bd 938e 9d3d
00000360: ddd3 f93d f792 b73d ca89 90bc bd67 da3d
00000370: 8a5b 0e3e e34a f4bd 8109 183d cd83 103e
00000380: f126 48bd c976 a0bd fa85 e23d 4fb2 073e
00000390: 6aa5 d23d 792c 09bd e062 d93d 6a34 2dbe
000003a0: 3155 1cbd 424f 283d ed4d 213e afd6 603c
000003b0: 66cc 223e 22ef 0ebe 6543 f03b 8dac 0c3e
000003c0: 6dcf 003e c408 0d3e 354c a5bd 0156 0b3e
000003d0: 5ab9 983c 56ad 063e cea5 623d d9f1 b0bd
000003e0: b979 053e e41e ca3c 803a 113d a038 583d
000003f0: 8084 a23d 66e2 b2bd 12e6 25bd 92c6 f9bd

weight_hh_l0 f4 [120, 40]
-0.12385128 -0.14738524 -0.11697358 -0.14491065 0.09630785 0.03877934 0.037323117 0.017953265
0.0657671 0.073327646 -0.12909724 -0.114601776 0.057269737 -0.10166879 0.020191872 0.034903046
0.08077893 -0.036332443 0.044049967 0.008906633 -0.11452521 -0.021196097 0.14689267 -0.048859067
0.0070310105 0.038846914 -0.13031435 -0.05817758 -0.027855523 0.092011616 0.14141925 0.05792719
-0.12699848 -0.11515791 0.023312055 0.097855575 0.084464125 -0.040528756 -0.13556777 0.12719382
0.098263934 0.020461079 -0.025535582 0.09097135 -0.026101127 -0.0031711813 -0.07857655 0.16194981
-0.17347586 -0.15757969 0.109486096 0.0037246018 -0.12258886 0.08113183 0.101727046 -0.057644784
-0.049208075 0.13864788 -0.011323004 0.096147045 -0.10559621 -0.08516775 -0.13736482 -0.018075682
0.10883448 0.15316637 -0.108447626 0.1518431 0.07063235 0.16354221 0.12116404 0.017603872
-0.08615837 -0.055602387 -0.042031422 0.11665526 0.038979307 -0.13574065 -0.114921704 -0.06938181
0.0065914057 0.058990594 0.10602772 0.101510145 0.06939504 -0.09656895 0.12723766 -0.07042477
-0.028131006 -0.11419529 -0.092194036 0.07621768 0.11808002 0.041442398 -0.033096015 -0.14534393
-0.0236817 0.003749155 -0.00787397 0.018087326 0.18125719 -0.099989906 0.13875501 -0.0012426305
0.05677871 0.085034996 -0.1440335 -0.0910039 0.09782474 -0.124637775 -0.13436897 -0.050804637
0.16357513 -0.084628925 -0.07836233 0.14721127 -0.04106823 -0.01380656 0.14238651 -0.066829994
0.118769586 0.10646525 -0.01364475 0.0645837 0.072026074 -0.02632941 -0.0053405305 0.04046315
-0.08281644 0.112848826 0.019257165 -0.065564536 0.05444919 -0.03254978 0.017764565 -0.1727528
0.16888592 0.034709964 0.07815478 -0.110793 -0.07948243 0.042347368 -0.050339337 0.023186333
0.01733611 0.06255026 -0.08399042 -0.08021752 0.11751879 -0.07475494 0.16874851 0.058836024
-0.04368373 0.04170428 0.01021371 -0.14448737 0.04425784 -0.116712384 0.11471682 0.02632425
-0.17064165 -0.15719073 0.12708914 0.06888133 -0.12727392 0.03818334 0.12955943 0.013884756
-0.09270075 0.09887168 0.12117083 -0.12991612 -0.1290868 -0.12824197 -0.07698169 -0.00046442155
0.087462954 -0.01590542 0.12352688 0.023430636 0.041454643 -0.111373834 0.10712666 0.15858261
0.10570348 -0.015677903 0.11795506 0.039584186 -0.059800353 0.038129732 -0.0594012 0.090170234
-0.05738601 -0.095996946 0.0860013 0.15230316 -0.12574509 -0.12519036 -0.022030594 -0.0032026623
0.102756076 -0.12233085 -0.083476126 0.09367066 0.085197486 -0.058422998 0.05394591 -0.119168304
0.07605506 0.14508617 -0.017355934 -0.05433641 -0.0015647437 0.12036167 -0.08930358 -0.108766586
0.05251123 0.12660597 0.09352141 -0.064256705 -0.15799996 0.060893834 0.034114216 -0.0023589397
-0.15340488 -0.15423058 -0.1006532 -0.16447885 -0.15782583 0.100259 -0.16816916 0.07326554
0.13518354 0.06973077 0.007018425 -0.10423048 0.11511624 0.15393989 0.011407379 0.10835435
-0.15659682 -0.024093652 0.08887705 -0.10384065 -0.06142166 0.061246194 -0.024891838 0.14536425
-0.08944391 0.09156247 0.10809465 0.08627859 0.02049958 0.16152519 0.100042515 0.115746155
00000000: bda5 fdbd 28ec 16be d88f efbd 7563 14be
00000010: 0d3d c53d 16d7 1e3d 20e0 183d ba12 933c
00000020: e7b0 863d ce2c 963d 1132 04be 56b4 eabd
00000030: ac93 6a3d ba37 d0bd 6d69 a53c 7ff6 0e3d
00000040: 6c6f a53d 54d1 14bd bd6d 343d 20ed 113c
00000050: 318c eabd 70a3 adbc 086b 163e 7220 48bd
00000060: 6464 e63b f11d 1f3d 2071 05be 9d4b 6ebd
00000070: 4431 e4bc 9670 bc3d 35d0 103e 1045 6d3d
00000080: e40b 02be e9d7 ebbd ecf8 be3c 8168 c83d
00000090: 87fb ac3d 7b01 26bd 47d2 0abe 193f 023e
000000a0: 9a3e c93d fe9d a73c ff2f d1bc 304f ba3d
000000b0: 08d2 d5bc 98d3 4fbb beec a0bd 2cd6 253e
000000c0: a8a3 31be 925c 21be 3f3a e03d 7318 743b
000000d0: de0f fbbd 7228 a63d 4556 d03d f01c 6cbd
000000e0: 688e 49bd b6f9 0d3e 1f84 39bc bee8 c43d
000000f0: d342 d8bd 6e6c aebd 5da9 0cbe 7413 94bc
00000100: 9de4 de3d a5d7 1c3e ca19 debd c27c 1b3e
00000110: b2a7 903d 9c77 273e da24 f83d ff35 903c
00000120: cd73 b0bd 54bf 63bd 2429 2cbd f4e8 ee3d
00000130: c4a8 1f3d 99ff 0abe 125c ebbd 0d18 8ebd
00000140: b8fc d73b 1fa0 713d 1025 d93d 8de4 cf3d
00000150: fd1e 8e3d f1c5 c5bd 974a 023e dd3a 90bd
00000160: ff72 e6bc 38df e9bd 3ad0 bcbd 0418 9c3d
00000170: f0d3 f13d 81bf 293d b08f 07bd 0ad5 14be
00000180: 2000 c2bc 62b4 753b d301 01bc df2b 943c
00000190: 7c9b 393e 82c7 ccbd cb15 0e3e c3df a2ba
000001a0: cb90 683d d426 ae3d 857d 13be 4160 babd
000001b0: 5658 c83d 1742 ffbd 0598 09be 8618 50bd
000001c0: 3d80 273e ee51 adbd 6e7c a0bd 8dbe 163e
000001d0: 2937 28bd e934 62bc c5cd 113e 2ade 88bd
000001e0: 783d f33d 740a da3d 3b8e 5fbc 7544 843d
000001f0: 6882 933d c6b0 d7bc 9eff aebb b0bc 253d
00000200: aa9b a9bd 491d e73d 34c1 9d3c b346 86bd
00000210: 1d06 5f3d eb52 05bd fe86 913c 1ce6 30be
00000220: 6ef0 2c3e 092c 0e3d 9d0f a03d 71e7 e2bd
00000230: afc7 a2bd 6f74 2d3d 9f30 4ebd 44f1 bd3c
00000240: 7504 8e3c 5a1a 803d 2b03 acbd 1549 a4bd
00000250: b1ad f03d 1e19 99bd 69cc 2c3e 0bfe 703d
00000260: b6ed 32bd 1bd2 2a3d 6857 273c 7ff4 13be
00000270: b547 353d e706 efbd a7f0 ea3d f4a5 d73c
00000280: afbc 2ebe 9bf6 20be a823 023e a811 8d3d
00000290: 1854 02be 2266 1c3d 3aab 043e e37c 633c
000002a0: e4d9 bdbd 3c7d ca3d 6a28 f83d bb08 05be
000002b0: 552f 04be dd51 03be 94a8 9dbd 9b7d f3b9
000002c0: c71f b33d 154c 82bc a9fb fc3d 9bf1 bf3c
000002d0: 58cc 293d f717 e4bd 3965 db3d 7b63 223e
000002e0: 117b d83d f26e 80bc 6c92 f13d 0723 223d
000002f0: 37f1 74bd ec2d 1c3d ac4e 73bd 2cab b83d
00000300: 980d 6bbd 0c9a c4bd 7321 b03d 5cf5 1b3e
00000310: 52c3 00be e731 00be 8179 b4bc c2e3 51bb
00000320: c771 d23d 9988 fabd 88f5 aabd 67d6 bf3d
00000330: 057c ae3d f44c 6fbd 63f6 5c3d 830e f4bd
00000340: c1c2 9b3d 7891 143e 082e 8ebc db8f 5ebd
00000350: 1618 cdba 2e80 f63d cce4 b6bd 04c1 debd
00000360: 0416 573d ffa4 013e 2788 bf3d 0599 83bd
00000370: beca 21be d06b 793d 59bb 0b3d 7198 1abb
00000380: 2b16 1dbe 9fee 1dbe 4423 cebd 256d 28be
00000390: 189d 21be 9754 cd3d 8934 2cbe 3e0c 963d
000003a0: 8e6d 0a3e 02cf 8e3d d1fa e53b ca76 d5bd
000003b0: 10c2 eb3d 6ba2 1d3e 04e6 3a3c e3e8 dd3d
000003c0: eb5a 20be 0d60 c5bc 2c05 b63d 68aa d4bd
000003d0: 4795 7bbd 4add 7a3d f8e9 cbbc 5eda 143e
000003e0: 5e2e b7bd 1b85 bb3d ba60 dd3d d4b2 b03d
000003f0: bcee a73c dc66 253e 17e3 cc3d 520c ed3d

bias_ih_l0 f4 [120]
0.0132084675 0.120702855 -0.03968245 0.018473443 0.09322049 0.03971382 -0.12516348 -0.11307527
-0.16415104 -0.06692245 -0.01869981 -0.018085469 -0.045482475 -0.062155917 0.086914994 -0.0032793274
0.008060479 0.09379854 0.106889986 -0.019834237 -0.07952043 0.012268567 0.025870943 -0.13036968
-0.11851619 -0.07616924 0.10422719 0.02100098 0.08669454 -0.074029036 0.08899357 -0.1265844
0.011841337 0.012478667 -0.09655095 -0.12016983 0.045352265 -0.033342402 -0.055251826 -0.08940585
0.10271546 -0.09353213 0.048778392 0.12713778 0.110995695 -0.014126846 0.07283272 -0.14356223
0.06796468 -0.15258035 -0.05071379 0.13181344 -0.094222635 0.13359113 0.12611617 0.0060282648
-0.097496055 0.014428308 0.119484805 -0.038000837 -0.11216427 0.080947876 -0.0035210988 0.051565807
0.13405024 -0.04988064 0.029978802 -0.042359546 0.055530474 -0.09523501 0.016011823 -0.07291914
0.10429507 0.07053488 0.17347397 0.15959777 0.020030523 -0.13275166 0.036851484 -0.07101386
-0.022951739 -0.05694449 0.05972378 -0.035549916 0.06000254 0.050953694 0.1188603 -0.09044876
0.11411453 -0.060952652 -0.047281664 0.14079022 -0.12330464 0.0016204409 -0.004178739 -0.08924856
-0.008864124 -0.018231383 -0.13164409 -0.011776687 0.0043615876 -0.031235784 0.16569395 0.13446444
-0.06879279 0.12772723 -0.05073456 -0.034876436 0.049457747 0.061900105 -0.15140603 0.025786418
0.14687616 -0.015516708 0.023169251 -0.07409075 0.14008869 0.15670578 0.039451554 -0.036889635
00000000: 5468 583c 0f33 f73d 118a 22bd 9e55 973c
00000010: 62ea be3d f5aa 223d db2a 00be 0294 e7bd
00000020: 3617 28be a30e 89bd 5830 99bc fa27 94bc
00000030: d54b 3abd 3497 7ebd 7d00 b23d fce9 56bb
00000040: 1910 043c 7319 c03d 23e9 da3d 697b a2bc
00000050: 9bdb a2bd 1a02 493c 4def d33c a17f 05be
00000060: 9eb8 f2bd 9efe 9bbd 1175 d53d 3f0a ac3c
00000070: e88c b13d 899c 97bd 4342 b63d 579f 01be
00000080: 2b02 423c 5373 4c3c 81bc c5bd 9a1b f6bd
00000090: 4cc3 393d 0b92 08bd bd4f 62bd 6a1a b7bd
000000a0: 7c5c d23d c68d bfbd dacb 473d 6830 023e
000000b0: b651 e33d 4974 67bc 5229 953d fa01 13be
000000c0: 1131 8b3d 063e 1cbe 43b9 4fbd 1afa 063e
000000d0: ccf7 c0bd 1dcc 083e 9924 013e c088 c53b
000000e0: 03ac c7bd b664 6c3c 73b4 f43d c4a6 1bbd
000000f0: 61b6 e5bd 00c8 a53d 3cc2 66bb ab36 533d
00000100: 7744 093e a44f 4cbd 1b96 f53c 3481 2dbd
00000110: ec73 633d 930a c3bd 3a2b 833c a156 95bd
00000120: a798 d53d 9774 903d 29a3 313e 996d 233e
00000130: 0d17 a43c 0df0 07be 95f1 163d b76f 91bd
00000140: 4905 bcbc a03e 69bd eca0 743d ca9c 11bd
00000150: 39c5 753d d2b4 503d 076d f33d 333d b9bd
00000160: e1b4 e93d 7da9 79bd 6baa 41bd 502b 103e
00000170: 2587 fcbd f964 d43a ceed 88bb f3c7 b6bd
00000180: d53a 11bc fb59 95bc b5cd 06be 01f3 40bc
00000190: a6eb 8e3b 30e2 ffbc adab 293e 0cb1 093e
000001a0: 3ce3 8cbd edca 023e 0bcf 4fbd 98da 0ebd
000001b0: 3594 4a3d f78a 7d3d 2f0a 1bbe 0a3e d33c
000001c0: b466 163e ca39 7ebc 71cd bd3c e4bc 97bd
000001d0: 6973 0f3e 7b77 203e f497 213d 9619 17bd

bias_hh_l0 f4 [120]
0.16211496 0.08744013 0.17076726 -0.01552845 0.16026129 -0.042042177 0.0128234625 0.072197914
-0.023643384 -0.12569728 -0.048619777 0.082407504 0.10711039 -0.15931866 0.049590655 0.08716183
-0.0303029 -0.103974395 -0.104780585 0.17413893 -0.037576877 -0.09080625 0.1104648 0.01147938
0.0015037137 -0.07464802 -0.077441804 0.071362644 0.11775117 -0.070159845 -0.028286055 -0.040513456
0.030146725 -0.13351655 -0.14416072 0.046901423 -0.12406902 0.05211455 0.14433666 0.091959335
-0.1236936 0.08305727 0.10975398 -0.046223316 -0.12522392 0.15448964 0.071966395 -0.11133155
-0.05089476 0.11214515 0.00071456505 -0.15834603 0.10596796 -0.04792502 0.09159686 0.053715434
-0.16296847 -0.06300045 0.09431198 0.14828673 -0.09546831 0.07195109 0.02502704 -0.13663466
0.11708659 0.00052386185 -0.09606516 0.050424624 -0.14285725 0.10825845 0.11043062 0.034717064
-0.11672836 0.1213029 0.06477448 -0.053305104 -0.007834365 -0.14187276 0.030133594 0.086096615
0.18100217 0.019339487 0.072871454 0.051611062 -0.070915274 -0.11254104 -0.07332846 -0.045003597
0.13495314 0.056816597 0.105263025 -0.15587799 0.10022719 -0.032843903 0.06120336 0.14338736
-0.048633836 0.07933096 0.10565772 0.1306701 0.09782441 -0.063297115 0.029824035 -0.063653246
0.046902332 0.06075305 0.005086008 0.063963614 -0.047292747 0.14332752 0.13374425 0.051857255
-0.038808353 0.111645326 0.12458205 0.104199156 -0.06413842 -0.025623754 -0.031599578 -0.1382936
00000000: 7701 263e d013 b33d 9ddd 2e3e 0a6b 7ebc
00000010: 891b 243e 6b34 2cbd 8019 523c 80dc 933d
00000020: c5af c1bc cab6 00be 8825 47bd 44c5 a83d
00000030: b15c db3d 6e24 23be 921f 4b3d e781 b23d
00000040: ca3d f8bc 87f0 d4bd 3497 d6bd 7a51 323e
00000050: 36ea 19bd a1f8 b9bd 5e3b e23d 0214 3c3c
00000060: 4218 c53a 10e1 98bd cf99 9ebd 9426 923d
00000070: 8727 f13d f7af 8fbd 28b8 e7bc 70f1 25bd
00000080: 44f6 f63c 90b8 08be de9e 13be b51b 403d
00000090: e617 febd 1176 553d fdcc 133e 2d55 bc3d
000000a0: 1253 fdbd ee19 aa3d b2c6 e03d a954 3dbd
000000b0: b33a 00be 8832 1e3e 1e63 933d cc01 e4bd
000000c0: 0677 50bd 5bac e53d a651 3b3a 7625 22be
000000d0: bb05 d93d 074d 44bd 2297 bb3d b704 5c3d
000000e0: 35e1 26be 6106 81bd a426 c13d 7ad8 173e
000000f0: e484 c3bd 185b 933d 8205 cd3c f5e9 0bbe
00000100: 18cb ef3d c653 093a d0bd c4bd 0d8a 4e3d
00000110: 2c49 12be 9bb6 dd3d 7329 e23d 7b33 0e3d
00000120: 470f efbd a86d f83d 7ca8 843d 7456 5abd
00000130: b55b 00bc 1847 11be bada f63c 6c53 b03d
00000140: a258 393e d86d 9e3c a13d 953d 1f66 533d
00000150: 073c 91bd eb7b e6bd 3b2d 96bd b155 38bd
00000160: 2831 0a3e 85b8 683d 2494 d73d 7b9e 1fbe
00000170: ea43 cd3d 5487 06bd 60b0 7a3d 23d4 123e
00000180: 4634 47bd 4578 a23d 1363 d83d 62ce 053e
00000190: 2a58 c83d eba1 81bd 8951 f43c a25c 82bd
000001a0: a91c 403d 31d8 783d 87a8 a63b 5bff 823d
000001b0: 0ab6 41bd 73c4 123e 41f4 083e 4668 543d
000001c0: 82f5 1ebd 4ea6 e43d e024 ff3d 5e66 d53d
000001d0: 015b 83bd e8e8 d1bc 8f6e 01bd d69c 0dbe

weight_ih_l1 f4 [120, 40]
-0.09244075 0.14862713 -0.093956575 0.11857492 0.1676357 0.03685909 0.05934307 0.042998526
-0.107571974 -0.09347856 0.12393444 -0.031005457 -0.085233994 -0.01650322 -0.13278842 -0.09493826
-0.027316056 -0.01044757 -0.122561514 0.08623982 -0.14736488 -0.15206993 0.039081488 -0.124215655
0.14278863 -0.0051841177 0.061337844 -0.10628133 -0.13005845 0.1494373 -0.048112422 -0.05295495
-0.02526487 -0.046296407 0.045957055 -0.08630785 0.12000073 -0.14775713 -0.05794873 -0.061370708
-0.143881 -0.08226733 0.079208896 0.115708716 -0.11314079 -0.15477738 -0.124825664 -0.15149002
0.14547971 -0.07605871 0.0751969 0.12444979 0.10375092 -0.16536257 -0.10581401 -0.088772126
0.1375269 -0.08650385 0.017545423 -0.0058159875 0.09711433 -0.14235725 -0.057979226 -0.08694573
0.07659796 0.038938783 -0.015455233 0.042914204 -0.13939326 -0.12379534 0.14083156 0.00054609624
0.1335277 -0.13082352 0.016565327 0.025004288 -0.06708086 0.10111462 0.14213923 -0.005156799
0.09569987 0.15021953 0.12499229 -0.09161217 0.025128487 -0.056077138 -0.10220427 0.12626503
-0.04548589 -0.08108022 -0.07011503 -0.12072348 0.011039925 0.09940461 -0.11969488 0.11029965
-0.025565695 0.11986221 0.15048072 -0.009566916 0.16201101 0.008970876 -0.020786168 -0.048261404
-0.021802962 0.07196563 -0.1347194 0.15852353 0.09724135 0.030790033 0.069183946 -0.025430195
0.04755904 -0.11544906 -0.06496856 -0.04188483 -0.108281195 -0.066839874 0.11934335 -0.09920735
0.18144171 0.043046426 0.11100908 -0.10954337 0.10887854 0.14545527 -0.10750391 0.023759343
-0.0069114976 0.07515678 -0.085319206 0.1479145 -0.030518614 0.13207278 -0.12311085 -0.1166402
-0.121040694 0.101066545 -0.08193107 0.14836586 -0.052339032 -0.05944054 -0.06746132 -0.044662535
0.020782031 -0.074099995 0.12477634 0.09099689 -0.07734105 -0.09005622 0.054165002 0.12185702
0.12165774 0.059386946 0.030972581 -0.11357989 -0.027029395 -0.13642305 -0.0033879948 -0.13428237
0.07562455 -0.056511283 0.06488899 -0.14186935 0.09054098 -0.072599694 0.08742542 -0.0860302
0.10398532 0.097920254 0.06550261 0.0013385079 0.059866056 -0.06405046 -0.026263727 0.16737622
0.09290077 0.070029795 -0.00931506 -0.13853365 0.12024165 0.052889958 0.13696358 -0.00201104
0.06296115 -0.14170286 -0.06759861 0.115825616 -0.05827131 -0.032846637 0.05139344 0.027615298
0.11626408 0.17255227 0.005114822 0.12517695 0.14553194 0.053610202 0.09412343 0.011669474
-0.10429787 0.08019552 -0.08215402 0.031140959 0.11303457 -0.077602886 -0.15258107 0.040038288
-0.038060803 0.08723689 0.015673494 -0.12736383 -0.080918565 0.06146501 0.16077991 0.04148079
-0.048662398 0.030122755 -0.082643196 -0.05088023 -0.14243843 0.053653665 -0.10758883 -0.18763854
-0.1558982 0.057735905 -0.035831437 0.025760073 0.17238747 0.006163072 0.09792768 -0.04221982
-0.018235741 0.071558304 0.06323444 -0.07155362 -0.03891358 0.12297057 -0.032153822 -0.145173
-0.0006434694 -0.07730385 0.10386857 0.10280546 -0.062310923 -0.15944578 0.11797676 0.14512496
-0.0604146 -0.13784954 0.10621632 0.062890485 -0.04673177 0.16794783 -0.024730453 0.035548393
00000000: 9351 bdbd b631 183e 4e6c c0bd 68d7 f23d
00000010: b1a8 2b3e 8ff9 163d b811 733d 391f 303d
00000020: b24e dcbd b071 bfbd 57d1 fd3d 28ff fdbc
00000030: 298f aebd c331 87bc b0f9 07be fe6e c2bd
00000040: ecc5 dfbc 492c 2bbc 8801 fbbd 819e b03d
00000050: d2e6 16be 38b8 1bbe e913 203d c764 febd
00000060: 2f37 123e 88df a9bb 643d 7b3d 07aa d9bd
00000070: 0b2e 05be 1706 193e 8811 45bd 4ae7 58bd
00000080: 46f8 cebc 4da1 3dbd 773d 3c3d 2cc2 b0bd
00000090: f1c2 f53d a54d 17be a65b 6dbd da5f 7bbd
000000a0: 8a55 13be c67b a8bd 4638 a23d b1f8 ec3d
000000b0: 5cb6 e7bd f67d 1ebe 99a4 ffbd 3320 1bbe
000000c0: a2f8 143e abc4 9bbd d500 9a3d 88df fe3d
000000d0: 5d7b d43d ce54 29be 04b5 d8bd 29ce b5bd
000000e0: dad3 0c3e ee28 b1bd 6bbb 8f3c 0a94 bebb
000000f0: e1e3 c63d 19c6 11be a07b 6dbd 9a10 b2bd
00000100: 64df 9c3d 467e 1f3d f237 7dbc cec6 2f3d
00000110: 1bbd 0ebe 6988 fdbd 2636 103e e627 0f3a
00000120: 7cbb 083e 9af6 05be 02b4 873c cbd5 cc3c
00000130: b161 89bd 2f15 cf3d f28c 113e 5efa a8bb
00000140: 4bfe c33d 26d3 193e f5fb ff3d 299f bbbd
00000150: 42da cd3c 24b1 65bd 7950 d1bd 9f4b 013e
00000160: 6a4f 3abd 630d a6bd 7898 8fbd df3d f7bd
00000170: cde0 343c a594 cb3d 9722 f5bd c8e4 e13d
00000180: 266f d1bc 517a f53d 9e17 1a3e 8ebe 1cbc
00000190: 37e6 253e 95fa 123c c147 aabc c0ad 45bd
000001a0: 209c b2bc b762 933d e2f3 09be fe53 223e
000001b0: 7926 c73d 613b fc3c 50b0 8d3d fc52 d0bc
000001c0: 45cd 423d 8f70 ecbd 3d0e 85bd 6d8f 2bbd
000001d0: 88c2 ddbd 58e3 88bd 496a f43d 392d cbbd
000001e0: dbcb 393e 7351 303d bb58 e33d 4658 e0bd
000001f0: b6fb de3d 3af2 143e 032b dcbd f4a2 c23c
00000200: d879 e2bb cceb 993d d6bb aebd e676 173e
00000210: 2c02 fabc 163e 073e 8b21 fcbd 0fe1 eebd
00000220: 2fe4 f7bd fafb ce3d 7acb a7bd 38ed 173e
00000230: 7461 56bd ec77 73bd 2929 8abd 10f0 36bd
00000240: 143f aa3c bdc1 97bd bd8a ff3d 945c ba3d
00000250: fc64 9ebd 656f b8bd 1fdc 5d3d 2c90 f93d
00000260: b127 f93d ba3f 733d 36ba fd3c 939c e8bd
00000270: c06c ddbc 7cb2 0bbe 1f09 5ebb 5181 09be
00000280: 0be1 9a3d 6078 67bd 85e4 843d 3346 11be
00000290: 8d6d b93d 26af 94bd 190c b33d 9a30 b0bd
000002a0: 41f6 d43d 6a8a c83d 3b26 863d df70 af3a
000002b0: 1c36 753d e32c 83bd 0727 d7bc ac64 2b3e
000002c0: c242 be3d c86b 8f3d 329e 18bc c4db 0dbe
000002d0: 4141 f63d 24a3 583d 2e40 0c3e a7cb 03bb
000002e0: c7f1 803d 8e1a 11be 2471 8abd fb35 ed3d
000002f0: e6ad 6ebd 328a 06bd ee81 523d 7a39 e23c
00000300: dd1b ee3d 8bb1 303e 3d9a a73b 632e 003e
00000310: 5306 153e 5f96 5b3d c9c3 c03d 5231 3f3c
00000320: 1f9a d5bd 8c3d a43d 5e40 a8bd 531b ff3c
00000330: ab7e e73d 43ee 9ebd 363e 1cbe 30ff 233d
00000340: a5e5 1bbd 41a9 b23d b365 803c aa6b 02be
00000350: a2b8 a5bd bcc2 7b3d 7da3 243e c3e7 293d
00000360: 3952 47bd ffc3 f63c d640 a9bd ca67 50bd
00000370: 61db 11be f2c3 5b3d 8857 dcbd 5124 40be
00000380: c7a3 1fbe 7c7c 6c3d fcc3 12bd ca06 d33c
00000390: 5786 303e 98f3 c93b 4f8e c83d b1ee 2cbd
000003a0: 1f63 95bc 298d 923d 0f81 813d b48a 92bd
000003b0: d963 1fbd ffd7 fb3d bab3 03bd 3ba8 14be
000003c0: 80ae 28ba 7b51 9ebd 0bb9 d43d ab8b d23d
000003d0: bd39 7fbd c145 23be cd9d f13d a39b 143e
000003e0: 4d75 77bd 6e28 0dbe f187 d93d bacc 803d
000003f0: d069 3fbd 84fa 2b3e 8597 cabc 319b 113d

weight_hh_l1 f4 [120, 40]
-0.056782644 0.026713377 -0.0881798 -0.010166034 -0.11973891 0.06132785 -0.06210035 -0.05699596
0.11830205 -0.027130945 -0.008790145 0.086080536 0.06908011 0.045660272 0.11558436 0.068764344
-0.043674003 -0.059520345 -0.06545746 -0.013929435 -0.17313246 -0.059646588 0.14749202 0.14160621
-0.10127941 -0.17505883 0.13054354 -0.10788981 -0.07369079 -0.13867956 0.059054643 0.15490086
-0.059174024 -0.030929571 -0.11351822 0.16808556 0.050161988 -0.054332137 -0.019370873 -0.07852248
-0.007968022 -0.07463754 -0.12129211 -0.034732383 -0.037559785 -0.023647428 -0.031166513 -0.09301515
-0.048169643 0.1400722 0.006700227 -0.07899211 0.07311466 0.078927875 0.06517409 -0.11668735
-0.14161642 -0.12883264 0.021495271 -0.107292995 -0.12433566 -0.0080227945 -0.07724496 -0.11377559
-0.07795949 -0.028521445 0.05754927 -0.119204834 -0.06190808 0.15000853 -0.06313736 0.0049517425
0.015625205 0.14268407 0.07883258 0.011637325 -0.17078422 0.08946315 0.039914723 -0.052550647
-0.067361414 -0.14623572 0.01219128 -0.0628655 0.056821525 -0.15574712 0.12542881 0.047844376
0.025044544 -0.13210708 0.05653439 -0.08393996 -0.008374966 -0.13893211 0.06988105 -0.14694463
-0.17333236 -0.034484763 -0.050968643 -0.00242844 0.08096524 0.05535704 -0.10080861 -0.10606177
-0.12879384 -0.07654825 0.06920784 -0.1117637 0.030829499 0.022439795 -0.09714349 0.03175504
0.09576137 0.052044865 -0.15527989 -0.12829624 -0.04156119 -0.002478455 0.045986608 -0.14275727
-0.16400315 0.0014601789 0.01626972 -0.062349986 -0.107386656 0.104028255 -0.103114046 0.031107632
0.022022061 -0.07440123 -0.0668163 0.13479774 0.11322276 -0.094691895 -0.18037899 -0.06330679
0.056030422 -0.0034520791 -0.036192752 -0.097775385 0.0035150552 0.057123568 -0.11760197 0.02139244
-0.00050695153 0.10304296 -0.06293536 -0.042024203 0.12117979 0.033198815 -0.11669499 0.045786075
0.0045906533 0.077671476 -0.11177859 -0.09841814 -0.090407476 -0.05144495 -0.1315135 0.11573719
-0.09711916 -0.010864013 -0.06829932 -0.051859695 0.05329946 -0.089472264 0.031510934 0.07147528
-0.10372141 0.029681442 -0.05675173 0.040612888 0.062434524 0.005058284 -0.012574472 0.014006391
0.13057698 -0.06931531 -0.0041938173 -0.12376483 0.010397451 -0.085226275 -0.03812375 -0.112898126
-0.027315505 -0.10746428 0.021185625 0.039676256 0.119118236 0.054389413 -0.1484588 -0.11507638
0.11216411 -0.018752154 0.085258454 0.01166353 -0.03866516 -0.06794456 0.06209754 0.03893371
-0.116049685 -0.12174455 -0.14396423 -0.06764159 -0.08306849 0.1231796 -0.07692299 0.055508226
-0.15293805 -0.08265769 0.0032888884 -0.12569708 0.064151585 0.06504814 -0.11462138 -0.089924045
-0.023295656 -0.06567254 -0.02857655 0.13364704 -0.026110807 0.120443486 0.015242673 0.12248354
0.16421382 -0.069059566 0.14287056 0.13385285 0.037620634 0.13190848 -0.14095363 0.14267528
-0.03647298 0.028987372 0.100719824 0.11311062 0.09808581 0.09753729 0.00829388 0.1710429
-0.021136757 -0.10451304 -0.12733895 0.07557412 0.14027806 -0.17025904 -0.029131131 0.13127151
-0.01896436 0.07050249 -0.16427615 0.13900985 0.143572 0.115819976 -0.13686939 0.12425661
00000000: eb94 68bd 03d6 da3c 9c97 b4bd 708f 26bc
00000010: ac39 f5bd e932 7b3d f05c 7ebd 9974 69bd
00000020: 5848 f23d b741 debc 8a04 10bc fe4a b03d
00000030: df79 8d3d 4406 3b3d 7eb7 ec3d 52d4 8c3d
00000040: 83e3 32bd 9bcb 73bd 900e 86bd 4938 64bc
00000050: a349 31be fb4f 74bd 2608 173e 3801 113e
00000060: 946b cfbd 9f42 33be 35ad 053e 55f5 dcbd
00000070: 32eb 96bd 0402 0ebe 48e3 713d 559e 1e3e
00000080: 7660 72bd 0360 fdbc 3e7c e8bd 9f1e 2c3e
00000090: a876 4d3d 608b 5ebd aaaf 9ebc 65d0 a0bd
000000a0: 4e8c 02bc 91db 98bd ff67 f8bd 8b43 0ebd
000000b0: 4ad8 19bd 40b8 c1bc ea50 ffbc ba7e bebd
000000c0: 884d 45bd 166f 0f3e 948d db3b 9ec6 a1bd
000000d0: 24bd 953d f0a4 a13d fe79 853d c7f9 eebd
000000e0: e503 11be b4ec 03be da16 b03c 6ebc dbbd
000000f0: b2a3 febd 0a72 03bc 9b32 9ebd 2d03 e9bd
00000100: 3aa9 9fbd cea5 e9bc c9b8 6b3d aa21 f4bd
00000110: 5493 7dbd d69b 193e 294e 81bd 3a42 a23b
00000120: 6e00 803c c61b 123e fa72 a13d 7baa 3e3c
00000130: 0fe2 2ebe 7538 b73d 9f7d 233d 593f 57bd
00000140: c8f4 89bd d1be 15be efbd 473c a1bf 80bd
00000150: b0bd 683d 2c7c 1fbe 6970 003e 77f8 433d
00000160: 372a cd3c 1447 07be 9b90 673d b7e8 abbd
00000170: 2737 09bc 3844 0ebe cc1d 8f3d a778 16be
00000180: 0a7e 31be e53f 0dbd 7fc4 50bd 7626 1fbb
00000190: 1bd1 a53d 10be 623d bf74 cebd ea36 d9bd
000001a0: 88e2 03be 54c5 9cbd d7bc 8d3d 5ee4 e4bd
000001b0: 258e fc3c a9d3 b73c 2bf3 c6bd 9311 023d
000001c0: 8a1e c43d ff2c 553d b101 1fbe 1760 03be
000001d0: 113c 2abd 936d 22bb 745c 3c3d f62e 12be
000001e0: 71f0 27be 7963 bf3a 1348 853c b362 7fbd
000001f0: 89ed dbbd c40c d53d 752d d3bd 6fd5 fe3c
00000200: 9c67 b43c ac5f 98bd fcd6 88bd 6b08 0a3e
00000210: 56e1 e73d d3ed c1bd 45b5 38be fea6 81bd
00000220: 2880 653d 473c 62bb da3e 14bd 763e c8bd
00000230: d75c 663b 67fa 693d 4dd9 f0bd 333f af3c
00000240: f1e4 04ba 3008 d33d 41e4 80bd 9221 2cbd
00000250: 1c2d f83d 7bfb 073d c8fd eebd 2e8a 3b3d
00000260: 316d 963b 3912 9f3d 2cec e4bd 738f c9bd
00000270: 8e27 b9bd f1b7 52bd 7aab 06be 9f07 ed3d
00000280: 69e6 c6bd f9fe 31bc 84e0 8bbd d56a 54bd
00000290: 8950 5a3d 3c3d b7bd 9c11 013d a261 923d
000002a0: e46b d4bd 7f26 f33c 8174 68bd b359 263d
000002b0: 58bb 7f3d f6bf a53b 2905 4ebc 107b 653c
000002c0: f9b5 053e 2ff5 8dbd 4a6c 89bb 6a78 fdbd
000002d0: 125a 2a3c 1d8b aebd a627 1cbd 2237 e7bd
000002e0: c4c4 dfbc 3c16 dcbd 7a8d ad3c 9283 223d
000002f0: 43f4 f33d 6fc7 5e3d 9505 18be 2aad ebbd
00000300: 4cb6 e53d 1e9e 99bc fc9b ae3d 6418 3f3c
00000310: 5c5f 1ebd 8426 8bbd fd59 7e3d f478 1f3d
00000320: 75ab edbd 3555 f9bd 5c6b 13be ad87 8abd
00000330: d01f aabd 9645 fc3d cd89 9dbd 985c 633d
00000340: cb9b 1cbe 6f48 a9bd 648a 573b bcb6 00be
00000350: e861 833d f637 853d 9dbe eabd 192a b8bd
00000360: 88d6 bebc 537f 86bd 5e19 eabc c5da 083e
00000370: 55e6 d5bc 13ab f63d 68bc 793c a6d8 fa3d
00000380: ab27 283e 1a6f 8dbd a94c 123e b910 093e
00000390: 1818 1a3d 0413 073e 2656 10be 7819 123e
000003a0: b164 15bd ed76 ed3c 3246 ce3d 8aa6 e73d
000003b0: 37e1 c83d a1c1 c73d 0ee3 073c df25 2f3e
000003c0: fe26 adbc ef0a d6bd 2465 02be 9bc6 9a3d
000003d0: 0da5 0f3e 6358 2ebe 69a4 eebc 0a6c 063e
000003e0: 255b 9bbc 9c63 903d 0238 28be 9958 0e3e
000003f0: 8a04 133e 0633 ed3d 7d27 0cbe 407a fe3d

bias_ih_l1 f4 [120]
0.08589887 -0.10554129 0.04874585 0.07607641 0.063836694 0.12338964 -0.11594716 0.15006961
-0.16852598 0.11049511 0.105862096 0.06982518 -0.043944694 -0.03940164 0.1403983 0.06816997
-0.036073446 0.0914556 0.16561827 -0.03443814 -0.0966411 0.16192532 -0.007889491 0.032462534
-0.15059794 0.13891704 -0.13043706 0.052550156 -0.14166437 0.07442582 -0.05579089 0.09307966
0.060749535 -0.0028590637 0.11486187 -0.018601557 -0.05348362 0.07811793 0.109825514 -0.0784617
-0.082814865 -0.10685638 0.070258 0.12905788 0.051137853 -0.0017225745 -0.061241753 -0.09741987
-0.084106885 -0.09358126 0.08435427 -0.030727474 -0.15658231 -0.09202885 0.09681025 -0.07803532
0.049802452 -0.023260538 0.117137246 0.09219809 0.14390966 -0.085559025 -0.09012277 0.039183564
0.16850755 -0.017219964 -0.008833049 0.0863218 -0.11940336 -0.008521507 -0.121692315 -0.09807702
0.03427509 -0.077215485 -0.0742023 -0.052551046 -0.15316382 -0.090717964 0.05504876 -0.16796303
-0.12833363 0.16899559 0.092368275 -0.10957703 0.11767455 0.0681741 0.08102552 -0.07517329
-0.0793259 0.10025835 0.05680251 0.06760198 0.16833246 -0.042221606 0.13629568 -0.07560186
-0.09305384 -0.011414211 0.025710851 -0.15108097 0.028548745 0.048284452 0.16317841 0.09985705
0.12886257 -0.0060769347 -0.11931238 -0.10757313 0.056401998 0.14244208 -0.121274635 0.05867862
0.045044996 -0.17031585 0.14949326 0.07609093 0.0057930904 0.023446623 0.014354412 0.13123518
00000000: bfeb af3d 0826 d8bd baa9 473d f3cd 9b3d
00000010: d0bc 823d b5b3 fc3d b475 edbd d9ab 193e
00000020: 1392 2cbe 434b e23d 3ace d83d 8100 8f3d
00000030: 5aff 33bd 9d63 21bd 92c4 0f3e b29c 8b3d
00000040: c0c1 13bd 134d bb3d d697 293e 020f 0dbd
00000050: c5eb c5bd c0cf 253e ec42 01bc 6ff7 043d
00000060: 5936 1abe 4540 0e3e 4b91 05be d53e 573d
00000070: 7710 11be 906c 983d fd84 64bd 8ca0 be3d
00000080: 81d4 783d 215f 3bbb b33c eb3d 4b62 98bc
00000090: a411 5bbd 4bfc 9f3d 33ec e03d 87b0 a0bd
000000a0: d79a a9bd 85d7 dabd 6de3 8f3d c027 043e
000000b0: ed75 513d 02c8 e1ba a2d8 7abd 1284 c7bd
000000c0: 3b40 acbd 88a7 bfbd eec1 ac3d 2fb8 fbbc
000000d0: 1d57 20be 9f79 bcbd 7444 c63d fbd0 9fbd
000000e0: a8fd 4b3d e28c bebc a7e5 ef3d 5ad2 bc3d
000000f0: 0e5d 133e 9239 afbd 4992 b8bd f27e 203d
00000100: 3e8d 2c3e e210 8dbc 7eb8 10bc 7cc9 b03d
00000110: c089 f4bd ca9d 0bbc d239 f9bd 9bdc c8bd
00000120: 0964 0c3d 2723 9ebd 60f7 97bd c43f 57bd
00000130: fad6 1cbe 57ca b9bd cf7a 613d 80fe 2bbe
00000140: e469 03be 2e0d 2d3e 942b bd3d ec69 e0bd
00000150: 5bff f03d dd9e 8b3d b5f0 a53d 74f4 99bd
00000160: 9e75 a2bd 4054 cd3d c0a9 683d e872 8a3d
00000170: 585f 2c3e 90f0 2cbd 1891 0b3e 26d5 9abd
00000180: 0393 bebd ac02 3bbc 909f d23c f8b4 1abe
00000190: 0fdf e93c ebc5 453d 3e18 273e da81 cc3d
000001a0: 8df4 033e 0621 c7bb 0d5a f4bd 4d4f dcbd
000001b0: c805 673d 56dc 113e d65e f8bd fe58 703d
000001c0: 1a81 383d 4767 2ebe c314 193e 90d5 9b3d
000001d0: f7d3 bd3b 2213 c03c c52e 6b3c 8462 063e

bias_hh_l1 f4 [120]
0.06490905 -0.096648514 0.033198267 0.078011766 0.121262476 -0.0063748695 0.096678115 -0.08753651
-0.12957786 -0.10663227 0.01472822 -0.025276754 -0.06567552 -0.02581341 0.14566064 0.1007658
0.11183367 0.16661417 0.1283938 -0.08827118 -0.09235166 0.024063453 -0.091334715 -0.06219533
-0.04443546 0.036574036 0.1059095 0.10606251 0.029326329 -0.053340208 0.08119207 0.06039735
0.050003808 -0.061786704 -0.10730296 -0.094791986 -0.1344147 0.024535066 0.050992258 0.12229528
0.14818932 0.13024274 -0.12064434 0.06877913 -0.0022622035 0.073287725 -0.0985104 0.14435124
0.09239115 0.04714874 0.04736247 0.013159631 -0.088602334 -0.10640887 -0.11733922 -0.09381614
-0.11493785 0.0667325 -0.0640434 0.13072857 0.125141 0.018674612 0.04136285 0.088315874
-0.14290893 0.039625246 -0.04333375 0.14769082 0.029241294 -0.09647306 -0.1358113 0.037707735
0.045509122 -0.05212647 0.078292035 -0.086088926 -0.0978612 0.04482405 -0.003422958 0.030404963
0.08547742 0.13559599 0.004491553 -0.113073885 0.004666428 0.020933934 0.114439376 -0.083649285
-0.008581657 -0.14554323 0.036405027 0.054103542 -0.023864802 -0.06615259 -0.12948656 -0.012418266
0.1523904 0.055347435 -0.10760427 0.06401902 -0.0059427447 -0.038436577 0.17403366 0.07100189
-0.097510114 -0.04122761 0.114222154 -0.1330913 -0.1494272 -0.045677893 0.0873425 0.08632474
-0.12472869 -0.17368707 -0.05590273 0.12087239 -0.14598513 -0.103753015 0.05734298 0.13352287
00000000: 09ef 843d a8ef c5bd e8fa 073d a2c4 9f3d
00000010: 7658 f83d 48e4 d0bb 2dff c53d 5746 b3bd
00000020: 0fb0 04be 0562 dabd a24e 713c 3211 cfbc
00000030: e380 86bd a576 d3bc 1028 153e 4d5e ce3d
00000040: 0d09 e53d e89c 2a3e aa79 033e 85c7 b4bd
00000050: de22 bdbd b820 c53c b20d bbbd 88c0 7ebd
00000060: f501 36bd a8ce 153d 14e7 d83d 4d37 d93d
00000070: c53d f03c 437b 5abd 0748 a63d 3663 773d
00000080: cbd0 4c3d 0e14 7dbd a7c1 dbbd 4d22 c2bd
00000090: 02a4 09be c3fd c83c 42dd 503d f375 fa3d
000000a0: f1be 173e 5a5e 053e 6114 f7bd 13dc 8c3d
000000b0: 7a41 14bb e017 963d d2bf c9bd d0d0 133e
000000c0: 9237 bd3d 0a1f 413d 26ff 413d 7e9b 573c
000000d0: 2475 b5bd e5ec d9bd 8c4f f0bd ad22 c0bd
000000e0: 8964 ebbd 0dab 883d 3029 83bd b6dd 053e
000000f0: f624 003e 80fb 983c 186c 293d f4de b43d
00000100: b856 12be 154e 223d bb7e 31bd 433c 173e
00000110: 708b ef3c ab93 c5bd 1e12 0bbe 6d73 1a3d
00000120: c667 3a3d 9182 55bd 9357 a03d 644f b0bd
00000130: 746b c8bd 6c99 373d b553 60bb d413 f93c
00000140: c90e af3d add9 0a3e e12d 933b 4893 e7bd
00000150: d6e8 983b a47d ab3c 315f ea3d 5150 abbd
00000160: 149a 0cbc 4909 15be 701d 153d ad9b 5d3d
00000170: 1e80 c3bc 027b 87bd 2098 04be fc75 4bbc
00000180: 3b0c 1c3e feb3 623d a15f dcbd 671c 833d
00000190: 5bbb c2bb ac6f 1dbd e135 323e 7069 913d
000001a0: 62b3 c7bd 48de 28bd 4eed e93d 1649 08be
000001b0: 7203 19be be18 3bbd a0e0 b23d 06cb b03d
000001c0: c171 ffbd 06db 31be 43fa 64bd f28b f73d
000001d0: 207d 15be 767c d4bd 79e0 6a3d 38ba 083e

weight f4 [40, 40]
-0.09089662 0.07059659 -0.09818677 -0.07010514 -0.09887092 0.059695046 -0.10352844 0.085331425
0.07183591 -0.09997653 -0.056683782 0.082024366 -0.11897475 -0.014033751 -0.11914705 -0.08261558
0.06441154 0.11535931 -0.088229895 0.08564273 -0.07915543 0.04882456 0.032624405 0.13331893
0.092150144 -0.1297816 0.08803587 -0.12675583 -0.035235632 0.15374759 -0.13190018 0.03742038
0.04417338 0.037259698 0.042892307 0.13554867 -0.132548 0.08394829 -0.09566451 0.17225201
0.08249317 0.11292595 -0.027520783 -0.11553566 -0.09023651 -0.08228079 0.13701871 0.17411312
0.14052959 -0.050872803 -0.14362699 -0.14936624 0.026304858 0.088269874 -0.074080855 -0.107403144
-0.023628764 -0.051871315 -0.099440135 0.045513768 0.036891658 -0.16750507 -0.05654636 0.09305798
-0.090149775 0.023223711 -0.041204054 0.01753427 -0.12601142 -0.1009747 0.1561148 -0.11163589
0.10276465 0.08312298 -0.15320697 -0.1691919 -0.02551706 0.114355676 0.1355567 0.02355771
-0.09888979 0.11726893 0.10021613 -0.12199005 0.14366096 0.03857073 0.043773722 -0.1016142
0.09497778 -0.001492576 0.053771317 -0.067089364 0.15445037 0.08808634 0.06580683 0.0364858
-0.12515438 -0.015201136 -0.11228524 -0.050581668 -0.11095766 -0.13457695 -0.032212824 0.16816409
-0.0541389 -0.07531465 0.15956374 -0.11342476 -0.1348594 0.014816248 -0.060991216 0.080649585
-0.010921001 0.02368069 0.09498662 0.06458907 0.07786267 -0.049581002 0.13046302 0.0745138
0.12502864 -0.044774257 -0.011418539 0.019290933 -0.10107221 0.11518817 0.019261638 -0.07953831
-0.012722445 -0.041723482 0.023146672 0.059430547 0.11919844 0.15304694 0.10743767 -0.025602866
0.13469763 0.039549213 -0.04459263 -0.09010247 0.0052259024 -0.020484108 0.005750183 -0.11577544
-0.1537657 -0.06307485 0.095223285 0.13231744 0.095271446 0.07831991 0.16825637 -0.13285545
-0.011909492 0.05829022 -0.05215177 -0.14027835 -0.11478695 -0.087874226 0.09742548 0.07949117
0.17023939 0.10864073 0.0053028204 0.09197764 -0.13691002 0.17531186 -0.014224216 -0.07498285
0.055015735 -0.028003244 0.13418776 0.032126945 -0.10817442 0.15066284 0.12394958 0.06586899
-0.006510965 0.060332935 0.018854344 -0.15443575 -0.10290603 0.10215134 -0.013577231 0.05364038
0.14111045 -0.03704923 -0.03304864 0.10129418 -0.060877476 0.08544326 0.11743596 0.034230955
0.06724332 -0.063957386 -0.062791854 0.081600234 0.032107674 -0.1586675 -0.15093677 -0.05925327
0.08819219 -0.052280143 -0.17128511 0.11952881 0.16351148 -0.0019493407 0.044913393 0.12886679
-0.13921954 -0.103990935 -0.15000583 0.084041186 -0.05326731 -0.0414493 -0.011201648 -0.16476198
-0.14495954 -0.034930296 0.12737146 -0.08629309 -0.08909817 -0.043218665 0.12557037 -0.07296505
-0.048633553 -0.027005792 0.095117874 -0.17775692 0.025231775 -0.03892735 -0.057461996 -0.051957954
0.06349576 0.1231428 0.06897043 -0.14299949 -0.075241275 -0.028765172 0.06783985 0.14453512
0.014041754 0.11456374 0.14306779 -0.085227855 -0.0064291847 0.13536403 0.12181252 -0.056336004
-0.031511597 0.1173175 -0.049823094 -0.041964438 -0.019433789 -0.036697917 -0.10296985 0.021034487
00000000: 0228 babd f294 903d 2516 c9bd 4993 8fbd
00000010: d67c cabd cb82 743d b806 d4bd 3ec2 ae3d
00000020: b51e 933d 7fc0 ccbd 412d 68bd 64fc a73d
00000030: 09a9 f3bd d1ed 65bc 5e03 f4bd 5b32 a9bd
00000040: 33ea 833d 8041 ec3d e0b1 b4bd 7565 af3d
00000050: 3e1c a2bd 43fc 473d 2ba1 053d c284 083e
00000060: 37b9 bc3d 78e5 04be 264c b43d 48cc 01be
00000070: 3d53 10bd 0270 1d3e d710 07be 1d46 193d
00000080: 25ef 343d a09d 183d d8af 2f3d 45cd 0a3e
00000090: aaba 07be 15ed ab3d c1eb c3bd d562 303e
000000a0: 2ef2 a83d b845 e73d 4473 e1bc f69d ecbd
000000b0: ebcd b8bd d582 a8bd a24e 0c3e b64a 323e
000000c0: fde6 0f3e 0060 50bd f412 13be 77f3 18be
000000d0: 497d d73c d6c6 b43d b4b7 97bd 2ef6 dbbd
000000e0: 1c91 c1bc 0477 54bd 45a7 cbbd a56c 3a3d
000000f0: b51b 173d 7386 2bbe 289d 67bd 2f95 be3d
00000100: 72a0 b8bd a73f be3c 95c5 28bd 08a4 8f3c
00000110: 2309 01be d3cb cebd 8fdc 1f3e 5ca1 e4bd
00000120: 4676 d23d 623c aa3d 4ae2 1cbe a440 2dbe
00000130: 2709 d1bc 4f33 ea3d 60cf 0a3e 19fc c03c
00000140: bb86 cabd b12a f03d 1d3e cd3d ebd5 f9bd
00000150: dc1b 133e 57fc 1d3d 134c 333d 1b1b d0bd
00000160: b683 c23d 8aa2 c3ba 503f 5c3d 2666 89bd
00000170: 3d28 1e3e 9c66 b43d bbc5 863d 2272 153d
00000180: 7828 00be 2f0e 79bc cef5 e5bd b92e 4fbd
00000190: c53d e3bd 8ace 09be 98f1 03bd 3533 2c3e
000001a0: c0c0 5dbd 913e 9abd ad64 233e 3e4b e8bd
000001b0: 9518 0abe d9bf 723c edd1 79bd 9c2b a53d
000001c0: 00ee 32bc 02fe c13c 5888 c23d 4647 843d
000001d0: 7776 9f3d 7315 4bbd 1998 053e b19a 983d
000001e0: 8207 003e 3665 37bd d314 3bbc 0508 9e3c
000001f0: f2fe cebd c6e7 eb3d 95ca 9d3c fbe4 a2bd
00000200: cd71 50bc 3ee6 2abd 179e bd3c 726d 733d
00000210: 501e f43d 56b8 1c3e 4808 dc3d 1abd d1bc
00000220: 2dee 093e 5bfe 213d c3a6 36bd a587 b8bd
00000230: 0c3e ab3b 4ace a7bc 086c bc3b ad1b edbd
00000240: c174 1dbe 632d 81bd 6d04 c33d 397e 073e
00000250: ad1d c33d 3066 a03d 664b 2c3e 420b 08be
00000260: 0820 43bc bac1 6e3d 189d 55bd 21a5 0fbe
00000270: 6c15 ebbd 67f7 b3bd 0387 c73d 44cc a23d
00000280: 3c53 2e3e 087f de3d 48c3 ad3b c65e bc3d
00000290: 2432 0cbe f484 333e b00c 69bc 9c90 99bd
000002a0: 2e58 613d 0f67 e5bc 8468 093e 8b97 033d
000002b0: 8d8a ddbd 5c47 1a3e 47d9 fd3d 52e6 863d
000002c0: ef59 d5bb ab1f 773d 6d74 9a3c 6824 1ebe
000002d0: 66c0 d2bd b934 d13d 0973 5ebc 04b6 5b3d
000002e0: 427f 103e efc0 17bd 035e 07bd 5373 cf3d
000002f0: a95a 79bd e0fc ae3d 4482 f03d c235 0c3d
00000300: deb6 893d 17fc 82bd 0499 80bd 061e a73d
00000310: 5683 033d bc79 22be 2b8f 1abe 8fb3 72bd
00000320: 1b9e b43d b423 56bd 5d65 2fbe 85cb f43d
00000330: 8e6f 273e 0581 ffba 1bf7 373d a8f5 033e
00000340: 918f 0ebe 33f9 d4bd 219b 19be c91d ac3d
00000350: d32e 5abd bec6 29bd 1e87 37bc 5db7 28be
00000360: 4670 14be 1213 0fbd aa6d 023e 6eba b0bd
00000370: 1a79 b6bd 0e06 31bd 8595 003e b36e 95bd
00000380: fa33 47bd 403b ddbc 29cd c23d e905 36be
00000390: deb2 ce3c 4972 1fbd 455d 6bbd ddd1 54bd
000003a0: 110a 823d 4b32 fc3d 5e40 8d3d 756e 12be
000003b0: 1918 9abd f0a4 ebbc 9fef 8a3d 0401 143e
000003c0: 630f 663c 65a0 ea3d 5d80 123e f18b aebd
000003d0: e9ab d2bb de9c 0a3e d878 f93d 95c0 66bd
000003e0: 4e12 01bd 2844 f03d 4d13 4cbd e7e2 2bbd
000003f0: 9c33 9fbc 8e50 16bd dbe1 d2bd 8450 ac3c

bias f4 [40]
-0.074899174 -0.0106908595 0.06198846 -0.051588003 0.05010729 -0.13323444 0.14456074 -0.07650979
-0.12625436 0.07869794 0.11361573 0.1171363 -0.068923555 0.014278815 -0.07435729 -0.021098765
0.079172924 0.03908872 0.015545278 0.09068527 -0.01669818 -0.08013461 -0.064139925 -0.02489175
-0.008108166 0.03176227 0.01929708 0.11049451 -0.11610617 0.023796123 0.060480736 -0.022793574
-0.020116458 -0.09677158 0.0913511 -0.0030012662 -0.10702527 0.1143417 0.12767868 0.023687657
00000000: bd64 99bd b728 2fbc 9de7 7d3d f14d 53bd
00000010: 4d3d 4d3d 9c6e 08be bb07 143e 2ab1 9cbd
00000020: d348 01be 632c a13d 5daf e83d 28e5 ef3d
00000030: cb27 8dbd b1f1 693c a348 98bd 51d7 acbc
00000040: 6a25 a23d 7e1b 203d 9fb1 7e3c 33b9 b93d
00000050: 9fca 88bc 9d1d a4bd cb5b 83bd c9e9 cbbc
00000060: 1dd8 04bc 2719 023d e914 9e3c f24a e23d
00000070: 12c9 edbd 16f0 c23c a6ba 773d 97b9 babc
00000080: 45cb a4bc 2e30 c6bd 4916 bb3d e4b0 44bb
00000090: 1130 dbbd fb2b ea3d 33be 023e 9e0c c23c
