Results/0056_discriminator1.pth (torch, 250863 bytes, 35 tensors)

weight_ih_l0 f4 [120, 20]
0.047558308 -0.043070205 -0.09049134 -0.121514134 0.057569966 0.01034251 0.044243667 -0.034095623
-0.07033863 -0.09448367 -0.09280634 0.14290652 0.14335765 0.014475956 -0.022297364 0.14255026
0.11397153 0.010580873 -0.056534633 0.012862021 -0.09601168 -0.042579755 0.17063016 -0.09944006
0.13724108 0.014291019 0.11005959 -0.0077005513 0.17694709 -0.023918198 0.07084655 -0.019853672
-0.0011042032 0.041063797 -0.08222174 0.067235656 0.011382579 0.13480444 -0.121051736 0.050707366
-0.11548322 0.010882532 0.002933683 0.09052531 -0.16527757 0.08560286 -0.002015602 -0.15963502
0.006337799 -0.17545839 0.0134058995 0.16919737 0.098929755 0.14303032 -0.16790324 -0.029183833
0.04247232 -0.0014177898 0.10339807 -0.18057385 0.12085273 0.11061443 0.14470056 0.06095647
0.0238341 0.114742965 0.068431914 0.00434307 0.17072017 -0.09771142 0.086489245 -0.06221423
-0.16950779 -0.1755715 0.08615972 -0.12492377 0.13049622 0.04811239 -0.08577747 0.0013830472
0.0040366338 -0.033822693 -0.09813596 -0.08512195 -0.16169447 0.059149258 -0.040396538 0.014723247
-0.04939369 -0.053770926 0.09592548 -0.090288 -0.10060875 0.03536542 -0.17056406 -0.059380602
-0.11992943 0.1121176 0.02805621 -0.17981976 -0.087639466 0.1608237 0.17619728 0.09507306
0.10003075 0.048279997 -0.047005963 0.033180807 0.044306763 0.121774465 -0.18430671 -0.039262787
-0.04384748 0.022038115 0.06251979 0.07149431 -0.0494029 -0.025748592 0.00091411645 -0.0682588
0.051316004 0.1624099 0.11611485 0.1380917 0.14222875 0.06451283 0.013763544 -0.10515488
0.1576039 -0.009691168 -0.11916746 0.04590365 -0.07109217 0.072363995 0.028395083 0.0021695648
-0.16920623 0.045042943 0.09944056 0.05636679 -0.19858408 0.03032831 0.08101991 0.009430224
-0.16759469 -0.16046159 -0.07518464 -0.13928533 -0.063577816 -0.0059108366 -0.056411132 0.16355777
0.06288553 0.12658523 -0.02136979 -0.13177355 -0.18441714 -0.17345417 0.08565519 -0.037726603
0.14498024 0.12366229 0.020539602 0.03898167 0.05152025 0.062158514 0.16664565 0.09153243
-0.009438215 0.074831724 -0.06817938 -0.13984223 0.0032306404 0.009383454 0.18077849 -0.010893224
-0.039743803 0.00025624456 0.13968498 0.18573904 0.052326646 0.058089484 -0.08732566 -0.1262209
0.045441095 -0.16176276 -0.1716557 -0.16261336 -0.039450362 0.09165143 -0.13661398 0.13241647
0.0056757866 -0.07421454 -0.1880247 0.12972938 -0.09594951 -0.077737294 0.07597438 -0.047590632
0.11976016 0.13806908 -0.061071746 -0.15104909 0.059508994 0.10907581 -0.10561135 0.01157054
-0.13973823 -0.100441836 0.032625817 0.11143683 -0.11925021 -0.035636608 -0.09691348 0.10585861
0.12231752 0.08537711 -0.019970516 0.09311372 0.120419785 -0.09659078 0.058741026 0.15957299
-0.0711227 -0.09426358 0.13228913 0.15160362 0.07875753 -0.030719168 0.12319087 -0.1437924
-0.051219344 0.022609735 0.13927592 -0.013820079 0.12933028 -0.16938673 -0.016680967 0.10428635
0.14126712 0.15501608 -0.06368741 0.15382002 0.030485006 0.14769895 0.07308236 -0.068368606
0.14514 0.04487363 0.022929585 0.048329037 0.058510184 -0.11660156 -0.056169283 -0.1393139
00000000: 80cc 423d 626a 30bd 8653 b9bd 67dc f8bd
00000010: 7cce 6b3d a273 293c d938 353d daa7 0bbd
00000020: b30d 90bd a880 c1bd 4011 bebd 1656 123e
00000030: 59cc 123e 8f2c 6d3c f6a8 b6bc b2f8 113e
00000040: e869 e93d 665b 2d3c dc90 67bd 3abb 523c
00000050: c6a1 c4bd 1c68 2ebd acb9 2e3e 3ba7 cbbd
00000060: ed88 0c3e e124 6a3c ec66 e13d e854 fcbb
00000070: 9e31 353e 19f0 c3bc ff17 913d 2ba4 a2bc
00000080: e9ba 90ba 8332 283d df63 a8bd d9b2 893d
00000090: ff7d 3a3c 2d0a 0a3e f9e9 f7bd 87b2 4f3d
000000a0: 7782 ecbd a64c 323c 0943 403b 5565 b93d
000000b0: 863e 29be 8d50 af3d 3118 04bb 5d77 23be
000000c0: 50ad cf3b 5dab 33be 6ba4 5b3c 1342 2d3e
000000d0: af9b ca3d 8a76 123e d4ee 2bbe ef12 efbc
000000e0: 75f7 2d3d 22d5 b9ba 5ec2 d33d 5ae8 38be
000000f0: a381 f73d d189 e23d 622c 143e 7ead 793d
00000100: bb3f c33c 5cfe ea3d 0826 8c3d 5050 8e3b
00000110: 45d1 2e3e ed1c c8bd 4621 b13d 59d4 7ebd
00000120: 7393 2dbe 04c9 33be 8274 b03d 09d8 ffbd
00000130: cda0 053e 7f11 453d 19ac afbd 5d47 b53a
00000140: bd45 843b aa89 0abd 82fb c8bd 6b54 aebd
00000150: 3c93 25be 7e46 723d d776 25bd c639 713c
00000160: 0a51 4abd e73e 5cbd 9474 c43d eae8 b8bd
00000170: f60b cebd 55db 103d 58a8 2ebe 1339 73bd
00000180: 909d f5bd ea9d e53d 23d6 e53c ac22 38be
00000190: 527c b3bd f8ae 243e 0f6d 343e aab5 c23d
000001a0: ecdc cc3d 3fc1 453d 5389 40bd 99e8 073d
000001b0: 027b 353d e464 f93d e6ba 3cbe 04d2 20bd
000001c0: 6a99 33bd 4789 b43c 600a 803d 9c6b 923d
000001d0: b25a 4abd b6ee d2bc 51a1 6f3a 45cb 8bbd
000001e0: bb30 523d c84e 263e 9fcd ed3d e967 0d3e
000001f0: 6aa4 113e 4d1f 843d 7d80 613c 715b d7bd
00000200: eb62 213e b4c7 1ebc 120e f4bd 7705 3c3d
00000210: c698 91bd 9333 943d ce9c e83c 422f 0e3b
00000220: 6644 2dbe f37e 383d 7ea7 cb3d dde0 663d
00000230: a059 4bbe 1373 f83c c4ed a53d 3a81 1a3c
00000240: f19d 2bbe 0b50 24be 68fa 99bd d0a0 0ebe
00000250: 1635 82bd b1af c1bb 5c0f 67bd b07b 273e
00000260: 21ca 803d 8f9f 013e b30f afbc a5ef 06be
00000270: d9d7 3cbe f89d 31be fd6b af3d 3687 1abd
00000280: b375 143e a842 fd3d ab42 a83c 3eab 1f3d
00000290: e606 533d ed99 7e3d 28a5 2a3e 5b75 bb3d
000002a0: bea2 1abc 6041 993d a1a1 8bbd cd32 0fbe
000002b0: 27b9 533b 0fbd 193c ff1d 393e 7e79 32bc
000002c0: 66ca 22bd 9058 8639 9409 0f3e 6032 3e3e
000002d0: 7754 563d 3def 6d3d ccd7 b2bd 0d40 01be
000002e0: 7120 3a3d 23a5 25be 83c6 2fbe 1e84 26be
000002f0: b496 21bd bfb3 bb3d 89e4 0bbe 2f98 073e
00000300: f3fb b93b cbfd 97bd 8c89 40be c7d7 043e
00000310: 2d81 c4bd bb34 9fbd 7598 9b3d 65ee 42bd
00000320: d144 f53d fb61 0d3e 5e26 7abd 9dac 1abe
00000330: b4bf 733d 2363 df3d c34a d8bd 5d92 3d3c
00000340: 8a17 0fbe 73b4 cdbd a6a2 053d fe38 e43d
00000350: 7439 f4bd b1f7 11bd 937a c6bd 66cc d83d
00000360: 9c81 fa3d 32da ae3d 3599 a3bc 68b2 be3d
00000370: a69e f63d 63d1 c5bd 6e9a 703d 1a67 233e
00000380: c7a8 91bd 440d c1bd cd76 073e fb3d 1b3e
00000390: a14b a13d c4a6 fbbc 7f4b fc3d 513e 13be
000003a0: 60cb 51bd 0d38 b93c 599e 0e3e 9d6d 62bc
000003b0: 286f 043e b773 2dbe 86a6 88bc 1594 d53d
000003c0: 54a8 103e 89bc 1e3e 8b6e 82bd ff82 1d3e
000003d0: b1bb f93c 653e 173e 34ac 953d d704 8cbd
000003e0: 959f 143e 69cd 373d d3d6 bb3c abf4 453d
000003f0: 60a8 6f3d cccc eebd c311 66bd 4ea8 0ebe

weight_hh_l0 f4 [120, 40]
-0.1394341 -0.15736929 -0.11309441 -0.15091786 0.07926333 0.023967264 0.047688756 0.012442608
0.080042206 0.06166776 -0.117096044 -0.10768402 0.06902245 -0.10683044 0.035897344 0.018012062
0.073100865 -0.027404558 0.038974103 -0.0069238665 -0.11118838 -0.010875576 0.15193291 -0.041237902
-0.0078442525 0.04480873 -0.13774617 -0.044856314 -0.034544606 0.0799011 0.14300108 0.042932272
-0.1276262 -0.13215818 0.037770905 0.11211656 0.06481157 -0.03168985 -0.12205153 0.11481642
0.107943065 0.045646094 -0.005724957 0.07442011 -0.0461375 -0.0024221977 -0.09923696 0.18478763
-0.19446951 -0.1778073 0.08672821 0.015477892 -0.0979346 0.067210846 0.12253509 -0.03841629
-0.0708383 0.15884255 0.011809375 0.11448939 -0.12696064 -0.10205891 -0.16436663 -0.033624504
0.10287953 0.17156649 -0.08449214 0.14384893 0.08904562 0.17494196 0.12370219 -0.0020028776
-0.09798125 -0.07416578 -0.066590674 0.13008666 0.05090853 -0.1437677 -0.13657422 -0.08570049
-0.013510793 0.040597424 0.11170784 0.1001644 0.05443692 -0.11528218 0.1469707 -0.06978993
-0.050235122 -0.12624428 -0.103040755 0.09300075 0.13537185 0.05554995 -0.031415887 -0.1528832
-0.039471608 0.0027088656 0.006074897 -0.002594609 0.2013949 -0.062829025 0.14754969 0.020146703
0.037819494 0.10084016 -0.13142933 -0.107967764 0.10717773 -0.14088927 -0.118978396 -0.06728097
0.18230249 -0.102321856 -0.059583947 0.16474067 -0.058152284 -0.031179056 0.14862303 -0.080365844
0.12484223 0.10168088 -0.023290168 0.05694173 0.08696361 -0.0047620954 -0.017609905 0.05974881
-0.0915363 0.10856304 0.021034164 -0.08095927 0.05630749 -0.049878273 0.0020152554 -0.16159865
0.18307161 0.033917885 0.08951302 -0.09592694 -0.099289656 0.014704553 -0.06278199 0.015488136
0.030549742 0.05368143 -0.093342416 -0.09333647 0.13465206 -0.076308995 0.16580844 0.05053806
-0.0471548 0.058299784 -0.0042900965 -0.143746 0.030224001 -0.12641032 0.10493911 0.043758526
-0.18259162 -0.17434382 0.13250364 0.051507894 -0.13857375 0.026238013 0.14951995 0.026162354
-0.11066966 0.08897461 0.11116437 -0.115244254 -0.11328308 -0.10849393 -0.079414055 0.014345194
0.07446907 -0.020197729 0.13941836 0.0077647995 0.061886944 -0.07877697 0.09473491 0.18205687
0.0907508 -0.006994037 0.1299942 0.023484532 -0.055284496 0.018181497 -0.04418999 0.07637547
-0.04364901 -0.09876306 0.10280087 0.1685097 -0.14605361 -0.142743 -0.030478442 0.000717014
0.11865139 -0.10738036 -0.08810128 0.105618 0.095888756 -0.04250311 0.041692827 -0.11040277
0.06780961 0.16611041 -0.027873512 -0.0646293 -0.015943509 0.124845035 -0.096927956 -0.094912
0.071582 0.12955928 0.08949322 -0.05238548 -0.16231054 0.043729696 0.024732709 -0.026237115
-0.13825887 -0.1693024 -0.1007224 -0.16106734 -0.14407834 0.113795616 -0.16764836 0.09077429
0.12141249 0.0877723 -0.009641826 -0.12043063 0.12887712 0.14996767 -0.0032773975 0.1248827
-0.14069884 -0.019443419 0.10377191 -0.11992827 -0.07183185 0.07071952 -0.034238763 0.1573709
-0.10722131 0.082697 0.09260245 0.11194069 0.018394805 0.18512768 0.11746648 0.13806684
00000000: d0c7 0ebe 6a25 21be 0b9e e7bd 368a 1abe
00000010: d054 a23d ff56 c43c 4955 433d 15dc 4b3c
00000020: 2bed a33d 5597 7c3d 0dd0 efbd 7189 dcbd
00000030: a45b 8d3d ebc9 dabd 1809 133d 088e 933c
00000040: e8b5 953d 867f e0bc 4fa3 1f3d 9ae1 e2bb
00000050: bcb6 e3bd 792f 32bc 4d94 1b3e 13e9 28bd
00000060: 2e85 00bc 5c89 373d 550d 0dbe 41bb 37bd
00000070: a57e 0dbd 30a3 a33d e06e 123e c0d9 2f3d
00000080: 71b0 02be 7954 07be aab5 1a3d 5e9d e53d
00000090: eebb 843d 37cd 01bd 27f6 f9bd df24 eb3d
000000a0: 4111 dd3d 66f7 3a3d 6c98 bbbb 9269 983d
000000b0: adfa 3cbd bcbd 1ebb bf3c cbbd f838 3d3e
000000c0: 0423 47be 1e13 36be 8f9e b13d fc96 7d3c
000000d0: f091 c8bd d7a5 893d adf3 fa3d 665a 1dbd
000000e0: ac13 91bd 9fa7 223e 1c7c 413c 6a79 ea3d
000000f0: f801 02be 4304 d1bd ba4f 28be d9b9 09bd
00000100: 81b2 d23d 20af 2f3e 370a adbd 224d 133e
00000110: 8d5d b63d fc23 333e 9357 fd3d b642 03bb
00000120: 65aa c8bd 3ae4 97bd b160 88bd 7035 053e
00000130: 7685 503d d737 13be 1dda 0bbe bd83 afbd
00000140: 605c 5dbc 7c49 263d 14c7 e43d fe22 cd3d
00000150: 3ff9 5e3d 1019 ecbd 7d7f 163e 06ee 8ebd
00000160: 58c3 4dbd 2e46 01be 0807 d3bd 2d77 be3d
00000170: eb9e 0a3e 5888 633d f2ad 00bd 6a8d 1cbe
00000180: fbac 21bd 3987 313b ee0f c73b 510a 2abb
00000190: 773a 4e3e 81ac 80bd 4417 173e b30a a53c
000001a0: 9de8 1a3d 4985 ce3d 6995 06be 341e ddbd
000001b0: ff7f db3d 4745 10be f2aa f3bd 9bca 89bd
000001c0: 81ad 3a3e 1f8e d1bd 4c0e 74bd c7b1 283e
000001d0: 1731 6ebd 386b ffbc a330 183e d996 a4bd
000001e0: 48ad ff3d 113e d03d 06cb bebc bb3b 693d
000001f0: fa19 b23d 5a0b 9cbb a642 90bc 2bbb 743d
00000200: 6277 bbbd 4d56 de3d d74f ac3c f9cd a5bd
00000210: afa2 663d 294d 4cbd 6012 043b 1e7a 25be
00000220: 2077 3b3e 7bed 0a3d 9a52 b73d 5875 c4bd
00000230: 6058 cbbd 5eeb 703c d893 80bd f3c1 7d3c
00000240: 7443 fa3c 0fe1 5b3d 4f2a bfbd 3127 bfbd
00000250: 3be2 093e e447 9cbd b0c9 293e ff00 4f3d
00000260: 6425 41bd c1cb 6e3d f093 8cbb 2732 13be
00000270: 5398 f73c b571 01be 51ea d63d 243c 333d
00000280: 4cf9 3abe 3087 32be 09af 073e f1f9 523d
00000290: 47e6 0dbe 1af1 d63c c21b 193e 6f52 d63c
000002a0: c6a6 e2bd 5238 b63d 25aa e33d 2e05 ecbd
000002b0: f600 e8bd 1132 debd d6a3 a2bd 1b08 6b3c
000002c0: 3d83 983d b575 a5bc b0c3 0e3e dc6f fe3b
000002d0: 2a7d 7d3d d255 a1bd 6004 c23d 1e6d 3a3e
000002e0: 8edb b93d 3c2e e5bb 331d 053e a262 c03c
000002f0: ff71 62bd 5df1 943c 9000 35bd be6a 9c3d
00000300: 4ec9 32bd 4a44 cabd 4389 d23d cf8d 2c3e
00000310: 148f 15be 392b 12be edad f9bc fff5 3b3a
00000320: 80ff f23d 3cea dbbd 726e b4bd 404e d83d
00000330: 5361 c43d be17 2ebd 19c6 2a3d d91a e2bd
00000340: c4df 8a3d d918 2a3e fe56 e4bc 5e5c 84bd
00000350: f69b 82bc c1ae ff3d 2a82 c6bd 3961 c2bd
00000360: 9599 923d 30ab 043e 3948 b73d 2892 56bd
00000370: bc34 26be e91d 333d 409c ca3c 38ef d6bc
00000380: bc93 0dbe 9c5d 2dbe 8c47 cebd d6ee 24be
00000390: 4689 13be ad0d e93d 03ac 2bbe dfe7 b93d
000003a0: 1da7 f83d f7c1 b33d c0f8 1dbc 56a4 f6bd
000003b0: 5df8 033e 2091 193e 9bc9 56bb 80c2 ff3d
000003c0: 5b13 10be ce47 9fbc 5e86 d43d f49c f5bd
000003d0: 941c 93bd 65d5 903d f23d 0cbd d625 213e
000003e0: d996 dbbd 0b5d a93d 5aa6 bd3d 2941 e53d
000003f0: b4b0 963c 1c92 3d3e 4492 f03d 6561 0d3e

bias_ih_l0 f4 [120]
0.017278403 0.13190526 -0.029268442 0.008736279 0.08977663 0.029769642 -0.1219004 -0.111644775
-0.17193004 -0.03845461 -0.008198043 -0.0025908425 -0.058430217 -0.051280074 0.09033388 -0.014945364
0.021214899 0.078496665 0.10328795 -0.0067457664 -0.061173595 0.003666388 0.022788957 -0.13603191
-0.12652858 -0.08609958 0.09404335 0.03378897 0.07577697 -0.06882752 0.09559599 -0.14531104
0.024964264 0.016939407 -0.076646924 -0.123276524 0.03731659 -0.0392633 -0.051477585 -0.09188555
0.11083479 -0.10999721 0.03283236 0.10138251 0.09793747 0.0013109288 0.050965462 -0.12959631
0.08228587 -0.13925742 -0.06235469 0.14440227 -0.10870346 0.1338327 0.09569197 -0.012461605
-0.11318656 0.0060067875 0.10356816 -0.029890902 -0.09569508 0.07703609 -0.008774365 0.039462063
0.14516775 -0.06620371 0.019133404 -0.054772805 0.07117271 -0.09334213 0.024048904 -0.07289945
0.11929389 0.044154823 0.18617411 0.16289096 0.022049924 -0.14858079 0.038055155 -0.07908538
-0.020719241 -0.0497493 0.048983563 -0.026903657 0.06910329 0.05954317 0.121283375 -0.09289184
0.12967327 -0.048150137 -0.032073483 0.13093194 -0.1379437 -0.0017673405 -0.013030323 -0.09473194
-0.0015626906 -0.030637218 -0.14315522 -0.0104558375 0.0008714935 -0.038472004 0.16600603 0.13901125
-0.062818125 0.11823124 -0.06141402 -0.02364636 0.05895468 0.068892576 -0.14862859 0.03845368
0.13645592 -0.009731182 0.031916942 -0.08595308 0.14498477 0.1778508 0.060502093 -0.046318293
00000000: 708b 8d3c 2c12 073e 5fc4 efbc 9c22 0f3c
00000010: cfdc b73d 77df f33c eba6 f9bd 04a6 e4bd
00000020: 6e0e 30be 9582 1dbd 1651 06bc 20cb 29bb
00000030: 8654 6fbd 0e0b 52bd f800 b93d 66dd 74bc
00000040: deca ad3c dcc2 a03d a288 d33d 970b ddbb
00000050: 2a91 7abd c947 703b e8af ba3c f34b 0bbe
00000060: b590 01be fa54 b0bd cd99 c03d 4e66 0a3d
00000070: f530 9b3d 71f5 8cbd d5c7 c33d 6bcc 14be
00000080: db81 cc3c 83c4 8a3c 10f9 9cbd 6778 fcbd
00000090: 48d9 183d 8ed2 20bd 29da 52bd 7e2e bcbd
000000a0: 5afd e23d 3846 e1bd 3a7b 063d a2a1 cf3d
000000b0: 7193 c83d 79d3 ab3a 29c1 503d e5b4 04be
000000c0: 7f85 a83d 7f99 0ebe a267 7fbd 30de 133e
000000d0: eb9f debd 700b 093e 27fa c33d c22b 4cbc
000000e0: 5bce e7bd 96d4 c43b 8b1b d43d c4dd f4bc
000000f0: c8fb c3bd 19c5 9d3d 5bc2 0fbc f9a2 213d
00000100: dba6 143e d095 87bd a8bd 9c3c 7359 60bd
00000110: ffc2 913d 292a bfbd 3502 c53c 4f4c 95bd
00000120: 5b50 f43d b0db 343d 6da4 3e3e e3cc 263e
00000130: 0ba2 b43c 9025 18be b9df 1b3d 84f7 a1bd
00000140: 66bb a9bc ecc5 4bbd fda2 483d 0f65 dcbc
00000150: 0786 8d3d 8ae3 733d 6b63 f83d 143e bebd
00000160: 12c9 043e 1439 45bd 7c5f 03bd 0613 063e
00000170: 1d41 0dbe 1ba6 e7ba 237d 55bc d202 c2bd
00000180: 32d3 ccba e7fa fabc 4897 12be f64e 2bbc
00000190: f074 643a d294 1dbd 7cfd 293e f758 0e3e
000001a0: caa6 80bd 3823 f23d 448d 7bbd 03b6 c1bc
000001b0: 767a 713d 8d17 8d3d 1832 18be 9b81 1d3d
000001c0: 1abb 0b3e 896f 1fbc 57bb 023d 2b08 b0bd
000001d0: e376 143e 851e 363e 0bd1 773d 40b8 3dbd

bias_hh_l0 f4 [120]
0.16618498 0.098642506 0.18118128 -0.025265615 0.15681745 -0.051986348 0.016086537 0.07362843
-0.031422354 -0.09722947 -0.038118005 0.097902134 0.09416263 -0.1484427 0.053009562 0.07549578
-0.017148484 -0.11927626 -0.108382635 0.18722737 -0.019230014 -0.09940844 0.1073828 0.0058171214
-0.0065086726 -0.084578365 -0.087625645 0.08415061 0.10683359 -0.06495834 -0.021683695 -0.05924005
0.043269657 -0.12905581 -0.124256805 0.04379468 -0.13210471 0.046193667 0.1481108 0.089479625
-0.115574285 0.06659219 0.0938079 -0.07197855 -0.1382821 0.16992742 0.050099142 -0.097365595
-0.036573544 0.12546802 -0.010926312 -0.14575723 0.09148716 -0.047683503 0.06117272 0.035225566
-0.17865884 -0.07142195 0.07839541 0.15639661 -0.07899917 0.06803928 0.019773766 -0.14873841
0.12820408 -0.01579922 -0.10691055 0.03801137 -0.1272151 0.110151365 0.118467726 0.034736708
-0.10172958 0.09492286 0.07747471 -0.050011933 -0.005814943 -0.1577019 0.031337257 0.0780251
0.18410806 0.027402788 0.060538452 0.05778275 -0.06132998 -0.104684874 -0.07204117 -0.050991733
0.15023811 0.07065147 0.12403476 -0.16415495 0.08543074 -0.035874296 0.05170134 0.13537087
-0.0398446 0.067977 0.09294425 0.13016881 0.094113454 -0.068812855 0.032798123 -0.06185636
0.051880322 0.05108552 -0.0052933907 0.07586756 -0.037349533 0.15084176 0.13742407 0.064947635
-0.04819676 0.11461411 0.13326089 0.09070463 -0.059463885 -0.0046468033 -0.010274736 -0.1481425
00000000: 652c 2a3e 1505 ca3d 9687 393e d6f9 cebc
00000010: c194 203e a3ef 54bd eac7 833c 81ca 963d
00000020: bab4 00bd 3f20 c7bd a021 1cbd ea80 c83d
00000030: 56d8 c03d 5d01 18be 8e20 593d 889d 9a3d
00000040: fa7a 8cbc 1d47 f4bd b7f7 ddbd 88b8 3f3e
00000050: 4388 9dbc a796 cbbd 83eb db3d 8d9d be3b
00000060: b446 d5bb 6c37 adbd 1375 b3bd 2857 ac3d
00000070: 92cb da3d e108 85bd 01a2 b1bc b2a5 72bd
00000080: 863b 313d 3527 04be 5a7a febd 0d62 333d
00000090: 7546 07be 9235 3d3d 5caa 173e 1841 b73d
000000a0: 36b2 ecbd 7c61 883d 5b1e c03d 7d69 93bd
000000b0: d399 0dbe 7401 2e3e c234 4d3d 9d67 c7bd
000000c0: 24ce 15bd b07a 003e 4604 33bc 6241 15be
000000d0: 9f5d bb3d c74f 43bd 3f90 7a3d af48 103d
000000e0: 58f2 36be ac45 92bd c68d a03d 6f26 203e
000000f0: 51ca a1bd 2e58 8b3d 98fc a13c e24e 18be
00000100: ee47 033e 5e6d 81bc ebf3 dabd cfb1 1b3d
00000110: ad44 02be 0a97 e13d 359f f23d 1448 0e3d
00000120: 9957 d0bd eb66 c23d 10ab 9e3d 50d9 4cbd
00000130: 478b bebb 9b7c 21be 7f5b 003d a0cb 9f3d
00000140: d386 3c3e d07b e03c 2bf7 773d 9bad 6c3d
00000150: 2535 7bbd 0665 d6bd 528a 93bd b5dc 50bd
00000160: 05d8 193e b8b1 903d f005 fe3d 3c18 28be
00000170: 50f6 ae3d edf0 12bd c9c4 533d a99e 0a3e
00000180: 1734 23bd 8637 8b3d 8e59 be3d f94a 053e
00000190: 8ebe c03d c1ed 8cbd 5357 063d 185d 7dbd
000001a0: 7680 543d 0d3f 513d 2e74 adbb 7460 9b3d
000001b0: d3fb 18bd 4376 1a3e e5b8 0c3e 4403 853d
000001c0: f769 45bd cdba ea3d 8b75 083e 59c3 b93d
000001d0: 6790 73bd 3644 98bb 5e57 28bc abb2 17be

weight_ih_l1 f4 [120, 40]
-0.10372019 0.14204796 -0.10997576 0.121980116 0.17528653 0.028915757 0.07173007 0.028819432
-0.09073226 -0.08275888 0.13812387 -0.031090133 -0.118163496 -0.025836747 -0.13240404 -0.11426709
-0.02303798 -0.022894314 -0.1397215 0.0719133 -0.13265501 -0.14868134 0.055740476 -0.116167665
0.13224147 0.00023216072 0.029450392 -0.08745597 -0.14992192 0.14067587 -0.06817109 -0.042922817
-0.020865455 -0.052192684 0.062146276 -0.09121586 0.10435263 -0.13142098 -0.04183296 -0.079111814
-0.16188112 -0.09743543 0.095222674 0.09589933 -0.12911756 -0.1713972 -0.11609439 -0.13833633
0.13191766 -0.09469605 0.066255294 0.13832985 0.121538885 -0.15613079 -0.09145522 -0.09711545
0.12536322 -0.06438463 0.032050855 -0.02803756 0.105304204 -0.117390774 -0.07362586 -0.05818606
0.05709258 0.0525564 -0.0067933886 0.010857945 -0.120626725 -0.14353047 0.15857829 -0.0160096
0.1426944 -0.14780632 0.034563288 0.043290064 -0.08403002 0.09069096 0.143529 -0.028315976
0.088207155 0.15206867 0.14441492 -0.12157536 0.0028899414 -0.06532724 -0.118385494 0.14460863
-0.06938823 -0.100024 -0.08895481 -0.10578859 0.029226754 0.11930148 -0.09567586 0.12705775
-0.041594844 0.1384599 0.17023526 0.0038732155 0.14206466 0.012925256 -0.044238582 -0.048608303
-0.027626134 0.08404672 -0.1049704 0.12037526 0.11878897 0.025536453 0.09102709 -0.042218167
0.046912856 -0.13241485 -0.0751127 -0.025912002 -0.12557484 -0.088839516 0.10105295 -0.09854497
0.17289941 0.06120877 0.13190375 -0.12918843 0.08871782 0.1445323 -0.12698786 0.04197248
-0.023039535 0.05486178 -0.10404801 0.15795565 -0.013155426 0.15159371 -0.10238373 -0.096394956
-0.13570409 0.12149094 -0.06552364 0.17132403 -0.07137667 -0.0800694 -0.08449005 -0.06087144
0.025524156 -0.056398463 0.1431252 0.0751886 -0.05864769 -0.06815756 0.06272571 0.10582411
0.10339969 0.044992357 0.013554108 -0.11985428 -0.026067141 -0.14748532 -0.023946302 -0.15582937
0.09022677 -0.043687623 0.052429866 -0.13063538 0.101357155 -0.06333022 0.08358511 -0.08782872
0.09764571 0.11532396 0.06162299 -0.0016116342 0.04735936 -0.06093795 -0.0393157 0.17495503
0.108085476 0.055581175 -0.011863887 -0.12763436 0.12719128 0.048699502 0.1329705 -0.02269271
0.08085588 -0.15419014 -0.05708859 0.10754899 -0.070145756 -0.023279274 0.048437737 0.047449313
0.101061575 0.19037737 -0.013116058 0.1090246 0.16062859 0.05010036 0.08372415 0.02820043
-0.12012253 0.066287726 -0.06498293 0.015890814 0.10095133 -0.101888336 -0.16676888 0.05484881
-0.057123322 0.0706261 -0.00041496885 -0.114330314 -0.06426365 0.07624008 0.17926542 0.059024964
-0.06572257 0.047830593 -0.06701662 -0.02637686 -0.17058383 0.04438104 -0.12150627 -0.15792008
-0.1728549 0.0754126 -0.016078811 0.0045271507 0.18836206 0.0033708015 0.11266874 -0.058157
-0.004515237 0.056146555 0.09337602 -0.05577817 -0.052621994 0.10613757 -0.048507977 -0.16311657
0.00847814 -0.08369582 0.109441966 0.09773496 -0.060784634 -0.1690692 0.12567878 0.13493831
-0.042843606 -0.14402182 0.101278074 0.07215469 -0.044928968 0.18185605 -0.031420793 0.041616928
00000000: 406b d4bd 0575 113e f93a e1bd b6d0 f93d
00000010: 507e 333e bde0 ec3c 37e7 923d bb16 ec3c
00000020: d6d1 b9bd 7d7d a9bd 5870 0d3e bcb0 febc
00000030: b4ff f1bd 96a7 d3bc ed94 07be dd04 eabd
00000040: 25ba bcbc db8c bbbc 2713 0fbe 4847 933d
00000050: b7d6 07be ec3f 18be 2050 643d 50e9 edbd
00000060: 4f6a 073e 2b70 7339 f341 f13c 1e1c b3bd
00000070: 2285 19be 560d 103e 499d 8bbd d6cf 2fbd
00000080: 08ee aabc ffc7 55bd 188d 7e3d 61cf babd
00000090: d5b6 d53d 3993 06be 0a59 2bbd 6005 a2bd
000000a0: 2ac4 25be 3a8c c7bd 1b04 c33d de66 c43d
000000b0: 6537 04be bf82 2fbe e5c2 edbd 0aa8 0dbe
000000c0: 6c15 073e 01f0 c1bd dbb0 873d 57a6 0d3e
000000d0: 61e9 f83d c0e0 1fbe e04c bbbd 77e4 c6bd
000000e0: 375f 003e 17dc 83bd c247 033d 06af e5bc
000000f0: bba9 d73d 936a f0bd 28c9 96bd 8254 6ebd
00000100: e9d9 693d 6145 573d 139b debb 86e5 313c
00000110: 250b f7bd a7f9 12be 5962 223e 9126 83bc
00000120: 7b1e 123e 8a5a 17be 3c92 0d3d ec50 313d
00000130: ee17 acbd 2fbc b93d 44f9 123e e8f6 e7bc
00000140: f4a5 b43d e4b7 1b3e 81e1 133e 81fc f8bd
00000150: 2c65 3d3b 4aca 85bd 1874 f2bd 4914 143e
00000160: 6b1b 8ebd 62d9 ccbd f02d b6bd b0a7 d8bd
00000170: f26c ef3c 5654 f43d b5f1 c3bd 6d1b 023e
00000180: 5b5f 2abd 6fc8 0d3e 2752 2e3e c6d5 7d3b
00000190: 6679 113e 74c4 533c 8433 35bd 8019 47bd
000001a0: 3450 e2bc b020 ac3d b9fa d6bd 4e87 f63d
000001b0: a247 f33d d331 d13c 696c ba3d f5ec 2cbd
000001c0: b227 403d c297 07be b0d4 99bd 6845 d4bc
000001d0: b196 00be 7ef1 b5bd d9f4 ce3d f2d1 c9bd
000001e0: 8b0c 313e 0cb6 7a3d c711 073e f949 04be
000001f0: b0b1 b53d 4600 143e 1b09 02be 56eb 2b3d
00000200: 68bd bcbc bfb6 603d 2017 d5bd 20bf 213e
00000210: db89 57bc 623b 1b3e 90ae d1bd b86a c5bd
00000220: 03f6 0abe 3ed0 f83d 4231 86bd 916f 2f3e
00000230: ee2d 92bd 6dfb a3bd 1f09 adbd 5554 79bd
00000240: 0918 d13c 1302 67bd 6a8f 123e 7bfc 993d
00000250: 8f38 70bd 3196 8bbd 5676 803d 50ba d83d
00000260: 37c3 d33d e849 383d 0d12 5e3c 2976 f5bd
00000270: c28a d5bc 6406 17be 092b c4bc bc91 1fbe
00000280: d0c8 b83d cbf1 32bd b3c0 563d 48c5 05be
00000290: 5794 cf3d 46b3 81bd ac2e ab3d 8bdf b3bd
000002a0: 79fa c73d f82e ec3d 6368 7c3d 783d d3ba
000002b0: e3fb 413d 129a 79bd 8009 21bd 6927 333e
000002c0: eb5b dd3d 16a9 633d c060 42bc 95b2 02be
000002d0: 6e3e 023e 2179 473d 6b29 083e 10e6 b9bc
000002e0: c597 a53d 05e4 1dbe bad5 69bd a542 dc3d
000002f0: 94a8 8fbd 2db4 bebc a666 463d 365a 423d
00000300: 5ff9 ce3d 49f2 423e bce4 56bc 4a48 df3d
00000310: d27b 243e 0936 4d3d 9177 ab3d 9704 e73c
00000320: cd02 f6bd dcc1 873d c515 85bd 742d 823c
00000330: 92bf ce3d d5aa d0bd 76c5 2abe 25a9 603d
00000340: 25fa 69bd 6ba4 903d 2d90 d9b9 0326 eabd
00000350: a99c 83bd c223 9c3d 5b91 373e 29c4 713d
00000360: 8e99 86bd 03ea 433d 0240 89bd 4914 d8bc
00000370: 87ad 2ebe e5c8 353d 47d8 f8bd cdb5 21be
00000380: e000 31be ec71 9a3d b6b7 83bc 7e58 943b
00000390: fce1 403e aae8 5c3b debe e63d 0936 6ebd
000003a0: 8ef4 93bb eef9 653d ed3b bf3d a677 64bd
000003b0: 298a 57bd a85e d93d 4db0 46bd 0808 27be
000003c0: e6e7 0a3c b768 abbd 1c23 e03d 4429 c83d
000003d0: 4ff9 78bd 7a20 2dbe f0b1 003e 452d 0a3e
000003e0: c77c 2fbd 757a 13be e16a cf3d d7c5 933d
000003f0: 7007 38bd 7938 3a3e 17b3 00bd 8376 2a3d

weight_hh_l1 f4 [120, 40]
-0.037626993 0.042465966 -0.086192936 -0.02970109 -0.12252343 0.08083269 -0.075425774 -0.05815718
0.10851708 -0.04266643 0.008547487 0.105633326 0.08229272 0.059459016 0.102860354 0.057334416
-0.04950822 -0.06442577 -0.079984635 -0.025706396 -0.1958396 -0.039400045 0.13491264 0.15418729
-0.10162426 -0.17443638 0.12001077 -0.11405348 -0.07365587 -0.13304627 0.04405135 0.15932445
-0.04542128 -0.04333044 -0.09615362 0.18586512 0.039717715 -0.062856056 -0.028210234 -0.07014329
-0.026646286 -0.08894977 -0.13685505 -0.01838898 -0.023189602 -0.04025847 -0.016892234 -0.07333949
-0.061905775 0.13747792 -0.009772142 -0.09505309 0.056421798 0.06504811 0.07979548 -0.1350004
-0.15915939 -0.14896056 0.0402806 -0.1260007 -0.10603314 -0.0246088 -0.09516844 -0.13040113
-0.05704157 -0.011064078 0.038206793 -0.1378288 -0.08216913 0.16612615 -0.04433912 -0.009619034
0.0043025357 0.15738711 0.061246883 -0.0048533306 -0.18969916 0.09958748 0.021653073 -0.037924297
-0.08753311 -0.16825104 -0.0063792365 -0.04219408 0.0747413 -0.17651252 0.1435194 0.06455132
0.021433396 -0.11233744 0.0369136 -0.10290085 -0.028317103 -0.16674915 0.08042887 -0.15730835
-0.1885413 -0.04639571 -0.031591184 0.0029191903 0.10039762 0.03397728 -0.07953852 -0.12825905
-0.11208118 -0.054348424 0.056154624 -0.123007506 0.012137186 0.0382196 -0.07578814 0.010729917
0.075680725 0.07152895 -0.17592415 -0.14785002 -0.051881246 0.012524337 0.051199824 -0.14060196
-0.1790955 -0.014363768 0.04529651 -0.045450762 -0.085361205 0.0846868 -0.08246112 0.027521487
0.014615792 -0.056201503 -0.0598365 0.13264926 0.12333995 -0.11511616 -0.1772031 -0.084321335
0.053367265 0.01847834 -0.015910147 -0.08293843 0.017591648 0.04479537 -0.09621446 0.023825912
0.020222008 0.12209535 -0.04211317 -0.033224218 0.10142611 0.054061227 -0.09835729 0.04321608
-0.010472525 0.082451805 -0.12442843 -0.11210195 -0.09529611 -0.033288516 -0.11474791 0.11851698
-0.08488427 -0.012980976 -0.06438036 -0.061401326 0.042779338 -0.07567041 0.018883929 0.053938724
-0.0954555 0.03715144 -0.052526563 0.05014977 0.070087336 0.017162876 -0.016176602 0.027833283
0.14829855 -0.052413467 -0.018393181 -0.109234855 -0.003352852 -0.07430288 -0.04157608 -0.10304104
-0.047025096 -0.11854645 0.037082657 0.046466287 0.13631491 0.041484065 -0.1622201 -0.11795256
0.112676546 -0.017489119 0.09200749 0.013515801 -0.025611784 -0.06358492 0.07385792 0.025151977
-0.1358572 -0.13766086 -0.15144439 -0.052646816 -0.0658264 0.10673042 -0.060662925 0.07243453
-0.17171182 -0.06651143 -0.008856002 -0.13953573 0.054860737 0.042112265 -0.13425978 -0.105741315
-0.037418485 -0.07955816 -0.01627134 0.11652501 -0.009297952 0.10600687 0.034306232 0.1158268
0.17949438 -0.05576605 0.12689146 0.118854634 0.024092074 0.14773184 -0.124289185 0.14395258
-0.047667198 0.025378251 0.08579217 0.09816231 0.080847025 0.08375505 -0.00603374 0.18979141
-0.02117732 -0.08308344 -0.12643535 0.07605127 0.15249448 -0.1679208 -0.021182928 0.13304876
-0.02235251 0.06022866 -0.1635787 0.1354726 0.14469692 0.10186838 -0.15447028 0.1227989
00000000: c31e 1abd cbf0 2d3d ec85 b0bd b34f f3bc
00000010: 90ed fabd 9c8b a53d d478 9abd 3936 6ebd
00000020: 343e de3d ffc2 2ebd c20a 0c3c 4956 d83d
00000030: 1689 a83d 4c8b 733d 73a8 d23d 7ed7 6a3d
00000040: 22c9 4abd a8f1 83bd fcce a3bd 3896 d2bc
00000050: 2d8a 48be f161 21bd 8a26 0a3e 46e3 1d3e
00000060: 6120 d0bd 739f 32be 35c8 f53d df94 e9bd
00000070: e4d8 96bd 483d 08be 306f 343d f325 233e
00000080: aa0b 3abd 427b 31bd 30ec c4bd 6d53 3e3e
00000090: 0baf 223d adba 80bd 2619 e7bc 49a7 8fbd
000000a0: 5049 dabc 4c2b b6bd bb23 0cbe 7ca4 96bc
000000b0: 1ff8 bdbc 11e6 24bd 9561 8abc 0433 96bd
000000c0: e990 7dbd 03c7 0c3e 561b 20bc 32ab c2bd
000000d0: 8b1a 673d f237 853d d06b a33d 8b3d 0abe
000000e0: aefa 22be 1e89 18be 45fd 243d 5406 01be
000000f0: e727 d9bd 6598 c9bc ace7 c2bd e087 05be
00000100: 6ca4 69bd 1b46 35bc ba7e 1c3d fe22 0dbe
00000110: 4a48 a8bd f91c 2a3e f09c 35bd 2799 1dbc
00000120: 49fc 8c3b 162a 213e 03de 7a3d b008 9fbb
00000130: 7f40 42be 85f4 cb3d c961 b13c 8256 1bbd
00000140: 8f44 b3bd 004a 2cbe ea08 d1bb b3d3 2cbd
00000150: f711 993d b3bf 34be c0f6 123e 7c33 843d
00000160: 1795 af3c 2c11 e6bd b732 173d aebd d2bd
00000170: 45f9 e7bc 4ac0 2abe e4b7 a43d 7115 21be
00000180: f810 41be 6e09 3ebd c265 01bd e34f 3f3b
00000190: 449d cd3d c32b 0b3d 17e5 a2bd 5756 03be
000001a0: d18a e5bd 749c 5ebd 6402 663d 5ceb fbbd
000001b0: 0cdb 463c 288c 1c3d d036 9bbd 89cc 2f3c
000001c0: 7ffe 9a3d c57d 923d 7625 34be ff65 17be
000001d0: 6e81 54bd e032 4d3c e8b6 513d f6f9 0fbe
000001e0: d064 37be 0256 6bbc d588 393d 942a 3abd
000001f0: dbd1 aebd 4670 ad3d 60e1 a8bd be74 e13c
00000200: 1377 6f3c 8c33 66bd 1e17 75bd 35d5 073e
00000210: a899 fc3d 05c2 ebbd bb74 35be aab0 acbd
00000220: a297 5a3d e35f 973c ff55 82bc a0db a9bd
00000230: 5c1c 903c 5a7b 373d 160c c5bd 8f2e c33c
00000240: a0a8 a53c 200d fa3d dc7e 2cbd 1e16 08bd
00000250: 7eb8 cf3d 4e6f 5d3d 8c6f c9bd 5803 313d
00000260: f494 2bbc 7edc a83d 55d4 febd b595 e5bd
00000270: 9b2a c3bd 8a59 08bd f400 ebbd 08b9 f23d
00000280: ced7 adbd 29ae 54bc dad9 83bd f57f 7bbd
00000290: 6339 2f3d 17f9 9abd 78b2 9a3c daee 5c3d
000002a0: 2c7e c3bd 1c2c 183d 1826 57bd d869 4d3d
000002b0: f389 8f3d 2999 8c3c cb84 84bc a002 e43c
000002c0: 93db 173e 81af 56bd 4cad 96bc 86b6 dfbd
000002d0: 86bb 5bbb 1c2c 98bd ae4b 2abd 2e07 d3bd
000002e0: 639d 40bd 7bc8 f2bd fce3 173d 6f53 3e3d
000002f0: 2396 0b3e 32eb 293d 071d 26be 1d91 f1bd
00000300: f6c2 e63d 5745 8fbc 6c6e bc3d 6171 5d3c
00000310: cecf d1bc cf38 82bd d242 973d 850b ce3c
00000320: 261e 0bbe f8f6 0cbe 3d14 1bbe 30a4 57bd
00000330: fecf 86bd 7a95 da3d b079 78bd 8e58 943d
00000340: 39d5 2fbe 2537 88bd c418 11bc 74e2 0ebe
00000350: a7b5 603d e97d 2c3d 657b 09be e78e d8bd
00000360: 2044 19bd 63ef a2bd 794b 85bc aaa4 ee3d
00000370: 7056 18bc 211a d93d b184 0c3d 9a36 ed3d
00000380: 60cd 373e f16a 64bd d6ef 013e 0f6a f33d
00000390: be5c c53c 0447 173e 548b febd 4e68 133e
000003a0: ae3e 43bd 0de6 cf3c ceb3 af3d 5209 c93d
000003b0: 2093 a53d c587 ab3d aeb6 c5bb ae58 423e
000003c0: 0f7c adbc a727 aabd 4578 01be c5c0 9b3d
000003d0: 8327 1c3e 6ef3 2bbe d287 adbc ef3d 083e
000003e0: 9c1c b7bc 54b2 763d 2d81 27be 54b9 0a3e
000003f0: 6e2b 143e 5fa0 d03d 752d 1ebe fd7d fb3d

bias_ih_l1 f4 [120]
0.09650116 -0.11684455 0.037587706 0.07264968 0.05805074 0.1432177 -0.093129925 0.1448922
-0.15186578 0.11203607 0.10986154 0.07793851 -0.028435295 -0.033368256 0.12542498 0.07403102
-0.023277141 0.10295926 0.18074448 -0.019770471 -0.08513421 0.17275868 -0.0048951143 0.031496942
-0.1287572 0.12885778 -0.12006507 0.06511626 -0.15225814 0.08238354 -0.066602476 0.09688373
0.06801664 -0.0009329977 0.12250258 -0.0076903133 -0.058355696 0.09380129 0.111986674 -0.07078728
-0.09893687 -0.10466754 0.085844964 0.11278356 0.033693634 -0.018766278 -0.077352814 -0.10789257
-0.104164876 -0.07614214 0.07297702 -0.042847462 -0.16064928 -0.060014363 0.102466434 -0.09114039
0.03771966 -0.02290859 0.103804834 0.07686521 0.13056527 -0.1070774 -0.07872938 0.057789017
0.14892796 -0.03139971 -0.01838539 0.07639931 -0.13180865 -0.02109355 -0.1380423 -0.11426223
0.017041603 -0.09866404 -0.08219377 -0.06104315 -0.16233976 -0.10850182 0.06628664 -0.17209122
-0.12112778 0.1784036 0.09842401 -0.11832621 0.107061446 0.077440545 0.06837511 -0.08367173
-0.07325439 0.1016482 0.06384565 0.07797118 0.17584671 -0.037544984 0.13754278 -0.07869466
-0.08710892 -0.0035000462 0.015023567 -0.14743972 0.017676348 0.055854544 0.1647965 0.107129455
0.11868397 -0.01291078 -0.10912962 -0.10171859 0.06786188 0.13186073 -0.12627412 0.062808216
0.05805559 -0.17167768 0.15869541 0.08707674 0.0118042175 0.0018835397 0.01880632 0.14499255
00000000: 66a2 c53d 324c efbd 91f5 193d 5bc9 943d
00000010: 9dc6 6d3d a9a7 123e e7ba bebd 9f5e 143e
00000020: b482 1bbe 2b73 e53d 16ff e03d 3a9e 9f3d
00000030: 23f1 e8bc 27ad 08bd 686f 003e 939d 973d
00000040: b4af bebc 4edc d23d 1515 393e aff5 a1bc
00000050: d85a aebd a7e7 303e 3267 a0bb f002 013d
00000060: edd8 03be 4bf3 033e ade4 f5bd ac5b 853d
00000070: 8fe9 1bbe b4b8 a83d e166 88bd fa6a c63d
00000080: 4f4c 8b3d 6a94 74ba a2e2 fa3d 06ff fbbb
00000090: 6206 6fbd e41a c03d 4559 e53d ecf8 90bd
000000a0: 6a9f cabd ef5b d6bd 7ccf af3d 11fb e63d
000000b0: 5602 0a3d bdbb 99bc 276b 9ebd c8f6 dcbd
000000c0: 6554 d5bd 69f0 9bbd fa74 953d d280 2fbd
000000d0: 3f81 24be 9fd1 75bd ecd9 d13d d0a7 babd
000000e0: ee7f 1a3d ccaa bbbc a197 d43d 826b 9d3d
000000f0: e7b2 053e 654b dbbd df3c a1bd 2db4 6c3d
00000100: 9280 183e fb9c 00bd f59c 96bc 3e77 9c3d
00000110: d9f8 06be 61cc acbc f65a 0dbe 5102 eabd
00000120: d59a 8b3c 5f10 cabd 3555 a8bd 6208 7abd
00000130: 653c 26be 3436 debd 4ac1 873d ae38 30be
00000140: d711 f8bd 6faf 363e 8792 c93d 0355 f2bd
00000150: 0843 db3d 2699 9e3d 4008 8c3d 155c abbd
00000160: 6606 96bd ee2c d03d 82c1 823d 5baf 9f3d
00000170: 2911 343e c5c8 19bd 04d8 0c3e aa2a a1bd
00000180: 2966 b2bd 0861 65bb 6825 763c 70fa 16be
00000190: fdcd 903c bcc7 643d 6ac0 283e b066 db3d
000001a0: 9510 f33d bc87 53bc 5a7f dfbd d651 d0bd
000001b0: 2bfb 8a3d 8006 073e 014e 01be 98a1 803d
000001c0: b3cb 6d3d 46cc 2fbe 0d81 223e 4a55 b23d
000001d0: 7a66 413c 1be1 f63a b60f 9a3c ed78 143e

bias_hh_l1 f4 [120]
0.07551134 -0.10795176 0.022040134 0.07458504 0.11547656 0.013453188 0.11949535 -0.092713885
-0.11291771 -0.10509134 0.018727668 -0.017163418 -0.05016608 -0.01978004 0.13068733 0.10662684
0.12462995 0.17811775 0.14352003 -0.0736035 -0.08084477 0.034896806 -0.08834031 -0.06316088
-0.022594694 0.02651476 0.11628134 0.11862861 0.018732546 -0.045382444 0.07038051 0.0642014
0.057270937 -0.059860647 -0.099662274 -0.08388076 -0.13928686 0.040218405 0.053153414 0.12996966
0.13206738 0.13243163 -0.10505733 0.052504867 -0.0197064 0.056244012 -0.11462147 0.1338786
0.07233314 0.06458787 0.03598526 0.0010396285 -0.09266925 -0.07439438 -0.11168302 -0.10692121
-0.12702063 0.067084484 -0.07737582 0.1153957 0.11179661 -0.0028437849 0.05275624 0.106921345
-0.16248854 0.025445497 -0.052886084 0.1377684 0.016835986 -0.10904508 -0.15216127 0.021522477
0.028275644 -0.073575005 0.07030059 -0.09458103 -0.10703714 0.02704021 0.007814929 0.026276723
0.09230916 0.14599775 0.010454691 -0.121661864 -0.006302766 0.02965584 0.10302179 -0.09084579
-0.0005231453 -0.14542936 0.04396468 0.064478956 -0.016652681 -0.06472451 -0.1256408 -0.015260263
0.15827388 0.06333598 -0.11875506 0.071263604 -0.016677443 -0.03042768 0.1763394 0.07854654
-0.10830185 -0.048157845 0.123749785 -0.12783076 -0.13762169 -0.056834716 0.081842475 0.09021964
-0.11208959 -0.17549612 -0.046574306 0.13161966 -0.1389882 -0.12564325 0.06203512 0.14686038
00000000: b0a5 9a3d d015 ddbd 838d b43c 0bc0 983d
00000010: fa7e ec3d c36a 5c3c fab9 f43d c7e0 bdbd
00000020: 6641 e7bd 213a d7bd c46a 993c 4c9a 8cbc
00000030: f37a 4dbd c009 a2bc e6d2 053e 2c5f da3d
00000040: fd3d ff3d 8064 363e eaf6 123e 6fbd 96bd
00000050: f191 a5bd f4ef 0e3d c4eb b4bd 7e5a 81bd
00000060: 8218 b9bc 7b35 d93c e924 ee3d 8ff3 f23d
00000070: ff74 993c f1e2 39bd a823 903d 067c 833d
00000080: ee94 6a3d 7030 75bd bc1b ccbd adc9 abbd
00000090: 37a1 0ebe 0ebc 243d 65b7 593d c416 053e
000000a0: ac3c 073e 289c 073e 4c28 d7bd 580f 573d
000000b0: 516f a1bc 1f60 663d a9be eabd 7917 093e
000000c0: 6623 943d a546 843d 4865 133d 2544 883a
000000d0: 60c9 bdbd 155c 98bd 11ba e4bd 82f9 dabd
000000e0: b211 02be 9763 893d 3777 9ebd 9554 ec3d
000000f0: 9ff5 e43d cb5e 3abb ed16 583d 94f9 da3d
00000100: 6563 26be 1373 d03c 149f 58bd 2913 0d3e
00000110: 9feb 893c 0753 dfbd 2ad0 1bbe e84f b03c
00000120: 53a2 e73c 7eae 96bd c1f9 8f3d b3b3 c1bd
00000130: 4a36 dbbd 6e83 dd3c 300a 003c 4842 d73c
00000140: 960c bd3d 6f80 153e 274a 2b3c db29 f9bd
00000150: 6f87 cebb cef0 f23c 17fd d23d 5c0d babd
00000160: b023 09ba 6feb 14be 4f14 343d 8b0d 843d
00000170: 346b 88bc 498e 84bd fba7 00be 2f06 7abc
00000180: 8c12 223e 4bb6 813d da35 f3bd a7f2 913d
00000190: 229f 88bc 7843 f9bc 5192 343e 02dd a03d
000001a0: 5ccd ddbd 2941 45bd 8770 fd3d 11e6 02be
000001b0: b3ec 0cbe 85cb 68bd 079d a73d 13c5 b83d
000001c0: 3a8f e5bd 41b5 33be b3c4 3ebd 4ec7 063e
000001d0: ec52 0ebe a0a8 00be 8a18 7e3d 9162 163e

weight f4 [40, 40]
-0.104788415 0.076945975 -0.111659594 -0.060168486 -0.086030334 0.04884694 -0.09875695 0.10552551
0.058105726 -0.11702651 -0.06699585 0.06737131 -0.13188499 -0.011877479 -0.12465321 -0.100172676
0.046379853 0.09593352 -0.07218776 0.06727159 -0.063376345 0.036538705 0.020462997 0.1212223
0.11336366 -0.11633657 0.069723375 -0.1425636 -0.053679056 0.17091554 -0.11414868 0.040103715
0.044605732 0.027603973 0.032260023 0.13374506 -0.15029797 0.068998 -0.11260396 0.19370975
0.06259665 0.0960396 -0.028367508 -0.098060675 -0.073339835 -0.10128637 0.15484677 0.1845983
0.13635759 -0.02689718 -0.15566719 -0.1609733 0.027199036 0.068803295 -0.08063919 -0.11288499
-0.03337485 -0.054006252 -0.08280491 0.0427853 0.054984365 -0.18414828 -0.038109016 0.08344279
-0.073887944 0.03430213 -0.045013588 0.0073487107 -0.13995972 -0.08625595 0.17277013 -0.07742531
0.086181454 0.07775311 -0.17126465 -0.18664418 -0.035492934 0.10974843 0.13555689 0.03347732
-0.116230756 0.12042023 0.09495695 -0.11301236 0.15193878 0.02286703 0.05151743 -0.08239071
0.08597516 -0.012445824 0.051198848 -0.07814416 0.15169677 0.07499734 0.062181704 0.018433722
-0.14106701 -0.029572306 -0.09888502 -0.0660298 -0.09540853 -0.13703513 -0.028750367 0.15914945
-0.035912197 -0.06353501 0.14327045 -0.119129434 -0.15265155 0.03046408 -0.041577335 0.07867214
0.0024127837 0.013628806 0.08555193 0.062724665 0.06285951 -0.055311523 0.120748274 0.08732879
0.10285248 -0.060578443 -0.023930585 0.03355353 -0.08706007 0.099803224 0.03721639 -0.065091565
0.005801727 -0.025686868 0.009437036 0.04503146 0.10510846 0.15226401 0.13660456 -0.038974013
0.12068662 0.0279834 -0.028513886 -0.08757726 0.020197848 -0.03457672 -0.0063304305 -0.1291341
-0.12765142 -0.04930568 0.08297651 0.120084606 0.07913255 0.090116315 0.18350942 -0.14685838
-0.023944471 0.072004564 -0.06675808 -0.15539293 -0.12595779 -0.0689666 0.09227865 0.08108747
0.15443069 0.11563937 -0.007716103 0.09726387 -0.13748133 0.16637747 -0.020982461 -0.05123231
0.045835648 -0.043056775 0.12852247 0.018454313 -0.118668355 0.15726925 0.121624485 0.05020583
-0.025402237 0.037428554 0.026363129 -0.1707381 -0.08737394 0.095114924 -0.025441287 0.04119237
0.15679985 -0.025899457 -0.053043786 0.094365284 -0.07880995 0.09764209 0.13782246 0.033873096
0.08139851 -0.070693456 -0.07034335 0.08753679 0.018071856 -0.17030215 -0.16302411 -0.04693332
0.07708579 -0.061324704 -0.17019846 0.1372861 0.17922783 -0.019883307 0.06106111 0.14130633
-0.14360298 -0.08659637 -0.16592094 0.06948127 -0.045287613 -0.05697941 -0.020770883 -0.17079137
-0.15771893 -0.04069179 0.14318381 -0.094928466 -0.068248466 -0.059521347 0.1402357 -0.06610228
-0.03378994 -0.024784343 0.09112602 -0.18975215 0.011594968 -0.024466222 -0.04290819 -0.039489243
0.04694184 0.11491644 0.04707406 -0.16077226 -0.0875457 -0.038559765 0.062344056 0.15540211
-0.001632933 0.11859298 0.14323103 -0.08069459 -0.00069367763 0.12144769 0.12663613 -0.04248113
-0.037253644 0.10678407 -0.047210623 -0.051837884 -0.02004452 -0.049285516 -0.10633371 0.005713469
00000000: 4f9b d6bd da95 9d3d c9ad e4bd 3b73 76bd
00000010: ac30 b0bd bb13 483d 1541 cabd c21d d83d
00000020: 4500 6e3d 98ab efbd 1f35 89bd f8f9 893d
00000030: dc0c 07be c299 42bc 2f4a ffbd 5527 cdbd
00000040: cdf8 3d3d cb78 c43d 2dd7 93bd b0c5 893d
00000050: 75cb 81bd 9ca9 153d 04a2 a73c 6643 f83d
00000060: 352b e83d de41 eebd 21cb 8e3d 31fc 11be
00000070: 92de 5bbd 7c04 2f3e c8c6 e9bd cb43 243d
00000080: 80b4 363d ba21 e23c 1623 043d 77f4 083e
00000090: b6e7 19be d34e 8d3d e89c e6bd d95b 463e
000000a0: ac32 803d 69b0 c43d fa62 e8bc 09d4 c8bd
000000b0: 3233 96bd 3a6f cfbd 2790 1e3e 5607 3d3e
000000c0: 53a1 0b3e 7a57 dcbc 3867 1fbe 2fd6 24be
000000d0: 83d0 de3c bee8 8c3d 2926 a5bd 3f30 e7bd
000000e0: 11b4 08bd a935 5dbd 9f95 a9bd a43f 2f3d
000000f0: 4937 613d 5e91 3cbe 3318 1cbd 0ee4 aa3d
00000100: 9052 97bd 6480 0c3d 2b60 38bd 74cd f03b
00000110: 9a51 0fbe f6a6 b0bd a7ea 303e 2991 9ebd
00000120: e77f b03d 063d 9f3d 0060 2fbe a71f 3fbe
00000130: 0a61 11bd c9c3 e03d 6dcf 0a3e 841f 093d
00000140: 640a eebd e29e f63d ca78 c23d 0673 e7bd
00000150: d795 1b3e a353 bb3c f103 533d 76bc a8bd
00000160: bf13 b03d 92e9 4bbc e2b5 513d 0c0a a0bd
00000170: 6656 1b3e 3598 993d 3eb2 7e3d 5102 973c
00000180: df73 10be 9f41 f2bc 3b84 cabd a23a 87bd
00000190: 8c65 c3bd f052 0cbe e485 ebbc 13f8 223e
000001a0: ab18 13bd a51e 82bd 7db5 123e 22fa f3bd
000001b0: b050 1cbe ce8f f93c ff4c 2abd dc1e a13d
000001c0: cb1f 1e3b 5b4b 5f3c da35 af3d ca75 803d
000001d0: 7dbc 803d 568e 62bd df4a f73d 70d9 b23d
000001e0: 52a4 d23d 1a21 78bd 130a c4bc 6d6f 093d
000001f0: 8d4c b2bd a265 cc3d 3770 183d ba4e 85bd
00000200: 6a1c be3b 446d d2bc cc9d 1a3c e872 383d
00000210: 1b43 d73d 19eb 1b3e 11e2 0b3e 37a3 1fbd
00000220: 8c2a f73d 713d e53c f495 e9bc b55b b3bd
00000230: f575 a53c 52a0 0dbd 806f cfbb bb3b 04be
00000240: 0eb7 02be c1f4 49bd 97ef a93d ebee f53d
00000250: 3f10 a23d e78e b83d e5e9 3b3e 0b62 16be
00000260: 3227 c4bc 2177 933d 76b8 88bd 531f 1fbe
00000270: 14fb 00be 5c3e 8dbd 97fc bc3d 3011 a63d
00000280: 1423 1e3e 56d4 ec3d 5dd7 fcbb 4832 c73d
00000290: e8c7 0cbe db5e 2a3e 69e3 abbc f8d8 51bd
000002a0: 29be 3b3d 4d5c 30bd 659b 033e 802d 973c
000002b0: 6508 f3bd 310b 213e 4216 f93d a1a4 4d3d
000002c0: 5a18 d0bc af4e 193d 7df7 d73c f8d5 2ebe
000002d0: 1cf1 b2bd 9dcb c23d 3f6a d0bc 55b9 283d
000002e0: 2490 203e 192b d4bc 7144 59bd 9642 c13d
000002f0: 1c67 a1bd 93f8 c73d 5521 0d3e 84be 0a3d
00000300: 43b4 a63d bbc7 90bd 2d10 90bd 7d46 b33d
00000310: 6e0b 943c b063 2ebe cbef 26be 273d 40bd
00000320: 28df 9d3d 9d2f 7bbd 8148 2ebe ba94 0c3e
00000330: 8087 373e 51e2 a2bc 371b 7a3d 9bb2 103e
00000340: a90c 13be 7059 b1bd 2ee7 29be 324c 8e3d
00000350: 817f 39bd 3e63 69bd b327 aabc efe3 2ebe
00000360: 1281 21be 6fac 26bd c79e 123e db69 c2bd
00000370: dac5 8bbd a8cc 73bd f399 0f3e a260 87bd
00000380: 5267 0abd 8908 cbbc 47a0 ba3d 634e 42be
00000390: d2f8 3d3c 636d c8bc 80c0 2fbd 79bf 21bd
000003a0: 1646 403d 4f59 eb3d bbd0 403d 7ca1 24be
000003b0: 294b b3bd d8f0 1dbd 7b5c 7f3d bb21 1f3e
000003c0: 2408 d6ba e0e0 f23d 28ab 123e 3543 a5bd
000003d0: ebd7 35ba 91b9 f83d e7ac 013e b200 2ebd
000003e0: 4797 18bd 9bb1 da3d ed5f 41bd f653 54bd
000003f0: 6834 a4bc 9cdf 49bd 7dc5 d9bd 0d38 bb3b

bias f4 [40]
-0.062169027 -0.000803216 0.06919945 -0.0663734 0.056461647 -0.12148915 0.15169793 -0.07392187
-0.11411688 0.068606526 0.10508915 0.12660585 -0.07389792 0.008916145 -0.086397596 -0.03185217
0.08420018 0.05028527 -3.0168652e-05 0.081854135 -0.005947062 -0.09566959 -0.05420093 -0.03215269
-0.01574024 0.04266045 0.009113712 0.10223896 -0.10106876 0.018719258 0.05198039 -0.009865982
-0.008493247 -0.09371866 0.08904684 -0.0144797675 -0.1038285 0.118444964 0.12615384 0.025580369
00000000: f3a4 7ebd ea8e 52ba 71b8 8d3d c7ee 87bd
00000010: 5444 673d 4ecf f8bd b456 1b3e 5964 97bd
00000020: 1cb6 e9bd 9481 8c3d fb38 d73d f7a4 013e
00000030: cb57 97bd 0615 123c 39f1 b0bd 6c77 02bd
00000040: 2571 ac3d edf7 4d3d b012 fdb7 24a3 a73d
00000050: 92df c2bb 6bee c3bd cb01 5ebd 8ab2 03bd
00000060: adf1 80bc b9bc 2e3d ae51 153c a962 d13d
00000070: 23fd cebd 2159 993c 64e9 543d eea4 21bc
00000080: 4327 0bbc 92ef bfbd 315e b63d 8c3c 6dbc
00000090: 09a4 d4bd 4693 f23d 792e 013e ec8d d13c

weight f4 [40, 40]
-0.020849511 -0.042743172 0.10659129 -0.059183307 0.11099665 -0.057968553 0.095443696 -0.099249795
-0.17226647 0.10185812 -0.09754055 0.16927262 -0.15939139 -0.080594055 0.039670438 -0.18190022
-0.11890186 -0.1295896 0.13599235 0.11013861 0.12074777 0.10155613 0.17552657 -0.1708238
0.18122192 0.01938356 -0.10647702 0.028455682 0.1210775 -0.020236863 -0.09827554 -0.047125317
-0.0061125364 0.05512698 0.10114408 0.034004647 -0.11846804 -0.11124418 -0.018855186 -0.012619637
0.14299607 -0.04440446 0.03987018 -0.045694552 0.07341542 -0.12564029 0.119817674 0.10053711
0.011820566 0.036914665 0.0054250467 0.10744915 0.08161224 -0.09290546 -0.043362077 -0.14249894
0.10742519 0.13349214 -0.08109022 -0.094843954 0.055416618 0.026354963 0.20656417 0.046719
0.10637343 -0.06661801 -0.046145577 0.06188026 -0.04285326 -0.1672598 -0.027214035 0.10487859
0.05820602 -0.08139184 0.088423654 -0.16195665 -0.055491544 0.12598123 -0.05149934 0.11747016
0.09081828 0.13353167 -0.11549108 0.14011721 0.11006878 0.16114391 0.044468418 -0.17138682
0.016972864 0.13810559 -0.1133779 -0.15759592 0.14891674 0.13989118 0.10223661 0.018644832
0.027704995 0.03913429 0.01977242 0.09698542 -0.09722732 0.05565192 -0.07978943 -0.08568679
-0.06663037 0.120900236 0.09222223 -0.04866936 0.019287534 0.10293819 0.10379241 -0.057657953
0.15285134 -0.1336266 -0.06468571 -0.08778563 0.049218085 0.042100348 0.074352875 -0.106684364
0.026038116 -0.07386692 0.034348615 -0.062341776 -0.10735802 0.014545115 0.1903484 -0.066301
0.08442421 0.13176188 0.0011650417 0.19471735 0.12468506 -0.10574621 0.0034487173 0.091202006
-0.1032836 0.048318442 0.11556544 0.104498856 -0.004187364 -0.060076088 0.11477624 0.08861551
-0.07451766 0.099116266 0.081892595 0.0371244 -0.03920027 0.11866264 -0.120837614 -0.09298868
-0.012591623 -0.00029040241 0.11956509 -0.026402721 0.010268456 -0.05981316 0.042886995 0.19585973
0.107728824 -0.024245895 0.12189522 0.07232036 -0.18350449 0.18294722 -0.079154395 0.12536705
0.008068406 -0.0392395 0.079290524 -0.11810273 -0.022244425 0.028268674 0.103055984 0.11285808
0.12402295 0.04596144 -0.044858046 0.038750306 -0.042734746 -0.083808206 -0.110126965 -0.029216109
-0.07339417 -0.08898163 0.13812153 -0.011014418 -0.06357024 0.18757597 -0.08171412 0.14926817
-0.018012503 -0.03898885 -0.089167796 -0.031099489 0.13726415 0.084212825 -0.02648085 -0.107164145
0.16343549 -0.11127756 -0.12841764 0.10312561 0.09228863 -0.09966349 0.08135789 -0.07346917
-0.055042986 0.113922045 0.029149173 0.075077906 0.05485925 0.028159421 -0.1362885 -0.12007896
0.095507696 0.10727312 0.14700441 -0.12601611 -0.120936714 0.10474605 0.10484652 -0.16139987
-0.06615332 0.11792877 -0.06622698 0.12480087 -0.073260896 0.100059405 -0.14618787 -0.096839786
0.004351814 0.10960398 -0.08092077 -0.08268038 0.027396621 0.03428914 -0.05488217 -0.07623659
0.099454276 0.16403313 -0.16676933 0.07326423 -0.06489274 0.032063086 -0.1336148 -0.036007095
0.18890567 0.0974667 0.008885267 -0.15035897 0.08051765 0.06985725 0.18439272 0.08364964
00000000: 98cc aabc 7713 2fbd 894c da3d 326a 72bd
00000010: 3652 e33d 6f70 6dbd fc77 c33d 7a43 cbbd
00000020: 9f66 30be fd9a d03d 57c3 c7bd cd55 2d3e
00000030: 7f37 23be 7f0e a5bd 787d 223d 0d44 3abe
00000040: d282 f3bd 23b3 04be 9441 0b3e 5a90 e13d
00000050: 9b4a f73d a9fc cf3d 3dbd 333e 6fec 2ebe
00000060: 3d92 393e 46ca 9e3c a010 dabd e41b e93c
00000070: 7bf7 f73d c7c7 a5bc b044 c9bd 7a06 41bd
00000080: ac4b c8bb d4cc 613d a124 cf3d 7548 0b3d
00000090: 5f9f f2bd fdd3 e3bd 3176 9abc 98c2 4ebc
000000a0: 906d 123e 73e1 35bd ea4e 233d 362a 3bbd
000000b0: d35a 963d d9a7 00be f862 f53d 66e6 cd3d
000000c0: 0cab 413c d533 173d 97c4 b13b 4d0e dc3d
000000d0: 5124 a73d 3845 bebd 6f9c 31bd 3eeb 11be
000000e0: bd01 dc3d 2ab2 083e a112 a6bd 8c3d c2bd
000000f0: 89fc 623d 5de6 d73c 8f85 533e 6c5c 3f3d
00000100: 50da d93d 066f 88bd 2503 3dbd 2876 7d3d
00000110: e686 2fbd 2746 2bbe f8ef debc 96ca d63d
00000120: 7069 6e3d c4b0 a6bd 7617 b53d f7d7 25be
00000130: 1a4b 63bd 3901 013e f9f0 52bd 3294 f03d
00000140: effe b93d 87bc 083e 9686 ecbd e37a 0f3e
00000150: be6b e13d e902 253e 8424 363d 0780 2fbe
00000160: ad0a 8b3c 8d6b 0d3e ac32 e8bd d360 21be
00000170: a17d 183e a23f 0f3e 6e61 d13d 0cbd 983c
00000180: 96f5 e23c 474b 203d c5f9 a13c 4ba0 c63d
00000190: 1e1f c7bd 45f3 633d a468 a3bd 8e7c afbd
000001a0: 8175 88bd 8b9a f73d 02df bc3d 8659 47bd
000001b0: e400 9e3c 42d1 d23d 1d91 d43d bf2a 6cbd
000001c0: 1085 1c3e 69d5 08be f179 84bd f4c8 b3bd
000001d0: e798 493d 6a71 2c3d 5246 983d 557d dabd
000001e0: e34d d53c 8a47 97bd 22b1 0c3d 175a 7fbd
000001f0: 86de dbbd a24e 6e3c b1ea 423e d2c8 87bd
00000200: 9ae6 ac3d 96ec 063e 50b4 983a fc63 473e
00000210: e15a ff3d 7891 d8bd e003 623b 1ec8 ba3d
00000220: 5a86 d3bd 8fe9 453d 93ad ec3d 7f03 d63d
00000230: 2836 89bb 5812 76bd ce0f eb3d 0c7c b53d
00000240: b79c 98bd 78fd ca3d 4eb7 a73d c10f 183d
00000250: 7690 20bd 6605 f33d b679 f7bd d970 bebd
00000260: 184d 4ebc 2741 98b9 8bde f43d 854a d8bc
00000270: 073d 283c a5fe 74bd 46aa 2f3d 748f 483e
00000280: eea0 dc3d 549f c6bc 33a4 f93d b21c 943d
00000290: 9ae8 3bbe 8456 3b3e b31b a2bd 3860 003e
000002a0: 5931 043c 99b9 20bd 1263 a23d d8df f1bd
000002b0: f139 b6bc b593 e73c 040f d33d 2322 e73d
000002c0: bfff fd3d 1042 3c3d 12bd 37bd a4b8 1e3d
000002d0: a10a 2fbd a3a3 abbd 3f8a e1bd 9f56 efbc
000002e0: af4f 96bd 003c b6bd bb6f 0d3e d175 34bc
000002f0: 1d31 82bd ea13 403e bc59 a7bd c1d9 183e
00000300: f58e 93bc c6b2 1fbd 9b9d b6bd 5bc4 febc
00000310: f98e 0c3e c677 ac3d 5eee d8bc e078 dbbd
00000320: a25b 273e 7de5 e3bd ea7f 03be 8533 d33d
00000330: d201 bd3d 5f1c ccbd f79e a63d 0177 96bd
00000340: c174 61bd f64f e93d 3fca ee3c 72c2 993d
00000350: 18b4 603d 96ae e63c 368f 0bbe f5eb f5bd
00000360: 8a99 c33d 02b2 db3d 5388 163e 5e0a 01be
00000370: abad f7bd 1985 d63d c6b9 d63d 0246 25be
00000380: 647b 87bd a484 f13d 03a2 87bd 9997 ff3d
00000390: cf09 96bd f2eb cc3d 46b2 15be f053 c6bd
000003a0: a999 8e3b 0d78 e03d cab9 a5bd 5554 a9bd
000003b0: e16e e03c c572 0c3d 20cc 60bd ee21 9cbd
000003c0: afae cb3d 4df8 273e 94c5 2abe 8e0b 963d
000003d0: 7ce6 84bd 9554 033d 51d2 08be 2d7c 13bd
000003e0: 7d70 413e 9f9c c73d 8393 113c b4f7 19be
000003f0: 70e6 a43d 5111 8f3d 72d1 3c3e 8150 ab3d
