Results/0056_generator1.pth (torch, 159475 bytes, 32 tensors)

weight_ih_l0 f4 [120, 20]
0	0xbe2ac26b	-0.16675727
1	0x3c256205	0.01009417
2	0xbe0f627f	-0.14002417
3	0x3dc75826	0.0973361
4	0xbda91a7c	-0.082570046
5	0xbc203736	-0.009778788
6	0x3da412c3	0.08011391
7	0xbde5edd7	-0.11227005
8	0x3d87d16f	0.06631743
9	0xbda724e4	-0.08161333
10	0xbb900ae6	-0.0043958304
11	0xbe6faa0b	-0.2340471
12	0x3e77057a	0.24123183
13	0x3deafc4a	0.114739016
14	0xbd14a8b2	-0.036293693
15	0x3d70faa6	0.058832787
16	0x3df7fd4b	0.12108859
17	0xbe36e340	-0.17860126
18	0xbcae2900	-0.021259785
19	0x3d0489ff	0.032358166
20	0xbdbc3e3a	-0.09191556
21	0xbdb5d351	-0.08878196
22	0xbd8efeb9	-0.06982178
23	0x3d90c4f1	0.070688136
24	0x3b24ff73	0.0025176674
25	0x3db10077	0.08642667
26	0xbc0d6cf8	-0.008631937
27	0xbd7c4c8f	-0.06159645
28	0xbd7e84d9	-0.062138412
29	0xbdc547fc	-0.096328706
30	0x3ea81ef9	0.3283613
31	0x3da9c750	0.08289969
32	0xbe4b3f97	-0.19848476
33	0xbe256ea3	-0.16155486
34	0x3d09df32	0.03366012
35	0x3ea74d23	0.32676038
36	0x3e770c73	0.24125843
37	0xbd6822b4	-0.05667372
38	0x3e09cce2	0.13457063
39	0x3cd3df65	0.025863359
40	0x3e05fb94	0.1308425
41	0x3e8facf6	0.28061646
42	0x3e529361	0.20564033
43	0x3e0b9317	0.13630329
44	0x3e94cc04	0.29061902
45	0x3e9ce785	0.30645385
46	0x3dc96c14	0.098350674
47	0x3dce1699	0.10062904
48	0x3e38fc6a	0.18065038
49	0x3e2d37c8	0.1691581
50	0x3c6bf6f8	0.014402144
51	0xbb517471	-0.0031960274
52	0x3e46527e	0.19367406
53	0xbd54fbf0	-0.05199808
54	0x3e006332	0.1253784
55	0x3e241833	0.16024856
56	0xbdf07908	-0.11741835
57	0xbe216388	-0.15760624
58	0x3d3733fd	0.044727314
59	0xbd1b234c	-0.03787546
60	0x3d52b227	0.05143943
61	0xbdd506e5	-0.10401706
62	0x3d4269c7	0.04746416
63	0xbd9a60a2	-0.075379625
64	0xbdd3d6cb	-0.10343703
65	0x3dd7de1b	0.1054041
66	0xbd0bddcb	-0.034147065
67	0x3e281d6e	0.16417477
68	0xbde1a43c	-0.11017653
69	0x3e0d4afd	0.13798137
70	0x3e51a749	0.2047397
71	0xbdfe17ad	-0.124068595
72	0xbdb5eff9	-0.08883662
73	0xbbeab983	-0.007163228
74	0xbe998a83	-0.2998849
75	0x3dcfc3f8	0.101448
76	0x3e75c0a4	0.23999268
77	0x3da1f110	0.07907307
78	0x3e0452cd	0.12922211
79	0xbde422c0	-0.111394405
80	0x3cca4a4f	0.024693636
81	0x3db9d217	0.090732746
82	0xbe10f9c1	-0.14157774
83	0x3be42e59	0.006963533
84	0x3dcc5136	0.09976427
85	0x3e289517	0.16463123
86	0x3dce8be1	0.100852735
87	0x3db8033a	0.089849904
88	0xbcf0b35d	-0.029382402
89	0xbbeeb1b2	-0.0072843665
90	0xbdf6d65e	-0.12052606
91	0x3d202d57	0.03910574
92	0xbde81965	-0.113329686
93	0xbdbf8e62	-0.09353329
94	0x3cdb377a	0.026759852
95	0xbe471bbc	-0.19444174
96	0xbd43722e	-0.047716312
97	0x3e2b6811	0.16738917
98	0x3e720212	0.23633602
99	0xbdcf347f	-0.10117435
100	0x3e35c068	0.17749178
101	0x3d8e599c	0.069506854
102	0x3d33c8f3	0.043892812
103	0xbdb40fcc	-0.087920755
104	0xbd1deb36	-0.038554393
105	0xbd1ff4c9	-0.039051805
106	0x3d4ac920	0.049508214
107	0xbd38b25f	-0.045091983
108	0x3c527c47	0.012847013
109	0xbcd7639b	-0.026292613
110	0x3e502582	0.20326808
111	0xbd17891b	-0.03699599
112	0xbda31c29	-0.079643555
113	0xbd70b752	-0.058768578
114	0xbde30430	-0.11084783
115	0x3e3f1711	0.18661143
116	0x3e6e39ff	0.23264311
117	0x3e2fc1ae	0.17163727
118	0xb9cc755c	-0.00038997352
119	0x3e33d99b	0.17563479
120	0x3d17f45a	0.037098266
121	0xbbb81c44	-0.005618604
122	0xbcc4b840	-0.024013638
123	0x3cb0d1a9	0.021584349
124	0xbe3cf1f8	-0.18451679
125	0xbe011fa4	-0.12609726
126	0x3c18cf8e	0.009326829
127	0xbd925e4d	-0.07146893
128	0x3d25af67	0.04045048
129	0xbda15c05	-0.078788795
130	0x3d780876	0.060554944
131	0x3d248439	0.04016516
132	0xbdc0be86	-0.094113395
133	0xbda232cb	-0.07919844
134	0x3ca39c90	0.019972116
135	0xbbf7728a	-0.007551496
136	0x3e568902	0.20950702
137	0x3bde5eef	0.0067862193
138	0x3cb6218f	0.022232799
139	0x3e415581	0.18880273
140	0xbd150b42	-0.03638769
141	0x3c61b583	0.013776186
142	0x3e7093b9	0.23493852
143	0x3da2328b	0.079197966
144	0xbccfbe2d	-0.025359238
145	0xbcd490ce	-0.025947955
146	0x3daa392b	0.08311685
147	0x3c9d9dde	0.019240316
148	0xbd037b70	-0.03210014
149	0x3e732817	0.23745762
150	0x3e6f9453	0.23396425
151	0x3df9f4f0	0.12204921
152	0x3c11fcbe	0.008910356
153	0xbe882e82	-0.26597983
154	0xbe3729ba	-0.17887011
155	0x3e1f849c	0.1557793
156	0xbd1783a6	-0.036990784
157	0x3dcae4da	0.09906931
158	0x3d42cd4b	0.047559064
159	0x3e2f6371	0.17127778
160	0x3e06afc0	0.13152981
161	0x3dd94673	0.1060914
162	0x3cbf794b	0.023373267
163	0xbdbb186e	-0.09135519
164	0x3e112b7e	0.14176747
165	0xbcd04469	-0.025423246
166	0x3e25c355	0.16187795
167	0x3bdadbf2	0.0066790516
168	0x3dab693a	0.0836968
169	0x3d872875	0.065995134
170	0x3e9d6ca3	0.30746946
171	0x3d1dc7b0	0.038520515
172	0xbeba97ab	-0.36443838
173	0xbdf49979	-0.11943335
174	0xbeab23e2	-0.33425814
175	0x3e8bf8f7	0.27338383
176	0x3e59df88	0.21276677
177	0x3e43712f	0.19086145
178	0xbd81307a	-0.06308074
179	0x3de49194	0.11160579
180	0x3dca75a9	0.09885723
181	0x3dde36b3	0.10850277
182	0x3d86ac21	0.065758
183	0xbd9a7d55	-0.075434364
184	0x3dab2130	0.083559394
185	0xbdcd0f19	-0.10012645
186	0x3da82e7a	0.0821199
187	0xbcd9fe39	-0.02661048
188	0xbd795972	-0.060876317
189	0xbd216bc2	-0.039409406
190	0x3cb9e14e	0.022690441
191	0xbd61f188	-0.055161983
192	0xbe262a70	-0.16227126
193	0x3d12fd68	0.0358862
194	0xbcf7f462	-0.030267898
195	0xbe5196d4	-0.20467693
196	0x3da10225	0.07861737
197	0x3db60874	0.08888331
198	0x3d884cbc	0.06655261
199	0x3e4063bf	0.1878805
200	0xbe28d592	-0.1648772
201	0xbb1cfb1c	-0.0023953384
202	0xbe555b7b	-0.20835678
203	0xbe111666	-0.141687
204	0x3c9cfc4f	0.019163279
205	0xbe7a0726	-0.2441679
206	0xbe24aa5e	-0.16080615
207	0xbe64f678	-0.22359645
208	0xbd5b4a3a	-0.053537585
209	0xbe829810	-0.2550664
210	0x3e7cc4ab	0.24684398
211	0xbd488728	-0.04895702
212	0xbd105c94	-0.03524454
213	0xbe32baab	-0.1745402
214	0xbe6f72ad	-0.23383589
215	0x3d8def85	0.0693045
216	0x3ec2cddc	0.38047683
217	0x3ea12b3c	0.31478298
218	0xbe0c4080	-0.1369648
219	0x3db47922	0.08812167
220	0xbddc0888	-0.10743815
221	0xbe670503	-0.22560506
222	0x3db00f4a	0.08596666
223	0x3ca6ce50	0.02036205
224	0xbdc1abae	-0.094565734
225	0xbdc134e8	-0.09433919
226	0x3d670c67	0.056408312
227	0xbcfed4f4	-0.031107403
228	0xbe45276e	-0.19253322
229	0xbe33a99e	-0.17545173
230	0x3e0b28b4	0.13589746
231	0x3dde794b	0.108629785
232	0x3d043d5c	0.03228508
233	0xbe0b9516	-0.1363109
234	0xbe41a5a0	-0.18910837
235	0x3eabaf4c	0.33532178
236	0x3e003791	0.12521197
237	0x3da6b69a	0.08140297
238	0xbdba9f72	-0.09112443
239	0x3dd16c06	0.10225682
240	0x3d70902a	0.058731236
241	0xbd123afb	-0.03570078
242	0xbd5fa660	-0.054602027
243	0x3bb1b800	0.005423546
244	0xbbe0f05c	-0.0068645906
245	0x3df87279	0.12131209
246	0x3e084769	0.13308491
247	0xbdb50ae8	-0.08839971
248	0x3e023647	0.12716018
249	0x3d1c2c19	0.038127992
250	0x3d8c49f6	0.068500444
251	0x3e59d140	0.21271229
252	0xbce1831c	-0.027528338
253	0xbd612ea0	-0.054976106
254	0xbe4861c3	-0.19568543
255	0x3e5709b3	0.20999794

weight_hh_l0 f4 [120, 40]
0	0x3cb5b54a	0.022181172
1	0x3dba38ee	0.0909289
2	0xbbed849d	-0.0072484748
3	0x3dea2659	0.114330955
4	0x3d2c7355	0.042102177
5	0xbe04cb70	-0.1296823
6	0x3e125742	0.14291099
7	0xbe372438	-0.1788491
8	0x3d536ab2	0.051615424
9	0x3d8f050e	0.06983386
10	0xbdd7ec24	-0.10543087
11	0x3c06a02d	0.0082169
12	0xbdbad00e	-0.091217145
13	0x3c48108e	0.012210978
14	0xbe642982	-0.22281459
15	0xbd4c4d44	-0.049878374
16	0x3dd88527	0.10572272
17	0xbc7ad47e	-0.015309451
18	0xbb1e3008	-0.0024137516
19	0x3dd4077b	0.10352989
20	0x3e080027	0.13281308
21	0xba964f62	-0.001146775
22	0x3df50c34	0.11965218
23	0x3d8ee139	0.069765516
24	0x3e902e24	0.28160203
25	0xbb5b93f6	-0.003350494
26	0x3da22acf	0.07918321
27	0x3e4bd6a6	0.199061
28	0x3d7f2fb2	0.062301345
29	0xbcb7b9c1	-0.022427442
30	0x3d7974d3	0.060902428
31	0x3dc70505	0.09717754
32	0xbdf367fc	-0.11885068
33	0xbe00ae29	-0.12566437
34	0x3e113cd7	0.14183365
35	0x3cf4ce6b	0.029883584
36	0xbbc16abe	-0.0059026172
37	0xbce09dd4	-0.027419008
38	0xbdee73c6	-0.11643176
39	0x3c5e1329	0.013554373
40	0x3cdfd6b5	0.02732406
41	0xbd990a51	-0.07472671
42	0x3dd4bdfa	0.10387798
43	0x3d601f10	0.054717124
44	0x3d935481	0.07193852
45	0x3cdebf4e	0.02719083
46	0xbdbb7abe	-0.091542706
47	0xbbea5c2e	-0.007152102
48	0xbccd3f04	-0.025054462
49	0xbda0c8b1	-0.07850779
50	0xbcd2cb89	-0.025731819
51	0x3db2939e	0.08719562
52	0xbdf36211	-0.11883939
53	0xbdd777bb	-0.10520884
54	0x3e230c3c	0.15922636
55	0x3cf2df3c	0.029647462
56	0xbe8c3154	-0.27381384
57	0xbcd4ff2d	-0.026000584
58	0x3ce0180a	0.027355213
59	0xbd0ccdfb	-0.034376126
60	0x3d3ecea2	0.04658378
61	0xbddf2d00	-0.10897255
62	0x3d54a4e4	0.051915064
63	0x3e53e02b	0.20690982
64	0xbe433dfa	-0.19066611
65	0xbd860034	-0.065430075
66	0xbd77e2a9	-0.060518894
67	0xbcef3b04	-0.029202946
68	0x3d461d48	0.04836777
69	0x3d53e148	0.051728517
70	0x3d8b7867	0.06810074
71	0xbe571390	-0.21003556
72	0x3d1aaaf1	0.03776068
73	0xbe03a68f	-0.12856506
74	0x3d44e16d	0.048066545
75	0xbe29d8f4	-0.16586667
76	0x3e68c651	0.22731902
77	0x3d75ae48	0.05998066
78	0x3e33c334	0.17554933
79	0xbeaae9ce	-0.33381504
80	0xbe65ea6b	-0.22452705
81	0xbe830bde	-0.2559499
82	0xbdc62a06	-0.09675984
83	0x3dcbf16d	0.09958158
84	0xbca371fb	-0.019951811
85	0x3e069424	0.13142449
86	0xbde0054c	-0.1093851
87	0x3d6a72e7	0.057238486
88	0xbd95c772	-0.07313432
89	0xbe27eb45	-0.16398342
90	0x3d16081b	0.036628824
91	0x3e06627a	0.13123503
92	0xbc085cfd	-0.008322951
93	0xbe37cbcf	-0.1794884
94	0xbb7d4f1b	-0.0038651887
95	0x3da2a7b1	0.07942141
96	0xbda9a3b5	-0.08283178
97	0x3d8b7869	0.06810076
98	0xbd05b089	-0.03263906
99	0x3dcf2721	0.10114885
100	0x3e29db7e	0.16587636
101	0xbcd23b7d	-0.025663132
102	0xbdbad54c	-0.091227144
103	0x3df7c216	0.12097566
104	0x3d6c3a13	0.05767257
105	0xbdba5324	-0.09097889
106	0x3e52c80a	0.20584121
107	0x3cbb29f0	0.022847146
108	0xbe1f83d1	-0.15577628
109	0xbe353cab	-0.17698924
110	0xbd25a20c	-0.040437743
111	0x3c4c3c4b	0.012465547
112	0xbe45baa1	-0.19309475
113	0xbd80d833	-0.06291237
114	0x3db12d77	0.0865125
115	0xbdcbb6b6	-0.09946959
116	0x3d0066d5	0.03134807
117	0xbda02ef0	-0.078214526
118	0x3da688c7	0.08131557
119	0xbdc92e1c	-0.09823248
120	0x3db007f9	0.08595271
121	0xbe04a069	-0.12951817
122	0xbc6f0320	-0.014588147
123	0x3e4093c9	0.18806376
124	0xbe7dbaf5	-0.2477835
125	0xbd19967e	-0.037497036
126	0xbdfc1a83	-0.12309744
127	0xbe1295cb	-0.14314954
128	0x3e1f96c6	0.15584859
129	0x3c4c14b6	0.01245611
130	0x3d192f90	0.037398875
131	0x3dedebf8	0.11617273
132	0x3e6258d2	0.22104195
133	0xbc479d00	-0.012183428
134	0xbe237fd5	-0.15966733
135	0xbd88b003	-0.066741966
136	0xbd515866	-0.051109694
137	0xbdb228e6	-0.08699207
138	0x3d93e1c1	0.072207935
139	0x3c164de4	0.009173844
140	0xbd70971e	-0.058737867
141	0xbe0bdbeb	-0.13658111
142	0x3de8bffd	0.11364744
143	0x3e254594	0.16139823
144	0xbb59c5d8	-0.0033229496
145	0xbe1a2afe	-0.15055463
146	0x3e30c21b	0.17261545
147	0x3c8cea89	0.017201679
148	0x3dcb6d31	0.09932936
149	0x3c4b2bc9	0.012400576
150	0xbe6266a2	-0.22109464
151	0xbdb17885	-0.086655654
152	0x3d197d07	0.03747275
153	0xbd1e32e4	-0.03862275
154	0xbe298665	-0.16555174
155	0x3d22534e	0.039630227
156	0x3d9e2876	0.07722561
157	0x3dca4a8a	0.098774984
158	0xbda21144	-0.079134494
159	0x3da4bcf4	0.080438524
160	0xbe3c4873	-0.18387012
161	0x3deb6bf7	0.11495202
162	0xbdb71cf7	-0.089410715
163	0x3e0392bd	0.12848945
164	0xbe2504e1	-0.16115142
165	0xbdd86eec	-0.10568032
166	0x3e24db78	0.16099346
167	0x3d404d6b	0.04694883
168	0xbe4910a8	-0.1963526
169	0x3bab840e	0.005234248
170	0x3b378538	0.0028002989
171	0x3d513390	0.051074564
172	0xbdca1889	-0.09867961
173	0xbd3c04a2	-0.045902856
174	0x3dd55d0c	0.10418138
175	0xbe10c7d1	-0.14138724
176	0x3e1f984a	0.15585437
177	0xbd0a6899	-0.03379116
178	0x3cd1be31	0.025603386
179	0xbdba3a42	-0.09093143
180	0xbe470ccf	-0.1943848
181	0xbd6fd8eb	-0.05855648
182	0x3d0cb8f5	0.034356076
183	0xbd1b956f	-0.037984308
184	0xbd434d41	-0.047681097
185	0x3dcef1be	0.101047024
186	0x3d2a6bb6	0.041606627
187	0xbddf1234	-0.10892144
188	0x3d86563e	0.06559418
189	0x3dc1439c	0.094367236
190	0x3e179c70	0.1480577
191	0xbc8c5c87	-0.017133964
192	0x3d8310cb	0.063996874
193	0x3dd82981	0.10554791
194	0x3de41030	0.111359
195	0xbc056d73	-0.0081437705
196	0xbe136799	-0.14394988
197	0x3d3c6abd	0.04600023
198	0x3e05e535	0.13075717
199	0x3d8a7b9d	0.067618586
200	0xbd2cd70e	-0.04219728
201	0x3cd67fff	0.02618408
202	0xbd0e831f	-0.034793016
203	0x3e2722eb	0.16321914
204	0xbd8130c9	-0.06308133
205	0xbe3fbced	-0.18724413
206	0xbe1da0b5	-0.15393336
207	0xbde031ea	-0.1094702
208	0x3e5b7053	0.21429567
209	0xbe71621b	-0.2357258
210	0xbd099db6	-0.03359767
211	0x3d690581	0.056890015
212	0xbd77754a	-0.06041459
213	0x3db30797	0.08741682
214	0x3db50337	0.08838504
215	0x3ded29d3	0.11580243
216	0xbe00046a	-0.12501684
217	0x3d87f1e6	0.06637935
218	0x3e833a45	0.25630394
219	0x3e450a18	0.19242132
220	0x3e0db534	0.13838655
221	0xbd840b00	-0.064474106
222	0x3e1ce419	0.15321387
223	0x3e45946d	0.19294901
224	0xbd9fc896	-0.078019306
225	0xbc84afe4	-0.016197152
226	0x3e180b04	0.14847952
227	0xbda29f73	-0.07940569
228	0xbd2392de	-0.039934985
229	0xbd455866	-0.048180006
230	0xbe869cce	-0.26291507
231	0xbd8c4520	-0.06849122
232	0x3e161b54	0.14658862
233	0xbd8bddd9	-0.068294235
234	0xbdd7d759	-0.10539121
235	0x3c35babe	0.011091886
236	0xbd066120	-0.03280747
237	0x3d65d402	0.05611039
238	0x3e41c15e	0.1892142
239	0xbc9e8823	-0.019352024
240	0x3e100a31	0.14066388
241	0x3e7b5200	0.24543
242	0xbcb3df02	-0.021956924
243	0xbdabd6e0	-0.083905935
244	0x3e2d6c8a	0.16935936
245	0x3e0e651e	0.1390576
246	0x3e3f71b9	0.18695726
247	0x3d13b120	0.03605759
248	0xbe659309	-0.2241937
249	0x3d99adf4	0.07503882
250	0x3de4d5ed	0.111736156
251	0xbea106e7	-0.3145058
252	0xbe543368	-0.20722735
253	0x3df0f0ad	0.11764655
254	0x3e37fc78	0.17967403
255	0x3dcc44ae	0.09974037

bias_ih_l0 f4 [120]
0	0x3ddea913	0.10872092
1	0xbdac777b	-0.084212266
2	0xbe09c0dc	-0.13452476
3	0x3e10f440	0.14155674
4	0x3e2aa3a6	0.1666399
5	0xbcdf57f3	-0.027263617
6	0x3e4a48a5	0.19754274
7	0xbdcdf96c	-0.10057339
8	0x3d833d9a	0.06408234
9	0x3e10d156	0.14142355
10	0xbe35c675	-0.17751487
11	0x3d00b514	0.03142269
12	0xbe2e57f0	-0.17025733
13	0xbe7bf06a	-0.2460343
14	0x3d608379	0.054812882
15	0xbd22b3b7	-0.03972217
16	0x3db7da07	0.08977132
17	0xbe1d43ca	-0.1535789
18	0xbded05fd	-0.11573408
19	0xbe56f4f0	-0.20991874
20	0xbdd99762	-0.10624577
21	0xbd7c323d	-0.06157135
22	0xbe76fe38	-0.24120414
23	0x3e051b65	0.12998731
24	0x3e038ea2	0.12847379
25	0xbcbffb3a	-0.023435224
26	0xbe49ca8d	-0.19706173
27	0x3d5f7405	0.054554004
28	0xbc2fc2b8	-0.010727577
29	0x3e31a34a	0.17347446
30	0xbe6ee8d6	-0.23331007
31	0x3d1fda0e	0.039026313
32	0x3e355fd5	0.17712338
33	0xbc8ab0e4	-0.016930051
34	0xbe0ba537	-0.13637243
35	0x3dba4630	0.090954185
36	0xbd1f1a6a	-0.03884355
37	0xbe108627	-0.14113675
38	0xbcc335ad	-0.023829306
39	0x3d993e05	0.074825324
40	0xbdc245fe	-0.09486006
41	0xbe908a46	-0.28230494
42	0xbe42ba6e	-0.1901643
43	0xbebe662e	-0.37187332
44	0xbd98c5ef	-0.07459628
45	0xbe1cfc3e	-0.15330598
46	0xbde4b615	-0.11167542
47	0xbe1c85d7	-0.15285431
48	0xbeb64341	-0.35598186
49	0xbd9fd817	-0.07804888
50	0xbe8b9609	-0.27262905
51	0xbdba3ee0	-0.09094024
52	0xbe26506e	-0.16241619
53	0xbe84167e	-0.2579841
54	0xbeb83db7	-0.35984585
55	0xbea5b402	-0.32363898
56	0xbe9fdf43	-0.31225023
57	0xbe5f715e	-0.2182059
58	0xbebd8d07	-0.37021658
59	0xbe998cec	-0.29990327
60	0xbe2d7e70	-0.16942763
61	0xbe71a6ce	-0.23598787
62	0x3d0e43f9	0.034732793
63	0xbe4fc9f1	-0.20291878
64	0xbe9ca995	-0.3059813
65	0xbe956049	-0.29175022
66	0xbdd03a23	-0.10167339
67	0xbe926197	-0.2859008
68	0xbeb196ad	-0.3468527
69	0xbe8174b6	-0.25284356
70	0xbe044210	-0.12915826
71	0xbdb766f0	-0.08955181
72	0x3ddbf5fe	0.10740279
73	0xbe462c52	-0.19352844
74	0x3d17e700	0.037085533
75	0xbec038e5	-0.37543407
76	0xbe8b65a3	-0.2722598
77	0xbe0e5784	-0.13900572
78	0xbe51e7a7	-0.20498525
79	0xbe96a321	-0.29421332
80	0xbd34f024	-0.04417433
81	0x3d61dcd5	0.055142242
82	0xbd8b2d17	-0.067957096
83	0x3da24aa2	0.07924391
84	0xbc03a7a7	-0.008035577
85	0xbd954a47	-0.07289558
86	0x3d78c88a	0.060738124
87	0xbd0ca488	-0.034336597
88	0xbd3c7bfe	-0.046016686
89	0x3dcc078b	0.09962376
90	0x3dd9328e	0.10605346
91	0x3d685fe3	0.05673207
92	0x3a83ba3a	0.0010050007
93	0x3e2e47c0	0.17019558
94	0xbd3f3777	-0.046683755
95	0xbe0ee4a1	-0.13954403
96	0x3de0301f	0.10946678
97	0xbe47953b	-0.1949052
98	0x3d07ce74	0.033155873
99	0xbe341b4d	-0.1758854
100	0xbe25fc1d	-0.16209455
101	0x3e43901e	0.19097945
102	0x3d1251aa	0.035722412
103	0xbe0d0535	-0.13771518
104	0xbdd82512	-0.105539456
105	0x3e2f59e0	0.17124128
106	0xbcb300a9	-0.0218509
107	0xbdef28c1	-0.11677695
108	0x3e339b1f	0.17539643
109	0xbdd295c5	-0.102824725
110	0x3ce26c7c	0.02763962
111	0x3e1de20c	0.15418261
112	0xbde39430	-0.11112249
113	0x3df3e220	0.11908364
114	0x3deddef0	0.116147876
115	0x3de579d9	0.11204881
116	0xbe2c1908	-0.16806424
117	0xbdf9a357	-0.12189358
118	0xbe3bc8a8	-0.18338263
119	0x3dc8d6da	0.09806605

bias_hh_l0 f4 [120]
0	0x3e213500	0.15742874
1	0xbd58cd9b	-0.052930456
2	0x3dae9ab3	0.085256
3	0xbd64cb2b	-0.05585782
4	0x3e232e7f	0.15935706
5	0xbe1afc72	-0.15135363
6	0x3e55333c	0.20820326
7	0x3e2cbbd7	0.1686853
8	0x3b8e2996	0.0043384535
9	0x3e10de7b	0.1414737
10	0x3be4492d	0.006966731
11	0xbe8ba7b7	-0.27276394
12	0xbb9a4b44	-0.0047086794
13	0xbe7f87a6	-0.2495409
14	0x3ce2cbd9	0.027685093
15	0x3c1facf8	0.009745829
16	0x3d72f4eb	0.059315603
17	0xbe067f4d	-0.13134499
18	0xbd597598	-0.05309066
19	0xbe465a57	-0.193704
20	0x3d2dac8e	0.04240089
21	0xbe2d4b88	-0.16923344
22	0xbe82fd36	-0.2558381
23	0x3d00a829	0.03141037
24	0x3db4f67c	0.08836076
25	0xbe14a6d1	-0.1451676
26	0xbb5f87bc	-0.0034108004
27	0x3d8ffd7d	0.07030771
28	0xbbeec1ff	-0.0072863097
29	0x3e1b1890	0.15146089
30	0xbe1f7a49	-0.15573992
31	0xbd8c50db	-0.068513595
32	0x3b4d07f0	0.0031285249
33	0xbda5dc41	-0.08098651
34	0xbdcb3955	-0.099230446
35	0x3db76ee8	0.089567006
36	0x3e288bca	0.16459575
37	0x3d18165b	0.037130695
38	0x3e097f7d	0.13427539
39	0xbd4db2d4	-0.050219372
40	0xbe5e0870	-0.21682906
41	0xbe469892	-0.19394138
42	0xbd8573ae	-0.06516205
43	0xbe58def2	-0.21178797
44	0xbdebd6e1	-0.11515594
45	0xbe10d4d1	-0.14143683
46	0xbe198adb	-0.14994375
47	0xbea93a85	-0.3305246
48	0xbe522733	-0.20522766
49	0xbe09b875	-0.13449271
50	0xbdf3947c	-0.118935555
51	0xbe1151ae	-0.14191315
52	0xbd57f288	-0.05272153
53	0xbe310f80	-0.17291069
54	0xbe91805f	-0.28418252
55	0xbe8bf504	-0.2733537
56	0xbe7b1ca8	-0.2452265
57	0xbdb92e36	-0.09042017
58	0xbe9b9865	-0.30389705
59	0xbe9cc743	-0.30620775
60	0xbe90377b	-0.28167328
61	0xbe1b07b0	-0.15139651
62	0x3d844db6	0.06460135
63	0xbd887057	-0.06662052
64	0xbe73087d	-0.23733707
65	0xbde28b1d	-0.1106169
66	0xbe21192c	-0.15732259
67	0xbe173aee	-0.14768574
68	0xbe6e5f6a	-0.23278585
69	0xbe9578df	-0.2919378
70	0xbe8da88d	-0.27667657
71	0xbe8c8d10	-0.27451372
72	0x3e575073	0.21026783
73	0xbe7c935f	-0.24665593
74	0xbe209d3a	-0.15684977
75	0xbeb2079b	-0.34771428
76	0xbe08ab82	-0.13346675
77	0xbe69efb8	-0.22845352
78	0xbe91b744	-0.28460133
79	0xbe7ebc07	-0.24876414
80	0xbe00be40	-0.12572575
81	0x3d87eaca	0.06636579
82	0xbd83f90c	-0.06443986
83	0xbe10a797	-0.1412643
84	0xbd5f2c62	-0.054485686
85	0xbb37f0a8	-0.0028067026
86	0x3e37db93	0.17954855
87	0x3e263b30	0.16233516
88	0xbdd57685	-0.104229964
89	0xbd3ca986	-0.046060108
90	0x3e32721e	0.17426345
91	0xbddeac8b	-0.10872754
92	0xbdc5275c	-0.09626648
93	0x3c9e36e3	0.019313281
94	0xbd74872d	-0.059699226
95	0x3c3680b0	0.01113908
96	0x3dc8abc7	0.09798389
97	0x3d53e9cb	0.051736634
98	0xbe169c81	-0.14708139
99	0xbd6d58b2	-0.057945915
100	0xbde495ef	-0.1116141
101	0xbba10402	-0.004913808
102	0xbd0e801e	-0.03479015
103	0xbe23ff49	-0.16015352
104	0xbc75a5c8	-0.014993139
105	0x3e1b2c4b	0.15153615
106	0xbd96b122	-0.07358004
107	0x3da80ed9	0.08205957
108	0x3e256275	0.1615084
109	0xbe19f8f3	-0.15036373
110	0x3d1afed8	0.037840694
111	0xbdaad350	-0.08341086
112	0xbe3dcfc3	-0.18536286
113	0x3ce0a519	0.027422475
114	0xbd684734	-0.05670853
115	0x3e027ecb	0.1274368
116	0xbd8d9fc9	-0.06915242
117	0xbd062b03	-0.032755863
118	0xbd5dd1be	-0.054155104
119	0x3ba2393f	0.004950672

weight f4 [40, 40]
0	0x3e00b851	0.12570311
1	0x3e2d3793	0.16915731
2	0x3c1a6f3d	0.009425935
3	0xbd359eff	-0.044341084
4	0xbd3694d4	-0.044575527
5	0x3b18d0a3	0.0023317717
6	0x3ca83bd9	0.02053635
7	0x3e1b3cf8	0.15159976
8	0x3cf7bb87	0.030240787
9	0x3e415c09	0.18882765
10	0xbdf51819	-0.11967487
11	0xbddd7792	-0.10813822
12	0xbd379a35	-0.044824798
13	0x3b38bd16	0.0028188876
14	0x3e216745	0.1576205
15	0x3dd33e9a	0.10314675
16	0xbd6ec218	-0.05829057
17	0x3c0418c6	0.008062547
18	0x3d80d7f8	0.06291193
19	0x3e2a4e47	0.16631423
20	0x3d609f98	0.0548397
21	0xbd868caf	-0.06569802
22	0x3e161ee3	0.1466022
23	0x3e09da2e	0.13462135
24	0xbe619d37	-0.22032629
25	0xbe1f9335	-0.15583499
26	0xbda0c065	-0.07849196
27	0xbe1b3f5d	-0.1516089
28	0xbe7b9e95	-0.24572213
29	0x3e74bd65	0.23900373
30	0x3d716db8	0.058942527
31	0xbda681fe	-0.08130263
32	0x3dacee79	0.084439225
33	0x3d2228f1	0.039589826
34	0xbcfa9007	-0.030586256
35	0xbd0bbd21	-0.034115914
36	0xbd5fbf42	-0.054625757
37	0x3c0f9a3b	0.008764799
38	0xbc8ca5ff	-0.017168997
39	0xbe471a36	-0.19443592
40	0xbd2015ad	-0.03908317
41	0x3eb4e855	0.35333505
42	0xbe4d4ea6	-0.20049533
43	0xbe9f2fa8	-0.31091046
44	0x3d39a684	0.045324817
45	0x3e8a42f4	0.27004206
46	0xbd825b00	-0.06365013
47	0x3ea054f7	0.31314823
48	0xbe3b95f4	-0.18318921
49	0x3d3bd64d	0.04585867
50	0x3e88f591	0.26749852
51	0xbd6030c4	-0.054734007
52	0xbe09b240	-0.13446903
53	0x3e41e133	0.18933563
54	0x3cdff2db	0.027337482
55	0x3d3d7c44	0.046261087
56	0xbd47e3cb	-0.048801225
57	0xbe0cebdd	-0.1376185
58	0x3e9bace9	0.30405357
59	0xbe1ba7b0	-0.15200686
60	0xbe9b2230	-0.3029952
61	0xbcac3c83	-0.021024948
62	0x3bb26aad	0.0054448457
63	0xbe1e9aeb	-0.15488784
64	0xbeb14bd9	-0.3462818
65	0x3e7fb372	0.24970797
66	0x3d3621d4	0.044465855
67	0xbeaa7df5	-0.33299223
68	0x3df0cfba	0.11758371
69	0xbe5d53be	-0.21613976
70	0x3e692991	0.22769763
71	0xbb8bb6d8	-0.00426374
72	0xbe1e2d4b	-0.15446965
73	0x3e5833d8	0.21113527
74	0xbdbf9449	-0.09354455
75	0x3ea1fe87	0.316395
76	0xbe5c5809	-0.21517958
77	0xbe7c4912	-0.24637249
78	0xbe939bf3	-0.28829917
79	0x3cafcf35	0.021461109
80	0xbdc90683	-0.09815695
81	0xbe4bdcab	-0.19908397
82	0xbd9cf3fe	-0.07663725
83	0x3e3dee77	0.18547998
84	0x3d603064	0.05473365
85	0xbe7cafca	-0.24676433
86	0xbcb32ae8	-0.021871045
87	0xbe304a66	-0.17215881
88	0x3e8b160c	0.27165258
89	0xbd6f5015	-0.05842598
90	0xbe4e347d	-0.2013721
91	0x3e5e664d	0.21718712
92	0x3e406af4	0.187908
93	0xbd8bb452	-0.06821503
94	0xbe81be84	-0.25340664
95	0xbdcf9187	-0.10135179
96	0x3e94e9f5	0.29084745
97	0x3d87dee9	0.066343136
98	0xbe9ec54a	-0.31009895
99	0x3e4072a8	0.18793738
100	0x3d73e6dc	0.059546337
101	0xbdcd0bc2	-0.10012008
102	0xbca47879	-0.020076977
103	0x3e4e6d1a	0.20158806
104	0x3e39dc9c	0.18150562
105	0xbd9de67a	-0.077099755
106	0xbdf4b1af	-0.11947953
107	0x3d9bda11	0.07609952
108	0x3d7d7b3c	0.061885104
109	0xbe424302	-0.18970874
110	0xbdef2248	-0.116764605
111	0x3d35dbee	0.044399194
112	0xbe2b4c12	-0.16728237
113	0xbde744e9	-0.112924404
114	0x3cb4045c	0.021974735
115	0x3db368ab	0.08760198
116	0x3e239920	0.15976381
117	0x3c0bc824	0.008531604
118	0x3d9781a1	0.073977716
119	0x3e121ef5	0.14269622
120	0xbe24f42e	-0.16108772
121	0xbd116cfb	-0.035504322
122	0x3c730900	0.014833689
123	0x3d8345aa	0.06409772
124	0x3bd8df76	0.0066184355
125	0xbe69656e	-0.22792599
126	0x3ddedf26	0.10882406
127	0xbe660168	-0.22461474
128	0x3e1f1f5e	0.1553931
129	0x3d0ffa3e	0.03515076
130	0x3bbdfc9e	0.0057979366
131	0x3df43b45	0.11925367
132	0x3ddcd7cc	0.107833475
133	0xbe183374	-0.14863378
134	0xbe2ed8a8	-0.17074835
135	0xbe16d35c	-0.14729065
136	0x3e33eed4	0.17571574
137	0x3e1980f5	0.149906
138	0xbe1f9495	-0.15584023
139	0x3d45e082	0.04830981
140	0x3e0e2559	0.13881435
141	0xbdc69f98	-0.09698409
142	0xbcbac432	-0.022798631
143	0xbdc03693	-0.09385409
144	0x3e91db65	0.28487697
145	0xbdcb1b08	-0.09917265
146	0xbc0c0d24	-0.008548055
147	0x3dd0db14	0.10198036
148	0xbcd2abae	-0.025716629
149	0xbd043597	-0.03227767
150	0xbe651178	-0.22369945
151	0xbd632a8c	-0.055460498
152	0xbda19043	-0.07888844
153	0xbe622339	-0.22083749
154	0x3dc2c9e7	0.09511166
155	0x3d8d6437	0.0690388
156	0xbd8da9db	-0.06917163
157	0xbd79550c	-0.060872123
158	0xbd49b294	-0.04924257
159	0x3bc022e6	0.005863535
160	0xbe1625b2	-0.14662817
161	0x3e3a93c9	0.18220438
162	0x3dca3fd3	0.09875455
163	0xbdfacea9	-0.122464485
164	0xbc902be0	-0.017599046
165	0x3dbbc706	0.0916882
166	0x3c66bddb	0.014083351
167	0x3d8a8c40	0.06765032
168	0xbddf376a	-0.10899241
169	0xbd03a402	-0.032138832
170	0x3caba882	0.020954374
171	0xbdcd4243	-0.10022404
172	0x3db19933	0.086717986
173	0x3e2e29d4	0.17008144
174	0x3e0639b3	0.13107948
175	0x3e552192	0.20813587
176	0xbd0bdbbe	-0.03414511
177	0xbea2f921	-0.31830695
178	0x3e658b21	0.22416355
179	0xbe51f026	-0.20501766
180	0xbd297dda	-0.041379787
181	0x3b7b566a	0.0038351067
182	0xbe121a9b	-0.14267962
183	0xbdd40b50	-0.1035372
184	0xbde66c2d	-0.11251102
185	0xbc9250c5	-0.01786078
186	0x3e16508e	0.14679167
187	0xbe365459	-0.17805614
188	0xbcebbcb0	-0.028776497
189	0xbdd4c50b	-0.103891455
190	0x3e47f074	0.1952532
191	0x3d0d1cec	0.03445141
192	0xbd38f5fa	-0.045156457
193	0x3dd3c797	0.10340803
194	0x3b930dc3	0.0044877245
195	0x3e8d0d93	0.2754942
196	0x3d860342	0.0654359
197	0xbde1ad11	-0.11019338
198	0xbd977de3	-0.07397058
199	0xbe3e3f2c	-0.18578786
200	0x3e3e8c73	0.18608265
201	0x3e9ff93e	0.31244844
202	0xbc86ac90	-0.016439706
203	0xbe469235	-0.19391711
204	0x3cf249de	0.029576238
205	0x3e42f542	0.19038871
206	0xbd833a2b	-0.06407579
207	0x3d6307f0	0.05542749
208	0xbe7bc196	-0.24585566
209	0x3db67f45	0.089109935
210	0x3e9b6275	0.30348554
211	0xbceea345	-0.029130587
212	0xbe0baba5	-0.13639696
213	0x3e8d353c	0.27579677
214	0x3e55c4b7	0.20875822
215	0xbc979226	-0.018502306
216	0xbdb2dc45	-0.08733419
217	0xbe989758	-0.29802966
218	0x3d7c9668	0.061666876
219	0xbe872be7	-0.26400682
220	0xbd8fe123	-0.07025363
221	0x3de23eed	0.110471584
222	0x3c3d6b18	0.011561178
223	0x3b9654a6	0.0045877276
224	0xbe2e70fe	-0.1703529
225	0x3e0d0490	0.13771272
226	0xbd2288d6	-0.03968128
227	0xbe97d478	-0.29654288
228	0x3e51a27f	0.20472144
229	0xbe1bfcd7	-0.1523317
230	0x3e11e343	0.1424685
231	0x3e07f5d9	0.13277377
232	0xbdf0d3de	-0.117591605
233	0x3e513b62	0.20432809
234	0x3daa8103	0.08325388
235	0x3e39f96f	0.18161558
236	0x3d6a92b8	0.05726883
237	0xbe7d74e8	-0.24751627
238	0xbe4e7f40	-0.2016573
239	0xbe5ae75d	-0.2137732
240	0xbde6c23f	-0.11267518
241	0x3e3046b3	0.1721447
242	0xbe2ce644	-0.16884714
243	0xbe21747c	-0.15767092
244	0xbe421b2a	-0.18955675
245	0x3dcb68eb	0.09932121
246	0xbdb0d13f	-0.086336605
247	0x3e52fd3c	0.20604414
248	0xbdfa3e9e	-0.122189745
249	0xbe50280a	-0.20327774
250	0x3dc659f1	0.09685124
251	0xbd12afbb	-0.03581212
252	0xbd91dd70	-0.07122314
253	0x3cfcdc6a	0.03086682
254	0x3d229249	0.03969029
255	0x3e5c8b8b	0.21537606

bias f4 [40]
0	0xbd4dd1c0	-0.05024886
1	0xbd1b71be	-0.03795027
2	0xbd459b42	-0.04824377
3	0x3e1f9b70	0.15586638
4	0xbd0d3d4b	-0.03448228
5	0x3e01757e	0.12642476
6	0x3c5de5f6	0.0135435965
7	0xbddf761b	-0.10911199
8	0x3e434f50	0.19073224
9	0x3d2a25a3	0.0415398
10	0xbd19aeb3	-0.03752012
11	0x3d909c57	0.070610695
12	0x3dddb45d	0.10825417
13	0x3d029a82	0.03188563
14	0xbdac3980	-0.08409405
15	0x3e1e3fbe	0.15454003
16	0xbd87b6f1	-0.0662669
17	0xbe3fb82a	-0.18722597
18	0xbdaf7d18	-0.085687816
19	0x3e34daf9	0.17661656
20	0x3dbf1e8a	0.09331997
21	0x3d3c063e	0.04590439
22	0x3c9f5cc5	0.019453416
23	0x3e2f5f92	0.17126301
24	0xbe2a5ccb	-0.1663696
25	0xbd5b714e	-0.053574853
26	0xbdb8de4a	-0.09026773
27	0x3d149b63	0.036281
28	0xbd92c8e7	-0.07167225
29	0xbe20e7dd	-0.15713449
30	0x3e047cba	0.12938204
31	0xbd7b6367	-0.061374094
32	0x3d88373b	0.066511594
33	0x3d8b1543	0.06791165
34	0x3cfcb675	0.030848721
35	0x3d08fc7e	0.03344392
36	0x3e415952	0.18881729
37	0xbd674d94	-0.05647047
38	0x3d896f0d	0.067106344
39	0xbc0cba66	-0.008589363

weight f4 [40, 40]
0	0x3df0629e	0.1173756
1	0xbd158071	-0.036499444
2	0x3e52b730	0.20577693
3	0xbb912cf9	-0.00443041
4	0x3e06fad1	0.13181616
5	0x3dfcb11d	0.12338469
6	0x3c21c1d5	0.009872873
7	0x3decfc5a	0.1157157
8	0x3dc6260f	0.09675228
9	0x3e591558	0.21199548
10	0x3ca5dbc6	0.020246398
11	0x3e2710b3	0.16314964
12	0x3e32b868	0.17453158
13	0x3b369686	0.0027860715
14	0xbc8a1c8d	-0.016859317
15	0x3da7211f	0.08160614
16	0x3e2f384b	0.17111318
17	0xbddbaed0	-0.10726702
18	0x3d851201	0.064975746
19	0x3e3c952a	0.18416277
20	0x3ce6338d	0.028100753
21	0x3e4dd1ec	0.2009961
22	0xbd431f5a	-0.04763732
23	0x3ca3e1fe	0.020005222
24	0xbd952969	-0.07283289
25	0xbd26d66c	-0.040731832
26	0xbdfa6cdf	-0.12227797
27	0x3d9b592a	0.07585366
28	0xbde3ab3a	-0.11116643
29	0xbddb5f82	-0.10711576
30	0x3e2595b5	0.1617039
31	0x3ce23846	0.027614724
32	0x3c9a5648	0.01883997
33	0x3d2d2ef1	0.042281095
34	0x3e414972	0.18875673
35	0x3e0048a7	0.12527715
36	0x3e6795d3	0.22615747
37	0xbc4e4226	-0.012589013
38	0xbba2ce2c	-0.0049684253
39	0xbd719b1b	-0.05898581
40	0xbd7c7be3	-0.061641585
41	0xbe0fa58c	-0.14027995
42	0x3e03d64d	0.12874718
43	0x3e438129	0.1909224
44	0xbe39c601	-0.18141939
45	0xbe0d2b3b	-0.13786022
46	0xbe819083	-0.25305566
47	0x3d52d3a3	0.051471364
48	0x3d6c1352	0.057635613
49	0xbe4bc6fc	-0.19900125
50	0xbdda54e7	-0.10660725
51	0x3d88a09a	0.06671257
52	0x3d887b1d	0.06664107
53	0x3e495d66	0.19664535
54	0x3e8ac90a	0.27106506
55	0xbdcc6851	-0.09980834
56	0x3c6c7482	0.0144320745
57	0x3e619d2b	0.22032611
58	0x3cf7079e	0.030155
59	0xbe0b2210	-0.13587213
60	0x3e39cb96	0.18144068
61	0x3e391849	0.1807567
62	0x3c1e4289	0.009659418
63	0x3dc0cb86	0.09413819
64	0x3e9085e5	0.28227153
65	0x3e41d1b0	0.18927646
66	0xbbabd9ae	-0.0052444553
67	0xbe54bb2d	-0.20774527
68	0xbe042a57	-0.12906776
69	0xbd5c2fa8	-0.053756386
70	0xbd940150	-0.07226813
71	0x3dc860a3	0.09784057
72	0xbd022b8a	-0.031779803
73	0x3d5b0492	0.053471155
74	0x3d1e3bd7	0.038631286
75	0x3d33cbc0	0.043895483
76	0x3dcf9710	0.10136235
77	0x3e75b7b2	0.23995855
78	0x3cc88ac0	0.024480224
79	0x3cb6f861	0.022335233
80	0x3d615dad	0.055020977
81	0x3d882e2f	0.06649434
82	0x3cb1ffc2	0.0217284
83	0x3d9e5027	0.077301316
84	0x3e1f5bb6	0.15562329
85	0xbd42e041	-0.047577146
86	0xbd9409b1	-0.07228411
87	0xbc97112f	-0.018440811
88	0x3d52bf78	0.05145213
89	0x3e326e68	0.17424929
90	0x3d258e7d	0.04041909
91	0xbdbcee35	-0.09225122
92	0xbcaeba12	-0.02132896
93	0x3ce1da4f	0.027569918
94	0x3b97203b	0.0046119965
95	0x3ddc9db1	0.10772265
96	0x3e482d37	0.19548498
97	0xbb0fe134	-0.00219543
98	0x3e4cf6a0	0.20015955
99	0x3e2773d7	0.16352783
100	0xbe39b60b	-0.1813585
101	0x3c04bcc6	0.008101648
102	0xbd62dc6e	-0.055386
103	0xbd1a2f38	-0.037642688
104	0xbe0cc4a1	-0.13746883
105	0xbd6c17b7	-0.057639804
106	0x3dd27f4c	0.10278186
107	0xbbe4b104	-0.0069791097
108	0x3dc35042	0.09536792
109	0x3c3f617e	0.011680959
110	0xbe4e1dd1	-0.20128562
111	0xbdba9562	-0.09110524
112	0x3d91b74e	0.07115041
113	0xbda04459	-0.07825536
114	0xbd144eab	-0.036207836
115	0x3dc48fd6	0.09597747
116	0xbc82f1d8	-0.01598446
117	0xbdfafa42	-0.12254764
118	0xbded226b	-0.1157883
119	0xbe0cbd9e	-0.13744208
120	0x3d2d022b	0.042238396
121	0x3e486388	0.19569218
122	0x3ca1c122	0.019745413
123	0x3d47421c	0.04864703
124	0x3e2db6c0	0.16964245
125	0x3e903c5f	0.2817106
126	0x3d5f6e0b	0.054548305
127	0xbc4e445c	-0.01258954
128	0x3d8cc2c5	0.06873087
129	0x3d8145cd	0.063121416
130	0x3e98c5d1	0.29838422
131	0xbdb2e868	-0.08735734
132	0x3d5c8c69	0.053844843
133	0x392170f8	0.0001539624
134	0x3d1fa816	0.03897866
135	0x3e8d787b	0.27630982
136	0x3e6bd684	0.2303105
137	0xbe4434c4	-0.19160753
138	0x3daaaf90	0.08334267
139	0x3e9e45df	0.30912682
140	0xbded7cd8	-0.11596078
141	0x3cce480a	0.025180835
142	0x3e014788	0.12624943
143	0xbd0c2428	-0.03421417
144	0xbdb6453a	-0.08899923
145	0xbcb8c5bc	-0.022555225
146	0x3cdb85e7	0.026797248
147	0x3c9ae4e4	0.018907972
148	0xbcaa6657	-0.020800753
149	0x3ccbe9b2	0.024891708
150	0x3d079e67	0.03311005
151	0x3e799c58	0.24376047
152	0x3e02d9bf	0.12778376
153	0xbd4867fd	-0.048927296
154	0x3e65f3be	0.22456262
155	0x3e9e34f4	0.30899775
156	0x3db76178	0.089541376
157	0xbdc98252	-0.0983931
158	0x3dbf3b74	0.09337512
159	0xbe00178e	-0.12508985
160	0x3d6a54d1	0.057209793
161	0x3e4a5fdc	0.1976313
162	0xbd9cdbfd	-0.07659147
163	0xbdbea471	-0.093087085
164	0x3dd0a6ec	0.10188088
165	0x3d410759	0.047126148
166	0x3e555b97	0.2083572
167	0x3e148af7	0.14506136
168	0x3e6d43ee	0.23170444
169	0x3c69a614	0.0142607875
170	0x3e686d4a	0.2269794
171	0x3d5304e4	0.051518336
172	0xbd826a6d	-0.06367955
173	0xbdb4c594	-0.088267475
174	0x3ba1f436	0.0049424423
175	0x3e385c22	0.18003896
176	0x3dd871b8	0.10568565
177	0x3d268a4a	0.040659226
178	0x3e28a33c	0.16468519
179	0x3e0dd764	0.13851696
180	0xbe1f5cbb	-0.15562718
181	0xbe3b9ea6	-0.18322238
182	0x3daf3226	0.08554487
183	0xbe208c09	-0.15678419
184	0xbd9b0ab6	-0.07570402
185	0xbd74ea11	-0.059793536
186	0xbdc5228b	-0.09625729
187	0xbcb8c5e2	-0.022555295
188	0x3dd8a4ac	0.10578284
189	0xbd0ea228	-0.034822613
190	0xbe784480	-0.2424488
191	0x3e10b7c1	0.14132597
192	0x3e14d83c	0.14535612
193	0xbdd3cca0	-0.103417635
194	0x3d4f4bef	0.050609525
195	0xbd136629	-0.0359861
196	0xbd2152f7	-0.039385762
197	0xbdbc975b	-0.09208556
198	0x3e191b6d	0.14951868
199	0xbe5df543	-0.21675591
200	0x3cb1202a	0.021621782
201	0x3ce44347	0.027864112
202	0x3e6d0928	0.23148024
203	0x3e6d0466	0.23146209
204	0x38f87cf0	0.00011848833
205	0x3e148281	0.14502908
206	0x3deeacae	0.1165403
207	0x3db39038	0.08767742
208	0x3da0151c	0.07816526
209	0xbcde4b7a	-0.0271356
210	0x3d0de3c0	0.034641027
211	0x3e8cdf23	0.2751399
212	0x3dbe62cf	0.0929619
213	0x3df65c82	0.12029363
214	0x3db14a49	0.08656747
215	0x3da12740	0.078688145
216	0xbe1d5f54	-0.15368396
217	0xbd974e2b	-0.07387956
218	0xbe44cfee	-0.19219944
219	0x3e1ab60d	0.1510851
220	0x3e45158c	0.192465
221	0x3e37ac0f	0.17936729
222	0x3db5ee4c	0.08883342
223	0x3d79a777	0.060950723
224	0x3cf3e46f	0.029772012
225	0x3e055ddf	0.1302409
226	0xbb5c1ad4	-0.0033585327
227	0xbc4e0fe0	-0.012577027
228	0x3e269cd9	0.1627077
229	0x3d555887	0.05208638
230	0x3e59382c	0.21212834
231	0xbc84e44e	-0.016222145
232	0xbe1071d5	-0.14105923
233	0x3b47a219	0.0030461608
234	0xbe225d6d	-0.15855952
235	0xbd50299a	-0.050820924
236	0x3e832e4b	0.25621256
237	0x3e178f04	0.1480065
238	0xbe04f247	-0.12983046
239	0xbcc3fb72	-0.02392361
240	0x3d4da166	0.05020275
241	0xbe14fa5b	-0.14548628
242	0x3e35fc0a	0.17771927
243	0xbbeab269	-0.0071623814
244	0xbe0f8fd5	-0.14019711
245	0xbdde98ca	-0.10868986
246	0xbcc56dbe	-0.02410018
247	0x3c00e627	0.007867373
248	0xbe53dc1b	-0.20689432
249	0xbe17a211	-0.14807917
250	0xbd77336e	-0.06035178
251	0xbbafbe24	-0.0053632427
252	0x3d8c664c	0.06855449
253	0x3e12ac7f	0.14323615
254	0xbd9f5bef	-0.07781207
255	0xbe49e8e3	-0.19717745

bias f4 [40]
0	0x3e25d43a	0.1619424
1	0x3d93cec3	0.07217171
2	0xbd1a29ca	-0.03763751
3	0xbc40f0b8	-0.011776142
4	0x3e02bf6b	0.12768333
5	0x3dbcfc6a	0.09227832
6	0x3d7294ee	0.05922406
7	0xbe09aa2b	-0.1344382
8	0x3dd534ce	0.10410462
9	0xbd67c63a	-0.056585528
10	0x3d4c7c00	0.049922943
11	0x3da14d1d	0.07876036
12	0x3d8c9c06	0.068656966
13	0x3e5648a1	0.20926143
14	0x3c604a3c	0.013689574
15	0x3c886b0d	0.016652608
16	0xbe2897a7	-0.16464101
17	0xbd6b859a	-0.05750046
18	0x3d454877	0.04816481
19	0xbd56e78c	-0.052466914
20	0xbe3810c3	-0.17975144
21	0x3d981aa1	0.07426954
22	0x3ccd3e1e	0.025054034
23	0xbcfc3b89	-0.030790107
24	0xbe015680	-0.12630653
25	0x3d0d73c7	0.034534242
26	0x3da2b9bf	0.079455845
27	0x3dfb4cac	0.122704834
28	0xbe70fbd8	-0.23533571
29	0xbdf99958	-0.12187451
30	0xbda3d7f5	-0.08000175
31	0xbd1c6d87	-0.03819039
32	0xbd262018	-0.04055795
33	0x3ca80a29	0.020512657
34	0xbe2e7b46	-0.17039213
35	0x3dfba4eb	0.12287315
36	0x3d35cb91	0.04438359
37	0x3e1c2c5f	0.15251301
38	0xbb07ebfa	-0.0020740018
39	0x3bda582d	0.0066633434

weight_ih_l0 f4 [120, 40]
0	0xbe5d29ee	-0.21598026
1	0xbc1da1b5	-0.0096210735
2	0xbdf49a21	-0.1194346
3	0x3d603d0c	0.05474572
4	0xbaca9bf4	-0.0015457855
5	0x3cbaa691	0.022784503
6	0x3c9e3efd	0.019317145
7	0x3bd4a8d7	0.006489854
8	0xbc12de98	-0.008964203
9	0x3a1b5229	0.00059250236
10	0xbd31f9f1	-0.043451253
11	0x3dba07e5	0.09083537
12	0x3d781990	0.060571253
13	0xbe1cd788	-0.15316594
14	0xbad0869d	-0.0015909259
15	0xbc1425fe	-0.009042261
16	0x3d3e95be	0.046529524
17	0x3e3e5879	0.18588437
18	0xbd2d97cd	-0.042381097
19	0xbdad7a60	-0.08470607
20	0x3dd5a925	0.104326524
21	0x3c249d7e	0.010047315
22	0x3cc15455	0.023599783
23	0xbe1f54a4	-0.15559632
24	0x3e165269	0.14679874
25	0x3e17cf67	0.14825211
26	0x3d5ecc23	0.0543939
27	0xbdaf09c4	-0.085467845
28	0x3da6a4c8	0.08136898
29	0xbc5590d3	-0.013035017
30	0xbe289c45	-0.16465862
31	0xbe2e439f	-0.17017983
32	0x3e438202	0.19092563
33	0x3cfaa84e	0.030597832
34	0x3e3d1045	0.18463238
35	0xbe0f37d4	-0.1398614
36	0xbe0a92e6	-0.135326
37	0xbda901c7	-0.08252292
38	0x3e2a6176	0.16638741
39	0xbe1f7918	-0.15573537
40	0x3e697c31	0.22801282
41	0xbd7b0e60	-0.061293006
42	0xbe5d8e03	-0.21636204
43	0x3e8d0fb7	0.27551052
44	0x3e68b431	0.22724988
45	0x3e4401ea	0.19141355
46	0xbdc5dc9b	-0.09661218
47	0x3e2480a7	0.16064702
48	0xbe9bb705	-0.3041307
49	0xbe3e7e73	-0.18602924
50	0xbd195e88	-0.037443668
51	0xbec17abc	-0.3778895
52	0xbe14460d	-0.14479847
53	0xbe1250c1	-0.14288618
54	0xbe96c82b	-0.2944959
55	0xbdfac6e6	-0.12244968
56	0x3e0f9f4b	0.14025609
57	0x3cbc0034	0.022949316
58	0x3e2a919e	0.16657111
59	0xbdbef0e2	-0.093232885
60	0xbda7049d	-0.08155177
61	0x3e1992a0	0.14997339
62	0xbd20954e	-0.039204888
63	0x3d63cbbe	0.055614226
64	0xbd869fd4	-0.065734535
65	0xbeb1d9e0	-0.34736538
66	0x3e922a1f	0.2854776
67	0xbe46140a	-0.19343582
68	0x3d49adc7	0.049237993
69	0xb95e325c	-0.0002119033
70	0x3db7ba57	0.089710884
71	0x3e650e4e	0.22368738
72	0xbe250066	-0.16113433
73	0xbe6468fd	-0.22305675
74	0xbe7c2d4f	-0.24626659
75	0x3ca95296	0.020669263
76	0x3e921a0f	0.28535506
77	0xbd889164	-0.06668356
78	0xbd8e0ca1	-0.069360025
79	0x3d2a82d8	0.04162869
80	0x3d99d946	0.07512145
81	0xbe24186a	-0.16024938
82	0x3ae732c8	0.0017639035
83	0x3e54b878	0.20773494
84	0xbe168526	-0.1469923
85	0x3d8148f1	0.063127406
86	0x3e8078a8	0.25092053
87	0x3e25b7eb	0.1618344
88	0xbde80f4e	-0.11331044
89	0xbda627d0	-0.081130624
90	0xbe7c9700	-0.24666977
91	0x3be6a686	0.007038894
92	0xbe39b2f7	-0.18134676
93	0xbe28c226	-0.16480312
94	0x3d14ea8d	0.036356498
95	0x3d977b71	0.073965915
96	0xbdd26eb0	-0.10275018
97	0xbdd485ce	-0.10377084
98	0xbe031dc2	-0.1280432
99	0xbe0edcea	-0.1395146
100	0x3ca6fce9	0.020384269
101	0x3e00ce30	0.12578654
102	0xbe5e3ca8	-0.21702826
103	0x39f90eca	0.00047504
104	0x3dcdbe83	0.10046103
105	0x3dbbe3b9	0.09174294
106	0xbd407d7e	-0.04699468
107	0xbe4ca55f	-0.19984959
108	0x3db5fbb3	0.088858984
109	0xbdaee105	-0.08539013
110	0x3d460459	0.04834399
111	0x3df1e3f6	0.11811058
112	0x3d80d898	0.06291312
113	0xbdb38131	-0.08764876
114	0x3dbcfe4f	0.09228193
115	0xbe1b44fc	-0.15163034
116	0x3e601de7	0.21886407
117	0xbe5105ad	-0.20412321
118	0x3e2b89bd	0.16751762
119	0x3e856771	0.26055482
120	0xbd5be977	-0.053689446
121	0x3de24218	0.11047763
122	0xbe0c2fb9	-0.1369008
123	0xbdba7395	-0.09104077
124	0x3c4d35a2	0.012524994
125	0x3df4ef59	0.119597144
126	0x3d3b7bcd	0.045772363
127	0xbe5851f5	-0.21125014
128	0x3e6fc328	0.2341429
129	0xbdfcb6fd	-0.1233959
130	0xb983c544	-0.0002513324
131	0xbac67f16	-0.0015144076
132	0x3e731537	0.23738562
133	0x3e1914df	0.14949368
134	0xbd35e551	-0.044408146
135	0xbd778179	-0.06042621
136	0xbe28739c	-0.16450351
137	0x3d424f7f	0.047439095
138	0x3c37fa52	0.011229115
139	0xbe936691	-0.2878919
140	0xbda80f4f	-0.08206045
141	0x3dda9624	0.10673168
142	0xbe28257a	-0.16420546
143	0xbe4cf34f	-0.2001469
144	0xbe7e1a18	-0.24814641
145	0x3deb3cde	0.11486219
146	0x3e0eff0c	0.1396448
147	0x3ca6f315	0.020379582
148	0xbdcbc7a5	-0.099501885
149	0xbe88b479	-0.2670019
150	0xbe1b9e87	-0.15197192
151	0x3d8d333a	0.06894536
152	0xbd7d30a1	-0.061813954
153	0xbe38657f	-0.18007468
154	0x3d1226b2	0.035681434
155	0xbd86d797	-0.06584089
156	0x3c3f19a0	0.011663824
157	0xbdb47bbf	-0.08812665
158	0x3e295299	0.16535415
159	0xbe6f520d	-0.23371144
160	0xbd0c2dbe	-0.03422331
161	0xbe16bd74	-0.14720708
162	0x3d9f1149	0.07766969
163	0x3e6dd8b1	0.23227192
164	0xbc908ba8	-0.017644718
165	0x3d22cfd4	0.03974898
166	0xbdec709d	-0.11544917
167	0x3cf72f53	0.030173933
168	0x3d0b60e7	0.03402796
169	0xbc9001e8	-0.017579034
170	0xbe247f51	-0.16064192
171	0xbe3bb761	-0.18331672
172	0xbe555584	-0.20833403
173	0xbe9b1373	-0.30288276
174	0xbddaf97f	-0.10692119
175	0xbd07958f	-0.033101615
176	0x3de642e1	0.11243225
177	0x3df9d508	0.121988356
178	0xbd90389f	-0.070420496
179	0xbd59e72c	-0.05319898
180	0x3dc1bf24	0.09460285
181	0xbcce01de	-0.025147375
182	0x3dcba398	0.099433124
183	0x3e2ade6f	0.16686414
184	0x3e50de3e	0.20397279
185	0xbe687f5c	-0.22704834
186	0x3da13886	0.07872109
187	0x3cfdc19f	0.030976115
188	0x3e101c47	0.14073287
189	0x3de4453c	0.11146018
190	0x3deb8c74	0.11501399
191	0xbd83c20b	-0.06433495
192	0xbc58110f	-0.013187661
193	0x3e22d712	0.15902355
194	0xbe1c09e3	-0.15238146
195	0x3e19c080	0.15014839
196	0x3d423bf7	0.04742047
197	0xbe155ec1	-0.14586927
198	0x3c0cc3c1	0.008591593
199	0x3da919dd	0.08256886
200	0xbde15d23	-0.110040925
201	0xbea486af	-0.32134005
202	0x3e328c17	0.17436253
203	0xbd59cfbf	-0.053176638
204	0x3e006720	0.12539339
205	0x3dcd22d3	0.10016408
206	0xbd9a14eb	-0.07523521
207	0x3dcaaecd	0.09896622
208	0xbe451cd1	-0.19249274
209	0x3d1ae248	0.037813455
210	0xbdf98130	-0.12182844
211	0xbe6c43b8	-0.23072708
212	0xbe3dbeb7	-0.18529783
213	0xbd00023f	-0.031252142
214	0x3dcf48be	0.10121296
215	0x3d9132db	0.07089778
216	0x3e33c1b3	0.17554359
217	0xbe050563	-0.12990336
218	0x3c5aea88	0.013361581
219	0xbd2e4d78	-0.04255435
220	0x3cf2872b	0.029605469
221	0xbe04cb87	-0.12968265
222	0xbe02bc36	-0.1276711
223	0x3e764bca	0.24052349
224	0x3dab99a4	0.08378914
225	0xbd5cf917	-0.053948488
226	0xbcd8e590	-0.026476651
227	0xbe76c3a5	-0.2409807
228	0x3dc4d0a7	0.0961011
229	0x3de9c855	0.114151634
230	0x3e25dbb4	0.16197091
231	0x3e116af8	0.14200962
232	0xbcead346	-0.028665196
233	0xbd65f2ce	-0.05613976
234	0xbd1003b6	-0.03515979
235	0x3d1e144d	0.03859358
236	0x3e36f88c	0.1786825
237	0xbdb326f1	-0.08747662
238	0xbe31393d	-0.17306991
239	0x3e0367fb	0.12832634
240	0xbd921554	-0.07132974
241	0xbe536a6b	-0.20646064
242	0xbbbd2de4	-0.005773293
243	0x3e0cf7bc	0.13766378
244	0x3d9db024	0.07699612
245	0x3ddedc27	0.108818345
246	0xbe092936	-0.13394627
247	0x3e11bf9c	0.1423325
248	0xbe7933be	-0.24336144
249	0xbd979b2e	-0.07402645
250	0xbddb580a	-0.107101515
251	0xbe66e15f	-0.2254691
252	0x3bb8c998	0.005639266
253	0xbe1b6b45	-0.15177639
254	0xbe5766cb	-0.21035306
255	0xbdcec285	-0.100956954

weight_hh_l0 f4 [120, 40]
0	0xbe474ba1	-0.19462444
1	0xbd453e20	-0.04815495
2	0x3e5bfcd6	0.21483168
3	0xbe8ba6b3	-0.2727562
4	0x3d1abf09	0.03777984
5	0xbbbb9b64	-0.005725311
6	0x3e8881d4	0.2666155
7	0xbda066db	-0.07832118
8	0xbd8a4915	-0.067522205
9	0x3e25adb2	0.16179541
10	0xb9f3fd34	-0.00046537223
11	0xbd22c985	-0.039742965
12	0x3dfef75a	0.12449522
13	0xbe8e6e2a	-0.27818424
14	0xbc079a13	-0.00827648
15	0xbdbecaf3	-0.09316053
16	0xbe1b18a3	-0.15146117
17	0xbe8d7de4	-0.2763511
18	0x3d3c4dee	0.045972757
19	0xbdf7edba	-0.121058896
20	0xbe18b931	-0.14914395
21	0xbcdcb402	-0.026941303
22	0xbdab89d5	-0.08375899
23	0x3d08ec8b	0.03342871
24	0x3e093ceb	0.13402145
25	0xbe2fdb2b	-0.1717345
26	0xbdefc5a9	-0.117076226
27	0xbe1435ae	-0.14473602
28	0x3d14dd83	0.036344063
29	0xbd589b7e	-0.052882664
30	0x3e032570	0.1280725
31	0x3d0eed8e	0.03489452
32	0xbe67719a	-0.2260193
33	0xbd05231d	-0.03250419
34	0xbe20a28c	-0.15687007
35	0xbe2d3c73	-0.16917591
36	0xbd429178	-0.04750201
37	0xbe51e187	-0.20496188
38	0x3e9749dc	0.29548538
39	0x3d2f6c10	0.042827666
40	0x3cb01552	0.021494541
41	0x3e379640	0.1792841
42	0x3e37cb42	0.1794863
43	0xbd6d64e0	-0.05795753
44	0xbe2d7cf3	-0.16942196
45	0x3e99e7db	0.30059704
46	0x3ddb1887	0.106980376
47	0x3e508c70	0.20366073
48	0xbdf0d783	-0.117598556
49	0xbe8d4cc2	-0.27597624
50	0x3e4ee64c	0.20205039
51	0xbe95937b	-0.2921408
52	0xbd972817	-0.073806934
53	0x3e48305c	0.19549698
54	0x3e55f6c1	0.2089491
55	0xbde916a9	-0.11381275
56	0xbd9a2c7c	-0.07528016
57	0xbdcbe645	-0.0995603
58	0x3d28a12f	0.04116934
59	0xbe8e61e4	-0.2780906
60	0x3cc97763	0.02459306
61	0xbc5abaf8	-0.013350241
62	0xbe6a8e24	-0.22905785
63	0x3ce5c22f	0.028046696
64	0x3dda762f	0.10667073
65	0xbcc38b0e	-0.023870017
66	0xbe2e253e	-0.17006394
67	0x3e712968	0.23550951
68	0xbb6a7a9a	-0.0035778643
69	0xbe6c5509	-0.23079313
70	0xbe5c433b	-0.21510021
71	0xbeab845f	-0.3349943
72	0x3e624eb6	0.22100338
73	0x3d749107	0.05970862
74	0x3c840d05	0.01611949
75	0xbd8f9dfc	-0.07012555
76	0xbe4b7412	-0.19868496
77	0xbdcee0c1	-0.10101462
78	0xbdb159c5	-0.086597
79	0x3e78b08c	0.24286097
80	0xbe3799ec	-0.1792981
81	0x3d8ffdee	0.07030855
82	0xbc01e644	-0.007928435
83	0x3d7d7fa8	0.06188932
84	0xbe994b2f	-0.29940173
85	0x3e0a0d93	0.1348174
86	0x3ca8af5a	0.020591427
87	0x3dde10bf	0.10843038
88	0xbd8a4717	-0.067518406
89	0xbd54859e	-0.05188524
90	0x3e83edd1	0.25767377
91	0x3b454775	0.0030102406
92	0xbc10e52e	-0.008843703
93	0xbd717318	-0.058947653
94	0xbdf4b40c	-0.11948404
95	0xbe5b477b	-0.21413986
96	0x3c6ccf4d	0.014453721
97	0xbe82daa0	-0.25557423
98	0xbcf0fd5b	-0.029417684
99	0xbd0e083a	-0.034675814
100	0x3d3fbff8	0.046813935
101	0xbd02b8bd	-0.03191446
102	0xbe12ab1e	-0.14323089
103	0xbe884048	-0.26611543
104	0x3dbb93a6	0.09159021
105	0x3d7c1fbc	0.0615537
106	0xbe5417ef	-0.20712255
107	0xbe0d0b2b	-0.13773791
108	0x3e00c790	0.12576127
109	0xbe54b11a	-0.20770684
110	0x3d1b2a30	0.03788203
111	0xbd7a02f0	-0.061037958
112	0x3dabec1c	0.08394644
113	0x3d0ecacb	0.034861367
114	0xbc471ae4	-0.012152407
115	0xbde83eb3	-0.11340084
116	0x3d88747d	0.066628434
117	0xbe3c6b0e	-0.18400213
118	0xbd24c6ff	-0.04022884
119	0xbde22ae5	-0.11043338
120	0x3ba67386	0.0050796894
121	0x3e10d670	0.14144301
122	0xbdf2a8e7	-0.11848622
123	0xbd6b9e5f	-0.05752408
124	0x3d3274da	0.04356847
125	0xbc35cb8e	-0.0110958945
126	0x3d5cc896	0.05390223
127	0xbd5ca6fd	-0.05387019
128	0xbd95b549	-0.07309968
129	0x3c0d4b29	0.008623877
130	0xbd8511bc	-0.06497523
131	0xbbe34892	-0.0069361413
132	0xbe2e0525	-0.1699415
133	0xbe05389e	-0.13009879
134	0x3d75ee44	0.06004168
135	0x3d1bb17c	0.03801106
136	0xbde6d89c	-0.11271784
137	0x3d516586	0.05112221
138	0xbd94d4cc	-0.0726715
139	0x3c8dbc18	0.017301604
140	0xbbf9c5ab	-0.007622441
141	0xbe06e6c0	-0.13173962
142	0x3c8cb40b	0.017175695
143	0x3da99f87	0.082823806
144	0xbbb33c68	-0.0054698475
145	0xbdcb3dce	-0.09923898
146	0x3b160afb	0.0022894728
147	0x3d6dba93	0.05803926
148	0xbdae15a5	-0.08500222
149	0xbe55783d	-0.20846649
150	0x3d55065e	0.052008025
151	0xbd40fbdb	-0.047115188
152	0xbb13a618	-0.002252942
153	0x3e3fd365	0.18732984
154	0xbd4203fe	-0.04736709
155	0xbdae0d4f	-0.08498632
156	0xbe25e62d	-0.16201086
157	0xbdbdbe96	-0.09264867
158	0x3e34b3e8	0.17646754
159	0xbd3204e6	-0.043461703
160	0xbe299113	-0.16559248
161	0xbd483a48	-0.048883706
162	0x3e23f96b	0.16013114
163	0xbd977b16	-0.07396524
164	0xbd5f5bd8	-0.05453095
165	0xbe7bdefb	-0.24596779
166	0x3e1f8f4d	0.15582009
167	0x3dc200bb	0.094727956
168	0x3c36d022	0.011158021
169	0x3e1975d3	0.14986353
170	0x3ea63343	0.32460985
171	0xbca5fc8b	-0.020262023
172	0xbe0443c9	-0.12916483
173	0xbb9a3bd1	-0.0047068377
174	0xbe066056	-0.13122687
175	0xbd828f4a	-0.063749865
176	0xbdd92c6d	-0.10604177
177	0xbe6846d3	-0.22683267
178	0x3e0d8838	0.13821495
179	0x3e0789ed	0.13236208
180	0xbd30d2aa	-0.043169655
181	0xbdc6810a	-0.09692581
182	0xbe2f4969	-0.17117848
183	0xbd131ce4	-0.035916224
184	0x3e522ee8	0.20525706
185	0xbd737853	-0.059440922
186	0xbe2f4595	-0.17116387
187	0xbd5f8d5e	-0.054578178
188	0x3d930d6a	0.07180293
189	0xbe10900e	-0.14117453
190	0x3e45bcaa	0.19310251
191	0x3da0a7e3	0.07844522
192	0xbdf02a80	-0.11726856
193	0x3e0e177f	0.1387615
194	0xbdf0740f	-0.117408864
195	0xbdeb15b3	-0.11478748
196	0x3d9db14e	0.07699834
197	0xbd6ff074	-0.058578923
198	0x3dc7408b	0.097291075
199	0x3ddc1506	0.107461974
200	0xbe52bcd2	-0.20579842
201	0x3ddd9aa1	0.10820509
202	0x3e78f024	0.24310356
203	0x3ccba568	0.024859145
204	0xbe000058	-0.12500131
205	0x3d274757	0.04083952
206	0x3e862708	0.26201653
207	0x3e38f895	0.18063577
208	0x3e139bff	0.14414977
209	0x3d4f5c34	0.05062504
210	0x3c8cac4e	0.017172005
211	0xbd9efb10	-0.0776273
212	0xbcaa1771	-0.02076313
213	0xbdef2ddf	-0.11678671
214	0xbdda27f7	-0.10652154
215	0xbdd8cc45	-0.10585836
216	0x3da92283	0.08258536
217	0xbdf0b59d	-0.1175339
218	0x3e1199ce	0.14218828
219	0x3dc015cb	0.09379157
220	0x3d614b4f	0.05500346
221	0xbe376279	-0.17908658
222	0xbbd9d144	-0.006647261
223	0xbe325ca3	-0.1741815
224	0x3d1f98f6	0.038964234
225	0xbc3d4377	-0.011551729
226	0xbdc5aa64	-0.0965164
227	0xbe13663c	-0.14394468
228	0x3e137e3e	0.14403626
229	0x3dac7fa8	0.08422786
230	0x3dddefe8	0.10836774
231	0xbe581e6a	-0.21105352
232	0xbd5010d3	-0.050797295
233	0x3d7a6c60	0.06113851
234	0xbde4d094	-0.111725956
235	0xbdc99601	-0.09843064
236	0x3d24797b	0.040154915
237	0x3d064c7b	0.03278778
238	0xbd9d6097	-0.07684439
239	0xbd37afe9	-0.044845495
240	0x3befe699	0.0073211906
241	0x3cad8654	0.021182217
242	0x3e260ec9	0.16216578
243	0x3d6fc66e	0.058538847
244	0xbe2cdcbd	-0.1688108
245	0x3d4e65dd	0.050390113
246	0x3e6d9ec5	0.23205097
247	0xbda93395	-0.082617916
248	0xbd47a145	-0.048737783
249	0x3dd632de	0.10458921
250	0x3e4824f1	0.19545342
251	0xbe03beb0	-0.1286571
252	0x3c8d27cc	0.01723089
253	0x3d755088	0.059891254
254	0x3c67deb1	0.014152215
255	0xbde0044a	-0.10938318
