Results/0056_generator1_adjusted.pth (torch, 160009 bytes, 32 tensors)

weight_ih_l0 f4 [120, 20]
-0.104719594 0.07212125 -0.07792768 0.15947042 -0.021165691 0.05373838 0.14342488 -0.04918272
0.1294399 -0.01849507 0.0057338807 -0.14877999 0.23970143 0.10313746 -0.026906583 0.054329414
0.041381795 -0.22195156 -0.06687045 -0.00014449097 -0.020419436 -0.017063694 0.0019954126 0.14270341
0.07410539 0.15927899 0.06396805 0.0112860985 0.01086724 -0.023224035 0.2786484 0.09341241
-0.25894874 -0.18073952 0.008693792 0.26787868 0.23033142 -0.050708186 0.043738905 -0.026985485
0.079315655 0.22886792 0.15411794 0.084770575 0.23912975 0.25479004 0.046659477 0.04882431
0.1289177 0.117497295 -0.030625552 -0.008406938 0.25221086 0.044718947 0.21155411 0.08645301
-0.25489604 -0.27286878 -0.008444166 -0.0702087 0.09175448 -0.06380364 0.08781209 -0.035091028
-0.06332024 0.14847705 0.008825658 0.20709614 -0.06726752 0.18099266 0.27906114 -0.08683898
-0.18603903 -0.014552119 -0.296824 0.11320235 0.28066713 0.08909922 0.028273037 -0.0315928
0.0468033 0.11237962 -0.11989494 0.028631978 0.12145419 0.18497029 0.12120747 0.11021641
-0.009057103 0.013014146 -0.20118402 0.044836 -0.07438546 -0.016239438 0.10701551 -0.25812978
-0.20118186 0.023113895 0.11622962 -0.17548779 0.17186776 0.06396549 0.038492393 -0.09326062
-0.043476857 -0.041472137 0.04717097 -0.047325455 0.010662492 -0.028286668 0.17772515 -0.011946004
-0.021496877 -0.020017536 -0.06304491 0.09715326 0.14791454 0.14337371 0.040156145 0.20269816
0.06847685 0.025475085 0.0068396875 0.052428138 -0.15384926 -0.097054966 0.038304187 -0.042508364
0.06932683 -0.049981415 0.034315348 -0.04143283 -0.014993961 -0.050488193 0.0032184247 -0.0262191
0.15412368 -0.040700547 -0.056635004 0.18928804 -0.04614009 0.0034938932 0.22478735 0.06912795
-0.034511622 -0.035715926 0.073171005 0.009248577 -0.042116523 0.22758552 0.18103246 0.070923895
-0.0030632312 -0.22081926 -0.12184149 0.09210546 -0.10634197 0.054583296 -0.0065171267 0.19081336
0.14266899 0.11721178 0.034560204 -0.080039844 0.15326412 -0.012238427 0.17501564 0.019885907
0.09694323 0.07936199 0.23444113 0.08819248 -0.3079177 -0.05267381 -0.2907195 0.18792626
0.12014919 0.15963644 -0.017216362 0.12075658 0.1762448 0.18574618 0.14303055 0.0017354004
0.1606662 -0.022966372 0.15918317 0.05048617 0.016237061 0.037624054 -0.038050245 0.022774473
-0.17988153 0.08602464 0.0065454417 -0.21915025 0.0038377591 0.0051906337 -0.023765048 0.19458431
-0.11697175 0.045692522 -0.16017683 -0.09328991 0.06789637 -0.19539835 -0.112021804 -0.17468782
-0.00453016 -0.20590656 0.20577301 -0.063371815 -0.0055463566 -0.15316208 -0.15644225 -0.028537577
0.2789498 0.22842547 -0.11971574 0.09036762 -0.05224753 -0.17000966 0.14183885 0.07671198
-0.039969537 -0.03433047 0.11563887 0.028238252 -0.13312149 -0.11645432 0.10671917 0.120830774
0.037415672 -0.16330719 -0.17140271 0.17447457 0.067359224 0.15454747 -0.023732206 0.09625429
0.06868275 -0.025702655 -0.04455531 0.01553637 0.004086772 0.13255745 0.14424029 -0.07712288
0.1384882 0.049520787 0.014777706 0.16465455 -0.040396295 0.0023183897 -0.18003596 0.14645031
00000000: 3a77 d6bd 4eb4 933d 8c98 9fbd 374c 233e
00000010: ac63 adbc c71c 5c3d f9dd 123e d273 49bd
00000020: e58b 043e f982 97bc 47e3 bb3b c859 18be
00000030: 4b74 753e bc39 d33d 326b dcbc 8588 5e3d
00000040: f57f 293d 4547 63be 60f3 88bd 8082 17b9
00000050: a946 a7bc 29c9 8bbc 78c5 023b d820 123e
00000060: 91c4 973d 081a 233e ae01 833d 54e9 383c
00000070: 820c 323c 5540 bebc 01ab 8e3e 014f bf3d
00000080: ee94 84be c813 39be 6870 0e3c 6527 893e
00000090: 00dc 6b3e 63b3 4fbd 9127 333d aa10 ddbc
000000a0: 3f70 a23d 5a5c 6a3e 18d1 1d3e 329c ad3d
000000b0: 6ede 743e d773 823e 021e 3f3d 00fc 473d
000000c0: 0003 043e 6ca2 f03d 70e2 fabc 41bd 09bc
000000d0: c821 813e 372b 373d a4a1 583e 470e b13d
000000e0: bc81 82be 75b5 8bbe 6659 0abc 94c9 8fbd
000000f0: c6e9 bb3d 7cab 82bd d3d6 b33d 9cbb 0fbd
00000100: 0bae 81bd 5e0a 183e 7e99 103c 0311 543e
00000110: 8ec3 89bd 2456 393e 1ae1 8e3e a3d8 b1bd
00000120: 0481 3ebe 036c 6ebc 51f9 97be a2d6 e73d
00000130: 9ab3 8f3e a779 b63d db9c e73c 7467 01bd
00000140: d1b4 3f3d 4927 e63d 7a8b f5bd 9c8d ea3c
00000150: f9bc f83d da68 3d3e 9f3b f83d 24b9 e13d
00000160: 3e64 14bc 4939 553c 2f03 4ebe f4a5 373d
00000170: 6757 98bd 9208 85bc f32a db3d 9629 84be
00000180: 9e02 4ebe 5a59 bd3c cc09 ee3d 12b3 33be
00000190: 1afe 2f3e 5700 833d 33aa 1d3d 6dff bebd
000001a0: ca14 32bd b0de 29bd 5936 413d 56d8 41bd
000001b0: bcb1 2e3c 71b9 e7bc 95fd 353e 2cb9 43bc
000001c0: 381a b0bc d1fb a3bc b11d 81bd 4af8 c63d
000001d0: e976 173e 8fd0 123e c57a 243d 1b90 4f3e
000001e0: 973d 8c3d 20b1 d03c 751f e03b e3be 563d
000001f0: a98a 1dbe c1c4 c6bd dae4 1c3d 401d 2ebd
00000200: 3afb 8d3d 50b9 4cbd 408e 0c3d 79b5 29bd
00000210: 3ba9 75bc b5cc 4ebd 35ec 523b 70c9 d6bc
00000220: 99d2 1d3e 9eb5 26bd 1bfa 67bd b9d4 413e
00000230: 64fd 3cbd cdf9 643b a82e 663e f492 8d3d
00000240: 0f5c 0dbd dd4a 12bd aeda 953d 5887 173c
00000250: 6082 2cbd 2e0c 693e 9360 393e 8c40 913d
00000260: 7ec0 48bb 721e 62be 0888 f9bd caa1 bc3d
00000270: d2c9 d9bd bc92 5f3d 9f8d d5bb 9464 433e
00000280: d217 123e bb0c f03d 008f 0d3d eeeb a3bd
00000290: 45f1 1c3e af83 48bc 4d37 333e c5e7 a23c
000002a0: 2c8a c63d 8a88 a23d 5611 703e 429e b43d
000002b0: 64a7 9dbe 7ec0 57bd 30d9 94be be6f 403e
000002c0: c710 f63d bc77 233e 5409 8dbc 3a4f f73d
000002d0: 8479 343e 3f34 3e3e 9a76 123e 6076 e33a
000002e0: ae85 243e f923 bcbc ea00 233e 96ca 4e3d
000002f0: 9603 853c ae1b 1a3d 93da 1bbd 8891 ba3c
00000300: dd32 38be b02d b03d 257b d63b ec68 60be
00000310: ea82 7b3b 3116 aa3b ebae c2bc 1c41 473e
00000320: e38e efbd 1528 3b3d 6505 24be c80e bfbd
00000330: 410d 8b3d 8116 48be b06b e5bd 5de1 32be
00000340: bd71 94bb 2bd9 52be 29b6 523e 15c9 81bd
00000350: 36be b5bb 85d6 1cbe 6632 20be a3c7 e9bc
00000360: 82d2 8e3e 5ee8 693e 872d f5bd a912 b93d
00000370: 8201 56bd 0317 2ebe 343e 113e 2c1b 9d3d
00000380: 19b7 23bd 1b9e 0cbd 12d4 ec3d e853 e73c
00000390: 0051 08be 9a7f eebd 958f da3d 2076 f73d
000003a0: 2d41 193d 003a 27be 3184 2fbe 76a9 323e
000003b0: a2f3 893d b141 1e3e 0b6a c2bc f820 c53d
000003c0: 8ba9 8c3d 608e d2bc a17f 36bd 428c 7e3c
000003d0: 54ea 853b 24bd 073e bab3 133e 9af2 9dbd
000003e0: dacf 0d3e 4fd6 4a3d 311e 723c 349b 283e
000003f0: 9676 25bd 20f0 173b 595b 38be 12f7 153e

weight_hh_l0 f4 [120, 40]
-0.012521545 0.07198915 -0.03129807 0.09516772 -0.091188386 -0.16760148 0.14016339 -0.13256559
0.11524549 0.004567654 -0.12746713 0.05591462 -0.039332338 0.006403967 -0.23739727 -0.04684612
0.098316915 0.008479141 -0.011336926 0.11405899 0.12769899 -0.043404244 0.20433347 0.09461131
0.25771385 0.017981213 0.113130495 0.22028832 0.07627318 -0.044544283 0.06798688 0.09888781
-0.14506355 -0.14572537 0.0955838 0.10012707 0.03128628 -0.050025053 -0.112938724 0.02237503
-0.061650746 -0.122811735 0.041043844 0.16464967 0.018245416 -0.015724998 -0.015710393 0.033725545
-0.026865762 -0.10758802 -0.0005073843 0.1461597 -0.07497353 -0.073932774 0.016936911 -0.01608548
-0.18397483 0.028875794 -0.0635415 -0.061383817 0.018139865 -0.08881053 0.035780016 0.16048208
-0.116166145 -0.040670868 0.010621761 0.025489751 0.12340905 -0.018377248 0.03945999 -0.18793397
-0.07240357 -0.120847054 0.08254203 -0.04475365 0.22354111 -0.044954646 0.18280001 -0.22574197
-0.18211518 -0.23977098 -0.054452408 0.11994534 -0.07072162 0.104042314 -0.053051837 0.08578793
-0.07652306 -0.116466634 0.065067515 0.11616673 0.0076572155 -0.1324859 0.009706529 0.016176596
-0.037950523 0.052831635 -0.054492798 0.04886556 0.12862453 0.017956538 -0.02730147 0.04301013
0.049585965 -0.020628804 0.13911527 -0.0136747155 -0.115853004 -0.19066748 0.021373622 0.09251646
-0.21901423 -0.012479034 0.1349785 -0.07366736 -0.031068614 -0.11004708 0.036766026 -0.070304036
0.0702226 -0.117453575 -0.027655153 0.18121572 -0.23919371 -0.021927401 -0.09235451 -0.123600595
0.11853021 0.0005084863 0.017647108 0.00872076 0.20069943 -0.019821376 -0.13314536 -0.0147513915
-0.068182096 -0.07748027 0.15841313 0.0015503203 -0.05591126 -0.14158997 0.11026283 0.15193756
0.050288543 -0.16388033 0.2301816 -0.0007851098 0.10198742 0.017742172 -0.21334319 -0.0914189
0.038189936 -0.01935504 -0.17605022 0.092613555 0.074644566 0.05306304 -0.06967225 0.0040792655
-0.1892562 0.101854905 -0.11994612 0.15497062 -0.16572833 -0.13081501 0.16187005 0.002402049
-0.17607574 -0.03211624 -0.008146541 0.08381347 -0.05122307 -0.05887278 0.098960966 -0.19104107
0.16987604 -0.019148821 0.023409069 -0.081004575 -0.1635489 -0.067149736 0.15865391 -0.050723683
-0.0314758 0.11431599 0.05304644 -0.08995696 0.065573886 0.10451164 0.14174594 -0.020688599
0.026620807 0.094297625 0.087476 -0.006313102 -0.14163512 0.020838626 0.12811439 0.049678255
0.009181252 0.057136863 0.019561872 0.16846657 -0.0068575405 -0.1592476 -0.07644732 -0.10469671
0.18621308 -0.15264365 0.010160687 -0.032930717 -0.08194999 0.120683424 0.1095443 0.052357465
-0.029937366 0.024180984 0.20215918 0.16196223 0.11697165 -0.025857236 0.07614411 0.17310722
-0.039404724 0.01727907 0.1458784 -0.12630656 0.009787414 -0.102848254 -0.2018406 -0.020122033
0.09673948 -0.033504643 -0.06444221 0.05023544 -0.047184315 -0.02485696 0.13963033 -0.022626154
-0.0795346 0.17282058 -0.12800924 0.10470232 0.091143355 -0.0037112888 0.19044243 0.042245157
-0.18208002 0.025552696 0.09772323 -0.08548113 -0.13534291 0.0825985 -0.025211781 0.03896646
00000000: 2b27 4dbc 0c6f 933d 6832 00bd 4be7 c23d
00000010: fac0 babd b99f 2bbe fe86 0f3e 46bf 07be
00000020: d405 ec3d 42ac 953b be86 02be bb06 653d
00000030: f21a 21bd 5ed8 d13b 4518 73be b8e1 3fbd
00000040: 615a c93d 18ec 0a3c 84be 39bc c297 e93d
00000050: 86c3 023e a6c8 31bd cb3c 513e 93c3 c13d
00000060: 12f3 833e 564d 933c f6b0 e73d 4393 613e
00000070: 1d35 9c3d 1174 36bd b53c 8b3d b185 ca3d
00000080: 8a8b 14be 0839 15be 70c1 c33d 6c0f cd3d
00000090: 0b26 003d 12e7 4cbd 6b4c e7bd d74b b73c
000000a0: 7e85 7cbd b884 fbbd 971d 283d ec99 283e
000000b0: 6977 953c b6d1 80bc 15b3 80bc cc23 0a3d
000000c0: 9615 dcbc 1c57 dcbd fc01 05ba e3aa 153e
000000d0: b98b 99bd 116a 97bd 47bf 8a3c b2c5 83bc
000000e0: e663 3cbe ee8c ec3c 0c22 82bd 996d 7bbd
000000f0: 0e9a 943c 4ce2 b5bd 118e 123d 6a55 243e
00000100: 84e8 edbd 7f96 26bd e506 2e3c e2cf d03c
00000110: e2bd fc3d e28b 96bc cca0 213d c371 40be
00000120: 5348 94bd a97e f7bd cc0b a93d 9a4f 37bd
00000130: f6e7 643e 5d22 38bd ed2f 3b3e e728 67be
00000140: 677c 3abe 8686 75be 7d09 5fbd e7a5 f53d
00000150: 7fd6 90bd 2314 d53d e24c 59bd 95b1 af3d
00000160: 1fb8 9cbd 0f86 eebd 1e42 853d d3e8 ed3d
00000170: 61e9 fa3b 62aa 07be 2208 1f3c c884 843c
00000180: 0272 1bbd fc65 583d d733 5fbd 4127 483d
00000190: 26b6 033e 9719 933c 55a7 dfbc 642b 303d
000001a0: a71a 4b3d bdfd a8bc 3c74 0e3e ea0b 60bc
000001b0: 5744 edbd 563e 43be bc17 af3c 4579 bd3d
000001c0: 4445 60be dd74 4cbc ce37 0a3e eade 96bd
000001d0: 9b83 febc 5d60 e1bd f997 163d 90fb 8fbd
000001e0: ded0 8f3d 808b f0bd 0f8d e2bc 9d90 393e
000001f0: 32ef 74be 18a1 b3bc 5d24 bdbd 4f22 fdbd
00000200: f7bf f23d f04b 053a ab90 903c 85e1 0e3c
00000210: 2784 4d3e 7060 a2bc 4257 08be d2af 71bc
00000220: 0ea3 8bbd faad 9ebd 0d37 223e 1e34 cb3a
00000230: 3503 65bd f6fc 10be 7bd1 e13d 8595 1b3e
00000240: 5cfb 4d3d 3fd0 27be bab4 6b3e d4cf 4dba
00000250: c8de d03d 0858 913c a376 5abe d539 bbbd
00000260: 0d6d 1c3d 768e 9ebc 8246 34be 2dac bd3d
00000270: 40df 983d a158 593d 53b0 8ebd 5cab 853b
00000280: 61cc 41be 4e99 d03d 50a6 f5bd 9eb0 1e3e
00000290: b0b4 29be 5ff4 05be 43c1 253e b26b 1d3b
000002a0: 334d 34be 528c 03bd 1279 05bc 66a6 ab3d
000002b0: 48cf 51bd 9624 71bd 0cac ca3d 45a0 43be
000002c0: fcf3 2d3e fddd 9cbc 60c4 bf3c bae5 a5bd
000002d0: 5d79 27be cd85 89bd 2c76 223e a3c3 4fbd
000002e0: c5ec 00bd 801e ea3d 3947 593d 5b3b b8bd
000002f0: 9a4b 863d 330a d63d d925 113e 237b a9bc
00000300: e113 da3c 1d1f c13d 9e26 b33d 23de cebb
00000310: cc08 11be c4b5 aa3c 6b30 033e 6d7b 4b3d
00000320: f66c 163c 5808 6a3d 3840 a03c 8082 2c3e
00000330: 38b5 e0bb ce11 23be 6a90 9cbd 3b6b d6bd
00000340: a4ae 3e3e 9e4e 1cbe 0379 263c 5ce2 06bd
00000350: 65d5 a7bd df28 f73d c358 e03d c874 563d
00000360: 353f f5bc 3317 c63c d102 4f3e 6dd9 253e
00000370: d58e ef3d 8ed2 d3bc 71f1 9b3d 0543 313e
00000380: d966 21bd d68c 8d3c 2661 153e 8256 01be
00000390: 645b 203c 1ba2 d2bd 4daf 4ebe f6d6 a4bc
000003a0: 591f c63d 2a3c 09bd 47fa 83bd adc3 4d3d
000003b0: 5744 41bd d3a0 cbbc 41fb 0e3e 7c5a b9bc
000003c0: 09e3 a2bd e1f7 303e db14 03be 2c6e d63d
000003d0: 5ea9 ba3d 1839 73bb 5703 433e 4209 2d3d
000003e0: 2f73 3abe e353 d13c 1e23 c83d bb10 afbd
000003f0: 5597 0abe 6729 a93d f088 cebc 4b9b 1f3d

bias_ih_l0 f4 [120]
0.09763668 0.018265344 -0.11548156 0.092857786 0.11874927 0.011427693 0.211825 -0.11449485
0.109874085 0.1543801 -0.11138003 0.118987955 -0.10867254 -0.18113346 0.06506672 -0.046624657
0.100865 -0.14453807 -0.112866625 -0.1416834 -0.06368501 0.024480857 -0.1262098 0.19136599
0.07610359 0.0123805115 -0.18330802 0.13345791 0.004923393 0.18534535 -0.17551993 0.09232973
0.2105671 0.053795896 -0.1737002 0.06877711 -0.064837754 -0.049564227 -0.049921162 0.08893075
-0.05865139 -0.21224976 -0.21769004 -0.31977275 -0.14820549 -0.058593508 -0.20123473 -0.092104696
-0.27437416 -0.21710184 -0.19632123 -0.045315977 -0.13966592 -0.19553398 -0.3165451 -0.27810457
-0.27154613 -0.16662963 -0.31572092 -0.23700011 -0.09088285 -0.15506786 0.015562587 -0.21936186
-0.2548196 -0.2510472 -0.14085998 -0.22551326 -0.26215875 -0.13799557 -0.09612126 -0.03449884
-0.02861486 -0.112636834 -0.009256956 -0.32607573 -0.2532991 -0.09822014 -0.17244406 -0.23233232
-0.06575882 0.04757092 -0.068863474 0.08721148 -0.022784952 -0.10707773 0.09963998 -0.043275
-0.03710798 0.077140905 0.09190773 0.050026145 0.023910683 0.15373379 -0.025975546 -0.15535063
0.107529774 -0.17548726 0.016563665 -0.16020131 -0.14557713 0.16738626 0.123941936 -0.11835068
-0.10213396 0.18469773 -0.03951356 -0.09561932 0.16492744 -0.08593032 0.011475823 0.15078701
-0.10547384 0.10325909 0.09727344 0.095972255 -0.16595732 -0.12301535 -0.17706636 0.106058404
00000000: bdf5 c73d 34a1 953c 9981 ecbd 392c be3d
00000010: d132 f33d 383b 3b3c a7e8 583e 477c eabd
00000020: aa05 e13d d115 1e3e 371b e4bd f5af f33d
00000030: b58f debd 0d7b 39be b341 853d 7ff9 3ebd
00000040: 4f92 ce3d ca01 14be 9e26 e7bd 7415 11be
00000050: 496d 82bd 148c c83c 243d 01be 72f5 433e
00000060: 33dc 9b3d a1d7 4a3c 19b5 3bbe 31a9 083e
00000070: 6a54 a13b 2ccb 3d3e 7fbb 33be 5f17 bd3d
00000080: e79e 573e 1659 5c3d 77de 31be 03db 8c3d
00000090: a8c9 84bd dc03 4bbd 227a 4cbd 5321 b63d
000000a0: 713c 70bd 0058 59be 23ea 5ebe 41b9 a3be
000000b0: 2ec3 17be bfff 6fbd 7a10 4ebe 63a1 bcbd
000000c0: c57a 8cbe f24f 5ebe 6f08 49be 3f9d 39bd
000000d0: 9504 0fbe 0f3a 48be 3312 a2be b963 8ebe
000000e0: 1808 8bbe f5a0 2abe 2ca6 a1be 28b0 72be
000000f0: ca20 babd 1cca 1ebe 39fa 7e3c 65a0 60be
00000100: b777 82be 4289 80be 993d 10be f3ec 66be
00000110: ac39 86be b64e 0dbe 39db c4bd a84e 0dbd
00000120: b669 eabc 24ae e6bd 7daa 17bc 66f3 a6be
00000130: 6bb0 81be a427 c9bd 2d95 30be 86e8 6dbe
00000140: 8fac 86bd bad9 423d 4b08 8dbd ef9b b23d
00000150: 82a7 babc 924b dbbd 0c10 cc3d 2041 31bd
00000160: 8afe 17bd 0dfc 9d3d 1f3a bc3d 37e8 4c3d
00000170: 56e0 c33c 646c 1d3e abca d4bc 3c14 1fbe
00000180: 9238 dc3d efb2 33be 86b0 873c d00b 24be
00000190: 2c12 15be 4e67 2b3e 45d5 fd3d d761 f2bd
000001a0: 9c2b d1bd 6721 3d3e f8d8 21bd 10d4 c3bd
000001b0: bde2 283e 3cfc afbd 1705 3c3c e967 1a3e
000001c0: ab02 d8bd 8079 d33d 4c37 c73d 1a8d c43d
000001d0: b7f0 29be 79ef fbbd e250 35be 2635 d93d

bias_hh_l0 f4 [120]
0.1463445 0.04954716 0.104299165 -0.1045568 0.11146647 -0.11266233 0.22248551 0.1547638
0.050130207 0.15443024 0.07310158 -0.18519866 0.056876168 -0.18464006 0.037938897 0.002843314
0.07040934 -0.122304164 -0.05022325 -0.12546866 0.0849616 -0.08318112 -0.14084373 0.09278898
0.035990566 -0.10935189 0.010342965 0.14921163 0.008364655 0.16333173 -0.097949766 -0.015210153
0.0365723 -0.010260536 -0.13655825 0.06738991 0.1386016 0.12870324 0.1081835 -0.03611397
-0.18062046 -0.12388623 -0.09268774 -0.15968746 -0.18876518 -0.046724353 -0.23950313 -0.26977497
-0.12361995 -0.27354574 -0.042627856 -0.09628889 -0.029971233 -0.11046058 -0.24088201 -0.22781928
-0.20452249 -0.038843967 -0.24940148 -0.24330452 -0.20312858 -0.070476435 0.045431167 -0.08306355
-0.18617548 -0.06991382 -0.1965092 -0.08729818 -0.14809187 -0.17708981 -0.24363959 -0.21946068
0.07425015 -0.16576433 -0.20319217 -0.29835594 -0.11450596 -0.18766794 -0.2520603 -0.18688329
-0.15204933 0.053508133 -0.06474494 -0.12766434 -0.068324745 -0.03255563 0.21700479 0.14934376
-0.08252587 -0.07171562 0.15651634 -0.10718641 -0.067855515 0.013829543 -0.040425673 -0.0095792245
0.094665475 0.0656611 -0.15731737 -0.03921003 -0.09049561 -0.029759614 0.054429747 -0.14110874
-0.0050158883 0.162597 -0.09555363 0.101744875 0.14555223 -0.13790864 0.01148896 -0.08054325
-0.1887181 0.0004844535 -0.074655004 0.11003331 -0.0707396 -0.028475767 -0.056478184 0.0147391
00000000: 55db 153e f6f1 4a3d cd9a d53d e021 d6bd
00000010: 8848 e43d 82bb e6bd 3ed3 633e 677a 1e3e
00000020: 5555 4d3d f622 1e3e 48b6 953d b8a4 3dbe
00000030: fcf6 683d 4912 3dbe d165 1b3d e556 3a3b
00000040: c632 903d 9b7a fabd e5b6 4dbd db7a 00be
00000050: 5900 ae3d dd5a aabd 5739 10be 2608 be3d
00000060: d86a 133d e2f3 dfbd 8a75 293c efca 183e
00000070: e80b 093c 6f40 273e e399 c8bd 0134 79bc
00000080: d6cc 153d cf1b 28bc edd5 0bbe b903 8a3d
00000090: 94ed 0d3e c8ca 033e 508f dd3d 3eec 13bd
000000a0: 92f4 38be 10b8 fdbd 12d3 bdbd 1c85 23be
000000b0: a94b 41be 0962 3fbd 4f40 75be f21f 8abe
000000c0: 752c fdbd 300e 8cbe 8c9a 2ebd 1c33 c5bd
000000d0: 3b86 f5bc 2839 e2bd c6a9 76be 7549 69be
000000e0: 586e 51be da1a 1fbd 1a63 7fbe d224 79be
000000f0: f000 50be f355 90bd 0816 3a3d 391d aabd
00000100: c9a4 3ebe fa2e 8fbd b539 49be 63c9 b2bd
00000110: 65a5 17be 0857 35be a87c 79be 4dba 60be
00000120: 7610 983d 20be 29be 9c11 50be 1cc2 98be
00000130: 1a82 eabd 062c 40be 0c0e 81be 555e 3fbe
00000140: d2b2 1bbe 582b 5b3d ff98 84bd 71ba 02be
00000150: d8ed 8bbd 0d59 05bd 8136 5e3e 92ed 183e
00000160: 5303 a9bd a4df 92bd d245 203e 8c84 dbbd
00000170: d5f7 8abd 4f95 623c 6495 25bd 2ef2 1cbc
00000180: f9df c13d 5479 863d ce17 21be b29a 20bd
00000190: c355 b9bd 6fca f3bc baf1 5e3d cf7e 10be
000001a0: 525c a4bb d47f 263e 9fb1 c3bd 9e5f d03d
000001b0: a50b 153e ec37 0dbe 313c 3c3c dcf3 a4bd
000001c0: 513f 41be 40fe fd39 b9e4 98bd 2559 e13d
000001d0: ecdf 90bd 0346 e9bc ab55 67bd 447c 713c

weight f4 [40, 40]
0.02569103 0.016899962 -0.120014794 0.1498295 0.074786544 -0.14350855 0.10216571 0.045343816
0.25362286 0.122799136 -0.0485587 -0.0727064 0.10150204 -0.07963359 0.10197517 -0.0394823
0.074297324 0.12956466 -0.073951066 0.2041985 0.032081246 -0.21811342 0.15539657 0.12853283
-0.033274565 -0.07965106 -0.015882073 0.0033586922 -0.1282759 0.12150306 -0.09691311 -0.009763414
-0.05657418 -0.06772736 -0.036848642 0.05668055 -0.09132945 -0.103509225 0.0006811571 -0.05487913
-0.05869211 0.2531628 -0.16404612 -0.20808835 0.06705833 0.23292409 -0.04873571 0.24745399
-0.13320659 0.060607053 0.22541878 -0.08730204 -0.123636305 0.15016809 -0.0026975346 -0.007883631
-0.029673167 -0.030148817 0.24910212 -0.10085881 -0.2565274 -0.03619534 -0.02004593 -0.106967025
-0.26856253 0.209149 0.040637188 -0.3220236 0.07881582 -0.19516571 0.20412242 -0.018451516
-0.10959492 0.18687782 -0.08519886 0.23751213 -0.13391781 -0.22910954 -0.20200285 0.08138521
-0.114080764 -0.17256424 -0.100018695 0.105959915 0.017794428 -0.20741932 -0.04980095 -0.12978962
0.17950764 -0.104333214 -0.103134386 0.1670106 0.16306584 0.011084383 -0.2404774 -0.02595409
0.23976058 0.0010067511 -0.18014877 0.06799834 -0.004115415 -0.13662075 0.03897491 0.08119769
0.12382563 0.10750033 -0.09602158 0.1221481 0.101243235 -0.21282044 -0.12793535 0.10889204
-0.19747317 -0.05435022 -0.03536313 0.16788986 0.06468106 -0.041947536 -0.05782693 0.039722033
-0.17850564 0.02991688 -0.033738766 -0.023118477 -0.037707545 -0.16262081 0.08646552 -0.10092151
0.11351145 0.002459004 0.04786487 0.14117137 0.10206753 -0.11573853 -0.12775862 -0.05650332
0.11068864 0.027068099 -0.03980819 0.010443034 0.08319958 -0.14544727 0.034609243 -0.11010094
0.17066592 -0.044838984 0.015310349 0.12292817 -0.005481835 -0.057225764 -0.22102779 -0.07545356
-0.1081993 -0.19297433 0.025662858 0.14208673 -0.11020635 -0.06436261 -0.11263675 -0.08304783
-0.14270587 0.12769902 0.12157319 0.020563155 -0.031485762 0.07958722 0.04184 0.0045725917
-0.10866114 -0.02580371 -0.0059881518 -0.0925337 0.10295132 0.15827067 0.08995232 0.1640171
-0.009056706 -0.2501295 0.18894145 -0.19195959 -0.02237022 0.021086864 -0.1583349 -0.084308684
-0.05097584 -0.032480903 0.15173279 -0.16050561 -0.052595027 -0.09583271 0.17278928 0.031471096
-0.04070215 0.09539934 0.022516401 0.20552945 0.100940414 -0.092827894 -0.024701785 -0.14358279
0.14675964 0.2169405 0.05636797 -0.10135113 0.07212378 0.08912991 -0.0552855 0.00027921377
-0.1959276 0.12415682 0.19092582 -0.002554682 -0.038259923 0.22487795 0.12536806 -0.09940487
-0.028902268 -0.20285112 -0.029546391 -0.22494946 -0.01016585 0.09743206 0.045310523 0.027878368
-0.08801452 0.08573438 -0.099834055 -0.2626407 0.16505449 -0.09446466 0.09927097 0.10464329
-0.043350667 0.1703443 0.11375703 0.07250608 0.122465186 -0.19933794 -0.13026185 -0.12127476
-0.08935199 0.24298093 -0.12926805 -0.14529936 -0.14553241 0.09991279 -0.0110220015 0.2305958
-0.14756778 -0.17403226 0.10704318 -0.17857873 -0.10769772 0.016066898 0.10512086 0.18456171
00000000: ff75 d23c ca71 8a3c 51ca f5bd e86c 193e
00000010: b029 993d e8f3 12be 413c d13d 70ba 393d
00000020: dbda 813e 1d7e fb3d 7de5 46bd 18e7 94bd
00000030: 4de0 cf3d f016 a3bd 5cd8 d03d 31b8 21bd
00000040: 3229 983d 99ac 043e a873 97bd 6919 513e
00000050: a067 033d 2059 5fbe 4720 1f3e 1c9e 033e
00000060: e94a 08bd 1820 a3bd 1f1b 82bc 811d 5c3b
00000070: c25a 03be 99d6 f83d 617a c6bd baf6 1fbc
00000080: 54ba 67bd a4b4 8abd 9aee 16bd dd29 683d
00000090: ef0a bbbd a5fc d3bd ae8f 323a f0c8 60bd
000000a0: 2367 70bd 8e9e 813e b5fb 27be 1d15 55be
000000b0: e155 893d a783 6e3e 199f 47bd 9464 7d3e
000000c0: 4f67 08be 1a3f 783d 2ed4 663e 69cb b2bd
000000d0: 0835 fdbd aac5 193e 1fc9 30bb 582a 01bc
000000e0: 2415 f3bc a7fa f6bc a014 7f3e 108f cebd
000000f0: 8f57 83be 9141 14bd 5d37 a4bc 8711 dbbd
00000100: 0781 89be 282b 563e 2e73 263d 47e0 a4be
00000110: 306a a13d 85d9 47be 7805 513e a227 97bc
00000120: 4d73 e0bd e65c 3f3e bd7c aebd 6136 733e
00000130: c021 09be b19b 6abe d6d9 4ebe 4aad a63d
00000140: 2da3 e9bd aeb4 30be 9ad6 ccbd 8301 d93d
00000150: 9fc5 913c bb65 54be 15fc 4bbd 92e7 04be
00000160: dad0 373e a7ac d5bd 1f38 d3bd d404 2b3e
00000170: bbfa 263e 469b 353c b53f 76be ac9d d4bc
00000180: cc83 753e f6f4 833a eb78 38be b742 8b3d
00000190: 9ada 86bb 4fe6 0bbe 28a4 1f3d f94a a63d
000001a0: 4b98 fd3d 2229 dc3d f6a6 c4bd c828 fa3d
000001b0: 9d58 cf3d 9aed 59be 7c01 03be ca02 df3d
000001c0: 6836 4abe 569e 5ebd eed8 10bd 52eb 2b3e
000001d0: 8177 843d 2ed1 2bbd eedb 6cbd 92b3 223d
000001e0: 2fca 36be 3f14 f53c a931 0abd f662 bdbc
000001f0: 3a73 1abd 1286 26be d614 b13d f0af cebd
00000200: b178 e83d 3e27 213b f40d 443d 3a8f 103e
00000210: c808 d13d 5308 edbd 28d3 02be 0670 67bd
00000220: bab0 e23d ebbd dd3c ea0d 23bd 4219 2b3c
00000230: 8b64 aa3d 21f0 14be 6cc2 0d3d 9a7c e1bd
00000240: 0cc3 2e3e 15a9 37bd 42d8 7a3c c4c1 fb3d
00000250: f7a0 b3bb 9065 6abd 1c55 62be 6587 9abd
00000260: 9897 ddbd 109b 45be ea3a d23c 2f7f 113e
00000270: deb3 e1bd 8bd0 83bd 19ae e6bd fb14 aabd
00000280: 7d21 12be 88c3 023e 5dfb f83d 1074 a83c
00000290: 37f7 00bd a0fe a23d 6b60 2b3d aed5 953b
000002a0: bb89 debd 4d62 d3bc 4238 c4bb 4f82 bdbd
000002b0: 24d8 d23d b511 223e ec38 b83d 19f4 273e
000002c0: 9462 14bc f910 80be de79 413e 0e91 44be
000002d0: c041 b7bc 5cbe ac3c 8b22 22be 08aa acbd
000002e0: 0bcc 50bd b20a 05bd d75f 1b3e 955b 24be
000002f0: e26d 57bd f143 c4bd acef 303e d6e7 003d
00000300: 4cb7 26bd bb60 c33d 5174 b83c 5076 523e
00000310: d9b9 ce3d 8d1c bebd 665b cabc 5e07 13be
00000320: 2948 163e a725 5e3e 1ae2 663d 2e91 cfbd
00000330: a2b5 933d be89 b63d 0c73 62bd 7063 9239
00000340: 3fa1 48be ee45 fe3d 0f82 433e 746c 27bb
00000350: 70b6 1cbd 6846 663e 7c60 003e c894 cbbd
00000360: 73c4 ecbc 34b8 4fbe 460b f2bc 2759 66be
00000370: aa8e 26bc 768a c73d 8797 393d 2d61 e43c
00000380: f540 b4bd 8295 af3d cc75 ccbd d878 86be
00000390: 0b04 293e b076 c1bd 944e cb3d 394f d63d
000003a0: 7890 31bd bc6e 2e3e 72f9 e83d 117e 943d
000003b0: 07cf fa3d 3f1f 4cbe 5d63 05be e75e f8bd
000003c0: 2dfe b6bd fecf 783e d85e 04be 5bc9 14be
000003d0: 7306 15be 149f cc3d a095 34bc 4e21 6c3e
000003e0: 021c 17be 8335 32be 7439 db3d 58dd 36be
000003f0: 9f90 dcbd ba9e 833c 9b49 d73d bffd 3c3e

bias f4 [40]
0.04227707 -0.07216374 -0.01644117 0.15870479 -0.045978364 0.09507 0.028395187 -0.12131238
0.17386575 0.022638371 -0.058107506 0.10324842 0.12262784 0.054860506 -0.106471166 0.12815458
-0.06537086 -0.22699153 -0.086431734 0.16828227 0.13264658 0.04807053 0.019417334 0.12814315
-0.10535488 -0.043898825 0.024634194 -0.020605315 -0.022329105 -0.18859613 0.078741066 -0.049665324
0.053388294 0.083899796 0.018119235 0.027498765 0.18992978 0.003604842 0.052391473 -0.028768258
00000000: b92a 2d3d 95ca 93bd a2af 86bc 8283 223e
00000010: cf53 3cbd 0fb4 c23d 069d e83c a072 f8bd
00000020: dd09 323e 1b74 b93c 2302 6ebd e873 d33d
00000030: 4e24 fb3d 69b5 603d 8e0d dabd f43a 033e
00000040: 28e1 85bd 7870 68be 1f03 b1bd 3052 2c3e
00000050: 81d4 073e 9be5 443d 1a11 9f3c f537 033e
00000060: 4dc4 d7bd 41cf 33bd a6cd c93c 7acc a8bc
00000070: 87eb b6bc 581f 41be ff42 a13d de6d 4bbd
00000080: afad 5a3d a8d3 ab3d ca6e 943c 1745 e13c
00000090: f47c 423e 363f 6c3b 7198 563d 69ab ebbc

weight f4 [40, 40]
0.23398659 -0.07338197 0.24092597 0.009348724 0.12796342 0.12659009 -0.117518626 0.055151604
0.0058795023 0.16510913 -0.029013326 0.21225372 0.21579891 0.03400968 0.0179678 0.017441696
0.10830593 0.014944097 0.11313583 0.1535932 -0.053990673 0.28177366 -0.08314661 0.066325225
-0.14444794 -0.0050814915 -0.017365139 0.010675719 -0.20492987 -0.06369734 0.22705612 0.006396456
-0.03600501 0.056548495 0.15397033 0.101257294 0.28297907 -0.04968176 -0.027913924 -0.037823066
0.08482026 -0.06396692 0.025152152 0.15099639 -0.12450229 -0.06628133 -0.15094543 0.105168566
0.15392894 -0.13684799 -0.030208267 0.040581666 0.100423135 0.17767137 0.15424745 -0.009764652
0.04949867 0.21839815 0.0841771 -0.04467701 0.13587648 0.18235359 0.10004278 0.014659099
0.21587485 0.081425674 0.1903146 -0.11678985 -0.014735891 -0.0063414862 -0.07958639 0.1532435
0.06373392 -0.018293161 0.12300392 0.11438135 0.096723 0.18157521 0.086769946 -0.032840267
-0.0038727964 -0.06032131 0.09005417 0.089840144 0.032710273 -0.057706796 -0.2154547 -0.20081826
-0.12394647 0.034835782 -0.11230132 0.0018216181 -0.009050009 -0.0328043 0.035596527 -0.043251548
0.023344094 0.033805825 0.21190676 0.075669155 -0.2622715 0.14882664 -0.1816155 0.0027908972
-0.12534787 -0.019948704 0.013322771 -0.19020401 -0.019057363 0.0060528205 -0.14983179 -0.1293475
-0.096672945 -0.025922798 -0.1777567 -0.03291072 0.08271134 -0.14917372 -0.13993694 -0.12951049
0.0029367977 0.08008057 -0.0048907064 0.032801267 0.06312534 0.17449394 -0.03387513 -0.063415885
-0.057431646 -0.04011443 0.17749438 -0.06981402 0.023547137 0.04711098 0.00248485 0.1505034
0.14798945 -0.10865003 -0.103792906 0.1922643 -0.13067746 0.033715017 0.00045421557 -0.014761152
-0.12540188 -0.049561504 -0.09672583 -0.09468797 -0.12183843 -0.015534325 0.08432825 0.16735654
0.006028018 -0.04243399 0.09618237 0.1736398 0.07188852 -0.10829263 -0.018993141 -0.14437385
0.08758811 0.17179355 -0.07169001 -0.080993354 0.095218 0.041404683 0.18414617 0.12672187
0.17830643 -0.016618337 0.19531833 0.0841636 -0.05728129 -0.046056587 0.032649484 0.12773721
0.09073711 0.075675204 0.112328015 0.11550144 -0.11462178 -0.13505943 0.05377502 -0.118196115
-0.07574165 -0.02665772 -0.12577519 -0.046386786 0.13148424 0.019589245 -0.17323342 0.16351427
0.11409837 -0.12584247 0.03486291 -0.095175065 -0.024453875 -0.06910145 0.13653603 -0.17872147
0.163875 0.094337426 0.2421841 0.23974404 0.0791613 0.16792873 0.095286444 0.1939238
0.15683216 0.034568895 0.10744702 0.26840866 0.12035936 0.16414668 0.08778011 0.16105153
-0.10971115 -0.021943796 -0.07786916 0.21927524 0.18858202 0.19143793 0.16860522 0.03548054
-0.036253523 0.116810195 0.14553966 0.09046894 0.13126266 0.06550186 0.20867646 0.006210596
-0.059442963 -0.018444186 -0.069828056 0.03711423 0.24904108 0.14155109 -0.10591409 -0.025983775
-0.035288036 -0.098986514 0.18583183 -0.04381571 -0.08914661 -0.11209719 0.0096630715 0.062040884
-0.12645791 -0.093010075 -0.0015728064 -0.067362055 0.039981127 0.0657269 -0.12218693 -0.13249822
00000000: 2e9a 6f3e 4949 96bd 4cb5 763e 642b 193c
00000010: d808 033e d5a0 013e 9bad f0bd a6e6 613d
00000020: d7a8 c03b 5e12 293e 5bad edbc 0a59 593e
00000030: 64fa 5c3e bc4d 0b3d 3531 933c e3e1 8e3c
00000040: 80cf dd3d 16d8 743c c2b3 e73d 8947 1d3e
00000050: 5325 5dbd a344 903e c548 aabd 85d5 873d
00000060: 29ea 13be a482 a6bb 5641 8ebc 36e9 2e3c
00000070: 23d9 51be c073 82bd 6681 683e 5d99 d13b
00000080: fd79 13bd 659f 673d 66aa 1d3e fc5f cf3d
00000090: a2e2 903e 1a7f 4bbd beab e4bc 5cec 1abd
000000a0: 3fb6 ad3d 1701 83bd e30b ce3c cc9e 1a3e
000000b0: 0efb febd 82be 87bd 7091 1abe 9e62 d73d
000000c0: 8c9f 1d3e e121 0cbe 5477 f7bc f638 263d
000000d0: a5aa cd3d 7cef 353e 0bf3 1d3e ebfb 1fbc
000000e0: 1ebf 4a3d c4a3 5f3e 0b65 ac3d 3eff 36bd
000000f0: 3423 0b3e e6ba 3a3e 3be3 cc3d b82c 703c
00000100: 4c0e 5d3e 81c2 a63d d5e1 423e 842f efbd
00000110: ce6e 71bc 3ecc cfbb 30fe a2bd ddeb 1c3e
00000120: ee86 823d 8adb 95bc 7be9 fb3d c540 ea3d
00000130: b516 c63d daee 393e 71b4 b13d 8483 06bd
00000140: bece 7dbb 7a13 77bd 526e b83d 1cfe b73d
00000150: 35fb 053d f65d 6cbd 28a0 5cbe 4da3 4dbe
00000160: a6d7 fdbd f7af 0e3d 3cfe e5bd 5cc3 ee3a
00000170: 7d46 14bc cd5d 06bd aacd 113d 8928 31bd
00000180: 1d3c bf3c fa77 0a3d 16fe 583e 6ef8 9a3d
00000190: 7348 86be 0366 183e 6af9 39be 7ce7 363b
000001a0: 315b 00be 776b a3bc c047 5a3c d7c4 42be
000001b0: 301e 9cbc bd56 c63b 816d 19be ac73 04be
000001c0: 77fc c5bd 0c5c d4bc da05 36be 64cd 06bd
000001d0: 9064 a93d ffc0 18be a14b 0fbe 669e 04be
000001e0: 4a77 403b 4801 a43d 3842 a0bb 9f5a 063d
000001f0: dc47 813d 8aae 323e a6c0 0abd 30e0 81bd
00000200: 723d 6bbd 074f 24bd 16c1 353e a7fa 8ebd
00000210: ede5 c03c 71f7 403d ddd8 223b 901d 1a3e
00000220: 8c8a 173e e883 debd 6091 d4bd efe0 443e
00000230: 50d0 05be c218 0a3d c823 ee39 c2d8 71bc
00000240: 5a69 00be 0101 4bbd 3118 c6bd c4eb c1bd
00000250: 6d86 f9bd ae83 7ebc 4ab4 ac3d 835f 2b3e
00000260: ae86 c53b 43cf 2dbd 43fb c43d a2ce 313e
00000270: 4a3a 933d 87c8 ddbd 8197 9bbc bdd6 13be
00000280: 6561 b33d a6ea 2f3e 36d2 92bd d8df a5bd
00000290: a801 c33d f597 293d d090 3c3e 61c3 013e
000002a0: f695 363e 2e23 88bc 8701 483e f75d ac3d
000002b0: c99f 6abd d5a5 3cbd 77bb 053d 8bcd 023e
000002c0: 61d4 b93d 9afb 9a3d 3b0c e63d 058c ec3d
000002d0: d3be eabd 054d 0abe 3243 5c3d ce10 f2bd
000002e0: 701e 9bbd 4a61 dabc 36cb 00be 1200 3ebd
000002f0: cea3 063e a079 a03c 1a64 31be 4970 273e
00000300: 68ac e93d d9dc 00be 69cc 0e3d 25eb c2bd
00000310: 7e53 c8bc 1085 8dbd 1ad0 0b3e c302 37be
00000320: d9ce 273e fb33 c13d 1cff 773e 767f 753e
00000330: 521f a23d 82f5 2b3e 8a25 c33d f693 463e
00000340: 9c98 203e 1d98 0d3d 2f0d dc3d dc6c 893e
00000350: f87e f63d 1116 283e 0fc6 b33d b1ea 243e
00000360: 3db0 e0bd 7ac3 b3bc de79 9fbd b089 603e
00000370: a51b 413e 4e08 443e d9a6 2c3e 0b54 113d
00000380: 937e 14bd 2f3a ef3d 5908 153e c847 b93d
00000390: b869 063e d725 863d 48af 553e 4182 cb3b
000003a0: 777a 73bd 4318 97bc 0302 8fbd 1705 183d
000003b0: a004 7f3e c5f2 103e 7de9 d8bd eddb d4bc
000003c0: 308a 10bd 71b9 cabd b34a 3e3e 1a78 33bd
000003d0: 7f92 b6bd 3693 e5bd dc51 1e3c 951e 7e3d
000003e0: 2f7e 01be 117c bebd a026 ceba 1ef5 89bd
000003f0: 40c3 233d d39b 863d 243d fabd 9dad 07be

bias f4 [40]
0.17370288 0.11306766 -0.031364042 -0.06773701 0.1348098 0.08724351 0.025884464 -0.09663579
0.11353081 -0.10670524 0.0324468 0.12187895 0.06802978 0.1583726 0.042441476 0.067510314
-0.14858732 -0.081509545 0.075098075 -0.0057865568 -0.10646019 0.09712289 0.028988214 -0.055203922
-0.1340852 0.016375782 0.12497328 0.14325587 -0.2252519 -0.037071127 -0.07210784 -0.023464516
-0.04561375 -0.008283775 -0.20556012 0.160387 0.046038315 0.16298594 0.03736699 -0.071052745
00000000: 2bdf 313e 0490 e73d 9577 00bd b4b9 8abd
00000010: 950b 0a3e baac b23d a80b d43c fce8 c5bd
00000020: d782 e83d 4788 dabd f0e6 043d ac9b f93d
00000030: 3353 8b3d 6d2c 223e 1dd7 2d3d d942 8a3d
00000040: 4627 18be 7aee a6bd 05cd 993d 289d bdbb
00000050: cd07 dabd 5ee8 c63d b178 ed3c 821d 62bd
00000060: a14d 09be 8126 863c fef1 ff3d abb1 123e
00000070: 6fa8 66be e5d7 17bd 46ad 93bd a838 c0bc
00000080: 7cd5 3abd acb8 07bc 5a7e 52be 7d3c 243e
00000090: ac92 3c3d c9e5 263e 210e 193d 1a84 91bd

weight_ih_l0 f4 [120, 40]
-0.16134405 -0.0825667 -0.17752738 0.102603234 0.07903283 0.08179627 -0.03224887 0.009649873
-0.08646968 -0.06658892 -0.08479134 0.012214588 0.0047084666 -0.207548 -0.07657954 0.024839796
0.08393655 0.089820996 0.06414772 -0.038921386 0.10881162 0.08033506 0.11740701 -0.066023685
0.19086277 0.094269015 0.11829529 -0.13036288 0.01562366 -0.03891922 -0.071523614 -0.08444901
0.084588386 -0.041182812 0.12353708 -0.040854305 -0.11149414 0.027424833 0.099405006 -0.053035285
0.15781607 0.10334811 -0.19460396 0.15940508 0.11020896 0.15057263 -0.07022108 0.06093339
-0.14811233 -0.121897265 0.024840143 -0.2228625 -0.008053205 -0.026210194 -0.21017411 0.007301554
0.109858766 0.10147298 0.13804442 -0.08217479 -0.029168157 0.116637245 -0.0494504 -0.08242986
-0.13831098 -0.21613847 0.17158365 -0.16884932 0.08440929 0.03903457 0.031206192 0.09147529
-0.027972985 -0.18722466 -0.19376016 -0.0176386 0.22055532 -0.0981817 -0.016525982 -0.049461905
0.10448297 -0.06871396 -0.0069193896 0.19652025 -0.16572699 0.08071608 0.27436242 0.063387826
-0.08512822 -0.09450476 -0.25238943 0.023269573 -0.15963481 -0.08134447 0.036614355 0.16813432
-0.12782666 -0.12707329 -0.07883283 -0.07488482 0.03409069 0.1493802 -0.23695952 -0.015287609
0.06258607 0.105851434 -0.034660034 -0.14195143 0.078437045 -0.1397591 0.051822625 0.11520767
0.046792623 -0.09825085 0.06616142 -0.13012168 0.23446593 -0.17577656 0.19372681 0.14639203
-0.009896394 0.090136245 -0.027771395 -0.032256916 0.0745482 0.13026066 -0.000982299 -0.16795115
0.16105705 -0.15164533 -0.10857799 -0.075732864 0.1711108 0.110608734 -0.07645819 -0.09325336
-0.10552069 0.0049285996 0.105444476 -0.1450465 -0.0131998155 0.11666101 -0.10947268 -0.14011009
-0.18999404 0.03147647 0.17127936 -0.021031866 -0.093336105 -0.31866866 -0.06752151 0.14043482
-0.1282844 -0.18530239 0.006644217 0.012090822 0.064460814 -0.014560636 0.13576889 -0.23133825
-0.11487367 -0.030698607 -0.038481332 0.15962659 -0.08527972 0.03270209 -0.16846177 -0.15708955
0.069249354 0.0035997878 4.6606525e-05 -0.11692079 -0.1527457 -0.2268842 -0.0949123 0.16785556
0.14561796 0.108891346 0.0028066079 0.008208182 0.11243516 -0.067015894 0.11991749 0.12194552
0.21593353 -0.15584981 0.052719522 0.027259126 0.12042974 0.21604872 0.1273911 -0.09762672
-0.03216025 0.13276187 -0.13874605 0.17314678 -0.10565762 -0.08457677 -0.062784486 0.030377148
-0.18435527 -0.22662108 0.15908535 -0.1677496 0.026647227 0.06268159 -0.058533724 -0.04015915
-0.096739106 0.095589675 0.03816204 -0.1155248 -0.076990254 0.1069135 0.16565058 0.17702658
0.13264807 -0.078317046 -0.032324772 -0.11845822 -0.09343631 -0.17261876 -0.16225258 0.14074226
0.0071340743 0.056615595 -0.10000444 -0.15992762 0.11631546 0.124137335 0.059018433 0.061764903
0.040296923 -0.024660422 0.014827443 -0.023595128 0.090118505 -0.14662173 -0.16876706 0.056399014
-0.138836 -0.18183774 -0.04522196 0.047871254 -0.05132447 0.06408634 -0.0024116493 0.10182475
-0.1040447 -0.016092828 -0.040049195 -0.1041037 0.14368549 -0.06059844 -0.13459846 -0.02283189
00000000: 6037 25be bb18 a9bd bdc9 35be a521 d23d
00000010: f7db a13d ce84 a73d 6417 04bd 801a 1e3c
00000020: 0417 b1bd c65f 88bd 15a7 adbd b21f 483c
00000030: 7b49 9a3b 7787 54be bcd5 9cbd d47c cb3c
00000040: ede6 ab3d 12f4 b73d e15f 833d 086c 1fbd
00000050: a0d8 de3d b586 a43d 1673 f03d 6d37 87bd
00000060: 8871 433e 1d10 c13d cd44 f23d d97d 05be
00000070: 61fa 7f3c c369 1fbd f97a 92bd 9af3 acbd
00000080: ad3c ad3d 4faf 28bd 0201 fd3d d856 27bd
00000090: 0a57 e4bd 0baa e03c da94 cb3d 873b 59bd
000000a0: 899a 213e 2da8 d33d 4346 47be 163b 233e
000000b0: 3cb5 e13d b62f 1a3e 12d0 8fbd 4a95 793d
000000c0: c2aa 17be 46a5 f9bd 8e7d cb3c 1136 64be
000000d0: 97f1 03bc c3b6 d6bc e237 57be e041 ef3b
000000e0: a2fd e03d 11d1 cf3d 845b 0d3e 424b a8bd
000000f0: 0ff2 eebc 82df ee3d 818c 4abd fdd0 a8bd
00000100: 65a1 0dbe 6753 5dbe a0b3 2f3e d6e6 2cbe
00000110: c7de ac3d b7e2 1f3d 21a4 ff3c 6657 bb3d
00000120: 9a27 e5bc d2b7 3fbe 1069 46be d37e 90bc
00000130: 41d9 613e 7d13 c9bd 7f61 87bc 9198 4abd
00000140: 2bfb d53d e8b9 8cbd 0cbc e2bb 9b3c 493e
00000150: 56b4 29be 794e a53d 3b79 8c3e 7ad1 813d
00000160: b457 aebd b68b c1bd 3039 81be d59f be3c
00000170: 4f77 23be ee97 a6bd eff8 153d 672b 2c3e
00000180: fee4 02be 801f 02be 1b73 a1bd 365d 99bd
00000190: aea2 0b3d 20f7 183e 84a5 72be e178 7abc
000001a0: 202d 803d a3c8 d83d aef7 0dbd b75b 11be
000001b0: 9aa3 a03d 021d 0fbe f643 543d 00f2 eb3d
000001c0: 9fa9 3f3d be37 c9bd a37f 873d 9e3e 05be
000001d0: d617 703e c5fe 33be 5260 463e cbe7 153e
000001e0: 7c24 22bc 5a99 b83d d680 e3bc d41f 04bd
000001f0: baac 983d 0d63 053e 7cc0 80ba 63fb 2bbe
00000200: 24ec 243e ea48 1bbe 235e debd d519 9bbd
00000210: ab37 2f3e d586 e23d 1d96 9cbd 9efb bebd
00000220: 3b1b d8bd 1780 a13b 46f3 d73d 1287 14be
00000230: 0a44 58bc f8eb ee3d 3633 e0bd 0579 0fbe
00000240: cc8d 42be 79ed 003d db63 2f3e 054b acbc
00000250: 0027 bfbd 8a28 a3be b848 8abd 25ce 0f3e
00000260: fc5c 03be e9bf 3dbe bbb7 d93b 9518 463c
00000270: 0804 843d bc8f 6ebc 0007 0b3e efe3 6cbe
00000280: e342 ebbd a57b fbbc 9a9e 1dbd 2775 233e
00000290: 22a7 aebd a0f2 053d 3e81 2cbe 15dc 20be
000002a0: 9bd2 8d3d 6bea 6b3b 607b 4338 2b74 efbd
000002b0: 5e69 1cbe 5554 68be 6161 c2bd 54e2 2b3e
000002c0: e01c 153e 6d02 df3d 11ef 373b 9c7b 063c
000002d0: 6844 e63d a13f 89bd 4d97 f53d 93be f93d
000002e0: ae1d 5d3e 1897 1fbe 6df0 573d 884e df3c
000002f0: dea3 f63d e03b 5d3e d072 023e 85f0 c7bd
00000300: 77ba 03bd baf2 073e 7213 0ebe 644d 313e
00000310: 0663 d8bd 9636 adbd 2795 80bd 7fd9 f83c
00000320: a1c7 3cbe 5b0f 68be 45e7 223e 8dc6 2bbe
00000330: 494b da3c 355f 803d 0fc1 6fbd ec7d 24bd
00000340: 271f c6bd 85c4 c33d cd4f 1c3d 4498 ecbd
00000350: 11ad 9dbd 77f5 da3d 4ea0 293e 7546 353e
00000360: e5d4 073e b064 a0bd fb66 04bd 399a f2bd
00000370: 895b bfbd f9c2 30be 8a25 26be bd1e 103e
00000380: f4c4 e93b c1e5 673d 21cf ccbd 11c4 23be
00000390: cd36 ee3d b73b fe3d 50bd 713d 32fd 7c3d
000003a0: 630e 253d a704 cabc ceee 723c 924a c1bc
000003b0: 0d90 b83d 0224 16be 46d1 2cbe a702 673d
000003c0: 062b 0ebe ac33 3abe a93a 39bd a614 443d
000003d0: 9c39 52bd b33f 833d c30c 1ebb 7f89 d03d
000003e0: 6315 d5bd 1bd5 83bc a00a 24bd 5234 d5bd
000003f0: 4a22 133e 1236 78bd 2ed4 09be f209 bbbc

weight_hh_l0 f4 [120, 40]
-0.15030815 0.010511338 0.15829955 -0.17300248 0.08083877 0.038366396 0.21182193 -0.03254578
0.030362185 0.17313771 -0.07424689 -0.028043699 0.060213044 -0.1828558 0.11971993 0.035664406
-0.10041173 -0.19222645 0.0930286 -0.13033925 -0.10373267 0.019627234 -0.09381163 0.027121117
0.15430596 -0.1001875 -0.03356539 -0.048823155 0.00690416 0.0125318235 0.073549986 0.01708144
-0.15161255 -0.005317848 -0.09359915 -0.19816397 -0.15899435 -0.082965754 0.22123067 0.10706355
0.09422533 0.12566464 0.11490106 -0.06965491 -0.050925646 0.23482269 0.03328806 0.12181273
-0.09254379 -0.1942514 0.05484274 -0.1782267 -0.032968227 0.1853389 0.20972061 -0.035648543
-0.026619783 -0.05343601 -0.019012574 -0.21359162 0.13300207 0.11162788 -0.1350845 0.08700159
-0.026906343 -0.057348263 -0.049047012 0.22116345 -0.08475534 -0.16520815 -0.2046199 -0.24057543
0.2158954 0.022783784 -0.016705193 0.041506603 -0.22935581 0.056830578 -0.09471064 0.18101211
-0.089405134 0.07425871 -0.09011882 0.13677953 -0.2238778 0.17263441 -0.11494888 0.1071711
0.0159306 -0.05341392 0.12769674 0.053112775 0.0031626932 0.070221804 -0.06949664 -0.08262833
0.10971483 -0.15885457 -0.029028375 0.025687518 0.13030179 0.094385825 -0.08456578 -0.21028946
0.0077567473 0.079916455 -0.07128124 -0.10801918 0.06126508 -0.13467258 -0.0075987633 -0.0059367744
0.107944034 -0.04244147 -0.0037377775 0.016415544 0.056119487 -0.061576113 -0.12755917 -0.0886153
0.070184074 0.16809922 -0.17732744 -0.020994522 0.086431555 -0.012732281 0.012622314 -0.054891825
0.057064053 -0.013750737 -0.14284554 0.049964774 -0.17079945 -0.078104 0.15760645 0.1828638
-0.044319574 0.1506539 -0.0525828 0.06834687 0.19946893 -0.06800906 0.04311835 0.10581486
-0.041426256 -0.04763688 0.13179526 0.12139128 -0.13985032 -0.1420821 -0.04834535 -0.021757267
0.07153412 0.16924953 -0.02567677 -0.06013258 -0.21367022 0.015535446 0.074171074 -0.03927693
-0.049750827 -0.103796914 0.06367288 -0.028124506 0.113205254 -0.21680552 -0.0065868925 0.035622828
0.11498445 0.17408746 0.16946341 0.08568866 -0.07389202 0.10298059 -0.12360173 0.03247018
-0.012462193 -0.1389762 0.09279773 0.20899983 0.008862407 0.10332409 -0.027320351 0.060754843
0.034654517 -0.07707179 -0.0011643859 0.005320325 -0.03374565 0.03256306 0.12929644 0.14025393
-0.13164984 0.036223624 -0.12627028 0.11468962 0.05025488 0.1044574 0.0024008118 0.07373055
-0.067386 0.022152698 0.12086883 0.12990806 0.022712708 -0.014407906 0.14511974 0.08392473
0.22912346 0.1268678 -0.0498487 0.057166204 0.08041191 -0.05282523 -0.13527125 -0.06653799
0.20933875 -0.004659211 0.047057733 0.18802689 0.051715944 -0.040824067 0.13498297 -0.01038492
-0.11183449 -0.10411666 -0.06888943 -0.18802576 0.011087798 0.22005616 0.16252428 -0.10245776
-0.11922927 -0.095934466 -0.19596536 -0.0058831023 0.091823556 0.031987336 -0.19101556 -0.12203939
0.099806406 -0.038871206 0.0871487 0.20409495 -0.10273668 0.030549666 0.18693733 -0.1486263
0.053034563 0.17817377 0.23491085 -0.07089942 0.09796288 0.029558819 -0.013825101 -0.10312815
00000000: 61ea 19be bf37 2c3c 4719 223e 9027 31be
00000010: cc8e a53d 1526 1d3d d9e7 583e b94e 05bd
00000020: 1eba f83c 034b 313e c10e 98bd e6bb e5bc
00000030: f4a1 763d 8d3e 3bbe b92f f53d d714 123d
00000040: aaa4 cdbd 03d7 44be c785 be3d a777 05be
00000050: cb71 d4bd 4bc9 a03c 5020 c0bd 1b2d de3c
00000060: 6202 1e3e 1b2f cdbd dd7b 09bd cafa 47bd
00000070: 4b3c e23b 4752 4d3c 60a1 963d 60ee 8b3c
00000080: 5240 1bbe 5841 aebb e9b0 bfbd 7feb 4abe
00000090: 6acf 22be f3e9 a9bd 4b8a 623e 2244 db3d
000000a0: 36f9 c03d 3bae 003e 3f51 eb3d 3ca7 8ebd
000000b0: 6997 50bd 5c75 703e 1059 083d f478 f93d
000000c0: 9987 bdbd d7e9 46be c8a2 603d 0f81 36be
000000d0: b109 07bd 7bc9 3d3e 00c1 563e 3504 12bd
000000e0: bb11 dabc b8df 5abd 42c0 9bbc c3b7 5abe
000000f0: b231 083e 289d e43d 9753 0abe e42d b23d
00000100: b16a dcbc 03e6 6abd 85e5 48bd ac78 623e
00000110: 3594 adbd 532c 29be e187 51be 6859 76be
00000120: af13 5d3e 0fa5 ba3c 54d9 88bc d402 2a3d
00000130: 40dc 6abe 2ec7 683d a7f7 c1bd 3d5b 393e
00000140: 0a1a b7bd f314 983d 3790 b8bd ef0f 0c3e
00000150: 3940 65be 13c7 303e 526a ebbd 867c db3d
00000160: e480 823c 8ec8 5abd efc2 023e c88c 593d
00000170: 3045 4f3b 73d0 8f3d 4154 8ebd 0b39 a9bd
00000180: 2bb2 e03d c6aa 22be eacc edbc a16e d23c
00000190: d56d 053e 5b4d c13d d330 adbd 1f56 57be
000001a0: 502c fe3b 3dab a33d e6fb 91bd 2939 ddbd
000001b0: 18f1 7a3d 9ce7 09be 0cff f8bb 4689 c2bb
000001c0: c311 dd3d 1bd7 2dbd 80f5 74bb e479 863c
000001d0: 8cdd 653d 3c37 7cbd df9e 02be f07b b5bd
000001e0: abbc 8f3d 3422 2c3e 5395 35be b4fc abbc
000001f0: 0703 b13d 0f9b 50bc d2cd 4e3c 40d6 60bd
00000200: ffbb 693d c54a 61bc 1a46 12be dda7 4c3d
00000210: 0de6 2ebe fdf4 9fbd 9663 213e a640 3b3e
00000220: 7188 35bd 0445 1a3e 1061 57bd 72f9 8b3d
00000230: 9541 4c3e 5648 8bbd de9c 303d 76b5 d83d
00000240: 94ae 29bd e41e 43bd 56f5 063e fe9b f83d
00000250: ec34 0fbe f87d 11be c605 46bd 4c3c b2bc
00000260: 7b80 923d c04f 2d3e 1758 d2bc 954d 76bd
00000270: 5ecc 5abe 6288 7e3c 01e7 973d d9e0 20bd
00000280: 86c7 4bbd 7a93 d4bd ed66 823d 5d65 e6bc
00000290: 28d8 e73d 4402 5ebe dcd6 d7bb 3ee9 113d
000002a0: f87c eb3d fc43 323e d187 2d3e 897d af3d
000002b0: b354 97bd 7de7 d23d e722 fdbd 74ff 043d
000002c0: 3a2e 4cbc c74f 0ebe bc0c be3d 0d04 563e
000002d0: a133 113c 959b d33d eece dfbc 12da 783d
000002e0: e5f1 0d3d d1d7 9dbd 4f9e 98ba 1f56 ae3b
000002f0: e138 0abd d860 053d 4966 043e ba9e 0f3e
00000300: 37cf 06be 395f 143d ff4c 01be 64e2 ea3d
00000310: 10d8 4d3d c3ed d53d f056 1d3b 0b00 973d
00000320: ac01 8abd 9379 b53c 148a f73d 9e06 053e
00000330: 0010 ba3c 230f 6cbc 459a 143e bbe0 ab3d
00000340: 579f 6a3e a2e9 013e 272e 4cbd 1c27 6a3d
00000350: 00af a43d 455f 58bd 8c84 0abe 1245 88bd
00000360: e65c 563e 4bac 98bb 9cbf 403d 1f8a 403e
00000370: 19d4 533d 2337 27bd fa38 0a3e 8325 2abc
00000380: 7b09 e5bd 1e3b d5bd e715 8dbd d389 40be
00000390: 98a9 353c 6756 613e c46c 263e 60d5 d1bd
000003a0: 7a2e f4bd 4a79 c4bd 25ab 48be 0ac7 c0bb
000003b0: fd0d bc3d 2705 033d 9599 43be caef f9bd
000003c0: 4d67 cc3d 6a37 1fbd 057b b23d 44fe 503e
000003d0: 9c67 d2bd 4b43 fa3c 806c 3f3e 7e31 18be
000003e0: c53a 593d 2f73 363e 788c 703e b733 91bd
000003f0: c3a0 c83d 5625 f23c ad82 62bc da34 d3bd

bias_ih_l0 f4 [120]
0.054201614 0.028732162 -0.12659477 -0.011175335 0.00070742675 0.052818105 -0.13304524 0.0008409871
0.026163626 -0.018690988 0.0023690644 -0.061461344 -0.07748789 0.109035976 0.17542787 -0.0858428
0.053769343 -0.013586368 0.021713726 -0.018720793 -0.12209721 -0.1105541 -0.15001799 -0.04397082
-0.25362578 0.20974362 0.14771177 0.14528832 -0.019970188 -0.080532394 -0.010745224 0.1405887
0.058440827 -0.23025203 0.023629425 -0.08754792 -0.035460144 -0.001741169 0.11552824 0.21318412
-0.21608196 -0.003756001 0.025584301 -0.2952998 -0.23102976 -0.18453053 -0.18349126 -0.15184084
-0.30194867 -0.1107529 -0.11181837 -0.3037966 -0.034516566 -0.2436223 -0.1891357 -0.23473707
-0.04879998 -0.28126216 -0.120911606 -0.2504338 -0.19471848 -0.12213139 -0.14668414 -0.2084668
-0.19480702 -0.010980612 -0.047478482 -0.14391711 -0.3277939 -0.2204859 -0.08377196 -0.23742162
-0.18451212 -0.1628556 -0.13662712 -0.082140386 -0.2390092 -0.0674332 -0.3418159 -0.040737208
0.018011332 -0.06658916 -0.03783207 0.008820194 -0.07552043 -0.026254479 -0.23056982 0.16686885
-0.00840109 0.037860937 -0.12565848 -0.12111273 -0.10952651 0.12782599 0.15840816 0.16561636
0.17498605 -0.019225571 0.1932772 0.12004828 0.072228 -0.027353646 0.1536576 0.088595234
-0.08353142 -0.054945953 0.16035742 0.012584535 -0.1439456 -0.007979269 -0.013940049 0.08321374
0.02655248 0.093400404 0.00792568 -0.07164057 -0.20796488 0.1828723 0.012130424 0.1691306
00000000: 8302 5e3d b65f eb3c 0fa2 01be c118 37bc
00000010: 9b72 393a cc57 583d 033d 08be b075 5c3a
00000020: 1a55 d63c d81d 99bc 4e42 1b3b e4be 7bbd
00000030: f9b1 9ebd 414e df3d 5da3 333e 5ace afbd
00000040: 3e3d 5c3d 5c99 5ebc fce0 b13c 595c 99bc
00000050: 1a0e fabd 306a e2bd 519e 19be bf1a 34bd
00000060: 3ddb 81be 08c7 563e c141 173e 76c6 143e
00000070: 8598 a3bc 2bee a4bd bc0c 30bc 7cf6 0f3e
00000080: a65f 6f3d 30c7 6bbe 7f92 c13c 534c b3bd
00000090: a83e 11bd f037 e4ba 129a ec3d f04c 5a3e
000000a0: 9744 5dbe 3d27 76bb 2b96 d13c 8931 97be
000000b0: 1193 6cbe 92f5 3cbe 22e5 3bbe 2a7c 1bbe
000000c0: 0499 9abe 6bd2 e2bd 0801 e5bd 3a8b 9bbe
000000d0: 3e61 0dbd 2078 79be caac 41be ea5e 70be
000000e0: 7de2 47bd 9801 90be 81a0 f7bd dc38 80be
000000f0: 4864 47be 0620 fabd 5e34 16be 5278 55be
00000100: 7e7b 47be 06e8 33bc cc78 42bd 025f 13be
00000110: 9ad4 a7be 0ec7 61be a290 abbd a71e 73be
00000120: bff0 3cbe 9ec3 26be fbe7 0bbe 3839 a8bd
00000130: d4be 74be 6b1a 8abd 7e02 afbe 0fdc 26bd
00000140: 808c 933c e65f 88bd cdf5 1abd 9382 103c
00000150: 75aa 9abd a213 d7bc 7f1a 6cbe abdf 2a3e
00000160: baa4 09bc 1214 1b3d 9eac 00be f309 f8bd
00000170: 6f4f e0bd d1e4 023e c035 223e 5697 293e
00000180: 8b2f 333e f27e 9dbc 75ea 453e dfdb f53d
00000190: 46ec 933d c114 e0bc 6b58 1d3e 6b71 b53d
000001a0: 8512 abbd 020f 61bd bc34 243e 5e2f 4e3c
000001b0: 7a66 13be 7bbb 02bc ce64 64bc f76b aa3d
000001c0: 9684 d93c b648 bf3d b6da 013c 4bb8 92bd
000001d0: bff4 54be e042 3b3e b0be 463c 9230 2d3e
