Results/0056_discriminator1_adjusted.pth (torch, 251369 bytes, 35 tensors)

weight_ih_l0 f4 [120, 20]
00000000: 21f2 973d 985c 1abd 836c 83bd cc30 d7bd
00000010: 9851 833d 3ee2 9c3c 1ec0 343d 4a25 85bc
00000020: 742d 35bd 557a 8cbd b428 02be 1364 f13d
00000030: b8db 0d3e ec1b b53c 92c2 13ba 0c58 fe3d
00000040: 920a b63d 5012 2dbc 149a 27bd 05b8 0b3d
00000050: c28d 09be 916b a8bd a879 073e a9dd 0bbe
00000060: 97f9 e03d 7700 c9bc fe14 8e3d b7d3 2fbd
00000070: 90d2 0e3e 7f22 72bd 2c13 203d e5b3 54bd
00000080: dcf1 a5bc 941f 343d cb53 9ebd 3221 9e3d
00000090: e82e 0a3c 15e5 063e 013c e3bd b2c2 883d
000000a0: 125d a1bd b64a 4a3c 5a3b 9c3c 3000 ba3d
000000b0: 9448 09be 2d37 fa3d a1a5 203d 0622 25be
000000c0: 4d84 2f3d 7f7f 1dbe 1513 afbc c420 0a3e
000000d0: 00d6 ed3d 7e37 213e d232 0abe ca63 323b
000000e0: f10d a03d afd0 203d 2a93 0c3e 345d 14be
000000f0: 3954 ca3d e3e7 e93d 2c8d 143e d486 813d
00000100: b70e 8d3b fe50 a73d f6f4 463d 258e 8f3b
00000110: bc51 123e 43d2 d7bd 472c fb3d 0ca8 f1bc
00000120: 8f59 11be f93e 1fbe 1669 a53d 3a53 08be
00000130: a953 053e 871d 4b3d b8f8 9ebd 01ab 31bc
00000140: 209a 0d3d 31ef 3bbd 93ba f1bd 1b25 d0bd
00000150: 3087 10be 651b c63d 7114 95bc e324 e9ba
00000160: 4de4 62bc 1a46 8bbd 68db b83d 5d30 e3bd
00000170: ea1f b2bd 1608 183d 8069 0fbe f4a0 d5bc
00000180: 8f81 acbd 16ad 133e c951 453d 8b80 27be
00000190: 209c e4bd cbaa 1a3e b9ac 143e f007 a73d
000001a0: 0bc5 8e3d 8f85 253d c355 54bd accb 953c
000001b0: d6ab c83c 3c60 be3d 8a29 20be 0ed8 80bc
000001c0: d89c 04bd 09a1 a939 bf14 423d b06a a43d
000001d0: b552 10bd 6137 0ebd 5d7f a5bc 21f1 b6bd
000001e0: b7df f53c d42b 243e a06e aa3d 27cc 043e
000001f0: a1db 043e 5419 953d 9844 943c ff96 eabd
00000200: 3955 123e c8db 2fbd e392 bcbd f024 5e3d
00000210: f810 8bbd e3f4 8a3d cf97 343d aa92 043d
00000220: 88ba 16be 5e59 733d a72e d43d d097 2f3d
00000230: f67e 1dbe 5cde d93c 4214 ba3d 9990 a638
00000240: b086 02be 2941 04be 05da a8bd ce34 1dbe
00000250: 5308 f8bc 5a6a bf3c e995 bdbd e4e0 0c3e
00000260: acdb 9a3d 1c0f 103e e968 1b3c f980 d9bd
00000270: 7d34 1cbe 5ecb 15be 412b e13d 8142 7bbc
00000280: 47d3 ed3d 5da1 b53d c418 05bc ea82 e83b
00000290: 8695 a83c 500d 083d 749f 0c3e 82ba 703d
000002a0: 3e1b 1cbd 9a08 463d c20e 2dbd 1442 f9bd
000002b0: 83a0 cdbc b3af 62bb ce1b 233e 17de f6bc
000002c0: 4c7a 84bd 89ca c3bc d230 f83d 5011 293e
000002d0: caaa b53d 298c bd3d 0fa1 56bd 913e bebd
000002e0: 558e 9e3d bc04 00be a9df 09be d765 04be
000002f0: 6c82 6dbb 2734 fd3d 66d8 20be 5c62 e93d
00000300: 0447 a13c 6f56 acbd 7ca4 28be a9e3 163e
00000310: c86c 9dbd 0b57 76bd 4fa8 d63d f3cd 76bc
00000320: bb50 ff3d 90bb 0c3e 5eea 24bd fec9 15be
00000330: e756 7f3d 108b cb3d c40f e4bd 001e 853c
00000340: 513a 0fbe 1d28 a7bd 43a0 a73c cd77 b63d
00000350: a33d 11be ddc5 0fbd daff 03be 0b32 843d
00000360: fd62 f83d 1426 bb3d ddc7 c3bc 745f c93d
00000370: fb03 043e e311 02be bad5 063d c0e8 0b3e
00000380: ffe9 2abd 697a c4bd 632b b83d f097 033e
00000390: 12ca b23d 50d8 03bd 40cc cd3d d6a1 28be
000003a0: 012b debc b84b 613d 4009 1f3e 0d11 c9ba
000003b0: beaa 193e 611c 15be ba80 7e3b 5f69 fd3d
000003c0: 61d6 fc3d 8f04 e73d da23 ddbd 142e e43d
000003d0: 57af 86bb d381 0b3e e0a8 773d 6270 e4bd
000003e0: 17f6 0a3e 589c 823b 840b f13c 4328 533d
000003f0: e6c4 8a3d 687e e5bd 6222 80bc 5e93 bbbd
0.07419229 -0.03768596 -0.06417181 -0.10507354 0.06412047 0.01915085 0.04412853 -0.016253132
-0.0442328 -0.068592705 -0.1271084 0.11786666 0.13853347 0.02210804 -0.0005636598 0.12419137
0.08888735 -0.010563448 -0.040918425 0.03411104 -0.13432983 -0.08223642 0.13230002 -0.13658775
0.109851055 -0.024536354 0.06937598 -0.042926516 0.1394751 -0.05911493 0.039080784 -0.051929373
-0.02025693 0.043975428 -0.07730826 0.07721175 0.008434035 0.13173325 -0.11095429 0.0667776
-0.0787908 0.012346914 0.01907127 0.09082067 -0.13406593 0.12217555 0.039220456 -0.1612626
0.04285078 -0.15380667 -0.021371404 0.13489062 0.11613083 0.15743825 -0.13495949 0.0027220123
0.07815159 0.039261516 0.13728014 -0.14488679 0.098793454 0.11421182 0.14506978 0.063245445
0.0043047327 0.08169745 0.048573457 0.0043809586 0.14288992 -0.10538151 0.122643046 -0.029499076
-0.1419432 -0.15551366 0.08076684 -0.13312998 0.13020195 0.049588706 -0.07762283 -0.010843993
0.034570813 -0.045882408 -0.11803164 -0.10163327 -0.1411407 0.09673194 -0.018198224 -0.0017787482
-0.013848376 -0.0680048 0.090262234 -0.11093209 -0.086974934 0.037117086 -0.14005089 -0.026077725
-0.08423149 0.14421496 0.0481737 -0.16357629 -0.11162591 0.15104215 0.14519013 0.08155811
0.06971177 0.040410575 -0.0518396 0.018285595 0.024496 0.09295699 -0.15640846 -0.015728023
-0.03237614 0.00032354172 0.047383066 0.080281615 -0.035235126 -0.034720782 -0.020202333 -0.089327104
0.030013902 0.16032344 0.08321881 0.12968503 0.12974407 0.072802216 0.018099114 -0.114545815
0.14290322 -0.04293421 -0.09207704 0.054234445 -0.06790346 0.0678499 0.04409009 0.032366432
-0.14719594 0.0594114 0.10360461 0.04286939 -0.15380463 0.026595287 0.09085895 7.94243e-05
-0.12746692 -0.12915482 -0.08244709 -0.15352175 -0.030277407 0.023366142 -0.09257109 0.13757664
0.0756143 0.14068264 0.009485462 -0.10620303 -0.15254398 -0.1462836 0.10994578 -0.01533568
0.116125636 0.08868668 -0.00812358 0.0070956843 0.02057911 0.03321582 0.13732702 0.058771618
-0.038111918 0.048348047 -0.042250402 -0.121708065 -0.025100952 -0.0034589588 0.15928575 -0.030135198
-0.06468639 -0.023900287 0.12118687 0.1651051 0.08870466 0.09255249 -0.05239969 -0.09289277
0.077419914 -0.12501806 -0.13464226 -0.12929474 -0.0036241068 0.12363463 -0.1570755 0.11395714
0.019687183 -0.084149234 -0.16468996 0.14735283 -0.07686764 -0.060141604 0.10481321 -0.015063751
0.1246657 0.13743424 -0.040262572 -0.14627835 0.062338736 0.099386334 -0.111358196 0.016249657
-0.1398709 -0.08161948 0.02046216 0.08909569 -0.14183669 -0.035100807 -0.12890568 0.064548574
0.121282555 0.09138122 -0.023899013 0.09832659 0.12892143 -0.12702136 0.03291867 0.13663006
-0.041727062 -0.095936604 0.0899265 0.12850928 0.08729948 -0.032188714 0.10048723 -0.16467986
-0.027120115 0.05500385 0.15530872 -0.0015340165 0.15006539 -0.14561607 0.0038834051 0.123736136
0.12345577 0.11280166 -0.10797854 0.11141601 -0.0041102576 0.13623743 0.060463786 -0.11154248
0.13570438 0.003985923 0.029424436 0.05155207 0.06775837 -0.11205751 -0.015641395 -0.091589674

weight_hh_l0 f4 [120, 40]
00000000: 48ba 00be a2ac 0dbe fa7b 00be 26a0 18be
00000010: 6353 cf3d 80ea 323d 0717 033d 8bcb d83c
00000020: 1216 4c3d c186 a03d 25aa f3bd 8b23 eabd
00000030: 47fb 5e3d f0c1 b9bd 359d c63c 689c 253d
00000040: 85c5 b23d db1e 0dbd 9b4f 5d3d 0b12 8d3b
00000050: 096c 04be 32b4 4dbc 0823 0a3e 9820 86bd
00000060: 4da6 553c ea65 e13c c3ff 07be d654 97bd
00000070: eff1 35bd 0fd8 af3d 60eb 083e a7d0 743d
00000080: f8f8 0dbe c5e9 c8bd a31e 143c ed5e c13d
00000090: fc63 a53d 7389 21bd 3f44 0ebe 6428 123e
000000a0: c7f1 963d 68be 9a3c 2e3a 23bd ad8b d83d
000000b0: 82ed e0bc 32c6 a5bc 8f5d 77bd 90ca 193e
000000c0: aa92 1fbe 5ab2 15be ec8f f13d 0886 613c
000000d0: 672b fdbd 3dae a13d f3eb bd3d c881 99bd
000000e0: 15b5 12bd 22ca f83d 5051 86bc 8a7c 9f3d
000000f0: 9437 b4bd 27c3 8cbd 2782 ffbd 5678 063b
00000100: b381 d03d 834c 123e dc92 eabd d57f 093e
00000110: 70ac 633d d00f 133e dafd dc3d 0567 4e3c
00000120: fb4e b8bd 00d8 49bd cc11 21bd 5148 ed3d
00000130: a146 323d 450d 0cbe f2f5 c9bd 2d19 7dbd
00000140: e7e5 9b3c fd7e 983d 95dd a73d d3c9 ae3d
00000150: 033a b23d 4c60 a4bd 361c e13d 7fb5 9dbd
00000160: e057 32bd 3216 b8bd 2d1a a9bd 0ac1 703d
00000170: 0e1c d13d 4fc5 d33c 035c 6ebd ca9d 07be
00000180: bb72 49bb 6eb6 e23b e238 f1bc aeb8 083d
00000190: 28f2 283e bd5a bbbd 6e4a 023e 1e0f 79bc
000001a0: af16 973d 4827 8a3d 0cd6 00be a197 b5bd
000001b0: 578f aa3d df65 ddbd 9dc7 07be ad43 08bd
000001c0: 3dba 163e 2420 8abd ce1a babd 0508 063e
000001d0: 50d9 cdbc 5bff 20bc 6584 163e 7421 5ebd
000001e0: eb49 e03d a6b1 d13d e69a a23b 56dd 853d
000001f0: 77ca 5d3d 7fdb 39bd c412 2cbc d41b 3f3d
00000200: c920 8fbd 2991 c33d ef94 a83a d3f1 42bd
00000210: f02b 923d 2bd8 3abc 071b 123d 5801 22be
00000220: 35fb 1b3e 4043 523d 1bfa cb3d 6615 febd
00000230: 7be2 7bbd a9a2 cb3c e065 2dbd 4fb0 173c
00000240: a31f 003a d404 a73d 7d36 cdbd 9581 7bbd
00000250: 1632 0b3e fd76 b4bd a3f1 203e f70e 2d3d
00000260: 19d3 cfbc 0c47 bf3c f024 213c dc1f 01be
00000270: 9658 b33c 6b29 efbd 6671 c23d e9da 083c
00000280: fe2a 1fbe 3454 11be a56f f73d fc3c 723d
00000290: 1a6d e0bd 923d 553d 33c8 e43d e340 023c
000002a0: b171 d5bd fd04 e53d 3654 ef3d 57ee 17be
000002b0: 4c09 16be 4c52 13be 47a4 c1bd 30b5 5f3a
000002c0: 78a4 cf3d b7ba 06bc daec e03d fb70 273d
000002d0: f30e cb3c 613f e7bd d522 c83d 6235 193e
000002e0: 77f5 fd3d 8476 03bd 0c5a 0b3e 2070 453d
000002f0: c8b5 7dbd 8b97 653d 3e63 5bbd a7c9 dc3d
00000300: aef1 98bd af44 a6bd b89c a53d 97e2 093e
00000310: 3010 dfbd bd24 fbbd f4d4 87bc 51df 0bbb
00000320: 38f4 cd3d 0dd6 02be a211 abbd da35 dc3d
00000330: 4720 aa3d 6d5c 6cbd df77 523d c016 f0bd
00000340: 03d3 a73d 693f 153e de51 bdbc a8c2 64bd
00000350: 0d52 813a 5660 f13d 7e45 b8bd 5ba5 e5bd
00000360: 8b9d 2a3d aac7 013e 719b c83d 6a84 7abd
00000370: c069 1cbe 40a4 4a3d acab 0f3d c688 c63b
00000380: 4367 1dbe ba2f 16be 5855 c3bd ce4e 19be
00000390: 13ad 1cbe 78fc c63d 8ade 1cbe aff5 8d3d
000003a0: d70d 123e cdc7 823d ce4c af3c d2f0 cbbd
000003b0: 0ac4 de3d 7ae3 1a3e 03f0 583c daaf cd3d
000003c0: e065 1fbe 9e35 0dbd 67cf bd3d 62df bfbd
000003d0: c94e 84bd 26d2 783d 2301 06bd 97f6 1c3e
000003e0: c990 b5bd 342f b33d 5cf5 b83d 3428 ac3d
000003f0: fc82 f13c 17b8 1e3e 0d0d d23d b5ac ec3d
-0.1257106 -0.13835385 -0.12547293 -0.14904842 0.10123327 0.043680668 0.032004382 0.026464244
0.049825735 0.07838202 -0.11897687 -0.114325605 0.054438855 -0.09070194 0.024244884 0.040432364
0.0872908 -0.034453254 0.054030996 0.0043051294 -0.12931837 -0.012555169 0.13489926 -0.065491855
0.0130401375 0.027514417 -0.13281159 -0.07389228 -0.04442018 0.08586132 0.13371038 0.0597693
-0.13864505 -0.09810213 0.0090405075 0.09441934 0.08075711 -0.039437722 -0.13893221 0.1427322
0.07370334 0.01888962 -0.039850406 0.10573516 -0.027457003 -0.020236108 -0.06039196 0.15018678
-0.15583292 -0.14618817 0.11795029 0.013764866 -0.12361794 0.078945614 0.09273519 -0.07495457
-0.035817225 0.12147929 -0.016396195 0.07787426 -0.08799663 -0.0687316 -0.124759965 0.0020518503
0.10180988 0.14287 -0.114537925 0.1342767 0.05558437 0.143615 0.10790606 0.012597804
-0.08999439 -0.04927826 -0.039323613 0.11586059 0.04352439 -0.13676937 -0.098613635 -0.061791588
0.019030524 0.07446096 0.0819656 0.08534589 0.08702471 -0.0802618 0.10991709 -0.07700633
-0.043540835 -0.089886084 -0.08256946 0.058777846 0.10210429 0.02585092 -0.058193218 -0.13243786
-0.003073855 0.00691872 -0.02944607 0.03337925 0.16498625 -0.09148166 0.12723705 -0.015201358
0.073773734 0.067457736 -0.12581652 -0.088668115 0.08328121 -0.10810446 -0.1325974 -0.033267666
0.14719482 -0.067444116 -0.09087144 0.13088997 -0.025128037 -0.0098265065 0.14698942 -0.054231122
0.10951599 0.10238962 0.004962313 0.06536357 0.054148164 -0.045375343 -0.010502521 0.0466574
-0.06988675 0.095491715 0.0012861768 -0.047593903 0.07137287 -0.0114040775 0.035670307 -0.15820825
0.15232547 0.051333666 0.09959813 -0.12406425 -0.061495285 0.024857836 -0.042333484 0.009258344
0.0004887527 0.08155218 -0.100201584 -0.061402876 0.13593325 -0.08811758 0.15717177 0.0422506
-0.025369214 0.023349307 0.009835467 -0.1260981 0.021892827 -0.11677822 0.09494285 0.0083529735
-0.15543744 -0.14192277 0.120818414 0.05914019 -0.109583095 0.05206067 0.111709975 0.0079500405
-0.104220755 0.11182592 0.11685984 -0.14837013 -0.14651984 -0.14386863 -0.094551615 0.0008533774
0.10138792 -0.008223227 0.10982676 0.04087923 0.024787402 -0.112913854 0.09772269 0.1496177
0.12400334 -0.032095447 0.13608569 0.048202634 -0.06194094 0.056052726 -0.05356144 0.1078065
-0.07467972 -0.08118569 0.08086532 0.13465343 -0.108917594 -0.12262867 -0.016581036 -0.0021342824
0.10056347 -0.12776966 -0.083529726 0.10752459 0.08306938 -0.05770533 0.05138385 -0.11723089
0.08194544 0.1457497 -0.023110326 -0.0558497 0.0009866372 0.11785953 -0.089976296 -0.1121318
0.04165415 0.12673822 0.09795273 -0.061161436 -0.15274715 0.049473047 0.03507583 0.006058785
-0.15371422 -0.14666644 -0.095377624 -0.14971468 -0.15300398 0.09716123 -0.15319267 0.06931626
0.14263092 0.06385765 0.021398928 -0.09958042 0.10877235 0.15125838 0.013240817 0.10043307
-0.15566206 -0.03447496 0.092680745 -0.09368779 -0.064603396 0.06074729 -0.032715928 0.15328442
-0.08865506 0.08749238 0.090311736 0.08406106 0.029481404 0.15499912 0.102563955 0.11556379

bias_ih_l0 f4 [120]
00000000: 4236 083a c689 f73d 2ad0 49bd d93f 033d
00000010: 028a af3d a4fa 2d3d 6a28 03be 7a38 ddbd
00000020: d38d 2bbe 8ae5 94bd dfed 24bc e669 5ebc
00000030: d843 40bd 05c3 84bd d637 ab3d 19e2 beb9
00000040: 2662 bd3c b9b6 d73d dfc4 bb3d 4458 13bd
00000050: 5c78 a3bd 8c6f dc3c 4ac4 233c 0bc8 1abe
00000060: 4cb2 07be c6cd a7bd 7ac8 c23d 9f1a a73c
00000070: 5aeb ca3d 253f b1bd 5af4 b13d 003a 04be
00000080: fc5e 11b9 c94f e7bb 7bce ccbd dbe3 f4bd
00000090: 54a0 573d 5ffc debc c426 81bd 0246 c6bd
000000a0: 2616 b83d a9d1 a3bd 8597 803d 118d f23d
000000b0: b077 ed3d 2f09 e1bc 23df b13d 9b20 1dbe
000000c0: df17 813d e037 13be 7d43 e2bc 6217 013e
000000d0: 81e3 9cbd 17ee 0d3e ec5f 053e 9583 e63c
000000e0: ca16 adbd ca3b d23c eb42 083e 1446 2cbd
000000f0: 607c ffbd 6411 9d3d 185d 633c 3e0b 9c3d
00000100: 56b4 fa3d a995 08bd faf5 533d 74ae 7bbd
00000110: a1c2 523d 6138 a6bd 550f 23bb 3601 8bbd
00000120: fe52 be3d f286 913d e580 203e 06bb 293e
00000130: 06f7 103d 9013 01be 858f cb3c 170f 9ebd
00000140: 72b6 05bd 4a0f 86bd 4bda 7f3d 1e12 0ebd
00000150: 375f 613d 952b 3f3d b8d4 e73d 68e6 a7bd
00000160: 1c53 d63d ef98 8cbd de1b 74bd ae21 0f3e
00000170: 3574 f3bd b825 88bb 409b 3c36 28a0 b7bd
00000180: e24f b3bc e731 ecbc 5948 02be 432d 8abc
00000190: 3c32 a93c 0c2b f6bc 86d3 273e dea0 0d3e
000001a0: 8cf8 a5bd ad3d 0a3e 556f 8dbd 9171 1ebd
000001b0: 5bcc 443d 6a65 673d 04d3 18be 042e 9a3c
000001c0: 8dec 163e fdb0 1fbd 35dd 833c e791 84bd
000001d0: 6265 0a3e 12c0 193e 943a 2e3d ac38 ccbc
0.00051960733 0.12086825 -0.049270786 0.03204331 0.08571245 0.042475358 -0.12808385 -0.10801788
-0.1675332 -0.072703436 -0.0100664785 -0.013575053 -0.0469397 -0.064825095 0.08360259 -0.0003640808
0.02311809 0.105328985 0.091684096 -0.03597285 -0.07981941 0.026908658 0.009995529 -0.15115373
-0.13251609 -0.08193545 0.09510894 0.020398436 0.09908171 -0.08654622 0.086891845 -0.1291275
-0.00013863662 -0.0070590717 -0.100003205 -0.119575225 0.052643135 -0.02721995 -0.06306222 -0.09681322
0.089885995 -0.07998974 0.062789 0.118433125 0.11595094 -0.0274702 0.08685138 -0.15344469
0.06303381 -0.14376783 -0.027620072 0.12606576 -0.076605804 0.13860355 0.13024873 0.028138915
-0.08451612 0.025663275 0.13306777 -0.04205902 -0.124748945 0.076693326 0.013877176 0.07619332
0.122414276 -0.033345852 0.051748253 -0.06144567 0.051455144 -0.08116222 -0.0024880965 -0.0678734
0.09293173 0.07105817 0.1567417 0.1657525 0.03539183 -0.12605119 0.024848709 -0.07717722
-0.032644697 -0.06545885 0.06246404 -0.034685247 0.055022445 0.046672422 0.1131987 -0.081982434
0.104650706 -0.06865107 -0.05959689 0.13977692 -0.11887399 -0.004154887 2.810455e-06 -0.08966094
-0.021888677 -0.028832389 -0.12722911 -0.016867286 0.020653836 -0.030049823 0.16389284 0.13830897
-0.08104047 0.1350009 -0.069060005 -0.038682524 0.04804645 0.0564932 -0.14924246 0.01882077
0.14738674 -0.03898715 0.01609669 -0.06473141 0.13515237 0.15014675 0.042536333 -0.024929367

bias_hh_l0 f4 [120]
00000000: 2903 193e 886a b33d 150c 253e a45b 00bb
00000010: 5a6b 1c3e bbe4 20bd b640 223c 0938 9e3d
00000020: b364 ddbc 3ca2 06be d1c8 23bd 0402 b23d
00000030: b060 d83d 24e0 25be 478e 3d3d 507a b83d
00000040: 68c7 79bc 4153 bdbd 79bb f5bd d6ca 213e
00000050: ad23 1bbd 07fd 9bbd 12b8 c13d b872 18bc
00000060: c6bc 4cbc 38b0 a4bd 6546 b1bd a9ea 903d
00000070: fa42 053e 9552 a9bd ecef f8bc 0a5c 30bd
00000080: 72d2 943c 44ba 1cbe de27 17be 398b 423d
00000090: 5e29 efbd f089 6e3d 88cd 0b3e 9429 ad3d
000000a0: b8cc 0bbe 0bd6 c53d 4a78 fd3d 24fc 60bd
000000b0: 684f f6bd a688 103e ef18 b03d 093f f8bd
000000c0: 66a9 64bd a1b8 f73d 9b09 c33c 2e08 28be
000000d0: 041a fd3d 14c5 2fbd cf0d c43d b44a 9b3d
000000e0: 9296 19be 0508 54bd 11f8 dc3d a5b0 133e
000000f0: e74a ddbd 7ca4 8a3d 2dc6 2d3d 0064 e5bd
00000100: 82f6 d73d 95be 8b3c 6028 98bd c65c 003d
00000110: 8075 16be cc88 fa3d 2a46 bc3d 4fde 223d
00000120: 7b2a 03be 0680 f93d f7c7 443d c120 41bd
00000130: aaa4 f63b 9b6a 0abe 1387 943c 0cb4 a33d
00000140: c197 2e3e 7f2e 153c 083d 973d 67f9 3f3d
00000150: c32b 9dbd 8261 edbd 3fcf 9ebd db3e 07bd
00000160: c73e 003e 8561 4d3d c481 cc3d 86cb 1fbe
00000170: e06d d93d adcb 12bd f691 863d 3d23 143e
00000180: 6eb0 76bd 240d 8f3d f303 de3d 0c0b fe3d
00000190: 264b ea3d 9c68 81bd 0097 e13c 8504 70bd
000001a0: 19ab ed3c d2e7 823d d35f 4bbc a8dd 733d
000001b0: d7f3 3dbd 5c68 0e3e 85d6 083e e4d1 523d
000001c0: 82ea 16bd fde6 b43d 3af9 f33d 51eb e13d
000001d0: 6b0c 7ebd 4320 0abd 2eb8 ecbc b22b 01be
0.14942612 0.087605536 0.1611789 -0.0019585872 0.15275326 -0.039280634 0.009903124 0.077255316
-0.027025556 -0.13147825 -0.039986435 0.08691791 0.10565317 -0.16198784 0.046278264 0.09007704
-0.015245296 -0.09244395 -0.11998648 0.15800032 -0.03787582 -0.076166205 0.09458937 -0.009304695
-0.012496179 -0.080414236 -0.08656005 0.07076008 0.13013831 -0.082677044 -0.030387841 -0.043056525
0.018166754 -0.1530543 -0.14761302 0.047496054 -0.11677812 0.058237016 0.13652623 0.08455196
-0.13652313 0.09659966 0.12376459 -0.05492796 -0.12026864 0.14114627 0.08598506 -0.12121398
-0.055825613 0.12095762 0.023808291 -0.1640937 0.12358478 -0.042912558 0.09572946 0.07582608
-0.14998844 -0.05176546 0.107895024 0.14422853 -0.10805302 0.06769654 0.042425323 -0.11200714
0.105450645 0.01705865 -0.07429576 0.031338476 -0.1469326 0.12233123 0.0919307 0.03976279
-0.12809174 0.12182622 0.048042264 -0.047150377 0.0075269537 -0.1351723 0.018130815 0.079933256
0.17050077 0.009105324 0.07384688 0.046868708 -0.076743625 -0.11590864 -0.07754373 -0.033018928
0.12523948 0.05014183 0.09985688 -0.15604982 0.1061666 -0.03583877 0.065708086 0.14466567
-0.06022685 0.06984928 0.10840597 0.12404451 0.11440115 -0.06318781 0.027537823 -0.05859806
0.02901225 0.063918725 -0.012412983 0.05953756 -0.046375122 0.13906997 0.13363083 0.0514697
-0.036844738 0.0883312 0.119127706 0.11031211 -0.06202356 -0.033722173 -0.028896417 -0.12614325

weight_ih_l1 f4 [120, 40]
00000000: 8623 c1bd c2a4 113e 8647 afbd f9ea ff3d
00000010: 4f57 1e3e 837e f53c 015a 833d 42d9 4c3d
00000020: f9f0 f1bd efae cabd 82ad 003e c863 b6bc
00000030: 1c3a a9bd 44f1 14bb 9132 f5bd 2f52 b9bd
00000040: 2479 f8bc 2f25 d5bb 42ea ddbd fd22 853d
00000050: 0481 09be 85a4 11be f258 183d e799 13be
00000060: a088 043e 8b99 423b 3853 4a3d 6c75 f6bd
00000070: daa6 01be ab9e 0e3e d3d0 6cbd 62b6 88bd
00000080: d09d 4ebc dabc 64bd 5856 033d f80c 97bd
00000090: a723 d13d 65a7 15be d14c 86bd 1518 70bd
000000a0: da57 11be 840f 8abd 18c9 903d 93d8 cb3d
000000b0: 0449 d1bd b0c4 18be 3140 0ebe 88d2 1dbe
000000c0: d97f 0d3e ccfe 8fbd 889d b53d 70d7 e03d
000000d0: f2de c83d a03a 2cbe 45dd e5bd d737 a7bd
000000e0: 4122 1e3e 1bc2 a9bd ea3b 533c 570b 3e3b
000000f0: a94c a43d ad3b 02be 2a77 78bd 9a26 b8bd
00000100: 8863 bd3d c048 c33c 3294 c2bb 8b39 f43c
00000110: ed58 19be 3bf2 f4bd f09d 133e b00e 313c
00000120: 0800 f13d 1c67 e6bd 17a6 a23b 101a 5e3b
00000130: 3c47 7abd 01fb d73d b57e 173e 85d1 763b
00000140: 7e02 d03d 1e12 273e e579 da3d 6819 b8bd
00000150: 4d77 313d 3f6c 44bd 89e0 d1bd 10e2 f33d
00000160: f213 4abd c73c 7dbd 42f7 8cbd 6f13 0ebe
00000170: b513 1cbc f9cd a43d 7ba9 0dbe 8336 bd3d
00000180: 3c1b 12bc e417 d13d 7a69 093e 9bc2 483c
00000190: 98b1 183e 0fd7 433c 267e adbc 4d30 e4bc
000001a0: d09a 8dbb 4ee6 4c3d 2126 f2bd d9ec 073e
000001b0: fe1b a93d b6af 403d d075 a13d 0546 e8bb
000001c0: dc99 fe3c 4301 c9bd 9ca5 4ebd 7f13 71bd
000001d0: 23f8 b9bd 1439 91bd 6f35 0b3e b3c9 afbd
000001e0: 0925 243e adeb cb3c 5d26 bf3d d9c5 b9bd
000001f0: 5082 fb3d 75ed f63d cc95 b5bd 7a5d b73b
00000200: c690 493c 8111 bc3d 0940 8dbd fd2d 1b3e
00000210: ee5d 14bd 0b63 e83d 8e9f 0ebe 231d 0abe
00000220: b03a d6bd fd8b a93d 75f4 c2bd 8dbb 063e
00000230: ed5b 0abd 2232 29bd 0562 3bbd e02d d7bc
00000240: 07ca 6b3c 64c0 b7bd cf4a d33d 9041 943d
00000250: cccb c3bd df12 dbbd 566c 6c3d 8621 f13d
00000260: 0fed 013e c812 993d 28c1 4c3d 408f ddbd
00000270: 8427 05bd a82b 13be c86b 6c3c 83b0 f3bd
00000280: cbb5 a13d 026d 90bd 2a44 853d ee95 02be
00000290: 0fd7 b83d 0dd7 97bd c057 b53d 3fbc b3bd
000002a0: 4386 ef3d 9797 ca3d 8bc5 6f3d eed7 f4bb
000002b0: 0a45 823d ce2f 9cbd 41f9 10bd 858b 263e
000002c0: 16b3 b73d 282e 8d3d 2882 4abc 6428 14be
000002d0: dec3 053e 9f27 1d3d 5637 0d3e 2513 bd3b
000002e0: 775b 6f3d c7f5 f2bd fe3f 92bd 2adc 0b3e
000002f0: 3516 49bd 9c2b cfbc 15b1 803d 6650 e03c
00000300: e4e0 063e 0705 213e e4f4 a63c d45b fc3d
00000310: d2ad 1a3e 83f7 5d3d 4a56 c93d e2ff 31ba
00000320: 555e e3bd 6447 a53d 90d0 cbbd f9c8 4c3d
00000330: 438f 023e 4052 b5bd ebb7 08be f1dd eb3c
00000340: 0f6f 19bd f018 d63d 34fa f13c 6e14 08be
00000350: f4af acbd d7f1 353d 4270 133e 9d5b bb3c
00000360: ebd3 03bd 1700 4b3c 280a bfbd f22d 59bd
00000370: a75b 0fbe 9b16 913d 8dbd b9bd 55eb 2bbe
00000380: 967b 12be 5347 283d 216d 0cbd 361a 043c
00000390: 1662 273e 541e 023c 53fb d13d fa74 18bd
000003a0: f47d cabc 97ed 9c3d abf7 a13d f82b 9cbd
000003b0: f7fa 07bd ab23 ff3d acd6 75bc ebbf 02be
000003c0: 707c 183b d677 7dbd b326 ac3d e19b d03d
000003d0: 8d17 44bd 688f 18be b038 d03d 5cf6 1d3e
000003e0: e66f a0bd 05e6 00be bf0a df3d 14ef 383d
000003f0: e9df 60bd 0521 1a3e db4e 1cbd 2fe9 b53c
-0.09430604 0.14223006 -0.08558564 0.12495989 0.15462993 0.029967552 0.06413651 0.05001188
-0.1181354 -0.09896647 0.12566188 -0.022264376 -0.082630366 -0.0022726813 -0.119725354 -0.090488784
-0.030331202 -0.006504677 -0.10835697 0.06500814 -0.13428122 -0.14222915 0.0371942 -0.14414178
0.12942743 0.002969357 0.04939577 -0.12034115 -0.12661305 0.13927715 -0.057816338 -0.06675412
-0.012610868 -0.055844165 0.032064766 -0.073755205 0.10211878 -0.14614637 -0.0655762 -0.058616716
-0.14193669 -0.067412406 0.070696056 0.09953418 -0.10219005 -0.1491878 -0.13891675 -0.15412343
0.13818301 -0.070310205 0.08867937 0.109785914 0.098081484 -0.16819239 -0.112238444 -0.081649475
0.15442754 -0.08288976 0.012892703 0.0028998458 0.08022434 -0.12718077 -0.06066052 -0.08991738
0.092475 0.0238384 -0.0059380764 0.029812595 -0.14975329 -0.11960264 0.14415717 0.010806724
0.11767584 -0.11250135 0.004963647 0.0033890046 -0.06110309 0.10545922 0.14794429 0.0037661504
0.10156725 0.16315505 0.10667781 -0.08989221 0.043326665 -0.047954794 -0.10247905 0.119083524
-0.049335428 -0.06182554 -0.06883098 -0.13874601 -0.009526183 0.08047099 -0.13834183 0.09238913
-0.008917626 0.10209635 0.13419142 0.012253429 0.14911497 0.011953129 -0.021178316 -0.027855063
-0.0043214336 0.050024323 -0.11823679 0.13273944 0.08257292 0.04704257 0.07883799 -0.007088425
0.031079225 -0.09814694 -0.050450906 -0.058856484 -0.090805314 -0.07090965 0.13594602 -0.08583393
0.16029753 0.024892652 0.09333489 -0.090709396 0.122807145 0.1205701 -0.08866462 0.00559586
0.012302583 0.09183026 -0.06896979 0.15154262 -0.03622239 0.11347016 -0.13928053 -0.13487677
-0.104604125 0.08278654 -0.09519283 0.13157482 -0.033779074 -0.041307576 -0.045747776 -0.026266992
0.014391429 -0.089722425 0.10317003 0.072390676 -0.095603555 -0.10696959 0.057720505 0.11773972
0.12688087 0.07474285 0.049988896 -0.108183384 -0.03250839 -0.14372122 0.014429994 -0.11898901
0.078960024 -0.070520416 0.06507142 -0.12752506 0.09025394 -0.074140646 0.088546276 -0.087761395
0.1169553 0.09892195 0.058538 -0.00747203 0.063608244 -0.076263055 -0.035393957 0.1626416
0.08969705 0.06893569 -0.012360133 -0.14468533 0.13062999 0.038367864 0.1379064 0.0057701045
0.058436837 -0.118632846 -0.07141112 0.13658205 -0.049093444 -0.02528935 0.06283776 0.027382087
0.13171726 0.15724574 0.020380445 0.12322202 0.1510537 0.054191124 0.098309115 -0.00067901437
-0.11101977 0.08070257 -0.099518895 0.04999635 0.12749963 -0.088535786 -0.13351409 0.028792353
-0.03745943 0.10453975 0.029538251 -0.13289043 -0.08431998 0.04442009 0.14398292 0.022870833
-0.032184523 0.012390158 -0.09328109 -0.053022332 -0.13999806 0.0708439 -0.09069357 -0.16788991
-0.14304957 0.041083645 -0.03428376 0.00806289 0.1634601 0.007941801 0.102530144 -0.037220933
-0.024718262 0.07662504 0.07908567 -0.07625574 -0.033198323 0.12457975 -0.015004795 -0.12768523
0.002326753 -0.061881863 0.08405819 0.101859815 -0.047874022 -0.14898455 0.10167062 0.1542601
-0.07833843 -0.12587745 0.108907215 0.045149878 -0.054901037 0.15051658 -0.03816114 0.022205917

weight_hh_l1 f4 [120, 40]
00000000: b86a 90bd 3f46 c43c 6791 e2bd ddc7 b23b
00000010: 0a81 d9bd 024d 4b3d 5994 6fbd 1519 39bd
00000020: 3413 ef3d 7204 f7bc ca7b cabc 2a17 8a3d
00000030: f250 503d 2765 593d cadc ec3d c95a 803d
00000040: 0f4b 5abd 8f61 94bd 162e 54bd 198b 27bc
00000050: 61aa 26be 4ab5 9abd 7fc0 113e 75f2 fe3d
00000060: 5231 bebd ff70 25be 1df7 f33d c032 f0bd
00000070: 5a77 a6bd 89b1 fcbd c311 9c3d 678f 113e
00000080: 9485 81bd 9bcb bfbc 9556 04be b163 193e
00000090: 3cce 363d 0c0e 36bd f281 e2bc 7f94 a4bd
000000a0: f121 75bc a453 a1bd c78f f7bd f30a 20bd
000000b0: e84d 57bd 4495 a7bc 9786 3ebd b814 c7bd
000000c0: a1bb f9bc 3588 0f3e 963b 393c b06d 9abd
000000d0: ae76 9a3d 7f97 a63d ed8b af3d 9493 d4bd
000000e0: 82ca 03be 6515 fcbd 61d1 413c 0759 bdbd
000000f0: 5d10 05be a2ff 9aba d6e8 95bd b153 e0bd
00000100: fa23 9dbd a6a8 00bd 0397 8c3d b2f0 d0bd
00000110: 0e8f 62bd 4eef 083e b412 86bd 987f b13b
00000120: ae44 f83c 27f4 103e 7a7c a53d 1803 323c
00000130: 44ce 1cbe 5384 d33d 290e 6c3d a724 73bd
00000140: 152c 4dbd b4d6 1bbe 80a8 103d af8c a3bd
00000150: 7a1b 143d 9b3b 0dbe 2b43 de3d d63e 003d
00000160: 4419 293d 5b5a 09be e9e8 913d a634 8abd
00000170: 8bc0 093c 46c5 0abe 8765 b33d 46f8 00be
00000180: 0589 1fbe a693 94bc c8cf 8cbd 4bed ae3b
00000190: ac84 7e3d 57b8 943d bdad ccbd e07f bbbd
000001a0: 5ec7 15be 7886 c1bd 1945 b23d ac21 bbbd
000001b0: 58dd 4b3d e9ca 1c3b faa2 eabd 8f7d 133d
000001c0: 85ff f03d af89 3b3d 1016 10be 74cc e3bd
000001d0: 7361 c4bc 667c adbb 9147 823d bf78 26be
000001e0: d8ff 18be a292 7a3c 4283 133c d564 a3bd
000001f0: 6c13 ffbd 3d05 f93d bf74 f7bd 903e 183d
00000200: fbdf 143d 6672 bfbd eae3 92bd abef 073e
00000210: 6e18 ea3d a1b6 9ebd 3b18 28be 4747 27bd
00000220: 9509 653d 0d9a 93bc ec8f 4cbd 3bb4 efbd
00000230: 5ec2 1dbc f1e2 603d 63ca 0abe d71f 933c
00000240: c5a4 98bc 7fab ad3d 2564 8abd c29d f7bc
00000250: 4c19 0c3e 5b46 da3c de66 09be 50b1 4e3d
00000260: 779e b43c 35f9 8a3d ba51 e0bd e424 afbd
00000270: e3d0 aebd 6d5e 98bd e1df 16be 4730 d73d
00000280: eee0 a2bd a0bc 14bc 0f44 80bd bc70 47bd
00000290: 5ae4 913d 0cdd b7bd 0a79 2b3d 1ada 923d
000002a0: 355e eabd 77e9 fc3c fd40 67bd 63e5 2c3d
000002b0: 8017 863d 73b4 203c f808 cabc b0ea 983b
000002c0: f8a4 f63d e239 8ebd 7c7e 14bb 9bb6 08be
000002d0: f6c7 463c 2bed adbd e8fc 0cbd 213f edbd
000002e0: 301f 05bd b6bb dbbd f25a 603c 26fc e03c
000002f0: c59e f13d 0de3 873d 88d2 16be 72d6 e6bd
00000300: 3ee5 c23d 7973 a1bc fc30 aa3d 5c20 843c
00000310: 7a95 69bd 502c 91bd c76e 603d 207f 593d
00000320: 3066 febd 9167 fabd 5e6c 12be 711e a0bd
00000330: 5728 ccbd d980 0f3e bd7b c0bd 3cd5 513d
00000340: 0096 0bbe eeae ccbd 1735 f33b 497e fabd
00000350: ae78 8f3d f95a 9b3d c587 c8bd 637a a1bd
00000360: d7fc 76bc 9783 86bd 4d7a 27bd 2c56 133e
00000370: d840 debc b3a0 003e cc6c 30b9 cc32 ff3d
00000380: c02c 183e 0830 abbd d88b 163e 3664 183e
00000390: 6244 413d 701c f73d d3c2 19be 4063 183e
000003a0: 7c26 a1bc 25b3 b33c 6c87 d53d f757 ed3d
000003b0: 4ce7 e23d 2f8a b53d c636 263c 4e6f 1e3e
000003c0: bbc5 89bc a0b3 fcbd 8ae5 debd 8833 6f3d
000003d0: 3aea f73d 61ac 20be cf5b 4cbd 5f77 f33d
000003e0: 0c5b 2f3a 5c0b af3d e9d2 16be 8518 213e
000003f0: 83ea 1c3e 9637 023e c1a8 f1bd e59b 143e
-0.07051605 0.023959277 -0.110628895 0.0054559545 -0.106203154 0.049633987 -0.058491085 -0.045189936
0.116735846 -0.030153487 -0.02471723 0.067426994 0.050858445 0.053074982 0.1156555 0.06267316
-0.053294238 -0.0724517 -0.051801763 -0.010226035 -0.16275932 -0.075541094 0.14233588 0.12448589
-0.09286751 -0.16156386 0.119123675 -0.1172843 -0.08128233 -0.1233855 0.07620575 0.1421486
-0.06324306 -0.023412516 -0.12923653 0.14979436 0.044630274 -0.04444699 -0.027649853 -0.08036136
-0.014961706 -0.07877281 -0.1208797 -0.039072942 -0.05256453 -0.020456918 -0.046515074 -0.09720749
-0.030484976 0.14016803 0.01130571 -0.075404525 0.075421676 0.08134364 0.085716106 -0.10379711
-0.1287022 -0.12308768 0.011829705 -0.09245496 -0.12994523 -0.0011825452 -0.073198006 -0.10953463
-0.076728776 -0.031410836 0.06864741 -0.10202159 -0.05531221 0.13372537 -0.06546536 0.0054168217
0.030306187 0.14155637 0.08080383 0.010864995 -0.15313059 0.10327973 0.05763069 -0.059361126
-0.050090868 -0.15218621 0.035316944 -0.07985818 0.036159016 -0.13792269 0.10852655 0.031309925
0.04128386 -0.13413374 0.07124502 -0.06748323 0.008407722 -0.13551816 0.08759599 -0.12594709
-0.15579613 -0.01813681 -0.06875569 0.005338346 0.062138245 0.072617225 -0.099940754 -0.091552496
-0.14626834 -0.09449476 0.087045856 -0.09137282 0.049771637 0.0023924655 -0.114568666 0.036008414
0.117674865 0.045785602 -0.14070916 -0.11122981 -0.023972249 -0.0052943705 0.063613065 -0.16256998
-0.14941347 0.015293749 0.009003462 -0.079782166 -0.12454876 0.12159202 -0.120828144 0.03716904
0.036346417 -0.09347992 -0.071723774 0.1327502 0.11430441 -0.077496774 -0.16415493 -0.04083946
0.05591734 -0.018017793 -0.049941942 -0.11704298 -0.00962886 0.05490393 -0.13553767 0.017959518
-0.018633256 0.08479976 -0.06757382 -0.030226592 0.13681525 0.026644876 -0.13418147 0.050462067
0.022048218 0.06785814 -0.10953088 -0.08551958 -0.08535936 -0.07439885 -0.1473384 0.10507255
-0.07953058 -0.009078175 -0.06262981 -0.048691496 0.07123633 -0.08977708 0.04186348 0.07170506
-0.1144375 0.030873043 -0.056458462 0.042210948 0.06547451 0.009808647 -0.02466248 0.004666649
0.12043184 -0.06944634 -0.0022658398 -0.13350908 0.012132635 -0.08492502 -0.034420878 -0.115843065
-0.032500446 -0.107291624 0.013693558 0.027463984 0.11797861 0.066351034 -0.14728749 -0.11271371
0.09516381 -0.019708382 0.08310124 0.016128711 -0.057027318 -0.0708853 0.054793146 0.05309975
-0.124218345 -0.12226785 -0.14299151 -0.07818306 -0.09968632 0.14013995 -0.09398601 0.051228747
-0.13631439 -0.09994303 0.0074221003 -0.12231118 0.0700544 0.07585711 -0.09791521 -0.078846715
-0.01507493 -0.065680675 -0.04088812 0.1438834 -0.02713053 0.12561302 -0.00016825198 0.124608606
0.14860821 -0.083587706 0.14701784 0.14881977 0.047184356 0.12065971 -0.15015726 0.14881611
-0.019671671 0.021936009 0.1042622 0.115890436 0.11079273 0.08864247 0.010144895 0.15472147
-0.016817918 -0.12338948 -0.10883625 0.058398753 0.12105222 -0.15690757 -0.049892243 0.118880026
0.0006689287 0.085470885 -0.14728893 0.1573201 0.15323834 0.12716517 -0.117997654 0.14512594

bias_ih_l1 f4 [120]
00000000: 89e1 aa3d 8493 e2bd 7fdb 143d 8dd4 883d
00000010: 93a7 8f3d 4a4b dc3d 8f41 0bbe a479 143e
00000020: a157 27be 5dc9 c63d a218 c53d 2eb8 643d
00000030: 5f7c 54bd 2111 75bd 8b89 0a3e 996e a83d
00000040: 2acd 5ebd 8152 9b3d 96a6 1b3e 706e 62bd
00000050: 54ad d0bd 8264 1f3e d4c1 f1bc da35 e53c
00000060: 8ad2 25be cc59 0e3e 839e 15be c1aa 083d
00000070: f2c5 1abe 2780 553d ba7a 52bd 5799 d23d
00000080: 85e6 563d 5242 44bc 87df df3d 8242 01bd
00000090: bd29 69bd 70bc a03d f8b9 e13d 3b21 6ebd
000000a0: 9efa cebd 37d4 efbd 7c3d 853d 7ac3 133e
000000b0: 33d5 893d bc4d 6e3c 0d32 34bd ab48 cdbd
000000c0: f635 89bd 7f87 cebd fc38 bb3d 9b87 2dbd
000000d0: b850 15be 5dc7 a5bd 2b1b 9d3d e8a5 9ebd
000000e0: db40 733d b31c afbc 0e2b f03d 611d de3d
000000f0: 1f44 133e eb38 91bd 7e9f c7bd 46e2 ba3c
00000100: 28de 293e 398b 6abb 40a7 44bb dc60 c43d
00000110: 351b ebbd 42df 44bc 5312 ccbd 4f2d a8bd
00000120: 4273 4c3d 4f48 8dbd 7456 83bd 9c1b 1bbd
00000130: 2fb6 1dbe 51ae 81bd 2524 1d3d 453e 22be
00000140: 2224 0bbe 1da0 223e 8616 b23d f43a cfbd
00000150: 0daf df3d 3969 8a3d 8374 983d 3b27 a6bd
00000160: 11cb b9bd 2fe2 df3d bbb3 493d d1ae 863d
00000170: 557d 263e 4d06 d8bc 2e21 213e fea6 73bd
00000180: 1cea d6bd 9e4b afbc 1ea2 b33c edcb 14be
00000190: 6d85 193d bb8c 213d 71d9 0f3e c823 ac3d
000001a0: 60fd fb3d 7657 733b f0d5 f7bd b37d e2bd
000001b0: 48d2 5d3d 0893 0e3e a228 debd 1af0 6c3d
000001c0: 2fad 333d d54c 24be 35a7 0b3e 9a73 9d3d
000001d0: 9b06 273c 18a7 da3c 9649 d43b 2705 f73d
0.08343799 -0.110632926 0.03634214 0.06681166 0.07014384 0.10756548 -0.13599227 0.14499527
-0.16342022 0.09706376 0.09623839 0.05583971 -0.051876422 -0.05983079 0.13529031 0.0822422
-0.05439488 0.07584096 0.15200266 -0.055281103 -0.1018931 0.15565684 -0.02951137 0.02797978
-0.16193596 0.13901442 -0.14611249 0.03336597 -0.15114573 0.05212417 -0.051386572 0.102831535
0.052465934 -0.011978703 0.10931306 -0.031557567 -0.05692457 0.078484416 0.11021799 -0.05813716
-0.10106395 -0.11710399 0.06505868 0.14430037 0.06730118 0.0145449005 -0.043993045 -0.10023626
-0.06699745 -0.100844376 0.09141728 -0.04236565 -0.14581573 -0.08094666 0.076711975 -0.07746488
0.059388023 -0.02137599 0.11726962 0.10845447 0.14381455 -0.07090934 -0.097472176 0.022812974
0.16588652 -0.003578855 -0.0030006915 0.09588787 -0.11479799 -0.012016119 -0.099644326 -0.08211767
0.049914606 -0.068985574 -0.06412974 -0.037868127 -0.15401529 -0.06332076 0.03836455 -0.15844066
-0.13588002 0.15881391 0.08695702 -0.10118666 0.1092206 0.06758351 0.07444098 -0.08112951
-0.09071935 0.10931813 0.04924367 0.06576312 0.16258748 -0.026370192 0.15735313 -0.059485428
-0.104938716 -0.021398362 0.02192789 -0.14530917 0.03748076 0.03944085 0.14047791 0.08405262
0.12304187 0.0037130988 -0.12101352 -0.110591315 0.054155618 0.13923275 -0.10847594 0.057846166
0.043866333 -0.16044934 0.13638003 0.07688065 0.010194446 0.026691005 0.0064784987 0.120615296

bias_hh_l1 f4 [120]
00000000: a3c9 7f3d 245d d0bd 5c59 aa3c 3fcb 8c3d
00000010: 9da1 023e b6da b5bc c5f1 9c3d beaa bdbd
00000020: 39eb febd eae3 f5bd dc43 a73b 6ad1 20bd
00000030: 60bf 96bd d868 3dbd 09ed 0f3e 3330 eb3d
00000040: 5383 bf3d 9f9f 1a3e da10 eb3d 3b77 dfbd
00000050: 6de4 c7bd 9ac6 913c cd55 e7bd 868e 88bd
00000060: ab72 64bd cb34 163d 95cc b83d 45ed b13d
00000070: 0892 a23c 1aea 9abd 2a4d af3d 68aa 8f3d
00000080: cde2 2a3d 5437 91bd d51e e7bd fcaa dcbd
00000090: 052a 0dbe 4cfe cb3c c678 523d ec0a 123e
000000a0: 100f 053e 01c0 f53d 2add 00be 8413 ac3d
000000b0: 9cc1 633c b768 b73d 826c a6bd 87ee 103e
000000c0: d641 e03d 1e5f 233d 49ed 5e3d 7d6b c73a
000000d0: 6168 9fbd a33a c3bd 6abc 0cbe 9af7 bebd
000000e0: f0c2 d7bd 1a87 8c3d c9e3 82bd 3c83 163e
000000f0: 060c 003e 0c7f 083d a251 0b3d 1058 933d
00000100: ce05 15be d12d 5a3d 0f9b 19bd f207 213e
00000110: cea2 0a3d dbbb ccbd befc e8bd 03d2 5b3d
00000120: fe76 7a3d dccc 33bd 81f8 b43d 4e3d 92bd
00000130: d729 cabd bbe8 933d c3b7 a4bc bd8a 233d
00000140: 5e47 9d3d 5320 fc3d 85ba edba d24d d8bd
00000150: cbb6 67bb a6bb 853c 5051 d63d 1e34 babd
00000160: 6a75 9cbc 5108 0abe 63f5 eb3c 0790 503d
00000170: c0ec 00bd b5b1 56bd 6759 ddbd e2d4 d43a
00000180: b151 0f3e c18a 313d 8d9a e3bd 3d11 8b3d
00000190: a456 583b f81d 36bd dde1 1a3e 1d79 633d
000001a0: f67a d3bd c8af f8bc cde4 e23d 71b5 0abe
000001b0: 5434 18be 64b9 4bbd e392 ca3d f1af ab3d
000001c0: 596f 04be 2939 28be 79c6 8cbd 44f7 f63d
000001d0: 5d16 0ebe fdc2 d9bd e99f 4b3d ad96 fe3d
0.062448155 -0.10174015 0.020794563 0.068747036 0.12756963 -0.022199016 0.076633014 -0.09261082
-0.12447209 -0.12006362 0.005104525 -0.039262213 -0.07360721 -0.046242565 0.14055265 0.11483803
0.0935122 0.15099953 0.114778236 -0.10911413 -0.09760366 0.017794896 -0.11295662 -0.06667809
-0.05577342 0.03667144 0.09023396 0.08687834 0.019845024 -0.075641826 0.0855964 0.07014924
0.0417202 -0.07090631 -0.112851776 -0.107748 -0.1378556 0.024901532 0.05138471 0.14261979
0.12994027 0.119995125 -0.12584367 0.0840216 0.013901141 0.0895552 -0.08126165 0.14153491
0.10950057 0.039885633 0.05442551 0.0015214529 -0.077835806 -0.095326684 -0.1374375 -0.0932457
-0.10535228 0.06861706 -0.06391103 0.146985 0.12504587 0.033324286 0.034013398 0.07194531
-0.14552996 0.05326635 -0.03750139 0.15725687 0.03384667 -0.09996768 -0.11376332 0.05366708
0.061148636 -0.04389654 0.08836461 -0.07140599 -0.098712616 0.07222124 -0.020107156 0.039927233
0.07679628 0.12310853 -0.0018137252 -0.10561718 -0.0035356756 0.01632483 0.10464728 -0.09091972
-0.019098956 -0.13479735 0.028803533 0.050918605 -0.031475782 -0.05241557 -0.10808068 0.001623776
0.13996007 0.043345217 -0.111134626 0.06790397 0.0033010626 -0.044462174 0.15125223 0.055535425
-0.10326187 -0.030357257 0.110787965 -0.13545777 -0.14863712 -0.04973735 0.09891298 0.083831675
-0.12933101 -0.16428055 -0.06873793 0.12058881 -0.13875718 -0.10632894 0.04971305 0.12431083

weight f4 [40, 40]
00000000: a36b d7bd 5ecb 683d 1436 c0bd b1c8 96bd
00000010: 1656 f2bd 611f 673d 5ee0 cebd 3eb3 a43d
00000020: 86cb a93d 66cc bdbd 18c1 56bd 6229 b33d
00000030: 493d f1bd fa36 d9bc 6943 c8bd 08e3 90bd
00000040: afb8 9b3d cacd 023e b8ae b6bd 0774 d53d
00000050: f72f 9ebd 17dd 503d 787c 1f3d 02f9 0c3e
00000060: 8d4e c73d 0f89 05be 1ed8 cc3d 81dd e4bd
00000070: 1261 16bd bec3 0e3e 542a 04be 208f 0c3d
00000080: d516 6c3d 2dea 263d 025d 2d3d 2a2a 053e
00000090: ec19 ecbd 2237 d23d 9ca6 9fbd eced 213e
000000a0: 96ee c33d 6c80 d73d 8428 1cbc 54e7 05be
000000b0: 77b6 dbbd ca52 88bd 2b61 fa3d b186 243e
000000c0: 87ae 1c3e c2ef 57bd 741f 04be efe6 09be
000000d0: 850b 2a3d f657 c23d 20af 6abd 3812 b1bd
000000e0: 67ea 17bc 1f45 22bd 1f33 eabd 35ec 603d
000000f0: 7031 b53c ac17 1cbe 2201 8bbd 320a dd3d
00000100: 0800 d8bd d4ed f53b a6e0 e2bc e9b3 fd3c
00000110: 7029 e4bd 4b53 ecbd f4f8 0f3e 25c2 c8bd
00000120: 768d 003e 3ce4 a83d d19e 0cbe 3624 1dbe
00000130: 7a15 42bc d69e dc3d 159f 1b3e c978 a23b
00000140: af16 dcbd c6e7 f63d 20bd b93d 1ec4 fbbd
00000150: d9d0 173e 0279 1e3d 1b7b 213d 723d bcbd
00000160: 49df ae3d 477f bfbb ad90 413d 686d 8cbd
00000170: ac45 163e fc10 cd3d 0bd6 8a3d e55a fb3c
00000180: 8c66 01be 7e87 c1bc f024 dfbd 7201 1ebd
00000190: 5a7a dabd 15d6 10be fc7c 2abd 297d 2a3e
000001a0: 5938 5abd e51f 90bd 976f 1d3e 85f9 f0bd
000001b0: a130 0ebe 1704 493c 0402 6abd 2fa9 933d
000001c0: a3f7 68bc fbbf 0b3d 1e72 b93d 5b0c 703d
000001d0: cb40 a03d 8895 02bd f333 f43d 455a a63d
000001e0: a7b9 e73d bd4b 38bd 50d4 d3bb f24e 883c
000001f0: c258 cabd 8bd0 ec3d d016 ad3c 6bf7 a9bd
00000200: 7736 8bbc 10a7 1bbd 5fc5 d93c da4a 7b3d
00000210: a047 fa3d f554 0d3e cbaf fa3d 4be0 81bc
00000220: e8e1 0a3e 7948 423d 71db 1ebd 2e03 a0bd
00000230: fead 5f3b 54c3 94bc 9e95 4b3c 1f43 e7bd
00000240: 7e2c 10be f3e3 82bd e115 c73d 7592 123e
00000250: d6db c03d 20d8 913d e17e 2b3e e2b7 05be
00000260: 41b0 f3bb 73b5 643d 688c 4dbd fa85 0ebe
00000270: 8946 e4bd ec1c 96bd 34ee e53d 4783 a33d
00000280: c42f 233e 3475 d63d a5f2 053c dfc7 b73d
00000290: 8524 09be c5ce 2f3e 1760 7ebc 7549 91bd
000002a0: 6f6b 6c3d 2d93 ccbc 17a4 0b3e b47e 0b3d
000002b0: 7cd5 e0bd 9c52 183e f728 063e dcef 9a3d
000002c0: 1de0 84bb 535f 6d3d 073c e03c b5b5 10be
000002d0: 2d81 d0bd 2620 cc3d d248 2bbc 872d 683d
000002e0: 8b12 123e b011 0dbd a3b1 febc 982d d43d
000002f0: f3c6 87bd 4394 a93d 8f68 fc3d 1a63 f13c
00000300: 0174 a63d f312 7ebd d892 82bd e4b9 993d
00000310: 81c2 1c3d 490e 1abe 717e 10be 20e4 80bd
00000320: 7535 c93d da1a 8fbd 407b 1cbe 10c0 d63d
00000330: c736 143e 9bfd 623c bc3c f33c 0bc9 ed3d
00000340: 8824 ffbd a938 c4bd 519b 0bbe b7d1 c83d
00000350: c2b5 1ebd 5fe0 00bd cfe0 a53b ae67 0fbe
00000360: 3a5d 05be 88d3 bebc f323 e63d e510 98bd
00000370: 472e d0bd a054 eabc f58f d73d ea75 74bd
00000380: 1680 83bd 2de4 2abd 3f9e de3d 7862 27be
00000390: a3be 253d 9601 5cbd 4b79 95bd d3fa 90bd
000003a0: dcfd b63d 4971 093e 3f53 a23d 2598 04be
000003b0: f241 7bbd 1db2 0cbd 637a b83d f91a f23d
000003c0: 7d01 9a3b d068 f73d 05cc 063e e40c aebd
000003d0: 2af1 723a a1ae 093e d9c8 f33d a4bb 35bd
000003e0: 3309 27bd c091 e53d d507 79bd 2a68 38bd
000003f0: ba2a f2bc 9cb3 fbbc 4b14 d4bd 3008 653c
-0.10518577 0.05683457 -0.093853146 -0.073624976 -0.11832826 0.05642641 -0.101013884 0.08042
0.08290772 -0.092675015 -0.052430242 0.087481275 -0.11779267 -0.026515473 -0.097784825 -0.07074553
0.07603585 0.12773815 -0.08920044 0.10422521 -0.07723992 0.050992098 0.038937062 0.13766864
0.09731779 -0.13040565 0.100021586 -0.11175061 -0.036713667 0.13941857 -0.12906772 0.034316182
0.05763896 0.04075067 0.042325027 0.13004366 -0.11528382 0.10264422 -0.0779545 0.15813416
0.09566991 0.105225414 -0.009531144 -0.13076526 -0.10728162 -0.06656416 0.122255646 0.16067006
0.15300952 -0.052718885 -0.12902623 -0.13467 0.041514892 0.094894335 -0.05729592 -0.08646053
-0.0092721945 -0.0396167 -0.11435532 0.054912765 0.0221183 -0.15243405 -0.067873254 0.1079296
-0.10546881 0.007505158 -0.027695011 0.030969577 -0.11140716 -0.115393244 0.14059812 -0.09802655
0.12553963 0.08246657 -0.13732459 -0.15345845 -0.011845941 0.10772483 0.15197404 0.0049582464
-0.10746514 0.12055926 0.09069276 -0.12293266 0.14825763 0.03868962 0.039424043 -0.09191407
0.08538682 -0.00584403 0.047257114 -0.06856805 0.14675015 0.10013005 0.06779107 0.03068299
-0.12636775 -0.023624178 -0.10895717 -0.038575597 -0.10667868 -0.14144166 -0.0416231 0.16649307
-0.053276394 -0.070373334 0.153746 -0.11766342 -0.13885738 0.0122690415 -0.05713083 0.072100036
-0.014219197 0.034118634 0.09054969 0.058605533 0.07824858 -0.031880885 0.11923971 0.08122686
0.11314707 -0.044994105 -0.0064645186 0.016639207 -0.098802105 0.11563214 0.021129042 -0.08299144
-0.016993744 -0.03800112 0.026583372 0.06135068 0.12220693 0.1380194 0.12240561 -0.015854022
0.13562739 0.047432397 -0.038783494 -0.078131065 0.0034130807 -0.018159546 0.012425808 -0.11292099
-0.14079472 -0.06391134 0.0972097 0.14313681 0.094169304 0.07121301 0.16747619 -0.13058427
-0.0074367826 0.055837106 -0.05018273 -0.13918296 -0.11146266 -0.07329735 0.11227074 0.079840235
0.1593619 0.104715735 0.008175527 0.08973669 -0.13392837 0.1716872 -0.015525839 -0.07094089
0.057719644 -0.024972523 0.13636814 0.03405638 -0.10978219 0.14875263 0.13101564 0.07565281
-0.0040550367 0.057952236 0.027372373 -0.14131816 -0.10180888 0.09967069 -0.010454373 0.056684043
0.14264886 -0.034440696 -0.031090563 0.10360259 -0.066297434 0.08280232 0.123246305 0.0294662
0.08127595 -0.06202979 -0.063756645 0.07506159 0.03827143 -0.15044512 -0.14110734 -0.062935114
0.09824649 -0.069875434 -0.15281391 0.10485852 0.14474021 0.01385441 0.029692046 0.116106115
-0.1245814 -0.095811196 -0.13633467 0.09805625 -0.038747557 -0.031463977 0.0050621997 -0.14004394
-0.13023844 -0.023294225 0.112373255 -0.074250974 -0.10165077 -0.028604805 0.105255045 -0.059682764
-0.06420915 -0.04172151 0.10870027 -0.16346157 0.04046501 -0.05371245 -0.072985254 -0.07079091
0.089351386 0.13422121 0.07926034 -0.12948664 -0.061342187 -0.03434955 0.090077184 0.11821551
0.0046998844 0.12080538 0.13163765 -0.084985524 0.00092675036 0.13445522 0.11903543 -0.0443684
-0.040780257 0.1120944 -0.060798485 -0.045021214 -0.02956139 -0.030725293 -0.10355433 0.013979003

bias f4 [40]
00000000: 2fb4 b4bd 4b3f 86bc 48f3 513d 9db4 4cbd
00000010: 9129 3e3d 2176 17be c24b 133e d30d a1bd
00000020: 3ac2 10be aba5 a43d b8a4 e83d c627 dd3d
00000030: 5bff a2bd 98e3 883b eec3 6abd 0164 fdbc
00000040: 9da8 ab3d 4db4 ea3c f33a df3c 8735 be3d
00000050: df5f ccbc 0f03 99bd 2907 93bd 5253 04bd
00000060: d105 033c 94c7 133d e275 7f3c 217f ea3d
00000070: d8c9 fdbd be6a c53c c3be 5f3d 74fa 92bc
00000080: 5a40 aabc 059f c3bd 93d4 bc3d 70bf a4bc
00000090: cc86 fdbd 2517 f43d 2a77 073e 0db1 053c
-0.0882343 -0.016387602 0.0512574 -0.049976934 0.04642636 -0.14791156 0.14384368 -0.07863965
-0.14136592 0.08039411 0.113595426 0.10798602 -0.079588614 0.004177522 -0.05731576 -0.030931475
0.0838177 0.028650427 0.027249789 0.09287553 -0.024948059 -0.074712865 -0.071791 -0.032306023
0.007996992 0.036079004 0.01559207 0.11450029 -0.12392014 0.02409875 0.054625284 -0.017941691
-0.020782638 -0.09551815 0.09220233 -0.020110816 -0.12379226 0.11918477 0.13229051 0.008159888
