Results/0056_discriminator1.pth (torch, 250927 bytes, 35 tensors)

weight_ih_l0 f4 [120, 20]
000000 24 5d a9 3d fa a9 ba bc b4 61 72 bd c3 10 c3 bd
       0.08269718 -0.02278613 -0.05917521 -0.095246814
000010 72 fa a2 3d 08 0c 0f 3d 97 96 75 3d a6 1c b7 3a
       0.07957925 0.034923583 0.059958067 0.001397033
000020 e8 37 e9 bc ec 83 55 bd 82 b9 f8 bd 2c a3 f6 3d
       -0.028469041 -0.052127764 -0.12144758 0.12042841
000030 12 e6 17 3e 40 ae ab 3c 0f 29 8b b8 af 4f 08 3e
       0.14833859 0.020957112 -6.635684e-05 0.13311647
000040 c9 09 d5 3d 01 10 6b 3b 30 7d 06 bd e6 5c 23 3d
       0.10402257 0.0035867693 -0.03283423 0.039883517
000050 11 99 f4 bd 96 c1 9e bd f8 ac 15 3e c2 9d 04 be
       -0.119432576 -0.07751767 0.14616764 -0.12950805
000060 37 71 f3 3d 42 a0 79 bc 44 5c 9a 3d b3 e6 1c bd
       0.118868284 -0.015235962 0.075371295 -0.03830595
000070 74 43 1e 3e 23 e1 41 bd 9d 21 0d 3d 00 1c 34 bd
       0.15455419 -0.047333848 0.034455884 -0.043972015
000080 db 26 78 bc d2 ab 31 3d 64 8f 9f bd b2 cf a4 3d
       -0.015145983 0.04337675 -0.077910215 0.08047427
000090 e1 c2 1f 3c ce a0 08 3e b9 c1 cf bd ea d1 94 3d
       0.009751053 0.13342592 -0.101443715 0.072666004
0000a0 c0 e9 c5 bd 24 fe 86 3b f5 84 17 3b bc 60 a6 3d
       -0.09663725 0.0041196514 0.002312002 0.08123919
0000b0 e8 b2 1b be 5f 76 d5 3d d6 da ab 3c cf 0a 2e be
       -0.15204966 0.10422968 0.020978373 -0.1699631
0000c0 5d 23 ca 3c 7e e1 2e be 4d 15 29 bc ad 8f 14 3e
       0.024675066 -0.17078206 -0.01032002 0.14507933
0000d0 e3 73 c6 3d 16 af 17 3e 2f 5d 17 be f1 e1 d8 bb
       0.096900724 0.14812884 -0.1478164 -0.006618731
0000e0 fb b2 a4 3d 10 a6 2f 3d 54 b0 0a 3e 85 d3 1f be
       0.0804195 0.04288298 0.13543826 -0.15608032
0000f0 d4 e1 dd 3d 29 87 03 3e d4 08 13 3e 6e e8 9d 3d
       0.10834089 0.12844528 0.14358836 0.07710348
000100 df a4 20 3c 4e 7c b8 3d 46 e2 73 3d 05 f7 7a 3c
       0.009804933 0.09008084 0.059541963 0.015317683
000110 dc 2b 19 3e 65 05 de bd d3 5c ec 3d 26 95 f0 bc
       0.14958137 -0.10840873 0.11541142 -0.029367995
000120 00 ba 1f be e6 e2 29 be f9 f2 8d 3d 52 c1 13 be
       -0.15598297 -0.16590461 0.06931109 -0.14429215
000130 e6 ba ed 3d d0 2a 16 3d 2a 54 be bd 27 8d d2 bc
       0.11607914 0.036661923 -0.09293397 -0.025702072
000140 39 80 97 3c 23 42 82 bd f8 96 fd bd b1 e6 ec bd
       0.018493759 -0.06360271 -0.12382311 -0.115674384
000150 61 97 1b be 0a 19 aa 3d c0 21 13 bd 5c a1 8c bc
       -0.15194465 0.08305557 -0.03592086 -0.017166786
000160 52 df f7 bc 8b b4 9f bd e4 a0 94 3d 9c d7 e7 bd
       -0.030257855 -0.07798108 0.0725725 -0.11320421
000170 19 d1 a6 bd 58 0d 61 3d dc d8 09 be 3f cc 0f bd
       -0.08145351 0.054944366 -0.13461632 -0.035106894
000180 4c 8e ce bd fa b3 03 3e 6d bf 0e 3d e8 ce 22 be
       -0.10085735 0.12861624 0.034850527 -0.15899241
000190 5a 73 bf bd e1 0b 17 3e 87 e8 27 3e 93 2b b1 3d
       -0.093481734 0.14750625 0.16397296 0.08650889
0001a0 82 23 a3 3d 79 47 3b 3d 2b 1a 61 bd 9c 9c 8e 3c
       0.07965757 0.04572246 -0.054956596 0.017408662
0001b0 5f ea 38 3d 63 0b e0 3d aa d4 30 be 5d 83 b1 bc
       0.04514539 0.10939672 -0.17268625 -0.021669084
0001c0 bd 20 ca bc 47 a7 66 3c d8 7c 6a 3d ff 9a b9 3d
       -0.024673814 0.014077968 0.057247967 0.09062766
0001d0 e3 98 27 bd 5b 75 28 bd f5 11 2e bc bc e5 92 bd
       -0.04091729 -0.041127544 -0.0106243985 -0.071727246
0001e0 52 d1 4b 3d b8 6a 1d 3e 69 7a cf 3d cb 48 08 3e
       0.04976017 0.15372741 0.1013077 0.13309018
0001f0 2d 4b 0c 3e 84 36 a3 3d 16 d6 4d 3c 97 d1 f6 bd
       0.13700552 0.079693824 0.012563249 -0.12051695
000200 a4 8c 27 3e f5 0d cd bc 09 ca e0 bd 5b a7 2f 3d
       0.16362244 -0.02503107 -0.10976035 0.042884212
000210 8f 18 58 bd 7a 41 aa 3d 25 b5 65 3d 36 a9 0c 3d
       -0.052757796 0.0831327 0.056080956 0.03434106
000220 c2 9a 1f be 03 eb 51 3d 3a e0 cc 3d 48 83 78 3d
       -0.15586379 0.051249515 0.10003705 0.060672075
000230 c0 a1 20 be 67 09 10 3d 89 cb c2 3d cf e7 ee ba
       -0.15686703 0.035165217 0.095114775 -0.0018227043
000240 01 ad e5 bd 21 2a fa bd a3 47 96 bd 91 b0 10 be
       -0.112146385 -0.12215067 -0.07337882 -0.14129855
000250 73 57 fd bc a6 fb 15 3d ec 1f ac bd 6b ee 17 3e
       -0.030925488 0.036616944 -0.08404526 0.14837043
000260 69 05 a5 3d 62 12 0f 3e ff ae c0 3b d3 b3 e2 bd
       0.080576725 0.13971856 0.005880236 -0.11069455
000270 a7 96 13 be 3a bc 06 be d4 d8 df 3d c7 a4 3b bc
       -0.14412938 -0.1315774 0.109300286 -0.01145286
000280 27 70 09 3e fa 94 d9 3d 1a 45 10 3c c0 0e c6 3c
       0.13421689 0.10624118 0.008805538 0.024176955
000290 ba 56 1a 3d 01 08 50 3d 73 c4 1e 3e 6d da 9b 3d
       0.037680365 0.050788883 0.15504627 0.07610021
0002a0 f3 2e a4 bc 46 64 87 3d eb 5b 1e bd 9f 83 fa bd
       -0.020041918 0.066109225 -0.03866188 -0.12232136
0002b0 b8 96 4f bc 4b fa 4c bc 91 f6 1f 3e 01 d5 f1 bc
       -0.0126702115 -0.012510846 0.15621401 -0.029520513
0002c0 0e 2d 58 bd 18 80 0a bc 92 a0 0c 3e 42 8e 3a 3e
       -0.052777342 -0.0084533915 0.13733128 0.1821833
0002d0 1d 01 98 3d 57 43 9a 3d a6 46 85 bd 9d b5 e0 bd
       0.07422087 0.07532375 -0.06507616 -0.1097214
0002e0 7d 6d 9e 3d 2c 95 10 be 9d 60 1b be 12 84 14 be
       0.07735727 -0.14119405 -0.15173574 -0.14503506
0002f0 57 d0 9c bc ef 5e f5 3d 99 58 34 be ae 23 d6 3d
       -0.019142313 0.11980998 -0.17611922 0.10456024
000300 00 27 07 3d e9 f3 96 bd 4f 06 1f be df 45 25 3e
       0.032996178 -0.07370741 -0.1552975 0.16139935
000310 84 08 6e bd 68 d5 1d bd fb a1 f6 3d a0 dc 6c 3a
       -0.05811359 -0.0385336 0.12042614 0.0009035561
000320 49 0a d8 3d 98 4e 0a 3e 46 91 70 bd 7b b2 1d be
       0.10548837 0.13506544 -0.058732294 -0.15400116
000330 4b 4d 31 3d 38 b5 a4 3d 75 1c 05 be 71 2e 3c 3c
       0.043286603 0.08042377 -0.12999137 0.011485682
000340 da 27 23 be 9c 1e cf bd 5c 74 0a 3d c1 11 d5 3d
       -0.15933171 -0.1011326 0.033802375 0.10403777
000350 f2 33 24 be 51 25 34 bd 53 8f 11 be e1 ab 4b 3d
       -0.1603544 -0.0439809 -0.1421483 0.049724463
000360 5e b4 dc 3d 4c c7 97 3d 86 a0 18 bd b9 42 a7 3d
       0.1077659 0.0741106 -0.037262462 0.08167023
000370 b0 16 fb 3d ed d5 d6 bd d7 f5 1d 3d 4f cb 1a 3e
       0.12260187 -0.10490022 0.03856453 0.15116619
000380 a8 56 03 bd 35 8e a9 bd 80 2e db 3d 04 03 18 3e
       -0.032065064 -0.08279077 0.107022285 0.148449
000390 45 92 c3 3d 3c b1 d3 bc 5e 1b ed 3d fe cd 1f be
       0.09549383 -0.025841348 0.115774855 -0.15605924
0003a0 97 d8 18 bd 82 a5 32 3d 8c 0b 14 3e d9 d7 32 bc
       -0.03731593 0.04361487 0.1445753 -0.01091572
0003b0 a1 e4 14 3e 32 3c 0f be a8 dd ec b9 69 e8 e6 3d
       0.1454034 -0.13987806 -0.00045178575 0.112747975
0003c0 27 b6 11 3e 90 f8 d6 3d 34 db ba bd 47 3c f3 3d
       0.14229642 0.10496628 -0.09123841 0.11876731
0003d0 ea d1 57 3c cf 11 1b 3e e6 7e 61 3d 62 0e e5 bd
       0.013172606 0.15143512 0.05505266 -0.11184384
0003e0 e4 5f 1b 3e 86 41 ac 3c 85 59 3c 3c 38 e2 1a 3d
       0.15173298 0.021027338 0.0114959525 0.037813395
0003f0 fa 7b ae 3d ce 6c c4 bd 5b 34 c4 39 d3 12 9c bd
       0.085197404 -0.09591065 0.0003742304 -0.07620778

weight_hh_l0 f4 [120, 40]
000000 d8 e2 e7 bd 4e 51 ff bd 82 3f d8 bd 90 36 25 be
       -0.11322564 -0.124666795 -0.10558988 -0.16134095
000010 3c ed ba 3d 52 69 47 3d 39 ec 7f 3c 95 d9 a4 3c
       0.0912728 0.048684426 0.015620285 0.020123282
000020 42 4b 83 3d 01 ce 76 3d ba 86 f5 bd 79 04 f4 bd
       0.06410839 0.060255054 -0.11988588 -0.119149156
000030 35 81 5e 3d ed 4d bb bd 69 c4 27 3d 1a 40 70 3d
       0.05432244 -0.091457225 0.040958796 0.058654882
000040 36 51 9f 3d b5 2d 85 bc 5b d7 3b 3d aa 37 a4 3c
       0.07779162 -0.016257146 0.045859676 0.020046074
000050 3c 8f 12 be 8c ae e1 bc 17 13 04 3e c3 c2 93 bd
       -0.14312452 -0.02754905 0.12897907 -0.07214882
000060 6c 89 d2 3b 4f 11 2d 3d df c6 01 be d2 93 80 bd
       0.0064250734 0.042252835 -0.1267352 -0.062781945
000070 92 ac dc bc a7 24 c9 3d 85 05 06 3e 90 61 8a 3d
       -0.026937757 0.09821444 0.13088043 0.0675689
000080 0a 77 15 be b3 4a c9 bd df 4a d8 3b 6d 17 a4 3d
       -0.14596191 -0.09828701 0.006600722 0.080122806
000090 ce c1 c0 3d b6 93 f7 bc f1 45 1f be 41 11 08 3e
       0.09411965 -0.030221801 -0.15554024 0.13287832
0000a0 6b c2 bc 3d b8 9c bd 3c 0f f5 e4 bc 83 07 d3 3d
       0.0921677 0.023146018 -0.027948884 0.10304167
0000b0 2f 80 4a bc bc 36 76 bc 6f d4 8c bd 73 44 16 3e
       -0.012359663 -0.015027698 -0.06876456 0.14674549
0000c0 68 70 21 be f6 bf 1a be 1b 75 f5 3d a7 84 16 3c
       -0.15765536 -0.1511229 0.11985227 0.0091869
0000d0 14 35 0b be 58 f7 9b 3d 49 1f cc 3d 13 c7 7f bd
       -0.13594466 0.076155365 0.09966905 -0.06244571
0000e0 58 20 18 bd 0c a2 01 3e 62 67 8c bc d9 41 b8 3d
       -0.03714022 0.12659472 -0.01713914 0.089969344
0000f0 26 23 d4 bd 99 c2 9c bd c2 bc 01 be ce d4 18 bc
       -0.103582665 -0.07654304 -0.12669662 -0.00932808
000100 d9 27 c6 3d cc 20 19 3e f1 90 e2 bd 95 00 17 3e
       0.09675569 0.14953917 -0.11062802 0.14746316
000110 99 8a 1f 3d 3b 33 1f 3e b0 91 e7 3d 64 dc 95 3c
       0.038950536 0.15546887 0.113070846 0.018293567
000120 6e 30 d6 bd 9e 83 3b bd ee ed 3b bd b7 95 df 3d
       -0.10458456 -0.045779817 -0.045881204 0.10917228
000130 ad 37 67 3d 93 68 0a be 37 35 db bd f8 6c 84 bd
       0.05644958 -0.13516454 -0.10703509 -0.06466097
000140 fd 87 0a 3c 93 6c 68 3d 96 ac 80 3d 78 7b d2 3d
       0.008455274 0.05674417 0.06282918 0.10277456
000150 a5 e0 b2 3d 86 7a c5 bd 7b d7 02 3e f6 43 99 bd
       0.08734254 -0.0964251 0.12777512 -0.07483666
000160 70 3b 26 bd 04 6b a2 bd bc a7 c6 bd 4c 10 9b 3d
       -0.040584028 -0.07930568 -0.096999615 0.07571468
000170 28 bb f2 3d 03 3f 03 3c 0a bf 8f bd 0e ef 18 be
       0.118521035 0.008010629 -0.0701886 -0.14934942
000180 2f 9e 7d bb 53 64 81 bb 20 1c b5 bc cf e9 82 3c
       -0.003869902 -0.003948727 -0.022108138 0.01598063
000190 5e 63 3b 3e 15 25 9a bd e5 2b 14 3e 7e 5f 0f 3b
       0.18299624 -0.07526604 0.1446987 0.0021876986
0001a0 52 70 62 3d 8e 9d 8a 3d 5a b9 12 be 3c 91 cf bd
       0.0552829 0.067683324 -0.14328519 -0.10135123
0001b0 8a 42 ca 3d 09 99 ff bd ba 58 03 be db 9d 4b bd
       0.098759726 -0.12480361 -0.12826815 -0.04971109
0001c0 3e 90 28 3e 80 82 ad bd 43 6c 96 bd 07 e3 16 3e
       0.16461274 -0.084721565 -0.07344868 0.14735042
0001d0 b3 1c 28 bd a7 33 e8 bc 36 b6 27 3e b0 6a 93 bd
       -0.041042995 -0.028344942 0.16378102 -0.071980834
0001e0 d4 29 e2 3d d3 82 b9 3d 8e 73 f3 ba bb 96 5d 3d
       0.11043134 0.09058156 -0.0018573867 0.054098826
0001f0 b2 0f 8e 3d 9a 04 f9 bc 30 7d b7 bc 19 38 6e 3d
       0.069365874 -0.030397702 -0.022398561 0.058158968
000200 4d 0f a8 bd c6 dc af 3d 6f 05 13 bc c6 ac 82 bd
       -0.082060434 0.08587031 -0.008973463 -0.0638061
000210 ac f5 94 3d 75 99 d8 bc 2d 4c cd 3c 88 7c 19 be
       0.07273421 -0.026440362 0.025060738 -0.14988911
000220 53 f1 12 3e 40 94 7d 3d 4e 9a df 3d 69 16 e1 bd
       0.1434987 0.06190896 0.10918103 -0.109906025
000230 cb 8c 7a bd 20 f7 80 3c 91 cb 5c bd 33 19 89 3c
       -0.061169427 0.015742838 -0.053905074 0.016735649
000240 fc 96 7d 3c bc 19 81 3d 7f 12 e3 bd eb 4f 9e bd
       0.015477892 0.063037366 -0.11087512 -0.07730087
000250 d8 b3 09 3e 9c c7 9d bd cf 56 2f 3e ec 6a e6 3c
       0.13447511 -0.07704088 0.17122959 0.028127156
000260 53 e9 ce bc 73 03 ac 3c 84 e1 2a 3c b4 75 ea bd
       -0.025257742 0.020997738 0.010429744 -0.11448231
000270 56 65 65 3c ac 56 01 be ef 02 b5 3d 5e 84 c2 3c
       0.014001211 -0.12630719 0.0883845 0.023744758
000280 31 c9 30 be 88 4f 1c be d6 1a d8 3d 79 82 89 3d
       -0.17264248 -0.15264714 0.105519935 0.06714339
000290 bf ce e1 bd 52 6d 49 3d 5a 25 00 3e 15 79 3b 3c
       -0.11025762 0.04917652 0.12514248 0.011442442
0002a0 60 7b ed bd 5d 0e f6 3d 43 b3 fd 3d 3c 00 07 be
       -0.115957975 0.12014458 0.12387707 -0.13183683
0002b0 b7 da 04 be b9 a4 12 be 11 5e cf bd 0e 55 6d bc
       -0.12974058 -0.14320649 -0.101253636 -0.014485611
0002c0 f1 be d7 3d 65 6e e8 bc 21 64 fc 3d 20 2e cc 3c
       0.10534466 -0.028372953 0.123237856 0.024924338
0002d0 75 19 14 3d 4f ef c4 bd be 01 cf 3d 1e f0 21 3e
       0.03615709 -0.09615957 0.10107754 0.15814254
0002e0 78 c6 e7 3d 51 c0 18 bd 70 a2 03 3e b5 e1 02 3d
       0.11317152 -0.037292782 0.12854934 0.031953532
0002f0 c7 7e 90 bd 16 25 1c 3d 6e 45 88 bd 49 f3 c5 3d
       -0.07055431 0.038121305 -0.06653868 0.096655436
000300 0f 9a 87 bd 71 5f a0 bd 48 e0 aa 3d 18 f0 16 3e
       -0.06621181 -0.07830704 0.083435595 0.14740026
000310 12 5f 01 be 11 d1 05 be c0 ed f0 ba 89 3e a7 3a
       -0.12633923 -0.13068034 -0.0018381402 0.0012759726
000320 b0 4a ea 3d 49 ca 00 be 5e 12 90 bd 2b 99 dd 3d
       0.11440027 -0.12577166 -0.07034753 0.1082023
000330 5f 34 a1 3d 16 68 60 bd 59 74 3b 3d c4 80 f7 bd
       0.07871317 -0.054786764 0.045765255 -0.12085107
000340 ef 99 a2 3d 40 31 14 3e 01 b9 d2 bb 21 f0 5a bd
       0.07939517 0.14471912 -0.0064307456 -0.05345166
000350 ca 20 00 bc 6e 81 06 3e 6e 8d 9e bd 23 f0 c6 bd
       -0.0078203175 0.13135311 -0.07741819 -0.09713771
000360 7f e2 61 3d c4 a1 f8 3d 8b 2a c4 3d ca 18 6e bd
       0.055147644 0.12140229 0.09578427 -0.05812911
000370 f8 2c 2c be 5b a8 4a 3d 33 ed 03 3d 4d 9a 3d bc
       -0.16814029 0.049476963 0.032208633 -0.011572433
000380 75 52 13 be 53 d7 1d be 77 8a 9b bd b7 b6 13 be
       -0.14386924 -0.15414171 -0.075947694 -0.14425169
000390 4d 58 20 be c0 7b c7 3d 0d 05 25 be 78 73 af 3d
       -0.15658684 0.097404 -0.16115208 0.08566946
0003a0 97 d2 04 3e 5a 74 a7 3d 43 f3 7e 3b 36 10 f1 bd
       0.12970959 0.08176489 0.003890232 -0.1177067
0003b0 e4 8c 03 3e 32 32 22 3e 67 f0 72 3b 08 45 e7 3d
       0.12846714 0.1583946 0.003706956 0.112924635
0003c0 59 af 26 be 2b df 01 bd 6f a4 e1 3d c2 59 cd bd
       -0.16277827 -0.03170697 0.11017691 -0.100268856
0003d0 31 54 8d bd dc cf 77 3d a1 9d 13 bd e2 38 1b 3e
       -0.06900824 0.060500965 -0.036039 0.15158418
0003e0 47 3f c1 bd 2d 52 a1 3d 51 a7 ce 3d ba af c9 3d
       -0.09435897 0.07877002 0.10090507 0.0984797
0003f0 9d ad 53 3c 54 db 2e 3e b9 72 ec 3d b3 85 06 3e
       0.012919811 0.17075855 0.11545319 0.1313694

bias_ih_l0 f4 [120]
000000 46 5a 47 3c 96 fd 04 3e 73 f2 38 bd 6f 9f ac 3c
       0.012167519 0.1298736 -0.045153093 0.021072118
000010 f2 83 a3 3d b9 e7 24 3d d2 84 fd bd 8e 95 e1 bd
       0.07984151 0.04026005 -0.12378849 -0.110148534
000020 f3 2f 1f be ca c2 98 bd f1 71 8b bb 0b eb ea bb
       -0.15545635 -0.07459028 -0.0042555262 -0.0071691326
000030 65 a4 37 bd da cc 88 bd 60 6c c9 3d 9b e8 8d 3c
       -0.044834513 -0.06679697 0.09835124 0.017322829
000040 8f cc f2 3b 5f a7 e5 3d a8 d3 b6 3d b2 30 c8 bc
       0.007409639 0.11213564 0.08927089 -0.024437282
000050 f3 6e 9d bd ac 88 7e 3c d0 a4 9f 3b 9f d9 11 be
       -0.076871775 0.015535515 0.004871942 -0.14243172
000060 09 78 f3 bd b8 ac af bd f0 bf dd 3d 1b b8 b1 3c
       -0.11888129 -0.08577865 0.10827625 0.021694234
000070 de e3 b2 3d 41 52 9d bd c2 7c b7 3d a0 fe 0f be
       0.087348685 -0.07681704 0.089593425 -0.14061975
000080 1b bf 26 3c ec be d8 bb 88 da cb bd 74 82 f7 bd
       0.010177399 -0.0066145565 -0.09953791 -0.12085429
000090 1e 37 41 3d 7c 15 e1 bc 4e 83 88 bd 02 78 e7 bd
       0.047171704 -0.027476065 -0.066656694 -0.113021865
0000a0 d9 52 df 3d 92 1c b2 bd b3 88 3b 3d fc 23 f1 3d
       0.10904474 -0.086968556 0.045784663 0.117744416
0000b0 b1 ac f9 3d 05 77 2f bc 70 57 92 3d a4 a7 0b be
       0.121911414 -0.010709529 0.07145584 -0.13638169
0000c0 e4 71 a0 3d ac d8 05 be 63 4c 33 bd b8 75 0b 3e
       0.07834223 -0.13070935 -0.04377402 0.13619125
0000d0 eb 83 b9 bd 9e 24 05 3e 23 3a f8 3d a8 33 e1 3b
       -0.090583645 0.1300225 0.12120464 0.006872613
0000e0 8c 09 cb bd d4 c7 81 3c b2 4a ef 3d 51 20 1e bd
       -0.0991393 0.015842356 0.11684169 -0.038605038
0000f0 87 fc db bd 23 e5 b2 3d 8d 80 9c 3c f8 92 7f 3d
       -0.10741525 0.087351106 0.019104267 0.06239602
000100 65 ba 0c 3e 61 8b 4d bd 1e 97 08 3d 28 39 7c bd
       0.13742979 -0.05018175 0.03334724 -0.061577946
000110 92 38 12 3d 08 a9 b0 bd 29 dd 7e bb 5c ba 5d bd
       0.03569848 -0.0862599 -0.0038889146 -0.054132804
000120 d8 88 de 3d cf 2b 88 3d 68 00 32 3e 57 a1 32 3e
       0.108659446 0.06648981 0.17382967 0.17444359
000130 ed c5 2c 3d 2c e1 0b be 30 1b 02 3d 9c 5d be bd
       0.042180944 -0.13660115 0.03176421 -0.09295198
000140 c6 e6 be bc 0e da 47 bd 80 cc 8d 3d 47 f6 1a bd
       -0.0233034 -0.048791938 0.06923771 -0.037832525
000150 18 7c 6a 3d f6 4a 45 3d 62 fb d1 3d a1 30 a2 bd
       0.05724725 0.04816719 0.102530256 -0.079194315
000160 84 e0 e4 3d 51 f3 8b bd b6 f3 67 bd 8b 5f 08 3e
       0.111756355 -0.06833518 -0.056628905 0.13317697
000170 dd 60 e0 bd 2f bc 97 bb 42 c1 8d ba 62 73 9d bd
       -0.10955975 -0.0046305875 -0.0010815042 -0.07688023
000180 9b fb 16 bc e8 69 9d bc 76 34 04 be 02 cd bb bb
       -0.009215261 -0.01921554 -0.12910637 -0.005731226
000190 1c a4 19 3c 01 d8 01 bd d4 90 25 3e f8 2a fc 3d
       0.009377506 -0.031700138 0.16168529 0.12312883
0001a0 5d 65 97 bd 0e 3a 00 3e 03 57 60 bd aa 69 08 bd
       -0.073923804 0.12522146 -0.05477048 -0.033303894
0001b0 ca 6d 52 3d d3 39 71 3d 38 b2 18 be 8a 8d e6 3c
       0.051374234 0.058893036 -0.14911735 0.028143663
0001c0 a9 c7 0c 3e 73 ea ed bc bf b6 84 3c c5 d8 99 bd
       0.1374804 -0.029042458 0.016200421 -0.07512049
0001d0 48 9c 0f 3e 51 31 2a 3e ef 19 23 3d 9b f2 a8 bc
       0.1402446 0.16620375 0.039819654 -0.020623496

bias_hh_l0 f4 [120]
000000 99 f0 24 3e e4 db c5 3d 86 43 29 3e 6a d7 53 bc
       0.16107406 0.096610814 0.16529664 -0.012929777
000010 4d 68 16 3e a7 f7 29 bd be a0 68 3c f5 da 99 3d
       0.14688225 -0.041495945 0.01419848 0.07512466
000020 30 eb 74 bc db 90 08 be 99 fb 0b bd 97 20 bf 3d
       -0.014948651 -0.13336508 -0.03417549 0.09332388
000030 67 b0 dc 3d 0c e5 27 be 5b f7 79 3d 5f b3 dc 3d
       0.107758336 -0.16395968 0.061026912 0.107764
000040 b7 92 fd bc 99 62 af bd b0 ac fa bd cf 9a 2d 3e
       -0.030953748 -0.08563728 -0.12239969 0.16953586
000050 e5 10 0f bd d2 47 b3 bd d8 39 b7 3d 7d c0 18 ba
       -0.03492822 -0.08753933 0.0894658 -0.0005827023
000060 9d 3c 95 3a 2a 8f ac bd f0 4e 96 bd 0b 92 93 3d
       0.0011385862 -0.08425744 -0.07339275 0.0720559
000070 7a 7e f2 3d b1 65 95 bd 3d ce e2 bc 8c 6e 5f bd
       0.1184053 -0.07294787 -0.027686233 -0.054548785
000080 ba 54 e9 3c ba 45 1c be e3 ad 16 be 17 4e 3d 3d
       0.028482784 -0.15260974 -0.1471477 0.04621705
000090 f8 5d fa bd 5c 7d 6d 3d 43 1f 08 3e 95 f7 8b 3d
       -0.12224954 0.05798088 0.13293175 0.06834332
0000a0 b8 5c f0 bd 21 8b b7 3d 1b a5 da 3d 4f ce 63 bd
       -0.11736435 0.089620836 0.106760226 -0.055616673
0000b0 6a 1a ea bd 5e b2 21 3e 3d 91 90 3d 1e 4d d5 bd
       -0.11430819 0.15790698 0.07058952 -0.104150996
0000c0 65 f5 25 bd 84 3b 09 3e 4c d1 fa 3b d7 a9 1d be
       -0.04051723 0.1340161 0.0076543447 -0.1539682
0000d0 a1 79 e0 3d 07 eb 52 bd 16 88 b1 3d 20 7a 5f 3d
       0.10960699 -0.05149367 0.086685345 0.054559827
0000e0 f1 8f 28 be fb 41 7c bd f4 bc bb 3d 13 3a 17 3e
       -0.1646116 -0.06158636 0.09166899 0.14768247
0000f0 0d cb b9 bd 3c 78 a0 3d 26 2f 43 3d e1 d2 00 be
       -0.09071932 0.07835433 0.047652386 -0.12580444
000100 f8 b6 f6 3d 1e 95 69 39 cf d7 bd bd 33 a4 ff 3c
       0.12046617 0.00022276162 -0.09269678 0.031206226
000110 01 98 26 be 2c 18 f0 3d ba 67 b9 3d 60 26 5b 3d
       -0.16268922 0.117233604 0.090529874 0.053503394
000120 1d 1f e6 bd e2 24 f0 3d 00 63 85 3d 78 87 1d bd
       -0.11236403 0.11725785 0.065130234 -0.03845927
000130 fc 8d 6a 3c 37 38 15 be eb 2d cd 3c 87 65 83 3d
       0.014316078 -0.14572226 0.02504631 0.06415849
000140 0e 9c 38 3e 4f a5 d3 3c b4 72 a1 3d 6a a5 2c 3d
       0.1802828 0.025835661 0.07883206 0.04214994
000150 f3 90 96 bd 85 27 ec bd 6e d8 b5 bd 4a f4 f6 bc
       -0.073518656 -0.11530975 -0.08879171 -0.030145783
000160 45 7b 0b 3e a5 82 4d 3d d7 a5 d5 3d 16 1c 25 be
       0.13621242 0.05017342 0.10432022 -0.16123995
000170 88 7e ef 3d a1 ba 21 bd 05 4a 83 3d be 3d 20 3e
       0.11694056 -0.039484624 0.064106025 0.15648553
000180 72 e8 42 bd 53 4c a1 3d 2a 63 da 3d bf ea 09 3e
       -0.04758496 0.07875886 0.10663445 0.13468455
000190 13 32 d1 3d 94 98 82 bd 18 b9 cd 3c a8 91 9b bd
       0.10214629 -0.06376758 0.025112674 -0.07596141
0001a0 67 1d 26 3d 51 a8 5d 3d b7 f7 b8 3a 00 37 88 3d
       0.040555384 0.054115597 0.0014111911 0.066511154
0001b0 46 b9 32 bd 2b ec 10 3e c0 cc 09 3e 1f f8 6b 3d
       -0.04363372 0.14152591 0.13457012 0.057609674
0001c0 7d 1d 49 bd c2 9f c5 3d 78 2e f4 3d 7a 6d cf 3d
       -0.049100388 0.09649612 0.11922926 0.10128303
0001d0 7c 6b 73 bd 36 e4 8f bc 99 9d 02 bd 4d b2 f6 bd
       -0.059428677 -0.017564874 -0.031888578 -0.12045727

weight_ih_l1 f4 [120, 40]
000000 94 71 d5 bd 67 2d 17 3e e9 ac bf bd a9 f9 f2 3d
       -0.10422054 0.14763413 -0.09359152 0.11864025
000010 86 f8 23 3e 2d 8d 02 3d c7 3d 87 3d 20 06 50 3d
       0.16012773 0.031872917 0.0660358 0.05078709
000020 b2 c3 e2 bd c4 05 c5 bd 25 99 f3 3d 44 dd e3 bc
       -0.11072482 -0.0962024 0.118944444 -0.027815469
000030 09 b5 a6 bd ec 78 b5 bb c1 33 07 be e9 6e d9 bd
       -0.081399985 -0.0055380967 -0.13203336 -0.106168576
000040 fd 81 07 bd 11 1c 71 3b 02 90 f5 bd 7c f2 8c 3d
       -0.03308295 0.003679041 -0.11990358 0.06882188
000050 f8 d4 05 be b7 10 12 be 45 10 14 3d 77 07 07 be
       -0.13069522 -0.14264189 0.03614833 -0.13186441
000060 53 8c ff 3d 94 51 d6 3b 28 a2 1f 3d 70 09 fa bd
       0.124779366 0.0065404866 0.038973004 -0.12208831
000070 5f aa 02 be b9 0e 15 3e b0 e7 41 bd de fc 8a bd
       -0.12760304 0.14556397 -0.047340095 -0.06786512
000080 de c3 55 bc 81 39 7a bd db 8c 4e 3d b5 d1 90 bd
       -0.013047187 -0.061089996 0.0504273 -0.070712484
000090 be 95 b9 3d bb f7 15 be 73 d2 4a bd 83 50 84 bd
       0.09061764 -0.14645283 -0.049517106 -0.06460669
0000a0 ff 71 13 be fa 24 88 bd 4d dc 8e 3d f3 ae c7 3d
       -0.14398955 -0.06647678 0.06975613 0.09750166
0000b0 32 1e d8 bd 21 a9 18 be 0b ea fc bd d8 96 12 be
       -0.10552634 -0.14908268 -0.12349328 -0.14315355
0000c0 d8 c0 09 3e bb a8 91 bd e0 e0 8b 3d d6 17 d9 3d
       0.1345247 -0.07112261 0.06830001 0.106002495
0000d0 6c 24 d8 3d 42 c0 36 be da 28 f8 bd 27 d8 c9 bd
       0.10553822 -0.17846778 -0.12117167 -0.09855681
0000e0 b9 ae 14 3e 9a 2e 8d bd ec ec ce 3c de f7 25 3b
       0.14519776 -0.06893654 0.025259458 0.0025324742
0000f0 16 53 a9 3d 0d ef 01 be b7 d8 7a bd 4f d5 96 bd
       0.082678005 -0.12688847 -0.06124183 -0.07364904
000100 ef 82 9b 3d 91 30 bf 3c 58 2d 80 bc e1 fd b8 3c
       0.07593333 0.023338588 -0.015646622 0.022581996
000110 c5 4c 07 be 22 b8 fa bd 9b c2 1f 3e e8 bf d4 bb
       -0.13212879 -0.12242152 0.1560158 -0.0064926036
000120 75 9a f0 3d 18 e2 02 be ba b4 9e 3c 81 7d be 3c
       0.1174821 -0.1278156 0.019373287 0.023253204
000130 a0 ed 9f bd 5f 2a b5 3d 40 b5 15 3e 1d ad 19 bc
       -0.07808995 0.08845972 0.14619923 -0.009379652
000140 2a 4f d6 3d 6c fc 1f 3e 5b 28 f1 3d 76 e5 b0 bd
       0.10464318 0.15623635 0.11775275 -0.08637516
000150 ae 81 01 3d ae e6 3e bd ae 9e ce bd b2 ab 01 3e
       0.031617813 -0.046606712 -0.100888595 0.12663153
000160 e5 ff 83 bd 06 e4 9e bd 2d a0 a7 bd d9 7b 09 be
       -0.064452924 -0.07758336 -0.08184848 -0.1342615
000170 ae f0 5e bb 54 ab 97 3d 2a 2d f8 bd 2b 19 c6 3d
       -0.0034017968 0.07405725 -0.12117989 0.09672769
000180 a4 69 ba bc a5 f9 db 3d ae fd 18 3e 78 6d 3d 3c
       -0.022755452 0.10740975 0.14940521 0.011561744
000190 4b d2 1c 3e 5e b9 70 3c ec e4 b9 bc 6d f7 e4 bc
       0.15314595 0.0146926325 -0.022692166 -0.027950013
0001a0 ef 91 a4 bb 8b 75 42 3d 9e 1e 05 be f4 15 03 3e
       -0.0050222795 0.04747538 -0.12999961 0.12801343
0001b0 49 2e ac 3d ea cd 26 3d f6 d7 a5 3d e8 6b b7 bc
       0.08407266 0.04072372 0.08097832 -0.02239032
0001c0 88 79 fa 3c f2 90 de bd 66 72 6b bd d9 04 38 bd
       0.030575529 -0.1086749 -0.057482146 -0.044926498
0001d0 59 f6 cc bd 87 1b a9 bd 2f d4 f7 3d 44 06 ac bd
       -0.100079246 -0.082572035 0.12101018 -0.083996326
0001e0 a5 2d 32 3e e0 de 1c 3d da 92 e1 3d 14 9a d7 bd
       0.17400225 0.038298488 0.11014338 -0.10527435
0001f0 48 42 ec 3d 18 eb fe 3d cb 6c d7 bd 96 9e c7 3c
       0.1153608 0.12447184 -0.105187975 0.024367612
000200 f8 a1 7c bb c3 19 99 3d b3 28 af bd 15 cd 14 3e
       -0.003854869 0.07475617 -0.08552685 0.14531358
000210 47 24 e6 bc 1a fe cb 3d 0e 76 fc bd b8 e9 f0 bd
       -0.02809347 0.099605754 -0.12327205 -0.11763328
000220 c8 ec f9 bd f2 9b cc 3d 0d 67 9c bd c1 dd 17 3e
       -0.122033656 0.09990682 -0.07636843 0.14830686
000230 fa 8a 28 bd 51 dd 70 bd cf 29 7d bd 2e 86 49 bc
       -0.041148163 -0.058804814 -0.06180745 -0.012300057
000240 bf 6b 8b 3c de 50 b5 bd aa be bc 3d 6c c5 78 3d
       0.01701915 -0.08853315 0.09216054 0.06073515
000250 cf c1 b2 bd 56 a8 ba bd 9d 37 8a 3d 24 b2 d1 3d
       -0.08728372 -0.09114139 0.06748889 0.10239056
000260 56 ce fd 3d 1e 56 6c 3d 8d cf 49 3d eb c2 b9 bd
       0.12392871 0.057699315 0.0492702 -0.09070381
000270 13 bf d1 bc ae 1f 25 be 9e 9e 35 bb 24 a4 0b be
       -0.025603807 -0.16125366 -0.0027712951 -0.13636833
000280 3b 96 c2 3d 19 8f 7a bd df 41 a4 3d f8 51 09 be
       0.095013104 -0.061171625 0.080203764 -0.13410175
000290 5b 1f cc 3d 3f 38 85 bd b5 b9 93 3d f5 1e cd bd
       0.09966918 -0.06504869 0.07213155 -0.1001567
0002a0 90 b2 f2 3d 52 09 bd 3d 41 c8 97 3d cf 51 88 bc
       0.11850464 0.09230293 0.07411242 -0.016640572
0002b0 07 e7 3e 3d 28 ef 90 bd fc f6 ba bc 75 88 36 3e
       0.046607044 -0.070768654 -0.02282285 0.17825492
0002c0 ae 13 bd 3d ee e2 9a 3d a6 eb d6 bc b8 d4 06 be
       0.09232269 0.07562815 -0.026235413 -0.13167083
0002d0 3c d6 ed 3d 8d aa c3 3c ee 53 08 3e 87 e2 09 bc
       0.116131276 0.023885036 0.13313267 -0.008415825
0002e0 61 79 95 3d eb 8c eb bd 43 67 81 bd e3 2c 1b 3e
       0.07298542 -0.11501487 -0.06318524 0.15153842
0002f0 eb 5c 87 bd 7b ba 06 bc 67 df 68 3d 68 91 31 3d
       -0.066095196 -0.008223171 0.056853678 0.04335156
000300 04 c7 01 3e eb 09 31 3e e2 c2 94 3b 6c 13 e2 3d
       0.12673575 0.1728894 0.0045398334 0.11038861
000310 c2 7e 2b 3e 5b d0 8d 3d a7 37 ae 3d 9f 26 23 3c
       0.16747573 0.06924506 0.085067086 0.009957938
000320 f2 a2 de bd 7e f4 98 3d c1 03 b3 bd fb 3a 18 3d
       -0.10870923 0.07468508 -0.087409504 0.037165623
000330 87 05 f8 3d fd d1 c5 bd 91 96 03 be 87 ce 49 3d
       0.12110429 -0.09659193 -0.12850405 0.049269225
000340 44 90 56 bd bf 5e b7 3d 73 52 55 3c 56 87 09 be
       -0.052383676 0.08953618 0.013020146 -0.13430533
000350 ae 93 a5 bd 78 21 ed 3c 25 e3 1e 3e 22 26 d6 3c
       -0.08084808 0.028946623 0.15516336 0.02614123
000360 20 34 48 bd 70 62 e7 3c da 76 98 bd eb 57 1b bd
       -0.048877835 0.02824518 -0.07444544 -0.037925642
000370 d4 1c 03 be f3 42 5c 3d d7 84 b4 bd 49 1e 1a be
       -0.12803966 0.053774785 -0.088144 -0.15050615
000380 12 72 22 be b9 aa 32 3d c0 64 55 bd c4 57 ae bb
       -0.15863827 0.043619845 -0.052098036 -0.005320521
000390 96 bc 2d 3e c7 fe 3d 3c e6 6c e5 3d b5 4f 67 bd
       0.16966471 0.011596388 0.11202411 -0.0564725
0003a0 0e ed 66 bc d8 bd 72 3d 88 c1 b7 3d f0 94 62 bd
       -0.014094604 0.05926308 0.0897246 -0.05531782
0003b0 42 42 3e bd d9 66 d5 3d 89 18 fb bc e0 39 14 be
       -0.046449907 0.10420007 -0.030651348 -0.14475203
0003c0 32 32 c1 3b 96 ee 96 bd 92 d7 af 3d 99 33 d5 3d
       0.0058958763 -0.073697254 0.08586039 0.10410232
0003d0 92 52 34 bd 7e 84 1d be 50 ab ec 3d f3 3a 1a 3e
       -0.044024058 -0.15382573 0.11556113 0.1506155
0003e0 19 53 8c bd 7b aa 05 be 20 cd cc 3d 6d 91 63 3d
       -0.06851787 -0.13053314 0.10000062 0.05555861
0003f0 93 ce 6e bd 9c e0 09 3e f8 ac 3d bd de be 17 3c
       -0.058302473 0.13464588 -0.046307534 0.009261815

weight_hh_l1 f4 [120, 40]
000000 3f c1 9a bd 4a 32 d3 3c e2 2d dc bd f2 c7 3f 3b
       -0.0755639 0.025780816 -0.10750939 0.0029263464
000010 3c 13 f9 bd fd ae 4a 3d a3 a7 84 bd 7b 91 2f bd
       -0.12161872 0.049483288 -0.06477287 -0.04286335
000020 a4 35 f6 3d f7 1c 26 bd 6a a3 93 bc 16 25 80 3d
       0.1202195 -0.040554967 -0.018022258 0.062570736
000030 dd 58 5f 3d fa d4 4a 3d ec f6 fb 3d c0 51 4a 3d
       0.054528106 0.049519517 0.12302956 0.04939437
000040 96 44 63 bd 14 e7 99 bd ae 0b 72 bd 8a 14 84 bc
       -0.05548533 -0.07514778 -0.05909317 -0.016123075
000050 c2 50 24 be 10 fa 7a bd 81 9c 14 3e 08 82 f3 3d
       -0.16046432 -0.061273634 0.14512827 0.11890036
000060 e4 fc b8 bd 86 f4 25 be 39 5a eb 3d d5 bf ed bd
       -0.0903261 -0.1620656 0.11491818 -0.11608855
000070 47 1c ac bd 0e db 01 be 5f 8d a0 3d 72 3f 17 3e
       -0.08403831 -0.12681219 0.078394644 0.14770296
000080 98 7f 60 bd 51 83 cd bc d9 16 05 be d5 75 23 3e
       -0.054809183 -0.02508703 -0.12996997 0.15962918
000090 5a 48 2c 3d 35 5c 44 bd 6b 43 f4 bc 77 be a2 bd
       0.042061187 -0.047939498 -0.029817304 -0.079464845
0000a0 ee dc b6 bc ad 0a b3 bd 06 f0 03 be cc 5d dc bc
       -0.022322144 -0.087422706 -0.1288453 -0.026900195
0000b0 21 77 8d bd 00 d9 b3 bc ea 01 30 bd 91 48 a8 bd
       -0.06907488 -0.02195406 -0.042970575 -0.08216966
0000c0 36 ba 95 bc 3c 27 12 3e 05 a1 04 3a c1 3b b0 bd
       -0.018277269 0.14272779 0.0005059394 -0.08605147
0000d0 ae 7f 8c 3d e4 94 88 3d 3b 0c c7 3d d7 df de bd
       0.068602905 0.06669024 0.0971913 -0.10882538
0000e0 c9 3d 12 be 78 42 0f be eb 23 53 3c 1d 20 df bd
       -0.14281382 -0.139902 0.0128869815 -0.10894797
0000f0 2b 68 f0 bd 66 27 af bb d0 48 87 bd 49 18 00 be
       -0.117386185 -0.005345273 -0.06605685 -0.12509264
000100 ee ad 89 bd 15 7c f0 bc 2c fc 57 3d c2 47 d8 bd
       -0.067226276 -0.029356042 0.052730724 -0.10560562
000110 b0 36 7e bd 19 dc 0e 3e f4 c3 7d bd 0a fe 50 3b
       -0.062063873 0.13951148 -0.061954454 0.00318897
000120 ac 8f 2e 3d 16 71 0d 3e fc 9a 8f 3d 3b b1 fc 3b
       0.042617485 0.1381267 0.07011983 0.007711557
000130 77 60 2c be 82 fe ba 3d ba bf 6d 3d 9a 7e 89 bd
       -0.16833673 0.09130575 0.058044173 -0.067136005
000140 e0 1d 86 bd ac fe 25 be c2 37 eb 3c 21 11 83 bd
       -0.06548667 -0.16210431 0.02871311 -0.063997515
000150 5f 05 00 3d c7 9f 17 be 54 07 f0 3d 3c 78 3b 3d
       0.031255122 -0.14807044 0.11720148 0.04576896
000160 70 86 3b 3d ec 9e fb bd 22 bc 73 3d f3 a7 aa bd
       0.045782506 -0.12286171 0.05950559 -0.08332815
000170 e9 a3 55 b9 10 2c 1a be 41 3e b7 3d 84 3f e1 bd
       -0.00020374324 -0.15055871 0.08947421 -0.10998443
000180 ac f0 24 be 22 75 d0 bc 83 da 52 bd e0 ad 02 3c
       -0.16107434 -0.025446478 -0.05147792 0.007976025
000190 ab fa 9f 3d fb b0 67 3d 77 35 ca bd ea 69 d7 bd
       0.07811483 0.056565266 -0.09873479 -0.105182484
0001a0 ca a6 08 be cf c6 b9 bd ac d9 a6 3d 3c d3 b9 bd
       -0.13344875 -0.09071123 0.08146986 -0.09073493
0001b0 68 b8 26 3d e6 f2 3e 3c be 3c dc bd 1e 15 d9 3c
       0.040703207 0.011654591 -0.10753773 0.026499327
0001c0 a3 24 f4 3d 33 b5 47 3d d8 68 1f be 77 3b 01 be
       0.119210504 0.04875679 -0.15567338 -0.1262034
0001d0 6d cc f0 bc cb e7 21 bc d9 9a 8d 3d 9c 5b 2e be
       -0.029394353 -0.009881924 0.069143005 -0.17027134
0001e0 7f df 28 be a3 1b 26 bb e6 38 cf 3c f5 52 81 bd
       -0.16491507 -0.0025346063 0.025295686 -0.06314651
0001f0 c3 d8 e0 bd 6e 2e d9 3d 1a 06 d4 bd ff 7a 55 3d
       -0.10978844 0.10604559 -0.10352726 0.05211925
000200 1d 25 37 3d a7 f1 9e bd 02 70 97 bd 11 27 f5 3d
       0.04471313 -0.07760935 -0.07394411 0.11970342
000210 fe ef fc 3d ee f1 c0 bd 9c c2 1c be 9c 7d d6 bc
       0.123504624 -0.094211444 -0.15308613 -0.026182942
000220 51 bc 33 3d 29 10 b6 bb ba 67 09 bd 63 70 f5 bd
       0.043880764 -0.0055561257 -0.033546187 -0.11984327
000230 d2 1d b9 3b 8b f7 4e 3d af d0 f2 bd c8 5b 67 3b
       0.005649307 0.050529044 -0.118562095 0.0035302509
000240 c3 e9 f2 ba e1 b8 ab 3d 4d 9b 93 bd 90 72 ec bc
       -0.0018532801 0.08384872 -0.07207356 -0.028863221
000250 d2 93 f7 3d 34 e5 30 3d 33 2e fa bd 59 37 77 3d
       0.12088741 0.043187335 -0.12215843 0.060355518
000260 46 3c 15 3d 10 0d 83 3d 06 63 00 be 94 b5 bd bd
       0.036434434 0.06398976 -0.12537774 -0.09263149
000270 0b 2e d1 bd 3d 58 af bd b3 de 07 be 4f 7e d1 3d
       -0.1021386 -0.08561752 -0.13268547 0.102291696
000280 26 12 94 bd 22 3e 69 3b e2 be 44 bd 79 f6 83 bd
       -0.07230024 0.0035590013 -0.048033603 -0.06443495
000290 89 6f b2 3d 21 73 be bd f2 0b 67 3d 2b 9b 58 3d
       0.0871268 -0.09299303 0.056407876 0.052882355
0002a0 5f a6 03 be 60 45 07 3d d9 3f 1d bd 56 30 74 3d
       -0.12856434 0.033025146 -0.038390968 0.05961641
0002b0 cc e8 ab 3d 42 98 97 3c 82 3f f3 bc 37 3e 6d bb
       0.08394012 0.01850522 -0.029693369 -0.0036200413
0002c0 c9 c0 0c 3e aa d2 5f bd b0 52 51 3b a6 7a f3 bd
       0.13745417 -0.054644264 0.0031940155 -0.11888628
0002d0 6e 26 71 bb 92 b5 8e bd 46 8a 99 bc 8f db c4 bd
       -0.0036796588 -0.069682255 -0.018742692 -0.0961219
0002e0 e1 75 1d bd 00 02 e3 bd 94 34 e7 3c 86 bb e0 3c
       -0.038442496 -0.11084366 0.028223313 0.027433168
0002f0 81 2b 01 3e 63 4f 9c 3d d7 31 1a be de 11 ce bd
       0.12614252 0.07632329 -0.15058075 -0.10062002
000300 14 65 a3 3d dd 0c dc bc 96 94 cd 3d 07 1a c1 3c
       0.079782635 -0.026861602 0.10038106 0.023571981
000310 c3 b8 22 bd 61 69 63 bd 56 0f 65 3d 07 95 8a 3d
       -0.039726984 -0.05552042 0.05592283 0.06766706
000320 b0 09 0c be 48 d5 0f be 84 65 0a be bb 2e 7c bd
       -0.1367557 -0.14046204 -0.13515288 -0.061568003
000330 a1 12 e4 bd 10 d5 02 3e 69 7d 9f bd 54 07 91 3d
       -0.11136366 0.1277659 -0.07787592 0.07081476
000340 01 c0 fe bd a6 2d b8 bd df 27 c6 bb 1a 3c 0d be
       -0.124389656 -0.08993082 -0.0060472335 -0.13792458
000350 e7 b3 85 3d e4 d5 74 3d 69 f0 b3 bd 48 92 7c bd
       0.06528454 0.059774294 -0.08786089 -0.061662942
000360 d1 69 f7 bc 80 44 ac bd 48 2f e3 bc 3d 3b 03 3e
       -0.030201824 -0.08411503 -0.027732506 0.12815566
000370 c4 93 17 bc c9 bf ec 3d b5 b0 82 3c 5d f3 d6 3d
       -0.009251539 0.115600176 0.015953401 0.104956366
000380 2f 75 26 3e a3 dc ac bd 21 63 04 3e 9c fb 0b 3e
       0.1625564 -0.084405206 0.1292844 0.136702
000390 0f d0 0e 3d 85 1b 09 3e a9 e0 0f be ff f4 1a 3e
       0.03486639 0.13389404 -0.14050545 0.15132521
0003a0 f0 e5 9e bb 60 df 64 3c 79 ea b2 3d 62 b0 e1 3d
       -0.004849188 0.013969272 0.08736128 0.110199705
0003b0 3f ad c0 3d 24 4a 96 3d 59 1e c2 3c 0a cc 17 3e
       0.09408044 0.0733836 0.023696112 0.14823928
0003c0 5e 4f b7 bc 70 b6 eb bd 1b f8 da bd 58 f7 72 3d
       -0.022376712 -0.115094066 -0.106918536 0.059317917
0003d0 fe 33 f0 3d b9 36 1a be 45 58 38 bd f3 8a 00 3e
       0.11728667 -0.15059938 -0.045006055 0.12553005
0003e0 ff 36 d8 bb 48 a8 a3 3d 33 9c 14 be cd f4 1d 3e
       -0.006598353 0.079910815 -0.1451271 0.15425415
0003f0 e9 c0 25 3e 1e 3e e3 3d 29 0e f8 bd e8 c8 11 3e
       0.1618687 0.11095832 -0.12112076 0.14236796

bias_ih_l1 f4 [120]
000000 5a 26 ad 3d 2a da eb bd 83 25 07 3d e5 56 8f 3d
       0.084545806 -0.11516221 0.03299476 0.06998996
000010 01 5c a2 3d 9b 7f e4 3d 4e d1 f4 bd af 45 16 3e
       0.079277046 0.11157151 -0.11953984 0.1467502
000020 18 1e 33 be 92 f6 ba 3d ac 60 e0 3d 9f 1b 50 3d
       -0.17491949 0.09129061 0.10955939 0.05080759
000030 c1 e2 3a bd 49 1f 95 bd e6 d1 0e 3e 8e 8e b2 3d
       -0.045626406 -0.07281358 0.13947257 0.087185964
000040 6a bf 35 bd 68 64 b9 3d c2 fa 1b 3e ed 3d 6a bd
       -0.044372 0.09052354 0.15232375 -0.057187963
000050 1b b3 c8 bd aa f4 20 3e 11 7a c5 bc 45 9d d3 3c
       -0.09799787 0.15718332 -0.024106057 0.025831828
000060 53 aa 24 be ee 8f 05 3e b3 fa 17 be 20 7e 06 3d
       -0.16080599 0.13043186 -0.14841728 0.032835126
000070 3b e1 1b be 7d 47 43 3d 2b 45 49 bd dd 39 ce 3d
       -0.15222637 0.0476756 -0.04913823 0.1006963
000080 82 2e 8f 3d 36 a9 93 bc 2b f9 e7 3d 3e 99 cd bc
       0.069912925 -0.018025022 0.11326822 -0.025097486
000090 a1 35 8b bd e7 11 b1 3d 29 9f e6 3d 7a c3 8d bd
       -0.06797338 0.08645993 0.11260826 -0.0692205
0000a0 d8 f1 c1 bd 4c 5d f5 bd 78 07 ad 3d 3b 32 03 3e
       -0.09469956 -0.119806856 0.0844869 0.1281213
0000b0 d8 53 81 3d 6b eb 34 bb ef ac 76 bd 6f cc cd bd
       0.0631482 -0.002760614 -0.060223516 -0.10048758
0000c0 d5 29 ad bd 24 71 f2 bd 28 ed cf 3d 57 bf 14 bd
       -0.084552445 -0.11837986 0.10152656 -0.03631529
0000d0 7e d3 07 be 80 6e 94 bd 78 37 91 3d 1e 4c 8e bd
       -0.13264272 -0.07247639 0.07090658 -0.06948112
0000e0 a4 80 74 3d 09 bf e2 bb ac 89 e0 3d 5a 22 bb 3d
       0.059692994 -0.006919746 0.10963759 0.091374114
0000f0 a3 2c 19 3e 81 0a b8 bd 7c 51 d8 bd 2b f3 1b 3d
       0.14958434 -0.089863785 -0.10562417 0.0380737
000100 f5 44 33 3e 25 46 a8 bc cc 69 28 bb 61 ac ac 3d
       0.17506774 -0.02054126 -0.0025697825 0.08431316
000110 04 5c e6 bd 6e e9 e6 bc a9 4a f2 bd 5d f9 c9 bd
       -0.11248019 -0.02818748 -0.118306465 -0.098620154
000120 86 00 06 3d dd 4e a8 bd b6 fd 6f bd 5f 81 28 bd
       0.032715343 -0.08218167 -0.058591567 -0.041139003
000130 44 bb 0d be 4b 43 a6 bd cc 5b d7 3c 19 85 18 be
       -0.13840967 -0.08118304 0.02628889 -0.14894523
000140 ba a8 07 be c8 b4 21 3e c6 0a c2 3d 7c 73 ca bd
       -0.13247958 0.15791619 0.09474711 -0.09885308
000150 d7 16 fc 3d 36 3c 88 3d d6 98 b1 3d 29 4b b4 bd
       0.12309044 0.06652109 0.08671729 -0.08803398
000160 37 80 af bd 71 0f ef 3d 2c d0 76 3d a5 78 86 3d
       -0.08569377 0.11672867 0.060257122 0.0656598
000170 51 60 2f 3e 30 24 bf bc fc f2 20 3e ac ca 91 bd
       0.17126586 -0.023332685 0.15717691 -0.07118735
000180 4f c2 c4 bd dd f3 52 bc f2 fd d1 3c 79 68 0a be
       -0.09607374 -0.012875524 0.025633786 -0.13516416
000190 22 3d 00 3d 53 b8 38 3d 84 7f 11 3e cb 62 b4 3d
       0.0313083 0.04509766 0.142088 0.08807906
0001a0 5b 9a f7 3d 9c 8c ea 3b 9f 69 f2 bd 0f 2d de bd
       0.12089988 0.007157875 -0.11836552 -0.10848438
0001b0 4a af 79 3d 86 f7 10 3e 6a 13 cf bd 25 a4 74 3d
       0.060958184 0.14156923 -0.10111125 0.059726853
0001c0 21 64 1e 3d 4b c9 1f be 41 81 17 3e 7f 30 a3 3d
       0.03866971 -0.15604131 0.147954 0.07968234
0001d0 a4 bb 8d 3c cc 3e 16 3d 4c 08 77 3c 1b be e7 3d
       0.017301388 0.03668098 0.015077662 0.113155566

bias_hh_l1 f4 [120]
000000 a0 29 82 3d ca a3 d9 bd 69 ed 8e 3c 95 4d 93 3d
       0.063555956 -0.106269434 0.01744719 0.07192532
000010 d4 fb 0b 3e 72 09 95 bc 9f a3 be 3d a0 12 ba bd
       0.13670284 -0.01819298 0.09308552 -0.09085584
000020 13 3c 0b be 59 db 00 be 1c f1 96 3c f6 6d 35 bd
       -0.13597135 -0.12583674 0.018425517 -0.04429432
000030 95 f2 89 bd 4a 96 72 bd 64 35 14 3e 28 50 f5 3d
       -0.06735722 -0.059225358 0.14473492 0.11978179
000040 34 0a d4 3d 91 a8 29 3e 2c b9 eb 3d fb 5e e3 bd
       0.103535086 0.16568209 0.11509928 -0.111021005
000050 34 ea bf bd f6 47 9e 3c d9 43 dc bd a7 f4 8c bd
       -0.093708426 0.019321423 -0.107551284 -0.06882601
000060 da d1 5f bd a5 1a e6 3c 2f 14 b4 3d ed d6 b0 3d
       -0.05464349 0.028088877 0.08792912 0.08634744
000070 a1 b7 99 3c 73 06 a4 bd f4 e7 b3 3d ec 4a 8b 3d
       0.018764319 -0.080090426 0.08784476 0.068013996
000080 48 59 72 3d 5a 99 9d bd 31 05 df bd 0b 70 cf bd
       0.059167176 -0.07695265 -0.10889662 -0.101287924
000090 69 7a 18 be 1c aa 06 3d 39 43 5c 3d 7e b1 06 3e
       -0.14890446 0.032877073 0.053775046 0.13153645
0000a0 74 93 0b 3e eb 36 f0 3d 58 f0 d9 bd 0c f1 8a 3d
       0.13630468 0.11729225 -0.10641545 0.06784257
0000b0 e6 b6 1f 3c a3 f7 93 3d f7 a9 c7 bd a6 ac 10 3e
       0.009748196 0.07224967 -0.09749215 0.1412836
0000c0 f3 4d bc 3d a1 17 b7 3c d3 2a 84 3d 00 1d f8 3b
       0.09194555 0.022350134 0.064534806 0.0075718164
0000d0 e2 6d 84 bd c6 e1 b1 bd 3f ae 12 be d0 9d ae bd
       -0.06466271 -0.08685641 -0.14324282 -0.08526194
0000e0 0e 23 d7 bd 58 22 aa 3d 2b 85 92 bd b8 05 05 3e
       -0.10504733 0.08307332 -0.07154306 0.12990463
0000f0 8e f4 05 3e 63 6f 6b 3c 63 db d3 3c 10 99 b2 3d
       0.13081571 0.014369818 0.025861448 0.087206006
000100 01 9f 0b be 77 b3 14 3d 38 d7 17 bd b9 2d 15 3e
       -0.13634874 0.036303964 -0.037070483 0.14568223
000110 30 21 14 3d 48 da ed bd 8b 9a 07 be e8 39 18 3d
       0.036164463 -0.116138995 -0.13242547 0.0371646
000120 44 04 34 3d ed d9 69 bd 16 50 c0 3d 31 f0 98 bd
       0.04394938 -0.057092596 0.09390275 -0.07467688
000130 15 34 aa bd 8c a7 5e 3d 25 d2 03 bd 6d 6f 4a 3d
       -0.08310715 0.054359004 -0.03218283 0.04942267
000140 08 54 a5 3d f6 ea fa 3d 2e 97 01 3c f3 ab ce bd
       0.08072668 0.122518465 0.007909579 -0.100913905
000150 2f 3f 1c 3c dd 1d 85 3c 39 35 f0 3d e6 2b c3 bd
       0.0095365485 0.016249591 0.117289014 -0.09529857
000160 a6 e4 67 bc 49 72 02 be 4c 06 27 3d 30 82 4f 3d
       -0.014153635 -0.12738909 0.04077749 0.050661266
000170 25 87 af bc 6a 7a 4c bd 63 84 df bd ac 30 34 bc
       -0.021426747 -0.04992143 -0.10913923 -0.010997932
000180 69 0a 18 3e b3 2d 5b 3d c1 b2 dd bd 7d f3 a1 3d
       0.14847721 0.05351038 -0.1082511 0.0790777
000190 31 34 24 bb ca fa 1f bd 9a b9 1c 3e 17 8a 74 3d
       -0.0025055523 -0.03905753 0.15305176 0.059702005
0001a0 59 c2 d9 bd 9c a8 e6 bc ed 01 e8 3d 68 2b 09 be
       -0.10632772 -0.028156571 0.11328492 -0.13395464
0001b0 7c b9 12 be 45 f8 4c bd 7b 90 d7 3d 92 fa b2 3d
       -0.14328569 -0.050041456 0.10525604 0.08739199
0001c0 94 5c 08 be fa 53 24 be e7 59 6d bd c1 9e fc 3d
       -0.13316566 -0.1604766 -0.057947066 0.123349674
0001d0 1d 1e 06 be 3b f3 c6 bd 53 ae 6f 3d 0e 49 ed 3d
       -0.13097425 -0.09714361 0.058515858 0.115862

weight f4 [40, 40]
000000 4f 30 de bd 31 14 48 3d 31 c2 df bd 83 b1 78 bd
       -0.10849058 0.04884738 -0.10925711 -0.060716163
000010 90 f3 09 be 8b ee 84 3d ff db f2 bd a3 78 ca 3d
       -0.13471818 0.06490811 -0.11858367 0.09886291
000020 42 d2 d1 3d f8 36 d6 bd 45 c5 8f bd 23 1d 94 3d
       0.102451816 -0.10459703 -0.07020048 0.0723212
000030 13 14 05 be 2d 42 f2 bc b8 2b b3 bd 39 40 94 bd
       -0.12995939 -0.02957257 -0.08748573 -0.07238812
000040 6d f6 72 3d 88 d8 e3 3d 24 56 cf bd 30 9d ad 3d
       0.05931704 0.111252844 -0.10123852 0.08477247
000050 15 53 84 bd 28 f3 28 3d 0d 45 96 3c 1b 26 f3 3d
       -0.06461159 0.041247517 0.018343473 0.118725024
000060 9b f0 c8 3d 88 a2 04 be eb 23 ae 3d 33 22 e0 bd
       0.09811517 -0.12952626 0.085029446 -0.10944023
000070 e4 31 24 bd 71 31 02 3e 6a 29 04 be ed fb e6 3c
       -0.040086642 0.12714173 -0.12906423 0.0281963
000080 94 81 90 3d bc 69 22 3d 6e fe e8 3c 5f 87 01 3e
       0.07055965 0.039651617 0.028441634 0.12649296
000090 6f c8 04 be 3c 95 b2 3d 9c 57 ae bd d1 0e 17 3e
       -0.12967084 0.087198704 -0.08512804 0.14751746
0000a0 46 73 c7 3d de b6 cd 3d e7 af 20 bc 53 39 fa bd
       0.097387835 0.10044645 -0.009807563 -0.12217965
0000b0 7c 59 d8 bd 5b 60 89 bd bd 24 f5 3d 38 00 23 3e
       -0.10563943 -0.067078315 0.11969898 0.15918052
0000c0 38 fd 1e 3e ae 17 2d bd 44 45 11 be fb b9 08 be
       0.15526283 -0.04225891 -0.14186579 -0.13352196
0000d0 df 26 0c 3d 74 22 ce 3d 3b cf 82 bd 49 e6 96 bd
       0.034216758 0.10065165 -0.06387182 -0.07368142
0000e0 c2 36 ca bb ca bf 1c bd 75 70 e1 bd ec 22 77 3d
       -0.0061710784 -0.03826884 -0.110077776 0.06033604
0000f0 6a 75 95 3c 22 4c 21 be d0 5f 90 bd 6f 7a e4 3d
       0.018244464 -0.15751699 -0.07049525 0.11156165
000100 46 47 e2 bd c8 47 b6 3b 92 8f c6 bc e9 53 0a 3d
       -0.110487506 0.005562756 -0.024238382 0.03377143
000110 20 98 d7 bd 16 00 f1 bd a6 1b 0d 3e c0 b0 e5 bd
       -0.105270624 -0.117675945 0.13780078 -0.11215353
000120 b3 48 ec 3d 45 25 b7 3d 16 3b 0d be 6b 9c 2a be
       0.11537304 0.089426555 -0.13792071 -0.16661231
000130 bc f4 f2 bb a3 d9 e8 3d 50 d7 1f 3e a7 82 6e 3b
       -0.0074144285 0.11369636 0.15609479 0.0036393793
000140 91 40 ef bd a3 1c e6 3d 29 d0 d7 3d f0 fa f2 bd
       -0.11682237 0.11235931 0.1053775 -0.11864269
000150 a4 a6 29 3e ae ed d5 3c ed 6d 6e 3d 5b ed c9 bd
       0.16567475 0.026114311 0.058210302 -0.09859725
000160 2c 2d ac 3d 28 9a 5d 3b b3 97 80 3d 50 ef 83 bd
       0.08407053 0.0033813808 0.06278934 -0.064421296
000170 99 08 25 3e a9 50 ae 3d b6 e9 9b 3d 46 03 8e 3c
       0.16116561 0.085114785 0.07612936 0.017335545
000180 a8 04 05 be 16 07 3a bc d1 68 cf bd 9e 05 34 bd
       -0.12990057 -0.0113542285 -0.10127414 -0.04395067
000190 81 a8 d0 bd 92 29 07 be 0c 91 e1 bc e0 2f 2b 3e
       -0.101883896 -0.13199452 -0.027534984 0.16717482
0001a0 19 03 28 bd 5b 90 89 bd 1a 35 1b 3e c6 95 f3 bd
       -0.04101858 -0.06716987 0.15156975 -0.118938014
0001b0 7a 38 18 be a2 75 df 3c a6 0b 4e bd fd 15 b4 3d
       -0.14865294 0.027277771 -0.050304078 0.087932564
0001c0 5b 49 14 bc 02 6d c9 3c ea 52 b4 3d 52 4d 7a 3d
       -0.009050692 0.024588112 0.08804877 0.061108895
0001d0 df 56 8f 3d 43 96 07 bd 75 b3 fa 3d 67 e0 a5 3d
       0.06998991 -0.033102285 0.1224126 0.08099442
0001e0 79 95 cd 3d ab aa 74 bd dc 42 bd 3b 89 3f 02 3d
       0.10038275 -0.059733074 0.0057757925 0.031798873
0001f0 f0 31 ba bd 82 21 cf 3d 01 af 0c 3d 5d c9 8c bd
       -0.09091556 0.10113813 0.034346584 -0.068743445
000200 bc 75 d8 bb ac 0d c0 bc 01 c6 33 3c 8d b7 3f 3d
       -0.006605832 -0.02344402 0.010972501 0.046805907
000210 f9 6c d9 3d ee 30 01 3e 6f ec d3 3d 7b 2c 56 3a
       0.10616488 0.12616321 0.103478305 0.000817008
000220 e3 36 01 3e 06 05 7a 3d 85 1c d6 bc d7 b6 7f bd
       0.12618594 0.061039947 -0.026136646 -0.06243023
000230 35 dd 87 3c b2 f8 02 bd 18 62 a9 bb 2b 1c 02 be
       0.016584972 -0.031975456 -0.0051691644 -0.12706058
000240 21 76 04 be fa 5e 4c bd 19 3f cf 3d 2e 64 21 3e
       -0.12935688 -0.049895264 0.10119457 0.15760872
000250 4d 5e ab 3d e6 98 55 3d 76 ae 39 3e da 5d 16 be
       0.08367596 0.05214777 0.18132958 -0.14684239
000260 5b 7d 37 bc ad b3 93 3d f0 b4 83 bd f1 d1 1d be
       -0.011199321 0.07212005 -0.064309955 -0.15412118
000270 25 d2 eb bd 68 f6 75 bd ca 7d 02 3e e0 b0 84 3d
       -0.11514691 -0.060049444 0.12743297 0.06479049
000280 2c 8e 21 3e 7e 36 d1 3d e5 3a 82 3b fe 7f b2 3d
       0.1577689 0.10215472 0.003974306 0.08715819
000290 8b 67 16 be ee 41 30 3e 77 57 ce bc a4 f4 90 bd
       -0.14687936 0.1721265 -0.02518819 -0.070779115
0002a0 4d 42 7f 3d f9 86 1c bd 81 f8 08 3e 57 cc f9 3c
       0.06231909 -0.038214657 0.13376047 0.030492945
0002b0 4b c3 f2 bd b1 5c 1c 3e f6 af 10 3e 14 1c 83 3d
       -0.118536554 0.15269734 0.14129624 0.0640184
0002c0 9d 00 8b bb c3 fa 66 3d 4b f8 87 3c a3 85 13 be
       -0.0042420165 0.05639149 0.016597888 -0.14406447
0002d0 9e 85 cc bd 04 3a d6 3d fb b6 83 bc 34 34 4f 3d
       -0.09986423 0.10460284 -0.016078463 0.050586894
0002e0 85 2e 0f 3e 2e cf 02 bd e9 62 09 bd 6f 7c db 3d
       0.1398259 -0.031935863 -0.033541594 0.10717093
0002f0 06 41 8a bd 4f 05 9b 3d 46 90 02 3e 97 f7 c8 3c
       -0.067506835 0.07569372 0.12750348 0.024532123
000300 b6 b6 b7 3d 6c 87 79 bd 40 42 91 bd a7 fc 96 3d
       0.08970396 -0.060920164 -0.07092714 0.07372408
000310 9d ce 1e 3d 76 1f 19 be 17 57 12 be 34 e5 97 bd
       0.03877126 -0.14953408 -0.14291035 -0.07416764
000320 01 79 c6 3d 24 ac 98 bd 16 94 2b be 0e 2e e7 3d
       0.096910484 -0.07454708 -0.16755709 0.11288081
000330 c4 e6 01 3e 2a 9b b1 3c 9e 86 c5 3c 84 84 ff 3d
       0.12685686 0.021680433 0.024112042 0.12476447
000340 ed 03 f9 bd a0 78 cf bd fe 08 1b be ac 15 b4 3d
       -0.12158952 -0.10130429 -0.15140149 0.08793196
000350 a0 eb 4f bd 9f da 07 bd 95 80 40 3b 08 e8 01 be
       -0.05076182 -0.033167478 0.0029373516 -0.12686169
000360 5d 11 0b be 37 ec 08 bd 01 57 ed 3d 21 1a a1 bd
       -0.13580842 -0.033428397 0.1158886 -0.07866312
000370 d1 75 c3 bd 30 ca 1c bd 82 b9 c6 3d b1 3e 8c bd
       -0.09543956 -0.03827876 0.097033516 -0.06847895
000380 a0 18 80 bd eb 7e 3e bd 7a 0b d6 3d cd 09 2d be
       -0.06254697 -0.046507757 0.10451408 -0.1689827
000390 aa e5 1f 3d 97 20 5f bd 10 3e a1 bd e4 27 9d bd
       0.039037384 -0.05447444 -0.078731656 -0.07673624
0003a0 ae 42 c4 3d be c8 08 3e fb 92 92 3d 49 81 0f be
       0.09583031 0.13357827 0.071569405 -0.14014162
0003b0 5d c3 87 bd 9c ff 31 bd f9 b0 b5 3d b0 69 e8 3d
       -0.066290595 -0.04345666 0.088716455 0.11348283
0003c0 a8 f1 f6 ba 5d 3f eb 3d cb fe 15 3e e8 cd b4 bd
       -0.001884033 0.11486695 0.14647977 -0.08828336
0003d0 56 7f 92 3c b8 13 fe 3d 78 42 0a 3e b7 5c 5c bd
       0.017882984 0.12406105 0.13501918 -0.053799357
0003e0 19 57 25 bd 69 28 f4 3d 66 43 36 bd c1 1d 16 bd
       -0.040366266 0.1192177 -0.04449787 -0.03664947
0003f0 92 c0 7e bc 7e bb 18 bd ca cc bd bd 4c 21 e0 ba
       -0.015548842 -0.03728818 -0.09267576 -0.0017099767

bias f4 [40]
000000 9d 5e ca bd 47 cd dd bc 96 b5 82 3d 18 c1 87 bd
       -0.09881327 -0.027075423 0.06382291 -0.066286266
000010 aa 60 2a 3d 8e c1 18 be 8d 2e 18 3e b0 3a a3 bd
       0.041596092 -0.14917585 0.14861508 -0.07970178
000020 bd fc 03 be 71 86 91 3d 76 24 d8 3d 72 01 ed 3d
       -0.12889381 0.07105721 0.10553829 0.11572541
000030 32 77 90 bd 9e 0d 3b 3b 73 be 92 bd d2 96 0b bd
       -0.07053985 0.0028542052 -0.071652316 -0.03407938
000040 a0 ba a2 3d b5 c6 00 3d 6f d1 29 3d 31 91 a9 3d
       0.07945752 0.0314395 0.041459497 0.08279646
000050 33 3b 18 bd 12 3a a6 bd 81 b5 68 bd 11 be 15 bd
       -0.03716583 -0.08116545 -0.05681372 -0.036558215
000060 bc a6 97 3c 6f 56 fe 3c 91 37 0e 3c d1 89 dc 3d
       0.018512122 0.031047074 0.00868024 0.10768474
000070 7d c9 e5 bd 0d 0b a6 3c 0e 6b 4a 3d 1d 1e 35 bc
       -0.112200715 0.020268941 0.0494185 -0.011054543
000080 68 17 ab bb 1f 78 d1 bd 22 6f a0 3d 24 3d ab bc
       -0.005221296 -0.102279894 0.07833697 -0.020903178
000090 46 fe f2 bd be 69 f5 3d 4f d7 08 3e c4 b9 87 3c
       -0.11864905 0.11983059 0.13363384 0.016568072
