Results/0056_generator1.pth (torch, 159475 bytes, 32 tensors)

weight_ih_l0 f4 [120, 20]
-0.25345725 -0.07671515 -0.22688442 0.010359116 -0.16984817 -0.09547161 -0.005876192 -0.19845338
-0.019932374 -0.16798332 0.018764114 -0.22028871 0.29489768 0.1827559 -0.0059640873 0.074538864
0.07019584 -0.2151601 -0.042358555 -0.034223355 -0.13499732 -0.1318577 -0.11254881 0.028143387
-0.040530562 0.044676624 -0.050788388 -0.10377046 -0.104293674 -0.13848932 0.31569394 0.039645914
-0.24662423 -0.20036627 0.011337924 0.27706507 0.26087466 -0.014596991 0.097381406 -0.00037688483
0.14849904 0.29813537 0.22318357 0.15423553 0.30868077 0.32358336 0.11561078 0.11737208
0.19740985 0.18585189 0.03132347 0.008834023 0.2790438 -0.0051183472 0.13134508 0.23187199
-0.19190761 -0.25509647 -0.02645653 -0.081239626 0.10162613 -0.053957473 0.09770371 -0.025247471
-0.053326387 0.15516429 0.015188102 0.21324205 -0.061222073 0.18693137 0.21445346 -0.12928803
-0.11864315 -0.01818926 -0.3418657 0.049246237 0.26609957 0.0951306 0.055044096 -0.06397186
-0.0023896194 0.06316928 -0.16908735 -0.020485833 0.07253585 0.13699375 0.07325671 0.06232018
-0.057045538 -0.035021547 -0.17314267 0.03208272 0.003461156 0.01912665 0.16870373 -0.24679779
-0.10842677 0.07175213 0.1105714 -0.1632198 0.18793331 0.079969995 0.054579087 -0.077238865
-0.027505055 -0.02553261 0.06274607 -0.031735968 0.026213659 -0.01277308 0.25573635 -0.012047644
-0.043762606 -0.11084863 -0.11762005 0.17658563 0.25441983 0.20358711 0.014074231 0.18625523
0.13318674 0.09002649 0.071437754 0.11691635 -0.089375935 -0.032880064 0.102572024 0.021480529
0.13329415 0.01400257 0.0189531 -0.017962432 -0.184953 -0.08971465 0.014873504 0.0043828967
0.13965966 -0.013387752 0.026289806 0.2736519 -0.037620507 0.012285264 0.23390636 0.07817133
-0.025808914 -0.026978867 0.081999175 0.01826648 -0.033258975 0.23630258 0.2346071 0.16915283
0.024509076 -0.27058762 -0.19470486 0.16912858 -0.006035556 0.10148024 0.022507284 0.18435156
0.17079192 0.14521596 0.062666915 -0.051989567 0.18133642 0.015617289 0.20253658 0.047268286
0.12424327 0.10664395 0.3114528 0.057262957 -0.34665895 -0.14341347 -0.3500479 0.27038154
0.2257296 0.1927772 -0.06255331 0.11355356 0.118729904 0.12812825 0.08544766 -0.055870876
0.10301977 -0.08198695 0.10007798 -0.009144518 -0.043431602 -0.022099426 0.03319377 -0.095802695
-0.28126135 -0.027039543 -0.09224129 -0.18044356 0.059401207 0.089819014 0.019306902 0.27757248
-0.18789314 -0.025096858 -0.23086113 -0.1639962 -0.002709358 -0.2670087 -0.18373732 -0.2460919
-0.07602543 -0.2774995 0.26892596 -0.055826847 0.0016296095 -0.21101728 -0.21151888 0.054286584
0.36716503 0.293855 -0.12889299 0.041301817 -0.06264094 -0.18030746 0.13164061 0.06638712
-0.050433602 -0.047836643 0.10150872 0.013938095 -0.1476575 -0.1310728 0.1729229 0.110963695
0.034335185 -0.19576585 -0.1795139 0.2547978 0.14371452 0.1286325 -0.07420809 0.0059788707
0.0022898396 -0.09203857 -0.11070521 -0.05069626 -0.061963186 0.06586338 0.07794173 -0.14306852
0.072568364 -0.016524334 -0.00226689 0.14740646 0.050730564 0.04546985 -0.15582967 0.1604828
00000000: 26c5 81be d51c 9dbd 6454 68be 48b9 293c
00000010: aeec 2dbe 9f86 c3bd 128d c0bb 5d37 4bbe
00000020: 3849 a3bc d203 2cbe 33b7 993c 5d93 61be
00000030: d4fc 963e 5d24 3b3e 646e c3bb d5a7 983d
00000040: d6c2 8f3d ee52 5cbe 2a80 2dbd ca2d 0cbd
00000050: bd3c 0abe b405 07be fe7f e6bd f68c e63c
00000060: 6003 26bd d6fe 363d 7c07 50bd 9b85 d4bd
00000070: ec97 d5bd 25d0 0dbe a3a2 a13e c163 223d
00000080: 108b 7cbe d12c 4dbe b3c2 393c 79db 8d3e
00000090: 5d91 853e 3828 6fbc e76f c73d a098 c5b9
000000a0: 2210 183e 33a5 983e 3c8a 643e ebef 1d3e
000000b0: 680b 9e3e b8ac a53e 58c5 ec3d c660 f03d
000000c0: cf25 4a3e f54f 3e3e 0a4d 003d 94bc 103c
000000d0: d4de 8e3e cfb7 a7bb 537f 063e da6f 6d3e
000000e0: 6e83 44be 019c 82be 5dbb d8bc f660 a6bd
000000f0: 5c21 d03d 8302 5dbd e218 c83d c9d3 cebc
00000100: c56c 5abd 63e3 1e3e 84d7 783c 205c 5a3e
00000110: ffc3 7abd f06a 3f3e b099 5b3e 1564 04be
00000120: 2efb f2bd a501 95bc 0509 afbe 6cb6 493d
00000130: 343e 883e d5d3 c23d eb75 613d ae03 83bd
00000140: 299b 1cbb e55e 813d 3c25 2dbe e8d1 a7bc
00000150: ad8d 943d 1748 0c3e 9d07 963d 7243 7f3d
00000160: 95a8 69bd c172 0fbd 504c 31be 2c69 033d
00000170: 90d4 623b 7eaf 9c3c acc0 2c3e 8fb8 7cbe
00000180: db0e debd c8f2 923d 4273 e23d 1723 27be
00000190: 9771 403e 4fc7 a33d 528e 5f3d 692f 9ebd
000001a0: 4852 e1bc c429 d1bc 0381 803d 93fd 01bd
000001b0: 07be d63c 2e46 51bc e0ef 823e 7b63 45bc
000001c0: 6b40 33bd 9b04 e3bd c8e2 f0bd ddd2 343e
000001d0: 5143 823e 2479 503e 9a97 663c b1b9 3e3e
000001e0: 1b62 083e cf5f b83d f54d 923d d771 ef3d
000001f0: bb0a b7bd 3fad 06bd 4811 d23d eff7 af3c
00000200: 437e 083e 096b 653c 8843 9b3c f325 93bc
00000210: 5264 3dbe 50bc b7bd ffaf 733c 679e 8f3b
00000220: f102 0f3e 4d58 5bbc b85d d73c 1a1c 8c3e
00000230: f617 1abd 2248 493c 2685 6f3e 4a18 a03d
00000240: 376d d3bc c902 ddbc 2fef a73d 96a3 953c
00000250: 903a 08bd 4ef9 713e d83c 703e 6636 2d3e
00000260: 42c7 c83c 768a 8abe b660 47be 0b30 2d3e
00000270: eac5 c5bb dfd4 cf3d 3261 b83c a8c6 3c3e
00000280: 14e4 2e3e 7eb3 143e 8357 803d 03f3 54bd
00000290: 41b0 393e a8df 7f3c c065 4f3e 649c 413d
000002a0: 4173 fe3d 2568 da3d be76 9f3e 908c 6a3d
000002b0: 487d b1be fbda 12be 7a39 b3be 736f 8a3e
000002c0: a925 673e 6367 453e f31b 80bd c58e e83d
000002d0: aa28 f33d 0d34 033e 2fff ae3d dcd8 64bd
000002e0: 07fc d23d c6e8 a7bd aff5 cc3d e3d2 15bc
000002f0: 56e5 31bd db09 b5bc 31f6 073d 3434 c4bd
00000300: 7d01 90be 0882 ddbc 00e9 bcbd 32c6 38be
00000310: ae4e 733d 08f3 b73d 8229 9e3c fb1d 8e3e
00000320: 0f67 40be ed97 cdbc dc66 6cbe 9fee 27be
00000330: 7c8f 31bb 5db5 88be a325 3cbe 84ff 7bbe
00000340: 38b3 9bbd 6a14 8ebe aab0 893e b1aa 64bd
00000350: 9f98 d53a ea14 58be 6898 58be 9c5b 5e3d
00000360: 0efd bb3e 2a74 963e 86fc 03be 182c 293d
00000370: e549 80bd 85a2 38be cccc 063e f8f5 873d
00000380: 7793 4ebd 5bf0 43bd cee3 cf3d 9c5c 643c
00000390: 8733 17be f337 06be b312 313e ef40 e33d
000003a0: 0da3 0c3d d876 48be 7ed2 37be db74 823e
000003b0: e629 133e 3db8 033e 69fa 97bd 67ea c33b
000003c0: 2211 163b b87e bcbd 6ab9 e2bd e2a6 4fbd
000003d0: 1ccd 7dbd 61e3 863d ea9f 9f3d 8e80 12be
000003e0: b99e 943d 0a5e 87bc 1a90 14bb b8f1 163e
000003f0: daca 4f3d 983e 3a3d d091 1fbe 9a55 243e

weight_hh_l0 f4 [120, 40]
-0.052052435 0.047580883 0.09123772 0.1768583 -0.12953036 -0.25412032 0.17006142 -0.25902924
0.062110987 0.13308358 -0.18400331 0.09381242 -0.05683619 0.052100766 -0.28961137 -0.11837422
0.15531476 -0.0025765477 -0.08218959 0.13409035 0.15345871 0.07972602 0.20066857 0.028879654
0.3539469 0.037919734 0.0067082867 0.29682535 0.043525655 0.06760591 0.1198633 0.1366482
-0.051429234 -0.15614909 0.18486308 -0.07881631 0.032120015 0.0032576155 -0.14162643 0.088462636
0.07951096 -0.08242063 0.13347863 0.06302535 0.18940161 0.021087123 -0.09643676 -0.040215272
-0.013096951 -0.11769601 -0.05244596 0.12503575 -0.14349653 -0.1285726 0.18901859 0.049482
-0.28305522 0.0036177705 -0.0024417806 0.014687205 0.07203559 -0.104650445 0.05623506 0.20125091
-0.16425991 -0.08950928 -0.104300864 -0.004547529 -0.008223124 0.11256157 0.05682452 -0.23723891
0.08128428 -0.15774235 0.094886035 -0.21459775 0.2372704 0.0845819 0.22158818 -0.30536065
-0.23075847 -0.251548 -0.10990507 0.11865106 -0.13855074 0.114752576 -0.10136817 0.043645673
-0.07209298 -0.1585173 0.04579546 0.09754643 0.032208752 -0.14197421 -0.01219586 0.043755222
-0.055074953 0.06491794 -0.030337846 0.06354357 0.1595445 -0.005759343 -0.06441522 0.10243009
0.040003855 -0.06504089 0.26693058 -0.0017168561 -0.11638662 -0.20653819 -0.010759333 0.04857952
-0.2420566 -0.043635804 -0.017198548 -0.028774764 0.013621983 -0.104278564 0.051790293 -0.08294169
0.09333142 -0.1576395 -0.044680692 0.18616718 -0.21031003 -0.025398003 -0.19495566 -0.16986747
0.20254233 -0.058335505 0.0046720468 0.12980272 0.26056573 -0.07821241 -0.13118383 0.039331693
-0.10572755 -0.034574166 0.17121413 0.043530528 0.0038696243 -0.21049124 0.1460801 0.2201632
0.064072095 -0.21204822 0.21676011 0.053283684 0.06588484 0.036104985 -0.28083926 -0.13362521
0.033124745 -0.081458494 -0.22665797 0.048567146 0.11921535 0.12997149 -0.006422828 0.046689942
-0.23003347 0.019648118 -0.09925773 0.235237 -0.20551774 -0.28642824 0.15482613 -0.13247068
-0.049585238 0.048345204 -0.13207026 0.14402226 0.012177648 -0.1635902 0.056651656 -0.24562939
0.17449677 0.06686434 -0.0539922 0.042184886 -0.037797287 -0.1151051 0.19961262 -0.0054984596
0.05691032 0.04041436 0.018131029 0.019228406 -0.011214045 0.20902096 0.06868774 -0.07209954
0.090197556 -0.0041526374 0.12590404 -0.1083719 -0.07021048 0.124240525 0.27418244 0.12999737
0.023254061 0.013225151 -0.0069309426 0.17192881 0.047274154 -0.16601859 -0.17188768 -0.14439669
0.22990859 -0.23776723 -0.024475276 0.04843747 -0.05943045 0.08004616 0.12296095 0.17803776
-0.13451518 0.05648756 0.28270233 0.19582291 0.15529244 -0.08354543 0.13204534 0.24112393
-0.0123834275 -0.028065735 0.12647769 -0.08518416 -0.053970423 -0.05678967 -0.26472864 -0.06425829
0.14250852 -0.07235179 -0.11088617 0.00026202615 -0.0003077942 0.06531387 0.17721856 -0.060519245
0.07570506 0.26647565 -0.12390722 -0.09705909 0.18682583 0.17254275 0.18268389 0.0643326
-0.23734777 0.012193384 0.12843712 -0.3480091 -0.23815367 0.10707474 0.15055867 0.15964654
00000000: ef34 55bd 2ce4 423d d7da ba3d 581a 353e
00000010: 9ba3 04be 0f1c 82be 9524 2e3e 7b9f 84be
00000020: 1768 7e3d 1047 083e 5d6b 3cbe ba20 c03d
00000030: 11cd 68bd 9d67 553d f147 94be 2f6e f2bd
00000040: d50a 1f3e 4cdb 28bb 0453 a8bd fb4e 093e
00000050: 4824 1d3e 6547 a33d 107c 4d3e 0695 ec3c
00000060: 8738 b53e b951 1b3d 30d1 db3b 7ef9 973e
00000070: f547 323d f874 8a3d e47a f53d 81ed 0b3e
00000080: 76a7 52bd 8ce5 1fbe bf4c 3d3e 726a a1bd
00000090: 4790 033d b87d 553b 8506 11be e62b b53d
000000a0: a4d6 a23d 26cc a8bd 9fae 083e 6f13 813d
000000b0: 7ff2 413e e7be ac3c a380 c5bd c5b8 24bd
000000c0: 9894 56bc 9b0a f1bd 93d1 56bd 5f09 003e
000000d0: c1f0 12be 89a8 03be 178e 413e a3ad 4a3d
000000e0: 9dec 90be 1e18 6d3b 4806 20bb 9aa2 703c
000000f0: 6587 933d f952 d6bd bc56 663d b814 4e3e
00000100: c033 28be a450 b7bd b19b d5bd 7003 95bb
00000110: 48ba 06bc ae86 e63d d4c0 683d c2ee 72be
00000120: 5f78 a63d 3687 21be 9c53 c23d 83bf 5bbe
00000130: 03f7 723e 4639 ad3d 03e8 623e 3b58 9cbe
00000140: f34b 6cbe e6ca 80be e915 e1bd 54ff f23d
00000150: 3fe0 0dbe 6603 eb3d 1d9a cfbd cec5 323d
00000160: 7ca5 93bd 5c52 22be 0594 3b3d 6cc6 c73d
00000170: 53ed 033d b061 11be 25d1 47bc ad38 333d
00000180: 4696 61bd b2f3 843d 1387 f8bc 2223 823d
00000190: a25f 233e dfb8 bcbb 20ec 83bd dec6 d13d
000001a0: 15db 233d 2834 85bd 20ab 883e 2208 e1ba
000001b0: 1c5c eebd bf7e 53be ea47 30bc 52fb 463d
000001c0: afdd 77be 75bb 32bd f8e3 8cbc 0eb9 ebbc
000001d0: bd2e 5f3c 0090 d5bd 0f22 543d 55dd a9bd
000001e0: 8b24 bf3d 406c 21be 1a03 37bd 9ca2 3e3e
000001f0: 835b 57be 790f d0bc 75a2 47be bdf1 2dbe
00000200: 4267 4f3e 36f1 6ebd f817 993b 01eb 043e
00000210: df68 853e d42d a0bd 0e55 06be 451a 213d
00000220: b087 d8bd a49d 0dbd c252 2f3e 114d 323d
00000230: 8699 7d3b 048b 57be 0696 153e 7672 613e
00000240: 3b38 833d 2b23 59be 5df6 5d3e fe3f 5a3d
00000250: a2ee 863d d2e2 133d 2aca 8fbe 0cd5 08be
00000260: d0ad 073d b6d3 a6bd 0719 68be 58ee 463d
00000270: 2d27 f43d 3f17 053e 9676 d2bb f43d 3f3d
00000280: e58d 6bbe 17f5 a03c a347 cbbd f8e1 703e
00000290: 3e73 52be b9a6 92be be8a 1e3e 65a6 07be
000002a0: e419 4bbd 9f05 463d 6d3d 07be 927a 133e
000002b0: c284 473c 3084 27be 910b 683d 4586 7bbe
000002c0: 48af 323e 2cf0 883d ed26 5dbd 0fca 2c3d
000002d0: 54d1 1abd 39bc ebbd 4067 4c3e 6c2c b4bb
000002e0: cc1a 693d 8789 253d 8687 943c e484 9d3c
000002f0: 1dbb 37bc 9709 563e 28ac 8c3d eca8 93bd
00000300: 7fb9 b83d d912 88bb fdec 003e 16f2 ddbd
00000310: 83ca 8fbd d171 fe3d a461 8c3e 081e 053e
00000320: 4d7f be3c 4eae 583c f61c e3bb 1b0e 303e
00000330: 8ba2 413d c700 2abe 5303 30be badc 13be
00000340: 286d 6b3e 4179 73be 6080 c8bc 5e66 463d
00000350: 586d 73bd 3eef a33d f3d2 fb3d 884f 363e
00000360: 59be 09be 805f 673d 5cbe 903e cd85 483e
00000370: fb04 1f3e de19 abbd e536 073e 31e9 763e
00000380: dce3 4abc 1dea e5bc 5e83 013e 0875 aebd
00000390: 1710 5dbd 499c 68bd 838a 87be da99 83bd
000003a0: c1ed 113e 2d2d 94bd 4a18 e3bd 8e60 8939
000003b0: 705f a1b9 47c3 853d c878 353e 07e3 77bd
000003c0: 410b 9b3d 7f6f 883e 12c3 fdbd ebc6 c6bd
000003d0: 454f 3f3e 0caf 303e 7c11 3b3e cfc0 833d
000003e0: 4b0b 73be c2c6 473c 0585 033e 402e b2be
000003f0: 8ede 73be 004a db3d 0d2c 1a3e 627a 233e

bias_ih_l0 f4 [120]
0.1598289 -0.09674588 -0.09912697 0.07664796 0.15108924 -0.04452925 0.19808929 -0.12851505
0.0565897 0.069485225 -0.18504013 0.054156758 -0.18730685 -0.24479575 0.034143794 -0.084126376
0.100625254 -0.19181164 -0.12854998 -0.18173271 -0.16576564 -0.050923686 -0.16904207 0.13171248
0.07604912 -0.0019071469 -0.17637427 0.018252008 -0.022589289 0.15725848 -0.19959627 0.069826916
0.17911269 -0.0043241195 -0.18047237 0.06589854 -0.07522848 -0.14952251 -0.057997353 0.0041641626
-0.09264223 -0.2841102 -0.13067569 -0.37651762 -0.11323904 -0.14177418 -0.1626559 -0.14807722
-0.3512288 -0.002103748 -0.2676348 -0.0978926 -0.16955833 -0.26017693 -0.37035006 -0.3323682
-0.31848568 -0.22624277 -0.3672269 -0.30364177 -0.16053309 -0.23567222 0.024926584 -0.21671022
-0.31619158 -0.2855736 -0.040273204 -0.2919399 -0.32570896 -0.23124538 -0.1445052 -0.08473972
0.121913575 -0.18781225 0.08900543 -0.36954612 -0.2734979 -0.16044301 -0.19448969 -0.29753166
-0.098103896 0.06648103 -0.06696507 0.06482348 -0.06687784 -0.08986895 0.06355539 -0.027438533
-0.053812493 0.11786448 0.10781635 0.032032 0.01946733 0.18742223 -0.027099589 -0.15567079
0.105950914 -0.20588803 0.030762237 -0.17861724 -0.17228019 0.20215426 0.08965968 -0.12643252
-0.1169345 0.19707285 -0.03631387 -0.1293388 0.17184544 -0.10065655 0.03650285 0.16390824
-0.105613664 0.121650375 0.110973254 0.107672 -0.17386372 -0.13419753 -0.19216795 0.0973029
00000000: 30aa 233e b422 c6bd 1503 cbbd 9bf9 9c3d
00000010: 23b7 1a3e 4e64 36bd ebd7 4a3e 7399 03be
00000020: 9aca 673d 454e 8e3d 297b 3dbe 7ad3 5d3d
00000030: 5ecd 3fbe bdab 7abe 5dda 0b3d 734a acbd
00000040: 9d14 ce3d 456a 44be 9ba2 03be 2418 3abe
00000050: 78be 29be 5b95 50bd 5d19 2dbe a3df 063e
00000060: a4bf 9b3d 3bf9 f9ba 759b 34be 3c85 953c
00000070: 2c0d b9bc 5e08 213e f762 4cbe 6a01 8f3d
00000080: 5169 373e 58b1 8dbb c0cd 38be d0f5 863d
00000090: 6411 9abd 6e1c 19be a28e 6dbd 8773 883b
000000a0: 36bb bdbd e476 91be d9cf 05be ebc6 c0be
000000b0: dfe9 e7bd 402d 11be 458f 26be 8ea1 17be
000000c0: 43d4 b3be 09df 09bb 6e07 89be ea7b c8bd
000000d0: b3a0 2dbe e935 85be 869e bdbe 2a2c aabe
000000e0: 8e10 a3be 2fac 67be 2a05 bcbe ef76 9bbe
000000f0: c962 24be 0f54 71be d632 cc3c 49e9 5dbe
00000100: dde3 a1be b436 92be 84f5 24bd 2679 95be
00000110: 53c3 a6be 97cb 6cbe 2cf9 13be 058c adbd
00000120: d3ad f93d db51 40be 7b48 b63d 2635 bdbe
00000130: eb07 8cbe 2c4b 24be 4e28 47be 1256 98be
00000140: b2ea c8bd 3527 883d fc24 89bd 2cc2 843d
00000150: 40f7 88bd 360d b8bd 5429 823d c6c6 e0bc
00000160: 7d6a 5cbd ef62 f13d d2ce dc3d fd33 033d
00000170: f379 9f3c 9deb 3f3e f5ff ddbc 2a68 1fbe
00000180: cbfc d83d 50d4 52be 1601 fc3c 70e7 36be
00000190: 386a 30be 8701 4f3e 7f9f b73d 8777 01be
000001a0: 5b7b efbd 77cd 493e dabd 14bd 6471 04be
000001b0: 40f8 2f3e 0525 cebd 0384 153d 90d7 273e
000001c0: fa4b d8bd d523 f93d f245 e33d 2383 dc3d
000001d0: 5509 32be 146b 09be adc7 44be be46 c73d

bias_hh_l0 f4 [120]
0.20853676 -0.06546408 0.120653816 -0.120766625 0.14380647 -0.16861932 0.20874985 0.14074355
-0.0031541632 0.069535404 -0.0005585422 -0.25002986 -0.02175817 -0.24830239 0.007015955 -0.03465838
0.07016956 -0.1695777 -0.06590659 -0.16551793 -0.017119033 -0.15858568 -0.1836761 0.03313547
0.035936095 -0.123639576 0.017276682 0.034005705 -0.019148046 0.1352449 -0.12202618 -0.03771303
0.0051178904 -0.06838055 -0.14333034 0.064511366 0.12821084 0.028744966 0.10010733 -0.12088054
-0.21461137 -0.1957467 -0.0056734052 -0.2164323 -0.1537987 -0.12990502 -0.20092428 -0.32574743
-0.20047472 -0.05854757 -0.11394146 -0.14886554 -0.05986356 -0.17510356 -0.29468673 -0.28208286
-0.251462 -0.09845712 -0.3009075 -0.30994618 -0.27277878 -0.15108085 0.054795127 -0.080411926
-0.24754755 -0.10444029 -0.09592241 -0.15372485 -0.21164201 -0.2703397 -0.29202366 -0.26970154
0.22477865 -0.24093977 -0.10492985 -0.3418264 -0.13470495 -0.24989085 -0.2741058 -0.2520825
-0.18805943 0.076075 -0.05820614 -0.14976859 -0.119697616 -0.020577658 0.1816625 0.16045992
-0.10277618 -0.025107352 0.17312486 -0.12750137 -0.078805834 0.030198257 -0.040811747 -0.008246835
0.09176614 0.04027281 -0.1470047 -0.055565063 -0.11032583 0.005543622 0.022618175 -0.14570215
-0.025210034 0.17251751 -0.09015559 0.069596194 0.15212478 -0.14515494 0.04026747 -0.074583545
-0.17985375 0.02062469 -0.057791635 0.11753548 -0.07900382 -0.048404586 -0.06981382 0.010773372
00000000: a98a 553e 0812 86bd 5919 f73d 7e54 f7bd
00000010: 0142 133e 8baa 2cbe 85c2 553e 141f 103e
00000020: 14b6 4ebb 9468 8e3d 226b 12ba ea03 80be
00000030: 313e b2bc fb42 7ebe 19e6 e53b f2f5 0dbd
00000040: 0fb5 8f3d c7a5 2dbe 09fa 86bd 887d 29be
00000050: 373d 8cbc 4964 22be 9615 3cbe 0fb9 073d
00000060: ba31 133d bf36 fdbd d487 8d3c 9149 0b3d
00000070: 5ddc 9cbc a47d 0a3e dde8 f9bd fa78 1abd
00000080: fab3 a73b 1a0b 8cbd 30c5 12be 891e 843d
00000090: b449 033e 907a eb3c 1205 cd3d 3790 f7bd
000000a0: 15c3 5bbe d371 48be f9e7 b9bb 6ea0 5dbe
000000b0: 687d 1dbe d205 05be 18bf 4dbe 5ec8 a6be
000000c0: 3f49 4dbe 94cf 6fbd 245a e9bd 3570 18be
000000d0: 7e33 75bd 594e 33be 2ee1 96be 2a6d 90be
000000e0: a1bf 80be e3a3 c9bd 8c10 9abe 44b1 9ebe
000000f0: a9a9 8bbe f0b4 1abe db70 603d 02af a4bd
00000100: 1b7d 7dbe cae4 d5bd f872 c4bd 0c6a 1dbe
00000110: afb8 58be f769 8abe 2084 95be 5216 8abe
00000120: 602c 663e eab8 76be 76e5 d6bd df03 afbe
00000130: 18f0 09be 63e3 7fbe 9857 8cbe f510 81be
00000140: a792 40be 36cd 9b3d 9069 6ebd f05c 19be
00000150: 0624 f5bd 7a92 a8bc bc05 3a3e 9b4f 243e
00000160: 517c d2bd efad cdbc a547 313e b88f 02be
00000170: f464 a1bd 5662 f73c 382a 27bd bc1d 07bc
00000180: e3ef bb3d 1af5 243d 6688 16be 3198 63bd
00000190: 82f2 e1bd 46a7 b53b c049 b93c f232 15be
000001a0: 4685 cebc 6ea8 303e 7ea3 b8bd 7388 8e3d
000001b0: 99c6 1b3e 7fa3 14be 81ef 243d 42bf 98bd
000001c0: 952b 38be 1cf5 a83c ecb6 6cbd 71b6 f03d
000001d0: c1cc a1bd e343 46bd 8cfa 8ebd cc82 303c

weight f4 [40, 40]
0.16639967 0.17952265 -0.05208136 -0.020074857 0.21806772 0.100943275 0.021372186 0.2339609
0.07103638 0.16288786 -0.052828625 -0.2179988 -0.07880357 0.012789691 0.21290706 0.15200596
-0.06963946 0.0031394383 0.095503725 0.18017633 0.005812032 -0.101774104 0.030890187 0.114375554
-0.21209812 -0.12339902 -0.042586144 -0.18833964 -0.16075721 0.12157023 0.02759491 -0.106910795
0.011910165 0.052629966 -0.0033219182 0.03924661 -0.09516131 -0.035931557 -0.020105962 -0.22523975
-0.020068778 0.33231264 -0.1819926 -0.3067992 0.14854641 0.28368545 -0.0621599 0.27860275
-0.17521958 0.066465326 0.25509122 -0.09621595 -0.11338993 0.1918604 0.013263415 0.034596782
-0.039996874 -0.13447958 0.2797381 -0.1406327 -0.28562987 -0.011558603 -0.0033636834 -0.12961528
-0.3309031 0.24575119 -0.0039399173 -0.37966046 0.10091956 -0.22059856 0.2648853 0.021225004
-0.14324708 0.21060947 -0.086042225 0.2654712 -0.20225263 -0.22338498 -0.27002963 0.01757625
-0.12198973 -0.20202997 -0.09863115 0.17739639 -0.11680054 -0.26739872 -0.024007322 -0.15942785
0.24251424 -0.0814354 -0.16981986 0.2076186 0.16007292 -0.031401787 -0.24772367 -0.10743367
0.2788997 0.11906515 -0.29409105 0.11009298 0.03643229 -0.12228193 -0.011138146 0.10355946
0.18990257 -0.049149323 -0.06710414 0.13687393 0.0823317 -0.19281253 -0.12244477 0.041884493
-0.17843151 -0.08353011 -0.07838795 0.13210183 0.15775698 -0.028365104 0.060107686 0.13319945
-0.18380277 -0.04464464 -0.021912599 0.06576611 -0.08209479 -0.22248428 0.095801234 -0.1855521
0.14649472 -1.259573e-05 0.014388764 0.14056796 0.10170122 -0.14466844 -0.17050204 -0.115502834
0.16407523 0.18716602 -0.103485264 0.029178387 0.12040591 -0.14409027 -0.02196167 -0.13101257
0.28129274 -0.08881468 0.058698125 0.16305289 0.0006730617 -0.042716283 -0.23386072 -0.09661253
-0.104424566 -0.21976922 0.02878222 0.113615386 -0.06660529 -0.09093426 -0.054274976 -0.019278212
-0.119008616 0.16333613 0.08452444 -0.08999079 0.06503342 0.12092511 -0.00061215344 0.040765
-0.10262831 -0.052016683 0.013914812 -0.10632555 0.12365192 0.17240731 0.09607487 0.20841016
-0.036005355 -0.30547452 0.23920938 -0.21655512 -0.039035298 -0.013434119 -0.11097669 -0.084904924
-0.10582376 -0.02358542 0.14375587 -0.19331677 -0.038147062 -0.12228283 0.18850595 0.04158153
-0.053915273 0.10996824 -0.026069613 0.2567857 0.056469236 -0.098054856 -0.05214591 -0.19205211
0.17870525 0.30307317 0.019363523 -0.17622283 0.12551536 0.15864348 -0.0330133 0.069315895
-0.25907907 0.12452851 0.28964117 -0.05548785 -0.02003821 0.30141476 0.14999673 -0.056247674
-0.05588043 -0.31226856 0.01492326 -0.3047934 -0.08015698 0.13933162 0.08969476 -0.0073960815
-0.17065468 0.16286707 -0.124856964 -0.3177532 0.23036984 -0.17582123 0.15798782 0.17024238
-0.11025779 0.23731467 0.11799464 0.16552374 0.04178682 -0.22198431 -0.23101483 -0.19569513
-0.07240424 0.19747968 -0.13882223 -0.16046807 -0.08917098 0.124496125 -0.108243585 0.19201638
-0.11319018 -0.18284993 0.096941285 -0.0783832 -0.07253957 0.017360426 0.066875376 0.2562359
00000000: ad64 2a3e c9d4 373e 4453 55bd 0774 a4bc
00000010: 254d 5f3e 59bb ce3d b914 af3c 7293 6f3e
00000020: 867b 913d 13cc 263e d462 58bd 143b 5fbe
00000030: c463 a1bd da8b 513c 4f04 5a3e 73a7 1b3e
00000040: 229f 8ebd 09bf 4d3b 7597 c33d 2580 383e
00000050: dc72 be3b f16e d0bd 6b0d fd3c bb3d ea3d
00000060: 4030 59be a0b8 fcbd cf6e 2ebd 1bdc 40be
00000070: 8a9d 24be d0f9 f83d b80e e23c 0cf4 dabd
00000080: da22 433c 8592 573d 8ab4 59bb 0ec1 203d
00000090: efe3 c2bd f82c 13bd 42b5 a4bc 40a5 66be
000000a0: 4767 a4bc e224 aa3e 455c 3abe c914 9dbe
000000b0: 8d1c 183e 383f 913e 619b 7ebd 05a5 8e3e
000000c0: c36c 33be f91e 883d 519b 823e de0c c5bd
000000d0: fb38 e8bd 0d77 443e cb4e 593c 5bb5 0d3d
000000e0: c3d3 23bd 04b5 09be d539 8f3e 0502 10be
000000f0: 143e 92be 4b60 3dbc 3e71 5cbb deb9 04be
00000100: 226c a9be 33a6 7b3e 6c1a 81bb db62 c2be
00000110: eaae ce3d 97e4 61be 0c9f 873e 0fe0 ad3c
00000120: 5daf 12be 02aa 573e e836 b0bd d7eb 873e
00000130: 501b 4fbe 08bf 64be 5341 8abe 11fc 8f3c
00000140: c0d5 f9bd f2e0 4ebe 21ff c9bd 66a7 353e
00000150: 1f35 efbd 7ce8 88be 01ab c4bc 0e41 23be
00000160: a755 783e 9ac7 a6bd 42e5 2dbe f899 543e
00000170: 28ea 233e 299f 00bd 46ab 7dbe 2f06 dcbd
00000180: f1cb 8e3e 6ed8 f33d 1a93 96be 6e78 e13d
00000190: 063a 153d f36e fabd c57c 36bc fb16 d43d
000001a0: d275 423e cd50 49bd e56d 89bd ae28 0c3e
000001b0: 869d a83d a670 45be 53c4 fabd 138f 2b3d
000001c0: c0b6 36be d611 abbd dd89 a0bd b445 073e
000001d0: 0c8b 213e ef5d e8bc 7a33 763d 7065 083e
000001e0: cb36 3cbe 4cdd 36bd 0d82 b3bc 62b0 863d
000001f0: 5021 a8bd ebd2 63be 7033 c43d 5f01 3ebe
00000200: b602 163e 4052 53b7 dabe 6b3c 0cf1 0f3e
00000210: bb48 d03d f723 14be 1698 2ebe c08c ecbd
00000220: 5603 283e 73a8 3f3e 15f0 d3bd 8307 ef3c
00000230: 6097 f63d 668c 13be f6e8 b3bc 2928 06be
00000240: 9a05 903e 79e4 b5bd 726d 703d 56f7 263e
00000250: 6870 303a 45f7 2ebd 2f79 6fbe cadc c5bd
00000260: 8cdc d5bd 2f0b 61be b1c8 eb3c 2faf e83d
00000270: 5b68 88bd be3b babd 704f 5ebd 57ed 9dbc
00000280: caba f3bd 9641 273e 261b ad3d 174d b8bd
00000290: 3e30 853d 96a7 f73d ec78 20ba 33f9 263d
000002a0: cb2e d2bd 720f 55bd f4fa 633c 36c1 d9bd
000002b0: 383d fd3d 8b8b 303e e7c2 c43d 7969 553e
000002c0: 5a7a 13bd 2867 9cbe 4ef3 743e a0c0 5dbe
000002d0: 7ae3 1fbd c71a 5cbc bf47 e3bd a2e2 adbd
000002e0: 21ba d8bd 3636 c1bc bd34 133e d5f4 45be
000002f0: 1840 1cbd 6c6f fabd b407 413e 6551 2a3d
00000300: 43d6 5cbd 0737 e13d f18f d5bc 6a79 833e
00000310: 494c 673d fcd0 c8bd f396 55bd 4fa9 44be
00000320: 82fe 363e 682c 9b3e 40a0 9e3c c273 34be
00000330: 1987 003e 7073 223e f438 07bd 7ef5 8d3d
00000340: 03a6 84be ce08 ff3d d94b 943e 3a47 63bd
00000350: 2c27 a4bc 0953 9a3e be98 193e f663 66bd
00000360: e1e2 64bd aae1 9fbe b080 743c e10d 9cbe
00000370: 5829 a4bd f3ac 0e3e e3b1 b73d d45a f2bb
00000380: 1ac0 2ebe a0c6 263e 02b5 ffbd 8cb0 a2be
00000390: 12e6 6b3e 7b0a 34be 8fc7 213e 0554 2e3e
000003a0: d6ce e1bd 9e02 733e 2ca7 f13d 0e7f 293e
000003b0: a828 2b3d db4f 63be 278f 6cbe 4e64 48be
000003c0: ad48 94bd 1d38 4a3e 6a27 0ebe be51 24be
000003d0: 469f b6bd d3f7 fe3d d0ae ddbd f19f 443e
000003e0: 41d0 e7bd 033d 3bbe 2789 c63d 5f87 a0bd
000003f0: a08f 94bd 7437 8e3c f5f5 883d 5a31 833e

bias f4 [40]
-0.05280719 -0.04749794 -0.033249944 0.16715433 -0.044649918 0.14917073 0.0002418502 -0.053338386
0.18866026 0.04126058 -0.011533397 0.078543164 0.108094424 0.03910976 -0.09724767 0.14354528
0.018719811 -0.24306375 -0.07950192 0.19616173 0.13907322 0.046647772 0.052645285 0.16088516
-0.2267445 -0.04231334 0.050360665 -0.030311225 -0.04566604 -0.17326921 0.11046031 -0.09628801
0.0841167 0.09003609 0.064072765 0.018926926 0.18133534 -0.019014139 0.0568011 -0.044884354
00000000: 5a4c 58bd 338d 42bd 1831 08bd 812a 2b3e
00000010: d5e2 36bd 36c0 183e 2b99 7d39 5a79 5abd
00000020: 2830 413e db00 293d 93f6 3cbc 3ddb a03d
00000030: 9c60 dd3d 8e31 203d c929 c7bd 89fd 123e
00000040: 4a5a 993c b4e5 78be e7d1 a2bd 9fde 483e
00000050: 3669 0e3e bc11 3f3d 95a2 573d 14bf 243e
00000060: b62f 68be c150 2dbd fc46 4e3d 3f4f f8bc
00000070: 500c 3bbd 7c6d 31be 0439 e23d a632 c5bd
00000080: 6045 ac3d d764 b83d 9538 833d a40c 9b3c
00000090: f9af 393e 8ac3 9bbc 45a8 683d a8d8 37bd

weight f4 [40, 40]
0.20076376 -0.034488477 0.19485565 7.030827e-05 0.12531127 0.16091016 0.021215674 0.12698579
0.10481138 0.21818343 0.03722369 0.18628472 0.21113631 0.010017765 -0.040416155 0.08860803
0.19011533 -0.09106899 0.04030661 0.20662802 0.0735058 0.23333737 -0.013493547 0.020295322
-0.15503034 -0.07760259 -0.04020193 0.1132409 -0.14504835 -0.11944054 0.1797677 0.045938037
0.03221559 0.024945712 0.21713722 0.13260931 0.26763025 -0.036166497 0.018911371 -0.021696828
-0.011490101 -0.093673706 0.14044826 0.23902555 -0.1471665 -0.051722236 -0.21051697 0.06802971
0.10375741 -0.15574037 -0.036872767 0.109363504 0.13447635 0.24224587 0.14657037 -0.049219012
0.070561685 0.14519036 0.06960925 -0.061483257 0.22748113 0.2407909 0.08921983 0.1085877
0.013841734 0.14117824 0.09956421 -0.2281896 -0.06378367 -0.06270964 -0.01627323 0.17623472
0.023941195 0.071786426 0.124981 0.07487954 0.16118172 0.22065914 0.10618722 0.011613673
0.004943837 0.014746454 0.1233046 0.20209534 0.0934271 0.0006007781 -0.075721316 -0.16612743
-0.035012323 0.11365935 -0.008338409 0.094233856 0.09446768 0.09428307 0.10212868 0.034296915
0.11468945 -0.04482543 0.13013352 0.15522969 -0.11692742 0.20799907 -0.08793227 0.10664272
-0.07364078 0.07810639 0.005245983 -0.060760956 0.09051999 -0.06185063 -0.02403285 -0.041682694
-0.0070916377 0.056367688 -0.08985614 0.05090728 0.1610368 -0.03395213 -0.07332084 -0.039793454
0.08362011 0.20471072 0.01678315 0.030705182 0.16359071 0.31506 0.03954547 0.03457293
0.069275014 0.0714437 0.31910026 -0.07926073 0.06872496 -0.0045192605 0.06920997 0.2717334
0.27160633 -0.16576074 0.07705066 0.31712356 -0.10029456 0.029777085 0.16126011 -0.019038651
-0.022805277 -0.018711654 0.040114015 0.010210614 -0.0039793034 -0.027291711 0.030311795 0.2745812
0.13633463 -0.06280637 0.24885908 0.27948147 0.09686225 -0.113188215 0.11842053 -0.12181269
0.123937525 0.21675977 -0.09465246 -0.104665264 0.116145015 0.07761151 0.21791998 0.19796538
0.24550855 0.023019621 0.2587307 0.064648956 -0.03485965 -0.09451918 -0.006170956 0.17971545
0.16505668 0.08232458 0.1573674 0.14798029 -0.10850775 -0.16012406 0.13490722 -0.16899714
-0.112729274 -0.09656062 -0.04920423 -0.029578896 0.15488869 0.020091882 -0.2429879 0.19913228
0.16786613 -0.15070857 0.09621387 -0.044671625 -0.019028056 -0.115846805 0.1690421 -0.19948085
0.06376898 0.05134154 0.21009798 0.22015132 0.026511388 0.16574852 0.12518875 0.15835185
0.11523117 0.0007314631 0.077927254 0.27163866 0.08518816 0.11604528 0.049713332 0.11485661
-0.11536251 -0.11188169 -0.1498964 0.18371293 0.21698594 0.18221669 0.14261462 0.062507324
-0.14702278 0.0992511 0.06114396 0.05271085 0.11391641 0.041156102 0.20613797 -0.009843727
-0.10102471 -0.005577462 -0.104678944 -0.015943874 0.26024526 0.10966183 -0.10620887 0.0065069944
-0.07885086 -0.1628749 0.1952215 -0.024031268 -0.15516987 -0.16280794 -0.03509405 -0.032638375
-0.22189774 -0.15461501 -0.09547678 -0.04999902 0.006481412 0.123544976 -0.059730537 -0.20123014
00000000: 0495 4d3e ca43 0dbd 3d88 473e 7772 9338
00000010: 9951 003e a2c5 243e 7ecc ad3c 9008 023e
00000020: 59a7 d63d 7a6b 5f3e de77 183d 6cc1 3e3e
00000030: 1e34 583e 8d21 243c 698b 25bd 2078 b53d
00000040: 98ad 423e 6182 babd 8b18 253d 4c96 533e
00000050: 358a 963d feef 6e3e 0a14 5dbc 6042 a63c
00000060: 46c0 1ebe 1bee 9ebd c7aa 24bd d8ea e73d
00000070: 8e87 14be 3e9d f4bd 0615 383e 8629 3c3d
00000080: 7ff4 033d f35a cc3c 3859 5e3e bcca 073e
00000090: d506 893e 5223 14bd 05ec 9a3c 8cbd b1bc
000000a0: fa40 3cbc 00d8 bfbd abd1 0f3e 1dc3 743e
000000b0: d1b2 16be b2da 53bd c391 57be 2953 8b3d
000000c0: c47e d43d 677a 1fbe e607 17bd f9f9 df3d
000000d0: 2bb4 093e 4d0f 783e 8b16 163e e099 49bd
000000e0: a582 903d c8ac 143e 4b8f 8e3d ded5 7bbd
000000f0: d0f0 683e e491 763e e3b8 b63d 3a63 de3d
00000100: 71c8 623c 0791 103e 52e8 cb3d 89aa 69be
00000110: 03a1 82bd e96d 80bd 704f 85bc e076 343e
00000120: 5320 c43c c304 933d 0af6 ff3d 725a 993d
00000130: d20c 253e 78f4 613e af78 d93d 4647 3e3c
00000140: e9ff a13b 1c9b 713c 1f87 fc3d 15f2 4e3e
00000150: b556 bf3d 897d 1d3a c713 9bbd 4f1d 2abe
00000160: 1569 0fbd 3cc6 e83d d29d 08bc aefd c03d
00000170: 4578 c13d 7b17 c13d d728 d13d ec7a 0c3d
00000180: 4de2 ea3d df9a 37bd b941 053e 88f4 1e3e
00000190: a577 efbd b5fd 543e d515 b4bd 8067 da3d
000001a0: fad0 96bd 3ef6 9f3d 7fe6 ab3b 7be0 78bd
000001b0: 8b62 b93d 1657 7dbd 8ae0 c4bc 79bb 2abd
000001c0: f860 e8bb cee1 663d 7f06 b8bd 2784 503d
000001d0: d5e6 243e 6311 0bbd 3d29 96bd 76fe 22bd
000001e0: 0541 ab3d b09f 513e d17c 893c 6f89 fb3c
000001f0: 5384 273e 8b4f a13e 6efa 213d 589c 0d3d
00000200: 0fe0 8d3d 1351 923d 1c61 a33e 7353 a2bd
00000210: acbf 8c3d 4e16 94bb f5bd 8d3d a420 8b3e
00000220: fc0f 8b3e 2fbd 29be bdcc 9d3d 055e a23e
00000230: 3c67 cdbd 13ef f33c 5f21 253e f2f6 9bbc
00000240: 22d2 babc 2f49 99bc 984e 243d 6b4a 273c
00000250: d164 82bb de92 dfbc 7150 f83c e895 8c3e
00000260: 4e9b 0b3e a0a0 80bd ead4 7e3e 3218 8f3e
00000270: b75f c63d 39cf e7bd 7686 f23d ee78 f9bd
00000280: f5d2 fd3d 46f6 5d3e 26d9 c1bd be5a d6bd
00000290: 70dd ed3d c9f2 9e3d 6a26 5f3e 70b7 4a3e
000002a0: 9866 7b3e a593 bc3c 5a78 843e ac66 843d
000002b0: fec8 0ebd 4693 c1bd bb35 cabb 5407 383e
000002c0: 9e04 293e ca99 a83d eb24 213e 2588 173e
000002d0: 5039 debd 90f7 23be 1e25 0a3e 960d 2dbe
000002e0: 9bde e6bd 93c1 c5bd 608a 49bd 714f f2bc
000002f0: 249b 1e3e bb97 a43c d2d1 78be 55e9 4b3e
00000300: 19e5 2b3e 5953 1abe c70b c53d 98f9 36bd
00000310: bae0 9bbc 1741 edbd 5f19 2d3e b544 4cbe
00000320: 5099 823d 824b 523d ed23 573e 596f 613e
00000330: 692e d93c fbb9 293e 7b31 003e fd26 223e
00000340: 52fe eb3d a8bf 3f3a 5398 9f3d 3914 8b3e
00000350: 2177 ae3d 26a9 ed3d 35a0 4b3d f139 eb3d
00000360: 2e43 ecbd 3a22 e5bd 717e 19be 3e1f 3c3e
00000370: 9031 5e3e 0397 3a3e 9109 123e d703 803d
00000380: 248d 16be 2944 cb3d 1772 7a3d 55e7 573d
00000390: 024d e93d 4d93 283d d515 533e 9547 21bc
000003a0: 0be6 cebd 24c3 b6bb ea61 d6bd ba9c 82bc
000003b0: de3e 853e 6296 e03d 0984 d9bd a038 d53b
000003c0: 8f7c a1bd aec8 26be 25e8 473e 39dd c4bc
000003d0: dae4 1ebe 20b7 26be c7be 0fbd d1af 05bd
000003e0: 2939 63be 6653 1ebe 5489 c3bd c6cb 4cbd
000003f0: 0662 d43b 2605 fd3d 02a8 74bd 460f 4ebe

bias f4 [40]
0.20707223 0.16004337 0.075014286 -0.006598821 0.14247435 0.106442876 0.0114503335 -0.110922664
0.12806389 -0.049305588 0.06204608 0.091691434 0.069181785 0.2291873 -0.026593463 0.016506907
-0.15551992 -0.085713804 0.06319057 -0.0021771064 -0.1836575 0.113172695 0.034383744 -0.023149448
-0.11929559 0.010156297 0.11815441 0.13976559 -0.2484003 -0.114581995 -0.07279184 -0.017652055
-0.0422068 0.00669029 -0.20408316 0.14710931 0.033616964 0.16314836 0.01727985 -0.016965082
00000000: be0a 543e 69e2 233e 17a1 993d ec3a d8bb
00000010: cce4 113e b9fe d93d 2e9a 3b3c 6c2b e3bd
00000020: 2e23 033e a8f4 49bd 0824 7e3d b8c8 bb3d
00000030: 2eaf 8d3d 13b0 6a3e 89da d9bc 7e39 873c
00000040: 9d40 1fbe b88a afbd 0f6a 813d c9ad 0ebb
00000050: b610 3cbe 16c7 e73d f8d5 0c3d e9a3 bdbc
00000060: 3f51 f4bd 9966 263c f0fa f13d b61e 0f3e
00000070: a65c 7ebe f7a9 eabd e313 95bd 0b9b 90bc
00000080: 0ae1 2cbd 383a db3b 2dfb 50be d3a3 163e
00000090: f1b1 093d 5d10 273e 798e 8d3c 5bfa 8abc

weight_ih_l0 f4 [120, 40]
-0.25492957 -0.095389955 -0.148931 0.0045708944 -0.0354373 -0.023454744 0.023472015 -0.035054915
0.017656934 0.04789613 -0.009309543 0.14332512 0.12059438 -0.15277024 0.041152317 0.012040813
0.14436017 0.21489535 0.05730075 -0.1251452 -0.01898241 -0.032919496 0.14734198 -0.19343357
0.19166295 0.2055313 0.010320017 -0.20315635 0.13103563 0.01881219 -0.146181 -0.1998297
0.11298787 0.07837215 0.22785468 -0.091189444 -0.19198406 -0.012709538 0.014748381 -0.21095936
0.25651738 0.0815739 -0.12970977 0.2810384 0.24857551 0.23048085 -0.19589312 0.18571553
-0.27769864 -0.21242568 -0.03930317 -0.3753422 -0.14857875 -0.14264323 -0.31378642 -0.089801736
0.116060585 -0.037573814 0.193899 0.060991462 0.010221893 0.19111477 -0.038762905 0.09164527
-0.07882441 -0.36468467 0.32010812 -0.14163895 0.014382902 -0.014864088 0.113025516 0.27280137
-0.13353226 -0.25688344 -0.29938772 0.05536794 0.31415093 0.026326934 -0.00880307 -0.067757964
0.10034304 -0.20291781 0.024566682 0.261354 -0.05067231 0.09164592 0.08295042 0.23735349
-0.21804102 -0.09945305 -0.30711007 -0.09972793 -0.27207163 -0.2526135 0.019064194 -0.0005389538
-0.0544242 -0.16082609 0.006641856 0.06821799 0.08898273 0.13570547 -0.14542057 0.10447328
0.20703831 -0.030118996 0.0029430606 -0.24657395 0.080430225 -0.07733939 0.17678441 0.2199782
-0.05345678 -0.09343219 0.04553722 -0.019939866 0.23207201 -0.045035 0.11004344 0.32233116
-0.04097699 0.04082839 -0.07955623 -0.055588916 0.04012453 0.13415202 -0.022117179 -0.18188255
0.22697051 -0.1338315 -0.019352574 -0.055581834 0.18136007 0.10878794 -0.07102726 -0.06471306
-0.1769193 0.01660094 -0.00083278725 -0.20876674 -0.050652523 0.10897102 -0.16906029 -0.15925808
-0.25122237 0.069440015 0.15593489 0.048388757 -0.100070745 -0.26669455 -0.14701645 0.11657666
-0.05196833 -0.19216098 0.016227793 -0.06674769 0.032762695 -0.07103397 0.19012214 -0.1644723
-0.05552942 -0.09875058 0.06580655 0.2312969 0.013844612 0.01725963 -0.20868047 0.06903491
-0.0057007205 -0.00879347 -0.1579303 -0.21474317 -0.2373169 -0.31298375 -0.08309797 -0.047724575
0.12843245 0.11926897 -0.013431564 0.063256055 0.18603025 -0.04916198 0.11429801 0.19153899
0.24739484 -0.25790605 0.06827765 -0.005642603 0.16423376 0.11956243 0.17281812 -0.0458333
-0.033600785 0.18035914 -0.13934225 0.20080802 0.00989808 -0.081830405 -0.008870713 0.065449744
-0.12701614 -0.28682092 0.09733089 -0.06031293 0.13326856 0.098970234 -0.11487048 0.08038225
-0.21987347 0.043396994 -0.11760266 -0.23655123 -0.1784189 -0.023263736 0.12278505 0.07046892
0.15654342 -0.1209779 0.019224731 0.0010416403 0.0010393931 -0.1338806 -0.11035289 0.24729727
0.08291248 -0.05953399 -0.046906985 -0.21749513 0.08921026 0.10849363 0.17427681 0.14261715
-0.03369573 -0.052365117 -0.027152477 0.060845662 0.15824054 -0.06131864 -0.12821221 0.15505698
-0.012709624 -0.15944232 -0.010020517 0.17746504 0.09151205 0.16694354 -0.13531475 0.13861097
-0.22576305 -0.14296794 -0.14800693 -0.2307624 0.00012126996 -0.12622781 -0.25797024 -0.10169509
00000000: 2186 82be cf5b c3bd 5e81 18be 71c7 953b
00000010: b426 11bd 2a24 c0bc 6248 c03c be95 0fbd
00000020: 46a5 903c bb2e 443d 0e87 18bc d2c3 123e
00000030: 30fa f63d cd6f 1cbe 558f 283d d546 453c
00000040: 27d3 133e 870d 5c3e 31b4 6a3d 1026 00be
00000050: 0081 9bbc 98d6 06bd d1e0 163e 7313 46be
00000060: 4b43 443e cc76 523e 4a15 293c 3808 50be
00000070: 342e 063e 061c 9a3c 79b0 15be 28a0 4cbe
00000080: 2f66 e73d 9481 a03d bd52 693e 88c1 babd
00000090: 7897 44be ab3b 50bc 32a3 713c bb05 58be
000000a0: 3f56 833e 3810 a73d a3d2 04be 44e4 8f3e
000000b0: 948a 7e3e 2c03 6c3e 3598 48be 362c 3e3e
000000c0: 842e 8ebe 1e86 59be 5cfc 20bd da2c c0be
000000d0: 0725 18be 1111 12be 9da8 a0be f9e9 b7bd
000000e0: 2cb1 ed3d 00e7 19bd 768d 463e 2fd2 793d
000000f0: ba79 273c 97b3 433e dac5 1ebd 84b0 bb3d
00000100: b16e a1bd f3b7 babe 36e5 a33e cd09 11be
00000110: 43a6 6b3c 8188 73bc ec79 e73d 9fac 8b3e
00000120: aebc 08be 3a86 83be 5949 99be 7ec9 623d
00000130: 64d8 a03e 95ab d73c c03a 10bc b0c4 8abd
00000140: a780 cd3d b0c9 4fbe 1140 c93c 31d0 853e
00000150: c58d 4fbd dbb0 bb3d e9e1 a93d cb0c 733e
00000160: 2546 5fbe 0aae cbbd 883d 9dbe 283e ccbd
00000170: f94c 8bbe 8f56 81be 832c 9c3c 9448 0dba
00000180: e9eb 5ebd 98af 24be eda3 d93b e0b5 8b3d
00000190: 943c b63d 60f6 0a3e 21e9 14be 16f6 d53d
000001a0: da01 543e 1dbc f6bc 5de0 403b e27d 7cbe
000001b0: 9ab8 a43d 1d64 9ebd f906 353e f741 613e
000001c0: 7ff5 5abd 6059 bfbd 3c85 3a3d ee58 a3bc
000001d0: 49a4 6d3e 9f76 38bd 745e e13d 9708 a53e
000001e0: 7dd7 27bd ab3b 273d 60ee a2bd 34b1 63bd
000001f0: 9f59 243d 265f 093e 162f b5bc 6b3f 3abe
00000200: f56a 683e 200b 09be 4a89 9ebc c7a9 63bd
00000210: 74b6 393e 36cc de3d bd76 91bd 4888 84bd
00000220: 552a 35be b2fe 873c 684f 5aba f3c6 55be
00000230: 0579 4fbd 332c df3d 241e 2dbe 8d14 23be
00000240: 38a0 80be 9136 8e3d 65ad 1f3e 4a33 463d
00000250: e4f1 ccbd 308c 88be 7b8b 16be bebf ee3d
00000260: bedc 54bd d9c5 44be 26f0 843c 03b3 88bd
00000270: 2d32 063d 427a 91bd 61af 423e 6d6b 28be
00000280: d172 63bd be3d cabd 96c5 863d 18d9 6c3e
00000290: 83d4 623c 1164 8d3c 55b0 55be 2d62 8d3d
000002a0: 1ccd babb 7d12 10bc 7bb8 21be a2e5 5bbe
000002b0: 3403 73be 683f a0be 452f aabd d87a 43bd
000002c0: cc83 033e 4a43 f43d 1010 5cbc 648c 813d
000002d0: b77e 3e3e 135e 49bd 1315 ea3d cc22 443e
000002e0: 1355 7d3e 430c 84be 27d5 8b3d 96e5 b8bb
000002f0: e52c 283e 26dd f43d 3cf7 303e b3bb 3bbd
00000300: faa0 09bd 11b0 383e bcaf 0ebe 9ea0 4d3e
00000310: 8e2b 223c b396 a7bd 7856 11bc 840a 863d
00000320: 8510 02be 31da 92be 6b55 c73d b10a 77bd
00000330: 8e77 083e e8b0 ca3d 3741 ebbd 739f a43d
00000340: 8326 61be 0cc1 313d aad9 f0bd 7c3a 72be
00000350: 72b3 36be 9793 bebc ba76 fb3d 0252 903d
00000360: eb4c 203e 43c3 f7bd 2f7d 9d3c a687 883a
00000370: 3f3c 883a ff17 09be b200 e2bd 7f3b 7d3e
00000380: 05ce a93d ead9 73bd 8a21 40bd 0bb7 5ebe
00000390: deb3 b63d e931 de3d 9f75 323e 3b0a 123e
000003a0: 8904 0abd ce7c 56bd df6e debc 4d39 793d
000003b0: cf09 223e 4129 7bbd 104a 03be 42c7 1e3e
000003c0: 073c 50bc d944 23be 182d 24bc 65b9 353e
000003d0: ab6a bb3d 3ff3 2a3e f38f 0abe 09f0 0d3e
000003e0: 6e2e 67be 3066 12be 218f 17be fb4c 6cbe
000003f0: 5052 fe38 dd41 01be ad14 84be 8445 d0bd

weight_hh_l0 f4 [120, 40]
-0.08477584 -0.09945274 0.07778945 -0.15070575 0.15703717 -0.046503313 0.1724714 -0.14099827
0.08477382 0.30441505 -0.053439874 0.065798454 0.14717004 -0.28894395 0.023498451 0.01569885
-0.025515983 -0.11826319 -0.0136528015 -0.0419373 -0.15642895 0.008567003 -0.0120720435 0.12427198
0.06865972 -0.21181686 -0.041204825 -0.14912283 -0.07642079 0.0643845 0.23785473 0.1131413
-0.30934444 -0.11077782 -0.2134612 -0.07644961 -0.0420923 -0.24986911 0.23440564 -0.0018067551
0.07464127 0.20896146 0.14152618 -0.025882123 -0.1368707 0.29674566 0.051153317 0.24783394
-0.070433766 -0.31212142 0.118286505 -0.27635238 -0.08816443 0.28240138 0.26032898 -0.050876625
-0.031903543 -0.086985976 0.07155865 -0.22295348 0.18142013 0.10275348 -0.14820606 0.039113365
0.032119412 0.02237703 -0.1193334 0.16453995 -0.02833237 -0.18412702 -0.32330427 -0.31264842
0.3032119 0.10107737 0.09748997 -0.03817312 -0.24476364 0.12573822 -0.1553173 0.28698036
-0.13525254 0.08277605 -0.0593168 0.10748895 -0.3278543 0.13529496 -0.015999097 0.21479523
0.03506555 -0.057510734 0.22519779 -0.00081022613 0.024537018 0.06912452 -0.07589547 -0.12063284
0.06683202 -0.2123167 -0.018885596 0.009857835 0.15461203 0.030624382 -0.13939926 -0.3324821
0.1062982 0.1076357 -0.16584219 -0.17623582 0.148944 -0.10906585 -0.004210679 -0.032207053
0.111898325 -0.026621211 -0.0039259186 -0.17050624 0.061050247 -0.07754914 -0.16152337 -0.09617912
0.026503146 0.1618888 -0.12522876 -0.03760528 0.040296566 0.09091597 0.047135632 -0.044803057
-0.023835778 -0.021631755 -0.043498073 0.013038371 -0.16418701 0.013880304 0.06296902 0.06949342
-0.10058666 0.06297757 -0.06462823 0.032348156 0.119482905 -0.15582883 0.008573365 0.09494644
0.017438855 -0.06384119 0.012825906 0.044572033 -0.08486769 -0.17127728 -0.03699632 -0.019656477
0.03011187 0.18470088 -0.012595524 -0.057458937 -0.16282561 0.0043822164 0.13690102 -0.03229956
-0.10492208 -0.07041651 0.08642659 -0.030455986 0.00090747746 -0.26854113 0.085302174 0.12220515
0.09716898 0.20482196 0.2730764 0.04187948 -0.08085 0.032617483 -0.12537634 0.0013030762
-0.048964627 -0.16165112 0.114275195 0.2092442 0.08173939 -0.0005036228 -0.09081423 0.0019055404
0.12344239 -0.05973781 -0.08794076 -0.08964667 0.004937115 -0.01730949 0.19121028 0.13854147
-0.12802161 0.08019475 -0.12966736 -0.071387075 0.06227262 0.062675536 0.00083936204 0.08417324
-0.18331966 0.09132741 0.21775304 0.046371944 -0.120814666 0.03870564 0.24498233 0.2124232
0.16617969 0.07751079 0.008751663 -0.07312985 0.017333442 0.027064871 -0.1128167 -0.07117489
0.10649765 -0.11685726 0.12964717 0.099952556 0.11938856 -0.14089413 0.0061834957 -0.17723437
0.031608965 -0.030232307 -0.078566805 -0.13732663 0.1471414 0.08281424 0.13256112 -0.2439153
-0.07121123 0.020857906 -0.14252 -0.124120004 0.043314938 0.12527224 -0.0786771 -0.06770694
0.03978812 0.06920564 0.14859253 0.1318618 -0.16069067 0.105015114 0.21392141 -0.06936119
-0.027987324 0.06840978 0.15233682 -0.13493629 -0.02097856 0.09780264 0.094675355 -0.068469785
00000000: f59e adbd e1ad cbbd 1350 9f3d 9c52 1abe
00000010: 5ace 203e 427a 3ebd 589c 303e da61 10be
00000020: e69d ad3d 4adc 9b3e c5e3 5abd 57c1 863d
00000030: beb3 163e 76f0 93be d37f c03c e09a 803c
00000040: e506 d1bc f933 f2bd 00b0 5fbc 72c6 2bbd
00000050: e92e 20be 9d5c 0c3c d2c9 45bc 4f82 fe3d
00000060: 789d 8c3d 85e6 58be 64c6 28bd a8b3 18be
00000070: 8182 9cbd 05dc 833d 3190 733e a0b6 e73d
00000080: 6562 9ebe 7bdf e2bd 9395 5abe 9d91 9cbd
00000090: fa68 2cbd b0dd 7fbe 0808 703e a4d0 ecba
000000a0: 86dd 983d fef9 553e 3dec 103e bf06 d4bc
000000b0: d527 0cbe 0cef 973e 2486 513d 2ec8 7d3e
000000c0: 943f 90bd 61ce 9fbe 3240 f23d 0f7e 8dbe
000000d0: 8d8f b4bd ea96 903e d749 853e 0264 50bd
000000e0: 4aad 02bd b425 b2bd 578d 923d eb4d 64be
000000f0: 33c6 393e 6b70 d23d 54c3 17be 5635 203d
00000100: a58f 033d 0950 b73c 1265 f4bd 297d 283e
00000110: 4919 e8bc cb8b 3cbe 2388 a5be 7413 a0be
00000120: 973e 9b3e a701 cf3d d2a8 c73d 6b5b 1cbd
00000130: 52a3 7abe 85c1 003e 800b 1fbe 17ef 923e
00000140: a47f 0abe 7d86 a93d 2cf6 72bd 2b23 dc3d
00000150: 85dc a7be c38a 0a3e 8a10 83bc 48f3 5b3e
00000160: e5a0 0f3d 6090 6bbd 409a 663e 5b65 54ba
00000170: db01 c93c 2891 8d3d 166f 9bbd 5a0e f7bd
00000180: 3adf 883d 8d69 59be f7b5 9abc c282 213c
00000190: 9e52 1e3e fcdf fa3c aebe 0ebe 183b aabe
000001a0: dfb2 d93d 1b70 dc3d 89d2 29be 2a77 34be
000001b0: c784 183e eb5d dfbd bcf9 89bb 8beb 03bd
000001c0: f32a e53d ba14 dabc fea4 80bb 3099 2ebe
000001d0: d30f 7a3d 15d2 9ebd 6266 25be 8ff9 c4bd
000001e0: 201d d93c 2dc6 253e f83b 00be fe07 1abd
000001f0: 030e 253d 2732 ba3d 4b11 413d 6983 37bd
00000200: 4043 c3bc 1435 b1bc 092b 32bd e49e 553c
00000210: a420 28be 376a 633c e7f5 803d 9152 8e3d
00000220: 6100 cebd 62fa 803d ce5b 84bd 807f 043d
00000230: 74b3 f43d 9891 1fbe 4d77 0c3c 4773 c23d
00000240: eedb 8e3c 2bbf 82bd c023 523c 2a91 363d
00000250: 1dcf adbd 5063 2fbe 7489 17bd 9f06 a1bc
00000260: 2bad f63c 3a22 3d3e 755d 4ebc 105a 6bbd
00000270: c2bb 26be b298 8f3b c82f 0c3e 8b4c 04bd
00000280: 63e1 d6bd 8836 90bd 6d00 b13d d57e f9bc
00000290: c8e3 6d3a 397e 89be e8b2 ae3d b246 fa3d
000002a0: 8800 c73d d9bc 513e abd0 8b3e d189 2b3d
000002b0: af94 a5bd e999 053d a862 00be fbcb aa3a
000002c0: 228f 48bd df87 25be 1d09 ea3d 1d44 563e
000002d0: fb66 a73d 8e05 04ba d0fc b9bd 53c3 f93a
000002e0: 5dcf fc3d a2af 74bd 491a b4bd ac98 b7bd
000002f0: 86c7 a13b a2cc 8dbc a1cc 433e d1dd 0d3e
00000300: 1918 03be 253d a43d 85c7 04be 6333 92bd
00000310: 9311 7f3d 085c 803d a208 5c3a 0563 ac3d
00000320: 26b8 3bbe dd09 bb3d a7fa 5e3e 82f0 3d3d
00000330: ae6d f7bd ce89 1e3d a6dc 7a3e 7885 593e
00000340: 022b 2a3e fabd 9e3d 2363 0f3c 1ac5 95bd
00000350: ddfe 8d3c 26b7 dd3c 710c e7bd 24c4 91bd
00000360: 711b da3d dc52 efbd 3ac2 043e edb3 cc3d
00000370: fd81 f43d 8d46 10be ec9e ca3b ed7c 35be
00000380: 6778 013d bea9 f7bc a2e7 a0bd 5a9f 0cbe
00000390: 3cac 163e 839a a93d 1abe 073e efc4 79be
000003a0: 31d7 91bd 33de aa3c c3f0 11be a132 febd
000003b0: 016b 313d 5e47 003e 7621 a1bd f0a9 8abd
000003c0: def8 223d b0bb 8d3d a428 183e c806 073e
000003d0: 188c 24be 2a12 d73d 370e 5b3e 3d0d 8ebd
000003e0: ac45 e5bc 6d1a 8c3d 2ffe 1b3e bd2c 0abe
000003f0: 3bdb abbc c04c c83d 27e5 c13d e339 8cbd

bias_ih_l0 f4 [120]
-0.06742908 0.10863461 -0.12173503 -0.031201676 0.024021083 0.1199318 -0.036125958 -0.058508568
0.012021084 0.009857849 0.17298272 -0.12469539 -0.015925275 0.14727508 0.17114754 -0.19789092
0.044859223 0.041016117 0.023736686 0.036336783 -0.09277829 -0.014720034 -0.18289104 -0.035247408
-0.26569858 0.12943962 0.08717581 0.20580983 0.011294327 -0.1170893 0.05690593 0.039126262
0.090462275 -0.13017255 0.12827893 0.015033426 -0.06272087 0.13669524 0.053331513 0.26169914
-0.28763637 0.033882536 -0.06665036 -0.37868264 -0.297184 -0.28612328 -0.24199022 -0.24120778
-0.39026704 -0.20394342 -0.083775274 -0.38357076 0.06336273 -0.31422174 -0.27822858 -0.3926449
-0.13228878 -0.37230965 -0.068108596 -0.3825608 0.10756652 -0.18514396 -0.20748287 -0.26913044
-0.2639438 -0.0036975592 -0.14987022 -0.22707725 -0.41362378 -0.38768864 -0.2506269 -0.30210695
-0.24432425 -0.0391471 -0.22740659 0.0006078818 -0.13870402 -0.09013102 -0.42210665 -0.08990507
-0.012879669 0.011154885 -0.025985485 0.002699936 -0.026758935 -0.006182075 -0.24053301 0.11501467
-0.02265048 0.02964573 -0.13481443 -0.1291628 -0.16739741 0.14066869 0.16053994 0.089683674
0.15803383 -0.031504694 0.20173074 0.09167878 0.1455231 -0.011985807 0.16939282 0.08026197
-0.14596906 -0.022257809 0.04592611 0.018473295 -0.124014534 0.025913564 0.06193834 0.061711177
0.01058828 0.089311965 0.077732265 -0.048501212 -0.27834624 0.21195497 -0.089215636 0.20968725
00000000: 4218 8abd d37b de3d 3750 f9bd a89a ffbc
00000010: ddc7 c43c ce9e f53d d0f8 13bd aea6 6fbd
00000020: 15f4 443c d182 213c 6222 313e 4c60 ffbd
00000030: b975 82bc 47cf 163e 4d41 2f3e eba3 4abe
00000040: 4ebe 373d 8400 283d 7073 c23c e1d5 143d
00000050: 8b02 bebd 4c2c 71bc ca47 3bbe 965f 10bd
00000060: a509 88be d28b 043e 3b89 b23d d0bf 523e
00000070: d70b 393c 84cc efbd 3116 693d dc42 203d
00000080: 4944 b93d f44b 05be 8d5b 033e c24e 763c
00000090: cd73 80bd d6f9 0b3e 2572 5a3d 6efd 853e
000000a0: 1345 93be 6ac8 0a3d fc7f 88bd b1e2 c1be
000000b0: 8028 98be c07e 92be 49cc 77be 2cff 76be
000000c0: 15d1 c7be 8bd6 50be 5f92 abbd 6363 c4be
000000d0: 52c4 813d ace1 a0be fa73 8ebe c108 c9be
000000e0: b676 07be 5f9f bebe 857c 8bbd 02df c3be
000000f0: d64b dc3d 6196 3dbe 6476 54be 77cb 89be
00000100: a423 87be c052 72bb 9477 19be f086 68be
00000110: 7fc6 d3be 207f c6be 2b52 80be c3ad 9abe
00000120: 2330 7abe b658 20bd 46dd 68be 425a 1f3a
00000130: 6d08 0ebe 9d96 b8bd 5d1e d8be 2620 b8bd
00000140: 3f05 53bc fbc2 363c 83df d4bc 69f1 303b
00000150: 8e35 dbbc 0193 cabb 494e 76be d08c eb3d
00000160: 808d b9bc 9adb f23c cb0c 0abe 4143 04be
00000170: 3a6a 2bbe 740b 103e 9564 243e 13ac b73d
00000180: 9fd3 213e 110b 01bd 8192 4e3e 16c2 bb3d
00000190: 0204 153e 1e60 44bc 5075 2d3e 6360 a43d
000001a0: ea78 15be 0256 b6bc 041d 3c3d 4f55 973c
000001b0: 55fb fdbd af48 d43c 0fb3 7d3d dcc4 7c3d
000001c0: 777a 2d3c 31e9 b63d 1832 9f3d 35a9 46bd
000001d0: 6683 8ebe b90a 593e b0b6 b6bd 41b8 563e
