Results/2330_generator1.pth (torch, 159475 bytes, 32 tensors)

weight_ih_l0 f4 [120, 20]
00000000: 6fbb f1bd 60eb 703d 42d3 babd 5596 153e
00000010: c419 0ebd d8c0 253d fc34 053e 6215 80bd
00000020: 3cbd ed3d 6f82 02bd df77 123e ec34 dabd
00000030: 5181 373e 4e5f 133d 12e4 f0bd c7a9 0e3e
00000040: 4cf3 2f3e 3fd3 e7bd 32b9 763b d43b b63d
00000050: 4361 47bd 41d1 39bd d4f7 d7bc 1040 ea3d
00000060: 0b98 3b3d 6d55 043e 2ae9 0a3d 692b 99bc
00000070: 5a4e 9cbc 9ac3 59bd a3aa 113e f78f df3d
00000080: c247 27be a857 9ebd 1e40 0d3e 4404 ec3d
00000090: 5d69 fa3d 3f36 00be 0071 ad3d 90cb 74bd
000000a0: 78b4 0f3d 0df5 3c3e bad4 e03d 6f39 253d
000000b0: 013d 473e c046 563e a847 783a 61ac 4c3b
000000c0: bd53 aa3d 63ba 923d 1a85 e93c 4a5f b6bd
000000d0: 144c 203e b773 4cbd b6d3 943d 8c9a 2a3e
000000e0: 6601 5dbe d1ac 03be 7712 213b 80d7 a1bd
000000f0: 9256 d4bb f410 26be 2ae9 2ebc f994 08be
00000100: 6c42 25be aa55 443d c2e2 bbbd 9b3c da3d
00000110: 71c3 2bbe a8ea a43d 0425 7c3d 4706 02be
00000120: a78e 00be ccb6 983d 147f 2bbe 3631 d2bd
00000130: e2ca 023e 0d55 c4bc a420 633d 5c9a c9bd
00000140: 3396 e5bc 4db6 193d b572 47be 17ad 3dbd
00000150: 0be5 3d3d 2b9e e13d f8e9 3d3d 1daa 103d
00000160: 57f6 abbd 7d97 7dbd 1202 eabc 4c46 83bd
00000170: 7b77 1dbe 2d0a 2ebe 57ca 5c3d a729 3dbe
00000180: 241e cbbd 3226 173e 2b4e 2e3e 6c62 f6bd
00000190: 49a7 313e 8f2e 863d 35d3 233d 4a5d bbbd
000001a0: adc5 29bd bea0 2dbd 4f6e 3d3d 29b0 45bd
000001b0: 6b6e 1f3c 4ffc efbc 3e03 bc3d 1a78 043d
000001c0: 2e9f 273e be88 1e3e fa99 1b3e 2249 6fbd
000001d0: 96b5 8d3d 3d4e 0a3e af7c c93d bd1b 823e
000001e0: 67be 253e c84f f33d 5a30 cd3d 9749 153e
000001f0: 1d94 77bd e2a1 b7bb a5f1 043e 044d 483d
00000200: 318c 243e cc6f 293d d8a9 fb39 545a a0bd
00000210: b4d6 debc 4513 d8bc e094 0b3e bc73 96bd
00000220: d83b 2d3e 3ff5 f5bd 912d 98bd b76c 053e
00000230: 450a 12be cfae bebd db24 033e e791 e2bc
00000240: a241 06be 44a5 09be 9fb7 d0bc 1a23 b7bd
00000250: 5d2c 10be 8805 043e 8551 bc3d bcc6 413d
00000260: a463 243d 5efd 0abe 7a4e cd3c 5725 83bd
00000270: a34b 19be fda6 0a3d 1046 bd3d 9b4b 173e
00000280: 268a 253e 3647 0b3e d8f9 593d 9e50 7abd
00000290: 03cc 303e 8c7b ae3b 8c12 453e 7dc3 183d
000002a0: b923 ea3d 290e c63d 55e3 403d bd97 e63c
000002b0: f4bf 23be f870 093e f226 2fbd 1c44 ddbc
000002c0: a990 b23c 2c31 943d c3cc d9bc dda4 1b3e
000002d0: 20c8 ed3d 9789 003e 9369 a93d dc63 70bd
000002e0: c21b cd3d 35ed aebd 8b2b c63d 3348 43bc
000002f0: 662b 3dbd 3a5b cbbc d012 8bbd 5cc4 003d
00000300: 4155 54be 3416 b73d 7138 953c 8cde 3ebe
00000310: d638 283c 6c5f 20bc d276 9d3b 825a e43d
00000320: 9756 8abd d9c9 c23d a802 e3bd 7ae1 33bd
00000330: 5dc7 f03d 58f7 16be 293b 83bd 9bd8 01be
00000340: dca0 313d 36c1 21be 857e 703d c879 c4bd
00000350: 8cfc 803d 26ec 01bd fdd0 1b3d a61f 52be
00000360: 4323 173e eb08 e03d 83a6 cdbd a137 a63d
00000370: 11bd e5bc e35e 15be 81cc 293e c930 ce3d
00000380: 9bb0 80bc bcdc 6dbc 5fbd 0a3e ab1d 453d
00000390: 0fc5 e7bd fd49 c5bd fbb0 aebd 016d c93d
000003a0: 6ee7 ee3c 4e2d e4bd 6f2b 64bc df44 713c
000003b0: facb 873c 13f8 e73d 9d9a 1e3c f4a5 403d
000003c0: ba36 9d3d e174 90bc 2fcf 15bd 1300 c13c
000003d0: b466 4c3c f5d6 0f3e 36ea 1b3e 1899 8dbd
000003e0: aa03 163e 97b4 6b3d ea84 d9bd 14c3 e33d
000003f0: db9d 363d 88b9 5e3d 8f3e 92bd aae1 103d
-0.11803328 0.05881822 -0.091223255 0.14608128 -0.03469254 0.040467113 0.13008493 -0.062540784
0.11608359 -0.031862672 0.1430354 -0.10654625 0.17920424 0.03597956 -0.11762251 0.13931952
0.17182654 -0.11319589 0.0037647006 0.0889813 -0.04867674 -0.045365576 -0.02636329 0.11438
0.045799296 0.12923212 0.03391377 -0.018697457 -0.01908033 -0.053165056 0.14225249 0.10916131
-0.16335967 -0.07731563 0.1379399 0.11524251 0.12227128 -0.12520693 0.08468819 -0.059764445
0.035084218 0.18452854 0.10978074 0.040337976 0.19456865 0.20925426 0.0009471127 0.0031230676
0.08316753 0.07164457 0.02850585 -0.08904894 0.15654022 -0.04991504 0.07266943 0.16660517
-0.21582565 -0.12858893 0.0024577656 -0.079024315 -0.0064800465 -0.16217405 -0.010675708 -0.13338079
-0.16138619 0.047933258 -0.0917411 0.10656091 -0.16773774 0.0805257 0.06155874 -0.12697707
-0.12554418 0.07456741 -0.16747695 -0.102632925 0.12772706 -0.023966337 0.05545105 -0.09843895
-0.028025722 0.03752737 -0.19477351 -0.04630765 0.04636101 0.11016496 0.046365708 0.035318483
-0.08396595 -0.06191205 -0.02856544 -0.064098924 -0.1537761 -0.16996069 0.053903904 -0.1847292
-0.09917858 0.14760664 0.17022006 -0.12030491 0.1734897 0.06551849 0.039996345 -0.09148653
-0.041448284 -0.042389624 0.046247777 -0.048263703 0.009730916 -0.029295115 0.09180306 0.0323411
0.16369316 0.1548185 0.15195456 -0.058419354 0.069194004 0.13506408 0.09838235 0.25411788
0.16185914 0.118804514 0.10018988 0.14578854 -0.060443986 -0.0056040147 0.12982805 0.048901573
0.16069104 0.041366383 0.00048000994 -0.07829729 -0.027201988 -0.026376376 0.1363101 -0.07346293
0.1691736 -0.120096676 -0.07430566 0.13029753 -0.1426173 -0.09310686 0.12807028 -0.027657462
-0.13110974 -0.1344195 -0.025478182 -0.08942242 -0.14079423 0.12892735 0.09195236 0.04730867
0.040134087 -0.13573214 0.025061835 -0.064036064 -0.1497026 0.03385066 0.09241879 0.14774935
0.1616598 0.13601384 0.053216785 -0.06111204 0.17265324 0.0053247865 0.19245356 0.037295807
0.11432595 0.096706696 0.0470918 0.028148526 -0.15991193 0.13422 -0.04276175 -0.027010016
0.021797495 0.07235941 -0.026586896 0.15199609 0.116104364 0.12552486 0.0827209 -0.058688983
0.1001506 -0.085413374 0.09676274 -0.011919069 -0.046183966 -0.024823774 -0.067906976 0.031437263
-0.20735647 0.08939782 0.01821539 -0.18639582 0.010267457 -0.009788375 0.0048054243 0.111500755
-0.06754797 0.09511156 -0.11084491 -0.043916203 0.117567755 -0.14742792 -0.06407768 -0.12680285
0.043366298 -0.1579636 0.05871441 -0.095935404 0.062981695 -0.03171935 0.038041104 -0.20519885
0.14759545 0.10939201 -0.10041525 0.08116079 -0.028044255 -0.14586978 0.16581918 0.10067899
-0.015709212 -0.014517959 0.13548802 0.048123997 -0.11316883 -0.09633253 -0.0852985 0.09835244
0.029163089 -0.11141454 -0.013926371 0.014725893 0.016576756 0.11326613 0.009680417 0.047033265
0.07676454 -0.017633857 -0.03657454 0.023559606 0.012475658 0.14046843 0.15226063 -0.06913966
0.14649835 0.05754527 -0.106210545 0.111211926 0.044584136 0.054376155 -0.07140838 0.03537146

weight_hh_l0 f4 [120, 40]
00000000: c7af 6e3d da6a 0b3e 9430 673a 388b 413a
00000010: b8b0 09bc c0f3 13bd feae 2f3d db7a e9bd
00000020: cd15 4e3d a625 423d 6a29 ffbd 1d06 1dbd
00000030: 0847 0dbe f52f ea3c 9ade 1cbe 487e 8a3d
00000040: 4a46 4abb 6ad2 5cbd 26b1 f13d e38d e33d
00000050: de1c 033e 3c18 a7bc 556d ea3d baad 2e3e
00000060: f203 303e 23be 0fbd fddd 273e 8703 ea3d
00000070: 2500 af3a f437 2cbb 8d7e ff3d 7660 5b3d
00000080: 371f 8bbd 28c3 a0bd c734 403d e8d5 143d
00000090: 3f67 5a3d 177d ddba ff3c a9bd 9798 84bd
000000a0: 4c3b 32bd 9444 c0bd 6bfc 933d 1c31 e53d
000000b0: b48b b43d 305e aa3c 3cfd dfbb 59b2 5a3d
000000c0: 20fe 8bbd ad71 b9bd 6a30 393d fcb6 0f3e
000000d0: e010 0fbe 6484 16bd 6369 863d d71a 87bd
000000e0: 2cdd 02be 6789 3b3b 6a3d 17be 348f afbd
000000f0: 291e 9fbc 5393 51bd 405a 613d 372f f03d
00000100: 5b7e e0bd dafd 2e3c 06df 75bc fd94 8e3b
00000110: f6aa 073e 6228 4dbd f8c1 9a3d fb49 09be
00000120: 2ed4 b5bd 2f29 b9bd e2de fd3d a47a 90bd
00000130: d018 273e 6615 78bd 931f 153e 535b 03be
00000140: 454c dfbd 9d86 2abe 46bf cd3b 78b2 883d
00000150: 26c1 57bc e740 3f3e 6dc0 bcbd fa0b 693d
00000160: c7b0 06be 5433 e3bd fbe2 583d 2004 303d
00000170: 7248 c6bc 1923 01be 0c8d 893d 39ed b93d
00000180: c35f d9bd 4e78 78bb 6f9d eb3c 1a64 3c3d
00000190: df20 123e 7833 5b3d e135 f2bd b428 a03d
000001a0: 800e 06bd 61f1 86bd b9ac f73d 81e6 b7bd
000001b0: 89c3 35be 6229 0ebe db68 5c3d 046a 6d3d
000001c0: 5844 1abe 18f7 73bc 2cad dc3d 7903 f2bd
000001d0: d0e8 41bc 5256 87bd 8b8e 763c a487 35be
000001e0: d2bb dc3d 21bd dbbd 7638 db3d d4db e13d
000001f0: d02e 50be 810c 45bd e18a 0cbe cf3f 48be
00000200: 26d6 bb3d f940 0d3d 6007 ea3a 03a2 c43d
00000210: 97f5 3c3e 30b2 03bc 1692 4fbd a4d1 36bd
00000220: b5be 85bd 6ae4 d8bd 33d4 243d ab3a 2ebc
00000230: 79fd 4fbd 139d d8bd 1f2d 153e cf47 f03d
00000240: 8768 1d3d 395d 10be 8c0a 4a3e d9a6 323b
00000250: d3cb 6d3d 9845 b43d c961 4bbe c37f 96bd
00000260: ccba df3d 98a4 eabc 1113 24be e69a 7ebc
00000270: b04b d73c 8d6d 003e b550 f8bd e60d fa3d
00000280: 96c1 16be 671b 003e 2773 85bd 3687 733d
00000290: 9a35 1ebe 2d7d 3fbe f348 143e 122c 0fbb
000002a0: 22a5 40be cd35 05bd 1a37 7bbb 8466 8b3d
000002b0: e8de c2bd cf31 74bd c7c6 4c3e ca10 bcbd
000002c0: 2a58 a93d 1534 43bd 0759 cc3d 85ca 9dbd
000002d0: aa58 2cbe 985e 69bd 3b4e f13d f134 36bd
000002e0: af2e 93bd f593 ae3d a895 473c 97a8 09be
000002f0: af00 42bc fc5e 663e 7651 353e c745 7abd
00000300: c4cc 0f3e 2984 c63d 1ae3 dc3d e117 3bbd
00000310: e530 25be d61a e93d 5613 fa3d 0da0 4f3d
00000320: c8a3 653d 5e9f 013e 008e 593d 3a08 083e
00000330: 4035 ae3d f5fb d5bd 7d41 4dbd 5965 92bd
00000340: f30c 113e 8870 bfbd 5023 4c3d 6cc6 52bd
00000350: 7385 36be 5d25 383e 16df 383e 8cc5 483d
00000360: 5248 613c f2eb 00bc d1a2 113e 1a62 ff3d
00000370: 16d6 633d 1369 353c 5515 553c 5183 053e
00000380: e5cc 95bd 67f7 a63d a794 b23d 43a0 43be
00000390: 0bdf a13c 8e96 cebd 8a48 00be 3e42 773d
000003a0: 2676 ea3d 1280 2b3c 627a 77ba 1f14 893c
000003b0: de8d 09be 58ff 89bc 4113 da3d 92c2 b93d
000003c0: 0222 48bd 9316 983d 50da 47be dce1 ba3d
000003d0: 7a34 d33d 847e 4cbb b73f f93d 1f2b 7abd
000003e0: b650 c2bd 2870 00bd ca3a cf3c 4f01 33be
000003f0: 8aa5 e1bd 3099 a939 7891 a53c 50cd c43d
0.058273103 0.1361498 0.00088191894 0.0007383111 -0.008403949 -0.03612113 0.042891495 -0.11400386
0.05031376 0.047399186 -0.12459071 -0.03833591 -0.13796628 0.02858732 -0.15319291 0.067623675
-0.003086465 -0.053911604 0.118013665 0.11111047 0.1280398 -0.020397298 0.11446635 0.17058459
0.17189005 -0.035093438 0.16393276 0.11426454 0.0013351484 -0.0026278468 0.124753095 0.05355879
-0.06793063 -0.07849723 0.046925332 0.03633681 0.05332112 -0.0016898242 -0.08263587 -0.06474417
-0.04351358 -0.0938808 0.07225879 0.111910075 0.08815709 0.020796865 -0.006835608 0.05339274
-0.0683558 -0.09054885 0.045212187 0.14034647 -0.13971281 -0.03674735 0.0656307 -0.06596916
-0.12779683 0.0028615834 -0.14769521 -0.08572236 -0.019423561 -0.05116589 0.05501771 0.117277555
-0.109616004 0.01068064 -0.015006786 0.004351257 0.1324881 -0.05008734 0.07556528 -0.13407128
-0.08878361 -0.09041058 0.12396027 -0.07054642 0.16318059 -0.060567282 0.14562826 -0.12827806
-0.10903219 -0.16652913 0.006278905 0.06674665 -0.013168609 0.18677102 -0.0921639 0.056896187
-0.13153373 -0.110937744 0.05295084 0.042972684 -0.024204466 -0.12611045 0.06716356 0.0907845
-0.10613968 -0.0037913504 0.028761594 0.0459939 0.14270352 0.05351588 -0.11826683 0.078202635
-0.032728672 -0.06589008 0.12093491 -0.08979512 -0.17750372 -0.13882974 0.053810935 0.057962433
-0.15065134 -0.014890455 0.107752174 -0.118170686 -0.011835292 -0.06608261 0.015048633 -0.17727524
0.107780114 -0.10729433 0.107041284 0.11028257 -0.20330358 -0.048107628 -0.13724853 -0.19555591
0.09171705 0.03448579 0.0017854981 0.09601214 0.1845306 -0.008038089 -0.050676428 -0.044633523
-0.06530515 -0.105904415 0.04024143 -0.010634105 -0.05077884 -0.105768345 0.14567994 0.117324464
0.038429763 -0.14098062 0.19730586 0.0027260093 0.05805571 0.088023365 -0.19861521 -0.07348587
0.109243006 -0.028642938 -0.16022898 -0.01553986 0.026281208 0.1254179 -0.12124769 0.12209682
-0.14722285 0.12510453 -0.06516104 0.05945512 -0.15450135 -0.18700095 0.14480953 -0.0021846336
-0.18812993 -0.03252201 -0.0038332404 0.06806663 -0.09515172 -0.059617814 0.19997703 -0.0918289
0.08268769 -0.04765709 0.09977918 -0.07704643 -0.16830698 -0.056974977 0.117824994 -0.044484083
-0.071866386 0.08524314 0.012181677 -0.13443218 -0.011840983 0.22497171 0.17706856 -0.0611017
0.14042956 0.09693176 0.10785504 -0.04567707 -0.16131933 0.11382072 0.12210719 0.050689746
0.056064397 0.1265845 0.053113937 0.13284388 0.085062504 -0.104484476 -0.050111283 -0.07148237
0.14165096 -0.093476355 0.049838364 -0.05145876 -0.17824344 0.17983003 0.1805385 0.04901652
0.013750153 -0.007868754 0.14222266 0.12469883 0.05562409 0.011072415 0.013005574 0.13038374
-0.07314471 0.08152657 0.087197594 -0.19104104 0.019759675 -0.1008731 -0.12527671 0.060365908
0.11448316 0.010467546 -0.00094405387 0.016733227 -0.13433024 -0.01684539 0.10648204 0.090703145
-0.048860557 0.07426181 -0.19516873 0.091251105 0.103127435 -0.003120334 0.12170356 -0.06107628
-0.09488051 -0.03135696 0.025296587 -0.17480968 -0.11017902 0.00032348325 0.020210966 0.09609473

bias_ih_l0 f4 [120]
00000000: 065d 313c 5895 8b3d f802 3ebe 6d29 bd3d
00000010: 198a ce3d c467 413d c7b5 163e 31ab 34be
00000020: f450 233e 7fcb ae3d f5f4 78bd 5eb4 013e
00000030: 3b8e b4bd e0aa 28be 163e 323d e8b5 79bd
00000040: 6b5f bb3d eae4 27be cd41 b8bd 8de2 18be
00000050: 24ce bcbd 2198 713d 1d44 0fbe 0993 1b3e
00000060: 7118 223d 20c9 7cbd 92dd babd 7810 053e
00000070: 530e 45bd 646f 143e 941c 66be 9af2 733d
00000080: 91a7 1d3e cb2d d03d 4a73 cdbd fa5f 813b
00000090: 9e4f 8fbd 0181 c1bc 6381 22be ebaf 9b3d
000000a0: 2f2b d53c 1e56 f3bd 1870 b7bd b969 48be
000000b0: 4fa2 0fbe c9f9 783d b86f 0bbe c6e3 703d
000000c0: f752 33be 46e8 6ebd e4a5 e9bd f2c2 d13d
000000d0: e904 503d e6f7 04be b1d4 06be f18f 3dbe
000000e0: 0b50 25be 1c46 9fbd ac7d 3bbe 204e 2dbe
000000f0: d652 2ebc b1c9 65bd eff6 a63d a299 7cbd
00000100: 0244 1dbe b099 eabd d0c4 4cbd 4eda 35be
00000110: 9d79 febd cee8 0abe 1298 023e 9cb2 2b3d
00000120: 2e23 2f3c c08e 0abb 86b4 493d 55b1 22be
00000130: b071 08bd b854 1dbd 93fa b4bd 7463 d0bd
00000140: 807c 303d 3aaf 483d 92c5 ce3c 7860 c33d
00000150: 24b6 273d ef14 a3bd 3764 083d a455 98bd
00000160: 304e 8ebd 6efe c73d 74e7 d83d d2cd 553d
00000170: c85d 173d e0c4 3a3e 0903 0bbd 7b8b 2ebe
00000180: 28e5 f13d 9b06 31be 5b7a 8dbc dee3 17be
00000190: 1f59 eebd 70cf 3f3e 258f aeba d13b cfbd
000001a0: 3512 c9bd 54c1 053e f344 81bd 4ced bebd
000001b0: 3800 063e 04d2 49bd f290 90bc 991e 3b3e
000001c0: 8060 3cbd 0bea 053e 5179 0c3e 1876 8a3d
000001d0: e001 f1bd f554 05be 0433 30be 082f a63d
0.010825401 0.068155944 -0.1855582 0.09236417 0.10084934 0.0472181 0.1471778 -0.1764343
0.1594885 0.085349075 -0.060780484 0.12666461 -0.08816191 -0.16471434 0.04351624 -0.060964495
0.09149059 -0.16395918 -0.089969255 -0.14930172 -0.09219006 0.058982972 -0.13990827 0.15192808
0.03957409 -0.061715245 -0.091242924 0.12994564 -0.048109364 0.14495617 -0.22471839 0.059557535
0.15395953 0.10164984 -0.10031755 0.003948209 -0.06997608 -0.023621084 -0.1586967 0.07601913
0.026021568 -0.1188166 -0.08956927 -0.1957158 -0.1402676 0.06078509 -0.13616836 0.05881097
-0.17512117 -0.058326982 -0.11408594 0.10242261 0.050785933 -0.12985191 -0.13167073 -0.1851194
-0.16143815 -0.07777044 -0.18309659 -0.16924334 -0.010639867 -0.05610055 0.081525676 -0.061669953
-0.15357974 -0.11455095 -0.049992383 -0.17759058 -0.1242554 -0.1356537 0.12753323 0.041918382
0.01068954 -0.0021142215 0.049244426 -0.1588796 -0.033311546 -0.038410872 -0.08836856 -0.10175219
0.043087482 0.048995234 0.025240693 0.09539884 0.040945187 -0.07962977 0.033298697 -0.0743821
-0.06948507 0.097653255 0.10591021 0.05219824 0.03695467 0.18239164 -0.03393844 -0.17045395
0.11811286 -0.17287676 -0.017270258 -0.14833018 -0.11638092 0.18731475 -0.0013317807 -0.10118831
-0.09817926 0.1306203 -0.06311979 -0.093226045 0.13086021 -0.049272552 -0.01764724 0.18273391
-0.045990467 0.13077562 0.13718154 0.06760806 -0.11767936 -0.1302069 -0.17206961 0.08114439

bias_hh_l0 f4 [120]
00000000: 13d9 733d 05a6 cb3d ee2c 0c3d af24 d7bd
00000010: d29f bf3d 046f 9dbd 5fa0 213e a71a be3d
00000020: eb46 cc3d cfe5 ae3d 0457 fd3d 55c8 35be
00000030: f77c 9e3d 1e42 2cbe 0141 863c e75b 3cbc
00000040: c7ff 793d 6b20 11be 8dda dfbc f247 08be
00000050: 013f 673d a663 47bd 5140 1ebe aa86 5a3d
00000060: dc47 0dba b1d9 3bbe 4ebb d13d 3432 153e
00000070: e5f5 36bd 4fc9 fb3d 09ae 16be 2789 44bd
00000080: 1321 a4bc 8bfb 193d 3062 81bd c2d6 273b
00000090: 99aa 083e 9a5b 1e3e 602f 1bba 15cf 48bd
000000a0: 2080 c4bd c578 f9bc 2a22 113d 4af1 11bd
000000b0: c62a 39be bfcb 943d 8d9f 32be 7b6c f3bd
000000c0: 569d c7bc fc0c ebbd 7a3b 223d f0bc 523d
000000d0: 0c55 243e bb69 37bd 1768 65bd f611 0abe
000000e0: 675c c1bd c4dc 4c3d ce28 efbd ccc2 33be
000000f0: 6cab fbbd 9265 e93c ad22 e43d c3d6 983d
00000100: bef2 adbd 645c 883d 995a d8bd 2948 21bd
00000110: c7ed 26bc 22f1 32be cab7 a3bc f979 12be
00000120: 558f e83d 2345 62bd d629 14be c34e 06be
00000130: b206 d83d 64ed 02be 2e04 2cbe 199e 66bd
00000140: 2e65 1bbd 1a7c 483d e2e7 be3c ac8b d7bd
00000150: d5f6 19bc fe60 1bbb 8286 1a3e 8acc e93d
00000160: 7554 d6bd e5e3 39bd b160 2c3e f5d9 bdbd
00000170: 8b9a 58bd ab0f 443d 761a 83bd f414 dcbc
00000180: 2a03 c63d f9b6 743d 2e0a 3bbe 8312 c7bc
00000190: e11c 57bd 07c9 52bc ace6 90bd 16dc f5bd
000001a0: a6ec b8ba e5e1 bf3d 5377 f5bd d02b ce3d
000001b0: 9d44 d23d 3af2 cabd 1318 a2bc 6755 6dbd
000001c0: d3f6 02be 6bbe a53c f271 05bd 2c22 ab3d
000001d0: 20e4 c1bc e4b7 0fbd 7136 56bd ceea 4e3a
0.05953319 0.09943775 0.034222536 -0.10505044 0.09356655 -0.0768719 0.15783833 0.09282427
0.09974464 0.08539926 0.123701125 -0.17752202 0.07738679 -0.16822097 0.016388418 -0.011496521
0.061034944 -0.14172523 -0.027325893 -0.13308695 0.05645657 -0.048679017 -0.15454222 0.053351082
-0.0005389431 -0.18344761 0.10240804 0.14569932 -0.044668097 0.12294256 -0.14714827 -0.04798236
-0.020035302 0.037593406 -0.06317556 0.0025610183 0.13346328 0.1546463 -0.000591984 -0.049025614
-0.095947504 -0.030453095 0.035432972 -0.0356305 -0.18082723 0.07265424 -0.17443676 -0.118859254
-0.024367016 -0.11477086 0.039607503 0.051449716 0.16048068 -0.044778567 -0.05600747 -0.13483414
-0.094414525 0.050015226 -0.11677705 -0.17554778 -0.122885555 0.028490815 0.111394264 0.074628375
-0.08493565 0.06658247 -0.10564155 -0.039375458 -0.0101885265 -0.17474797 -0.019985098 -0.14304341
0.113554634 -0.055241715 -0.14469084 -0.13115983 0.10548152 -0.1278587 -0.1679847 -0.056303117
-0.03793829 0.048946477 0.02330393 -0.10524687 -0.009397228 -0.0023708935 0.15090373 0.11415966
-0.10465328 -0.045383353 0.1683376 -0.09270088 -0.05288176 0.047866505 -0.064015314 -0.02686546
0.09668572 0.05974481 -0.18265602 -0.02430082 -0.052517775 -0.0128653115 -0.07075247 -0.12004869
-0.0014108613 0.09369258 -0.1198565 0.1006695 0.10266993 -0.09909482 -0.01978687 -0.057942774
-0.12789468 0.0202324 -0.03257937 0.08356127 -0.023668349 -0.03508748 -0.052298013 0.0007893265

weight f4 [40, 40]
00000000: 1f68 9f3d 7378 7d3d bb2a 93bd bdd5 a23d
00000010: ba4d 3c3d 5732 91bd f9a4 3b3d 265e 023d
00000020: d073 363e 1089 1f3e c9fc 38bd 26b7 89bd
00000030: e79d 873d 832e 18bc 0f91 d63d 51e3 d33c
00000040: 3313 d23c 20b1 c93d 21a9 1cbd bf62 2c3e
00000050: 5585 123d 253c 59be 0634 fa3d c2ef dc3d
00000060: bed8 05be c937 05be 82f4 83bd 3a5f 9dbd
00000070: c1b6 1abe 898f 193e 6891 06bd 5561 93bd
00000080: af5c 88bc a026 9d3c ff93 da3c 89f7 a83c
00000090: 8745 84bd cad6 c4bd 5ef7 583c 92b5 aebd
000000a0: d3f1 00bd fb6e 3b3e ff4e 5abe 0237 2b3c
000000b0: c1c5 263e f03c ef3d b824 0ebd bc9d 4a3e
000000c0: 8545 7abd 5e88 163e c6d7 4d3e 3476 02bd
000000d0: a311 04be 8d47 ca3d 89fe 9cbd 91e7 f9bd
000000e0: 13cd 9e3d 7769 693d 0587 4c3e fb86 8cbd
000000f0: e042 74be 4a22 04be 1831 adbd 1029 a4bd
00000100: 8889 18be 42c2 5d3e d8fd 6abc 2c1b 6bbe
00000110: 6d9d e43d 24e5 55be 8d0c 433d 6fd6 953c
00000120: 23dd 32be d52b 1d3e 8ff6 b9bc 4bb5 453e
00000130: 06b8 0dbe 94fb 54be 8391 29be ead0 733e
00000140: e2d0 8abd 02ce c4bd ee53 cebc 750c f3bd
00000150: 122a cfbc 6420 53bd f708 4fbe 70e2 453d
00000160: 7e82 083e ca88 c6bd e8f9 58be ad8e 483e
00000170: c84e f9ba 9020 8b3d cdbd 44be a070 1b3e
00000180: 2234 913d 75e9 69bd 9898 9ebd 3fc2 983d
00000190: 84be bdbc d12a d4bd 6048 1abd 8cb3 173e
000001a0: 8042 713c 5679 ddbc 37a5 b1bd f0aa babc
000001b0: f9a1 0cbd c95f 0bbe 862b 05bd 0979 50bd
000001c0: 8d4b e8bd 7b95 b63d 2391 21be 9cbd 083d
000001d0: 1d0b 093e ca23 813d 9e64 d1bc fd27 d9bd
000001e0: 0620 fbbd 368e d93c 7fa7 073c 3d6b dcbd
000001f0: a2f1 3abd 6ff2 b7bd e891 2c3c 1eec ccbd
00000200: 3ad0 f33d 33f0 e93c da79 643d 5d85 f13d
00000210: bc43 69bc 38ca 96bd bfd9 04be cf9b 8d3b
00000220: 31fb 733d ea59 843d 5fd7 c83c 04c2 c2b9
00000230: e210 bf3d bb68 24be 8d2c 1dbc db01 b9bd
00000240: 5197 fd3d 975d a8bd 3a7e 313d 8c16 80bb
00000250: 93ee bbbc a394 87bd 495f 07be 9144 ddbd
00000260: 3293 92bd c2bb f4bd cef8 4dbc da32 013e
00000270: 76ba 57bd 4723 b9bd a626 7ebd eaa6 08be
00000280: 3e7b 18be 8ac9 a83c ccb5 d83d 2e36 233e
00000290: 99fb 9e3d c4c2 a63c 16d3 133d 47f4 e4bd
000002a0: d44c 97bc dca6 233d d070 dcbc 679e 82bd
000002b0: ff43 013e 369e cc3d c556 493d 3475 013d
000002c0: ab91 ba3d 4a44 f6bd 153c e33d 8773 19be
000002d0: fc55 b13c 7d86 69bd 1c50 64be 0412 0dbd
000002e0: d99b c73d 4b24 04bd e3df 093e 0814 91bd
000002f0: a587 11bd 4f20 c0bd 71ba fa3d 7502 813d
00000300: 9a93 86bd 0da8 4a3d dc4d 843d 7eea 253e
00000310: 7682 2c3e 42ef ccbd f601 013d 94d5 7dbc
00000320: 0a78 233e 3c26 3b3e 461b 2dbd ac3d 333e
00000330: aec7 383e 7fe7 61bd 9da5 483d cc6c 7bbd
00000340: d67c 37be 1b11 553e 8e72 633e b89e 1c3d
00000350: 9479 44bd 48e1 663e a4e7 6a3d 0584 6ebe
00000360: 7005 cb3d 0100 39be a24b e9bd 23e9 6ebe
00000370: 6e22 bbbc 3779 d93d 4f73 93bb 3a44 95bc
00000380: 2a10 e2bc 87f2 0e3e 9325 4cbe 747a 0cbe
00000390: e277 773e 9e80 28be 284d 7b3c 18db 563e
000003a0: 5ab2 48be ddba 1f3e 8592 5f3e 1e2a 793d
000003b0: 1961 7d3d d7d5 53be e87c 35be 8263 b53c
000003c0: 9efc 6fbd a985 e73d a998 0dbc 4859 32bd
000003d0: 5cc8 bbbd d9f2 4e3d 68a2 1bbe a271 a83d
000003e0: 8f90 ffbb 4ac2 14be 83c7 083c fcd0 05bd
000003f0: d45e 5ebd 9f82 bbbd a6e4 843d 2891 f53d
0.077835314 0.061882447 -0.071858846 0.079509236 0.045972563 -0.0708968 0.045811627 0.03182807
0.17817616 0.15579629 -0.04516295 -0.06724386 0.06621914 -0.009288433 0.104768865 0.025865229
0.02564392 0.09848237 -0.03824723 0.16834544 0.035771687 -0.2121435 0.12216954 0.10787918
-0.13070962 -0.13009562 -0.064431205 -0.07684179 -0.15108778 0.1499616 -0.032853514 -0.07196299
-0.016645757 0.019183457 0.026681898 0.020625846 -0.06458574 -0.0961128 0.013242571 -0.085307255
-0.03148062 0.18304054 -0.21319197 0.010450127 0.16286375 0.11681545 -0.034702986 0.19786733
-0.061101455 0.14700457 0.20101842 -0.03185101 -0.12897353 0.098769285 -0.07665736 -0.12202371
0.077539586 0.056985345 0.19973381 -0.06861683 -0.23853636 -0.12903705 -0.084566295 -0.080156446
-0.14896214 0.21656135 -0.014342748 -0.22959584 0.11162839 -0.20888191 0.04761939 0.018290726
-0.1746717 0.15348752 -0.022700576 0.19307439 -0.1383973 -0.20799094 -0.16559415 0.23810163
-0.067781225 -0.09609605 -0.025186505 -0.1186761 -0.025288615 -0.051544562 -0.20218264 0.04831165
0.13331029 -0.09694059 -0.21189082 0.19585676 -0.0019020671 0.0679332 -0.19213028 0.15179682
0.07090022 -0.057107408 -0.07743949 0.074589245 -0.023162134 -0.10359729 -0.03766668 0.14814585
0.0147253275 -0.027035397 -0.0867409 -0.022786587 -0.034334157 -0.13610758 -0.03251221 -0.050896678
-0.11342535 0.0891523 -0.15778022 0.03338395 0.13383146 0.06305654 -0.025560673 -0.1060333
-0.12261967 0.02655707 0.00827968 -0.107626416 -0.045640595 -0.089817874 0.010532834 -0.10005973
0.119049504 0.028556919 0.05578027 0.11793015 -0.014237341 -0.07362789 -0.12973689 0.0043215523
0.059565727 0.06462462 0.02451676 -0.00037147116 0.09329392 -0.16055577 -0.009593141 -0.09033557
0.12382377 -0.08220976 0.04333327 -0.003908938 -0.02294091 -0.06620147 -0.13219942 -0.10804094
-0.071569815 -0.119498745 -0.012571527 0.12617055 -0.052668057 -0.09039932 -0.062048577 -0.13344923
-0.14890763 0.020603914 0.1058155 0.15938637 0.07762832 0.020356543 0.03608998 -0.11179405
-0.018469252 0.03995405 -0.026909262 -0.06377869 0.12623595 0.09991114 0.049155015 0.031605914
0.09109815 -0.12024744 0.11095444 -0.14985476 0.021647446 -0.057013024 -0.22296184 -0.03444101
0.097465225 -0.032261174 0.13464312 -0.07083899 -0.03552975 -0.093811624 0.12242592 0.06299297
-0.065711215 0.049476672 0.06460163 0.16202733 0.16846642 -0.10006572 0.03149601 -0.0154928155
0.1596376 0.18276304 -0.042262338 0.17503995 0.18044922 -0.055152413 0.048986066 -0.061383054
-0.17918715 0.20807306 0.22211668 0.038237303 -0.04796751 0.22546875 0.057349816 -0.23292549
0.099131465 -0.18066408 -0.11391379 -0.23331122 -0.022843566 0.10618823 -0.00449983 -0.01822101
-0.027595598 0.13959704 -0.19936208 -0.13718587 0.24166825 -0.16455314 0.01533822 0.20982015
-0.19599286 0.15598626 0.21833237 0.06083118 0.061860178 -0.20687042 -0.17723429 0.022142176
-0.058590524 0.113047905 -0.008642354 -0.043542176 -0.09169075 0.050524566 -0.15198672 0.08224799
-0.007799215 -0.1452724 0.008348349 -0.032670006 -0.054289654 -0.09155773 0.06488924 0.11990577

bias f4 [40]
00000000: 6374 363c 649d 2cbd e022 0cbe c13f f53d
00000010: fb1f 5dbd 1a71 373e 8efc 31bd aa40 33be
00000020: 6a38 183e f5d6 5a3d b782 4fbd a52e 1c3d
00000030: 9e40 f23d 09d0 d3bb 8ebd 09be dcb0 2b3e
00000040: a393 9dbd 4cc2 59be 7df8 d0bd 9de6 3d3e
00000050: ccdd e43b 3a78 a939 63af 9c3c 09bf 9a3d
00000060: 4542 26be 77e9 99bd 6341 8d3b 03f5 94bd
00000070: 9f28 c5bd bfb0 0bbe 8257 773d 79dc ccbb
00000080: 3de2 083d 3c0b 643c 0f48 16bb bce0 2c3c
00000090: 5be3 3a3e e95f 6bbc f8a8 073e 5706 d7bb
0.011136147 -0.042142287 -0.13685179 0.11975051 -0.053985577 0.17914239 -0.043453746 -0.17505136
0.1486527 0.053427655 -0.05066177 0.03813042 0.11828731 -0.0064640087 -0.13451216 0.16766685
-0.07694175 -0.21265525 -0.102036454 0.18545003 0.006984448 0.00032323768 0.0191266 0.07555968
-0.16236217 -0.07515233 0.004310773 -0.07273295 -0.096268885 -0.13641642 0.06038619 -0.0062518683
0.033418883 0.013918694 -0.0022931134 0.010551628 0.18250792 -0.0143661285 0.1324805 -0.006562035

weight f4 [40, 40]
00000000: aeb1 383e 48eb c7bc 58be 2c3e b4c4 27bc
00000010: 4077 203e df25 073e fd31 4bbc dca8 0d3e
00000020: adf8 bb3d 7f24 5a3e 1f2b 613c d1a8 243e
00000030: 49ad 363e 842a 633a 6e61 02be eb95 ae3d
00000040: f1eb 353e 623a 8ebd 8dfe 953d cea0 463e
00000050: 82cb 2d3d 8dcf 4a3e d783 3fbd b181 cbbc
00000060: 5aab 32be aaa5 8abd 1ccd 73bd 9ec5 bf3d
00000070: 8af9 9dbd b948 083b 256f 3d3e 6346 573d
00000080: 6419 023d 2494 d63b bf94 363e bb41 0a3e
00000090: 1ba4 613e 08f8 7ebd e937 2bbb 0f67 4abd
000000a0: 8ed8 103c 759f c6bd 93be f8bc 93ce b53d
000000b0: a052 15be 15f6 e6bd f79c 5abe ba02 923d
000000c0: 73c7 b63d 4a31 22be 1d8b a3bd 2cd6 f6bc
000000d0: a64c b63c 9aba 4a3d 8d87 f33d c004 72bd
000000e0: 42b9 ad3c 7d5a 443e 4c27 a93d e521 d3bd
000000f0: d15a 6b3c 0740 fa3d f4e7 183d a333 46bd
00000100: 9cf0 273e cb2c 94bc 1704 ab3d 2d60 2fbe
00000110: f19a ecbd db39 d43c c40a 0fbe 7055 e53d
00000120: 9e9b 4c3b 16ec c0bd b4b5 813d 806e b03d
00000130: a32a 183d 1c01 a43d 957a 2f3d ec86 77bd
00000140: b871 ab3c 0666 293d 1aae 203d 0142 ea3d
00000150: ebf6 d03d 6c76 0abd 1cc8 c4bd 6329 30be
00000160: 3ba5 bbbc 8d5d f43d b472 87bc fc08 9bbc
00000170: 4b15 713c acba cb3b 1c3a 0c3c 7134 7b3d
00000180: b4a7 e53d 8c8a 83bc daa7 0d3e 6755 143e
00000190: 4dd3 3bbe d4a6 de3d 87cf bfbd f2fe 44bd
000001a0: 51e7 1cbe b08a 2dbd b0a8 143d 3eec eabd
000001b0: 908c db3d f8f4 fabb c0e2 07be 1d4f 82bd
000001c0: d41b d33c 5118 84bd 1653 ebbd ef98 763d
000001d0: 1b5b 7e3d 3448 bcbd c19b e5bd 906e 3ebe
000001e0: aa19 023d eca4 b83d 5fa1 143d 9b36 913d
000001f0: c062 313d 1af4 6d3e 6da4 16bd a768 a3bd
00000200: c030 77bd be39 6ebd 567e 3d3e e0a7 313c
00000210: 65fc 783d bbe1 723d 6327 7c3d f75e 223e
00000220: 2cb3 123e 2f18 e9bd ab1f f239 0ade 5d3e
00000230: f875 b1bd 49b0 f03d a67f ef3c ca53 3a3d
00000240: f050 8bbd 57d3 a23d 5c10 49bd 5745 97bd
00000250: 201a 98bd 78e3 aa3a 1bea 223e b1fd 643e
00000260: d61f 5c3c 654f ca3c df59 c23d 82f4 2a3e
00000270: 7f70 263e 7eec c1bd 931b 033d 5e80 45bd
00000280: a1a6 083e 9b1f 1b3e e6b9 94bd fc6a d6ba
00000290: 5a47 343d 0dd1 8d3d 88af 0b3e a263 ba3c
000002a0: 133b 173e 8383 1abd 201a 2e3e e8d3 4c3e
000002b0: 0c50 a03c ad16 dfbc d5db 1dbc 5e49 fc3d
000002c0: c0f5 2e3d 2878 943d d941 cf3d a189 f93d
000002d0: e11d e0bd fb9a 16bd 9cfc 283d 63d7 b1bd
000002e0: 56d8 0cbe 4cbf 4fbc 1960 adbd 1242 d1bd
000002f0: dfc2 0b3e 0ac9 12bc 77b0 afbd f330 4c3e
00000300: d039 ab3d 1e28 a0bc 02b0 97ba 9eb3 9ebd
00000310: 6bfa b63d c812 7fbd f3c5 203e 29cd 04be
00000320: 9246 923d d485 933d 212d 1d3e 5011 0b3e
00000330: 9ee7 c53d 1f6c fa3d ac78 bb3d 8811 4b3e
00000340: e2be 003e 5b9a 8d3c 2821 673d 65dc 2b3e
00000350: dff7 3e3c 78e8 a93d fc0f d9bb 4250 e63d
00000360: 977d ecbd 0b8f 98bd da59 ddbd 7feb 1d3e
00000370: c5a9 003e 0daa 7b3d 0b3a df3d e9f0 64bc
00000380: f852 52bd 4d6a c03c 5ba4 053d 57ad a93d
00000390: 173c c73d 2fc0 483e fa79 f13d bd4e 36bd
000003a0: af40 c0bd 6307 aabd dde4 f3bd e9da 763b
000003b0: 0fa0 123e 39b5 483d f4ca 17be fb39 86bd
000003c0: 2c20 e9bd 71d4 95bd 5820 1b3e 89a6 25be
000003d0: 0109 b3bd e404 20be ac93 5abc 7287 4a3e
000003e0: 01e7 1abe 50fb c3bd e275 3cbc 9a32 40be
000003f0: c0d2 88bd 59ce 953d 6741 a5bd 6952 22be
0.1803653 -0.024404183 0.16869485 -0.010239769 0.1567049 0.1319804 -0.012402055 0.13833946
0.091782905 0.21302985 0.013743191 0.16080023 0.1783954 0.0008665698 -0.12732479 0.08524688
0.17765786 -0.069447294 0.07323942 0.1939728 0.04243041 0.19805737 -0.04675659 -0.024842115
-0.17448178 -0.06769879 -0.05952178 0.09363864 -0.077136114 0.00207953 0.1849943 0.05255736
0.031762496 0.0065484215 0.1783018 0.13501637 0.22035258 -0.06224826 -0.0026125854 -0.04941469
0.008840693 -0.09698383 -0.03036431 0.088772915 -0.145823 -0.11277405 -0.2134894 0.07129426
0.08924761 -0.15839115 -0.07985518 -0.030131422 0.022253346 0.049494363 0.11891089 -0.05908656
0.021206502 0.19175144 0.082594484 -0.10309199 0.014364914 0.122192435 0.037330583 -0.04838909
0.16400379 -0.018087765 0.083503895 -0.17126532 -0.1155299 0.025906494 -0.1396895 0.111979365
0.0031220685 -0.0942003 0.06333485 0.08614826 0.037150037 0.08008024 0.042841513 -0.060431406
0.020928249 0.041357063 0.039228536 0.114383705 0.10203346 -0.033804342 -0.0960848 -0.17203288
-0.022905936 0.11931906 -0.016534187 -0.018925183 0.014714549 0.0062173214 0.008558776 0.06132931
0.112136275 -0.016057275 0.13833562 0.14485703 -0.18342324 0.10871664 -0.093657546 -0.048094697
-0.15322615 -0.04236859 0.036293685 -0.11470841 0.107201695 -0.007658597 -0.13270092 -0.06362746
0.025770105 -0.064499505 -0.11490457 0.060204443 0.062098604 -0.09193459 -0.11211348 -0.18596864
0.031762756 0.09015831 0.036286708 0.07090493 0.043307066 0.23237649 -0.036777902 -0.07978945
-0.060349226 -0.058160536 0.18505225 0.010843247 0.060787577 0.059297305 0.061561 0.15856539
0.14326161 -0.11381566 0.0004618143 0.21666732 -0.08665079 0.11752374 0.029235672 0.045490064
-0.06802547 0.07950466 -0.049087867 -0.073862724 -0.07426858 0.0013037762 0.15909617 0.223624
0.013435325 0.024696061 0.09489798 0.16694835 0.16253851 -0.094689354 0.03200872 -0.048218124
0.13344814 0.15148775 -0.0726202 -0.0016358788 0.04401336 0.06924639 0.13641179 0.022752587
0.14768629 -0.037723076 0.17002153 0.20002711 0.01956942 -0.027232492 -0.009634932 0.12318681
0.042714834 0.072494805 0.10119981 0.12184454 -0.10943199 -0.036768895 0.041256532 -0.0868366
-0.137544 -0.012679886 -0.08465595 -0.1021768 0.13648556 -0.008959064 -0.0857858 0.19940548
0.08360636 -0.01955038 -0.001157284 -0.07749103 0.08934482 -0.06227377 0.15700512 -0.12968887
0.071423665 0.0720326 0.15349247 0.13580823 0.09663318 0.12227654 0.09153876 0.19830906
0.12572816 0.017285516 0.056428105 0.16783293 0.011655777 0.08296293 -0.00662422 0.11245777
-0.11547392 -0.07449158 -0.108081535 0.15421866 0.12564762 0.06144147 0.10899743 -0.013973453
-0.051348656 0.023488188 0.032627445 0.08285015 0.09728258 0.19604562 0.11790843 -0.044508684
-0.093873374 -0.0830219 -0.119088866 0.0037667102 0.1431887 0.049000952 -0.14823514 -0.06554028
-0.113830894 -0.073159106 0.15149057 -0.1617681 -0.08741952 -0.15626866 -0.013340872 0.19778231
-0.15127183 -0.095694184 -0.011502715 -0.18769303 -0.06680822 0.07314748 -0.08069115 -0.1585175

bias f4 [40]
00000000: 337f 1e3e b364 313d fb6d 47bc 5499 a8bc
00000010: ec5c 443e a6d8 193c a149 82bd 90e9 aabd
00000020: 5a73 303d 05a6 c8bb b19b e93d 9d63 233d
00000030: be1c 493c 5738 983d 9e0b 413d cce0 21bd
00000040: efe6 18be 1e42 87bd 6a0b 583d 8dcc cdbc
00000050: 02d2 f7bd a194 b23c 15d3 4c3d 1de4 3b3b
00000060: b79c 99bd 8198 18bd 1ad8 c73d 805d 583d
00000070: b303 1bbe c04b dbbc 99f6 73bd 677a dabc
00000080: 36a1 85bd 7e87 7c3d 853d 02be 0ff4 0f3e
00000090: a4a1 183d f6f5 323e 5ee0 87bd 9d69 40bc
0.1547821 0.043308925 -0.0121722175 -0.020580925 0.19176072 0.009390032 -0.063617 -0.0834533
0.043078758 -0.0061233067 0.11406649 0.03988992 0.012274919 0.07432621 0.04713022 -0.039521024
-0.14931844 -0.06604408 0.05274526 -0.025121951 -0.12100603 0.021799387 0.05000599 0.0028669902
-0.07500594 -0.037254814 0.09758015 0.052823544 -0.1513813 -0.026769519 -0.059561346 -0.026669694
-0.06524889 0.061652653 -0.1271878 0.14057945 0.037263528 0.17476639 -0.066345915 -0.01174393

weight_ih_l0 f4 [120, 40]
00000000: 748e 47be 3954 abbc 0b14 d4bd 6c52 3e3d
00000010: 403e 853a a0c0 2b3d 9818 eb3c b0c0 b83c
00000020: 282a 3e3d dad2 25bd 4799 d0bd 0e2f fe3d
00000030: 7aa8 9f3d cd8b eabd 95a6 e5bc d774 0dbc
00000040: add4 2a3d 94ca 273e 072c 6dbc 8bad 0dbe
00000050: eeea 8f3d a303 493d 58a6 073d 0fce 23be
00000060: 15bb da3d da39 403e fff0 363d 1545 95bd
00000070: 6d34 7f3d e7c0 60bd 6272 34be 1451 2dbe
00000080: 7878 3b3e 768b e83a 7e59 2a3e 9921 08be
00000090: 9961 efbd acd6 70bd 3be6 313e e370 9ebd
000000a0: e4d2 113e b7cb ca3d f88e 36be 5e99 043e
000000b0: 1307 be3d 6fe7 143e 4163 c5bd 0a55 633d
000000c0: 67a5 0cbe 7fdd e7bd 0b3d 643d 0852 45be
000000d0: 64c6 753c fd07 1a3b 8051 54be 5c3a 86bc
000000e0: 882c 033e ca5c e73d 4d89 143e caca b3bd
000000f0: 5789 82bd d6c0 db3d 827c 6cbd 4fdb d1bd
00000100: caa2 d4bd 227e 46be ba15 1f3e 3b55 25be
00000110: 2741 ce3d 809e 4b3c 084e 523d 6671 a73d
00000120: fd31 f9bc a8a7 4fbe 0ff5 36be cd1c 81bc
00000130: 76e3 453e 2a07 3cbd c6cf dabd ae52 68bd
00000140: 9016 8c3d eb1f d2bd 7e52 75bc 6db2 263e
00000150: d96d 33be 346e 833d a7ae 343e 1463 013e
00000160: feae 9fbd 5081 9fbd 39c0 3fbe 4b23 6c3d
00000170: 4d3c 0bbe 6ba2 f2bd 9ce1 8b3d 82b7 e23d
00000180: 324b b2bd 64af f2bd 2429 63bd f589 a6bd
00000190: 89a1 0a3c 9add e53d f041 44be 1c74 3fbd
000001a0: f4d0 b03d 935b 033e adb9 5dbd a3af 41be
000001b0: 8e63 b43d 4851 84bd 5da2 a03d 3984 ea3d
000001c0: c2ec e43c c187 abbd a8b0 ae3d 3d84 f2bd
000001d0: 0afd 2c3e db01 25be 081b fb3d 6821 3f3e
000001e0: 121f 3abd 2b8a fd3c 2d86 87bd 9809 45bd
000001f0: 4e96 a53d 7838 093e 9708 bfbd cc39 2bbe
00000200: d2db fe3d d238 0fbe 5885 76bd 8ee7 bebd
00000210: 874e 323e 67e4 333d 9da4 44bd ea5a acbd
00000220: aa44 19bd 0947 31bc b94b 2e3e 7abc a0bd
00000230: 7e25 acbc df84 ce3d d786 87bd 9fee 01be
00000240: 9844 f5bd 163c 7d3c 4788 453e a1c4 82bd
00000250: 72ca d5bd 501b 69be 0fd6 0ebd 267a 383e
00000260: 81d2 4abe da2b 2dbe b0e2 3cbb 487e 933d
00000270: fbaa 2ebc 20e0 4c3d 49a3 233b a8c8 5dbe
00000280: 181f c8bd 4a75 8bbc 86fe 573d 0233 fd3d
00000290: 7d71 16be c066 be3b b174 d8bd 1fee bbbd
000002a0: 90fc 553e 60e2 da3c 234a 4cbd 7db4 ccbc
000002b0: b6dd bebd bd6a 20be f775 d6bc 21f0 dd3d
000002c0: 3654 5a3d 27ec 303e b6c6 bebd a353 acbd
000002d0: 8f8b 853d 6e33 8bbd 6d05 343d 208f 493d
000002e0: 6419 d63d 0304 91bd 5736 75bc ed63 a93d
000002f0: ed1e 223e c7f9 fd3d a99c 953c a654 2ebe
00000300: 62fa 813d b762 3a3e 9c75 c9bd 70c4 ae3d
00000310: 8443 a3bc 5e06 39be 3997 ab3d 65bc fbbc
00000320: 44e7 c6bd c9e3 60be 0d5e 193e 0a7b 7bbd
00000330: 2863 ad3d 22ac 093e 2f72 a6bd cf6b 9e3d
00000340: 3dcf 08be ede7 f53c f2a1 9cbb 8641 46be
00000350: e17e 17be 98bf 753d 7577 a33d e829 b23d
00000360: 5a9e dc3d 2169 02be fbdd a6bd e784 ecbd
00000370: ca5a 63bd 3479 b6bd 9164 2ebe 7645 563e
00000380: 47ff 32bc a4bb 86bb a636 11bd b384 20be
00000390: 6502 853d 5e9b 323d f662 b73d af9e d73d
000003a0: 8791 283d 98fa d2bd 60fc 50bd 32a6 9cbc
000003b0: 191f 453e 68ea 22be 353d b6bd ee85 233d
000003c0: 3ba3 cabd 5cc7 eabd d3b7 31bd bad5 9b3d
000003d0: ac40 cdbc 65fd bb3d ec03 aabb f6dd 1d3d
000003e0: 0600 edbd 5138 4fbd f34f afbd 9e20 f9bd
000003f0: 07e5 d73d 884b 45bd 7ef2 33be 8676 7d3b
-0.19487935 -0.020914184 -0.103553854 0.046465322 0.0010165647 0.04193175 0.02869825 0.022552818
0.046426922 -0.040484287 -0.10185485 0.12411319 0.07795806 -0.11452446 -0.028033534 -0.008633814
0.04170673 0.16385871 -0.014475829 -0.13835733 0.07027231 0.049075734 0.033117622 -0.15996574
0.10680214 0.18772069 0.044663426 -0.07288567 0.062305856 -0.054871466 -0.17621759 -0.1692546
0.18307674 0.0017741758 0.16635701 -0.13294066 -0.11688537 -0.058798477 0.17372982 -0.07736375
0.14240605 0.09902137 -0.17827976 0.1294913 0.09278693 0.1454141 -0.09638072 0.05550102
-0.13734971 -0.11321544 0.055722278 -0.19269574 0.015000913 0.0023503297 -0.20734215 -0.01638525
0.12809956 0.11296995 0.14505501 -0.08778913 -0.06373852 0.1073014 -0.057735927 -0.10246908
-0.10382612 -0.19384053 0.15535632 -0.16145794 0.100710206 0.012427926 0.051343948 0.08175926
-0.030419344 -0.202788 -0.1786692 -0.015760804 0.1932505 -0.04590527 -0.10684161 -0.056719474
0.06840241 -0.10259994 -0.014973281 0.16279002 -0.17522372 0.06417504 0.1764475 0.12635452
-0.07797049 -0.07788336 -0.18725671 0.057650845 -0.13597222 -0.11847385 0.06830141 0.110701576
-0.087057486 -0.11849859 -0.055459157 -0.08131782 0.008461365 0.11223908 -0.19165778 -0.04674159
0.08633605 0.12827902 -0.054132152 -0.18914656 0.08808051 -0.06460816 0.07843468 0.11451001
0.027944926 -0.083755024 0.08529788 -0.11841629 0.16893402 -0.16113989 0.12261015 0.18665087
-0.045439787 0.030949673 -0.06617389 -0.048104852 0.08085309 0.13400447 -0.0932781 -0.16721267
0.12444271 -0.13986519 -0.06018576 -0.09321509 0.17412768 0.043918993 -0.04800855 -0.08415778
-0.037419 -0.010820159 0.17021073 -0.07848449 -0.021013971 0.10083937 -0.066175155 -0.12688683
-0.11975974 0.01545622 0.19290267 -0.0638516 -0.10439004 -0.22764325 -0.03487211 0.18015346
-0.19806863 -0.1691126 -0.002882164 0.072018206 -0.010660882 0.05001843 0.0024969152 -0.21658576
-0.09771556 -0.017023701 0.052732967 0.123632446 -0.1469173 0.0058105886 -0.10569132 -0.09176277
0.20897126 0.026719272 -0.04987539 -0.024988407 -0.09319632 -0.15665717 -0.026179297 0.108368166
0.053302966 0.17277585 -0.09315245 -0.0841439 0.06520759 -0.06796919 0.043950487 0.04920876
0.104540616 -0.07080843 -0.014966569 0.082710125 0.1583211 0.12401157 0.018263178 -0.17024478
0.06346585 0.18201719 -0.09836885 0.08533561 -0.019929655 -0.18068835 0.08378453 -0.030729482
-0.09712079 -0.21961893 0.14977284 -0.061396636 0.08466178 0.1344457 -0.081272475 0.077354066
-0.13360305 0.030017817 -0.0047800476 -0.19360933 -0.14794494 0.05999717 0.07981769 0.08699399
0.10772391 -0.12735416 -0.08147808 -0.115487866 -0.055506505 -0.089098364 -0.1703055 0.20924935
-0.010925121 -0.004111724 -0.035452507 -0.1567562 0.06494597 0.0436052 0.08954422 0.10528313
0.04115441 -0.10301703 -0.051021934 -0.019122217 0.19250144 -0.15909731 -0.08898393 0.039922647
-0.09894415 -0.11463806 -0.0433882 0.076091245 -0.025055252 0.091791905 -0.005188456 0.038541757
-0.1157227 -0.050590817 -0.08560171 -0.12164424 0.105417304 -0.048167735 -0.17572972 0.0038675382

weight_hh_l0 f4 [120, 40]
00000000: 3586 7ebd 41cb cdbc b084 df3d 59d9 0fbe
00000010: 30b7 013e 9468 e7ba 4ff6 2d3e 7998 a2bc
00000020: 4f82 063e e533 3a3e ef97 52bd 4e05 d03c
00000030: f370 d23d ea81 62be f8cb 983d 7c4c 083d
00000040: 5d2b 58bc c079 f7bd 1fc3 ca3d 9ff3 7abd
00000050: 3c7a 01bd efee a73d 697d c7bc 6e15 d53d
00000060: 0ca3 9c3d 13af e7bd ca04 07bd 9649 c2bd
00000070: 2ea0 82bd 5b82 333d 7385 ff3d a033 fa3c
00000080: b24b 3fbe e08c a5bc 1cd1 0bbe 53a9 10be
00000090: 556b 06be 42aa ddbd 5aec 1a3e 212e 7c3d
000000a0: 4c46 ea3d 4d1f dd3d d45f 523d 88a3 0bbc
000000b0: a0fd a7bc f27b 633e b348 03bc 432b 893d
000000c0: cbba 95bd e9f3 32be eb0f a53d 6f99 24be
000000d0: 9928 6e3c 60d9 4d3e 16e3 543e ebdd 77bd
000000e0: 7d2a 0abc 0534 38bd dbcb 92bc 0504 37be
000000f0: 5643 c53d 3f44 223e ef2b bcbd 09cc fb3d
00000100: e73e e5bc fae7 bdbd 56b8 9cbd 80ed 343e
00000110: b292 e1bd d8d4 21be 7cd0 41be 988b 36be
00000120: dc2a 5c3e cd82 25bd 46b4 abbc 3014 803d
00000130: 180a 3bbe 4e8c ed3c a7dc 17be 1d58 353e
00000140: bdb1 8bbd f2c8 8aba 1d91 e7bd 7e93 e63d
00000150: f394 32be cd7c 1e3e 9c52 bcbd bd56 c03d
00000160: de54 083d ff79 8fbc 4eb8 133e 90e6 823d
00000170: 91ab fe3c 4c4e 183d c3fb e6bd f155 e0bd
00000180: c0ba 033e f315 0abe 5118 b4bd dccd e33c
00000190: bb6b c93d 64ca c53d b6e0 03bd ba10 37be
000001a0: 8028 bbbc ec5c 1f3c a6d8 bebd 9673 b0bd
000001b0: 8b92 853c a223 07be 5fa9 f63c 3882 a9bc
000001c0: 9e11 973d c57c 77bd d1b8 f2bc 01ee 8fbc
000001d0: d712 8c3d 023e 84bd 7966 f4bd d12b 08be
000001e0: 482c d73d 381d 003e 6a3b 64be 2ec6 a9bc
000001f0: d7bd 043e 4b55 6fbd fbfa debc d9b1 0cbe
00000200: 265f 9e3d c170 163d 10b1 fdbd cb65 953d
00000210: b909 07be 4d8c d2bd beda 003e aefa 183e
00000220: d72d c9bb 72bf 373e d201 d4bd 97f8 b93d
00000230: 68f4 9c3d 0dcd 3cbd d3d2 b63d 1509 0c3e
00000240: 5293 a2bd 4a6e b3bd 9691 d93d a0f9 cf3d
00000250: 3405 2ebe 5d3e bbbd d687 44bb 0a90 083d
00000260: eff3 273d c3a5 fa3d 7310 47bd 6de8 3bbc
00000270: 705d 41be 66a0 61bb 4231 253d b780 adbd
00000280: 6935 34bd 7bb7 debd cbed 7b3d de44 17bd
00000290: e7eb f13d 7bc5 3fbe 4dea 553c 8e58 a03d
000002a0: 443e 0d3e 0169 463e 4198 3e3e 7672 f63d
000002b0: efa1 83bd 1864 9f3d 9ff2 14be b49f 933c
000002c0: e379 6bbb f0da dfbd f7c6 aa3d 861a 613e
000002d0: 97fa 9e3d 0902 4e3d 874c 65bc ca45 903d
000002e0: 9253 043d 885d c5bd 221f cebc 0bb9 58ba
000002f0: da8c 7cbd 79df 873c d5a5 333e 0d19 283e
00000300: e76c 25be 23c7 073d d781 28be 0ffb 243d
00000310: ba1c ac3d 262f b33d 41f8 f63c 03dc 1e3d
00000320: 48c0 2fbe 6be5 e03d efce 323e 229a 0d3e
00000330: b57d d3bd 3618 ec3d e57f 0e3e 5fd3 2f3e
00000340: 8e35 063e 185f eb3c b88d f6bd 952b 83bd
00000350: c126 dc3a bb2d 703d b973 6bbd 068f c8bc
00000360: 2d81 dc3d 8724 f6bd f673 183e c69b b53d
00000370: 6607 263e 4d35 debd a37c 433d 51bc ffbd
00000380: 9d47 9b3c 7d0f 92bc 5be1 45bd 1dcb 1dbe
00000390: 0fbd 0e3e 0ce5 d03d 8c52 ab3d 2cd1 2fbe
000003a0: 74b0 32bd ee03 07bd d56a c8bd 9056 28bd
000003b0: 2f72 153d 3bde 0f3e dc0b 1bbe 3c84 8cbc
000003c0: a8fb 803d 5e36 913c 5a14 173e 02bf 2e3e
000003d0: 2f32 12be 1e02 813d 3394 753e c1ac b2bd
000003e0: b4e2 c83c 3899 f63d 12ad 4c3e 9a47 c7bd
000003f0: 82a1 493d 2858 7f3d 4652 dc3c 79de 86bd
-0.06213971 -0.025121333 0.1091398 -0.14047755 0.12667537 -0.0017655068 0.1698849 -0.019848095
0.13135646 0.18183859 -0.051414426 0.025393154 0.102754496 -0.22119871 0.07460779 0.033276066
-0.013193932 -0.12083769 0.09900498 -0.06126749 -0.031610712 0.0819987 -0.024351792 0.10404478
0.07648286 -0.1131269 -0.03296355 -0.09486692 -0.06378208 0.04382549 0.12476625 0.030542195
-0.18681219 -0.020208776 -0.13653988 -0.14127092 -0.13126881 -0.1082349 0.15129223 0.06156743
0.11439189 0.10796986 0.05136092 -0.008522876 -0.02050668 0.2221525 -0.008012938 0.06697705
-0.073110186 -0.17475857 0.08059677 -0.16074155 0.014536046 0.20102453 0.20789751 -0.06051437
-0.008432982 -0.044971485 -0.017919471 -0.17872627 0.09631984 0.15846346 -0.09188067 0.12294776
-0.027984096 -0.09272762 -0.07652347 0.17668724 -0.11014308 -0.1580385 -0.18927187 -0.17826688
0.21500725 -0.040407944 -0.020959985 0.062538505 -0.18265569 0.028997567 -0.14830266 0.17709394
-0.0682101 -0.0010588451 -0.11306975 0.11258601 -0.17439632 0.15477295 -0.09195444 0.09391544
0.03328406 -0.017514227 0.14425775 0.063916326 0.031087669 0.037184045 -0.112784885 -0.10953892
0.12864208 -0.13484935 -0.087937005 0.027808122 0.09835001 0.096577436 -0.032196723 -0.17877474
-0.02284646 0.009726744 -0.09318666 -0.08615796 0.016305229 -0.13197187 0.03011006 -0.020691976
0.07376407 -0.060421724 -0.029629143 -0.017569544 0.06839531 -0.064571396 -0.119336076 -0.13297965
0.10506493 0.12511146 -0.2228829 -0.020724382 0.12963043 -0.05843095 -0.027219286 -0.13739718
0.07732992 0.036728624 -0.123872876 0.07294806 -0.13187303 -0.102806665 0.12583444 0.14939377
-0.0061394977 0.17944124 -0.1035191 0.09080618 0.07663804 -0.04609399 0.0892693 0.1367534
-0.07938255 -0.0876127 0.106234714 0.10155034 -0.16994172 -0.09142754 -0.002998819 0.03334049
0.041004118 0.12238648 -0.04859967 -0.011468989 -0.188833 -0.003442788 0.04033018 -0.08471816
-0.04399625 -0.1087484 0.061506074 -0.03693091 0.11812573 -0.18727677 0.01305635 0.078293905
0.13793284 0.19375993 0.18612768 0.120335504 -0.06427371 0.07782763 -0.14545678 0.018020488
-0.0035930804 -0.10930431 0.08338731 0.21982774 0.0776264 0.05029491 -0.013995296 0.07044561
0.03230626 -0.0963698 -0.02516133 -0.00082673196 -0.061657764 0.016586052 0.17543729 0.16415806
-0.16154824 0.033148896 -0.1645578 0.04027849 0.08403917 0.08749227 0.030147674 0.03878404
-0.17163193 0.10981258 0.17461751 0.13828328 -0.10326711 0.11528055 0.13915975 0.17170475
0.13106367 0.028731868 -0.120387495 -0.06404797 0.0016796218 0.058637362 -0.05748341 -0.024482261
0.10766826 -0.12018686 0.14887986 0.08867602 0.1621376 -0.1085001 0.047726285 -0.124870904
0.018955046 -0.017829651 -0.04831062 -0.15409513 0.13939308 0.10199937 0.08365354 -0.17169636
-0.04362531 -0.032962732 -0.097860016 -0.041098177 0.036485847 0.14049618 -0.15141243 -0.017152898
0.062979996 0.01772612 0.14753857 0.17065051 -0.14276956 0.06299232 0.23982315 -0.087243564
0.024522163 0.12040943 0.19987896 -0.09730454 0.04922629 0.06233993 0.0268947 -0.06585402

bias_ih_l0 f4 [120]
00000000: 8024 e13c 14f8 a43b c128 26be b47e 3bbd
00000010: eba4 153b fdb9 fb3d fb2b c8bd 897a a63c
00000020: 9615 b63d fdc5 3bbd b5d8 3a3d acc6 a5bd
00000030: 5470 7cbd c521 123e 28e0 2f3e cc5d 10be
00000040: b5c2 d83d d9e8 3abd a328 53bd bc64 00bb
00000050: 3ff4 25be b7ff a7bd a723 efbd c046 7fbd
00000060: 671d 27be 8446 27bb 41d3 013e d4c4 ec3d
00000070: 8f7e a43c 203c 5dbd 5bc7 bfbd 6790 dc3d
00000080: 0b51 123c 0311 73be 6f8b 2a3d c3a9 1bbe
00000090: eef8 883b 9863 7b3c bca4 153e c62c 423e
000000a0: a2cd bdbc 6cd3 af3d ba11 f53d 98e6 c5bd
000000b0: d335 65bd aed3 0cbe fa91 f2bd 8548 edbc
000000c0: b28c 65be ae1a 04bc 6946 5b3c 76dd 90bd
000000d0: 923c aa3d 36af 41be 18e9 36be 5b56 90bd
000000e0: 4eba 073e 5d83 14be 50ba febd 454a 73be
000000f0: b12d 47bd 3af2 b03d ef7c 4c3d 3aaa 173c
00000100: 3e65 1fbd e901 b83d 2f33 b63d 411f b93d
00000110: f3d9 d1bd 0424 bfbd 8ff2 83bd 2224 eabc
00000120: 55e8 1dbe d0a4 123d 5269 4d3c 8edc 193d
00000130: a959 b3bb 8272 3c3e 4600 24be 4463 173d
00000140: 17ff 0dbd 7ff9 bdbd cdc4 dfbc eead 1b3c
00000150: c03a fbbd 7e6b 543d b14c 4abe 6d25 a83d
00000160: ad0b c7bd 5da1 2f3c 37c8 07be 5022 e4bd
00000170: b9e2 d3bd e678 4f3e 2b46 f53d b16c 793d
00000180: 2591 d93d c818 f5bd 13fe 8c3d 4b9d 163c
00000190: 69b6 19bd 617d afbd c0ba ad3d 37ec 443d
000001a0: 2b0e 46bd e579 19be 3ba7 363d 1203 8bbb
000001b0: 0b93 b3bd 7e0b 493c 48e3 6e3d 332b b53d
000001c0: 3ce6 803c 23fa 293d c9d7 223d 06b0 8ebd
000001d0: 9a32 0dbe 819a 1c3e 0326 3b3d fb51 1b3e
0.027483225 0.005034456 -0.16226484 -0.04577513 0.0022833894 0.12291334 -0.097740136 0.020322101
0.08890836 -0.045843113 0.045616824 -0.08094534 -0.061630562 0.14270695 0.17175353 -0.1409828
0.105840124 -0.045632217 -0.051552426 -0.0019591292 -0.16206454 -0.082030706 -0.11676722 -0.06232333
-0.1631981 -0.0025524208 0.12678243 0.115609795 0.02007988 -0.054012418 -0.09364196 0.1076973
0.008930455 -0.23736958 0.04163688 -0.15201478 0.0041800654 0.015343569 0.14613622 0.18962392
-0.023169342 0.085852474 0.11966272 -0.09663123 -0.055959534 -0.13752624 -0.11844249 -0.028965244
-0.22416952 -0.008063002 0.013383486 -0.0707349 0.08312334 -0.18914494 -0.17862356 -0.07047721
0.13254663 -0.14503236 -0.1243788 -0.237588 -0.04862756 0.08639951 0.049923833 0.009256894
-0.03891491 0.08984739 0.08896481 0.09039164 -0.10246649 -0.09333041 -0.06442749 -0.028581683
-0.15420659 0.03580171 0.012537317 0.037563853 -0.005473335 0.18403056 -0.1601573 0.0369599
-0.0346671 -0.09276103 -0.027315522 0.009501917 -0.12267065 0.051860325 -0.19755818 0.082102634
-0.09719024 0.010719624 -0.1325997 -0.11139357 -0.10345978 0.20260963 0.11976274 0.06089467
0.10623387 -0.11967617 0.06884398 0.009192775 -0.037527476 -0.08568836 0.08482885 0.048076835
-0.048353355 -0.14987905 0.044593077 -0.0042423094 -0.087682806 0.012270806 0.05832222 0.0884613
0.015734784 0.041498315 0.03975657 -0.069671676 -0.13788834 0.15293314 0.045690548 0.15167992
