Results/2330_generator1.pth (torch, 159411 bytes, 32 tensors)

weight_ih_l0 f4 [120, 20]
-0.14116542 0.035686057 -0.114355445 0.1229491 -0.0578247 0.017413812 0.10703162 -0.085594095
0.09303028 -0.054915987 0.14097589 -0.11401035 0.16351588 0.01705161 -0.14634342 0.14420792
0.16256109 -0.11795302 -0.009646479 0.07814284 -0.044050727 -0.040739562 -0.02173728 0.119006015
0.05042531 0.13391003 0.038591705 -0.014019524 -0.014402393 -0.04848712 0.14122988 0.11288616
-0.1612423 -0.075903475 0.12651919 0.12603721 0.12211044 -0.1161572 0.07894817 -0.048938707
0.028734531 0.17817886 0.10343104 0.033988293 0.18821897 0.20286381 -0.005443354 -0.0032674056
0.07677705 0.065254085 0.017879352 -0.08651566 0.14505748 -0.05730437 0.08449862 0.15879782
-0.21055377 -0.14429894 0.0045395605 -0.07875207 -0.00093973475 -0.15663372 -0.0051353937 -0.12784049
-0.15584587 0.053556345 -0.08611802 0.112183996 -0.16211464 0.08614876 0.080842525 -0.11140637
-0.10557286 0.09236666 -0.16723478 -0.07664715 0.13178164 -0.0027816438 0.076035954 -0.10291091
-0.027100507 0.038452584 -0.19384828 -0.04538244 0.047286224 0.111242 0.047442775 0.036395542
-0.08288891 -0.060835004 -0.029136524 -0.056716006 -0.1687322 -0.1516596 0.02996181 -0.17170103
-0.123367496 0.14659528 0.14648862 -0.15025932 0.15032928 0.04235808 0.016835926 -0.11464693
-0.06460869 -0.065444574 0.023192817 -0.071318656 -0.01332405 -0.05235007 0.06957705 0.020164998
0.1454276 0.13178858 0.12973231 -0.056355376 0.059692126 0.11242883 0.08106185 0.2243818
0.14198394 0.09892936 0.08031472 0.12591338 -0.08031915 -0.025357291 0.11007478 0.029148296
0.14093776 0.021613104 0.0075594326 -0.07262198 -0.028965456 -0.026384069 0.10843786 -0.047436133
0.17097883 -0.10483392 -0.0689563 0.117828645 -0.11151232 -0.06200191 0.15917525 0.0034474893
-0.10000478 -0.103171006 0.005770313 -0.05817394 -0.109545745 0.16017587 0.08807139 0.053636756
0.04646395 -0.10955617 0.048096936 -0.04735564 -0.14023975 0.021812825 0.09521858 0.15868233
0.1368951 0.111249104 0.028452085 -0.08587676 0.14788854 -0.019316608 0.16781218 0.012654416
0.08968457 0.07206531 0.051249042 0.028369606 -0.16944091 0.12210801 -0.071017705 -0.008023328
0.014856263 0.081354596 -0.037391566 0.13416442 0.12484075 0.13426122 0.09145729 -0.049952615
0.108886994 -0.07662496 0.10555115 -0.0031306536 -0.037395544 -0.016035357 -0.05196741 0.037152823
-0.18216206 0.118540555 0.03936506 -0.16029741 0.0077470774 0.0006306965 0.024630718 0.115612514
-0.08693022 0.07572929 -0.13022715 -0.063298464 0.0981855 -0.16675505 -0.08340481 -0.14612998
0.024039175 -0.17729074 0.063133955 -0.09750677 0.055721983 -0.037890486 -0.008234405 -0.17993012
0.14092858 0.09604165 -0.10550982 0.061431937 -0.045557242 -0.16338274 0.1483062 0.08316602
-0.03322219 -0.031864885 0.11814106 0.030777086 -0.13051571 -0.11367946 -0.07083973 0.105728954
0.036974482 -0.10294946 -0.019863615 0.045907985 0.018604891 0.11524896 0.019360615 0.025033345
0.07067726 -0.023721132 -0.042661812 0.017472342 0.006388397 0.13446446 0.14625667 -0.07514365
0.14049439 0.051541265 -0.08415504 0.12654564 0.06978944 0.07424866 -0.054977015 0.050883695
00000000: ab8d 10be 8b2b 123d 3033 eabd bdcc fb3d
00000010: 98d9 6cbd 69a7 8e3c 6533 db3d f54b afbd
00000020: a986 be3d 96ef 60bd fc5b 103e 427e e9bd
00000030: b570 273e d1af 8b3c 0ddb 15be 3eab 133e
00000040: 6a76 263e 5a91 f1bd 440c 1ebc 5a09 a03d
00000050: 896e 34bd 87de 26bd 6112 b2bc 6db9 f33d
00000060: c58a 4e3d b61f 093e 5612 1e3d 25b2 65bc
00000070: 04f8 6bbc 6e9a 46bd 919e 103e dc30 e73d
00000080: b41c 25be 4873 9bbd 3f8e 013e e60f 013e
00000090: 0a15 fa3d d3e3 edbd 94af a13d f473 48bd
000000a0: ae64 eb3c 8574 363e a7d3 d33d 4f37 0b3d
000000b0: 79bc 403e 88bb 4f3e 2a5e b2bb f821 56bb
000000c0: 493d 9d3d efa3 853d b877 923c 1f2f b1bd
000000d0: f389 143e fdb7 6abd 9d0d ad3d e59b 223e
000000e0: 689b 57be 1ac3 13be 98c0 943b c448 a1bd
000000f0: 8858 76ba 9764 20be ce46 a8bb 9ee8 02be
00000100: 0f96 1fbe e65d 5b3d a55e b0bd b9c0 e53d
00000110: 6101 26be c36e b03d c490 a53d 0629 e4bd
00000120: 9536 d8bd bb2a bd3d 983f 2bbe 2ef9 9cbd
00000130: c4f1 063e 3d4c 36bb bdb8 9b3d f5c2 d2bd
00000140: e201 debc 7580 1d3d 2a80 46be f0e2 39bd
00000150: 33af 413d d8d2 e33d 5b53 423d 7e13 153d
00000160: a9c1 a9bd 202e 79bd b8af eebc 0b4f 68bd
00000170: 22c8 2cbe a74c 1bbe 7872 f53c 65d2 2fbe
00000180: 19a8 fcbd 131d 163e 1d01 163e 94dd 19be
00000190: ebef 193e ab7f 2d3d 7feb 893c 02cc eabd
000001a0: 9051 84bd ce07 86bd ddfe bd3c 840f 92bd
000001b0: 1e4d 5abc 076d 56bd 6a7e 8e3d 1131 a53c
000001c0: f9ea 143e 96f3 063e 8cd8 043e e5d4 66bd
000001d0: bb7f 743d 1641 e63d c103 a63d 58c4 653e
000001e0: 3d64 113e 7a9b ca3d 0b7c a43d 70ef 003e
000001f0: 5e7e a4bd 18ba cfbc e36e e13d 68c8 ee3c
00000200: fd51 103e f70d b13c 1eb5 f73b d5ba 94bd
00000210: f748 edbc 6723 d8bc ab14 de3d 644c 42bd
00000220: 1315 2f3e 2bb3 d6bd f638 8dbd 2550 f13d
00000230: 9260 e4bd b7f5 7dbd d6fe 223e 46ef 613b
00000240: 4ecf ccbd 524b d3bd e514 bd3b cc47 6ebd
00000250: 8559 e0bd 2505 243e c65e b43d 37b2 5b3d
00000260: fc50 3e3d fc5e e0bd 4b01 453d fdf7 41bd
00000270: 029b 0fbe cfb0 b23c f501 c33d 9f7d 223e
00000280: 3b2e 0c3e 92d6 e33d 5914 e93c 28e0 afbd
00000290: 1870 173e dd3d 9ebc f5d6 2b3e 7854 4f3c
000002a0: 8bac b73d fa96 933d 84ea 513d 6067 e83c
000002b0: eb81 2dbe c413 fa3d bb71 91bd 4774 03bc
000002c0: af67 733c 3d9d a63d e627 19bd 6662 093e
000002d0: 82ac ff3d c67b 093e f64d bb3d 1d9b 4cbd
000002e0: 2500 df3d 8ced 9cbd 342b d83d a72b 4dbb
000002f0: 122c 19bd 955c 83bc c7db 54bd 8f2d 183d
00000300: b188 3abe 64c5 f23d 423d 213d 0125 24be
00000310: 32db fd3b 5355 253a 5cc6 c93c 41c6 ec3d
00000320: 7908 b2bd f517 9b3d 445a 05be a0a2 81bd
00000330: 7b15 c93d d6c1 2abe 24d0 aabd 19a3 15be
00000340: ceed c43c b48b 35be 604c 813d a1b1 c7bd
00000350: bc3c 643d 0e33 1bbd 99e9 06bc 9a3f 38be
00000360: 954f 103e 7cb1 c43d 8815 d8bd 0ea0 7b3d
00000370: 3b9a 3abd ce4d 27be 95dd 173e f252 aa3d
00000380: fe13 08bd c184 02bd f1f3 f13d 3a20 fc3c
00000390: e9a5 05be c7d0 e8bd 6c14 91bd 6c88 d83d
000003a0: 8e72 173d 2bd7 d2bd 05b9 a2bc 030a 3c3d
000003b0: 4969 983c a607 ec3d 279a 9e3c bb12 cd3c
000003c0: 3dbf 903d d252 c2bc 27be 2ebd 2822 8f3c
000003d0: c255 d13b 0db1 093e 4fc4 153e eae4 99bd
000003e0: c3dd 0f3e ef1c 533d 7a59 acbd 2e95 013e
000003f0: c4ed 8e3d ae0f 983d 942f 61bd 6c6b 503d

weight_hh_l0 f4 [120, 40]
0.06857019 0.14341271 0.02249437 -0.0074320133 -0.0189834 -0.038955737 0.041328162 -0.11674123
0.049739327 0.054310195 -0.12893067 -0.032528292 -0.13529451 0.033480935 -0.144267 0.06447267
-0.0027438896 -0.06927755 0.10564747 0.104835995 0.12628107 -0.0045421594 0.12763798 0.15049343
0.16120021 -0.024769368 0.14628835 0.11099394 -0.0035173818 0.011911498 0.12654601 0.05188358
-0.06171422 -0.08461023 0.043953273 0.032237656 0.038192075 0.006835501 -0.09434827 -0.063099295
-0.03033554 -0.08393083 0.071179256 0.11684736 0.09791713 0.032134313 0.0071321893 0.051621262
-0.07139567 -0.08314631 0.048763648 0.15379252 -0.1321966 -0.030641822 0.060545832 -0.06884077
-0.12535596 -0.011124532 -0.13124786 -0.091851674 -0.021551955 -0.04455559 0.048417047 0.118849926
-0.1339345 0.013465608 -0.019376693 -0.009565528 0.13972846 -0.055443 0.08463751 -0.12824878
-0.09846699 -0.08386884 0.124900095 -0.08067774 0.18311939 -0.06304759 0.137765 -0.16190398
-0.14711523 -0.189688 0.009123386 0.059253227 -0.031183507 0.1710519 -0.11470206 0.050342966
-0.1091013 -0.11784215 0.026595315 0.049305893 -0.02142857 -0.14353335 0.08371825 0.10161986
-0.12997149 0.019616934 0.025691424 0.06027213 0.15506771 0.03274177 -0.10474355 0.083485655
-0.0229097 -0.08146846 0.12568139 -0.067984425 -0.19936828 -0.123867504 0.056084 0.03436778
-0.13320234 -0.04280626 0.08195154 -0.12927395 -0.013714746 -0.046386622 0.028895073 -0.15314034
0.12616591 -0.09383716 0.101134196 0.11678687 -0.18952781 -0.033281 -0.13181256 -0.19004118
0.08283647 0.047741417 0.0092149675 0.087923795 0.1765229 -6.6517387e-06 -0.06212906 -0.052373275
-0.05839134 -0.11621825 0.044767324 -0.016383134 -0.060170557 -0.10183897 0.13496666 0.1171518
0.008728891 -0.1341919 0.18108898 -0.0141165 0.06475678 0.0812497 -0.18032555 -0.06477434
0.09945765 -0.017977882 -0.15253684 -0.011766009 0.045618154 0.11744495 -0.12958764 0.090079956
-0.124630086 0.13165516 -0.057965655 0.069023676 -0.16035008 -0.19092984 0.13708581 -4.921679e-05
-0.19554274 -0.023147805 -0.036675397 0.05505968 -0.09236259 -0.052098442 0.18253064 -0.097181015
0.08774644 -0.05265078 0.094579555 -0.090249546 -0.1711398 -0.04968249 0.12331406 -0.056098513
-0.07946406 0.08653356 0.007100873 -0.14108385 -0.015512877 0.22055253 0.17436054 -0.081188954
0.13640106 0.08118528 0.11899118 -0.06806441 -0.16487494 0.12481002 0.11554532 0.007865749
0.05446025 0.13207975 0.07406159 0.13335934 0.08227799 -0.109479636 -0.048875205 -0.088253655
0.13962054 -0.08865087 0.04847071 -0.06089286 -0.16001473 0.18367244 0.18084604 0.04140314
0.015597476 -0.03743362 0.12729865 0.11200985 0.057055935 0.024652567 0.01756843 0.1125409
-0.08434081 0.08458337 0.06520898 -0.19895743 0.017579153 -0.09503119 -0.12733099 0.06176318
0.11747576 0.008386635 0.0024884949 0.014962332 -0.12818107 -0.013582943 0.08551683 0.05841099
-0.03997435 0.08506429 -0.17560068 0.094113804 0.109809935 0.009026258 0.12788813 -0.0490722
-0.10396612 -0.023894995 0.033365786 -0.16894752 -0.11210504 0.010754943 0.013326938 0.09028534
00000000: 876e 8c3d c8da 123e 1d46 b83c 3f88 f3bb
00000010: 1383 9bbc 0d90 1fbd b847 293d 0716 efbd
00000020: 77bb 4b3d 5e74 5e3d 6706 04be 633c 05bd
00000030: a58a 0abe 4e23 093d baba 13be 3f0a 843d
00000040: d4d2 33bb 63e1 8dbd b35d d83d 41b4 d63d
00000050: d34f 013e 65d6 94bb 88b3 023e f31a 1a3e
00000060: ab11 253e 21e9 cabc 9dcc 153e ca50 e33d
00000070: e083 66bb 7228 433c 4795 013e e083 543d
00000080: 0dc8 7cbd 2148 adbd 5908 343d a20b 043d
00000090: 4b6f 1c3d 57fc df3b aa39 c1bd 343a 81bd
000000a0: 3d82 f8bc ede3 abbd 6ec6 913d ab4d ef3d
000000b0: c788 c83d 459f 033d 24b5 e93b d170 533d
000000c0: e537 92bd 9d48 aabd 64bc 473d c97b 1d3e
000000d0: 8c5e 07be 8f04 fbbc e8fe 773d 64fc 8cbd
000000e0: 505d 00be ab43 36bc d765 06be bb1c bcbd
000000f0: ba8d b0bc ec7f 36bd f450 463d 9767 f33d
00000100: 2026 09be da9e 5c3c dfbb 9ebc bbb8 1cbc
00000110: fa14 0f3e 3318 63bd 6e56 ad3d a653 03be
00000120: 10a9 c9bd 6dc3 abbd 9fcb ff3d 5f3a a5bd
00000130: a683 3b3e 181f 81bd 4512 0d3e 28ca 25be
00000140: 60a5 16be 923d 42be 417a 153c 83b3 723d
00000150: 8e74 ffbc 3b28 2f3e eae8 eabd 6d34 4e3d
00000160: 8170 dfbd 3a57 f1bd 6bde d93c faf4 493d
00000170: f88a afbc 68fa 12be 7974 ab3d 131e d03d
00000180: 3f17 05be b1b3 a03c d276 d23c e9df 763d
00000190: 12ca 1e3e 3c1c 063d c983 d6bd 87fa aa3d
000001a0: 20ad bbbc f0d8 a6bd 9fb2 003e 6b3b 8bbd
000001b0: 3327 4cbe 3fae fdbd 56b8 653d 3bc5 0c3d
000001c0: 3266 08be 9e55 2fbd 36d6 a73d 6460 04be
000001d0: d0b3 60bc e6ff 3dbd 5cb5 ec3c d2d0 1cbe
000001e0: a331 013e b22d c0bd 721f cf3d f42d ef3d
000001f0: 9413 42be a851 08bd dff9 06be 289a 42be
00000200: 2ba6 a93d 818c 433d 60fa 163c 6411 b43d
00000210: 6bc2 343e 0032 dfb6 0b7b 7ebd 5c85 56bd
00000220: c22b 6fbd d503 eebd f15d 373d ec35 86bc
00000230: 6775 76bd f390 d0bd b334 0a3e 48ed ef3d
00000240: 9f03 0f3c 9a69 09be 646f 393e e448 67bc
00000250: 349f 843d 3e66 a63d 43a7 38be 69a8 84bd
00000260: 74b0 cb3d 5a46 93bc 9e32 1cbe 38c6 40bc
00000270: 1ada 3a3d fa86 f03d 9fb2 04be d77b b83d
00000280: 0f3e ffbd 9cd0 063e 656d 6dbd 495c 8d3d
00000290: d032 24be 1d83 43be 3960 0c3e 206e 4eb8
000002a0: 5b3c 48be 77a0 bdbc f138 16bd 4286 613d
000002b0: 9928 bdbd 2d65 55bd 50e9 3a3e d706 c7bd
000002c0: 68b4 b33d 58a8 57bd edb2 c13d c1d4 b8bd
000002d0: 463f 2fbe de7f 4bbd 158c fc3d 8ec7 65bd
000002e0: 0ebe a2bd 8238 b13d 71ae e83b 4978 10be
000002f0: b929 7ebc 86d8 613e 928b 323e 6546 a6bd
00000300: b8ac 0b3e 7844 a63d a6b1 f33d 5a65 8bbd
00000310: fad4 28be 659c ff3d 06a3 ec3d 58df 003c
00000320: b611 5f3d ea3f 073e 9aad 973d 5a8f 083e
00000330: 5d81 a83d dc36 e0bd 5e31 48bd 55be b4bd
00000340: b0f8 0e3e 968e b5bd 3989 463d cb6a 79bd
00000350: e7da 23be a114 3c3e b42f 393e 5796 293d
00000360: 8e8c 7f3c ff53 19bd 945a 023e 6c65 e53d
00000370: 7cb3 693d 2ef4 c93c abeb 8f3c d87b e63d
00000380: e0ba acbd 0c3a ad3d 498c 853d 7fbb 4bbe
00000390: 2802 903c b69f c2bd 0e63 02be 63fb 7c3d
000003a0: 2297 f03d 1968 093c 0416 233b 9224 753c
000003b0: e641 03be fe8a 5ebc 7323 af3d 5d40 6f3d
000003c0: 25bc 23bd 3036 ae3d aad0 33be bdbe c03d
000003d0: 08e4 e03d dfe2 133c 1bf5 023e eeff 48bd
000003e0: 30ec d4bd 70bf c3bc 90aa 083d 9400 2dbe
000003f0: 5497 e5bd 8035 303c 3b59 5a3c 85e7 b83d

bias_ih_l0 f4 [120]
0.020247683 0.060883075 -0.18862472 0.09553059 0.10862172 0.047556642 0.14916089 -0.15272005
0.15492319 0.10838745 -0.056101467 0.13439533 -0.07257137 -0.15942934 0.04727806 -0.057612993
0.102363296 -0.13609141 -0.09253809 -0.17255649 -0.08885503 0.07624078 -0.11367304 0.15981567
0.026667189 -0.04633086 -0.08783676 0.13093631 -0.04668237 0.15015613 -0.2023713 0.06700437
0.15659538 0.08777182 -0.095494546 0.010035264 -0.0656722 -0.02107099 -0.16669632 0.06270745
0.040574536 -0.09796504 -0.08694265 -0.17031235 -0.11568083 0.07340524 -0.11412894 0.057456426
-0.16092853 -0.0517628 -0.08411944 0.12317391 0.029996825 -0.10384406 -0.12989727 -0.14799857
-0.14841299 -0.06320015 -0.16644812 -0.14515479 0.017392226 -0.053015072 0.11821441 -0.07228262
-0.13139182 -0.097953185 -0.073816314 -0.14607988 -0.1073014 -0.091798276 0.10386437 0.072036326
0.04361734 0.03560522 0.07014772 -0.12710036 -0.06373514 -0.0065932265 -0.074846484 -0.09531046
0.035134573 0.047929697 0.0111800395 0.09600196 0.029616334 -0.0983402 0.031686425 -0.06466398
-0.059844952 0.096292354 0.1028989 0.044690758 0.026701037 0.17468396 -0.0204846 -0.16986237
0.11810366 -0.16725668 -0.007815456 -0.15000157 -0.12413402 0.18373193 0.00427586 -0.10688304
-0.10412924 0.1361787 -0.060403906 -0.097513676 0.13229974 -0.04888032 -0.012015858 0.17759764
-0.040296707 0.1167247 0.13446207 0.07080207 -0.13495553 -0.12771735 -0.16588102 0.09432843
00000000: 78de a53c 8860 793d d726 41be 8ba5 c33d
00000010: 1075 de3d c1ca 423d a2bd 183e a562 1cbe
00000020: 2fa4 1e3e 3dfa dd3d a7ca 65bd ee9e 093e
00000030: 4ca0 94bd 7241 23be a4a6 413d 9afb 6bbd
00000040: d9a3 d13d 8c5b 0bbe 9c84 bdbd a6b2 30be
00000050: a0f9 b5bd 2024 9c3d 69cd e8bd b8a6 233e
00000060: 2675 da3c 6ec5 3dbd c2e3 b3bd 2b14 063e
00000070: 0336 3fbd 87c2 193e 6c3a 4fbe 9639 893d
00000080: 8a5a 203e b6c1 b33d a592 c3bd f36a 243c
00000090: 257f 86bd 129d acbc 71b2 2abe c36c 803d
000000a0: 7c31 263d e5a1 c8bd fd0e b2bd 5c66 2ebe
000000b0: 12ea ecbd 7d55 963d 6fbc e9bd 6e57 6b3d
000000c0: 73ca 24be 3b05 54bd d046 acbd 9a42 fc3d
000000d0: e7bb f53c 32ac d4bd ca03 05be f08c 17be
000000e0: 93f9 17be 156f 81bd 6071 2abe 75a3 14be
000000f0: 247a 8e3c 5526 59bd 661a f23d e908 94bd
00000100: 948b 06be ae9b c8bd 022d 97bd f795 15be
00000110: d6c0 dbbd bc00 bcbd d8b6 d43d c887 933d
00000120: 19a8 323d c7d6 113d 9ca9 8f3d 9926 02be
00000130: 9287 82bd fe0b d8bb 1d49 99bd 2132 c3bd
00000140: 45e9 0f3d ee51 443d 7c2c 373c ad9c c43d
00000150: f49d f23c 9666 c9bd a0c9 013d 8c6e 84bd
00000160: fb1f 75bd ed34 c53d a9bc d23d a80d 373d
00000170: 22bc da3c 5ae0 323e 52cf a7bc 67f0 2dbe
00000180: 55e0 f13d 5645 2bbe 660c 00bc 039a 19be
00000190: fa39 febd 3924 3c3e 831c 8c3b 7fe5 dabd
000001a0: b641 d5bd 6e72 0b3e 166a 77bd 40b5 c7bd
000001b0: 9579 073e bb36 48bd 29de 44bc 28dc 353e
000001c0: 290e 25bd 5c0d ef3d 6db0 093e ad00 913d
000001d0: c831 0abe 56c8 02be b7dc 29be 442f c13d

bias_hh_l0 f4 [120]
0.06895549 0.09216489 0.031156017 -0.101884015 0.10133892 -0.076533355 0.15982142 0.116538584
0.09517928 0.108437635 0.12838013 -0.1697913 0.09297731 -0.16293596 0.020150233 -0.008145017
0.07190764 -0.113857456 -0.0298947 -0.15634175 0.05979157 -0.031421233 -0.12830697 0.06123868
-0.013445834 -0.16806322 0.1058142 0.14669 -0.043241113 0.12814252 -0.12480115 -0.040535532
-0.017399497 0.0237154 -0.05835253 0.008648085 0.13776712 0.15719643 -0.008591598 -0.06233731
-0.08139454 -0.009601539 0.0380596 -0.010227017 -0.15624045 0.08527441 -0.1523973 -0.1202138
-0.010174387 -0.10820669 0.06957399 0.07220098 0.13969156 -0.018770713 -0.054233976 -0.097713225
-0.08138935 0.06458551 -0.10012861 -0.15145923 -0.09485345 0.03157632 0.14808299 0.06401571
-0.062747754 0.0831802 -0.12946549 -0.0078647975 0.00676548 -0.13089253 -0.043653943 -0.11292551
0.14648238 -0.017522274 -0.123787545 -0.09938063 0.07505793 -0.09604104 -0.15446262 -0.049861375
-0.045326486 0.047491435 0.011103914 -0.104510635 -0.019066378 -0.020355023 0.14870542 0.123060286
-0.09339138 -0.04783829 0.16725554 -0.100888215 -0.06234305 0.041520454 -0.048797823 -0.026178956
0.09919296 0.06703119 -0.17224446 -0.024897689 -0.060159523 -0.014513391 -0.06635883 -0.1248885
-0.006853223 0.10202451 -0.11848729 0.0954538 0.10284177 -0.09838292 -0.015060052 -0.063269086
-0.122529395 0.0051230853 -0.036647964 0.085469276 -0.04045072 -0.034236446 -0.045980312 0.0135446545
00000000: 8938 8d3d f2c0 bc3d e73a ff3c 91a8 d0bd
00000010: c88a cf3d 85bd 9cbd 3aa8 233e c8ab ee3d
00000020: 5bed c23d 8d14 de3d 1576 033e c5dd 2dbe
00000030: e36a be3d afd8 26be 1a12 a53c ad72 05bc
00000040: 5044 933d 192e e9bd bbe5 f4bc 0d18 20be
00000050: 01e8 743d 8db3 00bd e762 03be 69d5 7a3d
00000060: ea4b 5cbc c418 2cbe 1eb5 d83d e735 163e
00000070: 981d 31bd cb37 033e bf97 ffbd 9608 26bd
00000080: 6489 8ebc cc46 c23c 1003 6fbd b3b0 0d3c
00000090: d312 0d3e 1af8 203e c6c3 0cbc 6855 7fbd
000000a0: 2eb2 a6bd c64f 1dbc 62e4 1b3d 388f 27bc
000000b0: 7ffd 1fbe 5aa4 ae3d 0a0e 1cbe a732 f6bd
000000c0: 79b2 26bc 789b ddbd cf7c 8e3d 1bde 933d
000000d0: 4e0b 0f3e 0ac5 99bc 7224 5ebd df1d c8bd
000000e0: 76af a6bd 6845 843d 3b10 cdbd 2118 1bbe
000000f0: 8742 c2bd 2c56 013d 11a3 173e ab1a 833d
00000100: e581 80bd 615a aa3d 9a92 04be 5adb 00bc
00000110: f6b0 dd3b b108 06be 7ace 32bd 7d45 e7bd
00000120: 7aff 153e df8a 8fbc 5384 fdbd 1288 cbbd
00000130: f9b7 993d 2ab1 c4bd 732b 1ebe 713b 4cbd
00000140: 44a8 39bd 6186 423d 31ed 353c ac09 d6bd
00000150: 1831 9cbc 94bf a6bc 3c46 183e 0807 fc3d
00000160: fb43 bfbd 15f2 43bd 0945 2b3e 7b9e cebd
00000170: 6d5b 7fbd 5a11 2a3d 3ae0 47bd 4075 d6bc
00000180: ae25 cb3d a647 893d da60 30be 3df6 cbbc
00000190: d569 76bd 93c9 6dbc 23e7 87bd 8bc5 ffbd
000001a0: 0091 e0bb 3af2 d03d 77a9 f2bd 487d c33d
000001b0: b59e d23d fc7c c9bd 70be 76bc 3993 81bd
000001c0: b1f0 fabd 8edf a73b 2d1c 16bd 840a af3d
000001d0: a7af 25bd 843b 0cbd da55 3cbd 66ea 5d3c

weight f4 [40, 40]
0.08293521 0.06215018 -0.07376585 0.0754988 0.0601743 -0.07865509 0.045068905 0.027036592
0.1749635 0.15305527 -0.04401982 -0.06780413 0.066732906 -0.007650059 0.10837988 0.022012992
0.027506577 0.1058396 -0.058844674 0.1660101 0.036634088 -0.1639341 0.12632427 0.10266398
-0.12323083 -0.13096043 -0.07049346 -0.073173806 -0.14990912 0.15378636 -0.024381533 -0.07339802
-0.012094677 0.019192528 0.022691043 0.02480083 -0.06763123 -0.09720099 0.009191919 -0.07833177
-0.021841161 0.19010158 -0.19037917 -0.0036244316 0.15758935 0.11065745 -0.04150156 0.17932902
-0.05711806 0.14149268 0.19241437 -0.018481819 -0.11633399 0.09611645 -0.05709584 -0.11365809
0.07038543 0.04155029 0.19742903 -0.06359642 -0.22690514 -0.125858 -0.07654078 -0.07541216
-0.16126989 0.2087516 -0.020383611 -0.23465812 0.10148488 -0.19547108 0.06724873 0.013018919
-0.1664444 0.14541624 -0.027911004 0.18365477 -0.12575911 -0.19682305 -0.16728497 0.2154912
-0.028085295 -0.07847295 -0.029175814 -0.10976751 -0.020723173 -0.054339796 -0.19028777 0.03666209
0.11937806 -0.07560278 -0.1961194 0.17340067 0.010850828 0.080212615 -0.18577987 0.14216062
0.08218186 -0.071167514 -0.07200614 0.061914235 -0.037159324 -0.092527896 -0.035492994 0.14160118
0.0010286202 -0.016005207 -0.09601769 -0.052899573 -0.028487645 -0.14415577 -0.015922256 -0.041713383
-0.112297565 0.090383686 -0.14468719 0.04300829 0.12762626 0.050914325 -0.037897132 -0.10534141
-0.106541425 0.025618756 0.014393208 -0.12058744 -0.0404475 -0.103547044 0.008317539 -0.113708496
0.1269946 0.030393198 0.054193154 0.111839354 -0.0037665819 -0.07330757 -0.12204012 0.0007743094
0.06255841 0.05854557 0.012664167 -0.0034906312 0.09290401 -0.14840092 0.008336694 -0.09776515
0.12757328 -0.08044227 0.03428139 -0.0020221984 -0.025601784 -0.046459526 -0.12152131 -0.11615057
-0.052248318 -0.1263557 -0.010661133 0.12742999 -0.058432806 -0.08707762 -0.06598812 -0.13050091
-0.14451937 0.008237108 0.12205542 0.13978556 0.049874563 0.0025595312 0.008240216 -0.15033282
0.016132975 0.012377226 -0.060564213 -0.045082297 0.17660175 0.0769087 0.06360068 0.055117045
0.059887674 -0.12768087 0.118663564 -0.13847518 0.04212563 -0.06834765 -0.19493087 -0.027402999
0.09323151 -0.061731637 0.1459991 -0.055227872 -0.067197844 -0.066328496 0.1157849 0.031414796
-0.044330224 0.015441208 0.027054172 0.14494847 0.1732269 -0.068595506 0.035762016 -0.032549024
0.16896154 0.18104205 -0.0070843557 0.13916841 0.15451805 -0.059151806 0.03428324 -0.07281182
-0.16859387 0.2066166 0.2083169 0.050306782 -0.03594887 0.21691908 0.07569856 -0.22107217
0.0883381 -0.18384671 -0.12472852 -0.22001708 -0.00943722 0.11065873 0.0035212585 -0.010576026
-0.01833563 0.13220748 -0.20095257 -0.13714743 0.22472143 -0.13766557 0.03558931 0.196631
-0.17293021 0.14028887 0.20963192 0.04268678 0.07167335 -0.18808356 -0.1693555 0.0041024564
-0.04696506 0.12300267 -0.017546698 -0.04836849 -0.07787232 0.043667283 -0.14026845 0.09021411
-0.019820914 -0.13330331 0.017739635 -0.033147544 -0.061879598 -0.08131403 0.06857379 0.10772143
00000000: efd9 a93d 3091 7e3d 8d12 97bd 1d9f 9a3d
00000010: 5479 763d eb15 a1bd 2c9a 383d d87b dd3c
00000020: a229 333e 85ba 1c3e 204e 34bd e4dc 8abd
00000030: 43ab 883d 59ad fabb 45f6 dd3d 9754 b43c
00000040: 7955 e13c 6fc2 d83d 1d07 71bd 8dfe 293e
00000050: a00d 163d 57de 27be 265b 013e 7e41 d23d
00000060: 7260 fcbd 7e1a 06be e05e 90bd 26dc 95bd
00000070: c781 19be 2c7a 1d3e c8bb c7bc b351 96bd
00000080: c128 46bc a639 9d3c 91e2 b93c 1c2b cb3c
00000090: 3e82 8abd 5011 c7bd b499 163c 686c a0bd
000000a0: 3cec b2bc fda9 423e c2f2 42be df87 6dbb
000000b0: 1a5f 213e 60a0 e23d 8afd 29bd 07a2 373e
000000c0: a0f4 69bd 75e3 103e 4608 453e 2f67 97bc
000000d0: 8440 eebd b4d8 c43d 54dd 69bd 93c5 e8bd
000000e0: 3c26 903d a330 2a3d d62a 4a3e d73e 82bd
000000f0: d259 68be ebe0 00be 6ac1 9cbd b171 9abd
00000100: ef23 25be fbc2 553e 88fb a6bc 384a 70be
00000110: 4ed7 cf3d 9229 48be b4b9 893d 4e4d 553c
00000120: 6770 2abe ffe7 143e 9ea5 e4bc ff0f 3c3e
00000130: ffc6 00be fb8b 49be c04c 2bbe baa9 5c3e
00000140: 2213 e6bc 6db6 a0bd 1e02 efbc cacd e0bd
00000150: a5c3 a9bc 6893 5ebd ccda 42be fd2a 163d
00000160: 7c7c f43d a1d5 9abd 86d3 48be f28f 313e
00000170: acc7 313c 8346 a43d 143d 3ebe 8e92 113e
00000180: f74e a83d 46c0 91bd f577 93bd c899 7d3d
00000190: 6034 18bd 447f bdbd 1a61 11bd e6ff 103e
000001a0: c4d2 863a 5a1d 83bc eca4 c4bd 39ad 58bd
000001b0: ec5e e9bc 929d 13be 646f 82bc a7db 2abd
000001c0: 44fc e5bd 151b b93d e128 14be 7629 303d
000001d0: 75b0 023e 8a8b 503d 063a 1bbd 3dbd d7bd
000001e0: 6432 dabd 6dde d13c 7dd1 6b3c 8cf6 f6bd
000001f0: 47ac 25bd 7910 d4bd 4946 083c 00e0 e8bd
00000200: df0a 023e 28fb f83c a4f9 5d3d 080c e53d
00000210: c2d8 76bb 4722 96bd 2cf0 f9bd 06fb 4a3a
00000220: a01e 803d 7bcd 6f3d 5e7d 4f3c 13c3 64bb
00000230: 7544 be3d 69f6 17be a196 083c 1839 c8bd
00000240: 92a2 023e ebbe a4bd a56a 0c3d dc86 04bb
00000250: d5ba d1bc 584c 3ebd 2ae0 f8bd 5ae0 edbd
00000260: 5502 56bd 6363 01be 08ac 2ebc 027d 023e
00000270: 3d57 6fbd c055 b2bd c824 87bd 08a2 05be
00000280: e3fc 13be eff4 063c 31f8 f93d f223 0f3e
00000290: 4549 4c3d cfbd 273b f901 073c d9f0 19be
000002a0: 4d29 843c d9c9 4a3c 2e12 78bd 37a8 38bd
000002b0: 17d7 343e 4f82 9d3d 1341 823d 69c2 613d
000002c0: c74c 753d c6be 02be e205 f33d 70cc 0dbe
000002d0: ed8b 2c3d daf9 8bbd f59b 47be 417c e0bc
000002e0: 29f0 be3d 50da 7cbd ca80 153e 9f36 62bd
000002f0: 069f 89bd 3cd7 87bd a220 ed3d cdac 003d
00000300: 9c93 35bd 1ffd 7c3c b6a0 dd3c 5f6d 143e
00000310: 6462 313e cd7b 8cbd 317b 123d 2052 05bd
00000320: 4104 2d3e 1663 393e e223 e8bb 2a82 0e3e
00000330: fb39 1e3e 2a49 72bd 956c 0c3d 5d1e 95bd
00000340: dfa3 2cbe 4d93 533e 0751 553e 7c0e 4e3d
00000350: 1f3f 13bd 0920 5e3e d907 9b3d be60 62be
00000360: 9bea b43d 5042 3cbe ab71 ffbd 284c 61be
00000370: 929e 1abc 0ba1 e23d eac4 663b 1147 2dbc
00000380: 9a34 96bc 6661 073e 83c6 4dbe 6070 0cbe
00000390: 601d 663e 34f8 0cbe 19c6 113d a359 493e
000003a0: 9e14 31be e3a7 0f3e c0a9 563e 55d8 2e3d
000003b0: 7ac9 923d fa98 40be 876b 2dbe e66d 863b
000003c0: 6f5e 40bd d3e8 fb3d 18be 8fbc 0a1e 46bd
000003d0: 867b 9fbd 77dc 323d 88a2 0fbe 2dc2 b83d
000003e0: 785f a2bc aa80 08be b652 913c b8c5 07bd
000003f0: 7675 7dbd f887 a6bd 6a70 8c3d 0e9d dc3d

bias f4 [40]
0.015014879 -0.0552926 -0.13267243 0.12407566 -0.07478007 0.16615103 -0.03552969 -0.1823751
0.1520096 0.050694138 -0.056080423 0.052897345 0.12060564 0.0032590786 -0.16351442 0.14342411
-0.07766814 -0.21821015 -0.08902706 0.18139249 0.020571219 -0.0020002765 0.009762553 0.08910796
-0.16619763 -0.09595059 0.022700757 -0.06651361 -0.09096479 -0.14127754 0.051446095 -0.035841595
0.031607784 0.026536629 0.008009076 -0.0028686812 0.1786639 -0.0073843827 0.121655665 -0.0009920277
00000000: f800 763c 7e7a 62bd 48db 07be 611b fe3d
00000010: 4b26 99bd 7f23 2a3e 9587 11bd 8ac0 3abe
00000020: 68a8 1b3e a8a4 4f3d 96b4 65bd e3aa 583d
00000030: 1700 f73d 4496 553b 5370 27be c5dd 123e
00000040: 7910 9fbd 7b72 5fbe d253 b6bd f4be 393e
00000050: f984 a83c 1217 03bb 1df3 1f3c 3c7e b63d
00000060: b62f 2abe be81 c4bd f0f6 b93c 4a38 88bd
00000070: bf4b babd 0fab 10be 24b9 523d a3ce 12bd
00000080: 2a77 013d 5863 d93c 8038 033c 7c00 3cbb
00000090: abf3 363e b1f8 f1bb 9b26 f93d ed06 82ba

weight f4 [40, 40]
0.16326514 -0.037760135 0.1531552 -0.027600255 0.15047863 0.120721355 -0.030123895 0.11292746
0.07805438 0.20655139 0.012780072 0.1413052 0.16220339 -0.011580683 -0.10584465 0.071814604
0.1730748 -0.058976207 0.056861546 0.18094127 0.023595657 0.18756112 -0.048961103 -0.013637062
-0.16994008 -0.060783643 -0.06523587 0.07359166 -0.09036171 -0.0003468147 0.16863202 0.04091576
0.016720051 -0.007465946 0.18709637 0.12321764 0.20838277 -0.07494195 -0.011200323 -0.061431017
0.021824952 -0.08450688 -0.02587562 0.10393611 -0.13254313 -0.09446736 -0.19582596 0.045222465
0.110072784 -0.14387871 -0.057457905 -0.014593067 0.040641524 0.06572061 0.09794467 -0.049110774
0.044507183 0.17404008 0.06795324 -0.083642825 0.018301941 0.12859705 0.059680484 -0.030458828
0.14577636 -0.0044389553 0.09653979 -0.15223232 -0.09843475 0.023107024 -0.12599587 0.11373121
0.018379847 -0.07592985 0.08540787 0.09464104 0.051891662 0.09952991 0.057034608 -0.044824496
0.019690627 0.03344978 0.043940026 0.11299133 0.09435945 -0.04207434 -0.096872404 -0.14688453
-0.02455422 0.116433226 -0.013288303 -0.021348884 0.008603295 0.015525694 0.027702177 0.05444166
0.11415529 -0.01601076 0.14387417 0.13892134 -0.17756842 0.11096235 -0.09322281 -0.025820244
-0.1403421 -0.023675272 0.043279234 -0.11229889 0.10371708 -0.016425591 -0.14159958 -0.061837796
0.018342223 -0.061849307 -0.095507674 0.05387733 0.056806218 -0.08465832 -0.115920044 -0.17274588
0.022084264 0.07870388 0.02711409 0.057880264 0.034220517 0.21907145 -0.04686237 -0.08231681
-0.07229906 -0.06704234 0.18244289 -0.004606605 0.046115108 0.0522564 0.08444296 0.14349452
0.13469289 -0.10387358 -0.022381539 0.20270213 -0.0828676 0.10424628 0.02445099 0.061376505
-0.056122772 0.09932639 -0.042926576 -0.08993219 -0.081171915 -0.002136602 0.14039284 0.21359845
-0.00050171965 0.016129661 0.11106943 0.15243642 0.15013725 -0.09450901 0.022071049 -0.054044947
0.12593846 0.15054436 -0.0824488 -0.009116479 0.046895057 0.064783856 0.13253295 -0.00073395204
0.14214727 -0.0394636 0.17006123 0.19149463 0.012860924 -0.04383643 0.004678434 0.118284106
0.038430654 0.07925782 0.1194992 0.115982525 -0.11907311 -0.033781886 0.039019424 -0.08215453
-0.13114612 -0.015785241 -0.09234531 -0.11497494 0.12987202 -0.0032982845 -0.098490946 0.19045149
0.080158256 -0.029917216 0.0030165538 -0.08295507 0.083895 -0.072026506 0.15562129 -0.14021087
0.05374459 0.06687596 0.14495113 0.12207199 0.09949682 0.12318976 0.08024241 0.17624637
0.11979228 0.014130187 0.06417834 0.15421365 0.0051930966 0.0735047 -0.009111688 0.10599255
-0.106331825 -0.06863137 -0.11731844 0.15193109 0.10132363 0.059412234 0.11576562 -0.022468543
-0.058800895 0.02953549 0.023695149 0.074307896 0.09406086 0.19636846 0.1144677 -0.054423302
-0.09925399 -0.095617086 -0.12000973 -0.00013168098 0.14018238 0.03573736 -0.14937364 -0.07971215
-0.10440781 -0.07487906 0.15664817 -0.14863919 -0.089883864 -0.15075648 -0.001396985 0.18615395
-0.13821155 -0.09194471 -0.006330169 -0.17514151 -0.05612775 0.07986861 -0.10139252 -0.1531148
00000000: fa2e 273e 5faa 1abd b7d4 1c3e ee19 e2bc
00000010: 1217 1a3e c23c f73d 63c6 f6bc 8346 e73d
00000020: fada 9f3d 3582 533e 8263 513c 4fb2 103e
00000030: a518 263e e8bc 3dbc 14c5 d8bd 8913 933d
00000040: 853a 313e 0991 71bd a7e7 683d ab48 393e
00000050: ae4b c13c 0610 403e 708b 48bd fc6d 5fbc
00000060: c604 2ebe 45f8 78bd 629a 85bd 39b7 963d
00000070: 8f0f b9bd aed4 b5b9 dfad 2c3e 4997 273d
00000080: 7df8 883c e5a4 f4bb 3196 3f3e 8859 fc3d
00000090: 4b62 553e 2a7b 99bd 8f81 37bc 179f 7bbd
000000a0: 3eca b23c f111 adbd 1cf9 d3bc 75dc d43d
000000b0: 63b9 07be 1a78 c1bd 9a86 48be 313b 393d
000000c0: d76d e13d f154 13be fb58 6bbd c217 6fbc
000000d0: ba77 263d 8798 863d 3797 c83d 6128 49bd
000000e0: 2a4d 363d 9037 323e 112b 8b3d ee4c abbd
000000f0: f4ed 953c f2ae 033e 8673 743d cb84 f9bc
00000100: 6646 153e a874 91bb a7b6 c53d cae2 1bbe
00000110: 2998 c9bd f14a bd3c 1005 01be e9eb e83d
00000120: 5591 963c 1c81 9bbd 52ea ae3d 29d3 c13d
00000130: 5a8c 543d 56d6 cb3d 1f9d 693d e499 37bd
00000140: 3d4e a13c a302 093d 75fa 333d 0068 e73d
00000150: 873f c13d 2556 2cbd 0a65 c6bd e668 16be
00000160: ee25 c9bc 8b74 ee3d 2fb7 59bc dbe3 aebc
00000170: d6f4 0c3c 7b5f 7e3c adef e23c 38fe 5e3d
00000180: 40ca e93d ff28 83bc c053 133e 6541 0e3e
00000190: 7fd4 35be 3b40 e33d 9aeb bebd fa84 d3bc
000001a0: d7b5 0fbe a5f2 c1bc 9145 313d f6fc e5bd
000001b0: 9f69 d43d f68e 86bc 7bff 10be a149 7dbd
000001c0: 6e42 963c b355 7dbd 8799 c3bd 7aae 5c3d
000001d0: a3ad 683d 5761 adbd 7d67 edbd 4ce4 30be
000001e0: 0fea b43c 802f a13d 5e1e de3c db13 6d3d
000001f0: d02a 0c3d 4454 603e c2f2 3fbd b795 a8bd
00000200: 8811 94bd 7f4d 89bd 4fd2 3a3e 01f3 96bb
00000210: 32e3 3c3d cf0a 563d 6ef0 ac3d 3af0 123e
00000220: efec 093e acbb d4bd 7d59 b7bc 2691 4f3e
00000230: 7db6 a9bd 137f d53d 714d c83c ee65 7b3d
00000240: fee0 65bd a26b cb3d c7d3 2fbd 5e2e b8bd
00000250: 763d a6bd 3c06 0cbb 24c3 0f3e 8db9 5a3e
00000260: d685 03ba 5a22 843c 5f78 e33d 4b18 1c3e
00000270: 94bd 193e f18d c1bd 58ce b43c 3c5e 5dbd
00000280: 03f6 003e 4d28 1a3e ebda a8bd 495d 15bc
00000290: 0815 403d 66ad 843d b8b6 073e b066 40ba
000002a0: 0e8f 113e 95a4 21bd 8824 2e3e 2b17 443e
000002b0: a0b6 523c d48d 33bd 8d4d 993b f03e f23d
000002c0: 7669 1d3d ed51 a23d ffbb f43d 3f88 ed3d
000002d0: 9adc f3bd e05e 0abd d5d2 1f3d a240 a8bd
000002e0: 2b4b 06be 0d50 81bc 8a1f bdbd fb77 ebbd
000002f0: 2cfd 043e 0828 58bb 9fb5 c9bd b705 433e
00000300: 032a a43d f314 f5bc 60b1 453b 59e4 a9bd
00000310: 24d1 ab3d a282 93bd 305b 1f3e 7093 0fbe
00000320: 4a23 5c3d 43f6 883d 126e 143e e100 fa3d
00000330: fdc4 cb3d ea4a fc3d 2256 a43d ee79 343e
00000340: a855 f53d 4d82 673c ef6f 833d 2fea 1d3e
00000350: da2a aa3b a289 963d 3049 15bc 9f12 d93d
00000360: 80c4 d9bd 9b8e 8cbd a644 f0bd d393 1b3e
00000370: c382 cf3d 3e5a 733d 8616 ed3d f30f b8bc
00000380: 35d9 70bd 69f4 f13c 541c c23c bd2e 983d
00000390: fba2 c03d d014 493e 0b6e ea3d f8ea 5ebd
000003a0: ad45 cbbd e4d2 c3bd a9c7 f5bd d813 0ab9
000003b0: f88b 0f3e 5761 123d 67f5 18be 2040 a3bd
000003c0: c3d3 d5bd 315a 99bd 6168 203e df34 18be
000003d0: 0815 b8bd e85f 1abe 0a1b b7ba 249f 3e3e
000003e0: 5487 0dbe 824d bcbd 4e6d cfbb 4c58 33be
000003f0: 36e6 65bd 2792 a33d e2a6 cfbd 20ca 1cbe

bias f4 [40]
0.13940646 0.06311332 -0.014411755 -0.034337994 0.18373966 0.0026314128 -0.05073669 -0.07794598
0.071749166 -0.010847341 0.09944655 0.03917188 0.021231284 0.090388395 0.050713982 -0.027226048
-0.14188701 -0.066484 0.058514 -0.0038233926 -0.121412754 0.03379477 0.050590828 -0.0053765993
-0.0830243 -0.03145255 0.08424461 0.0681603 -0.14661671 -0.015787493 -0.060199197 -0.026211694
-0.057514023 0.06310608 -0.12832974 0.14781785 0.028985135 0.16471499 -0.0608297 -0.026743721
00000000: 91c0 0e3e 8e41 813d 481f 6cbc ffa5 0cbd
00000010: 4026 3c3e c873 2c3b 47d1 4fbd 24a2 9fbd
00000020: 3af1 923d 0cb9 31bc a2aa cb3d b172 203d
00000030: 3bed ad3c 8d1d b93d 77b9 4f3d 2909 dfbc
00000040: d44a 11be c328 88bd 60ac 6f3d e291 7abb
00000050: 40a7 f8bd 626c 0a3d 5438 4f3d 2f2e b0bb
00000060: a508 aabd 64d4 00bd 7088 ac3d a197 8b3d
00000070: b122 16be c654 81bc 6f93 76bd e8b9 d6bc
00000080: d393 6bbd c33d 813d df68 03be 905d 173e
00000090: 3c72 ed3c 0cab 283e 9028 79bd a615 dbbc

weight_ih_l0 f4 [120, 40]
-0.17824423 -0.030352052 -0.114079066 0.06510014 0.015439162 0.05300957 0.012591253 0.046584595
0.02236939 -0.041245364 -0.07938812 0.10835968 0.054044094 -0.13016422 -0.039492518 -0.029067805
0.02420337 0.15341577 -0.018588701 -0.14057517 0.06956066 0.06201124 0.036057826 -0.14710008
0.122536525 0.16924183 0.06717748 -0.08059513 0.055935867 -0.075157896 -0.17010465 -0.15673682
0.17569546 -0.0063896105 0.15269269 -0.12626742 -0.10006482 -0.052940022 0.16563644 -0.07922384
0.13878652 0.11649821 -0.17244557 0.12252422 0.090451606 0.1413565 -0.09281391 0.045976087
-0.1342882 -0.10710564 0.051816713 -0.18640573 0.019490937 0.008439717 -0.19852498 -0.010546841
0.11740777 0.115265794 0.14633928 -0.08201805 -0.06660735 0.102310464 -0.060007207 -0.102546595
-0.12894917 -0.1888865 0.15380235 -0.15518515 0.10278443 0.044457994 0.040011972 0.08046925
-0.029053235 -0.19350702 -0.17947471 -0.017810913 0.19088607 -0.04816925 -0.10223363 -0.05367274
0.08907047 -0.091892615 -0.02512681 0.16393656 -0.15610255 0.08253691 0.15822525 0.13565524
-0.095336385 -0.09283215 -0.1718691 0.053875692 -0.1361903 -0.11070021 0.06940929 0.08820453
-0.097308755 -0.13540362 -0.045857202 -0.064951636 -0.007418335 0.13237935 -0.17578585 -0.04879369
0.08623331 0.10443043 -0.027444396 -0.17819403 0.07260398 -0.08341441 0.092419855 0.1326835
0.013436657 -0.0984486 0.06701178 -0.10270325 0.17954522 -0.14715609 0.107106574 0.17258511
-0.046701398 0.031062214 -0.063720435 -0.042747613 0.078333475 0.13237381 -0.091781124 -0.15758184
0.11855943 -0.13494022 -0.06075215 -0.101103544 0.17073739 0.035926677 -0.05864765 -0.08117179
-0.03046547 -0.008846084 0.17269133 -0.079185046 -0.012436223 0.09561127 -0.07567637 -0.11999977
-0.120699644 0.006951168 0.1947078 -0.07049569 -0.10063924 -0.22717649 -0.026233513 0.17826347
-0.19975515 -0.17565385 0.0011255037 0.06967798 -0.0011509396 0.04246142 0.0066212625 -0.21703398
-0.08665817 -0.018039584 0.040903594 0.13654514 -0.13761207 0.015928831 -0.11523428 -0.07959801
0.19531219 0.018418862 -0.034741033 -0.031871684 -0.09965211 -0.15911782 -0.03483753 0.10390413
0.04467668 0.1638249 -0.08586793 -0.1117422 0.061443284 -0.05955489 0.047769126 0.047012255
0.10595279 -0.07863427 -0.0032548471 0.083940275 0.14791171 0.10624462 0.028642032 -0.16304322
0.052071 0.16952375 -0.10868702 0.09416071 -0.018019415 -0.17098235 0.07548394 -0.04116397
-0.104224995 -0.20443793 0.15378122 -0.07422885 0.07954751 0.12615919 -0.07657596 0.060641807
-0.12251847 0.035405584 -0.0093329735 -0.17917973 -0.14084142 0.07317258 0.09629231 0.09689232
0.09321 -0.122798614 -0.06601072 -0.1241112 -0.062643714 -0.09851938 -0.16928394 0.19977628
-0.032223955 0.008262607 -0.04444301 -0.14544652 0.06850849 0.067879 0.074113905 0.09821264
0.045199465 -0.08809229 -0.04620067 -0.021451898 0.17976415 -0.16019262 -0.08756286 0.043904226
-0.099729985 -0.11743146 -0.049342066 0.07843128 -0.02428922 0.09138506 -0.006869101 0.038697
-0.11824129 -0.05148503 -0.08931461 -0.1216254 0.104702815 -0.051425233 -0.1779801 0.0031099913
00000000: a885 36be dea4 f8bc 49a2 e9bd 3953 853d
00000010: 8af4 7c3c 9020 593d 8b4b 4e3c 7dcf 3e3d
00000020: 0340 b73c e6f0 28bd 3d96 a2bd aeeb dd3d
00000030: 575d 5d3d c549 05be e8c2 21bd 9b1f eebc
00000040: 2546 c63c 0619 1d3e 5547 98bc f0f2 0fbe
00000050: d275 8e3d 7fff 7d3d 5fb1 133d 67a1 16be
00000060: 6ef4 fa3d bb4d 2d3e 5994 893d 0f0f a5bd
00000070: 021d 653d 62ec 99bd ea2f 2ebe 9e7f 20be
00000080: 83e9 333e f05f d1bb 795b 1c3e 3f4c 01be
00000090: c9ee ccbd a3d7 58bd 999c 293e 1c40 a2bd
000000a0: 0e1e 0e3e 9d96 ee3d 9295 30be faed fa3d
000000b0: b13e b93d c2bf 103e 3815 bebd 6c51 3c3d
000000c0: d982 09be 345a dbbd c33d 543d 25e1 3ebe
000000d0: 75ab 9f3c bd46 0a3c 224a 4bbe a8cc 2cbc
000000e0: 7c73 f03d 7910 ec3d f7d9 153e 14f9 a7bd
000000f0: 6f69 88bd 2688 d13d 1eca 75bd f303 d2bd
00000100: 400b 04be 766b 41be 5d7e 1d3e dbe8 1ebe
00000110: a580 d23d 9619 363d 98e3 233d 10cd a43d
00000120: 0d01 eebc b426 46be 38c8 37be 31e8 91bc
00000130: a377 433e 1f4d 45bd de5f d1bd f2d7 5bbd
00000140: 946a b63d 3232 bcbd bdd6 cdbc fcde 273e
00000150: 59d9 1fbe 1d09 a93d cd05 223e 35e9 0a3e
00000160: b93f c3bd c81e bebd 74fe 2fbe c2ac 5c3d
00000170: 7875 0bbe cbb6 e2bd 7526 8e3d 94a4 b43d
00000180: d049 c7bd 3fa7 0abe c3d4 3bbd 5d05 85bd
00000190: 8115 f3bb 748e 073e 3501 34be e4db 47bd
000001a0: 179b b03d 9fdf d53d 12d3 e0bc 7f78 36be
000001b0: 65b1 943d 2dd5 aabd 9f46 bd3d 2fde 073e
000001c0: 6d25 5c3c 6b9f c9bd 793d 893d 1556 d2bd
000001d0: b4da 373e 16b0 16be b15a db3d 27ba 303e
000001e0: f749 3fbd 2f76 fe3c dc7f 82bd 1f18 2fbd
000001f0: 4d6d a03d 008d 073e bef7 bbbd 225d 21be
00000200: 49cf f23d c52d 0abe 3fd7 78bd 600f cfbd
00000210: c8d5 2e3e da27 133d 8538 70bd 653d a6bd
00000220: b992 f9bc 2aef 10bc ffd5 303e c52b a2bd
00000230: 4dc1 4bbc d7cf c33d 36fc 9abd 70c2 f5bd
00000240: 6031 f7bd a0c6 e33b 7b61 473e 0b60 90bd
00000250: f21b cebd f4a0 68be aae7 d6bc b38a 363e
00000260: 9d8c 4cbe 9ade 33be a385 933a 54b3 8e3d
00000270: 20db 96ba 07ec 2d3d 2df7 d83b 283e 5ebe
00000280: d779 b1bd c0c7 93bc 878a 273d 7dd2 0b3e
00000290: 2eea 0cbe 2e7d 823c f3ff ebbd 4804 a3bd
000002a0: ebff 473e 27e3 963c 9d4c 0ebd e28b 02bd
000002b0: 6816 ccbd c8ef 22be ccb1 0ebd b0cb d43d
000002c0: e5fe 363d b7c1 273e 86db afbd 18d9 e4bd
000002d0: f4ab 7b3d d4ef 73bd 8fa9 433d ec8f 403d
000002e0: c7fd d83d 010b a1bd 464f 55bb e1e8 ab3d
000002f0: 2b76 173e c896 d93d b2a2 ea3c cdf4 26be
00000300: 6748 553d a297 2d3e 4d97 debd 55d7 c03d
00000310: 749d 93bc ff15 2fbe 5397 9a3d 8d9b 28bd
00000320: ea73 d5bd 2d58 51be d378 1d3e 4c05 98bd
00000330: cee9 a23d e02f 013e dbd3 9cbd 8b63 783d
00000340: f7ea fabd 7205 113d 54e9 18bc e47a 37be
00000350: bc38 10be 81db 953d e734 c53d 7b6f c63d
00000360: e2e4 be3d d77d fbbd a130 87bd 032e febd
00000370: 594b 80bd 87c4 c9bd c558 2dbe 2792 4c3e
00000380: 44fd 03bd e35f 073c e009 36bd efef 14be
00000390: 2e4e 8c3d 2504 8b3d 08c9 973d b523 c93d
000003a0: 1323 393d bb69 b4bd ea3c 3dbd e4bb afbc
000003b0: 1814 383e 8909 24be 2854 b3bd ebd4 333d
000003c0: 3c3f ccbd e87f f0bd e81a 4abd 94a0 a03d
000003d0: 30fa c6bc 1728 bb3d 3216 e1bb bf80 1e3d
000003e0: 7d28 f2bd f8e1 52bd 94ea b6bd bd16 f9bd
000003f0: 6e6e d63d 44a3 52bd 6a40 36be ffd0 4b3b

weight_hh_l0 f4 [120, 40]
-0.0751983 -0.0038389228 0.12183472 -0.116741225 0.11463171 0.018711375 0.169689 -0.012178091
0.09873414 0.16633952 -0.056769665 0.016010515 0.09338991 -0.19519117 0.09820221 0.022910792
-0.026382547 -0.13460772 0.09486004 -0.08181772 -0.04968748 0.054646812 -0.033278048 0.08954054
0.09449091 -0.11530277 -0.045759875 -0.097824164 -0.050086085 0.041348245 0.10209463 0.048461616
-0.16902702 -0.02122821 -0.11670419 -0.14130923 -0.12372314 -0.11508741 0.15318586 0.08853846
0.111242816 0.11254698 0.04319592 -0.013504071 -0.026956275 0.21903302 -0.0043531633 0.06728035
-0.07107817 -0.17491421 0.080997184 -0.15323 0.0078108693 0.19523539 0.20490055 -0.06458544
-0.0039612735 -0.04231495 -0.021634702 -0.1778859 0.105833374 0.15094416 -0.09158 0.13762635
-0.038761556 -0.08935207 -0.0826009 0.16708857 -0.108528174 -0.14809492 -0.18684168 -0.17809372
0.20966452 -0.034125824 -0.028355714 0.061855864 -0.18261747 0.023568163 -0.15346444 0.17042251
-0.062032193 0.0086037805 -0.12692903 0.1089141 -0.16884905 0.17222293 -0.10754809 0.0841462
0.006501245 -0.024625827 0.12797976 0.049250226 0.016005252 0.063269794 -0.091511 -0.098614395
0.1358498 -0.13573863 -0.0902819 0.008445692 0.094381 0.10086762 -0.021784777 -0.17198224
-0.025501229 -0.00023634982 -0.08424371 -0.07394192 0.012409292 -0.14195293 0.020356987 -0.020023108
0.09071352 -0.047739424 -0.011873109 -0.03164128 0.05721672 -0.052117784 -0.107588544 -0.11249401
0.09993708 0.124654405 -0.2228006 -0.009984547 0.120298564 -0.047875814 -0.029482782 -0.1278829
0.080082096 0.023073358 -0.12269171 0.06393735 -0.12623572 -0.10073361 0.13269342 0.14484619
-0.014163526 0.16528094 -0.09159856 0.07895341 0.09983125 -0.0319113 0.079386584 0.13224748
-0.076875634 -0.07932834 0.10184587 0.09090087 -0.15983987 -0.08548308 -0.020513961 0.03189464
0.05007196 0.1099412 -0.044427365 0.010385174 -0.1806921 -0.00703927 0.01963603 -0.078944795
-0.04106869 -0.10154229 0.060829926 -0.015625983 0.12038994 -0.16928536 0.0012977425 0.08838021
0.117399305 0.19622718 0.17653807 0.10599709 -0.069554605 0.09663826 -0.12844752 0.022676423
-0.003069106 -0.11623274 0.07937112 0.20347364 0.06343406 0.0579447 -0.011477121 0.07163232
0.034528963 -0.10417748 -0.01966395 0.004864722 -0.061957136 0.0035020914 0.1540971 0.16709124
-0.14529157 0.031901248 -0.14846069 0.045021947 0.081309795 0.09611001 0.034083087 0.06473728
-0.16601779 0.10951568 0.16483359 0.13531661 -0.09830477 0.10681745 0.14437641 0.1633599
0.13534519 0.03757083 -0.11841537 -0.051083483 -0.006739775 0.05217329 -0.06449691 -0.0194964
0.12134083 -0.11128906 0.14147142 0.09739427 0.15048748 -0.113016576 0.054676864 -0.104719885
0.014665911 -0.027976705 -0.052469637 -0.15457922 0.13067248 0.1110925 0.09400578 -0.16765547
-0.054065663 -0.023003347 -0.10989415 -0.046966784 0.029356342 0.13452208 -0.14352065 -0.029670225
0.059352215 0.01670733 0.14176679 0.17230873 -0.14279346 0.064161256 0.21697697 -0.07115005
0.022472452 0.12508108 0.1950351 -0.10154594 0.053903528 0.06271911 0.026260395 -0.071752466
00000000: 9101 9abd 7096 7bbb 7b84 f93d 0616 efbd
00000010: 08c4 ea3d 9948 993c f4c2 2d3e 9e86 47bc
00000020: 2035 ca3d e854 2a3e 4f87 68bd 7c28 833c
00000030: 3643 bf3d 32e0 47be 3e1e c93d 6aaf bb3c
00000040: 3620 d8bc 9bd6 09be fb45 c23d 0c90 a7bd
00000050: 1985 4bbd 56d5 5f3d 904e 08bd 0861 b73d
00000060: 7384 c13d dc23 ecbd b56e 3bbd 0958 c8bd
00000070: 1127 4dbd c75c 293d fd16 d13d b07f 463d
00000080: 6b15 2dbe c8e6 adbc 9b02 efbd 5eb3 10be
00000090: 8f62 fdbd f3b2 ebbd c1dc 1c3e a753 b53d
000000a0: 46d3 e33d 087f e63d 34ee 303d 2e40 5dbc
000000b0: 68d3 dcbc 314a 603e fba4 8ebb 48ca 893d
000000c0: 6e91 91bd b61c 33be dae1 a53d 53e8 1cbe
000000d0: 52f2 ff3b c9eb 473e 73d1 513e 5f45 84bd
000000e0: 92cd 81bb 7152 2dbd 423b b1bc b927 36be
000000f0: 2bbf d83d 1b91 1a3e 4c8e bbbd eced 0c3e
00000100: 70c4 1ebd 38fe b6bd a92a a9bd 4419 2b3e
00000110: 0544 debd 32a6 17be 6d53 3fbe 335e 36be
00000120: 4cb2 563e 85c7 0bbd 3e4a e8bc 935c 7d3d
00000130: 1300 3bbe 0512 c13c c825 1dbe 3d83 2e3e
00000140: 7815 7ebd dff6 0c3c aff9 01be 5b0e df3d
00000150: c4e6 2cbe 355b 303e 2c42 dcbd d854 ac3d
00000160: 6508 d53b 1abc c9bc 200d 033e 9bba 493d
00000170: 721d 833c 9893 813d 1f6a bbbd 58f6 c9bd
00000180: 361c 0b3e 11ff 0abe b7e5 b8bd cd5f 0a3c
00000190: d34a c13d af93 ce3d fd75 b2bc 1d1c 30be
000001a0: f4e7 d0bc acd4 77b9 f787 acbd dd6e 97bd
000001b0: 5850 4b3c 1c5c 11be b2c3 a63c 8007 a4bc
000001c0: 03c8 b93d 6a8a 43bd 6e87 42bc 499a 01bd
000001d0: 145c 6a3d 7579 55bd 6257 dcbd 4263 e6bd
000001e0: d0ab cc3d cf4a ff3d d725 64be 3a96 23bc
000001f0: 185f f63d 6e19 44bd e085 f1bc bcf3 02be
00000200: 1502 a43d 5704 bd3c cb45 fbbd 96f1 823d
00000210: f043 01be 6c4d cebd c9e0 073e 8f52 143e
00000220: 220e 68bc 683f 293e 0798 bbbd 53b2 a13d
00000230: 5474 cc3d 6cb5 02bd 6f95 a23d e26b 073e
00000240: f970 9dbd e676 a2bd 9194 d03d 3c2a ba3d
00000250: 10ad 23be c111 afbd e50c a8bc f4a3 023d
00000260: 4118 4d3d da28 e13d 78f9 35bd 9426 2a3c
00000270: 5a07 39be ada9 e6bb bddb a03c cfad a1bd
00000280: a537 28bd 67f5 cfbd cd28 793d 1002 80bc
00000290: 008f f63d 2459 2dbe 0319 aa3a af00 b53d
000002a0: 0c6f f03d c7ef 483e 65c6 343e 0115 d93d
000002b0: a572 8ebd 48ea c53d bf87 03be e8c3 b93c
000002c0: 0e23 49bb 6e0b eebd 538d a23d 655b 503e
000002d0: b7e9 813d 6c57 6d3d 890a 3cbc f7b3 923d
000002e0: 3e6e 0d3d 015b d5bd 4b16 a1bc 3f68 9f3b
000002f0: c4c6 7dbd 5883 653b a1cb 1d3e f719 2b3e
00000300: 50c7 14be e2aa 023d 1406 18be ef68 383d
00000310: c085 a63d 53d5 c43d b59a 0b3d fb94 843d
00000320: 9100 2abe c249 e03d 23ca 283e 7090 0a3e
00000330: 0354 c9bd 1bc3 da3d 69d7 133e d147 273e
00000340: ee97 0a3e dfe3 193d c283 f2bd ea3c 51bd
00000350: 55d9 dcbb a9b3 553d f516 84bd eab6 9fbc
00000360: 8b81 f83d 85eb e3bd e2dd 103e a676 c73d
00000370: 6419 1a3e 3c75 e7bd d9f4 5f3d 6177 d6bd
00000380: 4a49 703c 672f e5bc 67ea 56bd 044a 1ebe
00000390: 02cf 053e 7784 e33d 1a86 c03d e0ad 2bbe
000003a0: f573 5dbd 8471 bcbc 2f10 e1bd 3e60 40bd
000003b0: b67c f03c 28c0 093e 14f7 12be f90e f3bc
000003c0: 4f1b 733d cfdd 883c 502b 113e b371 303e
000003d0: 7338 12be fa66 833d 362f 5e3e 1eb7 91bd
000003e0: 2618 b83c 4115 003e 48b7 473e 51f7 cfbd
000003f0: f2c9 5c3d e072 803d 0a20 d73c f5f2 92bd

bias_ih_l0 f4 [120]
0.03454786 0.004634744 -0.14699216 -0.050731946 0.010336521 0.12452453 -0.09342586 0.020497842
0.08822605 -0.048513122 0.03495552 -0.073155195 -0.061804928 0.1365453 0.14820835 -0.13503097
0.1057683 -0.030852865 -0.043185282 -0.013352302 -0.15231016 -0.08257884 -0.1156184 -0.059091806
-0.16245991 0.0032723874 0.12466585 0.12273962 0.022687843 -0.024547536 -0.09575524 0.11317499
-0.0078785345 -0.2262036 0.037829846 -0.1442556 0.024268279 0.031604398 0.15739894 0.16453488
0.0018276004 0.08748124 0.11097167 -0.112032264 -0.03648454 -0.10669998 -0.1282589 0.014432783
-0.19044752 0.002097741 0.00075807306 -0.11497058 0.098334834 -0.17227004 -0.1561834 -0.07671283
0.12391538 -0.16189633 -0.1367966 -0.2168433 -0.0714991 0.059803 0.039842475 -0.003741717
-0.027494194 0.07963437 0.09997553 0.07486123 -0.12982205 -0.103065886 -0.060602043 -0.052463878
-0.13193728 0.023887143 0.029168066 0.014790222 -0.033959858 0.16150719 -0.16893288 0.056366786
-0.02846972 -0.09334582 -0.04233436 -0.0023556578 -0.11569064 0.0376053 -0.19069219 0.08405506
-0.0812608 0.020891964 -0.120913506 -0.10854141 -0.10616256 0.18162178 0.105646364 0.06641177
0.11681974 -0.11520352 0.074916914 0.027433746 -0.026758809 -0.08874819 0.096187994 0.05677413
-0.051341362 -0.15544067 0.036943346 0.00087349373 -0.092641555 0.023255702 0.068105415 0.089379676
0.00097478996 0.054052368 0.03043292 -0.077594474 -0.14135556 0.15134642 0.044727158 0.13027078
00000000: 0f82 0d3d 0ddf 973b 1d85 16be 4dcc 4fbd
00000010: 835a 293c b706 ff3d 0f56 bfbd 17eb a73c
00000020: dcaf b43d b2b5 46bd 852d 0f3d 64d2 95bd
00000030: 2a27 7dbd 88d2 0b3e eec3 173e 8f45 0abe
00000040: 0d9d d83d 26bf fcbc 0de3 30bd 9dc3 5abc
00000050: 32f7 1bbe 181f a9bd 57c9 ecbd 400a 72bd
00000060: e45b 26be 8d75 563b cf50 ff3d e95e fb3d
00000070: dbdb b93c ea17 c9bc 531b c4bd 4ac8 e73d
00000080: f814 01bc eba1 67be 78f3 1a3d bdb7 13be
00000090: 45ce c63c 9d73 013d 302d 213e d57b 283e
000000a0: 188c ef3a 5d29 b33d 1d45 e33d 2c71 e5bd
000000b0: d070 15bd 8585 dabd 4d56 03be 7b77 6c3c
000000c0: ad04 43be 417a 093b 6cb9 463a b275 ebbd
000000d0: c663 c93d 8f67 30be 8bee 1fbe 9e1b 9dbd
000000e0: 59c7 fd3d 27c8 25be 6814 0cbe 2c0c 5ebe
000000f0: 1f6e 92bd fef3 743d dd31 233d 9837 75bb
00000100: 813b e1bc 5817 a33d f8bf cc3d d850 993d
00000110: 12f0 04be 3514 d3bd d939 78bd 5de4 56bd
00000120: 911a 07be f8ae c33c def1 ee3c b052 723c
00000130: 7e19 0bbd 2462 253e befc 2cbe dce0 663d
00000140: 5539 e9bc 182c bfbd cb66 2dbd 6161 1abb
00000150: 37ef ecbd 0408 1a3d d044 43be 0f25 ac3d
00000160: 106c a6bd a025 ab3c 80a1 f7bd f54a debd
00000170: c26b d9bd 0ffb 393e 1f5d d83d e502 883d
00000180: 303f ef3d d3ef ebbd 0a6e 993d bcbc e03c
00000190: 4a35 dbbc 9cc1 b5bd 36fe c43d fd8b 683d
000001a0: 524b 52bd d72b 1fbe e851 173d 2cfb 643a
000001b0: dbba bdbd be82 be3c da7a 8b3d b10c b73d
000001c0: 0c89 7f3a 0466 5d3d 764e f93c dae9 9ebd
000001d0: 83bf 10be 8efa 1a3e d333 373d b465 053e
