Results/2330_discriminator1.pth (torch, 250863 bytes, 35 tensors)

weight_ih_l0 f4 [120, 20]
000000 65 1b 1c 3d 36 d0 a2 bd fc 87 d7 bd 2c 63 15 be
       0.038112063 -0.07949869 -0.10523984 -0.14588612
000010 40 60 c4 3c b0 ac 2a bc f7 a4 4e 3c 44 6f 6b bd
       0.023971677 -0.0104171485 0.012612573 -0.057479158
000020 87 3b 9f bd 18 6b da bd cb 6d a7 bd e8 05 12 3e
       -0.07775026 -0.10664958 -0.08175238 0.14260066
000030 8f a1 2d 3e c7 1d 9a 3b 62 2b 39 bd 8a 73 ae 3d
       0.16956161 0.004703257 -0.04520739 0.08518131
000040 6f 9b fd 3d f7 ce 7d bb 39 22 f2 bc 57 35 0b 3d
       0.12383162 -0.0038728097 -0.029557334 0.033986416
000050 ba 24 1b be ff 15 6a bd 86 ab 1e 3e b4 ce e4 bd
       -0.15150729 -0.057149883 0.15495118 -0.11172238
000060 9c 2b 0a 3e 38 28 37 bd 20 99 54 3d 3c af 8f bc
       0.13493198 -0.04471609 0.051903844 -0.017539613
000070 c8 3f f9 3d 52 86 10 bd e5 5a ff 3c af 26 5c bd
       0.121703684 -0.035284348 0.031171272 -0.05374783
000080 1f ac 9f bc 0f 84 15 3d ab c8 b4 bd 29 29 90 3d
       -0.019491253 0.036502894 -0.08827337 0.07039101
000090 61 5a c5 bc ac 6b 0d 3e 66 fd e3 bd c9 4d 82 3d
       -0.024090948 0.13810605 -0.11132316 0.063624926
0000a0 95 a0 eb bd 0a 8f 2a bc 26 d1 8d bb a0 9d 92 3d
       -0.11505238 -0.01041008 -0.004327911 0.07158971
0000b0 cd be 19 be a1 d7 b0 3d a0 77 3b 3b 2d c9 38 be
       -0.15014191 0.08634878 0.0028605238 -0.18045492
0000c0 bc 70 db 3b ec e2 33 be 0e be 6b 3c a0 1c 30 3e
       0.0066967886 -0.17567033 0.014388574 0.1719842
0000d0 9b a2 1a 3e 59 99 23 3e 37 f6 2f be 68 d6 b6 bc
       0.15101092 0.15976466 -0.17183767 -0.022319034
0000e0 3b 12 26 3d b6 9f 83 3d 6c 0a fd 3d 1b 08 34 be
       0.04054473 0.06426947 0.123555034 -0.17581217
0000f0 2b ad 09 3e 98 c8 13 3e 0f aa 2e 3e d0 6a bb 3d
       0.13444965 0.14431989 0.1705706 0.09151232
000100 e1 8d f5 3c e0 26 f2 3d 91 0c b2 3d 05 cc 00 3d
       0.02997488 0.11823821 0.08693803 0.03144457
000110 68 be 37 3e 19 b3 9c bd aa 55 a6 3d 65 8a 2a bd
       0.17943728 -0.07651348 0.08121808 -0.04163589
000120 9f 44 37 be 1c 8c 0a be 19 07 f9 3d 6e 36 b5 bd
       -0.1789727 -0.1353001 0.12159557 -0.08848272
000130 d9 e9 12 3e 47 0b 60 3c dc 63 e0 bd df c2 0b bd
       0.14347018 0.013674564 -0.10956547 -0.03412139
000140 e4 54 7f 3c b4 50 65 bb 9a 1d a0 bd 0d 11 72 bd
       0.015584204 -0.003499073 -0.07818146 -0.059098292
000150 7a f6 d8 bd 2f 12 9f 3d 0a dd 1f bd 3c 01 2c 3d
       -0.10593887 0.0776714 -0.03902916 0.041993365
000160 1b 0f 0a bd bf 58 10 bd fe 9c b0 3d 1f b1 b5 bd
       -0.033705812 -0.035240885 0.08623694 -0.08871674
000170 6e 1a 99 bd 90 89 43 3d de 91 21 be ea 6b 2c bd
       -0.07475744 0.04773861 -0.157783 -0.042095102
000180 0c d0 ec bd cf c1 00 3e 1b 63 85 3c 58 04 3a be
       -0.11563119 0.12573932 0.016282609 -0.1816572
000190 02 d9 05 be c6 57 36 3e 56 a2 32 3e 48 a0 dd 3d
       -0.13071063 0.1780692 0.17444739 0.10821587
0001a0 7b 2b c2 3d 0e 36 85 3c e0 51 90 bd 62 79 3b 3d
       0.094809495 0.016261127 -0.070468664 0.045770057
0001b0 0a 6d d8 3b 66 15 f0 3d 3e 66 1a be aa ee 19 bc
       0.0066047953 0.117228314 -0.15078065 -0.009395281
0001c0 60 8a 32 bd 5b 78 25 3c 9a 88 03 3d e5 cd 7a 3d
       -0.043588996 0.010099496 0.032112695 0.061231513
0001d0 28 a1 90 bd 5d 78 3d bd 38 f0 32 bd e3 13 c6 bd
       -0.07061988 -0.046257365 -0.04368612 -0.09671762
0001e0 ba 63 ef 3c c2 9e 4d 3e 21 4a 00 3e d6 4c 2e 3e
       0.029222358 0.20080093 0.12528278 0.17021498
0001f0 44 31 2e 3e ce c7 8e 3d 59 84 7b 3c 4c 58 95 bd
       0.17010981 0.069717035 0.015351378 -0.07292232
000200 fd d3 0e 3e f5 fe da ba ac 97 cf bd cb 31 31 3d
       0.13948055 -0.0016708063 -0.10136351 0.043260377
000210 2e d1 91 bd 4a ee b4 3d b0 18 0a 3d 30 23 e6 3c
       -0.07119976 0.088345125 0.03371495 0.02809295
000220 dc f3 3c be 5d 96 32 3d f7 7b a0 3d c5 51 2b 3d
       -0.184524 0.04360043 0.078361444 0.04182603
000230 ae e9 07 be 70 d2 2e 3d 65 41 dc 3d 29 4f 2f 3c
       -0.13272735 0.042681158 0.107546605 0.010700026
000240 4d 65 f7 bd bc 75 d6 bd 0a 6c 74 bd ef 92 0e be
       -0.120798685 -0.10471675 -0.059673347 -0.13923238
000250 93 51 10 bc 25 1d 1e 3d 26 55 79 bd fc 0d 11 3e
       -0.008808511 0.038602013 -0.06087222 0.14165491
000260 d8 2a bd 3d 86 88 1e 3e 41 dd 9f 3c 0d 30 ef bd
       0.092366874 0.15481767 0.019514682 -0.11679087
000270 33 3b 16 be 5a 75 11 be c8 d8 e3 3d 87 e9 ed b8
       -0.1467102 -0.14204922 0.11125332 -0.000113445385
000280 ed 4f 18 3e 27 fd f8 3d a6 fb ab 3c 6d ad 16 3d
       0.1487424 0.1215766 0.020994019 0.036786485
000290 93 14 3e 3d f2 43 8b 3d 70 ed 2c 3e 91 90 bd 3d
       0.04640634 0.06800069 0.1688745 0.092560895
0002a0 f4 c4 c1 bb af 48 ad 3d 04 40 7a bd f6 b8 10 be
       -0.005913371 0.08461129 -0.061096206 -0.14133057
0002b0 99 28 96 bc 27 a6 d5 3c 55 b1 41 3e 3b 8e 1b bc
       -0.018329905 0.026080204 0.18915303 -0.00949436
0002c0 91 70 50 bd 77 04 2a bd 7d ec f6 3d 2c 96 3f 3e
       -0.0508886 -0.041508164 0.12056825 0.1870963
0002d0 ae 1f 47 3d c9 f4 6c 3d ad 34 b2 bd bc 9e 00 be
       0.048614196 0.057850633 -0.08701453 -0.12560552
0002e0 ba 49 41 3d ce b5 28 be 76 5a 32 be 5c 37 26 be
       0.04718945 -0.16475603 -0.1741732 -0.16232055
0002f0 0c e7 31 bd 87 e4 b5 3d 21 a4 db bd 6f b3 29 3e
       -0.043433234 0.08881479 -0.107246645 0.16572355
000300 99 0c eb 3c 1b 7e cc bd 36 bf 51 be 97 e0 f1 3d
       0.02869253 -0.0998499 -0.20483097 0.11810415
000310 72 ff c2 bd ad d6 d3 bd ac 7a 97 3d 16 be 74 bd
       -0.095213786 -0.103436805 0.07396445 -0.059751593
000320 32 88 db 3d 0e 16 09 3e aa ca 34 bd f8 24 18 be
       0.107193366 0.1338732 -0.044138588 -0.14857852
000330 27 5c 6e 3d 89 66 ad 3d 72 8b 01 be c1 cc 66 3c
       0.058193352 0.08466823 -0.1265085 0.014086903
000340 ac a4 20 be 12 13 b3 bd 2a 7c 04 3d ad b0 d6 3d
       -0.15687817 -0.08743872 0.032344975 0.10482917
000350 f7 fb fa bd 36 31 bb bb 0d c4 10 be 2b 7e 4f 3d
       -0.1225509 -0.0057126535 -0.14137287 0.050657433
000360 4b 12 eb 3d 54 79 9b 3d c8 0c 2d bd 44 b2 a7 3d
       0.114780985 0.07591501 -0.042248517 0.08188298
000370 ae a0 2c 3e a5 a9 d2 bd e6 51 5d 3d b7 be 1f 3e
       0.1685817 -0.102862634 0.054033183 0.15600096
000380 7a 38 f4 bc 4e 1b 70 bd e8 a3 07 3e d9 99 18 3e
       -0.029812086 -0.05861979 0.13246119 0.14902438
000390 7e c8 00 3e 06 56 16 bc 01 a2 fd 3d 01 33 3f be
       0.12576482 -0.009175783 0.123844154 -0.186718
0003a0 9c 7f f6 bb cb 5a b0 3d a5 02 40 3e 5b 85 c2 3b
       -0.0075225364 0.086110674 0.18751009 0.0059363074
0003b0 e7 34 1f 3e 2e f2 13 be 8a 38 75 3c 59 91 14 3e
       0.15547524 -0.14447853 0.014967093 0.1450857
0003c0 a1 b4 d9 3d 7b d7 20 3e b4 71 81 bd 07 3a 1f 3e
       0.10630155 0.157072 -0.06320515 0.1554948
0003d0 89 bb 1c 3d dd ca e6 3d fc 39 2b 3d 39 eb 89 bd
       0.038264785 0.11269162 0.041803345 -0.06734318
0003e0 89 4c eb 3d ef 23 3d 3d 6d 40 ab 3c 90 22 8f 3d
       0.11489207 0.046176847 0.020904744 0.06989014
0003f0 61 1d 8d 3d e4 22 da bd d9 f3 36 bd 0a 79 e4 bd
       0.06890369 -0.10651186 -0.044666145 -0.11155899

weight_hh_l0 f4 [120, 40]
000000 a7 c4 da bd 49 75 31 be 90 9d 20 be 36 6c e8 bd
       -0.1068204 -0.17329897 -0.15685105 -0.113487646
000010 50 a7 ea 3d e1 93 b2 3c cc 17 94 3d 17 80 2a 3b
       0.114576936 0.02179903 0.072311014 0.002601629
000020 16 8e a5 3d 7f ad d7 3d 2c 99 a7 bd 02 2b b6 bd
       0.08083741 0.10531139 -0.08183512 -0.08894922
000030 ef 30 42 3d 4e 30 f1 bd 0e c9 d5 ba f2 80 aa 3b
       0.047409948 -0.117767915 -0.0016310529 0.0052033598
000040 7f bd ac 3d 76 a2 95 bd 1c c6 fd 3c 22 0e e8 bc
       0.08434581 -0.073063776 0.030978255 -0.028327052
000050 14 b8 b8 bd 43 28 70 3c 01 24 21 3e 8d 6b fe bc
       -0.09019485 0.014658037 0.1573639 -0.031057144
000060 18 06 a9 bb da 23 eb 3c e0 c4 0b be 73 44 71 bd
       -0.005158197 0.028703619 -0.1364932 -0.05890317
000070 fd d0 1e bd 12 42 b6 3d c1 31 02 3e 8c fb 99 3d
       -0.038773526 0.08899321 0.12714292 0.07518682
000080 c9 95 f9 bd 12 ce b5 bd 19 f4 3e 3d 99 40 02 3e
       -0.121867724 -0.088771954 0.04661951 0.12719955
000090 0e 1d b3 3d 85 1c e5 bc ca 9a ca bd eb 14 f8 3d
       0.08745776 -0.0279677 -0.09892805 0.12113365
0000a0 f8 17 44 3d ca ce 50 3d 1c 5c 57 bc 5b 82 d2 3d
       0.04787442 0.05097846 -0.013144519 0.102787696
0000b0 ed b9 25 bd c1 12 07 bd ee 51 5b bd 2a c8 1c 3e
       -0.040460516 -0.03297687 -0.05354493 0.15310732
0000c0 c7 c5 28 be 2e ab 20 be 4a fb b7 3d 1b ed df 3c
       -0.16481696 -0.156903 0.089834765 0.02733474
0000d0 61 1e ef bd ae cd db 3d 8a 17 de 3d 24 d0 8b bd
       -0.11675716 0.1073259 0.108443335 -0.06826809
0000e0 ba 5b 0c bd 81 d1 ed 3d be 16 38 bc 13 51 81 3d
       -0.034267165 0.11612225 -0.011235891 0.06314292
0000f0 bd 5f 93 bd 3f 13 94 bd 7f a0 dd bd d2 c6 8e 3b
       -0.07195995 -0.072302334 -0.10821628 0.0043571973
000100 12 63 ba 3d 80 9c 1b 3e 06 97 19 be a0 4a f6 3d
       0.091009274 0.15196419 -0.14999017 0.12025952
000110 9a 85 5c 3d 57 e9 08 3e 40 fe c3 3d 0f c4 4a 3b
       0.05383835 0.13370262 0.09569979 0.0030939614
000120 25 98 90 bd 27 17 64 bd 37 87 93 bd dc b0 05 3e
       -0.07060269 -0.055686142 -0.072035246 0.13055748
000130 21 b7 d5 3c 75 04 0f be 32 24 04 be 09 a1 7c bd
       0.0260883 -0.13966544 -0.12904432 -0.061677013
000140 21 29 b5 3b c3 2f b8 3d 13 82 d5 3d 6a 34 c2 3d
       0.0055285846 0.08993485 0.104252 0.094826534
000150 67 b9 63 3d 2b 2d ef bd 0f d7 13 3e 51 4a e7 bd
       0.055596735 -0.11678537 0.14437507 -0.112934716
000160 18 e2 a7 bb 20 72 c9 bd 2a e4 d7 bd 92 8a bf 3d
       -0.005123388 -0.09836221 -0.10541566 0.09352602
000170 cf 1a 08 3e 31 88 56 3d 2c e9 36 bd 02 55 23 be
       0.13291477 0.052375976 -0.044655964 -0.15950397
000180 af cd a9 bc 55 65 bd bc d2 c3 cb bc 4f b0 1f bb
       -0.02072796 -0.023119608 -0.024873648 -0.0024366563
000190 3d 6c 4f 3e 47 ed b6 bd 02 ed 27 3e 28 a0 a1 3c
       0.20256133 -0.08931976 0.16399005 0.019729689
0001a0 56 bf 20 3d 38 cc a9 3d 86 f2 29 be ac b4 52 bd
       0.039244972 0.08290905 -0.16596422 -0.051441833
0001b0 40 fa fc 3d 1b c7 0d be 2b 82 30 be fd 9e 89 bd
       0.12352419 -0.13845484 -0.17237155 -0.06719778
0001c0 41 19 3b 3e f3 e7 d2 bd 34 cd c7 bd 52 83 29 3e
       0.18271352 -0.10298147 -0.09755936 0.16554001
0001d0 60 80 6d bd 68 ca 18 3c f1 13 1f 3e 4e 2a b4 bd
       -0.057983756 0.009325601 0.15534951 -0.087971315
0001e0 bb 7c f7 3d 75 8d 92 3d 0d 70 60 3c a3 01 8f 3d
       0.12084337 0.07155887 0.01369859 0.06982734
0001f0 4a bf 9e 3d 94 54 d3 bb 1a 98 53 bd f4 7c bf 3d
       0.07751329 -0.0064492915 -0.051658727 0.09350005
000200 24 55 eb bd 20 e3 98 3d 99 b4 b3 3c 82 3e a1 bd
       -0.11490849 0.07465196 0.021936702 -0.078732505
000210 b6 49 c6 3d 6e 17 2f bd d9 37 22 3d 01 eb 09 be
       0.09682028 -0.042746954 0.03960404 -0.13468553
000220 07 e6 17 3e 89 4b ab 3d a5 6b 0e 3e f7 f5 b9 bd
       0.14833842 0.083640166 0.1390825 -0.09080117
000230 ed 57 cb bd 0a f2 f8 3c 2a d4 a5 bd 8f 0a 0e bd
       -0.0992888 0.03038885 -0.08097108 -0.03467804
000240 c8 35 02 3d ff 4b c1 3d 69 74 9d bd 2c b0 cd bd
       0.03178957 0.09438323 -0.07688219 -0.10043368
000250 af c9 0f 3e cc 66 dc bd 47 47 36 3e 3e 78 eb 3c
       0.1404178 -0.107617944 0.17800628 0.02874386
000260 86 23 d7 bc ed eb 3c 3d 13 de 86 bc ec 83 15 be
       -0.026262056 0.046123434 -0.016463315 -0.14601105
000270 f0 05 51 3d 67 e6 05 be 69 50 9b 3d e2 f7 32 3d
       0.051031053 -0.13076173 0.075836964 0.04369343
000280 e8 b1 2d be 62 17 0f be c4 cd 1f 3e b5 e7 49 3d
       -0.16962397 -0.13973764 0.15605837 0.04929324
000290 06 ac 08 be 5c 0f 01 3d 06 03 e7 3d 42 2e 4d 3c
       -0.13346872 0.03150879 0.112798735 0.012523236
0002a0 3d 50 f4 bd 0e 6d a9 3d 5b 64 cf 3d 30 7c fd bd
       -0.11929367 0.08272754 0.10126563 -0.123772025
0002b0 67 53 fd bd 69 1e 05 be 68 c4 8c bd 91 31 c5 3c
       -0.12369423 -0.12999882 -0.06873399 0.024071487
0002c0 66 99 a3 3d fe b7 54 3b aa be 0d 3e 5a 7e f2 3c
       0.07988243 0.00324583 0.13842264 0.029601265
0002d0 15 8f 12 3d cb 11 e3 bd 7b 83 f1 3d 34 b9 28 3e
       0.035780985 -0.11087378 0.11792656 0.164769
0002e0 1a cc d1 3d c9 ff a1 3a c0 86 d0 3d 8d af 04 3d
       0.102440074 0.0012359555 0.101819515 0.03239398
0002f0 a5 cc 17 bd 3d eb 20 3d 28 cf a1 bd 1e e9 a0 3d
       -0.0370604 0.03928684 -0.0790084 0.078569636
000300 68 98 3f bd 80 a7 d6 bd 74 a9 35 3d 21 1e 20 3e
       -0.046776205 -0.10481167 0.044351056 0.15636493
000310 2a bd 02 be d0 2f e9 bd e8 16 8c bd f1 00 c5 bc
       -0.12767473 -0.11386073 -0.068403065 -0.0240483
000320 61 9d b2 3d 41 83 fa bd e5 59 71 bd d5 2d b7 3d
       0.08721424 -0.12232066 -0.05892362 0.08944289
000330 be d2 83 3d 6c d9 98 bd 8d b9 ef 3c 5c 45 d4 bd
       0.0643668 -0.07463345 0.029263282 -0.10364792
000340 5b b9 84 3d a0 13 fd 3d 2c ae 7a bd c8 58 10 bd
       0.06480666 0.12357259 -0.06120126 -0.03524092
000350 a3 ad 6b 3c 92 3b 10 3e 8c 77 8c bd 37 82 b2 bd
       0.01438466 0.14085224 -0.06858739 -0.08716243
000360 05 36 dc 3c 5d d9 17 3e 9d 3a eb 3d a0 e7 a9 bd
       0.026881227 0.14829011 0.11485789 -0.08296132
000370 ac 33 1f be f1 30 64 3d 3b ae 49 3d 39 93 0e bc
       -0.15547055 0.055710737 0.049238425 -0.008702093
000380 e8 4e 33 be 39 02 f6 bd 43 e1 ff bd c0 cd 25 be
       -0.17510569 -0.12012143 -0.12494137 -0.16191769
000390 d4 c7 15 be 67 1f bd 3d fd d3 2b be b5 61 4b 3d
       -0.1462701 0.09234505 -0.16780086 0.049653728
0003a0 cf 77 2d 3e 99 43 4c 3d 5d a0 c0 bb 11 8f a8 bd
       0.16940235 0.049869154 -0.005878492 -0.08230413
0003b0 a0 7c c3 3d 98 75 22 3e 0c 8e 72 bc 51 4a b4 3d
       0.09545255 0.15865171 -0.014804374 0.08803237
0003c0 52 3c 36 be d8 31 25 3b 9c 2b 0f 3e 5d d6 fc bd
       -0.17796448 0.002520671 0.1398148 -0.12345574
0003d0 39 d3 ba bd 6e 4c 88 3d 84 fa 96 bd a8 cf 30 3e
       -0.09122319 0.06655203 -0.07372001 0.17266715
0003e0 79 95 e6 bd cd e2 5f 3d 58 6f 69 3d f9 a7 db 3d
       -0.112589784 0.054659653 0.05699095 0.107253976
0003f0 81 ad 3c 3d d7 c3 3d 3e 3a 52 08 3e 9d 11 1b 3e
       0.046063904 0.18531738 0.13312617 0.15143438

bias_ih_l0 f4 [120]
000000 55 b2 89 3c bc 3f f0 3d 5b 6b 92 bc fc 8b 8c 3c
       0.016808668 0.11730906 -0.017873457 0.017156594
000010 cb b0 eb 3d 36 e1 57 3d c0 71 f8 bd 52 b2 c3 bd
       0.1150833 0.052705012 -0.12131071 -0.09555496
000020 9a 7a 28 be bc e3 1a bd 1e 59 da 3b 44 76 04 bc
       -0.16453019 -0.03781484 0.0066634556 -0.008084837
000030 03 43 1a bd 3c f2 73 bd 3f 37 d0 3d 5c 5d d3 bb
       -0.037661564 -0.059557185 0.10166787 -0.0064503383
000040 42 df d5 3b 15 24 b8 3d 19 d0 b2 3d dc a1 ba bc
       0.0065268585 0.08991257 0.08731098 -0.022782259
000050 c4 4f e7 bc df 32 26 3b 0b 8b 32 3d ee 7e e7 bd
       -0.028236277 0.0025359911 0.043589633 -0.11303507
000060 7b 45 df bd 54 95 99 bd 05 41 ef 3d da ee 7c 3c
       -0.10901924 -0.07499185 0.11682323 0.015437806
000070 1d 09 c4 3d 8e d8 ab bd 29 a3 bb 3d 42 c1 d6 bd
       0.09572051 -0.08390914 0.0916198 -0.1048608
000080 9b 33 54 3c 04 b0 a4 3c 5a 88 a6 bd 8b 3e e3 bd
       0.012951757 0.020103462 -0.08131476 -0.110959135
000090 33 42 4c 3d 92 d6 11 bd ca fc 25 bd fe 4c c7 bd
       0.04986782 -0.03560502 -0.04052428 -0.09731482
0000a0 13 ad 06 3e 71 5b 45 bd 92 18 c4 3d 5c 31 0b 3e
       0.1315196 -0.04818291 0.09574999 0.13593048
0000b0 df 2f 19 3e a0 52 29 bc 5f 18 47 3d ce e6 0a be
       0.14959668 -0.010334641 0.048607226 -0.13564608
0000c0 8b b4 9e 3d 81 96 35 be 54 a2 6a bc b0 81 32 3e
       0.077492796 -0.17733194 -0.014320929 0.17432284
0000d0 ac f0 d0 bd 0a 4e 43 3e 3f 3c 2b 3e 20 d7 46 bc
       -0.102021545 0.19072738 0.16722201 -0.012136251
0000e0 f2 b8 24 bd 8c 50 2f 3c 19 54 e8 3d 11 6b a7 bb
       -0.04021544 0.010700356 0.11344165 -0.005109199
0000f0 dc 83 36 be 20 56 9c 3d 6c cc a3 bb 0a 3b 04 3d
       -0.17823738 0.076336145 -0.004998734 0.032282867
000100 fe b7 11 3e 0f 27 9d bd d8 8c 0b 3c 68 fd ec bc
       0.14230344 -0.076734655 0.0085174665 -0.028929427
000110 bc 24 1d 3d ca f7 a8 bd 68 0b 13 bc 7a b5 b7 bd
       0.03836511 -0.08250387 -0.008974887 -0.08970161
000120 77 8f f6 3d 36 4b 25 3d cf 88 34 3e 32 ad 46 3e
       0.120390825 0.04035493 0.17630313 0.19402006
000130 f5 61 a6 3d 62 a3 1d be 1e ec e5 3c cb eb 99 bd
       0.081241526 -0.15394357 0.028066691 -0.07515677
000140 f0 4a 7d bc 68 02 8d bd 55 9e 4d 3d a6 f3 78 bc
       -0.015459761 -0.068852246 0.050199825 -0.015194809
000150 e3 20 8b 3d 6b a5 2b 3d 60 a2 e7 3d 11 e9 d3 bd
       0.06793382 0.0419058 0.113102674 -0.10347188
000160 4c 0a 02 3e 65 86 5a bd b0 74 4e bd 94 8f 09 3e
       0.1269924 -0.053350825 -0.05040425 0.13433677
000170 19 c5 02 be 45 b4 0c 3c 88 27 81 bb 3e df c8 bd
       -0.127705 0.0085879015 -0.00394148 -0.09808205
000180 58 75 9a bc c9 eb 31 bd a4 5b 0f be 5d 05 80 bb
       -0.018854782 -0.043437753 -0.13999802 -0.0039068894
000190 6b 3d 15 3d 7a 3e f3 bc a8 63 37 3e e8 70 09 3e
       0.036435526 -0.029692877 0.1790911 0.13421977
0001a0 bc 39 89 bd 49 a2 f1 3d 69 19 8d bd 84 1b f4 bc
       -0.06700465 0.117985316 -0.06889612 -0.029798277
0001b0 75 c7 4a 3d 2b 82 93 3d 17 b5 14 be 2d 35 ea 3c
       0.049506623 0.07202562 -0.14522205 0.02858981
0001c0 83 0f 11 3e be a8 8d bc 7a 43 d8 3c d2 34 9d bd
       0.14166074 -0.017292377 0.026399363 -0.0767609
0001d0 4c 0a 16 3e 61 70 27 3e 09 09 5f 3d 33 08 31 bd
       0.14652365 0.16351463 0.054451976 -0.04322071

bias_hh_l0 f4 [120]
000000 3a b1 29 3e 7c 20 ac 3d b4 32 45 3e 29 ff 89 bc
       0.16571513 0.084046334 0.19257623 -0.016845303
000010 ba 7e 3a 3e 56 fc ed bc a0 9c 88 3c 31 be b7 3d
       0.18212405 -0.029050987 0.016676247 0.08971823
000020 dc ca c4 bc ce d0 c5 bd 71 84 be bc 77 40 bd 3d
       -0.024022512 -0.09658967 -0.023256512 0.09240811
000030 1e 61 eb 3d 2c 7b 20 be 8d c6 83 3d 5a 03 ac 3d
       0.11493133 -0.15671986 0.06434355 0.08399077
000040 05 67 02 bd e4 e5 dc bd 40 b0 fe bd ad 4c 2f 3e
       -0.03183653 -0.10786036 -0.12435961 0.17119093
000050 88 94 60 3c 51 e7 cd bd 88 42 03 3e 57 0b ec 3c
       0.013707288 -0.10053886 0.12818348 0.028814001
000060 1d 3c 34 3c c5 77 96 bd db cd 84 bd e1 c1 86 3d
       0.01100066 -0.07347063 -0.06484576 0.06579948
000070 dc d1 01 3e fd eb a3 bd 9d 34 d2 bc 10 ed 99 bc
       0.12677711 -0.080039956 -0.025659854 -0.018789798
000080 7d 07 00 3d c3 e9 00 be cd 04 04 be d1 d5 65 3d
       0.03125714 -0.12589173 -0.12892456 0.056112114
000090 6c d8 f4 bd 85 31 4c 3d b9 e1 22 3e 98 22 ac 3d
       -0.11955342 0.049851913 0.15906419 0.08405036
0000a0 68 55 c2 bd ff 7c 03 3e ac 7c 20 3e d4 50 19 bd
       -0.09488946 0.12840651 0.15672559 -0.0374306
0000b0 5e 67 b1 bd a2 14 22 3e f9 8b 43 3d 7a cb d3 bd
       -0.08662294 0.15828183 0.04774091 -0.103415444
0000c0 16 70 29 bd 5a fb b2 3d f9 fd 17 3d bc 3b ed bd
       -0.04136666 0.08739348 0.03710744 -0.11583659
0000d0 db 0c c9 3d 70 ea 16 3c 36 e3 07 3e d7 9d 11 3d
       0.09816905 0.009211168 0.13270268 0.03555092
0000e0 e0 72 d8 bd e1 a8 88 bd 55 c6 b4 3d ce 86 39 3e
       -0.10568786 -0.06672836 0.08826891 0.1811783
0000f0 22 6b 25 be 37 e9 89 3d ac ea c0 3c da a8 1f be
       -0.16154149 0.06733935 0.0235494 -0.15591756
000100 18 59 00 3e 52 b2 d7 bc c0 b1 f0 bd 46 c6 82 3d
       0.12533987 -0.026330147 -0.11752653 0.06385474
000110 f6 dc 23 be 67 c9 f7 3d 39 fd ae 3d 89 eb 92 3c
       -0.16002259 0.12098961 0.08544392 0.017934578
000120 7d 18 ce bd ab 9e ba 3d c8 73 8a 3d 31 b0 9a bc
       -0.100632645 0.09112295 0.06760365 -0.018882843
000130 75 a1 5a 3d 6e fa 26 be b1 e3 ae 3c 58 d7 a7 3d
       0.053376634 -0.16306469 0.021348806 0.081953704
000140 bd af 40 3e 38 ae b0 3b ad 04 7f 3d b0 49 8a 3d
       0.18817039 0.0053918622 0.06226032 0.06752336
000150 af fa 7b bd 8a c9 f6 bd e5 8f a8 bd a1 18 60 bd
       -0.061518367 -0.12050159 -0.08230571 -0.054710988
000160 bd eb 16 3e 55 04 87 3d 63 b3 df 3d 4f 27 25 be
       0.14738365 0.06592623 0.10922887 -0.16128276
000170 f6 ce c1 3d d0 62 d6 bc 18 ed 79 3d c1 ac 08 3e
       0.09463303 -0.026170164 0.061017126 0.1334715
000180 17 03 80 bd 1c 9f 5a 3d 85 9f c4 3d e5 94 0c 3e
       -0.06250589 0.053374395 0.096007384 0.13728674
000190 f0 53 01 3e 9b 50 81 bd 86 12 2f 3d cc 8d 84 bd
       0.12629676 -0.063142024 0.042742275 -0.06472358
0001a0 20 42 20 3d ec 7e 50 3d a2 ba 42 bc e9 2e 8d 3d
       0.03912556 0.050902292 -0.011885317 0.06893713
0001b0 55 5f 34 bd d3 cf 1b 3e a9 bc 0d 3e 28 12 74 3d
       -0.04403623 0.15215997 0.138415 0.059587628
0001c0 a5 d9 2c bd 1a 20 e3 3d 8c 66 05 3e 32 ea ce 3d
       -0.04219975 0.11090107 0.130274 0.10103263
0001d0 f2 34 59 bd bc 3b 9e bc 33 55 8d bc d6 43 13 be
       -0.05302901 -0.019315593 -0.01725254 -0.14381346

weight_ih_l1 f4 [120, 40]
000000 2e 1e 98 bd 57 3f 0a 3e 1b 1f ba bd e3 51 de 3d
       -0.07427631 0.13500725 -0.09087964 0.108554624
000010 33 b9 32 3e 4e ce 5d 3d 86 6e 64 3d ea 97 13 3d
       0.1745346 0.054151826 0.055769466 0.03603355
000020 04 fa bb bd 9f f1 bc bd af 0e 27 3e c5 2a 2a bd
       -0.09178546 -0.09225773 0.16314195 -0.041544694
000030 6f de d3 bd 3b 16 d5 bc f4 52 fd bd 49 9c a2 bd
       -0.1034516 -0.026011577 -0.12369338 -0.07939965
000040 db 85 38 bd e4 ba 8c 3c d5 85 07 be 05 6e d0 3d
       -0.04504953 0.01717896 -0.13234647 0.101772346
000050 fb e4 1c be d6 ba 21 be 91 05 aa 3c c2 c5 10 be
       -0.15321724 -0.15793929 0.020754607 -0.14137939
000060 cb e5 16 3e 19 19 b0 3b 4e 9a 7e 3d 9d 88 ce bd
       0.14736097 0.0053740856 0.062158875 -0.10084651
000070 e6 a9 14 be a1 c1 22 3e 04 10 19 bd 86 62 2c bd
       -0.14517936 0.15894176 -0.03736879 -0.042086147
000080 1b 53 2b bd d7 42 0b bd e5 81 8f 3d 21 f2 c2 bd
       -0.041827302 -0.03399929 0.07007197 -0.09518839
000090 f7 c0 01 3e 91 85 09 be 01 82 2b bd b1 0e 7e bd
       0.12671266 -0.13429858 -0.04187203 -0.06202573
0000a0 cf 5d f2 bd 96 e4 88 bd dc e1 a5 3d 6f a3 9f 3d
       -0.11834299 -0.06684224 0.0809972 0.07794844
0000b0 fa f5 b4 bd 43 93 26 be e5 42 f9 bd bd c6 3a be
       -0.08835979 -0.16267113 -0.12170962 -0.18239875
0000c0 46 3f 2d 3e 39 49 86 bd b8 9f db 3d 78 46 09 3e
       0.16918668 -0.06556935 0.10723823 0.13405788
0000d0 9e 93 83 3d 58 7a 11 be a7 6f e3 bd 57 d5 9d bd
       0.0642464 -0.14206827 -0.1110528 -0.07706707
0000e0 39 64 ed 3d 69 a5 9e bd a4 a3 5a bc 7e 37 06 3d
       0.115913816 -0.07746393 -0.013344679 0.032767765
0000f0 bd 2c d3 3d 30 df 22 be 72 15 24 bd dc af 84 bd
       0.103112675 -0.15905452 -0.040059514 -0.06478855
000100 29 57 8f 3d 40 15 55 3d 00 97 08 bd 33 37 6d 3d
       0.06999046 0.05202222 -0.03334713 0.05791397
000110 1d 56 42 be c6 18 b8 bd cc 89 06 3e a2 4c 24 3d
       -0.18978162 -0.089891 0.13138503 0.040112145
000120 4e 5c 0a 3e 3e 13 93 bd 06 de 16 3d 71 71 b5 bc
       0.13511774 -0.071814045 0.03683283 -0.02214882
000130 57 cd d3 bc f0 93 04 3e f5 f4 2a 3e 4d 7e bf bc
       -0.02585475 0.12947059 0.16695006 -0.023375655
000140 fe 56 bb 3d 42 72 46 3e 15 24 0e 3e 6e 5d ef bd
       0.09147452 0.19379523 0.13880952 -0.11687742
000150 35 14 6e 3c 87 1c 89 bd ab d2 d6 bd 98 6d d7 3d
       0.014531185 -0.06694894 -0.104894005 0.1051895
000160 1c 28 1c bd 54 9f b8 bd 0d 17 dd bd d6 5c e0 bd
       -0.03812419 -0.090147644 -0.10795412 -0.10955207
000170 b9 fb 7e 3c 52 cd e2 3d 81 ed db bd 58 b7 d9 3d
       0.015562945 0.11074318 -0.1073866 0.10630673
000180 a4 84 13 bd 19 45 e3 3d c3 ba 1e 3e 5d 6e 41 bc
       -0.036015168 0.11097164 0.15500931 -0.011806098
000190 cb 62 1e 3e e5 fa 62 bb 2c c6 e9 ba 2e 40 fc bc
       0.15467374 -0.0034634408 -0.0017835549 -0.030792322
0001a0 ee 77 fb bc fa 1b b1 3d 63 60 20 be 06 58 2c 3e
       -0.030696835 0.08647914 -0.15661769 0.16830453
0001b0 c2 e6 da 3d ce b9 e1 3c f8 f6 4d 3d 35 86 16 bd
       0.10688545 0.027554419 0.050284356 -0.036749084
0001c0 b5 98 72 3d b8 83 00 be ba 00 b5 bd 14 6c 3f bd
       0.059227664 -0.12550247 -0.08838029 -0.04673393
0001d0 b6 94 e6 bd 80 ce 0c bd 12 4f da 3d 3e e2 dd bd
       -0.11258833 -0.03437662 0.10659613 -0.10834168
0001e0 13 c4 41 3e 74 8a 03 3d 0f 94 04 3e 1d 45 02 be
       0.18922453 0.03211446 0.12947105 -0.12721677
0001f0 b9 99 cf 3d ef e6 29 3e 42 d4 03 be b0 76 2e 3d
       0.10136742 0.16592 -0.12873939 0.042593658
000200 a4 3d 16 bb 61 a9 64 3d 57 ae 92 bd 80 0d 10 3e
       -0.0022924924 0.055825595 -0.07162159 0.1406765
000210 f7 15 69 bd 01 2e 07 3e 1f b9 d1 bd d1 c1 c3 bd
       -0.056905713 0.13201143 -0.10240387 -0.09558452
000220 7c 14 0e be 44 08 fa 3d 64 0a cc bd fc d5 2e 3e
       -0.13875002 0.12208608 -0.09962919 0.17073816
000230 cc 84 9a bd ee 54 a1 bd 83 34 b3 bd ac 42 8a bd
       -0.0754486 -0.07877527 -0.0875025 -0.06750998
000240 f4 f6 9c 3c 53 46 63 bd 91 80 d4 3d 35 6f ca 3d
       0.019160725 -0.05548699 0.103760846 0.09884492
000250 6e 86 f8 bd da bd 8f bd f1 14 57 3d 69 15 11 3e
       -0.121350154 -0.07018633 0.052510206 0.14168324
000260 4a 7d e1 3d 17 be ba 3d ca c2 42 3c 4f b4 13 be
       0.11010225 0.09118288 0.011887262 -0.14424251
000270 c5 81 74 3b e5 21 eb bd b8 48 c2 bc f7 f2 d6 bd
       0.0037308794 -0.11481074 -0.023716316 -0.104955606
000280 44 f2 5f 3d 56 bb 78 bd 86 a4 ca 3d 83 c9 1c be
       0.054674402 -0.060725532 0.098946616 -0.15311246
000290 f3 a4 8b 3d ed 03 82 bd 25 8c 56 3d e3 db 85 bd
       0.06818571 -0.06348405 0.052379746 -0.06536081
0002a0 7f ac ae 3d 07 e5 84 3d 2d 7c 58 3d 0c b0 da 3b
       0.08528995 0.06488996 0.0528528 0.0066738185
0002b0 c3 b8 b3 3d a3 83 45 bd c2 08 d4 bb e4 eb 49 3e
       0.08775475 -0.04822124 -0.0064707706 0.19718891
0002c0 a5 5c a5 3d da 38 c7 3d 2b ee c3 3c e2 f4 13 be
       0.08074311 0.097276405 0.023917278 -0.14448884
0002d0 8a 7d c7 3d 58 24 4b 3d 6a 15 fc 3d c9 3b 87 bc
       0.097407416 0.049595207 0.12308772 -0.016508
0002e0 10 0a 5f 3d ff 67 d5 bd ac d6 87 bd 7e d7 dc 3d
       0.054452956 -0.10420226 -0.06632742 0.107832894
0002f0 37 23 f5 bc 38 a4 55 bd fa b8 48 3d f8 6d 66 bb
       -0.029924018 -0.052158564 0.049004532 -0.0035160761
000300 20 08 0f 3e c6 ce 0d 3e 37 65 a1 bc 75 5a 17 3e
       0.13967943 0.13848409 -0.019701583 0.147806
000310 25 45 fc 3d 97 a7 21 3d 96 5e 6c 3d 54 36 70 3c
       0.12317876 0.039466467 0.05770739 0.01466139
000320 60 cd fd bd ca 5c e3 3d 29 67 7a bd b8 e5 4b 3c
       -0.12392688 0.111016825 -0.061133537 0.012444906
000330 7b 0d d2 3d 3d 5f b7 bd 9b 0d 31 be c0 65 bb 3c
       0.102564774 -0.08953712 -0.17290346 0.022875667
000340 fb ee fd bc be 5d 8b 3d 5a ce 98 bb 52 6f d9 bd
       -0.030997744 0.06804989 -0.004663271 -0.10616936
000350 1b ad e7 bd d8 d9 95 3d 91 6a 38 3e d6 c1 80 3d
       -0.11312314 0.07316941 0.18009402 0.06286971
000360 cd f9 78 bd b9 8f 54 3d 2b 49 fc bd 6a 8b 88 bc
       -0.060785104 0.051894877 -0.12318643 -0.01666804
000370 d0 05 37 be 8c 8f fd 3c b2 06 c4 bd 18 ae 56 be
       -0.17873311 0.030952238 -0.095715895 -0.20964849
000380 24 83 2c be f7 b1 9c 3d ed 1b a7 bd 31 20 fe 3c
       -0.16846901 0.076511316 -0.08159623 0.03102121
000390 57 6c 12 3e b6 15 32 3d b1 32 ad 3d d1 05 d2 bc
       0.14299141 0.043477736 0.08456934 -0.02563754
0003a0 a8 32 61 bc f5 19 71 3d 6c 35 1e 3d ff 00 d9 bd
       -0.013744988 0.058862645 0.038625166 -0.10595893
0003b0 9e 39 33 bc 1e 94 18 3e 8a 09 61 bd 89 d9 01 be
       -0.01093903 0.14900252 -0.054940738 -0.1268064
0003c0 a5 da 1f bc 21 44 1f bd 08 d0 f4 3d 30 2c 97 3d
       -0.009756719 -0.038883332 0.11953741 0.07381475
0003d0 ad ed 9f bd 14 fc 32 be ba 60 f2 3d 2e 91 04 3e
       -0.07809005 -0.17478973 0.118348554 0.12946007
0003e0 64 c2 6f bd ec 67 20 be f5 d9 af 3d 22 27 9b 3d
       -0.058534995 -0.15664643 0.08586494 0.07575823
0003f0 6a 90 c0 bc 68 a2 39 3e f7 d3 fa bb bf 91 ef 3c
       -0.023506362 0.1812836 -0.0076546627 0.029244302

weight_hh_l1 f4 [120, 40]
000000 26 fe 56 bd 48 df 23 3d 9a 37 9f bd 2d c6 c5 bc
       -0.05248847 0.04000786 -0.07774277 -0.02414235
000010 8e 95 f7 bd a2 8c 91 3d 95 90 75 bd 9b b2 8c bd
       -0.12089072 0.07106902 -0.059952337 -0.06870004
000020 66 d8 d4 3d b9 6a 06 bc 3b 8b 40 bc b5 86 a7 3d
       0.10392837 -0.008204156 -0.011751945 0.0817999
000030 73 96 a4 3d 9f 9e df 3c d4 5a be 3d 32 89 b7 3d
       0.080365084 0.027297316 0.09294668 0.08961715
000040 99 da 01 bd d1 30 33 bd 46 fe 90 bd 48 c9 bc bc
       -0.03170261 -0.043747727 -0.07079749 -0.023045197
000050 c6 bd 42 be 75 b8 42 bd 62 2f 24 3e b0 29 1a 3e
       -0.19017705 -0.047539193 0.160337 0.15054965
000060 a8 ee ea bd c6 b6 3d be c3 1d 11 3e d6 57 be bd
       -0.11471301 -0.18526754 0.1417151 -0.09294097
000070 94 33 6a bd 70 63 18 be 50 f0 67 3d e5 87 29 3e
       -0.057178095 -0.14881682 0.056625664 0.16555746
000080 01 6c b6 bd 21 57 05 bd 2e f9 e6 bd b5 cd 37 3e
       -0.08907319 -0.032553796 -0.11277996 0.17949565
000090 39 33 23 3d 7b e8 33 bd ea 33 a0 bc a4 55 56 bd
       0.03984377 -0.043922883 -0.019556005 -0.052327767
0000a0 70 53 1b 3c c3 e7 4d bd 6a 8e ae bd ee 7f 8c bd
       0.009480342 -0.050269853 -0.08523257 -0.06860338
0000b0 e7 fe 07 bd 02 f7 d7 3b cd ae c5 bc 99 5c 09 be
       -0.03320208 0.006590725 -0.024131203 -0.1341423
0000c0 9c ff 89 bd 31 4b 06 3e 02 f2 16 3d 2f ae c3 bd
       -0.06738207 0.13114621 0.03685189 -0.09554707
0000d0 e6 10 d9 3d 58 5e 47 3d d1 da 5b 3d cd 27 d5 bd
       0.10598926 0.048673958 0.053675476 -0.10407982
0000e0 5c 2b 09 be b7 92 ab bd f3 6b f1 bb 64 77 f2 bd
       -0.13395447 -0.08377593 -0.007367605 -0.11839178
0000f0 55 64 22 be 49 cf e7 3c 1a 0b 3b bd c0 62 a0 bd
       -0.15858586 0.028297083 -0.045664884 -0.07831335
000100 29 4a d8 bd c3 98 6a bd db 54 8c 3d 88 57 e0 bd
       -0.1056102 -0.05727459 0.068521224 -0.10954195
000110 14 0e ca bc 5f 0f 18 3e b9 1f c1 bd bd 4e 1d 3d
       -0.024664916 0.14849614 -0.09429879 0.03840517
000120 07 ab e6 bb b0 06 f1 3d f0 0c dd 3d ff b0 2f 3d
       -0.007039431 0.11768854 0.10793483 0.042893406
000130 73 d0 33 be d3 46 b1 3d 8c 10 14 3d 17 2a c3 bc
       -0.17559986 0.08656087 0.036148593 -0.023823781
000140 fc d2 26 bd 2f ed 0a be c8 a9 01 3c c1 5a 6b bd
       -0.040728554 -0.13567041 0.007914014 -0.057459597
000150 cc 5b 9d 3d 37 e3 2a be 5a 77 0d 3e 5b 52 0e 3d
       0.076835245 -0.16688238 0.1381506 0.03474651
000160 76 25 c3 3a 8a 2d 1b be fd 60 a4 3d 4a 40 72 bd
       0.0014888484 -0.1515409 0.080263115 -0.059143342
000170 b1 b5 c9 bc 37 f3 08 be 34 be 84 3d 90 c0 1c be
       -0.02462277 -0.13374029 0.06481591 -0.15307832
000180 7f 23 3a be 0e a9 15 bd bf 6e 2a bd 26 04 68 bb
       -0.18177603 -0.036538176 -0.041609522 -0.0035402863
000190 4a 4d c3 3d 3b 10 1d 3d 64 67 d5 bd 8c 38 e8 bd
       0.09536226 0.038345557 -0.10420111 -0.113389105
0001a0 46 a5 f5 bd 13 ab 86 bd 60 f8 85 3d 69 a5 fe bd
       -0.11994414 -0.065755986 0.065415144 -0.12433893
0001b0 b5 53 a5 3c 7c 03 ec 3c fb 4c d9 bd b6 9d 85 3d
       0.020181516 0.028810255 -0.10610386 0.065242216
0001c0 e8 9a ef 3d ac 17 03 3d d1 85 0a be 43 a7 04 be
       0.11699468 0.032004997 -0.1352761 -0.1295443
0001d0 88 b1 35 bd 48 7a 48 bc d5 71 1f 3d 16 76 37 be
       -0.04435876 -0.012236185 0.038926918 -0.1791614
0001e0 0c 95 0b be ae ce 85 3c ac c3 33 3d ed c4 09 bd
       -0.13631076 0.016333904 0.04388778 -0.03363507
0001f0 e7 ba b5 bd 71 99 ab 3d d7 2d ae bd de cd 72 3b
       -0.088735394 0.08378876 -0.08504837 0.0037048976
000200 56 86 83 ba a7 30 64 bd 2f a3 43 bd 32 a8 1c 3e
       -0.0010034542 -0.05571046 -0.047763046 0.15298536
000210 c3 16 fc 3d b7 65 e2 bd 37 3f 48 be b7 f9 48 bd
       0.12309029 -0.11054557 -0.19555365 -0.04906627
000220 31 a4 87 3d 2e 38 91 3c 8f 59 a9 bc a1 82 bf bd
       0.06623114 0.017726984 -0.020672588 -0.09351087
000230 5e af c6 3c b0 51 8a 3d 0f 1b d1 bd 83 57 59 3d
       0.024253543 0.06753862 -0.10210239 0.053061973
000240 c0 1b af 3b 8d 9d 00 3e c8 1d 8b bd d1 a0 16 bd
       0.005343884 0.12560101 -0.0679279 -0.03677446
000250 4e 4c e7 3d 00 08 dd 3c dd ac d7 bd b1 89 79 3d
       0.11293851 0.026981354 -0.10531018 0.06092233
000260 05 07 fe bc 94 6e bc 3d eb 69 df bd f2 74 8a bd
       -0.031009207 0.092007786 -0.10908874 -0.06760587
000270 67 3d 9e bd 68 27 cc bc ce 38 2d be 7b ba 10 3e
       -0.07726555 -0.024921134 -0.169162 0.14133637
000280 51 58 ec bd cd 2b f5 bc 7c 52 ba bd 1d b7 04 bc
       -0.115402825 -0.029928112 -0.09097764 -0.008100298
000290 83 69 c3 3d eb 20 00 be c5 78 92 3d f2 9e c0 3d
       0.09541609 -0.12512557 0.07151941 0.094053164
0002a0 53 9e e6 bd 5a ef 1c 3d 36 9f a0 bd a8 3e 3d 3c
       -0.11260667 0.0383142 -0.07842867 0.011550583
0002b0 ed e3 ed 3c 11 9e db bb ba d0 30 bc 25 f9 20 bb
       0.029039348 -0.0067021926 -0.010791952 -0.0024562564
0002c0 43 1e d7 3d 59 2a bc bd 97 0c bc 3c 62 47 ea bd
       0.10503819 -0.09187765 0.022955222 -0.114393964
0002d0 ca 78 52 3d 4b b7 f1 bd 5f c8 52 bd ec 9c 0b be
       0.051384725 -0.118025385 -0.05146062 -0.1363408
0002e0 24 1a 8c bb 75 d6 95 bd 6e b3 81 3b f9 38 a4 3c
       -0.004275577 -0.07316295 0.0039581573 0.020046698
0002f0 7e 23 ba 3d 9c a4 95 3d 7d e2 f8 bd c5 1b 06 be
       0.09088801 0.07306787 -0.12152574 -0.1309653
000300 8e c6 d8 3d eb 51 9a bb 3c 0e 74 3d 02 a4 99 bc
       0.10584746 -0.0047094724 0.059583887 -0.018754963
000310 fd 22 26 bd 73 83 49 bd 97 d7 4e 3d af d2 10 3d
       -0.04056071 -0.049197625 0.05049857 0.035357174
000320 40 5c c4 bd 8b 34 dd bd 86 1b e7 bd bb a1 2f bd
       -0.09587908 -0.108010374 -0.112845466 -0.042878848
000330 f6 57 82 bd 91 c6 d2 3d 7d 52 70 bd 7f b6 c4 3c
       -0.063644335 0.1029178 -0.058672417 0.024012802
000340 ee 71 39 be 53 6b c1 bd 14 19 fe 3c 7b 34 ff bd
       -0.18109867 -0.094442986 0.031017818 -0.12461182
000350 a9 39 91 3d 3f b1 3f 3d e6 48 02 be 7c 59 bb bd
       0.07091076 0.046799894 -0.12723121 -0.09147927
000360 37 a7 de bc ea dd 04 bd 6f b3 87 bc 48 95 19 3e
       -0.027179344 -0.032438196 -0.016565053 0.14998353
000370 06 2a 94 bb d2 54 d7 3d bf 3d f3 3c 30 16 23 3e
       -0.004521611 0.10514225 0.029692529 0.15926433
000380 28 79 29 3e 4f 76 48 bd 21 6b 09 3e f9 a2 07 3e
       0.16550124 -0.048940953 0.13419773 0.13245763
000390 c6 03 cf 3c de 64 09 3e e8 22 31 be e8 7d 36 3e
       0.025270354 0.13417384 -0.17298472 0.17821467
0003a0 50 f6 6f bd b6 f5 a3 3c d1 2c 02 3e c8 d8 1e 3e
       -0.05858451 0.020014625 0.12712409 0.15512383
0003b0 f2 f3 d0 3d 29 56 ea 3d 2f 09 1b 3b fd 4f 42 3e
       0.10202779 0.11442215 0.0023656597 0.18975826
0003c0 01 5b b3 bc df b8 cb bd 23 33 11 be 3e 8a 8f 3d
       -0.02189398 -0.09947371 -0.14179663 0.070087895
0003d0 4c e7 1e 3e cd 96 40 be 89 ad 7b bc f5 dd 08 3e
       0.1551792 -0.18807526 -0.015361198 0.1336592
0003e0 5c d2 0f bd 91 57 7d 3d 5b f1 0d be ba d3 00 3e
       -0.035112724 0.061851088 -0.13861601 0.12580767
0003f0 ee 69 f4 3d 5d 51 de 3d f8 ea 08 be 87 a9 ee 3d
       0.11934267 0.108553626 -0.13370883 0.116534285

bias_ih_l1 f4 [120]
000000 a3 d1 c4 3d 4a e1 a5 bd b0 08 85 3d dc ff a1 3d
       0.096102975 -0.08099611 0.06495798 0.079101294
000010 ae ff 65 3d 3b 92 05 3e fb 32 dc bd 2d fb 21 3e
       0.05615204 0.13044064 -0.10751911 0.15818472
000020 ba 8b 0c be db 16 f7 3d 1e e6 df 3d 4b 2f 4b 3d
       -0.13725176 0.12064906 0.10932563 0.04960565
000030 0d 6e ec bc 2d b4 24 bd 1a df 23 3e 61 3b 4b 3d
       -0.02886107 -0.04021089 0.16003075 0.049617175
000040 6a cb e2 bc 3b 57 c3 3d 50 7d 3c 3e 81 e6 12 bd
       -0.027684886 0.09538122 0.18407178 -0.035864357
000050 d9 a4 a5 bd d6 48 39 3e 35 88 02 bc 01 e5 2b 3d
       -0.08088083 0.18094191 -0.007967045 0.041966442
000060 04 75 fd bd b2 f5 2b 3e f3 23 f7 bd 04 6b 8c 3d
       -0.123758346 0.16792944 -0.12067404 0.06856349
000070 13 a5 f8 bd fe cf ae 3d df 48 24 bd 8a 37 c9 3d
       -0.121408604 0.08535765 -0.040108558 0.09825046
000080 37 32 ba 3d 11 bc 90 3c 2c 4d 05 3e eb 6f 9c bb
       0.09091609 0.017667802 0.1301772 -0.004774084
000090 f6 1d 12 bd 32 0d d3 3d a3 58 cb 3d c8 0d 3b bd
       -0.035673104 0.10305251 0.099290155 -0.04566744
0000a0 f1 b9 a7 bd 74 be cc bd 92 fc c8 3d 1f 19 3b 3e
       -0.081897624 -0.099972636 0.09813799 0.18271302
0000b0 21 f5 cb 3c b5 15 ae 3c c0 26 25 bd 68 58 7b bd
       0.02489716 0.021250585 -0.040320158 -0.061363608
0000c0 ed ab c9 bd 16 44 fd bd f3 9c 04 3e bf 5e b6 bd
       -0.09847245 -0.12366502 0.12950496 -0.0890479
0000d0 4e 84 cd bd 86 f9 9f bd b7 b5 e0 3d 3f 39 e2 bd
       -0.10035001 -0.07811265 0.10972159 -0.11046075
0000e0 f2 2a cf 3d 5c 8f 46 3b 8c 3d 1a 3e 64 f3 8b 3d
       0.10115613 0.0030297851 0.15062541 0.068335325
0000f0 93 aa ce 3d b8 c0 ae bd fa 84 b4 bd 29 99 d8 3b
       0.10091128 -0.08532852 -0.08814426 0.006610055
000100 0b 8b 1f 3e ab 42 0c 3d 24 e8 af 3c ac 8b 07 3e
       0.15580384 0.034243267 0.021472998 0.13236874
000110 f6 a9 e7 bd 73 93 07 3d 71 7e 09 be ad c8 08 bd
       -0.11311714 0.033099603 -0.1342714 -0.033394504
000120 07 78 57 3d 68 42 d9 bd 9d a3 c6 bd af 60 03 bb
       0.0526047 -0.10608369 -0.096991755 -0.0020046642
000130 cb 80 43 be 14 1c e5 bd 24 34 a3 bc 28 af e5 bd
       -0.190921 -0.11186996 -0.019922324 -0.11215049
000140 bc b9 f1 bd 86 4b 36 3e ad b0 d8 3d 7a d5 f0 bd
       -0.11803004 0.17802247 0.10580573 -0.117594674
000150 62 07 d9 3d fa 07 8c 3d 9d 3f 9c 3d 94 b3 82 bd
       0.10597111 0.06837459 0.07629321 -0.06381908
000160 fb b8 7e bd 9e f4 ae 3d 03 d5 83 3d fa 01 18 3d
       -0.06218813 0.08542751 0.06437113 0.03711126
000170 a1 c0 36 3e f8 88 41 bd 1e 27 05 3e a4 05 ae bd
       0.1784692 -0.047249764 0.13003203 -0.084971696
000180 27 19 cd bd 9d 0d 68 ba 06 58 ac 3c c9 a7 26 be
       -0.10014563 -0.0008852126 0.021038067 -0.16274942
000190 00 03 a3 3c df c5 7e 3d 47 24 29 3e 44 ca d3 3d
       0.019898891 0.062200423 0.16517745 0.103413135
0001a0 86 d4 ea 3d d3 f0 8a bc 2f 3d fe bd 81 6a c5 bd
       0.11466317 -0.016960537 -0.124140136 -0.09639455
0001b0 52 c7 89 3d 9b 0d 03 3e b3 0a 05 be f9 b1 88 3d
       0.067274705 0.12798159 -0.12992363 0.066745706
0001c0 58 6c aa 3c a0 61 43 be 2a 8a 20 3e a2 89 a2 3d
       0.020803615 -0.1908021 0.15677705 0.079364076
0001d0 5f 08 83 bc 3a 7d ab 3c bf e9 cb 3c 43 14 fb 3d
       -0.015995203 0.020933736 0.024891732 0.12259724

bias_hh_l1 f4 [120]
000000 ee d4 99 3d e9 aa 93 bd 91 62 4a 3d 8c f6 a5 3d
       0.07511316 -0.07210333 0.049410407 0.08103666
000010 81 9b e8 3d f8 41 31 3a e9 41 d7 3d ac a7 a2 bd
       0.11357785 0.0006761844 0.10510618 -0.07942137
000020 66 53 c9 bd 6f 96 c5 bd eb 06 95 3c 4c 5a 3a bd
       -0.0983036 -0.096478336 0.018191775 -0.04549627
000030 68 39 4f bd ce 17 da bc 98 42 29 3e 48 5f a8 3d
       -0.050591856 -0.02662268 0.1652931 0.082212985
000040 0f 37 f6 3d 00 a2 2e 3e 26 5f 16 3e 43 b3 b7 bd
       0.1202222 0.17053986 0.14684734 -0.08969738
000050 f3 db 9c bd b2 74 30 3d 5b 36 bb bd f7 d2 57 bd
       -0.076591395 0.04308004 -0.09141227 -0.052691426
000060 1c 25 90 bc 32 52 86 3d a4 e5 ec 3d e5 02 fa 3d
       -0.01759582 0.06558646 0.11567238 0.12207583
000070 93 16 4b 3d 67 b4 2d bd 1a 66 c6 3d 98 48 86 3d
       0.049582075 -0.042408373 0.09687443 0.06556815
000080 59 30 a4 3d 12 00 29 bd 01 64 bc bd bc d0 a5 bd
       0.08017034 -0.041259833 -0.09198762 -0.080964535
000090 23 ce ee bd ac a0 4a 3d 1d b6 25 3d c9 cf 1e 3e
       -0.11660411 0.049469635 0.04045688 0.15508951
0000a0 64 af 18 3e e0 6a 0c 3e 3d fb bd bd ce be fa 3d
       0.14910656 0.13712645 -0.092764355 0.12243424
0000b0 d9 7e e9 bc 71 24 c5 3d da e6 9e bd c7 bc 38 3e
       -0.028502868 0.09626091 -0.07758875 0.18040763
0000c0 e3 cb 9f 3d cf cb 8b 3c 91 77 bd 3d 8a fa 38 bd
       0.0780256 0.017064957 0.09251321 -0.045160808
0000d0 78 96 04 bd cc 6c bd bd 44 de d5 bd 79 45 01 be
       -0.03237006 -0.09249267 -0.104427844 -0.12624158
0000e0 6d 38 82 bd c4 82 be 3d 10 4f fa bc 7d dc da 3d
       -0.063584186 0.09302285 -0.030555278 0.10686586
0000f0 6b 3a a8 3d eb de 9a 3c ad 86 31 3d 1d 52 64 3d
       0.08214267 0.018905124 0.043341327 0.05574237
000100 ea 58 1f be 98 8c ba 3d 32 72 55 bc 33 63 46 3e
       -0.15561262 0.091088474 -0.013027715 0.19373779
000110 46 85 11 3d 71 ac 60 bd a8 f3 17 be fd b1 d1 3d
       0.03552749 -0.054851953 -0.14839041 0.10239027
000120 e0 bd 82 3d 88 e0 a5 bd af 56 63 3d 0a 95 11 bd
       0.06383872 -0.080994666 0.05550259 -0.035542525
000130 8b df 0a be e6 eb c1 3c 0c 8d a0 bd c5 92 b0 3d
       -0.13561837 0.023672055 -0.078394026 0.08621744
000140 2b fe c4 3d 91 4d 0f 3e a9 7c 63 3c 1c b1 f8 bd
       0.09618791 0.13994433 0.013884702 -0.12143156
000150 cb db 0e bc c1 c9 c3 3c f6 61 e6 3d 1f 05 94 bd
       -0.008719395 0.023899915 0.11249153 -0.07227539
000160 0f f6 20 3c d4 7b 21 be ec c0 2e 3d cf b3 b4 3c
       0.00982429 -0.15769893 0.042664453 0.022058396
000170 1a 73 84 bc b9 3f 91 bd 56 6d 0a be f1 28 b7 bc
       -0.016168166 -0.07092232 -0.13518271 -0.02235839
000180 a7 b6 13 3e 23 cb 83 3d c7 c8 e5 bd 61 e4 4f 3d
       0.14425145 0.0643523 -0.11219936 0.05075491
000190 a2 fe 74 bc 80 ff bb bc 43 91 34 3e a1 0a 9a 3d
       -0.014953287 -0.02294898 0.17633538 0.075215586
0001a0 42 6b f3 bd 19 88 53 bd b5 e1 dc 3d 53 6a fb bd
       -0.11885692 -0.051643465 0.10785238 -0.12276139
0001b0 9e 08 0d be 4a 0d 81 bd 17 1f a3 3d 6e e7 c2 3d
       -0.13772818 -0.06301363 0.07964914 0.09516798
0001c0 2e f6 18 be 8d eb 46 be a2 67 43 bd 1a 94 ff 3d
       -0.1493766 -0.19425793 -0.047706254 0.1247942
0001d0 72 80 2e be 35 b7 d7 bd 2d 08 92 3d 45 7d 01 3e
       -0.17041185 -0.10532991 0.07130466 0.12645443

weight f4 [40, 40]
000000 b2 47 99 bd 74 0d b3 3d 6c b2 8b bd 46 a6 d9 bd
       -0.07484378 0.087428 -0.06821141 -0.10627417
000010 e2 b7 1d be 0f 80 bd 3d 5f 56 08 be c3 03 9d 3d
       -0.15402177 0.09252941 -0.13314198 0.07666733
000020 02 7b 97 3d 61 07 fc bd c7 8d b8 bc 68 c0 5d 3d
       0.07396509 -0.12306095 -0.022528542 0.05413857
000030 20 80 b4 bd 1e 0d 18 bd aa 1c fe bd dc d0 ab bd
       -0.088135004 -0.037121885 -0.12407811 -0.08389446
000040 15 73 67 3d 70 18 14 3e 98 77 f4 bd ad 8c 94 3d
       0.056506235 0.14462447 -0.11936873 0.07253394
000050 59 4b e4 bd 8a 5b a7 3d e0 37 6f 3d a8 97 27 3e
       -0.11147184 0.081717566 0.058402896 0.16366446
000060 c9 6a 8f 3d e1 cc 24 be a4 ac ab 3d a2 bf 08 be
       0.070027895 -0.1609378 0.08382538 -0.13354352
000070 08 5c a3 bb 66 0f 27 3e 1b 9e 21 be ea f4 7e 3d
       -0.004985336 0.16314468 -0.15782969 0.062245287
000080 30 f2 9e 3d bb 0b 36 3c fe b0 94 3d 7b d5 23 3e
       0.07761037 0.011111195 0.07260321 0.15999405
000090 02 72 12 be d6 f4 93 3d 24 90 db bd 94 b8 38 3e
       -0.14301303 0.07224433 -0.10720852 0.18039161
0000a0 00 f2 93 3d 58 84 b8 3d 6d 21 9d bc 69 b8 d3 bd
       0.07223892 0.090096176 -0.019180978 -0.10337908
0000b0 c0 70 a6 bd f4 0f ba bd 91 a0 14 3e 50 bd 29 3e
       -0.08126974 -0.09085074 0.14514376 0.16576123
0000c0 08 f1 13 3e 71 1c 5d bd 67 b5 14 be a8 a4 06 be
       0.14447415 -0.053982202 -0.14522325 -0.13148749
0000d0 26 e2 74 3c 8f 64 c1 3d d4 fe 0e bd 52 7c d2 bd
       0.014946496 0.09443008 -0.03491099 -0.102776185
0000e0 76 5e 94 bc ea 2a 40 bd 2f 0a c8 bd eb 27 90 3d
       -0.018111449 -0.046915926 -0.09767567 0.07038864
0000f0 04 a0 43 3d 7f d3 2e be b5 f0 82 bd 60 f4 cb 3d
       0.047760025 -0.17072867 -0.063935675 0.0995872
000100 de 40 b9 bd 03 82 f1 3c 3c cb 0c bd 21 a5 bf 3c
       -0.090455756 0.02948094 -0.034373507 0.02339417
000110 94 5d 00 be ba ba d9 bd a0 29 1b 3e 72 bd d8 bd
       -0.12535697 -0.106313184 0.15152597 -0.10583009
000120 98 1f 02 3e 76 22 c8 3d 12 43 24 be 68 c9 33 be
       0.12707365 0.09772198 -0.1604121 -0.17557299
000130 0f 87 9b bb be 72 05 3e 1a 4a 0f 3e 20 36 05 b8
       -0.004746325 0.13032052 0.13993111 -3.176008e-05
000140 b1 a6 9e bd ee f5 15 3e d8 ca fb 3d d0 23 21 be
       -0.077466376 0.14644596 0.12294549 -0.15736318
000150 ab de 05 3e 02 95 7f 3d 5f 90 f9 3c 5e cd ed bd
       0.13073222 0.062397964 0.03046435 -0.11611436
000160 be df 8a 3d 17 c9 47 3b ee 1c 96 3d cc de d7 bd
       0.06780957 0.003048485 0.07329737 -0.10540542
000170 8c 4b 39 3e 78 04 95 3d 5c a6 32 3d 0d 23 6c 3d
       0.18095225 0.07276243 0.043615684 0.057650615
000180 95 02 d8 bd 6c 31 3b 3b b8 4a 04 be 42 9f 83 bd
       -0.105473675 0.0028563393 -0.12919128 -0.064268604
000190 71 f7 11 be e4 3d d9 bd 75 ce 88 bc 2e f7 4b 3e
       -0.14254548 -0.10607508 -0.016700009 0.1991851
0001a0 1e 63 9e bd 06 3c cd bd be 97 2a 3e 50 d7 cc bd
       -0.07733749 -0.10021214 0.16659448 -0.10002005
0001b0 26 80 e6 bd 95 bd 65 3b 86 20 b5 bd e6 2c c2 3d
       -0.11254911 0.0035055627 -0.08844094 0.0948122
0001c0 cb 3a 35 bd 06 b0 4b 3c 95 6d f4 3d f4 d9 bd 3d
       -0.044245522 0.012432104 0.119349636 0.09270087
0001d0 53 60 93 3d 86 04 38 bd b4 64 08 3e 2e cd ee 3d
       0.07196107 -0.04492619 0.13319665 0.11660229
0001e0 bc d4 24 3e bc 10 25 3b 0e bc d8 3b e2 e1 f3 bc
       0.16096777 0.0025186976 0.0066142147 -0.029770795
0001f0 1f d6 0d be 9b 72 27 3e 77 43 e2 bc 43 71 d9 bd
       -0.13851212 0.16352312 -0.02762006 -0.10617306
000200 a7 f4 c9 3b 64 78 ae bd c4 52 98 3d 8d bf 3d 3d
       0.006163198 -0.085190564 0.07437661 0.046325255
000210 1c 90 2a 3e ba eb 32 3e 15 75 da 3d b7 69 0f bd
       0.16656536 0.17472735 0.10666863 -0.035012927
000220 db 31 12 3e 50 4b 37 3d 90 a7 b6 bd 1d ed 00 be
       0.14276831 0.044749558 -0.08918679 -0.12590452
000230 0e e9 4b bd 9c e6 82 3c 14 0b 32 3d de ee 99 bd
       -0.049782805 0.015979104 0.043467596 -0.075162634
000240 96 d0 3b be 3c 1a dc bd b9 de b2 3d 2d d7 03 3e
       -0.18341288 -0.10747191 0.08733887 0.12875052
000250 4b fa 0b 3e 85 51 df 3d 38 53 01 3e 21 17 b5 bd
       0.13669698 0.109042205 0.12629402 -0.08842302
000260 88 68 71 3c 89 4a 05 3c 4b 11 7b bb ae a8 c1 bd
       0.014734395 0.008135446 -0.0038309868 -0.09456001
000270 7b c5 1a be 71 9b f5 bd 13 28 88 3d d5 9a df 3d
       -0.15114395 -0.11992539 0.066482686 0.10918204
000280 04 78 3e 3e ea 49 05 3e 14 dc e5 3c e1 32 58 3d
       0.1860047 0.13016477 0.028059043 0.052782897
000290 de 6a 16 be 0a 22 53 3e 07 56 ee bc 01 72 b6 bd
       -0.14689204 0.20618454 -0.029093755 -0.08908463
0002a0 66 05 58 3d 5a 1d 2d bd b3 bb 20 3e 7d 42 20 3c
       0.052739523 -0.04226432 0.15696602 0.009781477
0002b0 31 aa a0 bd da 98 0d 3e 55 0c e6 3d 8c 15 99 3d
       -0.078449614 0.1382784 0.11232821 0.07474813
0002c0 f8 55 8c bb 0c 76 b0 3d bd 76 d1 3b bd 32 2a be
       -0.004282709 0.08616266 0.0063923285 -0.16620918
0002d0 09 9a 0c be 16 2a 04 3e b6 54 bf 3a 2c bd ac 3d
       -0.13730635 0.1290668 0.0014597389 0.08434519
0002e0 fb ac fe 3d 8b 05 86 bd 55 e7 08 bd c8 4f d1 3d
       0.12435337 -0.06544026 -0.03342374 0.10220295
0002f0 de 5c 12 bd 00 1c ae 3d f5 67 ba 3d 6b 24 5d 3d
       -0.035733096 0.08501434 0.091018595 0.05398981
000300 4a 5f 93 3d e8 48 a8 bd 65 67 14 bd f6 8a df 3d
       0.07195909 -0.08217031 -0.036231417 0.109151766
000310 13 74 cd 3c 81 e8 2f be 48 04 19 be cc 0d 26 bd
       0.025079763 -0.17178537 -0.1494304 -0.0405405
000320 c7 06 98 3d 90 e7 29 bd c1 cf 39 be e5 5a 0a 3e
       0.07423168 -0.0414806 -0.18145658 0.13511236
000330 fe d9 37 3e 9c e7 7d bc 0e 6c 72 3d d7 e3 01 3e
       0.17954251 -0.0154971145 0.05918508 0.1268457
000340 6f cc 20 be 5c 8d 00 be fd 85 e6 bd 3f 58 d8 3d
       -0.15702985 -0.12553924 -0.11256025 0.105637066
000350 01 e5 87 bd b8 2c 4d bd 0e ea 7c ba cb c4 37 be
       -0.06635476 -0.050091475 -0.0009647914 -0.17946164
000360 4e b2 1d be 26 5a 33 bd 23 88 0d 3e 64 d9 bf bd
       -0.15400049 -0.043787144 0.13821463 -0.09367636
000370 d6 a2 93 bd 4f f9 66 bd 22 e4 09 3e d0 a7 a6 bd
       -0.07208793 -0.056390103 0.13465932 -0.081374764
000380 b3 09 15 bd 5e c4 49 bc fe 91 b0 3d 1f 75 40 be
       -0.036386203 -0.012314884 0.08621596 -0.18794678
000390 87 b3 4f 3c 1f bb e9 bc dc e9 46 bd a6 3d 10 bd
       0.01267708 -0.02853161 -0.04856287 -0.035215043
0003a0 4b 23 92 3d 42 ee df 3d ae a7 a9 3d b3 46 1f be
       0.07135638 0.10934116 0.082839355 -0.15554313
0003b0 f8 55 a4 bd 45 0a d5 bc 0d 2a 4f 3d a4 16 dd 3d
       -0.0802421 -0.026005873 0.050577212 0.10795334
0003c0 42 f7 fb 3c 56 d8 14 3e fe eb 29 3e 2d 68 ef bd
       0.03075755 0.1453565 0.1659393 -0.11689792
0003d0 7a e7 68 bb 17 d0 11 3e 1f ad fa 3d a0 99 92 bd
       -0.0035538361 0.14239536 0.122400515 -0.07158208
0003e0 19 7f 73 bd aa aa fb 3d 24 ee 0a bd 8d 6c a1 bd
       -0.05944738 0.12288411 -0.033918515 -0.078820325
0003f0 ba aa 42 3b 17 e0 75 bd f5 0e 05 be d7 a1 02 3d
       0.0029703812 -0.06002816 -0.12993987 0.031892624

bias f4 [40]
000000 e2 9e 74 bd 4d 0f fa bc d6 62 96 3d 14 85 51 bb
       -0.059721835 -0.030524874 0.0734307 -0.003197019
000010 18 7a 7d 3d e1 ca f6 bd 2b ec 26 3e 9e e8 57 bd
       0.061884016 -0.12050415 0.16301028 -0.052712075
000020 4e 13 f2 bd 6f 4a c7 3d c8 a7 05 3e 73 00 f8 3d
       -0.11820088 0.09730994 0.13052285 0.12109461
000030 67 43 4f bd b0 5a e6 3c 80 cf 4e bd 8c e6 7e bc
       -0.05060139 0.028119415 -0.050490856 -0.015557896
000040 95 78 dd 3d 31 62 50 3d b1 ff a2 3c f7 9c cc 3d
       0.10814015 0.050874893 0.019897314 0.09990876
000050 ee 60 f4 3b cb b7 35 bd b3 d5 5e bd 4f 33 5f bc
       0.007457844 -0.04436473 -0.05440302 -0.013623073
000060 ba 20 9b 3c fa bb 4d 3d 4b c3 d9 3c 8e 99 04 3e
       0.018936504 0.050228097 0.02658238 0.12949201
000070 9f 83 09 be f8 65 17 3d 3d 2c 92 3d b1 28 37 3c
       -0.13429116 0.03696248 0.07137344 0.011179135
000080 d9 47 74 bd 6f b8 e9 bd 59 70 dd 3d 78 cb f7 3b
       -0.05963883 -0.11412131 0.10812444 0.007562097
000090 c7 a5 b6 bd 13 50 f5 3d e1 36 c3 3d 32 96 17 3d
       -0.08918338 0.119781636 0.09531952 0.03700847
