Results/2330_discriminator1_adjusted.pth (torch, 251305 bytes, 35 tensors)

weight_ih_l0 f4 [120, 20]
000000 79 3a de 3c 89 60 bd bd f5 68 f5 bd 19 21 25 be
       0.027127491 -0.09246928 -0.119829096 -0.16125907
000010 65 2d 04 3c b8 c3 a0 bc 4e 9a c1 3b 2e 1c 96 bd
       0.0080674635 -0.019624576 0.005908287 -0.073295936
000020 bc 13 af bd 04 00 fa bd 51 4c 86 bd b2 5e 14 3e
       -0.08548686 -0.12207034 -0.06557525 0.14489248
000030 40 14 3d 3e 6b 2b 34 3c 0b c3 58 bd 76 ab ad 3d
       0.18464756 0.01099668 -0.052920382 0.08479969
000040 b4 0d 0c 3e cb cb 5a bc 20 63 0b bd 07 cd d1 3c
       0.13677102 -0.013354252 -0.03403008 0.02561046
000050 a9 45 14 be a3 cb 5a bd 84 c6 23 3e a9 72 d9 bd
       -0.14479698 -0.05341686 0.15993696 -0.10617573
000060 0b e6 11 3e cd 01 1c bd 48 dc 6a 3d ec d2 36 bc
       0.1424791 -0.038087655 0.057338983 -0.011158686
000070 bb 5f 03 3e 77 7e f7 bc 1a b9 8d 3c ef a2 8b bd
       0.12829487 -0.03021167 0.017300177 -0.068181865
000080 4b 9d 0a bd 76 88 9a 3c 5c b8 a7 bd 63 78 a5 3d
       -0.033841413 0.018863898 -0.08189461 0.080796026
000090 e2 06 0f bd 8f 92 1a 3e 23 15 d1 bd 05 44 9b 3d
       -0.034918673 0.1509497 -0.1020911 0.07581333
0000a0 f5 fe 0f be 76 d2 09 bd 23 31 cf bc 3e 65 56 3d
       -0.14062102 -0.033647977 -0.025291985 0.052342646
0000b0 1c cb 30 be 69 22 7e 3d f8 df ab bc 31 b1 49 be
       -0.1726498 0.062044535 -0.02098082 -0.196965
0000c0 15 36 9b bc 61 38 49 be c6 a0 ea 3c 07 ec 40 3e
       -0.018946687 -0.19650413 0.028641116 0.18840037
0000d0 52 46 24 3e 06 47 1e 3e f4 dc 43 be f3 e5 02 bd
       0.1604245 0.15456781 -0.19127256 -0.031957578
0000e0 fd fc da 3c 49 90 a2 3d 98 be 00 3e 6b d6 3b be
       0.026731962 0.079376765 0.12572706 -0.18343513
0000f0 7f 49 1d 3e 97 97 29 3e b0 c4 43 3e 21 b7 e7 3d
       0.15360068 0.16561733 0.19117999 0.11314226
000100 57 b8 54 3d 84 06 0d 3e a4 1f da 3d b1 90 57 3d
       0.051933613 0.13772017 0.10650566 0.052628223
000110 1e 77 4b 3e 7a 03 60 bd 00 72 7b 3d 9b c5 49 bd
       0.19869658 -0.054690816 0.061388016 -0.049260717
000120 f1 df 4a be b7 35 02 be 7c 53 15 3e fa 03 7a bd
       -0.1981199 -0.12715803 0.14582628 -0.06103895
000130 9b de 07 3e 78 00 c5 b7 24 6a f4 bd c4 e6 e7 bc
       0.13268511 -2.3484448e-05 -0.11934307 -0.02830828
000140 f3 64 57 3c c2 ef 52 3b 71 4c 8f bd 12 d6 4a bd
       0.013146627 0.0032186364 -0.06997002 -0.04952056
000150 3e 08 c4 bd 05 24 9b 3d d0 5d 2d bd 9c af 56 3d
       -0.095718846 0.075752296 -0.042325795 0.052413568
000160 c8 60 1a bd ef a8 dd bc 7b 5c 98 3d b3 1d b4 bd
       -0.037689954 -0.027058093 0.07439514 -0.08794727
000170 96 88 a9 bd 65 b4 22 3d 7d 78 21 be 15 40 37 bd
       -0.08278005 0.03972282 -0.15768619 -0.044738848
000180 e2 cb 04 be 35 cf 02 3e 8f 6c 3f 3c 29 46 34 be
       -0.129684 0.12774356 0.011683597 -0.17604889
000190 d3 a6 fd bd a3 b3 42 3e ea 12 40 3e 32 08 fa 3d
       -0.12385335 0.19013838 0.18757215 0.122085944
0001a0 77 9a df 3d 80 93 b4 3c 07 5b 87 bd 47 1c 75 3d
       0.10918134 0.02204299 -0.06609159 0.05984142
0001b0 66 ea 43 3c ef 8f 05 3e bd 54 25 be 7d f6 60 bc
       0.01195774 0.13043188 -0.16145606 -0.013730642
0001c0 f3 c6 64 bd 56 27 10 3b 0a 08 1c 3d 1b b8 83 3d
       -0.055853795 0.0021996102 0.038093604 0.064316
0001d0 76 3c a6 bd 9c 09 2e bd cb ad 58 bd 65 66 bb bd
       -0.08117001 -0.042489633 -0.052900117 -0.091503896
0001e0 df a9 24 3d ca 57 5f 3e 72 f0 12 3e f0 6d 41 3e
       0.040201064 0.21810833 0.14349535 0.18889594
0001f0 97 1d 42 3e 45 97 a5 3d f5 11 cb 3c 9d 70 5d bd
       0.189566 0.08085493 0.024788836 -0.054062475
000200 89 42 18 3e 61 b7 8a 3c ec ed eb bd 03 77 10 3d
       0.14869131 0.016933145 -0.11519989 0.03526975
000210 42 ba a1 bd be 71 a9 3d 60 3b 2b 3d 39 79 0c 3d
       -0.07896854 0.08273648 0.04180467 0.034295294
000220 30 c1 51 be 53 d2 47 3d 64 f1 91 3d 96 45 52 3d
       -0.20483851 0.048784565 0.0712612 0.051335894
000230 b7 84 eb bd d8 91 79 3d ef 9f fa 3d 06 74 ce 3c
       -0.11499923 0.060930103 0.12237536 0.025201809
000240 c8 5c e8 bd 6f c9 ac bd 90 19 27 bd ba 97 03 be
       -0.113458216 -0.08436858 -0.040795863 -0.12850848
000250 7f 1f 11 3c 74 ed 50 3d f6 a2 41 bd f9 65 0b 3e
       0.008857607 0.051007703 -0.047274552 0.13613118
000260 88 3a df 3d 27 c3 28 3e 64 9f fd 3c 71 19 dc bd
       0.10899836 0.16480695 0.030959792 -0.1074704
000270 af 6b 0d be 1e df 1a be 6c 50 cb 3d cb 8d 28 3b
       -0.1381061 -0.15124175 0.09927449 0.002571928
000280 56 18 30 3e e7 18 0e 3e bd 1d 16 3d dc 0a 55 3d
       0.17196783 0.13876687 0.036649454 0.05201231
000290 5b 13 88 3d b8 f8 b8 3d a3 99 43 3e bb c8 da 3d
       0.06644317 0.09031814 0.19101577 0.106828175
0002a0 da ba 91 3c f8 cc d1 3d ba 83 7b bd e5 5a 1e be
       0.017789293 0.10244173 -0.06140492 -0.15464361
0002b0 41 c8 63 bc 44 72 13 3d 78 2c 4f 3e e8 5f a5 3b
       -0.013902725 0.035997644 0.20231807 0.0050468333
0002c0 b5 f5 37 bd 2d ae 30 bd 49 a1 eb 3d cb 62 40 3e
       -0.04491206 -0.043134857 0.11505372 0.18787687
0002d0 58 75 b1 3c ae 5a 14 3d e4 a6 dc bd 3d 05 14 be
       0.0216624 0.03621929 -0.10774019 -0.14455123
0002e0 66 e1 d4 3c 33 be 42 be f7 18 4c be d1 b5 37 be
       0.025986385 -0.19017868 -0.19931398 -0.17940451
0002f0 91 cf 90 bd 52 8a 8a 3d 95 af c1 bd c6 8b 3a 3e
       -0.0707084 0.06764664 -0.09457318 0.18217382
000300 c3 78 15 3d b5 37 cf bd ef bf 5d be fb 9a da 3d
       0.03649212 -0.10118047 -0.21655248 0.106740914
000310 ce a8 c7 bd b0 e7 f4 bd 40 ff 8a 3d d0 2a 96 bd
       -0.09748994 -0.119582534 0.06786966 -0.073323846
000320 9f 98 ba 3d c2 6d fd 3d 79 51 5f bd 19 85 22 be
       0.091111414 0.1237445 -0.054521058 -0.15871085
000330 3b 25 33 3d 7f 30 96 3d c7 35 0d be ec e6 a1 3b
       0.043736678 0.07333469 -0.13790046 0.004940858
000340 53 59 31 be cf b8 cb bd e5 6d 1f 3d cb e2 ee 3d
       -0.1731923 -0.09947359 0.038923163 0.11664351
000350 37 33 e9 bd 74 8c e0 3b 73 7b 15 be 14 6c 03 3d
       -0.113867216 0.006852681 -0.14597873 0.032085493
000360 a3 03 f7 3d 23 99 76 3d 0f a1 80 bd 28 ee 8c 3d
       0.120612405 0.060204636 -0.062807195 0.06881362
000370 51 02 3b 3e 07 e8 be bd 21 37 7e 3d d3 b5 27 3e
       0.18262602 -0.093215995 0.062064294 0.16377954
000380 08 0d cb bc d5 61 29 bd 65 e4 18 3e 4f bf 1c 3e
       -0.024786487 -0.041353066 0.14930876 0.15307353
000390 cb 4e 0f 3e 59 20 74 bb ce 9d 04 3e 24 6c 45 be
       0.13994901 -0.0037250726 0.12950823 -0.19279534
0003a0 1d c7 a6 b8 77 a4 ce 3d d1 85 48 3e e7 eb 35 3c
       -7.9525846e-05 0.10089963 0.19582297 0.011103607
0003b0 16 19 29 3e 7f f6 18 be a3 9e 37 3c 8d c2 10 3e
       0.16513476 -0.14937781 0.011207256 0.14136715
0003c0 66 43 e6 3d 7a c0 2d 3e 66 72 4a bd 42 2e 2e 3e
       0.11243324 0.16967955 -0.049425505 0.17009833
0003d0 a2 6f 58 3d 10 f5 f6 3d 06 ca 4c 3d 25 f7 56 bd
       0.052840836 0.12058461 0.049997352 -0.05248179
0003e0 a8 a6 f5 3d 1a 72 76 3d 8f 36 e6 3b cc 22 6c 3d
       0.11994678 0.06016741 0.007025547 0.057650372
0003f0 59 0e 6b 3d dd 35 f2 bd 4d 51 1f bd 23 6c d3 bd
       0.05738673 -0.1182668 -0.038895894 -0.1032336

weight_hh_l0 f4 [120, 40]
000000 8d 3f cc bd 6f 97 38 be 38 2f 29 be 74 9f d2 bd
       -0.09973059 -0.18026517 -0.16521919 -0.102843195
000010 03 84 e2 3d 98 ad 6b 3c 63 ea aa 3d fd 67 f4 bb
       0.110603355 0.01438465 0.08345487 -0.0074586854
000020 6c 8b c3 3d c8 e4 e0 3d 20 38 8b bd d3 37 b9 bd
       0.09548077 0.109811366 -0.06797814 -0.09043851
000030 05 83 5c 3d 1e ad ff bd 3a ef c5 bb ef a1 5b bb
       0.053835887 -0.12484191 -0.006040481 -0.0033513268
000040 d0 e2 a2 3d f1 e6 a9 bd 70 3b bf 3c 16 d0 0d bd
       0.07953417 -0.08296002 0.023343772 -0.034622274
000050 19 1e a3 bd 05 fe b5 3c 72 3a 2b 3e b6 27 88 bc
       -0.07964725 0.022215853 0.16721514 -0.016620498
000060 68 e0 12 bc ec 7c cb 3c e5 2b f6 bd 69 62 36 bd
       -0.008964635 0.02483984 -0.12020091 -0.044527445
000070 bd fd e7 bc e4 37 9e 3d 9b 4b 00 3e 91 02 9c 3d
       -0.028319234 0.07725504 0.12528841 0.07617677
000080 67 6e f5 bd 6f a7 ca bd 1f 57 84 3d 24 ad 08 3e
       -0.11983948 -0.09895217 0.064619295 0.13347298
000090 5e 79 9a 3d f5 c6 b3 bc e6 9e a8 bd c5 6e e3 3d
       0.0754268 -0.021945456 -0.082334325 0.11105112
0000a0 a6 1f 19 3d 1d 66 71 3d 0f e5 25 bc 4e 5c c9 3d
       0.037383698 0.058935273 -0.010125413 0.09832059
0000b0 68 6e 00 bd 4f 5c c1 bc 28 32 80 bd f1 63 27 3e
       -0.03135529 -0.023603586 -0.062595665 0.16346718
0000c0 e0 f5 32 be bf 83 18 be b2 0b a5 3d 0d 7a af 3c
       -0.17476606 -0.14894007 0.08058871 0.021420503
0000d0 4b a8 02 be 7c fb eb 3d ad 03 d1 3d d3 ec 84 bd
       -0.12759511 0.11522576 0.10205779 -0.06490483
0000e0 d3 8a 87 bc a0 a3 fa 3d c6 96 7a bc 3c d9 91 3d
       -0.016545689 0.1223824 -0.015294736 0.07121512
0000f0 39 a3 a4 bd 68 ce a4 bd 66 39 f2 bd a9 b7 b1 bb
       -0.08038945 -0.08047181 -0.11827354 -0.0054235053
000100 3e 8e ce 3d 19 a6 14 3e 38 c7 2f be f6 27 d9 3d
       0.10085724 0.14516486 -0.1716584 0.10603325
000110 9b 2f 1d 3d c6 dc 13 3e c0 6c cd 3d 6b 47 1e 3c
       0.03837548 0.14439687 0.10030508 0.009660582
000120 56 4e a0 bd 99 96 27 bd 33 0e af bd 31 ac f4 3d
       -0.078274414 -0.040915105 -0.0854763 0.119469054
000130 7f c7 22 3d 9b 89 1d be fa 2c 0e be 8b ae 4d bd
       0.039741036 -0.15384524 -0.13884345 -0.050215285
000140 5d cf 35 3c bb 8e c9 3d 92 40 c5 3d 5a 6a cc 3d
       0.011096803 0.09841677 0.096314564 0.099812225
000150 94 70 37 3d 0e a1 0d be e5 4c 2c 3e f0 2f 09 be
       0.044785097 -0.13830969 0.16826208 -0.13397193
000160 5f f9 9f 3c 48 2b bb bd 69 98 ec bd 79 05 e6 3d
       0.01952809 -0.091391146 -0.115525074 0.112315126
000170 d9 cc 19 3e c6 b2 7b 3d 4c 99 4f bd f6 bc 38 be
       0.1501955 0.06144979 -0.050683305 -0.18040833
000180 b3 45 f4 bb 06 b1 3c bd 1f d8 11 bd 3a 88 e8 bc
       -0.007454598 -0.04606726 -0.0356065 -0.02838527
000190 7e 2f 69 3e 70 38 93 bd d9 92 3f 3e fb 07 35 3d
       0.22772023 -0.07188499 0.18708362 0.044197064
0001a0 24 ef a9 3c 37 47 a5 3d 73 79 3c be de c8 1d bd
       0.020743914 0.08070224 -0.18405704 -0.03852164
0001b0 ea 4c 0c 3e 80 8a 1f be 5e c9 48 be d5 ed ab bd
       0.13701215 -0.15580177 -0.19608065 -0.08394972
0001c0 6f 7f 50 3e 1c 07 f1 bd 15 a9 b5 bd fc 8d 42 3e
       0.20361112 -0.11768934 -0.088701405 0.18999475
0001d0 68 d9 a8 bd 98 f6 9c 3b 52 1b 2e 3e fe 4d d2 bd
       -0.08244592 0.0047901385 0.1700261 -0.10268782
0001e0 a6 c7 fe 3d 16 7e 4b 3d b1 1a fd 3c 59 6d 6b 3d
       0.12440424 0.04968079 0.030896517 0.05747733
0001f0 f0 dd ca 3d 4b e1 84 3c 6d 93 97 bd b7 1e ed 3d
       0.099056125 0.01622071 -0.07401166 0.11578124
000200 4b df 09 be 1b c9 63 3d b0 65 f6 3c 21 f2 d4 bd
       -0.13464086 0.05561171 0.030077785 -0.10397745
000210 e6 31 be 3d be 8b 83 bd d3 28 4d 3d f8 a6 e6 bd
       0.09286861 -0.06423138 0.05008776 -0.112623155
000220 7d 50 0b 3e 5f 35 dc 3d cf 54 25 3e d2 94 8d bd
       0.13604923 0.10752367 0.16145633 -0.06913151
000230 22 0f fb bd 3b ea b0 3c 37 42 cf bd bc 66 60 bd
       -0.12258746 0.021596065 -0.10120051 -0.054785475
000240 f7 dc 5c 3d f2 31 df 3d b6 21 b7 bd 13 ba fa bd
       0.053921666 0.10898198 -0.08941977 -0.12242522
000250 e9 b1 04 3e 68 76 cd bd 47 d3 43 3e dc bb b4 3c
       0.12958492 -0.1003235 0.19123565 0.022062235
000260 2e 10 fc bc 5d b3 8a 3d 55 81 0a bd af a6 1b be
       -0.030769434 0.06772492 -0.033814747 -0.15200303
000270 d8 8d 6d 3d 51 5e 13 be de f1 62 3d 92 8f 82 3d
       0.0579966 -0.14391448 0.055406444 0.0637504
000280 64 17 33 be e4 39 09 be 1d 54 28 3e 2d 8a 2a 3d
       -0.17489392 -0.1340099 0.16438337 0.04163568
000290 75 bf 0b be 7a 51 08 3d b2 c3 da 3d 8f bd 9b 3c
       -0.13647254 0.033280827 0.10681857 0.019011287
0002a0 26 91 fe bd 31 66 9f 3d 68 77 b8 3d bb 77 f0 bd
       -0.124300286 0.07783163 0.0900715 -0.11741587
0002b0 78 4c f9 bd 92 03 f9 bd 2a 26 83 bd 58 a6 ef 3c
       -0.121727884 -0.12158884 -0.064037636 0.029254124
0002c0 22 4e a3 3d 17 a5 03 3c 12 09 1a 3e 6f 8f 05 3d
       0.07973887 0.008034966 0.15042523 0.032607492
0002d0 4d 35 f8 3c 1d 95 ee bd c3 e1 eb 3d 4f 71 23 3e
       0.030298853 -0.11649535 0.1151767 0.15961193
0002e0 e7 c8 ce 3d 08 cb 04 3c 51 e6 aa 3d 4c 4f a6 3c
       0.10096913 0.008105047 0.083447106 0.020301484
0002f0 f0 47 3f bd 24 f4 2e 3d f9 06 ac bd bd 51 8a 3d
       -0.046699464 0.0427133 -0.083997674 0.067538716
000300 8c 0b 24 bd 2e 25 cc bd a6 88 f0 3c 00 ea 23 3e
       -0.040050074 -0.09968029 0.029362034 0.16007233
000310 20 6a 01 be 05 9e f8 bd 99 75 aa bd 8d 93 aa bc
       -0.1263814 -0.12139515 -0.08323211 -0.02082231
000320 73 bb a8 3d f5 1b ef bd 68 b4 40 bd 55 f5 a3 3d
       0.08238878 -0.11675254 -0.04704705 0.08005778
000330 90 c9 82 3d ae 10 8d bd 2b eb a2 3c f6 d2 c1 bd
       0.06386101 -0.06887947 0.019887527 -0.09464066
000340 30 67 5e 3d a2 6d ec 3d e8 29 93 bd 8e ce 0e bd
       0.054297626 0.11544348 -0.07185727 -0.034864955
000350 a8 6c 3a 3c d3 f6 16 3e 1f b6 7a bd c6 32 9d bd
       0.011378445 0.14742593 -0.06120884 -0.076757
000360 a0 68 d8 3c bf f6 26 3e 11 71 f7 3d 28 f1 98 bd
       0.026417077 0.16305064 0.120821126 -0.07467872
000370 d9 f9 25 be 26 7f 3f 3d 4b b7 29 3d 42 5f a4 bc
       -0.1620859 0.046752118 0.041434567 -0.020064954
000380 0e 3b 2f be 3c f3 e3 bd b7 08 15 be 7d d5 31 be
       -0.17112371 -0.11130378 -0.14554106 -0.17366596
000390 e0 5d 20 be 48 5b ce 3d f6 d5 29 be a7 1a 31 3d
       -0.1566081 0.10076004 -0.16585526 0.04323831
0003a0 93 5f 2d 3e e8 1f 6c 3d 0b d4 99 bc 62 3f b4 bd
       0.1693099 0.057647616 -0.018777868 -0.08801152
0003b0 75 01 d5 3d f9 ed 1a 3e 2d 7c 12 bd 49 45 c0 3d
       0.104006685 0.15129842 -0.035762955 0.09388215
0003c0 5d 4a 3e be 00 cb 4b 3c 30 40 21 3e 96 4c 0d be
       -0.18583055 0.012438536 0.15747142 -0.13798746
0003d0 3b 5d be bd ac 74 9b 3d 09 00 b5 bd 08 3f 3a 3e
       -0.09295126 0.07590613 -0.08837897 0.18188107
0003e0 b2 a2 fa bd 98 0a 30 3d 9e d5 21 3d 11 00 df 3d
       -0.12238063 0.042978853 0.03951036 0.108886845
0003f0 93 75 13 3d 7f 11 4b 3e 29 46 14 3e e9 b8 2b 3e
       0.0360008 0.19830893 0.14479889 0.16769756

bias_ih_l0 f4 [120]
000000 35 8a b5 3c 49 49 dd 3d 5d 05 d7 bb 6b 31 88 3b
       0.022160629 0.10804994 -0.0065619186 0.0041562817
000010 d6 9a eb 3d f4 02 4f 3d ca 62 fd bd 9f e6 bb bd
       0.11504142 0.050539926 -0.12372358 -0.09174847
000020 5a 65 27 be 87 f3 ce bc 14 2b 93 3c 2c 75 af bb
       -0.16347256 -0.025262607 0.017964877 -0.005354544
000030 86 1d 29 bd 53 05 91 bd ff df d3 3d 7d 7c 11 bc
       -0.04128792 -0.07081094 0.10345458 -0.008879778
000040 3e 32 5c 3b cd da b6 3d 5f b7 a6 3d 16 38 8b bc
       0.0033599283 0.08928452 0.08140444 -0.016994517
000050 c0 1a 89 bc ea 12 55 3a 03 24 43 3d 58 14 e9 bd
       -0.016736388 0.00081281236 0.047641765 -0.113808334
000060 50 34 e4 bd 3b 2e a8 bd f1 b9 ee 3d 54 e5 a5 3c
       -0.1114279 -0.08211943 0.11656559 0.020250954
000070 05 c0 c1 3d fe b3 a3 bd 22 52 db 3d d4 d8 d3 bd
       0.09460453 -0.07993315 0.10709025 -0.10344091
000080 08 83 9c 3b 00 13 dd 3c 43 9c 94 bd 34 8e f2 bd
       0.0047763623 0.026986599 -0.07256367 -0.11843529
000090 0d dd 23 3d c4 05 3f bd 3f 04 29 bd 85 50 cd bd
       0.040005732 -0.046636358 -0.041263815 -0.100251235
0000a0 72 39 17 3e ec 6c 07 bd 1a 45 c9 3d 87 06 12 3e
       0.14768007 -0.03306286 0.09827633 0.14260302
0000b0 c6 16 21 3e 62 6c fe 3b b2 73 02 3d 0a 51 0b be
       0.15731344 0.007764385 0.031848617 -0.13605133
0000c0 a5 73 98 3d ff af 41 be 3d 52 e2 bc 55 14 37 3e
       0.074439324 -0.18914793 -0.027627105 0.1787885
0000d0 b6 4f ea bd bf d4 4b 3e bd 68 26 3e ff 97 ab bc
       -0.11440985 0.19905375 0.16250892 -0.0209465
0000e0 15 2d 0c bd 12 6f a6 3c 77 c3 d1 3d 34 c4 67 3c
       -0.03422268 0.020316634 0.1024236 0.0141459
0000f0 f3 51 4c be dd 16 8a 3d 27 1a 42 3a 80 0c dd 3c
       -0.19953136 0.06742642 0.00074044097 0.0269835
000100 c0 40 0b 3e 44 b7 c6 bd 5e 29 2a 3c 45 03 e8 bc
       0.13598919 -0.09702924 0.010385839 -0.028321872
000110 9a 2a b8 3c a2 2b bd bd 77 64 1a 3c d7 18 c3 bd
       0.022481252 -0.09236838 0.009423367 -0.09526222
000120 9b 1d 06 3e 32 0e e9 3c 2d 32 36 3e 40 c2 4a 3e
       0.13097231 0.028449152 0.17792578 0.19800663
000130 58 7a a5 3d d6 65 25 be 1f b5 a9 3c 8b ea 58 bd
       0.08079976 -0.16152129 0.020716248 -0.052958053
000140 3a 22 31 bc 34 60 a3 bd d0 b3 38 3d 4f 7e 6b 3c
       -0.010811383 -0.07977334 0.045093358 0.014373376
000150 c9 5e 94 3d 5a 7c 3a 3d b3 c1 eb 3d 38 04 db bd
       0.07244641 0.045528747 0.115115546 -0.10694164
000160 a6 7a 06 3e 68 2f 49 bd ed 65 3e bd ac e5 02 3e
       0.13132724 -0.049117476 -0.046483923 0.12782925
000170 72 9d 04 be 93 0b 2a 39 f6 ec 0b bc a1 d8 cd bd
       -0.12950686 0.00016216775 -0.008540383 -0.10051084
000180 24 f8 9f bc 2b 02 0c bd 41 0b 12 be 2e a4 c7 3a
       -0.019527502 -0.034181755 -0.14262106 0.0015231424
000190 e9 fb 14 3d 1b 0d 09 bd a7 bc 27 3e d2 8c 0b 3e
       0.036373053 -0.033459764 0.16380559 0.13627937
0001a0 e5 29 6b bd 9a 64 e6 3d cd 8d 8c bd b8 53 cb bc
       -0.057413 0.11249657 -0.06862984 -0.024820194
0001b0 2a bc 31 3d ef 93 9e 3d 40 58 0a be ba 19 10 3d
       0.043392338 0.0774306 -0.13510227 0.035180785
0001c0 9a f8 0a 3e cb 1b 26 bc 21 71 f8 3c cf d8 a8 bd
       0.13571396 -0.010138462 0.030327382 -0.08244478
0001d0 4e 73 1d 3e 96 c9 26 3e 4d 0d 6c 3d c1 14 35 bd
       0.15376016 0.16287836 0.057629872 -0.044209246

bias_hh_l0 f4 [120]
000000 3e 2c 2f 3e 0c 2a 99 3d f4 c7 50 3e cb 7e f4 bc
       0.17106721 0.07478723 0.20388776 -0.029845616
000010 c1 73 3a 3e e1 b8 ff bc 1e b1 69 3c e6 89 bf 3d
       0.18208219 -0.031216087 0.014263419 0.09352474
000020 fe 20 bc bc d2 1b ac bd 53 df 43 bc f0 d7 c2 3d
       -0.02296495 -0.08403744 -0.0119551 0.09513843
000030 d1 f3 e3 3d 44 01 2c be 4c 6f 87 3d a6 09 a7 3d
       0.11130489 -0.16797358 0.06613025 0.08156137
000040 c8 5f 0f bd 2b 2f de bd 7f 64 05 be e8 39 35 3e
       -0.035003453 -0.1084884 -0.13026617 0.1769787
000050 48 7f ce 3c be 6e d1 bd c0 68 07 3e a8 b5 e5 3c
       0.025207177 -0.102262005 0.13223553 0.028040722
000060 3b c5 0c 3c ac 10 a5 bd ef 54 85 bd 5a 9d 90 3d
       0.008591945 -0.080598205 -0.065103404 0.070612624
000070 52 ad 00 3e 6e c7 9b bd a3 f1 26 bc 78 4b 8e bc
       0.12566116 -0.076063976 -0.010189447 -0.01736997
000080 f2 15 bd 3c c7 ba f3 bd 7f 1d f6 bd 76 36 47 3d
       0.023081753 -0.11900859 -0.12017345 0.048635922
000090 82 85 04 be 59 02 1f 3d da 1f 22 3e 11 1f a6 3d
       -0.12941554 0.0388206 0.15832463 0.08111394
0000a0 af 3c a1 bd 9b f8 12 3e ef 12 23 3e 57 f8 fb bc
       -0.078729026 0.14352648 0.15925191 -0.030758066
0000b0 7d 99 a1 bd 2c 9d 34 3e 93 ce fd 3c ef 9f d4 bd
       -0.07890604 0.17638081 0.030982291 -0.103820674
0000c0 d0 f1 35 bd 5b c8 9a 3d d9 fa c2 3c 6e 16 e4 bd
       -0.044420063 0.07557746 0.023801254 -0.111370906
0000d0 d1 ad af 3d c3 aa 8f 3c b5 0f 03 3e 40 0f db 3c
       0.08578075 0.01753748 0.1279896 0.02674067
0000e0 ed 2c cc bd 59 ee 69 bd b3 35 9e 3d 70 3e 4d 3e
       -0.099695064 -0.05711207 0.07725086 0.2004335
0000f0 39 39 3b be f0 53 6f 3d 9a ee ef 3c 10 16 25 be
       -0.18283547 0.05842966 0.029288579 -0.16121697
000100 ae c3 f3 3d 8e f9 3e bd 2b de ec bd d1 04 84 3d
       0.11902557 -0.046624713 -0.11565813 0.06446231
000110 d2 20 34 be 8e 95 e3 3d 34 ab d4 3d 2e bc 4a 3c
       -0.17590645 0.1111251 0.10384217 0.012373967
000120 c0 6c b8 bd 9f 3c a2 3d 8c c6 8d 3d 21 0f 74 bc
       -0.090051174 0.07921719 0.069226354 -0.014896185
000130 3a d2 58 3d e1 bc 2e be 58 59 65 3c e2 4d d5 3d
       0.052934863 -0.17064239 0.013998352 0.104152456
000140 a7 47 46 3e de 1a bc bb 5d f1 64 3d c1 be c1 3d
       0.1936327 -0.0057405075 0.055894244 0.094602115
000150 c5 00 64 bd 1c e3 f1 bd 3d 2f a9 bd ac 2b 6d bd
       -0.055664796 -0.11810896 -0.08260963 -0.057902977
000160 6b 9a 1a 3e c3 b6 90 3d 30 3f e8 3d 1d ea 2b be
       0.15097968 0.07066109 0.11340177 -0.16788526
000170 27 19 be 3d 2f f0 0d bd 4a 63 63 3d 4c 26 05 3e
       0.09282141 -0.034652885 0.05551461 0.1300289
000180 e4 18 82 bd c7 f7 7f 3d c1 88 bf 3d 15 a9 11 3e
       -0.06352404 0.06249216 0.093522556 0.14224656
000190 9c ce fe 3d 22 ec 87 bd 2e e2 e2 3c 7e 5e 83 bd
       0.12441751 -0.06636836 0.027695742 -0.06414507
0001a0 5f 9e 42 3d fc db 3c 3d 97 fd 36 bc 2a 04 99 3d
       0.047514316 0.04610823 -0.011168859 0.07471497
0001b0 a4 81 4d bd ce 18 20 3e e7 c3 18 3e a3 a2 89 3d
       -0.050172463 0.15634462 0.14918481 0.067204736
0001c0 fd 43 42 bd 49 36 f3 3d 3a d0 09 3e 15 67 c3 3d
       -0.04742812 0.118755884 0.13458338 0.09541146
0001d0 aa 73 3a bd c7 af a1 bc 84 87 66 bc 72 cf 13 be
       -0.045520462 -0.019737137 -0.014070395 -0.14434603

weight_ih_l1 f4 [120, 40]
000000 50 80 8b bd 5e 8c 01 3e d5 08 b6 bd b9 39 e9 3d
       -0.06811583 0.12651202 -0.08888403 0.11387963
000010 34 cd 35 3e 26 78 71 3d 52 63 5e 3d 4e d1 0e 3d
       0.1775406 0.058952473 0.054293938 0.034867577
000020 7e db a9 bd f7 7a c1 bd 42 98 35 3e 27 11 47 bd
       -0.08293818 -0.09447282 0.17733863 -0.048600342
000030 03 40 dd bd 6f 7b 06 bd 8a b3 f7 bd 05 0d 98 bd
       -0.10803225 -0.03283256 -0.12094791 -0.07424358
000040 53 97 74 bd a5 55 c8 3c 5e 13 0e be 71 c1 dd 3d
       -0.059714627 0.024454901 -0.13874575 0.10827912
000050 44 47 24 be 17 f3 21 be e0 0a a6 3c bf 77 0e be
       -0.1604281 -0.15815388 0.020268857 -0.13912867
000060 16 c9 16 3e b7 60 3a 3c a6 b0 9e 3d 72 ec ad bd
       0.14725146 0.011375598 0.07748537 -0.08492364
000070 c2 7a 0d be 7b 5f 21 3e c3 50 eb bc aa e7 01 bd
       -0.1381636 0.15759079 -0.028725034 -0.031715073
000080 e5 a9 44 bd 1d 61 12 bd fb 1d b2 3d be 0b d1 bd
       -0.048013587 -0.035737146 0.086971246 -0.10207318
000090 c4 f5 04 3e 5c 45 04 be 29 1c 13 bd 2c c5 88 bd
       0.12984377 -0.12917084 -0.035915527 -0.066782326
0000a0 e8 3d ec bd 16 87 94 bd 44 d8 bf 3d 3a 2f a1 3d
       -0.11535245 -0.07252328 0.09367421 0.07870336
0000b0 ea d9 af bd af 16 22 be c7 dc ff bd cb 27 41 be
       -0.08586486 -0.15828966 -0.12493282 -0.18862836
0000c0 76 a6 3a 3e b0 f9 8c bd e4 8a ea 3d 9c 01 09 3e
       0.18227562 -0.068835616 0.114522725 0.1337952
0000d0 4d 46 54 3d 17 c4 14 be fa c4 da bd d9 01 8c bd
       0.051824857 -0.14527927 -0.106821015 -0.0683629
0000e0 90 72 cb 3d a0 71 85 bd 7d 89 9c bc 4a 0d 48 3d
       0.099339604 -0.06515813 -0.019108528 0.0488408
0000f0 80 5b d1 3d 92 13 30 be 7e 3b 1f bd 85 74 83 bd
       0.1022253 -0.17194965 -0.038875096 -0.06418709
000100 25 f6 89 3d 1d 93 85 3d 3b ee 23 bd 98 6e 8d 3d
       0.067364015 0.065222 -0.040022116 0.0690586
000110 59 d7 53 be f4 d1 aa bd 08 38 0a 3e af 07 58 3d
       -0.20687617 -0.08340827 0.13497937 0.052741703
000120 9d 57 0c 3e 70 2a 88 bd f4 ca 22 3d 0d ac 09 bd
       0.13705297 -0.06648719 0.039744332 -0.033611346
000130 76 3b 47 bc 24 df 09 3e 6c 7c 2e 3e 6d 9a ee bc
       -0.012160173 0.13464028 0.1703965 -0.02912637
000140 ac 22 a3 3d b5 79 54 3e fd be 19 3e 4b 8a fc bd
       0.079655975 0.20749553 0.15014262 -0.12331065
000150 6e 12 1b 3c bf 79 8c bd 30 11 e3 bd b5 70 dd 3d
       0.009464843 -0.06859159 -0.11087263 0.10812513
000160 fd b9 33 bd 3d f7 c2 bd d9 4f f8 bd 31 70 cd bd
       -0.043878544 -0.09519813 -0.12124605 -0.100311644
000170 fe aa 7c 3c 8b 80 fc 3d ca 06 cb bd 6c 40 e5 3d
       0.015421627 0.12329205 -0.09913404 0.11193928
000180 8d 73 1d bd 13 b1 e8 3d 83 aa 24 3e 10 fd 49 bc
       -0.038440276 0.11361899 0.1608067 -0.012328401
000190 91 80 1d 3e a3 5d 9a bc b2 e4 f3 b9 ff 4f 29 bd
       0.15381075 -0.018843478 -0.00046518963 -0.041336056
0001a0 91 23 12 bd e4 eb bb 3d 60 b6 34 be 91 60 27 3e
       -0.03567845 0.09175852 -0.17647696 0.16345431
0001b0 2d 20 c7 3d 0a 21 03 3d 8a 87 38 3d c1 c6 3a bd
       0.09722934 0.03201393 0.045051135 -0.045599703
0001c0 ff e9 82 3d 92 ff ff bd 3e 11 dc bd 99 de 3b bd
       0.063922875 -0.12499918 -0.10745476 -0.045866583
0001d0 ed f9 e3 bd 58 fc 1f bd 4d d5 cb 3d 6a 22 da bd
       -0.11131654 -0.039059013 0.09952793 -0.10651095
0001e0 f6 33 4a 3e 10 e9 b3 3c 1a 06 1e 3e 80 24 15 be
       0.19746384 0.021961719 0.15432015 -0.14564705
0001f0 e3 07 bf 3d 25 62 45 3e a2 5f 1e be 51 96 7b 3d
       0.09327676 0.1927572 -0.15466169 0.06142265
000200 83 ff a7 bc f3 31 09 3d bc b8 8d bd 82 48 f0 3d
       -0.02050758 0.0334949 -0.06920001 0.1173258
000210 63 cf 93 bd 0a 94 04 3e 35 e8 a5 bd 03 c3 91 bd
       -0.0721729 0.12947097 -0.081009306 -0.07117274
000220 62 a4 23 be 8f 01 16 3e 0c a2 bd bd 79 fa 47 3e
       -0.15980676 0.14649032 -0.092594236 0.19529141
000230 37 cd cf bd bb 0f c8 bd 1c dd e8 bd 0a c7 bd bd
       -0.101465635 -0.09768625 -0.11370298 -0.09266479
000240 58 8d 00 3d 49 3b 0f bd e2 56 dc 3d 70 52 d8 3d
       0.031384796 -0.034968648 0.10758759 0.10562599
000250 96 6d 0b be f5 40 56 bd 09 14 9e 3d d6 d8 1f 3e
       -0.13616022 -0.05230804 0.07718665 0.1561006
000260 fe 78 b1 3d d8 ea de 3d 0e ac 14 bc 3c 01 2e be
       0.086656556 0.10884637 -0.009074224 -0.16992658
000270 af 0c ec 3c f6 3e d3 bd 5a e3 39 bd d9 e3 c7 bd
       0.028814642 -0.10314743 -0.045382835 -0.09760255
000280 9d ad 39 3d 3a 73 55 bd ce 85 f0 3d 80 25 2a be
       0.045331586 -0.05211184 0.11744271 -0.16615868
000290 f6 2a 88 3d 82 68 5f bd 4b dc 1d 3d 37 d1 62 bd
       0.06648819 -0.054543026 0.038540166 -0.055375304
0002a0 7d 64 93 3d a6 ef 4c 3d a4 3a 13 3d 78 d7 4c 3c
       0.07196901 0.050033234 0.035944596 0.012502544
0002b0 ae de ab 3d 10 30 14 bd 46 16 b4 3b 8b 70 5a 3e
       0.08392082 -0.03617865 0.0054958193 0.21331994
0002c0 7b a5 ac 3d 38 04 ea 3d 75 8f 14 3d 54 8d 07 be
       0.084300004 0.11426586 0.036269624 -0.13237506
0002d0 a9 03 b1 3d 48 a0 16 3d 12 28 e8 3d a9 57 fc bc
       0.08643276 0.03677395 0.11335768 -0.030803518
0002e0 11 ec 74 3d 6d 35 c2 bd f0 d0 ae bd 70 56 c1 3d
       0.059795443 -0.094828464 -0.085359454 0.09440315
0002f0 7d 98 2b bd 0d 90 2c bd f5 93 64 3d 25 9e 38 bc
       -0.04189347 -0.042129565 0.055805165 -0.011268173
000300 00 a7 0a 3e 5f d9 14 3e da ed 1e bd 32 30 13 3e
       0.13540268 0.14536045 -0.03880105 0.14373854
000310 7b 8a 05 3e 3f 9e 13 3d 7f 9b 1a 3d 29 c1 ae 3c
       0.13041107 0.036039587 0.03774595 0.02133234
000320 36 91 0a be 52 8f f7 3d e6 fb 0b bd 54 70 11 bc
       -0.13531956 0.12087883 -0.034175776 -0.008876879
000330 28 fc d1 3d 18 91 99 bd 56 8f 46 be db 9a 0b 3d
       0.10253173 -0.074983776 -0.19390616 0.03408323
000340 46 08 33 bd 50 5c 35 3d 23 72 ba bc 18 c3 dc bd
       -0.043709062 0.04427749 -0.022759503 -0.10779399
000350 4b 34 01 be 90 cb af 3d 71 2c 4f 3e 23 31 ae 3d
       -0.12617604 0.08583748 0.20231797 0.08505466
000360 d9 dd 9d bd 8d 80 99 3d bb 7c f1 bd 1a f6 91 3a
       -0.0770833 0.07495222 -0.117913686 0.0011135966
000370 d4 64 4a be 9d 85 24 3c 85 5b ee bd ec 9f 6b be
       -0.19765025 0.0100416215 -0.1163855 -0.23010224
000380 db a2 28 be 17 29 c9 3d bd 96 c7 bd 7d 34 dd 3c
       -0.16468374 0.098222904 -0.09745548 0.027002567
000390 c3 f1 03 3e c3 94 7f 3d 81 2f c2 3d 84 e4 6c bc
       0.12885194 0.06239773 0.09481717 -0.014458779
0003a0 eb 69 b7 bc 2b d4 8c 3d 39 bc 9d 3c fd 56 ff bd
       -0.022389373 0.06876405 0.01925479 -0.124677636
0003b0 c6 57 e0 3b b0 97 17 3e 86 30 a1 bd 23 ce ef bd
       0.006846401 0.14803958 -0.07870583 -0.11709239
0003c0 45 58 c9 bc 42 e6 bf bc 50 bf 02 3e d7 96 89 3d
       -0.024578223 -0.023425225 0.12768292 0.067182235
0003d0 83 bb ad bd 52 d1 39 be 52 30 f7 3d c6 c8 01 3e
       -0.08483031 -0.18146256 0.12069763 0.12674245
0003e0 a8 37 7f bd 9f e0 20 be 25 b1 8c 3d 6b ad b7 3d
       -0.062308937 -0.15710686 0.06869725 0.08968624
0003f0 49 4b ab bc 22 d2 4a 3e 72 1a db bb ef d7 f9 3c
       -0.020909922 0.19806722 -0.006686502 0.030498473

weight_hh_l1 f4 [120, 40]
000000 81 3f 5f bd 6e b0 2f 3d e4 11 95 bd 1d 3a b5 bc
       -0.05450392 0.042892866 -0.07278803 -0.022122437
000010 4b e8 f2 bd 32 95 92 3d 18 92 65 bd 13 cf 98 bd
       -0.118607126 0.07157363 -0.05604753 -0.07461371
000020 ea 58 cb 3d 14 77 29 b9 96 7d 27 bc 19 16 b9 3d
       0.099290684 -0.00016161456 -0.010222813 0.09037418
000030 4e 1a b7 3d 9b 72 be 3c 27 89 b5 3d f2 bf b4 3d
       0.08940564 0.023248008 0.0886405 0.08825673
000040 af 3f ea bc 19 ed 18 bd 7a 34 97 bd 61 c7 c4 bc
       -0.02859482 -0.03733549 -0.07383056 -0.024020853
000050 8f 73 48 be 7e 88 22 bd 70 6f 28 3e e1 f3 1d 3e
       -0.19575332 -0.03968095 0.1644876 0.15425064
000060 e8 7b ed bd 13 01 3a be 2a 40 12 3e 16 c3 ba bd
       -0.11595899 -0.18164472 0.14282289 -0.09119241
000070 7c 56 5e bd a8 ea 1c be ec bf 81 3d eb 67 2a 3e
       -0.054281697 -0.1532389 0.06335434 0.16641204
000080 86 49 c4 bd 23 84 04 bd 87 88 e4 bd 90 9f 3f 3e
       -0.09584336 -0.032352578 -0.11158853 0.18713212
000090 5e 90 1d 3d 9f 44 21 bd 66 b5 bc bc 92 cb 39 bd
       0.038467757 -0.039372083 -0.023035716 -0.045360155
0000a0 45 ae 28 3c f3 0b 3b bd e4 f9 a4 bd f4 30 8e bd
       0.010295455 -0.045665693 -0.08055475 -0.06942931
0000b0 66 e3 97 bc ea 14 ce 3a dd a1 05 bc 90 ff 13 be
       -0.01854105 0.0015722786 -0.008156267 -0.14452958
0000c0 cb f6 b0 bd 34 d5 0f 3e 84 55 20 3d b8 0d ba bd
       -0.08640822 0.14046174 0.039144054 -0.09084648
0000d0 f9 a7 e1 3d 47 ce 22 3d 54 bc 4c 3d 83 7e cd bd
       0.11018366 0.039747503 0.04998429 -0.10033896
0000e0 b2 23 0b be 89 3b a1 bd 94 f8 35 bb cc 72 f6 bd
       -0.13587835 -0.078726836 -0.0027766572 -0.120336145
0000f0 28 c4 24 be 35 9d fe 3c ec 56 29 bd c1 18 96 bd
       -0.16090453 0.031080822 -0.04134266 -0.0732894
000100 e4 14 ce bd 3f 1f 58 bd 0d 68 88 3d f8 6b e9 bd
       -0.10062578 -0.052764174 0.06660471 -0.113975465
000110 6c 76 db bc ac f1 1c 3e 17 78 c3 bd 32 04 38 3d
       -0.026789866 0.15326566 -0.0954439 0.044925876
000120 c1 98 d2 bc 50 b8 ea 3d 86 06 e3 3d 83 ce 49 3d
       -0.025707604 0.11460936 0.110852286 0.04926921
000130 67 b0 35 be bc f1 bb 3d 75 26 21 3d 8d 16 64 bc
       -0.17743073 0.091769665 0.039343316 -0.013921392
000140 f4 e9 33 bd 47 40 0f be 26 77 5b 3b a9 d7 48 bd
       -0.043924287 -0.13989364 0.0033487766 -0.049033795
000150 51 7b b0 3d f7 31 35 be 21 f7 15 3e 51 9c 09 3d
       0.08617271 -0.17694841 0.14645053 0.03359634
000160 68 45 4d bc 93 8a 1a be 63 f1 95 3d ac b3 99 bd
       -0.012528755 -0.15091924 0.073214315 -0.07504973
000170 c6 0a 0a bd fa 17 07 be 02 fd 95 3d 29 c1 19 be
       -0.03370168 -0.1319274 0.07323648 -0.15015091
000180 a2 7c 3e be 29 1e 32 bd 12 7e 09 bd bd 18 80 3b
       -0.18602231 -0.043485794 -0.033567496 0.003909199
000190 74 53 de 3d ba 2b ae 3c fe 5e d4 bd 7a d6 ec bd
       0.10855761 0.021261085 -0.10369681 -0.11564346
0001a0 09 71 ea bd ca 09 5f bd 45 31 83 3d 0c 1b 02 be
       -0.11447341 -0.054452695 0.06405882 -0.1270563
0001b0 3e 24 5d 3c a5 4f 0c 3d fa 39 e3 bd c6 40 87 3d
       0.01349741 0.034255642 -0.110950425 0.066041514
0001c0 79 78 d7 3d 32 33 0e 3d fc d3 11 be 9e 1b 12 be
       0.10521025 0.034716792 -0.14241022 -0.14268348
0001d0 e4 14 2c bd 87 65 37 bb 1b 27 34 3d 10 ef 33 be
       -0.04201211 -0.00279841 0.043982606 -0.17571664
0001e0 88 01 14 be 16 e5 21 3c 61 d6 61 3d b0 8f 9f bc
       -0.14453709 0.0098812785 0.05513609 -0.019477695
0001f0 32 20 85 bd 03 b3 7b 3d 44 04 74 bd 22 1d 96 bc
       -0.065002814 0.061450016 -0.05957438 -0.018324438
000200 de e4 cf bc 11 ff de bc a8 83 50 bd 62 33 33 3e
       -0.025377687 -0.027221235 -0.050906807 0.1750007
000210 25 1e fc 3d 26 31 04 be 55 ea 4d be 4d 44 25 bd
       0.12310437 -0.12909374 -0.20108922 -0.04034834
000220 ea a1 96 3d 36 da f9 3c 84 bf 25 bb 14 ad 92 bd
       0.073551014 0.030499559 -0.0025291154 -0.07161918
000230 ae d3 15 3d 4e 40 90 3d 3e ea b7 bd 17 d9 7e 3d
       0.036578827 0.07043515 -0.08980225 0.06221875
000240 a7 e8 a2 3c 0d d7 12 3e 46 dd 7a bd 62 f0 03 bd
       0.019886328 0.14339848 -0.06124618 -0.03221167
000250 20 3f ca 3d de ba e4 3c 03 84 c7 bd 7f d2 91 3d
       0.098753214 0.027921136 -0.09741976 0.07120227
000260 e8 1e 5f bd 32 9e ea 3d 88 8a ee bd c1 7b 87 bd
       -0.054472834 0.114559546 -0.116475165 -0.06615401
000270 ae 38 8a bd f1 d4 2a bb 48 c9 27 be 8e 9b 21 3e
       -0.06749092 -0.0026066864 -0.16385376 0.15781996
000280 c6 26 fc bd 0b bd 1c bd c5 b7 b3 bd ce 69 a1 3b
       -0.12312083 -0.038266223 -0.08775286 0.004925943
000290 66 79 e1 3d 98 cc 11 be fd da b0 3d 9d ac b6 3d
       0.11009483 -0.14238203 0.08635519 0.08919642
0002a0 cd 97 03 be 9d 9d 40 3d 30 eb ad bd 06 b8 a8 3b
       -0.12850876 0.04702531 -0.08492124 0.0051488904
0002b0 9d a5 96 3c 8b fa 97 bc b4 8e 16 bc f2 2c f2 3b
       0.018389517 -0.018552085 -0.0091892965 0.007390612
0002c0 04 5b d9 3d 05 c1 ba bd 59 80 00 3d 25 b1 d6 bd
       0.10613063 -0.09118847 0.031372402 -0.104830064
0002d0 a0 c2 89 3d 92 fe 03 be 1d 8d 43 bd b9 ba 06 be
       0.06726575 -0.1289008 -0.047741998 -0.13157167
0002e0 39 51 33 38 e6 7a 7d bd 4c a2 b1 3b 33 e9 b0 3c
       4.275257e-05 -0.061884783 0.0054209586 0.021595573
0002f0 04 b9 af 3d a0 70 95 3d ab 60 ff bd b3 33 fe bd
       0.08580211 0.07296872 -0.1246961 -0.124122046
000300 af 62 c2 3d 26 c5 2c 3b 9f a5 52 3d 93 04 f6 bc
       0.09491479 0.0026362627 0.05142748 -0.030031478
000310 dc 86 0c bd 1e 4c 18 bd 2f aa 79 3d 8e 88 35 3d
       -0.0343083 -0.037181966 0.060953315 0.04431968
000320 f6 51 d3 bd 50 4c eb bd a4 43 cc bd 8b fc ea bc
       -0.10318367 -0.11489165 -0.09973839 -0.028684875
000330 a5 54 20 bd 80 ec a0 3d 3b c6 03 bd 11 06 f1 3b
       -0.039143223 0.07857609 -0.03217147 0.0073554595
000340 46 09 54 be cc 40 9d bd 46 5b e5 3c c5 94 f9 bd
       -0.20706663 -0.07678375 0.027997624 -0.12186579
000350 de 86 81 3d 3d 43 f3 3c e9 2b 09 be 1a ad a7 bd
       0.06324552 0.029695148 -0.13395657 -0.081873134
000360 49 92 aa bc b1 af 95 bc 4a f3 d0 bb e5 a8 29 3e
       -0.020821707 -0.018272253 -0.0063766586 0.16568334
000370 2d 91 14 3c 7c e5 be 3d ec 89 2b 3d 32 4a 30 3e
       0.009067816 0.093211144 0.04187958 0.17215803
000380 fc b5 2a 3e 8d 26 f5 bc 98 e4 11 3e bd 99 0f 3e
       0.16670984 -0.029925609 0.14247358 0.1402349
000390 02 de c4 3c ae 7a 07 3e e6 77 39 be d9 76 46 3e
       0.024031643 0.13230392 -0.18112144 0.19381274
0003a0 85 f0 a1 bd bf 32 04 3d 9c c9 f4 3d f1 19 23 3e
       -0.079072036 0.032274958 0.119525164 0.15927865
0003b0 99 8d e1 3d 11 4b 0a 3e 09 5a 6a 3c 8b 4e 53 3e
       0.11013336 0.13505198 0.014303693 0.2063543
0003c0 a9 2b d3 bc 5b 56 d0 bd 41 5b 1c be 40 e6 99 3d
       -0.025777655 -0.10172721 -0.15269186 0.0751462
0003d0 0d b2 27 3e 01 09 47 be ed db 07 bc a2 0b 10 3e
       0.16376515 -0.19437028 -0.0082921805 0.14066938
0003e0 06 da 35 bd 83 5a 67 3d 1b 05 15 be 29 06 ed 3d
       -0.044397376 0.056482803 -0.14552729 0.115734406
0003f0 38 4c e4 3d c3 d8 ed 3d 6e 29 f7 bd 0f 4b ec 3d
       0.1114735 0.1161361 -0.12068449 0.11537754

bias_ih_l1 f4 [120]
000000 5d 83 cb 3d c4 73 94 bd 3d c6 86 3d 26 67 b9 3d
       0.09937165 -0.07248643 0.0658078 0.09052877
000010 79 46 5b 3d 39 66 06 3e f7 44 d6 bd 63 43 1d 3e
       0.053534005 0.13124932 -0.10462373 0.15357737
000020 0a d2 09 be df 34 f9 3d 4e 2c e5 3d 48 24 81 3d
       -0.1345903 0.121682875 0.11190091 0.06305748
000030 e8 12 cc bc 30 ee 15 bd 2c da 2c 3e 12 fc 0d 3d
       -0.024911359 -0.036604106 0.16880101 0.03466422
000040 45 7d a9 bc ff 77 d1 3d 6b 41 44 3e 02 21 0d bd
       -0.020689616 0.102279656 0.1916558 -0.034455307
000050 5d fa 8b bd 53 e3 33 3e ce 0e 50 bb d1 e2 44 3d
       -0.068348624 0.17567186 -0.0031747106 0.04806787
000060 35 63 ec bd 88 90 2e 3e 97 b4 ef bd 61 34 8f 3d
       -0.1154236 0.17047322 -0.11704367 0.06992412
000070 a0 21 fe bd 0f bb af 3d 2f e0 34 bd f2 52 c1 3d
       -0.12408757 0.085806005 -0.04415911 0.09439649
000080 c9 95 ba 3d 1d 94 a7 3c 11 f2 0b 3e eb 31 cd 3a
       0.091106005 0.020456368 0.1366656 0.0015655136
000090 4f 88 ec bc 12 25 d3 3d 5c b4 b9 3d 35 0c 3f bd
       -0.02887359 0.10309805 0.09067604 -0.0466425
0000a0 15 62 ae bd 2d 4a e1 bd d2 17 cb 3d 78 af 32 3e
       -0.085148014 -0.11000476 0.09916653 0.17449749
0000b0 d6 56 45 3c 55 bd 66 3c 3f e8 51 bd f6 31 83 bd
       0.012044629 0.014083226 -0.051246878 -0.06406014
0000c0 19 7c b7 bd 2e ff e9 bd 38 27 fe 3d 47 de d5 bd
       -0.089592166 -0.11425625 0.12409824 -0.10442787
0000d0 5d a2 ce bd a3 b2 87 bd 66 a3 e8 3d 10 8d fc bd
       -0.10089562 -0.06625869 0.11359291 -0.12331593
0000e0 86 90 c9 3d eb 97 a6 3a f1 80 18 3e ca 57 7d 3d
       0.09842019 0.001271007 0.14892937 0.0618513
0000f0 d2 8c bf 3d d9 a2 b8 bd 45 12 91 bd 17 27 29 3c
       0.09353031 -0.09015436 -0.07083563 0.010324261
000100 84 6a 18 3e 05 42 e5 3c eb 88 a7 3c d8 c3 0a 3e
       0.14884382 0.027985582 0.02045103 0.13551271
000110 1e a0 ef bd 98 72 0d 3d fe d1 15 be 9b bc 17 bd
       -0.11700462 0.034533113 -0.14630887 -0.037045103
000120 14 0b 8d 3d f4 c7 e3 bd ba 00 da bd 04 25 f6 bb
       0.068868786 -0.111221224 -0.1064467 -0.007511737
000130 0b a3 47 be 8e 21 fe bd 2f db f3 bc b2 28 cb bd
       -0.1949579 -0.12408744 -0.0297676 -0.099198714
000140 25 94 e4 bd d9 f0 3b 3e dc 57 e6 3d e3 48 f9 bd
       -0.11161069 0.18353595 0.112472266 -0.12172105
000150 9e 95 d2 3d f8 7a 96 3d 2f a0 94 3d b1 7c 88 bd
       0.102824435 0.07347673 0.07257115 -0.06664408
000160 a9 eb 7a bd 8e e0 b2 3d 0d 75 88 3d ed 9c 0d 3d
       -0.0612599 0.08734237 0.06662951 0.034573484
000170 39 10 3e 3e 46 6b 54 bd 94 a0 f7 3d 49 d0 a1 bd
       0.18560876 -0.051860116 0.12091175 -0.07901055
000180 9a 71 b9 bd fd 78 ba 3b 92 36 6c 3c 66 27 28 be
       -0.09054871 0.0056906925 0.014417307 -0.1642128
000190 57 36 63 3c a3 6c 91 3d 18 31 35 3e c8 fc e6 3d
       0.013867936 0.07100799 0.17694509 0.11278683
0001a0 84 29 dd 3d 52 69 ce bc 41 c7 f1 bd aa 37 b5 bd
       0.10798934 -0.025196705 -0.11805583 -0.08848508
0001b0 dd a7 99 3d 0e d0 f7 3d 86 04 0a be 33 f3 92 3d
       0.075027205 0.1210023 -0.13478288 0.07175293
0001c0 13 8d 57 3c b0 64 49 be a6 15 27 3e a4 66 ad 3d
       0.013156193 -0.19667315 0.16316852 0.08466843
0001d0 be 23 cc bc 06 4b c1 3c c5 80 18 3d 7f 5d 02 3e
       -0.024919387 0.023595344 0.03723218 0.12730978

bias_hh_l1 f4 [120]
000000 a8 86 a0 3d 62 3d 82 bd a9 dd 4d 3d d5 5d bd 3d
       0.07838184 -0.06359364 0.05026022 0.09246413
000010 e3 3e e3 3d 26 9f c2 3a eb 2f dd 3d 3c 17 ac bd
       0.11095979 0.0014848455 0.10800155 -0.08402869
000020 0b e0 c3 bd 6d 78 c3 bd b5 1f aa 3c 07 41 03 bd
       -0.09564217 -0.09544454 0.020767072 -0.032044437
000030 d4 0b 3f bd ca 8b bc bc ab 3d 32 3e 9f bf 89 3d
       -0.04664214 -0.023015875 0.17406337 0.06726002
000040 50 45 02 3e 5d b2 35 3e 42 23 1e 3e 80 d0 b4 bd
       0.12721753 0.17743821 0.15443137 -0.08828831
000050 75 31 83 bd 9a de 1a 3d cd 65 b1 bd 22 d5 3e bd
       -0.064059176 0.037809946 -0.08661995 -0.046589978
000060 73 bb 17 bc d8 87 8b 3d 06 55 f4 3d 48 cc fc 3d
       -0.009261 0.068130195 0.119302794 0.12343651
000070 87 1d 40 3d 37 de 2b bd 71 1a be 3d 09 c8 7c 3d
       0.04690316 -0.041959967 0.09282387 0.061714206
000080 ea 93 a4 3d 07 94 1d bd 36 1a af bd fa d4 98 bd
       0.08036025 -0.038471248 -0.08549921 -0.07462497
000090 45 e1 e0 bd 70 d0 4a 3d 8a 6d 02 3d 2e d0 1d 3e
       -0.10980467 0.049515188 0.031842746 0.15411445
0000a0 53 5b 15 3e 02 25 02 3e fd df bb bd 7f eb e9 3d
       0.14585619 0.1270943 -0.09173582 0.114218704
0000b0 4b 64 29 bd ab 76 b6 3d 9a 47 b5 bd e6 f9 35 3e
       -0.041355412 0.08909353 -0.088515475 0.1777111
0000c0 b4 fb b1 3d 80 df d8 3c e1 64 b2 3d 90 f9 77 bd
       0.08690587 0.02647376 0.087106474 -0.060540736
0000d0 a1 d2 06 bd e9 25 a5 bd 90 f0 cd bd 61 6f 0e be
       -0.032915715 -0.080638714 -0.10055649 -0.13909675
0000e0 da d2 87 bd a5 e8 ba 3d f4 19 04 bd fa 94 cd 3d
       -0.066320136 0.09126405 -0.032251313 0.10038181
0000f0 a2 1c 99 3d c4 ac 66 3c 18 6c 78 3d bd 88 73 3d
       0.074761644 0.0140792765 0.06064996 0.059456576
000100 72 79 26 be c4 bb ad 3d 8f 30 66 bc 60 9b 49 3e
       -0.16257265 0.08483079 -0.014049663 0.19688177
000110 0c 99 01 3d 4c cd 5a bd 32 47 24 be 06 38 ca 3d
       0.031640097 -0.053418443 -0.16042784 0.09873967
000120 f4 0c a4 3d 13 66 b0 bd 76 9c 3c 3d a2 23 28 bd
       0.08010283 -0.08613219 0.04604765 -0.041049607
000130 cc 01 0f be 17 ac 3b 3c cd b6 b4 bd 3a 19 cb 3d
       -0.13965529 0.011454604 -0.08823929 0.09916921
000140 14 ac d2 3d 93 98 14 3e a5 fd a1 3c b4 f0 02 be
       0.102867275 0.14511327 0.019774267 -0.12787133
000150 cb 53 53 bc db f2 eb 3c 10 03 de 3d 87 71 9a bd
       -0.012898396 0.028802326 0.10840428 -0.07541185
000160 7e 42 2d 3c f9 d8 1e be 2e bd 34 3d ea fb a5 3c
       0.010574935 -0.15512456 0.04412573 0.020261724
000170 ad c4 0b bc 4f ad 9a bd f8 4f 13 be 6c 13 84 bc
       -0.008530778 -0.07552587 -0.14385974 -0.016122542
000180 11 43 1d 3e 6e b3 92 3d 38 19 f3 bd b2 58 4a 3d
       0.15357615 0.0716313 -0.118700445 0.049400993
000190 bc 1a af bc 38 43 65 bc 64 6a 40 3e 91 26 ad 3d
       -0.021375053 -0.013993077 0.18790585 0.084546216
0001a0 bf a3 ff bd 16 30 75 bd 1f 00 e8 3d f8 f9 ea bd
       -0.12482404 -0.05986031 0.11328148 -0.11473459
0001b0 d0 44 06 be 21 a4 8e bd f4 b2 97 3d db 7b cd 3d
       -0.13112187 -0.06964899 0.074071795 0.10033389
0001c0 7b e9 20 be 9e 27 4d be ea 2d 26 bd 6c 46 05 3e
       -0.15714066 -0.20034644 -0.04057113 0.13015145
0001d0 bb 04 38 be 77 f2 cf bd 0d 08 af 3d e6 a4 06 3e
       -0.17970555 -0.101536684 0.085464574 0.13148841

weight f4 [40, 40]
000000 4c 6c 73 bd a2 64 da 3d 29 b3 8a bd 14 c0 fb bd
       -0.05942945 0.106637254 -0.06772453 -0.12292495
000010 b8 fa 2f be bb 9c e3 3d 3e 79 1e be 4b 08 bc 3d
       -0.17185485 0.11113878 -0.15475938 0.09181269
000020 6a 2d 9a 3d bd 99 12 be e4 20 0b bc 8c 09 17 3d
       0.07528193 -0.14316459 -0.008491728 0.03687434
000030 b4 fe 97 bd ed 88 f3 bc 99 8d 0a be d7 c5 c8 bd
       -0.07421628 -0.029728377 -0.13530578 -0.0980336
000040 f0 6c 16 3d c7 2a 13 3e 77 f7 05 be 9a 12 58 3d
       0.036724985 0.14371787 -0.13082682 0.052752115
000050 47 3c 03 be dd 7a c1 3d 84 be 82 3d 24 45 2f 3e
       -0.12815963 0.094472624 0.06383994 0.17116219
000060 26 e0 83 3d 33 be 32 be c5 cc 8c 3d e0 bb 1b be
       0.06439237 -0.17455368 0.06874994 -0.15208387
000070 4c c5 10 3b ca 0a 3b 3e 79 51 2c be b6 90 97 3d
       0.0022090254 0.18265834 -0.16827954 0.07400648
000080 11 18 aa 3d f9 34 13 bc 20 ad b8 3d ed e4 32 3e
       0.083053716 -0.008984798 0.09017396 0.17470141
000090 83 14 27 be 64 ab 56 3d 33 3f 01 be 7a 51 38 3e
       -0.16316418 0.052409545 -0.12621765 0.17999831
0000a0 84 28 6f 3d fa cb 8e 3d fd b4 10 bc 28 73 ae bd
       0.058388248 0.06972499 -0.0088322135 -0.08518058
0000b0 61 f3 82 bd ae 0f df bd 8a 93 25 3e 9c 3c 1f 3e
       -0.06394077 -0.108916625 0.16169563 0.15550464
0000c0 a4 53 08 3e 01 6d 2b bd 7d ee 2d be dd 01 0a be
       0.13313156 -0.041852 -0.16985507 -0.13477273
0000d0 ec 25 79 bb 16 00 c0 3d be 1c 1f bd 25 38 b9 bd
       -0.0038016988 0.093750164 -0.03884577 -0.09043912
0000e0 f8 cb 9f bb 8a 50 19 bd 88 17 ce bd a9 68 b3 3d
       -0.00487661 -0.037430324 -0.10063082 0.08760197
0000f0 7f 83 88 3d 7d c2 38 be 1a ac 83 bd b3 58 dd 3d
       0.06665706 -0.18042941 -0.0642931 0.10807934
000100 d8 99 ce bd 0f 37 56 3d 8b 94 ac bc 75 a6 16 3d
       -0.10087937 0.0522986 -0.021066925 0.03677984
000110 72 bf ea bd ac 0a f1 bd 40 22 13 3e 4d c8 b8 bd
       -0.114622965 -0.117696136 0.14368534 -0.09022579
000120 71 54 ef 3d 3c 82 e8 3d 68 cd 36 be 32 6d 49 be
       0.11686028 0.11352965 -0.17851794 -0.19670561
000130 0b c2 2c 3c 9f ab 17 3e 29 f9 18 3e 21 fa 3c 3c
       0.01054431 0.14811562 0.14938797 0.011534245
000140 90 c4 92 bd 9e a9 1f 3e 4c d5 0b 3e aa bc 2b be
       -0.071663976 0.15592048 0.13655585 -0.16771188
000150 e9 ca fd 3d 0c 6a 93 3d 0a d6 c6 3c 53 de 04 be
       0.12392218 0.07197961 0.024271984 -0.12975435
000160 80 61 87 3d 53 b5 83 3c 3c 34 a8 3d 5a 90 bd bd
       0.066103935 0.016077673 0.08213088 -0.092560485
000170 b5 13 49 3e e9 d5 82 3d 21 2d 06 3d 5d a3 84 3d
       0.19636424 0.063884564 0.032757882 0.064764716
000180 1b 74 c1 bd 5c 68 9f 3c 8d b2 0f be 0a 1e 8e bd
       -0.094459735 0.019458942 -0.14032955 -0.06939323
000190 72 a3 20 be c5 01 ba bd 9f e7 01 bc d6 c9 58 3e
       -0.1568735 -0.09082369 -0.007928758 0.21170744
0001a0 4f 3f b3 bd 46 5e dd bd 1e 43 35 3e 48 e6 b8 bd
       -0.087523095 -0.10808997 0.17701384 -0.09028298
0001b0 cc 9d cf bd 4e 3b 01 bc 06 85 c2 bd 8a c9 d5 3d
       -0.10137519 -0.0078876745 -0.094980285 0.10438831
0001c0 5b 2a 64 bd d4 80 3a 3c 2c 85 04 3e d1 91 de 3d
       -0.055704456 0.011383254 0.12941426 0.10867656
0001d0 43 ca 94 3d 55 50 2c bd 89 aa 0e 3e ba 1f 06 3e
       0.07265141 -0.042068798 0.13932241 0.1309804
0001e0 86 27 38 3e 2e 30 bb 3c e9 85 76 3b c2 fd 41 bd
       0.17983827 0.022850122 0.0037616438 -0.047361143
0001f0 aa 26 1d be f6 6a 3a 3e b6 54 44 bd 84 11 bf bd
       -0.1534678 0.18204865 -0.04793235 -0.09329513
000200 5b d6 95 3c c8 50 d9 bd 24 54 b7 3d 22 f0 13 3d
       0.01829069 -0.10611111 0.089515954 0.03611768
000210 cf 7c 39 3e 19 c5 44 3e 91 d1 cc 3d cd eb 48 bd
       0.18114017 0.19215812 0.10000909 -0.049053002
000220 4a 47 fe 3d 9b 4f 0d 3d 9e 79 cc bd 5f 33 16 be
       0.12415941 0.034499746 -0.09984134 -0.14668034
000230 0e 3f 87 bd cb 61 db 3c d0 5e 38 3d 2c c1 92 bd
       -0.066038236 0.02678003 0.045012295 -0.07165751
000240 02 04 43 be 5f 55 f9 bd 0d 3a 8c 3d 15 57 e6 3d
       -0.19044498 -0.12174486 0.0684701 0.11247078
000250 6a 4e 13 3e 74 5b 03 3e 08 34 f0 3d 30 fe 9d bd
       0.14385381 0.12827855 0.11728674 -0.07714498
000260 65 79 ea 3c f9 25 53 bc 02 cf 6d 3c 2e 07 a4 bd
       0.028622339 -0.012887471 0.014514687 -0.08009182
000270 a7 c3 2f be 6c 4c 0f be f8 0e 42 3d 20 c7 cc 3d
       -0.17164479 -0.13993996 0.047377557 0.099989176
000280 37 78 48 3e c3 b6 0f 3e cf d5 f2 3c da 84 13 3d
       0.19577108 0.14034562 0.029642968 0.03601537
000290 d5 71 24 be 73 23 63 3e a9 85 32 bd 6a 18 b1 bd
       -0.16059048 0.22181492 -0.0435845 -0.08647235
0002a0 20 d2 7b 3d 12 7b 41 bd 2d 80 26 3e 6c 93 75 3c
       0.061479688 -0.04723651 0.16259833 0.014988761
0002b0 73 34 8b bd d3 9f 1c 3e 86 3b e4 3d dd 52 9b 3d
       -0.06797113 0.15295343 0.11144166 0.07584164
0002c0 9f 82 c4 ba a9 18 ba 3d c4 e2 7a bb 3b 29 35 be
       -0.0014992541 0.09086735 -0.0038282136 -0.1769151
0002d0 13 78 1e be 75 4f 11 3e ad dc 65 bb 5e d6 b2 3d
       -0.15475492 0.14190467 -0.003507416 0.087322935
0002e0 e4 43 ee 3d ac 48 9e bd 0c ee f1 bc f9 34 d4 3d
       0.11634043 -0.07728705 -0.029532455 0.10361666
0002f0 0e 87 e0 bc 62 39 a2 3d a7 d0 a8 3d 57 4a 5f 3d
       -0.02740815 0.07921101 0.08242922 0.054514255
000300 94 83 ad 3d 16 05 b7 bd 50 09 d2 bc 53 ae fb 3d
       0.08472362 -0.08936517 -0.025639206 0.12289109
000310 c2 cd b8 3c 4e 47 3c be 8b 67 18 be 3f bb 3f bd
       0.02255905 -0.18386576 -0.14883249 -0.04680943
000320 9d 54 95 3d 97 88 29 bd ae 45 41 be 19 3a 16 3e
       0.07291529 -0.041390028 -0.18874237 0.146706
000330 08 6b 42 3e cc dd d7 bc 59 27 8d 3d d1 31 05 3e
       0.18986142 -0.026350878 0.068922706 0.13007285
000340 ae 35 2e be c0 8e 03 be 05 70 ee bd 97 73 b1 3d
       -0.17012665 -0.12847424 -0.1164246 0.08664625
000350 ef 69 ad bd 36 87 59 bd 08 e5 dc 36 fe 8c 3b be
       -0.08467471 -0.053107463 6.5831737e-06 -0.18315503
000360 63 76 26 be 17 41 60 bd ac 94 17 3e 88 f8 bc bd
       -0.16256098 -0.054749575 0.14802808 -0.09227091
000370 f7 30 6e bd 9e 0b 92 bd 9c 54 0a 3e 51 d8 b2 bd
       -0.058152165 -0.07131122 0.13508838 -0.08732665
000380 00 1d db bc 20 9e 52 39 27 c8 a2 3d e1 fa 47 be
       -0.026747227 0.00020086067 0.07948332 -0.19529296
000390 2c 62 2e 3b 8c 50 a4 bc b2 7a 39 bd 77 28 d9 bc
       0.0026608808 -0.020057939 -0.045283027 -0.026508553
0003a0 ba 99 88 3d 6e a2 da 3d 51 61 ab 3d 20 16 2f be
       0.06669946 0.10675512 0.08368171 -0.17098284
0003b0 d5 6a ae bd c1 32 29 bc 66 13 3d 3d 87 83 df 3d
       -0.0851647 -0.010327042 0.046161078 0.10913759
0003c0 dc 83 f2 3c 28 b2 1f 3e f7 90 37 3e 68 19 fb bd
       0.029603891 0.15595305 0.17926393 -0.12260705
0003d0 36 4f 94 3b 6f 11 0d 3e da 15 06 3e be 80 ae bd
       0.0045260442 0.13776182 0.13094273 -0.085206494
0003e0 54 53 92 bd 8c e1 04 3e 44 38 c4 bc d2 ed 90 bd
       -0.071448 0.12976664 -0.02395261 -0.070766106
0003f0 ff fa 94 3c e3 d8 96 bd 85 ca 11 be 76 e2 ea 3c
       0.01818609 -0.073655866 -0.14237411 0.028672438

bias f4 [40]
000000 e1 8c 27 bd 6d 4d 45 bd 6e d8 9b 3d a0 d2 8c 3c
       -0.040905837 -0.048169542 0.0760964 0.017190278
000010 bd d4 82 3d d8 e2 e7 bd 7a d6 30 3e 14 3e 45 bd
       0.06388233 -0.11322564 0.17269316 -0.048154905
000020 fe 30 e6 bd c5 a2 df 3d 94 17 f7 3d 66 62 01 3e
       -0.11239813 0.10919718 0.12065044 0.12635192
000030 f3 2a 43 bd 52 f3 ef 3c 11 17 38 bd 7b bb bc bc
       -0.04764838 0.029290829 -0.044943873 -0.023038616
000040 83 1a ef 3d c8 13 71 3d e3 23 a2 3c 18 8d c4 3d
       0.116749786 0.058856755 0.019792503 0.09597224
000050 0d 16 80 3c 6f 58 00 bd db 90 01 bd 27 60 6f bc
       0.015635515 -0.031334337 -0.031632286 -0.014610327
000060 c0 e0 9d 3c b5 dc 6f 3d 8e 84 bb 3c cb e5 f5 3d
       0.019272208 0.058560092 0.022890355 0.1200672
000070 e7 2b fd bd 9c d1 36 3d 0c 6d 88 3d 62 f5 91 3b
       -0.12361889 0.044633493 0.06661424 0.0044543007
000080 61 bd 85 bd fc 40 e0 bd cb de dd 3d bc 1c 90 3a
       -0.06530262 -0.10949895 0.1083351 0.0010994892
000090 69 16 97 bd f6 e3 ea 3d a3 7d a5 3d be 05 4b 3d
       -0.07377321 0.11469261 0.08080604 0.049566023
