Results/2330_discriminator1_adjusted.pth (torch, 251305 bytes, 35 tensors)

weight_ih_l0 f4 [120, 20]
0	0x3d2adf57	0.0417169
1	0xbd9605e0	-0.07325339
2	0xbdcba365	-0.099432744
3	0xbe0f6cf6	-0.14006409
4	0x3cf0b0f3	0.029381251
5	0xbbe85959	-0.007090729
6	0x3c79da74	0.015249837
7	0xbd52e961	-0.0514921
8	0xbd98ab39	-0.07454533
9	0xbdceaa2f	-0.10091054
10	0xbdafc429	-0.085823365
11	0x3e0ddccc	0.13853759
12	0x3e2dd102	0.16974261
13	0x3b16c6c9	0.0023006669
14	0xbd2863d2	-0.04111082
15	0x3db6e87c	0.089310616
16	0x3df419cd	0.119189836
17	0xbbba02ae	-0.005676589
18	0xbd0ddfb3	-0.034637164
19	0x3d0f85a2	0.03503955
20	0xbe1cd6b9	-0.15316285
21	0xbd89b3ea	-0.06723769
22	0x3e14d8eb	0.14535873
23	0xbdf5be2e	-0.119991645
24	0x3e027752	0.1274083
25	0xbd38e39b	-0.045138936
26	0x3d4f1e15	0.050565798
27	0xbcd8558e	-0.026407983
28	0x3df6a569	0.12043268
29	0xbd387656	-0.04503473
30	0x3d0629ba	0.032754637
31	0xbd61395c	-0.054986343
32	0xbcb37f2a	-0.021911222
33	0x3d13e07d	0.03610276
34	0xbdb29a57	-0.08720844
35	0x3d909b2b	0.07060846
36	0xbcaac347	-0.020845069
37	0x3e0ed2ce	0.13947603
38	0xbdd92e9d	-0.10604594
39	0x3d833d6f	0.06408202
40	0xbde4752e	-0.11155163
41	0xbc528a7e	-0.012850402
42	0xbbc08d12	-0.005876192
43	0x3d900766	0.07032661
44	0xbe1c7017	-0.15277134
45	0x3db789ae	0.08961807
46	0x3bcb3ba0	0.006202176
47	0xbe3ab9c0	-0.1823492
48	0x3c25678b	0.010095487
49	0xbe353e37	-0.17699514
50	0x3c063c48	0.008193083
51	0x3e2abd6c	0.16673821
52	0x3e15bfc1	0.1462393
53	0x3e20c182	0.15698817
54	0xbe2c2441	-0.16810705
55	0xbc973b59	-0.018460916
56	0x3d354e93	0.044264387
57	0x3d88f037	0.06686442
58	0x3e00fe54	0.12597018
59	0xbe2bd944	-0.16782099
60	0x3e0624f6	0.13100037
61	0x3e109267	0.14118348
62	0x3e2bca22	0.16776326
63	0x3db75e35	0.089535154
64	0x3cf3c56c	0.029757224
65	0x3de85ba2	0.113456026
66	0x3da8b059	0.08236761
67	0x3cec269c	0.028827004
68	0x3e338449	0.17530932
69	0xbda18e03	-0.07888415
70	0x3db5398b	0.08848866
71	0xbd1205bb	-0.035649996
72	0xbe300438	-0.1718911
73	0xbe056c62	-0.13029626
74	0x3dee2539	0.116281934
75	0xbdbf72ac	-0.09348044
76	0x3e124656	0.14284644
77	0x3c734a6a	0.014849285
78	0xbdde3d7d	-0.10851572
79	0xbd196eb6	-0.037459098
80	0x3c83138d	0.016000533
81	0xbc07e03e	-0.00829321
82	0xbdab7859	-0.08372564
83	0xbd80bf30	-0.06286466
84	0xbddd7497	-0.108132534
85	0x3da06a30	0.07832754
86	0xbd1c0d01	-0.03809834
87	0x3d1d29c7	0.03836992
88	0xbd06a7a1	-0.032874707
89	0xbd24bfa8	-0.04022184
90	0x3db2b721	0.08726335
91	0xbdbbff8c	-0.09179601
92	0xbda0775f	-0.07835268
93	0x3d4a73ba	0.04942677
94	0xbe1f273f	-0.15542315
95	0xbd26f1e4	-0.04075803
96	0xbde5187e	-0.11186312
97	0x3e03df8f	0.1287825
98	0x3cdd2096	0.026993077
99	0xbe37c58b	-0.1794645
100	0xbe067624	-0.13131005
101	0x3e315ef2	0.17321375
102	0x3e2e52e4	0.17023808
103	0x3dd4b354	0.103857666
104	0x3dba4ca7	0.090966515
105	0x3c8864c5	0.016649613
106	0xbd8ed0b4	-0.06973401
107	0x3d28c48c	0.041203067
108	0x3bd4751d	0.0064836876
109	0x3de7e917	0.11323755
110	0xbe1b1080	-0.15143013
111	0xbc36ab5e	-0.011149256
112	0xbd40612d	-0.046967674
113	0x3c1cb73f	0.009565174
114	0x3d09820c	0.033571288
115	0x3d7db571	0.061940614
116	0xbd86038e	-0.06543647
117	0xbd3897c6	-0.045066617
118	0xbd132649	-0.035925183
119	0xbdc55d0f	-0.0963689
120	0x3cb0b9e5	0.021573016
121	0x3e48e2fa	0.19617835
122	0x3df7caed	0.12099252
123	0x3e29b376	0.16572365
124	0x3e29e5ae	0.16591522
125	0x3d849df7	0.06475442
126	0x3c32a384	0.010903243
127	0xbd9e9cd5	-0.07744757
128	0x3e087c63	0.133287
129	0xbbbf329a	-0.0058348896
130	0xbdca0032	-0.098633185
131	0x3d38d092	0.045120783
132	0xbd91c48b	-0.07117566
133	0x3db506ed	0.088392116
134	0x3cf8313f	0.03029692
135	0x3cc7fc65	0.024412343
136	0xbe37e75b	-0.17959349
137	0x3d378c8f	0.04481178
138	0x3db01b73	0.085989855
139	0x3d175428	0.036945492
140	0xbe08c338	-0.1335572
141	0x3d36bffb	0.04461668
142	0x3ddcceeb	0.10781654
143	0x3c3a897e	0.01138532
144	0xbdf1ffba	-0.11816354
145	0xbdd8d2cf	-0.105870835
146	0xbd7db709	-0.061942134
147	0xbe0e34cf	-0.13887332
148	0xbc25ae11	-0.010112301
149	0x3d260951	0.04053623
150	0xbd828dc3	-0.06374695
151	0x3e0f29ec	0.13980836
152	0x3dc0b935	0.094103254
153	0x3e1b6a9a	0.15177384
154	0x3c99b80a	0.018764514
155	0xbde922d5	-0.11383597
156	0xbe17556a	-0.14778677
157	0xbe10b0d7	-0.14129959
158	0x3de4a3a6	0.11164026
159	0xbaf761a0	-0.0018873699
160	0x3e1378aa	0.14401498
161	0x3deddd96	0.1161453
162	0x3c7932fc	0.0152099095
163	0x3cf86b0e	0.030324485
164	0x3d3820a9	0.044953022
165	0x3d8244d3	0.063607834
166	0x3e288d26	0.16460094
167	0x3db390c7	0.087678485
168	0xbc29a4d2	-0.010354238
169	0x3da76f17	0.081754856
170	0xbd5fc51d	-0.05463134
171	0xbe0d4062	-0.13794091
172	0xbc3e11a6	-0.011600887
173	0x3cd76f86	0.026298296
174	0x3e3e53dc	0.18586677
175	0xbc6349fd	-0.013872621
176	0xbd528fd2	-0.05140669
177	0xbd2bb873	-0.04192395
178	0x3df78349	0.120855875
179	0x3e360bb5	0.17777903
180	0x3d5b2095	0.05349787
181	0x3d7991ac	0.06092994
182	0xbdac29ac	-0.08406386
183	0xbdf9a4f2	-0.12189664
184	0x3d48e10f	0.049042758
185	0xbe23db17	-0.16001545
186	0xbe2da3b2	-0.16956976
187	0xbe229fc8	-0.15881264
188	0xbd1e59fe	-0.038660042
189	0x3dbc8a44	0.092060596
190	0xbdeaef29	-0.114713974
191	0x3e23cec6	0.15996847
192	0x3cc5bb10	0.02413705
193	0xbdd48c46	-0.103783175
194	0xbe4cf762	-0.20016244
195	0x3dfbebcc	0.12300834
196	0xbdc2cde2	-0.09511925
197	0xbdc5e0c5	-0.09662012
198	0x3da08387	0.07837587
199	0xbd547017	-0.05186471
200	0x3de5077d	0.11183069
201	0x3e07048b	0.13185327
202	0xbd3e390b	-0.04644112
203	0xbe19f750	-0.15035748
204	0x3d69b49b	0.057057004
205	0x3db5fd8d	0.088862516
206	0xbdfd0d7e	-0.12356089
207	0x3c4d106e	0.012516124
208	0xbe1c0bdd	-0.152389
209	0xbdb704ce	-0.08936463
210	0x3cd94a62	0.026524726
211	0x3dc8bfc1	0.09802199
212	0xbe00f1cb	-0.12592237
213	0xbc34673f	-0.011010944
214	0xbe08b62a	-0.1335074
215	0x3d631cbe	0.055447333
216	0x3df484a9	0.119393654
217	0x3da767ec	0.081741184
218	0xbd134ed0	-0.035963833
219	0x3db7b5aa	0.089701965
220	0x3e290c02	0.16508487
221	0xbdda2b97	-0.10652845
222	0x3d4c08e1	0.049813155
223	0x3e1c420b	0.15259568
224	0xbcedcfea	-0.029029805
225	0xbd7fe015	-0.06246956
226	0x3e02e484	0.12782484
227	0x3e1416d0	0.14461827
228	0x3dfad48d	0.12247572
229	0xbc3d58bb	-0.0115567995
230	0x3dfd3eaf	0.123654716
231	0xbe3c712b	-0.18402545
232	0xbb7072a8	-0.0036689434
233	0x3dac6cee	0.08419214
234	0x3e3e8d97	0.186087
235	0x3bee1aaa	0.007266362
236	0x3e20a70e	0.15688726
237	0xbe120130	-0.14258265
238	0x3c75a634	0.014993239
239	0x3e0f6567	0.14003526
240	0x3dd468f4	0.10371581
241	0x3e1c5808	0.15267956
242	0xbd896b75	-0.06709949
243	0x3e1b0dce	0.15141985
244	0x3d0d69bc	0.034524664
245	0x3de50dee	0.111842975
246	0x3d29fd9e	0.041501634
247	0xbd9280d0	-0.07153475
248	0x3de6bfcb	0.1126705
249	0x3d2d14c7	0.042256143
250	0x3cc6a147	0.024246825
251	0x3d8fd967	0.07023888
252	0x3d8e388e	0.06944381
253	0xbdd525dd	-0.104076125
254	0xbd357d01	-0.044308666
255	0xbde88b70	-0.113547206

weight_hh_l0 f4 [120, 40]
0	0xbde59ec1	-0.112119205
1	0xbe2ff6cd	-0.17183991
2	0xbe1a9b93	-0.1509841
3	0xbdf11251	-0.11771072
4	0x3de32f7f	0.110930435
5	0x3ccc4b70	0.024938315
6	0x3d877a6c	0.06615147
7	0x3bcf22d2	0.0063212896
8	0x3d9d1e47	0.076717906
9	0x3dcc5f36	0.099790975
10	0xbdb40f17	-0.08791941
11	0xbdba0977	-0.090838365
12	0x3d465ca6	0.0484282
13	0xbdeccec9	-0.11562879
14	0x3b47e2d4	0.003050019
15	0x3c38e8ad	0.011285943
16	0x3dae17d6	0.0850064
17	0xbd881143	-0.066439174
18	0x3d100f02	0.035170563
19	0xbccfa2c1	-0.025346162
20	0xbdc5855c	-0.09644577
21	0x3c6b03fc	0.014344212
22	0x3e1d8feb	0.15386932
23	0xbd160887	-0.036629226
24	0xbb234b37	-0.0024916658
25	0x3cf88c47	0.030340327
26	0xbe0a50e4	-0.1350742
27	0xbd80a336	-0.0628113
28	0xbd3a1122	-0.045426495
29	0x3dafc5ce	0.0858265
30	0x3e0482ef	0.12940572
31	0x3d9372cd	0.07199631
32	0xbdfe4ec8	-0.1241737
33	0xbdb04c04	-0.08608249
34	0x3d284d4a	0.041089334
35	0x3e00077e	0.12502858
36	0x3db289f6	0.0871772
37	0xbcff6d9a	-0.031180192
38	0xbdd91fd9	-0.106017776
39	0x3dfd64bb	0.123727284
40	0x3d50f6e9	0.051016722
41	0x3d47d674	0.048788503
42	0xbcaadffc	-0.020858757
43	0x3dda40c6	0.10656886
44	0xbd1ba5ab	-0.03799979
45	0xbd0602c9	-0.0327175
46	0xbd5000e7	-0.05078211
47	0x3e1b54cc	0.15169066
48	0xbe246897	-0.16055523
49	0xbe197054	-0.14984256
50	0x3dc42025	0.095764436
51	0x3cd4676c	0.025928222
52	0xbdef4c34	-0.116844565
53	0x3ddba12a	0.10724099
54	0x3dd2c4d6	0.1029145
55	0xbd97c465	-0.07410506
56	0xbcf83b16	-0.030301612
57	0x3de59392	0.112097874
58	0xbc468219	-0.012115979
59	0x3d792467	0.06082573
60	0xbd904053	-0.07043519
61	0xbd938f83	-0.07205107
62	0xbddd071e	-0.10792373
63	0x3c0b6744	0.008508507
64	0x3dbc0085	0.091797866
65	0x3e152f29	0.14568771
66	0xbe166b9e	-0.1468949
67	0x3dfa0ba7	0.12209254
68	0x3d5fbe4c	0.05462484
69	0x3e099224	0.13434654
70	0x3dc37e08	0.09545523
71	0x3bb681df	0.005569681
72	0xbd94191f	-0.07231354
73	0xbd60a1d3	-0.054841828
74	0xbd8c3ffb	-0.06848141
75	0x3e056b8d	0.13029309
76	0x3cd9377e	0.026515719
77	0xbe0ffac7	-0.14060508
78	0xbdf73563	-0.120707296
79	0xbd7cb684	-0.061697498
80	0x3bd6a930	0.0065509304
81	0x3db251c7	0.08707004
82	0x3dc9ed5f	0.09859728
83	0x3dc6c8be	0.09706257
84	0x3d781c13	0.06057365
85	0xbde6b2fd	-0.11264608
86	0x3e1171a6	0.1420351
87	0xbddf6e44	-0.109097034
88	0xbc22d112	-0.009937542
89	0xbdc6e53c	-0.09711692
90	0xbdcc8b23	-0.09987476
91	0x3db6cd21	0.08925844
92	0x3e032355	0.12806447
93	0x3d3f4851	0.046699826
94	0xbd431a50	-0.047632515
95	0xbe224aa8	-0.15848792
96	0xbbe17d71	-0.006881409
97	0xbcadf316	-0.021234076
98	0xbce77fd2	-0.028259192
99	0x3aa0ae65	0.0012259005
100	0x3e4cb0c3	0.19989304
101	0xbdba9319	-0.09110088
102	0x3e23d1bc	0.15997976
103	0x3c8bcdc1	0.017065885
104	0x3d343409	0.043994937
105	0x3da2104e	0.07913266
106	0xbe25b474	-0.16182119
107	0xbd6e572c	-0.058188602
108	0x3ded0f41	0.11575175
109	0xbe0896a3	-0.13338713
110	0xbe2ca76f	-0.16860746
111	0xbd7c83b9	-0.061649058
112	0x3e35bd1e	0.17747924
113	0xbdc4600e	-0.095886335
114	0xbdbaf285	-0.09128288
115	0x3e254e2d	0.16143103
116	0xbd5f752e	-0.05455511
117	0x3a70fa39	0.00091925595
118	0x3e23c41c	0.15992779
119	0xbda8a05f	-0.08233713
120	0x3e017117	0.12640797
121	0x3d975289	0.07388789
122	0x3c8c3874	0.017116763
123	0x3d86fca4	0.06591156
124	0x3d9f30e2	0.077729955
125	0xbc3cf4c6	-0.011532968
126	0xbd4efa51	-0.05053169
127	0x3db16e42	0.08663608
128	0xbddee6a7	-0.10883837
129	0x3d961e6e	0.07330023
130	0x3cb17cb2	0.021665905
131	0xbd9e23e8	-0.07721692
132	0x3dc050bb	0.09390398
133	0xbd2772dc	-0.040881023
134	0x3d2cfc3d	0.04223274
135	0xbe0a3907	-0.13498317
136	0x3e11cc0a	0.14237991
137	0x3daf41d0	0.085574746
138	0x3e0ce672	0.13759783
139	0xbdb6af43	-0.08920147
140	0xbdc707ed	-0.097183086
141	0x3d02af10	0.031905234
142	0xbd999ced	-0.07500634
143	0xbcea297a	-0.02858423
144	0x3ce279b9	0.027645933
145	0x3dc5de26	0.09661512
146	0xbdadbce9	-0.084832974
147	0xbdc39e52	-0.095516816
148	0x3e16761a	0.1469349
149	0xbdd53946	-0.10411315
150	0x3e2e6aaf	0.17032884
151	0x3cdcbcfb	0.026945582
152	0xbcbe6251	-0.02324024
153	0x3d31ebcf	0.043437775
154	0xbc3457b8	-0.011007242
155	0xbe0b05ec	-0.13576478
156	0x3d2d54a4	0.042317048
157	0xbe020b64	-0.12699658
158	0x3d99fb0f	0.07518589
159	0x3d1903d1	0.037357155
160	0xbe29e914	-0.16592818
161	0xbe0dce3a	-0.138482
162	0x3e1a27a1	0.1505418
163	0x3d54ee98	0.051985353
164	0xbe055bb7	-0.13023268
165	0x3d067804	0.0328293
166	0x3def1ae5	0.116750516
167	0x3c4353f3	0.0119218705
168	0xbde73328	-0.11289054
169	0x3db532eb	0.088476025
170	0x3ddc7f49	0.10766465
171	0xbe016960	-0.12637854
172	0xbe00f036	-0.12591633
173	0xbe06f7a9	-0.13180412
174	0xbd964378	-0.073370874
175	0x3c9a1950	0.018810898
176	0x3da826c9	0.08210523
177	0xbb12c462	-0.0022394885
178	0x3e076cac	0.13225049
179	0x3ce73a59	0.028226065
180	0x3d1efeff	0.038817402
181	0xbde74b19	-0.112936206
182	0x3defde3e	0.11712311
183	0x3e296863	0.16543727
184	0x3dd6f66d	0.10496221
185	0xbb8910d2	-0.0041829133
186	0x3dd61201	0.10452653
187	0x3d17d198	0.03706512
188	0xbd1b3da0	-0.037900567
189	0x3d2e7b0c	0.042597815
190	0xbd9f8d62	-0.077906385
191	0x3da9b095	0.082856335
192	0xbd4d367d	-0.050100792
193	0xbdd1a5d5	-0.10236708
194	0x3d496a56	0.049173675
195	0x3e1e1b47	0.15440093
196	0xbe018c32	-0.12651137
197	0xbdef87cc	-0.11695823
198	0xbd7cbd16	-0.061703764
199	0xbcb20110	-0.021729022
200	0x3dba2a3e	0.09090088
201	0xbe00ad86	-0.12566194
202	0xbd8086e5	-0.06275729
203	0x3dc021bf	0.093814366
204	0x3d88b287	0.066746764
205	0xbd96d7ec	-0.073654026
206	0x3d0e936f	0.034808572
207	0xbdd841ca	-0.10559423
208	0x3d8c6909	0.06855971
209	0x3e02c90a	0.12772003
210	0xbd6058e5	-0.054772276
211	0xbd1a640c	-0.03769307
212	0x3c616f42	0.013759436
213	0x3e0d9904	0.13827902
214	0xbd92ec6e	-0.07174002
215	0xbdbadec8	-0.091245234
216	0x3cde85d6	0.027163427
217	0x3e1331ef	0.14374517
218	0x3de4be37	0.11169093
219	0xbdabe5bb	-0.08393427
220	0xbe19f77b	-0.15035813
221	0x3d5ad078	0.053421468
222	0x3d464f72	0.04841561
223	0xbb8207d0	-0.0039682165
224	0xbe30fbb4	-0.17283517
225	0xbdfc9cfa	-0.123346284
226	0xbe00c96c	-0.12576836
227	0xbe22da0b	-0.1590349
228	0xbe1538a7	-0.14572392
229	0x3dc34a6d	0.0953568
230	0xbe2a5fa1	-0.16638042
231	0x3d579a2e	0.05263727
232	0x3e2b1f18	0.1671108
233	0x3d50e224	0.050996915
234	0xb9c39a02	-0.00037308043
235	0xbdaa36ad	-0.0831121
236	0x3dc4496e	0.09584318
237	0x3e225559	0.1585287
238	0xbc258334	-0.010102082
239	0x3db66d2e	0.08907543
240	0xbe3187ec	-0.17337006
241	0xb4c31c00	-3.6341953e-07
242	0x3e0a80d0	0.135257
243	0xbdf3009a	-0.11865349
244	0xbdb788ec	-0.08961663
245	0x3d84967a	0.064740136
246	0xbd8ca4de	-0.068673834
247	0x3e2cfbd4	0.1689294
248	0xbddd16c9	-0.107953615
249	0x3d73059a	0.059331514
250	0x3d8584f3	0.06519499
251	0x3dd873d4	0.105689675
252	0x3d4192c1	0.047259096
253	0x3e3b73ae	0.18305847
254	0x3e0504e7	0.12990151
255	0x3e1661ba	0.14685717

bias_ih_l0 f4 [120]
0	0x3c6a0551	0.014283494
1	0x3dedbbb4	0.11608067
2	0xbcc49dff	-0.02400112
3	0x3ca698d3	0.020336544
4	0x3de53ccd	0.111932375
5	0x3d57eea5	0.052717824
6	0xbdf49ca2	-0.11943938
7	0xbdc74ad2	-0.09731068
8	0xbe24a327	-0.16077863
9	0xbd361e82	-0.04446269
10	0x39789b20	0.00023708912
11	0xbc06f257	-0.008236489
12	0xbd0fd0e6	-0.03511133
13	0xbd82b9e8	-0.06383115
14	0x3dc5cb06	0.09657864
15	0xbb45a3ae	-0.0030157375
16	0x3c013443	0.007885995
17	0x3dc42d6e	0.095789775
18	0x3db96e7e	0.09054278
19	0xbcb760b5	-0.02238498
20	0xbd043f49	-0.032286916
21	0x3b24b5db	0.0025132808
22	0x3d15d88f	0.03658348
23	0xbdecf460	-0.11570048
24	0xbde1174e	-0.10990773
25	0xbda30d51	-0.07961524
26	0x3deeff76	0.11669819
27	0x3c8ca88c	0.017170213
28	0x3dce68be	0.10078572
29	0xbdabd3b2	-0.08389987
30	0x3dc1b361	0.09458042
31	0xbddf03d2	-0.108894005
32	0x3c5e08c4	0.013551895
33	0x3ca5e362	0.020250026
34	0xbdad864b	-0.0847288
35	0xbde6b70a	-0.11265381
36	0x3d4984ea	0.049199022
37	0xbd031a47	-0.032007482
38	0xbd2ac7d2	-0.04169447
39	0xbdcdd08b	-0.10049542
40	0x3e0384a7	0.12843572
41	0xbd55b959	-0.052178714
42	0x3dc1e719	0.094679065
43	0x3e0ba597	0.13637386
44	0x3e16dd0a	0.14732757
45	0xbc6252d6	-0.013813695
46	0x3d5ce907	0.05393317
47	0xbe07f76d	-0.13277979
48	0x3d9c9887	0.0764628
49	0xbe2e8b49	-0.1704532
50	0xbca2946b	-0.019846162
51	0x3e313dc9	0.17308725
52	0xbdc5ec72	-0.09664239
53	0x3e3fe743	0.18740563
54	0x3e2c9c82	0.16856578
55	0xbc1fb387	-0.0097473925
56	0xbd42b8aa	-0.04753939
57	0x3c3da94c	0.011576008
58	0x3df9b0a2	0.12191893
59	0xbc02e0d8	-0.007988177
60	0xbe318fa8	-0.17339957
61	0x3da41e0c	0.080135435
62	0xbab65e0c	-0.0013913526
63	0x3d108c6d	0.03529017
64	0x3e15fe49	0.14647783
65	0xbd90bdaa	-0.070674255
66	0x3c89437a	0.016755808
67	0xbcf1f8bf	-0.029537557
68	0x3d2f64c9	0.042820726
69	0xbd9bd0c8	-0.07608181
70	0xbc3f9894	-0.011694092
71	0xbda762c5	-0.08173136
72	0x3df06202	0.117374435
73	0x3d2d0ce2	0.042248614
74	0x3e303ac7	0.17209922
75	0x3e45800f	0.19287132
76	0x3da842c5	0.0821586
77	0xbe1eecf6	-0.15520081
78	0x3d063d8f	0.03277355
79	0xbd911fd9	-0.070861526
80	0xbc8792f5	-0.016549567
81	0xbd91e1fa	-0.0712318
82	0x3d5d5080	0.05403185
83	0xbc63ad8c	-0.013896357
84	0x3d876cb6	0.06612532
85	0x3d2fac92	0.042889185
86	0x3de1377a	0.109969094
87	0xbdd054e3	-0.10172441
88	0x3e016dfa	0.12639609
89	0xbd66f769	-0.056388292
90	0xbd4d794e	-0.050164513
91	0x3e0a28a5	0.13492067
92	0xbe003f8b	-0.1252424
93	0x3beb27c8	0.007176373
94	0xbb30f929	-0.002700398
95	0xbdbf9b62	-0.09355809
96	0xbc90dac8	-0.017682448
97	0xbd0fe916	-0.035134397
98	0xbe0dc30e	-0.13843939
99	0xbb87fc1c	-0.004149927
100	0x3d0ab501	0.033864025
101	0xbd020171	-0.031739656
102	0x3e2ea40a	0.17054763
103	0x3e078372	0.13233736
104	0xbd8177f6	-0.06321709
105	0x3df88ead	0.12136588
106	0xbd8899f5	-0.0666999
107	0xbcf9bdb3	-0.030485963
108	0x3d3c677a	0.04599712
109	0x3d91d017	0.07119768
110	0xbe12ad2a	-0.1432387
111	0x3ce0e3bc	0.027452342
112	0x3e125920	0.14291811
113	0xbc8eb832	-0.017421816
114	0x3ccc9bf3	0.024976706
115	0xbd9eb57a	-0.07749458
116	0x3e159e57	0.14611183
117	0x3e25fca0	0.1620965
118	0x3d57e3c9	0.052707467
119	0xbd1ec43a	-0.038761355

bias_hh_l0 f4 [120]
0	0x3e271b48	0.16319
1	0x3da99c76	0.08281796
2	0x3e3eec5f	0.18644856
3	0xbc5fe4b0	-0.013665363
4	0x3e3744bd	0.17897315
5	0xbcede175	-0.02903817
6	0x3c97f11c	0.018547587
7	0x3db425b4	0.08796254
8	0xbca60f56	-0.020270985
9	0xbdd36e2e	-0.103237495
10	0xbcf3297d	-0.02968287
11	0x3dbcf0f8	0.09225649
12	0x3df09a23	0.11748149
13	0xbe24db90	-0.16099381
14	0x3d72b4a3	0.0592543
15	0x3db30c16	0.087425396
16	0xbcf9abb9	-0.030477392
17	0xbdd0dc8b	-0.10198315
18	0xbdf811da	-0.1211278
19	0x3e2fb4d0	0.17158818
20	0x3c1e3704	0.009656671
21	0xbdcdf337	-0.10056155
22	0x3df82bd5	0.12117735
23	0x3cd63599	0.026148604
24	0x3c25ad4f	0.010112121
25	0xbd9fefc2	-0.07809402
26	0xbd850f6a	-0.064970806
27	0x3d8a4e2c	0.06753191
28	0x3e0701ad	0.13184233
29	0xbda3e722	-0.080030695
30	0xbcb9f3b7	-0.02269922
31	0xbcbaf77c	-0.022823088
32	0x3d027cc9	0.031857286
33	0xbe00c35c	-0.12574524
34	0xbe0783c5	-0.1323386
35	0x3d5ee4d9	0.054417465
36	0xbdf63712	-0.120222226
37	0x3d5aedd5	0.05344947
38	0x3e21aef7	0.157894
39	0x3da59f0b	0.08086976
40	0xbdc8a64e	-0.09797345
41	0x3dfecb06	0.124410674
42	0x3e1f63ed	0.15565462
43	0xbd177fe8	-0.036987215
44	0xbdb60d04	-0.08889201
45	0x3e1e84a2	0.15480283
46	0x3d595c9f	0.053066846
47	0xbdcdecb7	-0.100549154
48	0xbd2da816	-0.042396627
49	0x3dc111c8	0.0942722
50	0x3d015c58	0.031582206
51	0xbdefc38d	-0.1170722
52	0x3dd4110f	0.10354816
53	0x3bc0fce3	0.0058895214
54	0x3e094379	0.13404645
55	0x3d1b66c1	0.03793979
56	0xbde772b9	-0.113011785
57	0xbd86ddca	-0.06585272
58	0x3dc622de	0.09674619
59	0x3e369416	0.17829928
60	0xbe2076ec	-0.15670365
61	0x3d91b123	0.07113864
62	0x3cde77e2	0.027156774
63	0xbe1c9484	-0.15291029
64	0x3e049f5f	0.1295142
65	0xbca60cc2	-0.020269755
66	0xbddfd27b	-0.10928818
67	0x3d818771	0.063246615
68	0xbe1f4cf7	-0.15556704
69	0x3e027834	0.12741166
70	0x3da96b95	0.08272473
71	0x3cd43668	0.02590485
72	0xbdd445f1	-0.10364903
73	0x3dbe7f7f	0.09301662
74	0x3d81d7bc	0.06339976
75	0xbca41951	-0.020031603
76	0x3d5e631d	0.05429374
77	0xbe284401	-0.16432191
78	0x3cd572b1	0.026055666
79	0x3db0a34a	0.08624895
80	0x3e3f5408	0.18684399
81	0x3b34db20	0.002759643
82	0x3d871644	0.06596044
83	0x3d881db9	0.06646294
84	0xbd81a043	-0.063293956
85	0xbdf4cb9f	-0.119529
86	0xbdae93ee	-0.08524309
87	0xbd590e3e	-0.052992098
88	0x3e1696c5	0.14705952
89	0x3d80dda5	0.06292275
90	0x3de00595	0.10938565
91	0xbe24c674	-0.16091329
92	0x3dc6321d	0.09677527
93	0xbce615f8	-0.028086647
94	0x3d7f7a5c	0.06237255
95	0x3e0da793	0.13833456
96	0xbd7d2457	-0.061802235
97	0x3d7f87dd	0.06238543
98	0x3dc78702	0.097425476
99	0x3e0c997a	0.13730422
100	0x3dff0b2e	0.12453304
101	0xbd840873	-0.06446924
102	0x3d0d3bcd	0.03448086
103	0xbd8763e9	-0.06610853
104	0x3d28794b	0.0411313
105	0x3d5c878a	0.053840198
106	0xbc218b11	-0.009859816
107	0x3d8bb9a3	0.06822517
108	0xbd43034a	-0.04761056
109	0x3e1b730e	0.15180609
110	0x3e1011f9	0.14069356
111	0x3d712ff3	0.05888362
112	0xbd2dbbbd	-0.04241537
113	0x3de20b32	0.110372916
114	0x3e03ce66	0.12871704
115	0x3dcafff9	0.09912104
116	0xbd5ef75b	-0.054435115
117	0xbcab5263	-0.020913308
118	0xbc9c249f	-0.019060431
119	0xbe0ec4af	-0.13942216

weight_ih_l1 f4 [120, 40]
0	0xbda20092	-0.07910265
1	0x3e0c46b8	0.13698852
2	0xbdb05f07	-0.08611875
3	0x3ddc4fd4	0.107574135
4	0x3e2e20e9	0.17004742
5	0x3d550a7a	0.052011944
6	0x3d5da8e4	0.054116145
7	0x3d1d194a	0.038354196
8	0xbdc57ef8	-0.09643358
9	0xbdc2763f	-0.0949521
10	0x3e216808	0.15762341
11	0xbd1d35cd	-0.038381387
12	0xbdcc423b	-0.0997357
13	0xbcb8363a	-0.022486795
14	0xbdf42a1e	-0.11922096
15	0xbd9b8d32	-0.0759529
16	0xbd4af3d4	-0.04954894
17	0x3c9d3803	0.019191748
18	0xbe01fbd5	-0.12693723
19	0x3dcec004	0.10095218
20	0xbe219f3a	-0.15783396
21	0xbe1fe122	-0.15613225
22	0x3cc03451	0.023462446
23	0xbe0ce593	-0.1375945
24	0x3e146082	0.1448994
25	0x3c0ee057	0.008720479
26	0x3d84ee9a	0.06490822
27	0xbdd47002	-0.10372926
28	0xbe12f135	-0.14349826
29	0x3e1d2e84	0.15349776
30	0xbd24f8d3	-0.04027636
31	0xbd412015	-0.047149736
32	0xbd1e45fd	-0.038640965
33	0xbd1c2f9e	-0.03813135
34	0x3d83419a	0.06408997
35	0xbdbcc1ab	-0.09216627
36	0x3dfd9851	0.12382568
37	0xbe0abfb4	-0.13549691
38	0xbd4502b9	-0.0480983
39	0xbd836ee2	-0.064176336
40	0xbdff4692	-0.12464632
41	0xbd877d04	-0.06615642
42	0x3da8599e	0.08220218
43	0x3da104e9	0.07862265
44	0xbdc00e3f	-0.09377717
45	0xbe249f61	-0.16076423
46	0xbe003d0b	-0.12523286
47	0xbe35e6bf	-0.17763804
48	0x3e28afdf	0.1647334
49	0xbd85244c	-0.06501064
50	0x3dd329f7	0.103107385
51	0x3e07509e	0.13214347
52	0x3d8c411b	0.068483554
53	0xbe108dce	-0.14116594
54	0xbddf5038	-0.109039724
55	0xbda0e657	-0.07856434
56	0x3dee5f84	0.11639312
57	0xbd9fb852	-0.07798828
58	0xbc03e14b	-0.0080493195
59	0x3cfb24c0	0.030657172
60	0x3dc962ef	0.09833323
61	0xbe1fb8e7	-0.15597878
62	0xbd339cd6	-0.043850742
63	0xbd909883	-0.07060339
64	0x3d95bf03	0.07311823
65	0x3d4a2dc9	0.04936007
66	0xbce3b002	-0.027793888
67	0x3d5f3b6e	0.054500036
68	0xbe399e34	-0.18126756
69	0xbdc67cd8	-0.09691781
70	0x3e074b17	0.13212238
71	0x3d117508	0.035512
72	0x3e06f2a6	0.131785
73	0xbda14143	-0.07873776
74	0x3cef418e	0.029206064
75	0xbc9b301c	-0.018943839
76	0xbd0070a6	-0.03135743
77	0x3e00866b	0.12551276
78	0x3e26adb4	0.162772
79	0xbca3424b	-0.019929072
80	0x3db9898d	0.09059439
81	0x3e44713c	0.1918382
82	0x3e09d1c8	0.13458931
83	0xbde99ff3	-0.11407461
84	0x3c9c06bc	0.01904618
85	0xbd83b77d	-0.06431482
86	0xbdd9616a	-0.106142834
87	0x3ddf6124	0.109072
88	0xbd26daa8	-0.04073587
89	0xbdb08db7	-0.0862078
90	0xbdd4b08c	-0.10385236
91	0xbde7c9a4	-0.11317757
92	0x3c46ff17	0.012145779
93	0x3dddaf4c	0.10824451
94	0xbde4f2f0	-0.11179149
95	0x3dd71f5b	0.105040275
96	0xbd06e4ca	-0.032933034
97	0x3de14605	0.10999683
98	0x3e1ebf24	0.15502602
99	0xbc42625f	-0.011864274
100	0x3e1f235f	0.15540837
101	0xbb9bef7d	-0.004758774
102	0xbb34f424	-0.002761134
103	0xbd1360e7	-0.035981085
104	0xbcdfed6f	-0.027334897
105	0x3da6b0d4	0.08139196
106	0xbe1cff9e	-0.15331885
107	0x3e2a4390	0.16627336
108	0x3dd455cc	0.10367927
109	0x3d036b26	0.032084607
110	0x3d57a92e	0.052651577
111	0xbd04901a	-0.03236399
112	0x3d63c633	0.05560894
113	0xbdf8f040	-0.12155199
114	0xbdaed0f5	-0.08535949
115	0xbd4ccb3c	-0.049998507
116	0xbde02eb7	-0.1094641
117	0xbd1fbe98	-0.039000124
118	0x3dde251f	0.10846924
119	0xbdd3ffdd	-0.103515364
120	0x3e44bb7e	0.19212148
121	0x3cf1cb42	0.029515866
122	0x3e00f01a	0.12591591
123	0xbdfcd807	-0.123458914
124	0x3dd5f9be	0.10448025
125	0x3e278b29	0.16361679
126	0xbdfce30a	-0.12347992
127	0x3d3fd155	0.046830494
128	0xbc2aca88	-0.010424264
129	0x3d735355	0.059405643
130	0xbd91a7b4	-0.07112065
131	0x3e01a442	0.12660316
132	0xbd7f520b	-0.0623341
133	0x3e04f79c	0.1298508
134	0xbdd7f620	-0.105449915
135	0xbdcdb496	-0.1004421
136	0xbe0cf1bd	-0.13764091
137	0x3df002f5	0.11719314
138	0xbdd7b5b7	-0.10532706
139	0x3e29d95a	0.1658682
140	0xbd8e3f4e	-0.06945668
141	0xbd9884c0	-0.07447195
142	0xbdadb16e	-0.08481108
143	0xbd7df706	-0.062003158
144	0x3ce3884e	0.027774956
145	0xbd701c22	-0.05862058
146	0x3de68292	0.11255373
147	0x3dca3852	0.098740235
148	0xbdf6ebd2	-0.12056698
149	0xbd9a215f	-0.07525896
150	0x3d660715	0.056159098
151	0x3e190cb2	0.14946249
152	0x3dcda889	0.10041911
153	0x3dcb97c3	0.099410556
154	0x3c8cbb6b	0.017179212
155	0xbe11607e	-0.14196965
156	0x3a1ae291	0.0005908395
157	0xbded8db3	-0.115992926
158	0xbc9b5ea9	-0.018966036
159	0xbdc9aee3	-0.0984781
160	0x3d731c35	0.059353072
161	0xbd79d838	-0.060997218
162	0x3dc176ee	0.09446512
163	0xbe17c279	-0.14820279
164	0x3d92f48f	0.07175552
165	0xbd8239aa	-0.06358655
166	0x3d6b7943	0.05748869
167	0xbd8bc03c	-0.06823775
168	0x3db7a952	0.08967842
169	0x3d8f05e9	0.06983549
170	0x3d6b81bb	0.057496767
171	0x3bde5e02	0.006786109
172	0x3dafab44	0.08577588
173	0xbd4e33b3	-0.050342273
174	0xbc2dbf75	-0.010604729
175	0x3e45b7d3	0.19308405
176	0x3da982d4	0.082769066
177	0x3dc11385	0.09427551
178	0x3c9437b5	0.01809297
179	0xbe145dec	-0.14488953
180	0x3dd5c5c7	0.10438114
181	0x3d4a76b3	0.049429607
182	0x3e00135b	0.12507384
183	0xbc581066	-0.013187503
184	0x3d6f5a19	0.058435533
185	0xbde4b69e	-0.11167644
186	0xbd92a429	-0.07160217
187	0x3de51abd	0.111867405
188	0xbcf5a8a5	-0.029987643
189	0xbd4370b9	-0.047714923
190	0x3d4c399d	0.04985963
191	0xb94906c0	-0.00019171368
192	0x3e09b5e8	0.13448298
193	0x3e0ef09c	0.13958973
194	0xbc69533a	-0.014241034
195	0x3e168392	0.14698628
196	0x3dff96e0	0.12479949
197	0x3d2b0ca2	0.041760094
198	0x3d823e06	0.06359486
199	0x3c5ddeb3	0.013541865
200	0xbdfc1c9b	-0.123101436
201	0x3ddcd733	0.107832335
202	0xbd860fa1	-0.0654595
203	0x3c8bf646	0.017085206
204	0x3dd9b875	0.106308855
205	0xbdadaaae	-0.0847982
206	0xbe2be146	-0.16785154
207	0x3cb8f385	0.022577057
208	0xbd03a23d	-0.032137144
209	0x3d93da88	0.07219416
210	0xba59a078	-0.0008301805
211	0xbde13c78	-0.109978616
212	0xbde404c1	-0.11133719
213	0x3d903599	0.07041473
214	0x3e350895	0.17679055
215	0x3d6b1a3a	0.05739806
216	0xbd7d1548	-0.061787874
217	0x3d3c7162	0.046006568
218	0xbdf75f1c	-0.120786875
219	0xbcab9c96	-0.02094869
220	0xbe316e5e	-0.17327258
221	0x3d1230e8	0.035691172
222	0xbdd1cbc8	-0.10243946
223	0xbe505cb1	-0.20347859
224	0xbe295bf0	-0.16538978
225	0x3d94cc71	0.072655566
226	0xbd9c6a97	-0.07637518
227	0x3cf89bda	0.030347753
228	0x3e162ef3	0.14666347
229	0x3d230cde	0.039807193
230	0x3dafb2c8	0.08579022
231	0xbcb3d8e8	-0.021954015
232	0xbc957028	-0.018241957
233	0x3d7350fc	0.059403405
234	0x3d335954	0.04378636
235	0xbdd7ddfd	-0.10540388
236	0xbc3c10c8	-0.01147861
237	0x3e162842	0.14663795
238	0xbd4a2299	-0.0493494
239	0xbdfe526e	-0.12418066
240	0xbc23dc53	-0.01000126
241	0xbd1eaaba	-0.038737036
242	0x3de4fbd1	0.11180843
243	0x3da228b7	0.07917922
244	0xbd95ffbf	-0.0732417
245	0xbe30d09c	-0.17267078
246	0x3df58ab6	0.11989348
247	0x3e05581f	0.13021897
248	0xbd70b0e5	-0.05876245
249	0xbe18b054	-0.14911014
250	0x3dcae5d2	0.09907116
251	0x3d94647c	0.072457284
252	0xbce402ae	-0.027833309
253	0x3e37d2b0	0.17951465
254	0xbc6cce35	-0.01445346
255	0x3cd1cc3e	0.025610086

weight_hh_l1 f4 [120, 40]
0	0xbd7179ff	-0.058954235
1	0x3d1b687e	0.03794145
2	0xbda2a15a	-0.079409316
3	0xbc8f0ebb	-0.017463079
4	0xbdf00ae8	-0.1172083
5	0x3d886c96	0.06661336
6	0xbd6342d5	-0.055483658
7	0xbd88429e	-0.06653331
8	0x3dce2e14	0.100673825
9	0xbbe1fa79	-0.0068963137
10	0xbc502ef4	-0.012706507
11	0x3db0e7fb	0.08637997
12	0x3d9d953d	0.076944806
13	0x3cb01bac	0.02149757
14	0x3dbefc9a	0.09325524
15	0x3db575ca	0.08860357
16	0xbd0e9b3b	-0.034816008
17	0xbd3b672d	-0.045752693
18	0xbd8940f6	-0.067018434
19	0xbcafd03c	-0.021461599
20	0xbe3c7679	-0.18404569
21	0xbd52a4aa	-0.051426567
22	0x3e23ad7d	0.1598415
23	0x3e17ea8c	0.14835566
24	0xbde28627	-0.11060744
25	0xbe38c08e	-0.18042204
26	0x3e0e1886	0.13876542
27	0xbdc3efab	-0.095671974
28	0xbd7d1d32	-0.06179542
29	0xbe158fb7	-0.14605604
30	0x3d7bacb9	0.061444018
31	0x3e26cf8c	0.1629011
32	0xbdb693b0	-0.08914888
33	0xbd03f9b6	-0.032220565
34	0xbdeb75da	-0.11497088
35	0x3e33b658	0.17550027
36	0x3d19d9ca	0.037561215
37	0xbd328dcb	-0.043592256
38	0xbcb3fe9a	-0.02197199
39	0xbd5a87b3	-0.05335207
40	0x3ba10f82	0.0049151788
41	0xbd5e4fe9	-0.054275427
42	0xbdb42b31	-0.087973006
43	0xbd828940	-0.063738346
44	0xbd14c1af	-0.036317524
45	0x3a9b157d	0.0011831966
46	0xbccaf470	-0.02477476
47	0xbe04d557	-0.12972008
48	0xbd803ed5	-0.06261984
49	0x3e08bd14	0.13353378
50	0x3d07867f	0.03308725
51	0xbdb91c97	-0.09038656
52	0x3dcfc9f4	0.101459414
53	0x3d4a5522	0.049397595
54	0x3d6522a4	0.05594124
55	0xbdcc6dcd	-0.0998188
56	0xbe08ae4d	-0.1334774
57	0xbdb0da8a	-0.08635433
58	0xbb771aa2	-0.0037705083
59	0xbde97dd1	-0.11400951
60	0xbe1dbbbb	-0.15403645
61	0x3cbefd26	0.02331407
62	0xbd491956	-0.049096428
63	0xbda87a37	-0.08226436
64	0xbdcf75e6	-0.10129909
65	0xbd570ac2	-0.052500494
66	0x3d8aefcf	0.06784021
67	0xbde1fb40	-0.1103425
68	0xbcf00699	-0.029300021
69	0x3e159084	0.1460591
70	0xbdb61df6	-0.08892433
71	0x3d06c676	0.03290411
72	0xbb33aca6	-0.002741614
73	0x3df89ba7	0.12139063
74	0x3dd4c870	0.10389793
75	0x3d1d102e	0.03834551
76	0xbe308eb9	-0.17241944
77	0x3db4c334	0.088262945
78	0x3d2749a0	0.0408417
79	0xbce09c9f	-0.027418433
80	0xbd1cb656	-0.038259827
81	0xbe0cd0ce	-0.13751528
82	0x3c281d59	0.010260903
83	0xbd6fac73	-0.05851407
84	0x3d93a35d	0.072088934
85	0xbe274b9e	-0.1633744
86	0x3e086e6e	0.13323376
87	0x3cf53d21	0.029936375
88	0x3bfbca44	0.007684024
89	0xbe1a4b49	-0.15067782
90	0x3d9add2d	0.07561717
91	0xbd52c444	-0.051456705
92	0xbcad53cf	-0.021158127
93	0xbdfc3343	-0.12314465
94	0x3d916edb	0.07101222
95	0xbe1ad7ad	-0.15121336
96	0xbe3629bc	-0.17789358
97	0xbd0940f4	-0.03350921
98	0xbd3bfc72	-0.045895047
99	0x3a704913	0.00091661623
100	0x3dbc844d	0.09204922
101	0x3d2692d9	0.04066739
102	0xbdd43b82	-0.10362913
103	0xbddfb76d	-0.109236576
104	0xbdffa599	-0.12482757
105	0xbd8d8f47	-0.069120936
106	0x3d8d6eea	0.06905921
107	0xbdf7310b	-0.12069901
108	0x3cccfe6e	0.025023665
109	0x3ccdcdae	0.02512249
110	0xbddda800	-0.10823059
111	0x3d72da68	0.05929032
112	0x3df40f77	0.11917012
113	0x3d0c79a9	0.03429571
114	0xbe0e6a74	-0.13907796
115	0xbe04f796	-0.12985072
116	0xbd28f308	-0.041247398
117	0xbbea153d	-0.007143645
118	0x3d279004	0.04090883
119	0xbe33b9be	-0.17551324
120	0xbe0468b9	-0.12930574
121	0x3c5f7f20	0.013641149
122	0x3d2c25c2	0.042028196
123	0xbd1fe3e1	-0.03903568
124	0xbdbdd464	-0.09269026
125	0x3db3b16d	0.08774076
126	0xbdb54302	-0.08850671
127	0x3b82f23c	0.0039961617
128	0x3b8b4954	0.0042506848
129	0xbd6be0fa	-0.0575876
130	0xbd453bc9	-0.04815272
131	0x3e29407a	0.16528502
132	0x3dfca79a	0.12336655
133	0xbdda185c	-0.106491774
134	0xbe483971	-0.19553162
135	0xbd42d684	-0.04756786
136	0x3d9ea336	0.07745974
137	0x3c81d398	0.015847966
138	0xbcc5eece	-0.024161723
139	0xbdae997c	-0.085253686
140	0x3c9daab8	0.019246444
141	0x3da703a4	0.08154991
142	0xbdd5f884	-0.10447791
143	0x3d50ef5f	0.051009532
144	0x3acebe4e	0.0015773268
145	0x3dfaac41	0.12239886
146	0xbd6c74d5	-0.057728607
147	0xbd092011	-0.033477847
148	0x3deef8a8	0.11668521
149	0x3ca2e171	0.01988289
150	0xbdd56305	-0.10419277
151	0x3d6a8bf5	0.05726238
152	0xbcd5a4ea	-0.026079614
153	0x3dce34a5	0.10068635
154	0xbde1bb60	-0.11022067
155	0xbd831040	-0.06399584
156	0xbd941399	-0.072303005
157	0xbcef1962	-0.029186908
158	0xbe2ef2ea	-0.17084852
159	0x3e0d1c79	0.13780393
160	0xbddcd063	-0.10781934
161	0xbcdac6f6	-0.0267062
162	0xbdb638f0	-0.08897579
163	0xbc7bf377	-0.015377871
164	0x3db91a45	0.09038214
165	0xbdf6b957	-0.120470695
166	0x3d897bfc	0.06713101
167	0x3dbc8694	0.09205356
168	0xbddfed5f	-0.10933947
169	0x3d1a0cbe	0.03760981
170	0xbd9bff38	-0.076170385
171	0x3c8084b7	0.015688283
172	0x3d0f348c	0.034962222
173	0x3982b284	0.00024928537
174	0xbc61b679	-0.013776415
175	0xba9eb746	-0.0012109063
176	0x3dda1c78	0.10649961
177	0xbdba237b	-0.090887986
178	0x3c99c620	0.018771231
179	0xbdeea896	-0.11653249
180	0x3d394ddb	0.045240264
181	0xbde936a1	-0.11387373
182	0xbd536b37	-0.05161592
183	0xbe0805d8	-0.13283479
184	0xbc0f97f0	-0.008764252
185	0xbda1111a	-0.0786459
186	0x3ba38ec6	0.004991385
187	0x3ca9a2b3	0.020707464
188	0x3dc27ab6	0.094960615
189	0x3d8c1f57	0.06841915
190	0xbe008a47	-0.12552749
191	0xbe040f64	-0.12896496
192	0x3de66837	0.11250346
193	0xbbca646c	-0.006176522
194	0x3d81531c	0.0631468
195	0xbc581e83	-0.013190868
196	0xbd2978d6	-0.041375004
197	0xbd4ed32d	-0.05049436
198	0x3d55f647	0.05223682
199	0x3d127f06	0.03576567
200	0xbdbd7be0	-0.09252143
201	0xbddd84b4	-0.10816327
202	0xbde8e98b	-0.1137267
203	0xbd2e9a77	-0.042627778
204	0xbd8a2b91	-0.06746591
205	0x3dd9ec0c	0.106407255
206	0xbd7e937c	-0.06215237
207	0x3cb980a0	0.022644341
208	0xbe33e123	-0.17566352
209	0xbdb8cb3a	-0.090231374
210	0x3cf48307	0.029847635
211	0xbddc33c2	-0.107520595
212	0x3d8ddca5	0.0692685
213	0x3d5a7eec	0.0533437
214	0xbe01514f	-0.12628673
215	0xbdbe2bf6	-0.09285729
216	0xbcc8f7b9	-0.024532186
217	0xbd0aaa73	-0.03385396
218	0xbcacc67e	-0.021090742
219	0x3e1eb9f3	0.15500621
220	0xbc0f2d7c	-0.008738872
221	0x3dda3be1	0.10655952
222	0x3cdb4a33	0.02676878
223	0x3e204427	0.15650998
224	0x3e24bb21	0.16087009
225	0xbd541ca7	-0.051785138
226	0x3e0c0bac	0.13676327
227	0x3e09323b	0.13398068
228	0x3cf478a2	0.029842678
229	0x3e06036a	0.1308724
230	0xbe32dd24	-0.17467171
231	0x3e322df8	0.17400348
232	0xbd5da578	-0.05411288
233	0x3cb58f67	0.022163106
234	0x3e0116d3	0.12606363
235	0x3e1e294a	0.15445438
236	0x3dd3d0b0	0.10342538
237	0x3df149b0	0.11781633
238	0x3b107a75	0.0022045646
239	0x3e3e82bc	0.18604559
240	0xbc90aa46	-0.017659318
241	0xbdced388	-0.1009894
242	0xbe0e5638	-0.13900077
243	0x3d78bb2c	0.060725376
244	0x3e164fba	0.14678851
245	0xbe391a6a	-0.18076482
246	0xbcc0e7b6	-0.023547988
247	0x3e066c27	0.13127194
248	0xbcce8c03	-0.025213247
249	0x3d8040a3	0.062623285
250	0xbe11d87d	-0.1424274
251	0x3e02576c	0.12728661
252	0x3e00864f	0.12551235
253	0x3dfa9824	0.1223605
254	0xbe0636e1	-0.13106872
255	0x3df449af	0.119281165

bias_ih_l1 f4 [120]
0	0x3dc541dd	0.09631703
1	0xbdaef838	-0.08543438
2	0x3d798e49	0.06092671
3	0x3d9e535e	0.07730745
4	0x3d6a6acc	0.057230756
5	0x3e0269a1	0.12735607
6	0xbde5d309	-0.112218924
7	0x3e1d9edb	0.1539263
8	0xbe137de7	-0.14403497
9	0x3deda4c2	0.11603691
10	0x3ddd1511	0.10795034
11	0x3d3fbfba	0.046813704
12	0xbcfb4c9c	-0.030676179
13	0xbd1ed7b1	-0.038779918
14	0x3e21a15d	0.15784211
15	0x3d4d8325	0.050173897
16	0xbcfe5c92	-0.03105
17	0x3dbf4413	0.09339156
18	0x3e355a97	0.17710339
19	0xbd1e6d81	-0.03867865
20	0xbdb0f153	-0.08639779
21	0x3e3190f4	0.17340451
22	0xbc08d90b	-0.008352528
23	0x3d227564	0.039662734
24	0xbe03411d	-0.12817807
25	0x3e26119d	0.16217656
26	0xbdfd5787	-0.1237021
27	0x3d811da7	0.06304484
28	0xbe0187e4	-0.12649494
29	0x3da94743	0.08265545
30	0xbd325269	-0.043535624
31	0x3dc66edb	0.09689113
32	0x3db5b3a7	0.088721566
33	0x3c1b6c7f	0.009486317
34	0x3dff6538	0.12470478
35	0xbc098dd4	-0.008395631
36	0xbd2076e5	-0.039175887
37	0x3dc2e5a8	0.0951646
38	0x3dbb04f8	0.09131807
39	0xbd3e5eef	-0.046477254
40	0xbd9e92c4	-0.07742837
41	0xbdd3ec8f	-0.10347854
42	0x3dcb9c5a	0.09941931
43	0x3e3e009d	0.18554921
44	0x3d05a590	0.032628596
45	0x3cb7b222	0.022423808
46	0xbd22a9b5	-0.039712626
47	0xbd768c3a	-0.060192324
48	0xbdc037de	-0.09385656
49	0xbdeb7b1c	-0.114980906
50	0x3e0d68b4	0.13809472
51	0xbdaab579	-0.083353944
52	0xbdc5e113	-0.0966207
53	0xbda32c2e	-0.07967411
54	0x3de4bef7	0.11169236
55	0xbdcea7f6	-0.1009063
56	0x3dd40d7f	0.10354137
57	0x3b9b42f2	0.004738205
58	0x3e1e962c	0.15486974
59	0x3d9747e6	0.073867604
60	0x3dd9f7f3	0.10642996
61	0xbd9fd14d	-0.07803593
62	0xbdb8213c	-0.08990714
63	0x3bb94a1e	0.0056545874
64	0x3e25f88d	0.16208096
65	0x3d1e564c	0.038656518
66	0x3cb982d3	0.02264539
67	0x3e07f2ff	0.1327629
68	0xbddc1fb1	-0.10748232
69	0x3d066414	0.032810286
70	0xbe07582b	-0.13217227
71	0xbd00859b	-0.031377416
72	0x3d618deb	0.055066984
73	0xbdd1ce4c	-0.10244426
74	0xbdb87aca	-0.09007795
75	0x3bb9b3e4	0.0056671966
76	0xbe40c806	-0.18826303
77	0xbde056aa	-0.1095403
78	0xbc859d15	-0.016310254
79	0xbdecb6d0	-0.11558306
80	0xbdf51175	-0.1196622
81	0x3e33e7ab	0.17568843
82	0x3dd5a36a	0.104315594
83	0xbdeb7acd	-0.11498032
84	0x3ddc7b4b	0.10765704
85	0x3d8bb997	0.06822508
86	0x3d9b2c9e	0.075768694
87	0xbd85cdee	-0.065334186
88	0xbd8e1bf8	-0.06938928
89	0x3dbb5a2a	0.09148057
90	0x3d7d0cbe	0.06177973
91	0x3d216792	0.039405413
92	0x3e34e54f	0.176656
93	0xbd3c0d76	-0.045911275
94	0x3e0658eb	0.13119857
95	0xbda25bc5	-0.0792766
96	0xbdc3891d	-0.09547637
97	0xba6d11da	-0.00090434926
98	0x3cafe115	0.021469632
99	0xbe222f8b	-0.15838449
100	0x3cb62d78	0.022238478
101	0x3d7c1752	0.061545677
102	0x3e277f91	0.16357256
103	0x3dd03fd6	0.10168426
104	0x3dea8e8f	0.11452972
105	0xbc5e744e	-0.013577534
106	0xbdfe87e0	-0.1242826
107	0xbdc37df7	-0.0954551
108	0x3d854f86	0.065093085
109	0x3e036121	0.1283002
110	0xbe062770	-0.13100982
111	0x3d86f6e5	0.0659006
112	0x3ca07756	0.019588154
113	0xbe3b6209	-0.18299116
114	0x3e1ef645	0.15523632
115	0x3da1549a	0.078774646
116	0xbc403c21	-0.011733086
117	0x3cf25337	0.029580696
118	0x3cde0431	0.027101608
119	0x3df80015	0.12109391

bias_hh_l1 f4 [120]
0	0x3d9a4527	0.07532721
1	0xbd9cc1d7	-0.076541595
2	0x3d39df7b	0.045379143
3	0x3da24a0d	0.0792428
4	0x3dead10b	0.11465653
5	0xbb1dd638	-0.0024083983
6	0x3dcda1da	0.10040636
7	0xbdab604f	-0.08367979
8	0xbdd737c7	-0.105086856
9	0xbdcf0888	-0.10109049
10	0x3c89c2b8	0.016816482
11	0xbd45c9dd	-0.048288215
12	0xbd56a8b1	-0.05240697
13	0xbcce5ecf	-0.025191693
14	0x3e2704db	0.16310446
15	0x3da9832b	0.082769714
16	0x3def52c5	0.11685709
17	0x3e2c986b	0.16855018
18	0x3e0f3c6e	0.13987896
19	0xbdbd76c3	-0.092511676
20	0xbda8286b	-0.08210834
21	0x3d119526	0.03554263
22	0xbdbc0071	-0.09179772
23	0xbd614290	-0.05499512
24	0xbcb459f4	-0.02201555
25	0x3d751417	0.059833612
26	0x3de6b20a	0.11264427
27	0x3deeb58a	0.116557196
28	0x3d36412a	0.04449574
29	0xbd38c5cc	-0.04511051
30	0x3dbf6154	0.09344736
31	0x3d837feb	0.06420883
32	0x3d9fb1c8	0.07797581
33	0xbd4a8301	-0.04944134
34	0xbdc79924	-0.09746006
35	0xbdad3b77	-0.08458608
36	0xbdf5faa5	-0.12010697
37	0x3d2a5195	0.04158171
38	0x3d050ecc	0.032484815
39	0x3e1dfb7a	0.15427962
40	0x3e1d42fe	0.15357587
41	0x3e08d3d4	0.13362056
42	0xbdbb5b76	-0.09148304
43	0x3e0046e0	0.12527037
44	0xbcaa28e0	-0.020771444
45	0x3dc78b8c	0.09743413
46	0xbd9da858	-0.07698125
47	0x3e39efd0	0.18157887
48	0x3da93fef	0.082641475
49	0x3cd2efb1	0.02574906
50	0x3dcf0f14	0.10110298
51	0xbd21a7fc	-0.039466843
52	0xbceaa01b	-0.028640797
53	0xbdc09f74	-0.09405413
54	0xbdd1d4f9	-0.102456994
55	0xbdeef9a7	-0.11668711
56	0xbd7aabc2	-0.061198957
57	0x3dc20279	0.09473128
58	0xbcd789ed	-0.026310885
59	0x3de630f7	0.11239808
60	0x3db387c0	0.08766127
61	0x3cd69c8c	0.026197694
62	0x3d2a4e2e	0.041578464
63	0x3d60683d	0.05478691
64	0xbe18eb69	-0.14933552
65	0x3dc39668	0.09550172
66	0xbc423cc0	-0.011855304
67	0x3e46ca83	0.1941319
68	0x3d2899d9	0.041162346
69	0xbd61dbcd	-0.05514126
70	0xbe15cd62	-0.14629129
71	0x3dd5d386	0.104407355
72	0x3d87c8d0	0.06630099
73	0xbd9e6c6c	-0.077355236
74	0x3d7fa857	0.0624164
75	0xbce45110	-0.027870685
76	0xbe0826c4	-0.13296038
77	0x3cd5019a	0.02600174
78	0xbd99274a	-0.07478197
79	0x3da98b1a	0.08278485
80	0x3dc0bdd5	0.094112076
81	0x3e0d513b	0.13800518
82	0x3c4b4f38	0.012409024
83	0xbdf39a63	-0.11894681
84	0xbbee5a78	-0.0072739683
85	0x3cb9189d	0.022594744
86	0x3de4d27a	0.11172958
87	0xbd989a83	-0.07451346
88	0x3b3525dd	0.0027640976
89	0xbe1b7602	-0.15181735
90	0x3d24b7a6	0.040214203
91	0x3cc85e7e	0.02445912
92	0xbc938600	-0.018008232
93	0xbd8f1285	-0.06985954
94	0xbe092196	-0.13391718
95	0xbc895bd4	-0.01676742
96	0x3e18ef45	0.14935024
97	0x3d8317c4	0.06401017
98	0xbde52051	-0.111878045
99	0x3d623b4c	0.05523233
100	0xbc50846f	-0.012726887
101	0xbcc0bc25	-0.023527214
102	0x3e32f683	0.1747685
103	0x3d969521	0.07352663
104	0xbdee56aa	-0.116376236
105	0xbd457fa1	-0.04821742
106	0x3ddc9c5c	0.10772011
107	0xbdf7c818	-0.12098712
108	0xbe0ef1be	-0.13959405
109	0xbd7db2c7	-0.061938073
110	0x3d9fde37	0.07806056
111	0x3dc0ebda	0.09419985
112	0xbe1b5ec1	-0.15172864
113	0xbe3ee1c5	-0.18640812
114	0xbd4ae7e2	-0.049537547
115	0x3dfd7d85	0.123774566
116	0xbe29cdff	-0.16582488
117	0xbdc30735	-0.09522859
118	0x3d96215e	0.07330583
119	0x3e000868	0.12503207

weight f4 [40, 40]
0	0xbda7dee2	-0.081968084
1	0x3dabb6f3	0.08384504
2	0xbd93e212	-0.07220854
3	0xbdd00833	-0.10157814
4	0xbe16b024	-0.1471563
5	0x3db27c63	0.08715131
6	0xbe040702	-0.12893298
7	0x3da72c33	0.08162727
8	0x3d8b12b6	0.06790678
9	0xbdf389cb	-0.11891516
10	0xbcd8fad2	-0.026486788
11	0x3d5f1973	0.05446763
12	0xbdbd93f2	-0.09256734
13	0xbd2d8e2e	-0.04237192
14	0xbdfa9d03	-0.12236979
15	0xbd95e515	-0.073190846
16	0x3d602ce4	0.05473031
17	0x3e1175d0	0.14205098
18	0xbde566c8	-0.112012446
19	0x3d9d0d48	0.07668549
20	0xbdda388b	-0.10655316
21	0x3d9e6f66	0.07736091
22	0x3d6a288e	0.057167582
23	0x3e23ec73	0.16008167
24	0x3d9bd31a	0.07608624
25	0xbe1f4157	-0.15552269
26	0x3daae371	0.08344162
27	0xbe08824b	-0.13330953
28	0xbc3c79e6	-0.011503672
29	0x3e26051d	0.16212888
30	0xbe1d4430	-0.15358043
31	0x3d6e49dd	0.05817591
32	0x3d4cce96	0.050001703
33	0x3c6d255e	0.014474241
34	0x3d8ce453	0.06879487
35	0x3e1fa75e	0.1559119
36	0xbe0fdbb8	-0.1404866
37	0x3d9c66b5	0.07636777
38	0xbdd238fd	-0.10264776
39	0x3e36ac31	0.17839123
40	0x3d9c0d89	0.07619769
41	0x3da9ad39	0.08284993
42	0xbca8d92f	-0.020611374
43	0xbdd5f1ca	-0.10446508
44	0xbdac3c24	-0.084099084
45	0xbdbbd444	-0.09171346
46	0x3e12091d	0.14261289
47	0x3e2a46b9	0.16628541
48	0x3e237a30	0.1596458
49	0xbd738834	-0.059456065
50	0xbe1c0d2a	-0.15239397
51	0xbdec2fdb	-0.11532565
52	0x3c457bc9	0.012053438
53	0x3de2ff22	0.11083819
54	0xbd1cab43	-0.038249265
55	0xbdd5d6b0	-0.10441339
56	0xbc960016	-0.018310588
57	0xbd4226de	-0.047400348
58	0xbdd8a132	-0.105776206
59	0x3d9dfaeb	0.077138744
60	0x3d4ab1fa	0.049486138
61	0xbe2fe145	-0.17175777
62	0xbda6a80a	-0.0813752
63	0x3dca1a33	0.09868278
64	0xbdc5ef4d	-0.096647836
65	0x3cc7fcc9	0.02441253
66	0xbd0cdc16	-0.034389578
67	0x3cb93de2	0.022612516
68	0xbdf7195f	-0.12065386
69	0xbde11047	-0.10989433
70	0x3e193dfd	0.14965053
71	0xbdda0ea5	-0.106473245
72	0x3e090b14	0.13383132
73	0x3dd41a01	0.10356522
74	0xbe2528aa	-0.16128793
75	0xbe3187a4	-0.17336899
76	0x3b190bb6	0.0023352928
77	0x3e06097f	0.1308956
78	0x3e0e039d	0.13868566
79	0xbb89fe5f	-0.0042112316
80	0xbdad3594	-0.08457485
81	0x3e109b79	0.14121808
82	0x3df4e3f6	0.119575426
83	0xbe1ae439	-0.15126123
84	0x3e000bbb	0.12504475
85	0x3d816692	0.06318392
86	0x3cc7b9f2	0.024380658
87	0xbde7cb00	-0.11318016
88	0x3d8adaea	0.06780036
89	0x3c510cfc	0.012759443
90	0x3d8ce25b	0.068791114
91	0xbdd321fc	-0.103092164
92	0x3e336695	0.175196
93	0x3d91d707	0.07121091
94	0x3d411e72	0.047148176
95	0x3d82c044	0.06384328
96	0xbdd1eff3	-0.10250845
97	0xba82da14	-0.0009983205
98	0xbe069e56	-0.13146338
99	0xbd72a724	-0.05924143
100	0xbe0c04e8	-0.13673747
101	0xbde4c19b	-0.1116974
102	0xbcacf4fd	-0.021112913
103	0x3e4709d8	0.19437349
104	0xbd9f22c6	-0.077703044
105	0xbdc58bf0	-0.096458316
106	0x3e2eb501	0.17061235
107	0xbdc53bcb	-0.09630545
108	0xbde75531	-0.11295546
109	0xbb376477	-0.0027983466
110	0xbda983ff	-0.082771294
111	0x3db935aa	0.09043439
112	0xbd2fd2d5	-0.042925674
113	0x3c8d78ba	0.017269481
114	0x3dea4b80	0.11440182
115	0x3db26905	0.08711437
116	0x3d9a23d4	0.07526365
117	0xbd2e1c83	-0.04250766
118	0x3e12a180	0.1431942
119	0x3de70d8f	0.11281883
120	0x3e1e7ef1	0.15478112
121	0xbb24f15a	-0.002516827
122	0x3a938b28	0.0011256682
123	0xbccb8605	-0.024844179
124	0xbe078171	-0.13232972
125	0x3e2294f8	0.1587714
126	0xbcbe8b53	-0.023259794
127	0xbda499e9	-0.080371685
128	0xbb1b6dbe	-0.0023716534
129	0xbda5377e	-0.08067225
130	0x3d8b51ba	0.068026975
131	0x3d42bc86	0.04754307
132	0x3e25339f	0.16132973
133	0x3e2db197	0.16962276
134	0x3de9c492	0.11414446
135	0xbcb03294	-0.021508493
136	0x3e0eaa1b	0.13932078
137	0x3d1503b4	0.036380485
138	0xbda96457	-0.082710914
139	0xbdf74b01	-0.12074853
140	0xbd31b828	-0.043388516
141	0x3c29aac9	0.01035566
142	0x3d22fc2d	0.039791275
143	0xbda4b096	-0.080414936
144	0xbe3643cd	-0.17799301
145	0xbdd217d6	-0.102584526
146	0x3da456d0	0.08024371
147	0x3e038e14	0.12847167
148	0x3e0676f8	0.1313132
149	0x3de159ea	0.11003478
150	0x3e059db9	0.13048448
151	0xbdbe17db	-0.09281894
152	0x3bd02e4b	0.006353175
153	0x3c58ae63	0.013225171
154	0xbc186482	-0.009301307
155	0xbdcbcf46	-0.09951644
156	0xbe15aa55	-0.14615758
157	0xbdea473f	-0.1143937
158	0x3d91a7fd	0.07112119
159	0x3dd976ba	0.106183484
160	0x3e36394c	0.17795295
161	0x3e005057	0.12530647
162	0x3cd27227	0.025689198
163	0x3d71cfba	0.059035994
164	0xbe17c476	-0.14821038
165	0x3e4e2088	0.20129597
166	0xbcf40c2a	-0.029790957
167	0xbdaa5f4e	-0.08318959
168	0x3d5df928	0.054192692
169	0xbd1d6ba6	-0.03843274
170	0x3e1cc4ca	0.15309444
171	0x3c21c166	0.00987277
172	0xbdacc2db	-0.08435603
173	0x3e0be58b	0.13661782
174	0x3dee6e8f	0.11642181
175	0x3da4c10e	0.08044635
176	0xba98154e	-0.0011603029
177	0x3da90261	0.08252407
178	0x3c3275b3	0.0108923195
179	0xbe266e41	-0.16252996
180	0xbe06aece	-0.1315262
181	0x3dfd9061	0.12381054
182	0xba980dea	-0.0011600826
183	0x3da1a186	0.07892136
184	0x3e032c9a	0.12809983
185	0xbd755699	-0.05989704
186	0xbcf7ef34	-0.030265428
187	0x3dd86259	0.10565633
188	0xbd257e88	-0.040403873
189	0x3da6fe05	0.08153919
190	0x3dc65b47	0.096853785
191	0x3d4109dc	0.047128543
192	0x3d806c5a	0.062706664
193	0xbda1575a	-0.07877989
194	0xbd279f4a	-0.040923394
195	0x3dd35d99	0.10320587
196	0x3ceb443b	0.028719058
197	0xbe2d3930	-0.16916347
198	0xbe120aeb	-0.14261977
199	0xbd3b3f58	-0.045714706
200	0x3dae0e3f	0.08498811
201	0xbd3361ac	-0.04379432
202	0xbe34398b	-0.17600076
203	0x3e012f6f	0.1261575
204	0x3e303558	0.17207849
205	0xbbffa472	-0.007801586
206	0x3d53eb7a	0.05173824
207	0x3df874c8	0.12131649
208	0xbe18f415	-0.1493686
209	0xbdfc35e7	-0.123149686
210	0xbdf08307	-0.117437415
211	0x3de451fa	0.11148448
212	0xbd7c7153	-0.061631512
213	0xbd1f9ca8	-0.03896776
214	0xbaf7c507	-0.0018903323
215	0xbe32199b	-0.1739258
216	0xbe17f067	-0.148378
217	0xbd1ebe56	-0.038755737
218	0x3e0686b1	0.13137318
219	0xbdbb49f7	-0.09144967
220	0xbda3763b	-0.07981535
221	0xbd4efdbf	-0.05053496
222	0x3e01ea18	0.12686956
223	0xbd9b14b5	-0.07572309
224	0xbd3166b7	-0.043310847
225	0xbca4106d	-0.020027364
226	0x3dbc3de3	0.091914915
227	0xbe3af3d1	-0.18257071
228	0x3ca0bd35	0.019621471
229	0xbd0ccbbd	-0.034373987
230	0xbd674e4d	-0.056471158
231	0xbd23be7e	-0.03997659
232	0x3d9b75c1	0.07590819
233	0x3de76584	0.112986594
234	0x3da264a7	0.07929354
235	0xbe18e0c6	-0.14929494
236	0xbd9a5026	-0.07534818
237	0xbc99fca5	-0.018797228
238	0x3d63d3e0	0.05562198
239	0x3de1a828	0.110184014
240	0x3cb8c6fe	0.022555824
241	0x3e10c22b	0.14136569
242	0x3e25d165	0.16193159
243	0xbde0b34e	-0.109717
244	0xbb5f0d5e	-0.0034035067
245	0x3e102a3c	0.14078611
246	0x3dfa2334	0.12213746
247	0xbd8f443e	-0.06995438
248	0xbd7b35b4	-0.061330512
249	0x3e009432	0.12556532
250	0xbd1d0f7e	-0.038344853
251	0xbd999ee3	-0.07501008
252	0xbb0e21f5	-0.002168772
253	0xbd7bfa73	-0.061518144
254	0xbe014a7a	-0.12626067
255	0x3d069474	0.03285642

bias f4 [40]
0	0xbd8060f7	-0.062684946
1	0xbd26e13f	-0.040742155
2	0x3d8a12c1	0.06741858
3	0xbc06de6a	-0.008231739
4	0x3d6a63ca	0.057224073
5	0xbe010ae2	-0.12601808
6	0x3e23285d	0.15933366
7	0xbd647146	-0.05577209
8	0xbdffcc63	-0.124901555
9	0x3dc33ae4	0.09532717
10	0x3e011b38	0.1260804
11	0x3df12394	0.11774364
12	0xbd564ced	-0.052319456
13	0x3cc932ae	0.024560299
14	0xbd603445	-0.054737348
15	0xbca1bd03	-0.019743448
16	0x3dcf4617	0.101207905
17	0x3d3d0eb4	0.0461566
18	0x3ccf0adc	0.025273733
19	0x3dc3cf2d	0.09561
20	0xb844f520	-4.6958332e-05
21	0xbd50fa3b	-0.05101989
22	0xbd402163	-0.04690684
23	0xbc5d048b	-0.013489853
24	0x3cc34891	0.023838313
25	0x3d493be2	0.049129374
26	0x3cc4199f	0.023937998
27	0x3e00546d	0.12532206
28	0xbe0abd3b	-0.13548748
29	0x3d074181	0.033021454
30	0x3d8b9fe7	0.06817608
31	0x3b749fa2	0.0037326594
32	0xbd5ef5cf	-0.05443364
33	0xbde4401a	-0.11145039
34	0x3dd62dcd	0.104579546
35	0x3ad35da6	0.0016125932
36	0xbdc4cb27	-0.09609061
37	0x3df5ae30	0.11996114
38	0x3dd45142	0.10367061
39	0x3d04fca9	0.032467518
