Results/2330_generator1_adjusted.pth (torch, 159945 bytes, 32 tensors)

weight_ih_l0 f4 [120, 20]
0	0xbe3c452d	-0.18385763
1	0xbbe593f4	-0.007006163
2	0xbe20d115	-0.15704758
3	0x3da45dc1	0.08025695
4	0xbdcddbcd	-0.10051689
5	0xbcd140e4	-0.025543638
6	0x3d833953	0.06407418
7	0xbe03a304	-0.12855154
8	0x3d4d192d	0.050072838
9	0xbdc871dd	-0.09787343
10	0x3d9966fc	0.07490346
11	0xbe314544	-0.17311579
12	0x3dd17bf4	0.1022872
13	0xbd5af2ab	-0.053454082
14	0xbe4fe2c5	-0.2030135
15	0x3dadeeee	0.08492838
16	0x3dc482eb	0.09595283
17	0xbe437746	-0.19088468
18	0xbd4ce573	-0.050023507
19	0x3bbf9630	0.005846761
20	0xbd3c18a3	-0.045921933
21	0xbd2e88a2	-0.042610772
22	0xbcc1668c	-0.023608468
23	0x3defe465	0.11713485
24	0x3d46e0ae	0.048554115
25	0x3e070808	0.13186657
26	0x3d15b39f	0.036548253
27	0xbc839684	-0.016062982
28	0xbc86b973	-0.016445851
29	0xbd4ef925	-0.05053057
30	0x3de1ac76	0.110192224
31	0x3d91a30b	0.07111176
32	0xbe44f927	-0.19235669
33	0xbdd5f71d	-0.10447524
34	0x3d95d24d	0.07315502
35	0x3daedd61	0.085383184
36	0x3d939268	0.07205659
37	0xbe2eb710	-0.1706202
38	0x3c660067	0.014038182
39	0xbddf8860	-0.10914683
40	0x3d4a01f0	0.049318254
41	0x3e4b886d	0.19876261
42	0x3dfdfb78	0.124014795
43	0x3d5f86ea	0.054572023
44	0x3e55d061	0.20880271
45	0x3e64bb5f	0.22337101
46	0x3c76cea4	0.015063915
47	0x3c8d3a9f	0.017239867
48	0x3dc73cfe	0.0972843
49	0x3dafa3a4	0.08576134
50	0x3a972876	0.0011532444
51	0xbdbdf9ba	-0.09276147
52	0x3e17ba94	0.14817268
53	0xbd71442c	-0.058902904
54	0x3dbf1054	0.09329286
55	0x3e2d6583	0.16933255
56	0xbe69901d	-0.22808881
57	0xbdee0cd1	-0.11623538
58	0x3bc05beb	0.0058703325
59	0xbdbe8a1c	-0.09303686
60	0x3d4f317c	0.0505843
61	0xbdd743bc	-0.10510966
62	0x3d3e0205	0.046388645
63	0xbd9c4bc8	-0.076316416
64	0xbdd5a6ab	-0.1043218
65	0x3dd6f264	0.10495451
66	0xbd0e3668	-0.034719855
67	0x3e278215	0.16358216
68	0xbde2bf55	-0.1107165
69	0x3e0cd91b	0.13754694
70	0x3db8d803	0.09025576
71	0xbddab3f9	-0.10678858
72	0xbdd46a2d	-0.10371814
73	0x3dc654d7	0.09684151
74	0xbe35cb84	-0.17753416
75	0xbdd1ce9e	-0.10244487
76	0x3decf7a2	0.1157067
77	0xbd19451c	-0.037419423
78	0x3d316df1	0.04331774
79	0xbdbf47da	-0.093398765
80	0xbd0f8471	-0.035038415
81	0x3cf9f9dc	0.03051465
82	0xbe4ea105	-0.20178612
83	0xbd5a6676	-0.05332037
84	0x3d212baa	0.039348282
85	0x3dd37fa1	0.10327078
86	0x3d21ad02	0.039471634
87	0x3ce8da46	0.028424393
88	0xbdba14db	-0.09086009
89	0xbd8cea3e	-0.06880616
90	0xbd382cdf	-0.044964667
91	0xbc8f6d10	-0.01750806
92	0xbe2d7999	-0.16940917
93	0xbe245ef7	-0.16051851
94	0xbba26cfd	-0.00495684
95	0xbe44be23	-0.19213156
96	0xbe22c35b	-0.15894835
97	0x3e14e428	0.1454016
98	0x3e18010b	0.14844148
99	0xbe67c0a5	-0.22632082
100	0x3e073ba8	0.13206351
101	0x3cc55d26	0.024092268
102	0xbabb6aec	-0.0014298833
103	0xbe081a47	-0.13291274
104	0xbda9ba1e	-0.08287452
105	0xbdaaa3dd	-0.08332036
106	0x3bae3a78	0.0053170286
107	0xbdb6ab93	-0.08919444
108	0xbcff96cc	-0.031199835
109	0xbd8fd293	-0.07022586
110	0x3e18ad9a	0.14909974
111	0x3dadbcc3	0.08483269
112	0x3e7004a7	0.23439275
113	0x3e603b9e	0.21897742
114	0x3e3e4a4f	0.18583034
115	0xbd1f1300	-0.03883648
116	0x3dc68b67	0.09694558
117	0x3e34c3e8	0.17652857
118	0x3de9a363	0.11408117
119	0x3e994f1c	0.29943168
120	0x3e129ff1	0.14318825
121	0x3dcd12e1	0.100133665
122	0x3da6f373	0.08151903
123	0x3e022b23	0.12711768
124	0xbda206f7	-0.07911485
125	0xbcc5c367	-0.024141027
126	0x3de3ec92	0.111291066
127	0x3cf8bf1c	0.030364566
128	0x3e1190d2	0.14215401
129	0x3cbb04ad	0.022829378
130	0xbc8dcf07	-0.017310632
131	0xbda93a37	-0.08263057
132	0xbd441ad5	-0.04787715
133	0xbd077e82	-0.03307963
134	0x3d73a14f	0.059480008
135	0xbddb1395	-0.10697094
136	0x3e0f2bf3	0.13981609
137	0xbe15d9d8	-0.14633882
138	0xbe08731a	-0.13325158
139	0x3d8ab500	0.06772804
140	0xbdcfd19a	-0.101474
141	0xbd54d7cf	-0.051963624
142	0x3e2d464f	0.16921352
143	0x3c5cf372	0.013485776
144	0xbdb84056	-0.08996646
145	0xbdbd852c	-0.09253916
146	0x3c865dda	0.016402174
147	0xbd42bb7e	-0.047542088
148	0xbdca9360	-0.09891391
149	0x3e2ee839	0.17080773
150	0x3dc15f0c	0.09441957
151	0x3d75129a	0.059832193
152	0x3d8a4fb2	0.06753482
153	0xbdc27db0	-0.09496629
154	0x3d515fb4	0.05111666
155	0xbda28f16	-0.07937448
156	0xbe23fb4a	-0.16013828
157	0x3b001661	0.001954459
158	0x3d303aac	0.043024704
159	0x3e213817	0.15744053
160	0x3de9c297	0.11414068
161	0x3db53cb9	0.088494726
162	0x3bbab3ec	0.005697718
163	0xbdde7a01	-0.10863114
164	0x3e00232b	0.12513416
165	0xbd2b4d2a	-0.041821636
166	0x3e14cb64	0.14530712
167	0xbc216474	-0.00985061
168	0x3d89956e	0.067179546
169	0x3d4affbf	0.049560305
170	0x3d4e7471	0.050404016
171	0x3c963517	0.018335862
172	0xbe2d1d4c	-0.16905707
173	0x3e0ad74b	0.1355869
174	0xbdc9fbd1	-0.09862483
175	0xbd78f30e	-0.06077867
176	0xbbd7a480	-0.006580889
177	0x3d379b4c	0.044825837
178	0xbdb56d45	-0.08858732
179	0x3de7a578	0.113108575
180	0x3df67079	0.12033171
181	0x3e04ddc2	0.12975219
182	0x3db211f1	0.08694828
183	0xbd5f1328	-0.05446163
184	0x3dd5c421	0.10437799
185	0xbda63764	-0.08116034
186	0x3dcee15c	0.10101578
187	0xbbfb334d	-0.0076660276
188	0xbd2bbfc2	-0.04193092
189	0xbca883f2	-0.020570729
190	0xbdbb3801	-0.09141541
191	0x3d4c5d98	0.049893945
192	0xbe53850d	-0.20656224
193	0x3dc25a86	0.09489922
194	0x3c60c4ed	0.013718826
195	0xbe44c5fe	-0.19216153
196	0xbcc81569	-0.024424272
197	0xbc773472	-0.0150881875
198	0xbcae97fd	-0.021312708
199	0x3d9e81fb	0.077396356
200	0xbdc025af	-0.093821876
201	0x3d8cfac1	0.06883765
202	0xbe0c68de	-0.13711879
203	0xbd8fbfd5	-0.07019011
204	0x3dbaf843	0.091293834
205	0xbe31cfdb	-0.17364447
206	0xbdb8ec35	-0.09029428
207	0xbe1cb11d	-0.15301938
208	0x3c8c7d9e	0.017149743
209	0xbe3c99b9	-0.18418016
210	0x3d0d96b4	0.03456755
211	0xbdbc4a7e	-0.09193896
212	0x3d6fab69	0.05851308
213	0xbd5112ed	-0.05104344
214	0xbd86d82a	-0.06584199
215	0xbe72be45	-0.23705395
216	0x3de8d4eb	0.11368736
217	0x3dac596f	0.084154956
218	0xbe25e10b	-0.16199128
219	0x3c906936	0.017628293
220	0xbd25be4c	-0.040464684
221	0xbe2216d7	-0.15829025
222	0x3e1d148c	0.1533987
223	0x3db4c0ea	0.08825858
224	0xbce67023	-0.028129643
225	0xbcdb88a2	-0.02679855
226	0x3dfc542f	0.12320744
227	0x3d12d08e	0.035843424
228	0xbe0075d0	-0.12544942
229	0xbdde7090	-0.10861313
230	0xbdcb1435	-0.099159636
231	0x3db4e0c2	0.08831932
232	0x3c0e7893	0.008695739
233	0xbe01e4b4	-0.126849
234	0xbd875848	-0.06608635
235	0xbce6e2b6	-0.028184276
236	0xbcc350a9	-0.023842173
237	0x3d3a4af2	0.04548163
238	0xbd5d16a3	-0.053976666
239	0xbc832e2a	-0.016013224
240	0x3d40e080	0.0470891
241	0xbd41c766	-0.0473093
242	0xbd87ae13	-0.06624999
243	0xbbc8675d	-0.0061158375
244	0xbc8ce690	-0.017199785
245	0x3de2da1a	0.11076756
246	0x3dfb009b	0.12255975
247	0xbdca6ce8	-0.098840535
248	0x3def3386	0.11679749
249	0x3ce419e6	0.02784438
250	0xbdbc7173	-0.09201326
251	0x3e17bd79	0.14818372
252	0x3d8a0ae4	0.067403585
253	0x3d2d5fd5	0.04232772
254	0xbdb0ff78	-0.08642477
255	0x3d533272	0.05156178

weight_hh_l0 f4 [120, 40]
0	0x3d120539	0.035649512
1	0x3dd11fd6	0.1021115
2	0x3b87a311	0.004139312
3	0xbd24a505	-0.040196437
4	0xbd93f28e	-0.07223998
5	0xbdb7a25f	-0.08966517
6	0x3aeadd3c	0.0017918716
7	0xbe20c549	-0.15700258
8	0x3da7538b	0.081702314
9	0x3c68172e	0.014165683
10	0xbe371973	-0.17880802
11	0xbce78a15	-0.028264085
12	0xbdb4bec7	-0.088254504
13	0xbcaaca56	-0.020848434
14	0xbe1c8394	-0.15284568
15	0x3da58d9f	0.08083653
16	0xbd462a44	-0.04838015
17	0xbd15bee0	-0.036558986
18	0x3d940dfb	0.07229229
19	0x3e0d31a1	0.13788463
20	0x3e336462	0.17518762
21	0xbd066464	-0.032810584
22	0x3e2dec24	0.16984612
23	0x3e07191c	0.13193172
24	0x3e4dac4d	0.20085259
25	0xbd89150e	-0.06693469
26	0x3e3c4a96	0.18387827
27	0x3e1cac25	0.15300043
28	0xbd4cdb63	-0.05001391
29	0x3d820b55	0.06349818
30	0x3da9a84c	0.08284053
31	0x3ca62cf5	0.020285109
32	0xbcacb9aa	-0.021084625
33	0xbe07d5dd	-0.13265176
34	0x39ad088c	0.000330035
35	0x3be4a60c	0.006977802
36	0x3ca79ae0	0.020459592
37	0x3d76b58e	0.060231738
38	0xbda9a1c4	-0.082828075
39	0xbd340c4e	-0.043957047
40	0xbd0831de	-0.033250682
41	0xbdae31d3	-0.08505597
42	0x3d80d984	0.06291488
43	0x3e00a7d5	0.12564023
44	0x3d8f7dbc	0.07006404
45	0x3c72e0c0	0.014824092
46	0x3c80a1ca	0.015702147
47	0x3cd3ce42	0.025855187
48	0xbd7949e1	-0.060861472
49	0xbddabcfc	-0.10680577
50	0x3d15f8f2	0.036614366
51	0x3e293750	0.16525006
52	0xbdd1d449	-0.10245568
53	0xbd28d2c1	-0.041216616
54	0x3cf10126	0.029419493
55	0xbdb5590c	-0.08854875
56	0xbe0994e9	-0.13435711
57	0xbc0b19da	-0.00849005
58	0xbe38dfb0	-0.1805408
59	0xbdddd473	-0.10831537
60	0xbc0b4e44	-0.008502547
61	0xbd1befc7	-0.038070466
62	0x3da6cc7e	0.081444725
63	0x3d92175d	0.071333624
64	0xbdec0da5	-0.1152604
65	0x3b2ca7b3	0.0026345074
66	0xbc5d5cdb	-0.013510908
67	0x3c1e564d	0.00966413
68	0x3e07995b	0.13242094
69	0xbd224c11	-0.039623324
70	0x3d778ec5	0.06043889
71	0xbe0b358a	-0.13594642
72	0xbdc8aeb4	-0.09798947
73	0xbdcf8d3c	-0.1013436
74	0x3ddc1034	0.10745278
75	0xbd7242af	-0.059145626
76	0x3e03729c	0.12836689
77	0xbd381a29	-0.044946823
78	0x3db24369	0.08704264
79	0xbe188509	-0.14894499
80	0xbe1e68dd	-0.1546969
81	0xbe5f7a3e	-0.21823975
82	0xbc480abd	-0.012209591
83	0x3da1ae21	0.078945406
84	0xbd17c51a	-0.037053205
85	0x3e2f8c47	0.17143355
86	0xbe0abae1	-0.13547851
87	0x3d0e20b8	0.03469917
88	0xbdb796d8	-0.08964318
89	0xbe072b6f	-0.13200162
90	0x3cd4a4fd	0.025957579
91	0x3d5d3a67	0.054010775
92	0xbc135909	-0.008993396
93	0xbe25616f	-0.16150449
94	0x3db34ae8	0.087545216
95	0x3e0e0124	0.13867623
96	0xbe1be37c	-0.15223497
97	0x3d05979f	0.0326153
98	0x3d278e04	0.04090692
99	0x3d9f56ed	0.07780252
100	0x3e3e7579	0.185995
101	0x3b9aa58e	0.0047194427
102	0xbdc1b1a3	-0.0945771
103	0x3dced667	0.10099488
104	0xbc378735	-0.011201669
105	0xbdddc3ed	-0.108283855
106	0x3e19e1da	0.15027562
107	0xbd6c483f	-0.057686087
108	0xbe5c13fa	-0.21491995
109	0xbe014ef0	-0.12627769
110	0x3d402290	0.04690796
111	0x3c99b1cc	0.018761538
112	0xbe0e1e8a	-0.13878837
113	0xbd52f838	-0.05150625
114	0x3d7e2f18	0.06205663
115	0xbe04e7cc	-0.12979048
116	0x3b0acc50	0.0021178909
117	0xbd3b8519	-0.04578123
118	0x3d69b765	0.057059664
119	0xbe29112b	-0.16510455
120	0x3e0191ad	0.12653227
121	0xbdee1eb0	-0.11626947
122	0x3d84eadc	0.06490108
123	0x3e23a3b1	0.15980412
124	0xbe270bcd	-0.16313095
125	0xbc6f6a60	-0.014612764
126	0xbe07c036	-0.13256916
127	0xbe3f2ce2	-0.18669465
128	0x3dd98bcd	0.10622368
129	0x3d3fac3d	0.04679512
130	0x3ca06ab5	0.019582132
131	0x3dd55951	0.104174264
132	0x3e30a17e	0.17249104
133	0xbaf72bd7	-0.001885767
134	0xbdb87b47	-0.09007888
135	0xbd83d879	-0.06437773
136	0xbd4bd297	-0.04976138
137	0xbda56344	-0.08075574
138	0x3d443117	0.04789838
139	0xbcbbb232	-0.022912119
140	0xbd61c163	-0.05511607
141	0xbe098a7b	-0.13431732
142	0x3dd7c7a4	0.10536125
143	0x3e07b7ba	0.1325368
144	0x3cbd8a50	0.023137242
145	0xbe07611c	-0.13220638
146	0x3e4b5310	0.19855905
147	0xbc675c9a	-0.014121199
148	0x3d9316b2	0.07182063
149	0x3d8451ca	0.064609125
150	0xbe2f7adc	-0.17136711
151	0xbd7bcd77	-0.061475243
152	0x3d8de016	0.069275066
153	0xbc39efe3	-0.011348697
154	0xbe1aaf25	-0.15105875
155	0x3c194c8d	0.00935663
156	0x3d846533	0.06464615
157	0x3dd8227e	0.10553454
158	0xbdb7f339	-0.08981938
159	0x3dd1c307	0.10242277
160	0xbddc0c2e	-0.107445106
161	0x3e0a3c26	0.13499507
162	0xbd3668b3	-0.044533443
163	0x3da70714	0.08155647
164	0xbe0970b9	-0.13421907
165	0xbe5506ae	-0.2080333
166	0x3d8d24cb	0.06891783
167	0xbc292cac	-0.010325592
168	0xbe4218ef	-0.18954824
169	0xbc41e155	-0.0118335085
170	0xbd8cbaab	-0.068715416
171	0x3d0bf3a5	0.034167904
172	0xbdc67c60	-0.096916914
173	0xbd6db853	-0.058037113
174	0x3e3f4939	0.18680276
175	0xbe038831	-0.12844922
176	0x3da921c5	0.08258394
177	0xbd7c54f1	-0.061604444
178	0x3d91a254	0.0711104
179	0xbda11390	-0.078650594
180	0xbe2aaa57	-0.16666542
181	0xbd1dd06f	-0.038528856
182	0x3ddb9dfc	0.107234925
183	0xbd92fe77	-0.071774416
184	0xbd9eb40a	-0.077491835
185	0x3dc2b695	0.09507481
186	0xba6c534c	-0.0009015098
187	0xbe06539d	-0.13117833
188	0xbcff6b69	-0.031179147
189	0x3e62a67c	0.22133821
190	0x3e3242b7	0.17408262
191	0xbe03869f	-0.12844323
192	0x3e0797db	0.13241522
193	0x3d68b7f1	0.056816045
194	0x3e0483c2	0.12940887
195	0xbdb99ca3	-0.09063079
196	0xbe3678b3	-0.1781948
197	0x3df9411d	0.121706225
198	0x3dca5e68	0.09881288
199	0xbc755513	-0.014973897
200	0x3db6ba5d	0.08922265
201	0x3e516abe	0.20450875
202	0x3de77f8b	0.11303624
203	0x3e297676	0.16549096
204	0x3e1ea3f8	0.15492237
205	0xbd05b342	-0.032641657
206	0x3c75228e	0.014961852
207	0xbcb3d382	-0.02195144
208	0x3dab03f6	0.08350365
209	0xbca7794d	-0.020443583
210	0x3df8f320	0.121557474
211	0xbddef489	-0.10886485
212	0xbe619570	-0.22029662
213	0x3e80e38b	0.25173602
214	0x3e5e64d5	0.21718152
215	0xbbe2e7e0	-0.0069246143
216	0x3daaf0e1	0.08346725
217	0xbdc157a5	-0.09440545
218	0x3e37faf5	0.17966826
219	0x3dbbe0ae	0.091737136
220	0xbc380935	-0.011232664
221	0x3d892853	0.06697144
222	0xbd4c7250	-0.049913704
223	0x3dac5271	0.08414162
224	0xbdfea902	-0.124345794
225	0x3e225fa0	0.1585679
226	0x3ca0629a	0.019578267
227	0xbe8693c4	-0.2628461
228	0x3db4b26d	0.088230945
229	0xbe2caef1	-0.1686361
230	0xbd99612f	-0.074892394
231	0x3e05d137	0.1306809
232	0x3d4dd470	0.050251424
233	0x3d999ba2	0.07500388
234	0x3d814c0c	0.06313333
235	0x3c83927a	0.016061056
236	0xbe2a89d7	-0.16654144
237	0xbdafc642	-0.085827366
238	0x3d1ffc75	0.03905912
239	0x3c2285ac	0.009919565
240	0xbd3aa53a	-0.04556773
241	0x3d9ebcc1	0.07750846
242	0xbe32e04f	-0.1746838
243	0x3de6c76a	0.11268504
244	0x3dc19762	0.09452702
245	0xbb2bc5e4	-0.0026210481
246	0x3e053e67	0.13012086
247	0xbd7518ac	-0.059837982
248	0xbdc42b85	-0.09578613
249	0xbce80040	-0.028320432
250	0x3d230201	0.039796833
251	0xbe29b904	-0.16574484
252	0xbdad92d4	-0.08475271
253	0x3bfe6738	0.0077637695
254	0x3ba917db	0.0051603145
255	0x3d90c902	0.07069589

bias_ih_l0 f4 [120]
0	0x3b374ed3	0.0027970567
1	0x3dd58971	0.104266055
2	0xbe712df1	-0.23552682
3	0x3df5c0f0	0.119996905
4	0x3dd63f24	0.10461262
5	0x3d42b2a4	0.047533646
6	0x3e40072d	0.18752737
7	0xbde7ecd8	-0.11324471
8	0x3e54fe92	0.20800236
9	0x3de2d428	0.11075622
10	0xbd0568f1	-0.032570783
11	0x3e37099f	0.17874764
12	0xbd62f005	-0.05540468
13	0xbdf4b9bd	-0.11949489
14	0x3d481c90	0.048855364
15	0xbce42a7c	-0.02785229
16	0x3ddee246	0.10883002
17	0xbdd1c669	-0.10242922
18	0xbde48bc6	-0.11159472
19	0xbe04f1bf	-0.12982844
20	0xbd45f717	-0.048331346
21	0x3dca3c9d	0.09874842
22	0xbd9e5fde	-0.07733129
23	0x3e322c73	0.17399769
24	0x3c81d303	0.015847689
25	0xbc1234ac	-0.008923691
26	0xbdba691c	-0.09102079
27	0x3e28faf3	0.1650198
28	0xbc5b48d0	-0.013384059
29	0x3e330db4	0.17485696
30	0xbe1fe425	-0.15614374
31	0x3dd173a7	0.10227137
32	0x3e33bb49	0.17551912
33	0x3e07369b	0.13204424
34	0xbdab4f5e	-0.083647475
35	0x3c9e9066	0.019355964
36	0xbd0e325a	-0.034715988
37	0x3c174f44	0.009235207
38	0xbe1818e3	-0.14853244
39	0x3da7d27f	0.08194446
40	0x3d77a56a	0.060460486
41	0xbdad7a3c	-0.0847058
42	0xbcca6aa1	-0.024709048
43	0xbe05fbdb	-0.13084356
44	0xbd403bf7	-0.046932187
45	0x3db021b1	0.08600176
46	0xbdf9caa4	-0.12196854
47	0x3da60657	0.08106678
48	0xbe1c320d	-0.15253468
49	0xbd4cee0e	-0.050031714
50	0xbd8fbd58	-0.07018536
51	0x3deebad6	0.1165673
52	0x3d1bf67e	0.03807687
53	0xbdbdf0ba	-0.092744306
54	0xbe0edd4e	-0.13951609
55	0xbdfdaebe	-0.12386845
56	0xbe1a70ef	-0.15082143
57	0xbd7d432a	-0.06183163
58	0xbe2491f0	-0.16071296
59	0xbe016b7c	-0.12638658
60	0x3d36ea0b	0.044656795
61	0xbcc8bc15	-0.024503747
62	0x3dd47d28	0.10375434
63	0xbce09bb9	-0.027418004
64	0xbdf577d1	-0.11985744
65	0xbd9e33a6	-0.07724695
66	0xbd873241	-0.06601382
67	0xbe1579fa	-0.14597312
68	0xbdebc6e4	-0.11512545
69	0xbdd50b66	-0.10402565
70	0x3d95b238	0.07309383
71	0x3d9d545e	0.076821074
72	0x3c618d52	0.013766604
73	0x3d3a1e60	0.045439124
74	0x3dbf4639	0.09339566
75	0xbdd941ba	-0.106082395
76	0xbc55ee0c	-0.013057243
77	0x3bdbed30	0.0067116246
78	0xbd593531	-0.053029243
79	0xbe08b044	-0.1334849
80	0xbc1e56f9	-0.009664291
81	0x3d3e5605	0.046468753
82	0x3c6d3dd3	0.014480072
83	0x3dc21c5e	0.09478067
84	0x3cd4cb56	0.025975864
85	0xbd0d8c3d	-0.03455757
86	0x3cf376c5	0.02971972
87	0xbd27edd7	-0.040998306
88	0xbd86ff21	-0.06591631
89	0x3dc3a91d	0.0955374
90	0x3dc731c2	0.097262874
91	0x3d46b64c	0.048513696
92	0x3c9d3ced	0.01919409
93	0x3e3e14b4	0.18562585
94	0xbc86759a	-0.016413499
95	0xbe19c5b6	-0.15016827
96	0x3dcefcf5	0.101068415
97	0xbe1cdd39	-0.15318765
98	0x3c82a44f	0.015947489
99	0xbe0a0aa8	-0.13480628
100	0xbdfd56a8	-0.12370044
101	0x3e3d800d	0.18505879
102	0xba5b2b16	-0.00083606073
103	0xbdab1a95	-0.083546795
104	0xbdc8a73e	-0.09797524
105	0x3e070406	0.13185129
106	0xbd45c1bb	-0.04828046
107	0xbdc3aa55	-0.09553973
108	0x3e03fc7f	0.12889288
109	0xbd3d0f26	-0.046157025
110	0xbc48fc34	-0.012267161
111	0x3e3f78a1	0.1869836
112	0xbd27fb07	-0.041010883
113	0x3e0008b6	0.12503323
114	0x3dfaed43	0.12252285
115	0x3da02531	0.07819594
116	0xbdfa0e49	-0.12209756
117	0xbe01ddee	-0.12682316
118	0xbe1caf61	-0.15301277
119	0x3dcd56d5	0.100263275

bias_hh_l0 f4 [120]
0	0x3d52f6bb	0.05150483
1	0x3e0acd10	0.13554788
2	0xbc80fdd7	-0.01574604
3	0xbd9e8d27	-0.077417664
4	0x3dc754db	0.09732982
5	0xbd9cc992	-0.07655634
6	0x3e4af1c4	0.19818789
7	0x3e1fc21a	0.15601388
8	0x3e17d113	0.14825849
9	0x3de2ee76	0.11080639
10	0x3e1b8e86	0.15191087
11	0xbe007314	-0.12543899
12	0x3de1932f	0.11014401
13	0xbdfbe838	-0.123001516
14	0x3cb1fdfb	0.021727553
15	0x3cb1135b	0.021615675
16	0x3da082c0	0.078374386
17	0xbda43d6c	-0.08019528
18	0xbd48813e	-0.04895138
19	0xbde8ae48	-0.113613665
20	0x3dcd7217	0.100315265
21	0xbc120a6e	-0.008913619
22	0xbdbc5844	-0.09196523
23	0x3d9a7630	0.07542074
24	0xbcc6c815	-0.024265328
25	0xbe05cab3	-0.13065605
26	0x3dd22fc3	0.10263016
27	0x3e391cae	0.18077347
28	0xbc22e718	-0.009942792
29	0x3e1c82f9	0.15284337
30	0xbda0eb32	-0.0785736
31	0xbbaca3dc	-0.005268557
32	0x3ac7ca50	0.0015242789
33	0x3d8b3d33	0.06798782
34	0xbd3e7c81	-0.046505455
35	0x3c933343	0.01796878
36	0x3e2cc5d4	0.1687234
37	0x3e4000b4	0.18750268
38	0x3c1cd4ec	0.009572249
39	0xbd3089e2	-0.043100245
40	0xbd7bf06c	-0.06150858
41	0x3b6fb672	0.0036577252
42	0x3dcd6686	0.100293204
43	0x3cef8c5d	0.029241735
44	0xbdb32ee9	-0.08749182
45	0x3dc8708e	0.09787093
46	0xbe241528	-0.16023695
47	0xbdc5d803	-0.096603416
48	0xbae96040	-0.0017805174
49	0xbdda0fdf	-0.106475584
50	0x3dab0645	0.08350805
51	0x3d86565d	0.06559441
52	0x3e175171	0.14777161
53	0xbbfb5cc5	-0.007670971
54	0xbd82c549	-0.063852854
55	0xbd96b2c3	-0.07358315
56	0xbdab9e30	-0.08379781
57	0x3d8712e9	0.06595404
58	0xbdc1515b	-0.094393454
59	0xbe07e028	-0.13269103
60	0xbd8a6c0e	-0.06758891
61	0x3d761e6e	0.060087614
62	0x3e08d470	0.13362288
63	0x3ddefca8	0.10888034
64	0xbd51c50d	-0.051213313
65	0x3dd4c268	0.103886425
66	0xbdf92a76	-0.12166302
67	0xbbfe374a	-0.007758056
68	0xba8abed2	-0.0010585433
69	0xbe128e07	-0.14311992
70	0xbd986be0	-0.074424505
71	0xbddd78e7	-0.10814076
72	0x3deedc90	0.11663163
73	0xbbfbeee6	-0.007688391
74	0xbdcde7b5	-0.1005396
75	0xbda07c94	-0.078362614
76	0x3e00c0e2	0.12573579
77	0xbda97199	-0.0827362
78	0xbe07d431	-0.13264538
79	0xbdb44c25	-0.08803586
80	0xbdb83ba7	-0.08995753
81	0x3d517161	0.051133517
82	0x3ca147d4	0.01968757
83	0xbdde055f	-0.10840868
84	0xbcdebe95	-0.027190486
85	0x3d272f4f	0.0408166
86	0x3e1a92e9	0.15095104
87	0x3e158084	0.14599806
88	0xbdd1f967	-0.10252648
89	0xbd4ff1d6	-0.050767742
90	0x3e26b5c7	0.1628028
91	0xbdc41a7f	-0.09575366
92	0xbd8e99e0	-0.06962943
93	0x3d69e373	0.057101678
94	0xbd41fe37	-0.04736158
95	0xbaf4118d	-0.0018620953
96	0x3da8e572	0.08246888
97	0x3dae1d41	0.085016735
98	0xbe15e866	-0.14639434
99	0xbc24d32d	-0.010060114
100	0xbd80f7e8	-0.06297284
101	0xbc773b7c	-0.015089866
102	0xbd8a3cfc	-0.06749913
103	0xbdca3f1d	-0.09875319
104	0xbb4d7918	-0.0031352695
105	0x3db93d34	0.09044877
106	0xbdd47311	-0.1037351
107	0x3dce5987	0.1007567
108	0x3ddcfcc4	0.10790399
109	0xbdc8502a	-0.09780915
110	0xbc71cc4d	-0.014758182
111	0xbd48ed1e	-0.049054258
112	0xbe03fa63	-0.12888484
113	0x3c7bb6ec	0.015363436
114	0xbd443597	-0.04790267
115	0x3dc2ce60	0.09512019
116	0xbca37f9f	-0.019958315
117	0xbd092840	-0.03348565
118	0xbd10c93c	-0.035348162
119	0x3c538379	0.0129097635

weight f4 [40, 40]
0	0x3e01dc4e	0.12681696
1	0x3dccfe47	0.10009437
2	0xbcfefe8b	-0.031127235
3	0x3d3eb7e2	0.046562083
4	0x3e3538b3	0.1769741
5	0xbcdb4a7f	-0.026768921
6	0x3d19e07c	0.0375676
7	0x3db29a27	0.087208085
8	0x3e06d0d1	0.13165595
9	0x3e5badf3	0.21453075
10	0x3b4501a4	0.0030060792
11	0xbd364b53	-0.04450543
12	0xbaeaf713	-0.0017926417
13	0x3d1002fe	0.035159104
14	0x3e1ff1bb	0.15619557
15	0x3d85aafa	0.06526752
16	0x3d8c35df	0.068462126
17	0x3d6dec65	0.05808677
18	0x3b5d702a	0.0033788779
19	0x3e5df2a3	0.2167459
20	0xbbe037f4	-0.0068426076
21	0xbe2f00cf	-0.17090152
22	0x3d855f70	0.06512344
23	0x3e1e9ff1	0.154907
24	0xbe346ce5	-0.17619665
25	0xbdb0d73b	-0.08634802
26	0xbde2d86b	-0.11076435
27	0xbe03b3b9	-0.12861528
28	0xbdd746ad	-0.10511527
29	0x3dcc502d	0.0997623
30	0x3cdc415b	0.026886633
31	0xbca69984	-0.020336874
32	0xbd80d2aa	-0.06290181
33	0x3d8fd3bb	0.07022806
34	0x3dabe337	0.08392947
35	0xbd04cf77	-0.032424416
36	0xbc9cd124	-0.019142695
37	0xbe0af292	-0.13569096
38	0x3d8930cd	0.06698761
39	0xbe047e87	-0.12938891
40	0xbc7e3b5d	-0.015517083
41	0x3e77ac00	0.24186707
42	0xbe1bc209	-0.15210737
43	0x3c83e9cc	0.016102694
44	0x3e5329a0	0.20621347
45	0x3e1d59c1	0.1536627
46	0xbb9aafa3	-0.0047206446
47	0x3e605078	0.21905696
48	0xbdc35236	-0.09537165
49	0x3e3a5e8a	0.18200126
50	0x3e6e8e1d	0.232964
51	0xbd53694a	-0.051614083
52	0xbe12c6e3	-0.14333682
53	0x3e0b0b4d	0.1357853
54	0xbd61cc95	-0.055126745
55	0xbe18a7b0	-0.14907718
56	0x3de913f4	0.11380759
57	0xbc0ddd0a	-0.008658657
58	0x3e4a6fba	0.19769183
59	0xbdb388e7	-0.087663464
60	0xbe8d8c45	-0.2764608
61	0xbdd09a89	-0.10185725
62	0xbde6a539	-0.112619825
63	0xbdbbce53	-0.091702126
64	0xbe33f78d	-0.17574902
65	0x3e84064b	0.2578605
66	0xbd8d4569	-0.068980046
67	0xbe90382c	-0.28167856
68	0x3e0bbfde	0.1364741
69	0xbe6cac10	-0.23112512
70	0x3df9fefb	0.12206837
71	0x3d59e6a7	0.053198483
72	0xbe4e5412	-0.20149258
73	0x3e3bea79	0.18351163
74	0x3c13ff1a	0.009032989
75	0x3e40f372	0.18842867
76	0xbe0c70a0	-0.13714838
77	0xbe6e8d4e	-0.23296091
78	0xbe518630	-0.20461345
79	0x3e30ac17	0.17253147
80	0x3cc3b676	0.023890715
81	0xbcba56ff	-0.022746561
82	0x3d9b18a9	0.07573063
83	0xbe20e40b	-0.15711991
84	0x3d40e64c	0.04709463
85	0xbb95ba7e	-0.0045693507
86	0xbe20f811	-0.1571963
87	0x3ddd57fa	0.10807796
88	0x3d87946e	0.066201076
89	0xbc4bb11e	-0.012432365
90	0xbe3bb152	-0.18329361
91	0x3e12a0d7	0.14319168
92	0xbd376ba6	-0.044780396
93	0x3e03d2be	0.1287336
94	0xbe0473ad	-0.12934752
95	0x3de464b6	0.111520216
96	0x3e04fe56	0.12987646
97	0xbdee0aaf	-0.116231315
98	0xbcc9def2	-0.024642441
99	0x3d9c7be7	0.0764082
100	0xbdafcfa7	-0.085845284
101	0xbc93e20b	-0.018052122
102	0xbdd65ca8	-0.104668915
103	0x3dcc2789	0.09968478
104	0xbd48f117	-0.049058046
105	0x3d100072	0.035156675
106	0xbe15651c	-0.14589351
107	0xbde840a8	-0.11340457
108	0x3b5d6719	0.0033783375
109	0xbe083ae8	-0.13303721
110	0x3d966afe	0.07344626
111	0xbb9f446e	-0.0048604524
112	0xbe06f9d4	-0.1318124
113	0x3e0b2bfc	0.13590997
114	0xbdab0c6c	-0.08351979
115	0xbcd67eb0	-0.026183456
116	0x3daf476c	0.085585445
117	0x3d132e5c	0.035932884
118	0xbd581d3b	-0.05276225
119	0xbe23c874	-0.15994436
120	0xbd8790f1	-0.06619442
121	0x3d14a317	0.036288347
122	0x3d82a45a	0.06379004
123	0xbe300f58	-0.17193353
124	0x3d147b29	0.036250267
125	0xbd9a5c6f	-0.075371616
126	0xbc7ede66	-0.015555954
127	0xbdbc620f	-0.09198391
128	0x3e006400	0.12538147
129	0x3d96574e	0.07340871
130	0x3d818ef1	0.06326092
131	0x3e0363b0	0.12830997
132	0xbd4eadae	-0.050458603
133	0xbd736a2c	-0.059427425
134	0xbdcc476a	-0.09974559
135	0x3d208966	0.039193533
136	0x3d96fb16	0.073721096
137	0x3d363b64	0.044490233
138	0x3d4428fd	0.047890652
139	0x3d46d548	0.048543245
140	0x3d9daaf9	0.07698626
141	0xbe15cafe	-0.14628217
142	0xbcbf06f0	-0.023318738
143	0xbd8b2735	-0.067945875
144	0x3dddc767	0.108290486
145	0xbd84c269	-0.06482393
146	0x3ba322a5	0.004978495
147	0xbce68e77	-0.028144104
148	0xbca8b076	-0.020591956
149	0xbd71e0b3	-0.05905218
150	0xbd911d4c	-0.07085666
151	0xbde56fc4	-0.11202958
152	0xbd6d6a06	-0.05796244
153	0xbde23b04	-0.110464126
154	0x3c9ebe28	0.019377783
155	0x3d8e202e	0.069397315
156	0xbcbcc21d	-0.02304178
157	0xbdba342a	-0.09091981
158	0xbbf2e687	-0.007412735
159	0xbe2020b7	-0.1563748
160	0xbe03345e	-0.12812945
161	0x3d18acd4	0.037274197
162	0x3e06101d	0.13092084
163	0x3e1680fd	0.14697643
164	0x3dbb82b1	0.09155787
165	0x3d017ac2	0.03161121
166	0x3d609b3f	0.054835554
167	0xbdfcb42d	-0.12339053
168	0xbc46bfa7	-0.012130654
169	0x3d0c26d9	0.034216736
170	0xbccfb934	-0.025356866
171	0xbd3e96a3	-0.046530377
172	0x3e16a4f0	0.14711356
173	0x3df8a912	0.121416226
174	0x3d8defa0	0.069304705
175	0x3d1a5068	0.037674338
176	0x3db9ce44	0.09072545
177	0xbe1498f5	-0.14511473
178	0x3e289dcf	0.16466449
179	0xbe1fce05	-0.15605934
180	0x3c6210bf	0.013797938
181	0xbd4e9221	-0.050432328
182	0xbe671fc9	-0.22570719
183	0xbc8b2b9a	-0.016988564
184	0x3d991bc7	0.07476001
185	0xbd01c525	-0.031682152
186	0x3dfc1d04	0.12310222
187	0xbdae9929	-0.08525307
188	0xbc253867	-0.010084248
189	0xbdc1a154	-0.09454599
190	0x3e1ac888	0.15115559
191	0x3dadde2e	0.08489643
192	0xbd98eda5	-0.07467202
193	0x3d8c1a82	0.068409935
194	0x3d102c3b	0.03519843
195	0x3e228482	0.1587086
196	0x3e385300	0.18000412
197	0xbdd61459	-0.104531
198	0x3cdb3916	0.02676062
199	0xbd280158	-0.041016906
200	0x3e4f7d01	0.20262529
201	0x3e6c8045	0.23095806
202	0x3d81182d	0.06303439
203	0x3e0c0387	0.1367322
204	0x3e363c19	0.17796363
205	0xbb9dac60	-0.0048118085
206	0x3d806a6b	0.062702976
207	0xbababc9b	-0.0014246883
208	0xbe554188	-0.2082578
209	0x3e8d7476	0.27627915
210	0x3e7d7fdd	0.24755807
211	0x3c4b30da	0.012401784
212	0xbdb5d152	-0.08877815
213	0x3e81d091	0.25354436
214	0x3d9c0116	0.076173946
215	0xbe763d05	-0.24046715
216	0x3e03344d	0.1281292
217	0xbe71c650	-0.23610806
218	0xbdea759f	-0.11448216
219	0xbe6d3a39	-0.23166741
220	0xbd85588e	-0.06511031
221	0x3e0cf483	0.13765149
222	0xbd64c5f0	-0.05585283
223	0xbce43a5e	-0.027859863
224	0xbd694fa0	-0.056960702
225	0x3e3fe070	0.1873796
226	0xbe7dbf51	-0.24780013
227	0xbe4adef3	-0.19811611
228	0x3e838965	0.2569076
229	0xbe3f6a84	-0.18692976
230	0x3db3ea74	0.08784953
231	0x3e69ec8b	0.2284414
232	0xbe501ba9	-0.20323052
233	0x3e3873ae	0.18012878
234	0x3e84ad4d	0.25913468
235	0x3ca7cd85	0.020483742
236	0x3d6f6863	0.05844916
237	0xbe64f690	-0.22359681
238	0xbe35108a	-0.1768209
239	0xbd66d3b1	-0.05635423
240	0xbc824b99	-0.015905188
241	0x3e0ea2fa	0.13929358
242	0xbaf790b6	-0.0018887732
243	0xbd90193a	-0.070360616
244	0xbd397fd9	-0.04528794
245	0x3d688509	0.056767497
246	0xbe1ebc08	-0.15501416
247	0x3ddd4b42	0.1080537
248	0xbd0bf57d	-0.034169663
249	0xbdddca13	-0.10829558
250	0x3cab2b1f	0.020894585
251	0xbcd230c5	-0.02565802
252	0xbdb4f614	-0.08835998
253	0xbd83e4f4	-0.06440154
254	0x3db1e548	0.0868631
255	0x3de7d273	0.11319437

bias f4 [40]
0	0xbd15e77d	-0.036597718
1	0xbce16c79	-0.027517544
2	0xbe491d03	-0.19639973
3	0x3dba607a	0.09100433
4	0xbd58a5e0	-0.052892566
5	0x3e33ca7b	0.17557709
6	0xbd58f724	-0.052970067
7	0xbe76df27	-0.24108563
8	0x3e03d77d	0.12875171
9	0x3bc6fbb5	0.0060724863
10	0xbd3a3e28	-0.045469433
11	0x3cacd34b	0.021096846
12	0x3ddc0a86	0.10744195
13	0x3ca1cada	0.019750047
14	0xbe068ea1	-0.13140346
15	0x3e1281be	0.14307305
16	0xbe021cb8	-0.12706268
17	0xbe42a5a1	-0.19008495
18	0xbdb29cd8	-0.08721322
19	0x3e4124e2	0.18861726
20	0xbcf62646	-0.030047547
21	0x3ce3c67e	0.02780461
22	0x3cc622bc	0.024186485
23	0x3dc3a6cf	0.095533006
24	0xbe0d2d30	-0.13786769
25	0xbd3f3e7a	-0.04669044
26	0x3d02b5bd	0.0319116
27	0xbd067165	-0.032822985
28	0xbe075c34	-0.13218766
29	0xbe2847be	-0.16433617
30	0xbcbaa7a9	-0.022785025
31	0xbd4c0e85	-0.049818534
32	0x3d6a62e8	0.05722323
33	0x3d59a0c0	0.05313182
34	0xbc4b24da	-0.012398923
35	0x3d10dea5	0.03536858
36	0x3e1c6111	0.15271403
37	0x3c88efec	0.016715966
38	0x3dc3b518	0.09556025
39	0x3d18adc5	0.037275095

weight f4 [40, 40]
0	0x3e239847	0.15976058
1	0x3c46df1a	0.0121381525
2	0x3de73565	0.11289481
3	0xbdb08c06	-0.08620457
4	0x3e422f3b	0.1896333
5	0x3e25add2	0.16179588
6	0xbd7692a0	-0.060198426
7	0x3df207cc	0.118178934
8	0x3d83cc76	0.06435482
9	0x3e4a08f8	0.19729984
10	0x3d5f07e5	0.05445089
11	0x3dec3ab7	0.115346365
12	0x3e4484a3	0.19191222
13	0xbdadec09	-0.08492286
14	0xbe23338d	-0.15937634
15	0x3db5a160	0.088686705
16	0x3e0d7e7e	0.13817784
17	0xbdc555fa	-0.09635539
18	0x3db60f9f	0.08889698
19	0x3e580007	0.2109376
20	0xbd10c689	-0.035345588
21	0x3e6fee3c	0.23430723
22	0xbcb04da3	-0.021521395
23	0xbd9035e3	-0.07041528
24	0xbe5a6f45	-0.21331508
25	0xbe129b06	-0.14316949
26	0xbdf42bfc	-0.11922452
27	0x3c4ba8b8	0.012430362
28	0xbdd48e76	-0.10378735
29	0x3ce7575c	0.028239898
30	0x3dff3836	0.12461893
31	0x3d8c7c17	0.06859606
32	0x3d8413b2	0.06449069
33	0xbd87b5fd	-0.066265084
34	0x3e32fb27	0.1747862
35	0x3e29e328	0.1659056
36	0x3e69564c	0.22786826
37	0xbe07d682	-0.13265422
38	0xbd211015	-0.039321978
39	0xbdfbb38d	-0.12290106
40	0xbce16381	-0.027513267
41	0xbd16385c	-0.036674842
42	0xbd0de5fe	-0.034643166
43	0x3cf3ece9	0.029776054
44	0xbda9579f	-0.082686655
45	0xbd6e0998	-0.058114618
46	0xbe77067e	-0.2412357
47	0x3d9ae1fa	0.07562633
48	0x3dc586d8	0.0964486
49	0xbe1bfe91	-0.15233828
50	0xbcaf1bf5	-0.021375636
51	0xbd78b20a	-0.060716666
52	0x3d8a9e3a	0.067684606
53	0x3bbeb212	0.0058195675
54	0x3d5d8fd3	0.05409224
55	0xbd0622cc	-0.03274803
56	0xbadc5a89	-0.001681165
57	0x3e17e88a	0.148348
58	0x3dee3992	0.116320744
59	0xbd614fe6	-0.055007838
60	0xbd1e95a5	-0.03871693
61	0x3e43a558	0.19106042
62	0x3db7507c	0.08950898
63	0xbddd1174	-0.107943445
64	0x3de0f1b1	0.10983599
65	0xbd826917	-0.063677005
66	0x3d5f1c13	0.054470133
67	0xbe5080a7	-0.20361577
68	0xbe054e92	-0.13018253
69	0x3da0d0fa	0.07852359
70	0xbe46ce60	-0.19414663
71	0x3e15daf3	0.14634304
72	0x3d8611b0	0.065463424
73	0xbe0af7e0	-0.1357112
74	0x3d8d9db1	0.06914843
75	0x3e0c6772	0.13711336
76	0x3d96ea1a	0.0736887
77	0x3d60cebd	0.05488466
78	0x3d11964b	0.03554372
79	0xbd716fae	-0.058944397
80	0x3d2c6a29	0.04209343
81	0xbc7dbc15	-0.015486737
82	0x3d99d18a	0.075106695
83	0x3e1f4556	0.15553793
84	0x3d504c93	0.050854277
85	0xbdc1e372	-0.0946721
86	0xbd82095a	-0.0634944
87	0xbe0215cb	-0.12703626
88	0xbd601367	-0.054706004
89	0x3da8d509	0.08243758
90	0xbd73e2f8	-0.059542626
91	0xbcd6970d	-0.026195074
92	0xbd1049be	-0.035226576
93	0x3cf0c676	0.029391509
94	0x3d6a4cac	0.057202026
95	0x3c8de3a5	0.017320463
96	0x3db4932f	0.088171355
97	0xbc427c50	-0.011870459
98	0x3de54c99	0.111962505
99	0x3dbe972d	0.09306178
100	0xbe14d975	-0.14536078
101	0x3d84f1bb	0.06491419
102	0xbe0ef041	-0.13958837
103	0xb9f2ac06	-0.00046286004
104	0xbdeec5e9	-0.11658842
105	0x3b5f60be	0.0034084762
106	0x3da60f75	0.08108417
107	0xbdb75941	-0.08952571
108	0x3dad8a21	0.084736116
109	0xbc9be5eb	-0.019030532
110	0xbe082f45	-0.13299282
111	0xbdcd237c	-0.10016534
112	0xbcea989d	-0.028637225
113	0xbd23304e	-0.03984099
114	0xbe0c09d6	-0.13675627
115	0x3c85e7f7	0.016345961
116	0x3c02d42b	0.007985155
117	0xbd66c46e	-0.056339674
118	0xbe1e775d	-0.15475221
119	0xbe1169aa	-0.14200464
120	0x3d242901	0.040078167
121	0x3e0d35b4	0.13790017
122	0xbc9a87e0	-0.018863618
123	0x3c35cd5a	0.011096323
124	0x3da8bafc	0.082387894
125	0x3e8b752b	0.2723783
126	0xbd8af1e3	-0.067844175
127	0xbdc7b4a3	-0.097512506
128	0xbd10e6a7	-0.035376217
129	0xbcf4a996	-0.029866021
130	0x3e72ede5	0.23723562
131	0xbb1af610	-0.00236452
132	0x3dc43d96	0.09582059
133	0xbbea167a	-0.0071437927
134	0x3d0cb5c0	0.034353018
135	0x3e3dc354	0.18531543
136	0x3e128eec	0.14312333
137	0xbe1a534e	-0.1507084
138	0x3cca9757	0.024730368
139	0x3e814018	0.25244212
140	0xbe0b8abf	-0.13627146
141	0x3e24e812	0.16104153
142	0x3d98d96f	0.07463347
143	0x3c6e4f13	0.01454522
144	0xbdd5d4d5	-0.10440985
145	0x3ca80fe1	0.020515384
146	0xbd9c77f2	-0.07640065
147	0xbe0cdf3e	-0.13757035
148	0xbd834937	-0.06410449
149	0x3c83429b	0.01602297
150	0x3e052893	0.13003759
151	0x3e81db1b	0.25362477
152	0x3d61ab68	0.055095106
153	0xbcfe147b	-0.031015625
154	0x3e07767c	0.13228792
155	0x3e558103	0.20849995
156	0x3e47ffea	0.19531217
157	0xbe0e7fd2	-0.13915947
158	0x3d23a8a0	0.039955735
159	0xbde5ee47	-0.112270884
160	0x3dfac5b9	0.12244744
161	0x3e5b5dbb	0.21422474
162	0xbdec4246	-0.11536078
163	0xbd578e6e	-0.052626066
164	0x3dd740f9	0.105104394
165	0x3e032b7a	0.12809554
166	0x3de1f18b	0.11032399
167	0x3c0ff23c	0.0087857805
168	0x3e337dcd	0.17528458
169	0xbbe875ee	-0.0070941364
170	0x3e69954b	0.22810857
171	0x3e30dd57	0.17271934
172	0x3d95f1da	0.0732152
173	0xbded0fb7	-0.11575263
174	0xbd554ec1	-0.05207706
175	0x3e250b19	0.16117515
176	0x3d0688ee	0.03284543
177	0x3cfb0485	0.030641804
178	0x3e19067f	0.14943884
179	0x3e35477c	0.1770305
180	0xbe39d1d6	-0.18146452
181	0x3d1335ab	0.035939854
182	0x3dc87175	0.09787265
183	0xbe039216	-0.12848696
184	0xbe30bf60	-0.17260504
185	0xbd994d82	-0.074854866
186	0xbe02aea3	-0.12761931
187	0xbe24dca6	-0.16099796
188	0x3e043cdf	0.12913845
189	0x3c72ae5c	0.014812078
190	0xbe10d0d2	-0.14142159
191	0x3e7de41e	0.24794051
192	0x3e12d286	0.14338121
193	0xbdaca78f	-0.08430397
194	0x3c3aff09	0.011413344
195	0xbd0fe344	-0.035128847
196	0x3e01f003	0.12689213
197	0xbdee64c5	-0.11640314
198	0x3e23077b	0.15920822
199	0xbe37eb63	-0.17960887
200	0x3cb8fde2	0.022581998
201	0x3dd8fc99	0.10595054
202	0x3dfa1345	0.122107066
203	0x3d574b2d	0.052561928
204	0x3e07a03f	0.13244723
205	0x3e2416a0	0.16024256
206	0x3d129f6a	0.03579656
207	0x3e4cf7f2	0.20016459
208	0x3dc7fee8	0.097654164
209	0x3acd63d6	0.0015670012
210	0x3dcffb79	0.101553865
211	0x3de36c6f	0.111046664
212	0x3ceffc49	0.029295104
213	0x3c6a3a9a	0.014296198
214	0xbd55140b	-0.052021068
215	0x3deaf47c	0.11472413
216	0xbe18d0b1	-0.1492336
217	0xbdbf97a2	-0.093550935
218	0xbd97f0f1	-0.07419003
219	0x3e3390ac	0.17535657
220	0x3d4417de	0.047874324
221	0x3dc7da60	0.097584486
222	0x3e12a063	0.14318995
223	0xbdb3eda1	-0.087855585
224	0xbdc28b81	-0.094992645
225	0xbd30814f	-0.04309207
226	0xbd12fc8e	-0.035885386
227	0x3cd07cad	0.025450075
228	0x3d7be9ea	0.061502375
229	0x3e71a3ff	0.23597716
230	0x3d8e5035	0.06948892
231	0xbce65193	-0.02811507
232	0xbd7df99f	-0.062005635
233	0xbe1d24c4	-0.15346056
234	0xbe0ebc33	-0.1393898
235	0x3cb06b23	0.021535462
236	0x3e23c416	0.1599277
237	0xbc8d0ce8	-0.017218068
238	0xbe32eff6	-0.1747435
239	0xbe0457b3	-0.1292408
240	0xbd987148	-0.07443482
241	0xbdaabec9	-0.08337171
242	0x3e300ef9	0.17193212
243	0xbda2b82d	-0.07945285
244	0xbda0c2e5	-0.07849673
245	0xbe1300cc	-0.14355773
246	0x3d65343d	0.05595802
247	0x3e0264f4	0.12733823
248	0xbdd98ac5	-0.10622171
249	0xbd8b92cd	-0.068151094
250	0x3c101292	0.00879349
251	0xbe098207	-0.13428508
252	0xbd4194db	-0.0472611
253	0x3e09e38c	0.13465708
254	0xbd8be547	-0.068308406
255	0xbe0fbbb2	-0.14036444

bias f4 [40]
0	0x3dd02625	0.101635255
1	0x3c401518	0.011723779
2	0xbcb3d633	-0.021952724
3	0xbd40d1a8	-0.047074944
4	0x3e26882b	0.16262881
5	0xbd387f7d	-0.045043457
6	0x3c4d05ec	0.012513619
7	0xbdde0dd7	-0.108424835
8	0x3da7b86c	0.081894726
9	0x3c842566	0.016131114
10	0x3d64f621	0.05589879
11	0xba296204	-0.0006461444
12	0x3bad603f	0.0052910144
13	0x3d671dc4	0.05642487
14	0x3d94f0f1	0.072725184
15	0x3c9e6df7	0.019339545
16	0xbdc95600	-0.09830856
17	0xbd110851	-0.03540832
18	0x3cde0b57	0.027105017
19	0xbc53cb48	-0.012926884
20	0xbd8e6664	-0.06953123
21	0xbb8bc356	-0.004265229
22	0x3c877c28	0.016538695
23	0x3d06741b	0.03282557
24	0xbdced493	-0.10099139
25	0x3c388a22	0.011263402
26	0x3d604f3e	0.05476307
27	0x3bd08ef0	0.0063646957
28	0xbdc41d59	-0.0957591
29	0x3ce14f0c	0.027503513
30	0xbd9c79c9	-0.07640416
31	0xbd407ed5	-0.046995956
32	0xbca87cc1	-0.0205673
33	0x3dcf6cf8	0.10128206
34	0xbdc7168b	-0.097210966
35	0x3ddf3896	0.10899465
36	0x3b84650f	0.0040403674
37	0x3e06a63c	0.13149351
38	0xbb66bd72	-0.0035208133
39	0x3c587c0c	0.013213169

weight_ih_l0 f4 [120, 40]
0	0xbe590ea5	-0.21196993
1	0xbd2d308b	-0.042282622
2	0xbdc1efc4	-0.0946956
3	0x3d12f973	0.035882425
4	0xbcb62a91	-0.022237094
5	0x3c9fbe70	0.019499987
6	0x3d855924	0.06511143
7	0xbc068a7f	-0.008211731
8	0x3d8556f8	0.065107286
9	0xbc5bdfcc	-0.013420057
10	0xbde00087	-0.109376006
11	0x3e152c32	0.1456764
12	0x3dce0f22	0.1006148
13	0xbdbac2ca	-0.09119184
14	0xbc242bae	-0.01002018
15	0xbc90d0ec	-0.017677747
16	0x3d9249fa	0.07143016
17	0x3e4eb379	0.20185651
18	0xbd94d4d7	-0.072671585
19	0xbe3ffbfb	-0.18748467
20	0x3d1a091f	0.037606355
21	0x3cc3d971	0.023907395
22	0x3d81cd9a	0.063380435
23	0xbe3136a7	-0.17306004
24	0x3dde4eab	0.108548485
25	0x3e54b011	0.20770289
26	0x3c9ebefc	0.019378178
27	0xbd75946e	-0.059956007
28	0x3dddf779	0.10838217
29	0xbdae9ee6	-0.08526401
30	0xbe3a326a	-0.18183294
31	0xbe530920	-0.2060895
32	0x3e6a5596	0.22884211
33	0x3c90f4ef	0.017694918
34	0x3e3c703b	0.18402188
35	0xbe2c7106	-0.1683999
36	0xbe17d63c	-0.14827818
37	0xbd8ee018	-0.06976336
38	0x3df5e2c7	0.12006145
39	0xbceba931	-0.0287672
40	0x3e18be1e	0.14916274
41	0x3d921ca0	0.07134366
42	0xbe12fd88	-0.14354527
43	0x3e16a09e	0.14709708
44	0x3dc0dc08	0.09416968
45	0x3e2fe64f	0.171777
46	0xbd9c5744	-0.07633832
47	0x3d6951e5	0.056962866
48	0xbe1fdd3d	-0.1561174
49	0xbe06a667	-0.13149415
50	0x3c4a37a6	0.012342369
51	0xbe373aed	-0.17893572
52	0x3cb3f744	0.021968491
53	0xbc9fa747	-0.019488944
54	0xbe4869e0	-0.19571638
55	0xbd0a621b	-0.033784967
56	0x3e26e905	0.16299827
57	0x3e007993	0.12546377
58	0x3df6ff38	0.12060398
59	0xbd404ac1	-0.04694629
60	0xbdc91150	-0.09817755
61	0x3ddb1944	0.106981784
62	0xbccd9376	-0.025094729
63	0xbdcb28e2	-0.09919907
64	0xbdce8b7e	-0.100852
65	0xbe60ad96	-0.21941218
66	0x3e0e1d14	0.1387828
67	0xbe39fc7f	-0.18162726
68	0x3debcd83	0.115138076
69	0x3d4be740	0.049781084
70	0x3da2e513	0.07953849
71	0x3da7a4a9	0.08185703
72	0xbbfc8b86	-0.007707062
73	0xbe524081	-0.20532419
74	0xbe36e753	-0.1786168
75	0xbd12967c	-0.035788044
76	0x3e48e107	0.19617091
77	0xbd81bead	-0.06335197
78	0xbd9d4968	-0.07680017
79	0xbd7c5860	-0.06160772
80	0x3dd8e4ae	0.10590492
81	0xbe39d636	-0.18148121
82	0x3d4c23ab	0.049838703
83	0x3e6a0465	0.22853239
84	0xbe10b387	-0.14130984
85	0x3dd27e90	0.10278046
86	0x3e17116e	0.14752743
87	0x3e3a969d	0.18221517
88	0xbe10fa25	-0.14157923
89	0xbdcf7616	-0.10129945
90	0xbe7cd70b	-0.24691407
91	0xbc40bf5d	-0.011764375
92	0xbe444968	-0.19168627
93	0xbe39eb85	-0.1815625
94	0x3c5227a1	0.012826831
95	0x3d5c1f01	0.053740505
96	0xbd32f899	-0.043694112
97	0xbe19458a	-0.14967933
98	0xbde2899c	-0.11061403
99	0xbcd17f57	-0.025573416
100	0xbc92fbb3	-0.017942285
101	0x3e1dea5c	0.15421432
102	0xbe37e924	-0.1796003
103	0x3c843223	0.016137188
104	0x3e2766e1	0.16347839
105	0x3d8a9d5d	0.06768296
106	0xbbfe0f2f	-0.007753275
107	0xbe7f01b3	-0.24902992
108	0x3d9d59ee	0.07683168
109	0xbdd67ff3	-0.10473623
110	0x3deea633	0.11652794
111	0x3e1c7ec8	0.15282738
112	0x3c36877f	0.011140703
113	0xbdec6b5d	-0.115439154
114	0x3d6a7eaf	0.05724972
115	0xbddf87c7	-0.10914569
116	0x3e6d43b3	0.23170356
117	0xbe331cfb	-0.17491524
118	0x3de9b83b	0.11412092
119	0x3e1ebcc4	0.15501696
120	0xbcafe789	-0.02147271
121	0xbca2e6b2	-0.019885395
122	0xbcd2702c	-0.025688253
123	0xbc510638	-0.01275783
124	0x3dd633db	0.104591094
125	0x3e2277eb	0.15866058
126	0xbe02ecf0	-0.12785697
127	0xbdfbf06e	-0.12301718
128	0x3dacdd7b	0.084406815
129	0xbe22be1e	-0.15892836
130	0xbdde0c8b	-0.10842236
131	0xbe03514b	-0.1282398
132	0x3e0478d8	0.12936723
133	0xbb8fd0eb	-0.0043889186
134	0xbda75ff8	-0.081726015
135	0xbde851a9	-0.113437004
136	0xbd4a988f	-0.049461897
137	0xbd15bdfb	-0.036558133
138	0x3e445908	0.19174588
139	0xbd267505	-0.040638942
140	0xbd3eadf0	-0.0465526
141	0x3dfa3094	0.12216297
142	0xbd9c7feb	-0.07641586
143	0xbdb8f0dd	-0.09030316
144	0xbdaba2a6	-0.08380632
145	0xbcb5d52c	-0.022196375
146	0x3e62b814	0.22140533
147	0xbdda5470	-0.106606364
148	0xbe0878be	-0.1332731
149	0xbe806e6b	-0.25084242
150	0x3bb7575f	0.0055951322
151	0x3e50d9b6	0.2039555
152	0xbe6ddb7a	-0.23228255
153	0xbe4b8fad	-0.19879027
154	0xbc987a35	-0.01861296
155	0x3db69ee5	0.089170255
156	0x3d0acab7	0.03388473
157	0x3d525956	0.05135473
158	0xbc06275f	-0.008188098
159	0xbe7e67fc	-0.24844354
160	0xbd713122	-0.058884747
161	0xbd883d03	-0.06652262
162	0x3dcc16e9	0.09965307
163	0x3e45bc10	0.19310021
164	0xbdf6732f	-0.12033688
165	0x3d0ccefe	0.03437709
166	0xbdcdfeaa	-0.10058339
167	0xbd2f9fb6	-0.04287692
168	0x3e15ed11	0.14641215
169	0x3c4070a7	0.011745608
170	0xbdc92ea7	-0.09823351
171	0xbda73bbe	-0.08165692
172	0xbdfceec6	-0.1235023
173	0xbe4ef5eb	-0.20210998
174	0xbda1a2f4	-0.07892409
175	0x3d0af04e	0.03392058
176	0x3db0760e	0.08616267
177	0x3e2896e9	0.16463818
178	0xbe03455b	-0.12819426
179	0xbdaf2995	-0.08552853
180	0x3cb03bf0	0.021512955
181	0xbd095ba8	-0.033534676
182	0x3d9e1d46	0.07720427
183	0x3db282fb	0.08716389
184	0x3e2ac3d0	0.16676259
185	0xbe04de61	-0.12975456
186	0x3cadec2d	0.021230781
187	0x3d26ad50	0.040692627
188	0x3e2ae89e	0.16690299
189	0x3d24d18f	0.040238913
190	0x3d89dbd3	0.06731381
191	0xbe1e44d4	-0.15455943
192	0x3d9ac959	0.07557935
193	0x3e17fa40	0.14841557
194	0xbdf43a7f	-0.1192522
195	0x3d9ab94c	0.07554874
196	0x3d0318e4	0.03200616
197	0xbe45d2fc	-0.19318765
198	0x3c9813a4	0.018564053
199	0xbd4292f7	-0.047503438
200	0xbdf1dc71	-0.11809624
201	0xbe678f01	-0.22613145
202	0x3e1cb527	0.15303479
203	0xbdb513c9	-0.08841664
204	0x3d72166d	0.05910342
205	0x3e025ba3	0.12730269
206	0xbd4ed54e	-0.050496392
207	0x3d0df21c	0.03465472
208	0xbdc810c5	-0.097688235
209	0x3cf43b05	0.029813299
210	0xbcd0033a	-0.025392164
211	0xbe18586f	-0.14877485
212	0xbdaa6c39	-0.08321423
213	0x3dbe5537	0.09293597
214	0x3e046802	0.12930301
215	0x3dd1ff75	0.10253803
216	0x3e0e2f16	0.1388515
217	0xbdbe0094	-0.09277454
218	0xbdacf0fe	-0.08444403
219	0xbe0aab56	-0.13541922
220	0xbdb820d6	-0.08990638
221	0xbe0521ba	-0.13001147
222	0xbe0cbe67	-0.13744508
223	0x3e2d8e83	0.16948895
224	0xbd4c67e1	-0.049903754
225	0x3c80635b	0.015672376
226	0xbdad8a6a	-0.08473666
227	0xbe10f2fc	-0.14155191
228	0x3db5a1fa	0.08868785
229	0x3da61390	0.081092
230	0x3daf0163	0.08545186
231	0x3d943df3	0.072383784
232	0x3d96361b	0.073345385
233	0xbd9f5dba	-0.07781549
234	0xbcc5b518	-0.024134204
235	0xbd53351c	-0.05156432
236	0x3e125c11	0.14292933
237	0xbe33a97e	-0.17545125
238	0xbd8f9d94	-0.070124775
239	0x3d53a4dd	0.051670898
240	0xbe31df04	-0.1737023
241	0xbd985e9e	-0.07439922
242	0xbdc94ec8	-0.098294795
243	0x3c502003	0.012702945
244	0xbdcf338f	-0.10117256
245	0x3c9f2e48	0.019431248
246	0x3d42e518	0.047581762
247	0xbcc53357	-0.024072332
248	0xbd45d948	-0.04830292
249	0x3c7d2063	0.015449616
250	0xbd59397d	-0.05303334
251	0xbd9af2a9	-0.07565815
252	0x3e3c458e	0.18385908
253	0x3c63c97e	0.01390302
254	0xbdda8570	-0.106699824
255	0x3d8beb7d	0.06832025

weight_hh_l0 f4 [120, 40]
0	0xbd3d77fa	-0.046256997
1	0xbd1cdd8e	-0.03829723
2	0x3d975f8a	0.073912695
3	0xbd9176a3	-0.07102706
4	0x3e0eae29	0.13933624
5	0xbc5a0984	-0.013307933
6	0x3e4cbd49	0.19994082
7	0xbdaed60e	-0.085369214
8	0x3e042c06	0.12907419
9	0x3e689d71	0.22716309
10	0xbb81ec7d	-0.003964959
11	0x3d78b8b5	0.060723025
12	0x3dfb5d18	0.122736156
13	0xbe6939ab	-0.22775905
14	0x3d53e32b	0.051730316
15	0x3d51bc13	0.051204752
16	0xbbc8aecf	-0.0061243544
17	0xbddeb1d8	-0.10873765
18	0x3e000a6c	0.12503976
19	0xbd3ea2d0	-0.04654199
20	0xbcc272b5	-0.023736337
21	0x3d325e58	0.043547004
22	0xbc65b700	-0.014020681
23	0x3da40580	0.080088615
24	0x3d8f5d60	0.07000232
25	0xbdedcd99	-0.1161148
26	0xbd1889d8	-0.037240833
27	0xbd811dfa	-0.06304546
28	0xbd9dfaac	-0.077138275
29	0x3d9270d2	0.07150425
30	0x3e08dff2	0.13366678
31	0x3c981d58	0.01856868
32	0xbe5b3d01	-0.2140999
33	0xbb8218cb	-0.0039702407
34	0xbe195d55	-0.1497701
35	0xbe0b03ac	-0.1357562
36	0xbdbcf151	-0.09225715
37	0xbe1b5bb0	-0.15171695
38	0x3dd27b11	0.10277379
39	0x3d3a30fe	0.04545688
40	0x3e160eb6	0.1465405
41	0x3daa5139	0.08316273
42	0x3d88086d	0.06642232
43	0xbca11ffe	-0.019668575
44	0x3c095d5b	0.008384074
45	0x3e491c09	0.19639601
46	0x3cc38eb6	0.02387176
47	0x3d6870ca	0.05674819
48	0xbd196c51	-0.037456814
49	0xbe1ef67b	-0.15523712
50	0x3dd13a32	0.10216178
51	0xbe000396	-0.12501368
52	0x3cc1b0ea	0.02364393
53	0x3e23bccd	0.1598999
54	0x3e332fc2	0.17498687
55	0xbd08318e	-0.033250384
56	0x3d06ca85	0.03290798
57	0xbc227296	-0.009915015
58	0xbcd7441e	-0.026277598
59	0xbe1e0ca5	-0.15434511
60	0x3e0a7caf	0.13524126
61	0x3e3a074f	0.1816685
62	0xbd78b3c4	-0.060718313
63	0x3df115da	0.11771746
64	0xbd908875	-0.07057277
65	0xbd32e7e9	-0.043678198
66	0xbd81ba35	-0.06334344
67	0x3e4dbdfd	0.20092006
68	0xbe181df2	-0.14855173
69	0xbe002bbd	-0.12516685
70	0xbe2a7ea8	-0.16649878
71	0xbe555a52	-0.20835236
72	0x3e430f4d	0.19048806
73	0xbd7d7c36	-0.061886035
74	0xbd63e361	-0.055636767
75	0x3d4df3b8	0.050281256
76	0xbe14b100	-0.14520645
77	0xbc10eecb	-0.008845995
78	0xbe2746a8	-0.16335547
79	0x3e0d2650	0.13784146
80	0xbe04e30b	-0.12977235
81	0x3d5e5e4e	0.054289155
82	0xbda2e2ab	-0.0795339
83	0x3d85060a	0.064952925
84	0xbe6709a5	-0.22562273
85	0x3e3cdd8a	0.18443885
86	0xbdc5b676	-0.09653942
87	0x3d2dce17	0.04243287
88	0xbbc37644	-0.005965026
89	0xbd44a8ff	-0.04801273
90	0x3e05f67f	0.13082312
91	0x3d7b244d	0.061313916
92	0x3ca05d41	0.019575717
93	0x3d7f855b	0.062383037
94	0xbdb6143f	-0.088905804
95	0xbe21b4cd	-0.15791626
96	0x3d9dc0e5	0.07702807
97	0xbe3b9c0a	-0.18321243
98	0xbdde2cf6	-0.10848419
99	0xbc14d26a	-0.00908337
100	0x3ddac67d	0.1068239
101	0x3da78b22	0.08180834
102	0xbdaa84a5	-0.08326081
103	0xbe811b2b	-0.2521604
104	0x3d01b6c7	0.03166845
105	0x3d85e5be	0.065379605
106	0xbe173361	-0.14765693
107	0xbe08a7bf	-0.1334524
108	0x3d8efcf2	0.06981839
109	0xbe011bd9	-0.1260828
110	0x3b3b9f18	0.0028628763
111	0x3d4bab27	0.04972377
112	0x3dd5f3bf	0.104468815
113	0xbe02c062	-0.127687
114	0xbbc36ba2	-0.0059637586
115	0xbc772227	-0.015083826
116	0x3e02334b	0.12714879
117	0xbe0e62aa	-0.13904825
118	0xbdfa366c	-0.122174114
119	0xbde86f3c	-0.11349341
120	0x3d83debc	0.064389676
121	0x3e1670bb	0.14691441
122	0xbe337a2c	-0.17527074
123	0xbd7c8aab	-0.06165568
124	0x3db9192b	0.090380035
125	0xbccbc155	-0.024872461
126	0xbd2119b1	-0.03933114
127	0xbe130c68	-0.14360201
128	0x3d72b965	0.059258837
129	0xbc5f926a	-0.013645748
130	0xbe16f24b	-0.14740865
131	0x3d6b30f7	0.057419743
132	0xbe205470	-0.1565721
133	0xbdaa5077	-0.08316129
134	0x3e1d0d37	0.15337072
135	0x3ddfdb80	0.10930538
136	0xbd430af0	-0.047617853
137	0x3e0fe138	0.14050758
138	0xbe2c55e8	-0.16829646
139	0x3d6fc882	0.05854083
140	0x3dae54dc	0.085122794
141	0xbc849d00	-0.016188145
142	0x3d3724cc	0.044712827
143	0x3dd47bf9	0.103752084
144	0xbd3d5c15	-0.046230394
145	0xbdc6b6bf	-0.09702825
146	0x3d831fe1	0.06402565
147	0x3d47f78e	0.04882007
148	0xbe0623fb	-0.13099663
149	0xbde30090	-0.11084092
150	0xbd4be090	-0.049774706
151	0x3d7e4535	0.06207772
152	0x3da16db2	0.07882251
153	0x3d7feea4	0.062483445
154	0xbcc9c341	-0.024629237
155	0x3c8bf94a	0.017086644
156	0xbe172241	-0.1475916
157	0xbd8c9ee1	-0.06866241
158	0x3d797434	0.060901836
159	0xbd7c867b	-0.061651688
160	0xbd8e1484	-0.06937507
161	0xbda8da1e	-0.082447276
162	0x3d94f804	0.07273868
163	0xbcdf9541	-0.02729285
164	0x3dd3a2d1	0.10333789
165	0xbe2571ca	-0.16156688
166	0x3c974f3b	0.018470397
167	0xbd0784dc	-0.03308569
168	0x3dc21fe3	0.09478738
169	0x3e52098a	0.20511451
170	0x3e4ead0d	0.20183201
171	0x3e0bfcfb	0.13670723
172	0xbd8af7d3	-0.0678555
173	0x3dda8535	0.106699385
174	0xbe08abc6	-0.13346776
175	0x3c050994	0.008119959
176	0xbcc738c4	-0.02431906
177	0xbe157229	-0.1459433
178	0x3d8af39c	0.06784746
179	0x3e4543cb	0.19264142
180	0x3d9240ba	0.07141252
181	0x3d8f9a17	0.07011812
182	0xbd0b8934	-0.034066394
183	0x3c9d3b06	0.019193184
184	0x3d7619f8	0.06008336
185	0xbd91c253	-0.071171425
186	0xbd5685ae	-0.05237358
187	0xbb83a5c6	-0.0040175645
188	0xbd3877e3	-0.045036208
189	0x3c2fd4eb	0.010731916
190	0x3e14a214	0.14514953
191	0x3e50438b	0.20338266
192	0xbe151d7e	-0.14562032
193	0xbc959284	-0.01825834
194	0xbe0ecd78	-0.13945568
195	0x3d0c2f30	0.03422469
196	0x3dfffe85	0.124997176
197	0x3d058daa	0.032605805
198	0x3cdbd510	0.026834995
199	0x3d6d5f91	0.057952467
200	0xbdacd5cc	-0.08439216
201	0x3d4f3cad	0.050594974
202	0x3e186671	0.14882828
203	0x3e29a145	0.16565426
204	0xbd00a9c7	-0.031411912
205	0x3d7f0801	0.062263492
206	0x3e339f1b	0.17541163
207	0x3df9b50d	0.12192736
208	0x3e3f7dc4	0.1870032
209	0x3db9ad54	0.09066263
210	0xbdb9092c	-0.090349525
211	0xbc425cb0	-0.011862919
212	0x3caf22b2	0.021378849
213	0x3b433a06	0.0029789223
214	0xbde04581	-0.10950757
215	0x3d2ce52d	0.042210747
216	0x3e46ab2f	0.19401239
217	0xbd60f003	-0.054916393
218	0x3e3cf037	0.1845101
219	0x3e127023	0.1430059
220	0x3e2349d8	0.15946138
221	0xbdb1eea2	-0.08688094
222	0x3df30ed3	0.11868062
223	0xbdb3cd10	-0.08779347
224	0xbd557819	-0.052116487
225	0x3c94e245	0.0181743
226	0xbb921715	-0.004458318
227	0xbdbae85b	-0.091263495
228	0x3d7bfe84	0.061522022
229	0x3e0cf9c8	0.13767159
230	0x3e0e7ccd	0.13914795
231	0xbe68d031	-0.22735669
232	0xbdc46ce4	-0.09591082
233	0xbc83c805	-0.016086588
234	0xbe1c312e	-0.15253136
235	0xbd760262	-0.060060866
236	0x3d3590e4	0.04432763
237	0x3dfe920d	0.12430201
238	0xbe2fa7ca	-0.1715385
239	0xbd9a4a89	-0.07533748
240	0x3e069e86	0.1314641
241	0xbd607d7a	-0.054807164
242	0x3d8828b7	0.06648391
243	0x3e7f44c4	0.24928576
244	0xbd930d18	-0.07180232
245	0xbbdc8b82	-0.006730498
246	0x3e8ff6aa	0.28117877
247	0xbddb8ea5	-0.10720567
248	0x3dc29029	0.095001526
249	0x3e536d4c	0.20647162
250	0x3e85677c	0.26055515
251	0xbcc7b92c	-0.024380289
252	0x3df69ed2	0.12042011
253	0xbc0b3382	-0.008496167
254	0xbd42dcbe	-0.047573797
255	0x3ae66670	0.0017578136
