Results/2330_discriminator1.pth (torch, 250863 bytes, 35 tensors)

weight_ih_l0 f4 [120, 20]
000000 db 6d 7f 3d 54 12 36 bd b2 3c 90 bd e8 1f e2 bd
       0.062360626 -0.044451073 -0.07042827 -0.11041242
000010 6e 58 73 3d 5d 09 f5 3b f3 02 03 3d cf 33 b7 bc
       0.059410505 0.007477923 0.031985234 -0.022363571
000020 67 5d 66 bd 43 fd 91 bd 28 02 dc bd 80 53 0b 3e
       -0.05624142 -0.07128384 -0.10742599 0.13606071
000030 f2 4f 1c 3e f0 f9 84 3c f1 67 ae bc 75 a4 c7 3d
       0.15264872 0.01623246 -0.021289797 0.097481646
000040 f0 fd b8 3d d4 00 2e bc 72 95 24 bd fc 17 ea 3c
       0.0903281 -0.010620315 -0.040181585 0.02857589
000050 a0 31 10 be 69 29 a3 bd 9c 9f 09 3e 82 25 09 be
       -0.1408143 -0.07966883 0.13439792 -0.13393214
000060 1e a3 e7 3d 72 32 01 bd 87 85 81 3d da 5c 26 bd
       0.11310409 -0.03154225 0.063242964 -0.040615894
000070 fa 2d 08 3e 93 d1 67 bd e0 42 1c 3d d6 3a 54 bd
       0.13298789 -0.05659635 0.038149714 -0.051813923
000080 f9 f2 8e bc 99 25 4b 3d b1 ad 97 bd 0d 1b 9f 3d
       -0.017449843 0.049596403 -0.07406176 0.077688314
000090 62 61 f8 3b 2e a0 08 3e 38 63 df bd 2c 08 8a 3d
       0.0075799683 0.13342354 -0.10907596 0.0673984
0000a0 ee 54 a3 bd 17 68 67 3c 79 fa ac 3c 46 fe bd 3d
       -0.079751834 0.014123938 0.021115528 0.092770144
0000b0 f0 8b 07 be 46 2d f9 3d d6 9f 1b 3d b3 4d 22 be
       -0.13236976 0.12166838 0.03799423 -0.15849952
0000c0 0e 90 2b 3d a6 e4 1a be fc d6 94 bc 2c 1b 10 3e
       0.041885428 -0.15126285 -0.018168919 0.14072865
0000d0 24 ef f8 3d 45 e9 20 3e 99 78 0c be f0 a2 a3 ba
       0.121549875 0.15713985 -0.1371788 -0.0012484472
0000e0 38 ce 91 3d fd f6 3c 3d 16 65 06 3e 32 f8 18 be
       0.07119411 0.046133984 0.13124499 -0.14938429
0000f0 f2 3e d3 3d 85 21 ef 3d 54 8c 13 3e 76 eb 87 3d
       0.1031474 0.11676315 0.14409 0.066367075
000100 8c f8 e1 3b b1 6c ae 3d 76 9b 5c 3d 71 d7 96 3b
       0.006896084 0.08516825 0.053859197 0.0046033193
000110 67 b5 16 3e 4e 72 d6 bd f7 16 f3 3d a4 0c fd bc
       0.14717637 -0.10471021 0.118696146 -0.030889817
000120 29 1b 13 be ae 33 16 be b3 59 ad 3d a2 7c 01 be
       -0.1436583 -0.14668152 0.084643744 -0.126452
000130 4a c9 0a 3e 29 a4 14 3d ef 1a ba bd 8e c1 d5 bc
       0.13553348 0.036289368 -0.090871684 -0.02609327
000140 70 f4 11 3d f4 f3 ba bc f2 62 c5 bd c2 63 a0 bd
       0.035633504 -0.022821404 -0.09638013 -0.07831527
000150 be 18 fc bd 42 de c9 3d 52 59 8e bc d6 5c b0 3c
       -0.12309407 0.098568454 -0.017376576 0.021528643
000160 79 10 50 bc a4 c4 53 bd c3 fa aa 3d e1 b1 e1 bd
       -0.01269924 -0.051701203 0.0834861 -0.11020256
000170 4c ff b6 bd 41 25 20 3d 32 2e 0e be be 3a c1 bc
       -0.08935413 0.039098028 -0.1388481 -0.02358758
000180 af ac a8 bd 90 3d 12 3e 5e e6 3b 3d 82 b7 2a be
       -0.08236062 0.14281297 0.045873992 -0.16671565
000190 8b 97 ef bd bb 3d 14 3e 64 9d 10 3e 3c 28 9a 3d
       -0.116988264 0.14476673 0.1412254 0.07527205
0001a0 3b 1d 81 3d ca 85 03 3d 34 b8 60 bd 83 4d 53 3c
       0.063044034 0.032110013 -0.05486317 0.012896898
0001b0 38 c8 a8 3c 15 61 b0 3d 29 84 23 be 11 8c d1 bc
       0.020603284 0.08612267 -0.15968384 -0.025579484
0001c0 11 80 3a bd 10 20 9c bb af a9 32 3d 24 b5 a0 3d
       -0.04553229 -0.0047645643 0.043618854 0.0784705
0001d0 f5 fe 0d bd 61 47 02 bd 01 b8 7a bc 81 3f aa bd
       -0.034666974 -0.031806353 -0.015302659 -0.08312894
0001e0 df 67 f0 3c d2 4d 2b 3e 2e 45 bc 3d e7 bf 0b 3e
       0.029346405 0.16728905 0.091928825 0.13647424
0001f0 9a d2 0b 3e 47 10 93 3d f6 50 a5 3c ed 06 da bd
       0.13654557 0.07180839 0.020180207 -0.10645852
000200 7f 5b 12 3e bb 0a 11 bd de a6 ae bd 40 58 60 3d
       0.14292715 -0.035410624 -0.08527921 0.05477166
000210 04 ed 8b bd 31 d0 95 3d bb d3 18 3d c0 50 01 3d
       -0.068323165 0.073151 0.037311297 0.03157115
000220 83 32 17 be 21 e1 70 3d 35 f7 d1 3d a8 f1 2a 3d
       -0.14765362 0.05880845 0.10252229 0.041734368
000230 93 22 21 be b1 92 ca 3c 33 2d b4 3d 19 28 0b bb
       -0.15735845 0.024728151 0.087976836 -0.0021233617
000240 3b 65 02 be 8b 6e 07 be 8e ac b0 bd 35 ec 1f be
       -0.12733929 -0.13225763 -0.08626662 -0.1561745
000250 89 2b 0b bd e7 69 b0 3c 4b 02 ac bd 94 f1 0a 3e
       -0.033977065 0.021534873 -0.08398875 0.13568717
000260 54 e4 95 3d c3 ee 0f 3e 9f bf 11 bb 9c 4f e9 bd
       0.07318941 0.14055924 -0.002223946 -0.113921374
000270 4b 58 1e be 8e 71 0d be d9 a0 e9 3d ab e2 93 bc
       -0.15463369 -0.13812849 0.114076324 -0.01805242
000280 63 44 e5 3d f0 af b3 3d 5c 2b 46 bc 53 78 98 3b
       0.11194684 0.08773792 -0.012095299 0.0046530156
000290 8e 10 a9 3c a9 8e fc 3c 8d 79 07 3e 2a 67 6f 3d
       0.020637777 0.030829744 0.13229962 0.058447994
0002a0 56 09 2d bd 35 da 4e 3d 08 b7 15 bd d8 b2 ef bd
       -0.04224523 0.050501067 -0.036551505 -0.117040336
0002b0 00 df 78 bc 1f eb 3e 3c 5e 7c 1f 3e a7 42 17 bd
       -0.015189886 0.011652737 0.15574786 -0.0369288
0002c0 00 74 95 bd b5 64 fe bc d4 92 ed 3d a9 21 24 3e
       -0.07297516 -0.03105388 0.11600271 0.16028465
0002d0 74 16 b2 3d 5a 73 b8 3d bd 63 60 bd e7 ea c2 bd
       0.08695689 0.090063766 -0.054782618 -0.0951746
0002e0 e6 69 99 3d 3b c4 01 be 20 97 0b be 46 61 06 be
       0.07490902 -0.12672512 -0.13631868 -0.13123044
0002f0 07 46 ab bb 70 12 f9 3d 97 d7 11 be 24 2f 09 3e
       -0.005226854 0.1216172 -0.14242397 0.13396889
000300 92 7c 7f 3c c9 2d c6 bd 8e 75 2d be 2e 9b 10 3e
       0.015593665 -0.096767016 -0.16939375 0.14121696
000310 19 aa a0 bd df ca 8e bd e6 ad c7 3d 38 29 cb bc
       -0.078449436 -0.06972288 0.09749965 -0.024799928
000320 80 c7 0c 3e f2 3f 18 3e 43 19 ed bc 02 37 0a be
       0.13747978 0.14868143 -0.02894271 -0.13497546
000330 84 6e 96 3d ea 47 e6 3d 1e ed c9 bd 98 ac e2 3c
       0.07345298 0.11244185 -0.0985968 0.02767019
000340 12 f1 01 be 60 36 91 bd 53 b2 da 3b c1 4a 9b 3d
       -0.12689617 -0.07090449 0.00667409 0.075826176
000350 2a 00 1a be 8c 30 07 bd 45 79 e9 bd 7b 7a 9b 3d
       -0.15039125 -0.033005282 -0.114000835 0.07591721
000360 14 1a fa 3d bf 20 d3 3d c8 24 51 bc a6 da dd 3d
       0.12212005 0.1030898 -0.012765117 0.108327195
000370 35 61 0a 3e 5e 3a 03 be c3 2e ec 3c d5 56 0b 3e
       0.13513644 -0.12815234 0.028830891 0.13607343
000380 47 7a 30 bd 35 1b bd bd 51 86 c7 3d c5 43 00 3e
       -0.043085363 -0.09233705 0.09742416 0.12525852
000390 f2 df bd 3d 4a da 06 bd f1 1c e6 3d 63 e9 2c be
       0.0927123 -0.03292302 0.11235989 -0.16885905
0003a0 45 d9 8e bc 4d 2e 84 3d 2b 41 22 3e c7 78 3b ba
       -0.017437587 0.06454144 0.15845172 -0.0007151481
0003b0 98 d6 15 3e e1 8a 10 be fd 9d f2 3b 91 22 01 3e
       0.14632642 -0.14115478 0.0074040876 0.12610842
0003c0 66 a9 ed 3d de 02 01 3e 20 41 c0 bd dd bc fe 3d
       0.11604576 0.1259875 -0.093874216 0.124383666
0003d0 70 1a f4 3b f4 43 fe 3d e5 02 55 3d 9f 91 c9 bd
       0.0074494407 0.12415305 0.052004714 -0.09842228
0003e0 54 b2 00 3e 81 27 77 3c e9 4f 19 3d 5d 7c 88 3d
       0.12568027 0.015085102 0.037429724 0.066643454
0003f0 1f b6 9c 3d 13 42 c8 bd 1d 75 03 bd ba c7 e6 bd
       0.07651924 -0.09778228 -0.03209411 -0.112685636

weight_hh_l0 f4 [120, 40]
000000 5b 5a 04 be 9f 7a 15 be 1f 8c 04 be 37 f3 0f be
       -0.12925093 -0.14597557 -0.12944077 -0.14057623
000010 db bd c6 3d bf ef 17 3d 49 a5 23 3d 63 8c d0 3c
       0.09704181 0.037093874 0.03995255 0.025457567
000020 4a ec 51 3d 92 07 a5 3d 87 8f ed bd d6 f6 bf bd
       0.051250733 0.080580845 -0.11599641 -0.09373252
000030 2f 56 6f 3d 4e 76 be bd bd 9b b6 3c c7 ad 13 3d
       0.0584318 -0.092999086 0.022291059 0.0360544
000040 9a 82 aa 3d 9e 5f 29 bd 82 2a 59 3d 16 41 dd bb
       0.083256915 -0.041350953 0.053019054 -0.0067521436
000050 0b d3 f7 bd 03 09 53 3b 21 a0 0d 3e f5 57 73 bd
       -0.121008 0.0032201416 0.13830616 -0.059410054
000060 22 f2 aa 3b 69 a4 e5 3c 96 fb 11 be 05 fe a3 bd
       0.0052168528 0.028032498 -0.14256129 -0.08007435
000070 25 9d 55 bd 5a 25 ab 3d a0 eb 04 3e 49 d6 6e 3d
       -0.052151818 0.083567336 0.12980509 0.058309827
000080 2b 11 07 be a9 13 c5 bd b7 1f 37 3c 4f 35 ea 3d
       -0.13190143 -0.096228905 0.011176995 0.11435949
000090 bf 20 a4 3d 15 e7 2b bd 97 85 07 be 49 5a 0d 3e
       0.08014058 -0.041968424 -0.13234554 0.13803972
0000a0 95 18 90 3d 7d e6 b2 3c 94 3a 1f bd 03 44 d4 3d
       0.07035939 0.021838421 -0.038874224 0.10364535
0000b0 73 11 d6 bc b6 5d b1 bc 9a 27 73 bd 70 cf 11 3e
       -0.026131367 -0.02165113 -0.05936394 0.14239287
0000c0 42 76 1d be c4 29 16 be 56 be ff 3d 44 0e 5a 3c
       -0.15377143 -0.1466437 0.124874756 0.013309065
0000d0 4e 2d fa bd 22 e0 a6 3d 28 70 c0 3d df 65 95 bd
       -0.122156724 0.08148219 0.09396392 -0.07294821
0000e0 60 96 12 bd 50 31 fa 3d a2 50 94 bc c7 fa 92 3d
       -0.03578794 0.12216437 -0.018104855 0.07176738
0000f0 fa be aa bd 8a 79 8c bd c2 03 f1 bd 09 23 3d 3b
       -0.08337207 -0.06859119 -0.11768295 0.0028859994
000100 a4 b4 cc 3d f2 10 11 3e 62 78 f3 bd f9 29 0c 3e
       0.09995392 0.1416662 -0.118881956 0.13687886
000110 1a 2c 60 3d cd b5 08 3e 0f c0 de 3d 9a ec 86 3c
       0.05472956 0.13350601 0.10876476 0.016470242
000120 e7 7e ad bd a1 e7 44 bd ec da 2b bd 04 f1 f6 3d
       -0.0847147 -0.04807246 -0.041956827 0.12057689
000130 b1 7f 0b 3d 5a 3e 08 be e1 46 cb bd 5a 1c 70 bd
       0.034057323 -0.13305035 -0.099256285 -0.05862079
000140 ca 31 77 3c 5d 56 96 3d 54 12 c9 3d 3f 6e b0 3d
       0.015087554 0.07340691 0.09817949 0.08614778
000150 e6 84 aa 3d 64 f1 a7 bd 08 92 e2 3d a9 7a a0 bd
       0.083261296 -0.082003385 0.110630095 -0.078358956
000160 f1 ed 2e bd 3c 3d d2 bd 1a ce c2 bd fe 1f 7c 3d
       -0.042707387 -0.10265586 -0.09511967 0.061553948
000170 c7 25 d8 3d 44 9b dd 3c 3f ca 3d bd 68 ae 06 be
       0.105540805 0.027051575 -0.046335455 -0.13152468
000180 ae 83 39 bc de ab 04 3c 86 fd ad bc d3 93 09 3d
       -0.011322899 0.008097617 -0.021239053 0.03358824
000190 0c b3 2a 3e f0 cc d2 bd 5f de 03 3e 24 91 55 bc
       0.16669863 -0.10292995 0.12877797 -0.0130350925
0001a0 38 0a 92 3d 4f 67 91 3d 17 74 04 be c0 e6 ad bd
       0.07130855 0.07099783 -0.1293491 -0.08491278
0001b0 cb 2b be 3d 12 11 df bd 38 a8 0c be 94 3c 15 bd
       0.092856966 -0.10891928 -0.13736045 -0.036434725
0001c0 20 aa 18 3e 77 75 90 bd 5f 12 bf bd 85 9b 07 3e
       0.14908648 -0.07053655 -0.09329676 0.1324292
0001d0 8d 68 d5 bc 4e ea 24 bc 3e 9e 13 3e 16 de 6a bd
       -0.02605083 -0.010065628 0.14415833 -0.057340704
0001e0 e8 1f e7 3d 7e 03 cd 3d a8 27 64 3b 01 ae 91 3d
       0.112853825 0.10010432 0.0034813676 0.07113267
0001f0 2e 2c 65 3d 6f e0 30 bd 2f 11 c0 bc d5 1e 62 3d
       0.055950336 -0.043182787 -0.023445694 0.055205185
000200 9a 37 a1 bd 97 be be 3d 9e 8f ad 3b c2 59 4d bd
       -0.07871933 0.09313696 0.0052966615 -0.050134428
000210 8a 27 a2 3d 71 03 88 bc 9b 6d 0c 3d 99 6f 21 be
       0.07917698 -0.016603203 0.034284215 -0.15765227
000220 e6 e4 1b 3e 5c e8 74 3d 06 d4 de 3d b6 8c ea bd
       0.15224037 0.059791908 0.10880284 -0.1145262
000230 02 84 8b bd 91 d2 d9 3c f7 aa 37 bd 60 41 cd 37
       -0.06812288 0.026589664 -0.04484078 2.4468347e-05
000240 cc cb 12 3b 57 be a8 3d f7 4f c7 bd 1a a6 82 bd
       0.0022399304 0.082394294 -0.09732049 -0.063793376
000250 ac 6f 11 3e 01 7e c1 bd a5 fd 22 3e 85 68 1f 3d
       0.14202756 -0.094478615 0.1591707 0.038918037
000260 89 86 eb bc cf cf c9 3c ff 4c 33 3c 98 d5 03 be
       -0.028750675 0.024635224 0.01094365 -0.12874448
000270 93 6e f3 3c be 55 f7 bd 68 bf c3 3d 78 10 20 3c
       0.029715812 -0.12076901 0.09557992 0.009769551
000280 06 2c 1d be 9e 9b 12 be f1 d2 03 3e 93 b1 6e 3d
       -0.15348825 -0.14317176 0.12873437 0.058274817
000290 61 ba e3 bd 34 67 48 3d 6d 9c dd 3d 08 66 36 3c
       -0.11119533 0.048926547 0.108208515 0.011132725
0002a0 5a c2 d9 bd 33 b3 dc 3d f7 e4 f6 3d 6a 8e 17 be
       -0.10632773 0.10776367 0.1205539 -0.1480042
0002b0 2a 70 12 be c5 60 1c be f7 9c bd bd 77 b4 44 3c
       -0.143006 -0.1527129 -0.09258454 0.012005917
0002c0 9e 9f c9 3d 91 b9 0d 3b 2d 2a e3 3d 4d 11 2d 3d
       0.09844898 0.0021625499 0.11092029 0.042252827
0002d0 a2 d5 c3 3c 15 51 f5 bd 8c 39 d0 3d 6a 48 1a 3e
       0.023905579 -0.11978356 0.10167226 0.15066686
0002e0 d6 09 fc 3d dc 13 c3 bc 4d 0b 0a 3e 69 f2 46 3d
       0.123065636 -0.02381318 0.13480873 0.048571024
0002f0 bf 5c 46 bd 04 27 62 3d f1 fd 65 bd 17 13 d8 3d
       -0.048428293 0.05521299 -0.05615038 0.10550516
000300 c4 8f 90 bd 3e 45 b3 bd 42 f0 9d 3d 2f f2 09 3e
       -0.07058671 -0.08753441 0.07711841 0.13471292
000310 b4 51 df bd 4e 08 fe bd 90 e8 18 bd 1e f1 d1 bb
       -0.109042555 -0.12403928 -0.037331164 -0.0064069172
000320 cf b6 d1 3d 16 7e 09 be 77 4f b6 bd fd 92 e7 3d
       0.10239946 -0.13427004 -0.089018755 0.11307333
000330 e9 8e b0 3d ad a6 70 bd 1e b8 67 3d e6 f1 f4 bd
       0.08621008 -0.058752704 0.056572072 -0.11960201
000340 0f b0 b0 3d 5c 16 1b 3e 51 74 cb bc a3 20 69 bd
       0.086273305 0.15145248 -0.024835737 -0.05691589
000350 54 94 82 ba 7c 3e ee 3d 09 af c3 bd 68 2b ef bd
       -0.0009962418 0.11633012 -0.0955487 -0.11678201
000360 50 ed 3c 3d 29 9f f3 3d 1b b6 be 3d af 3f 99 bd
       0.046124756 0.11895592 0.093120776 -0.0748285
000370 3e 02 12 be 99 1b 6e 3d d2 39 1f 3d c8 cc 07 3c
       -0.14258668 0.058131788 0.0388735 0.00828857
000380 69 16 1f be 0f 32 15 be f6 ea c7 bd 79 48 18 be
       -0.15535893 -0.14569877 -0.09761612 -0.14871396
000390 f4 36 20 be d2 58 cf 3d 17 d3 18 be 05 fb 96 3d
       -0.15645963 0.10124363 -0.14924274 0.07372097
0003a0 89 82 18 3e e9 51 88 3d 8f 1c d8 3c 43 4f ca bd
       0.14893545 0.06656248 0.026380805 -0.09878399
0003b0 b3 80 e1 3d 28 db 1d 3e ac 6c 99 3c b7 25 d2 3d
       0.110108756 0.15415633 0.018728577 0.102611
0003c0 32 b2 20 be fe 31 c5 bc 1b 54 df 3d 21 61 c7 bd
       -0.15692976 -0.02407169 0.10904714 -0.09735323
0003d0 b1 8f 91 bd d8 c7 75 3d f2 79 2f bd 7e 3f 1d 3e
       -0.07107485 0.06000504 -0.042840905 0.15356252
0003e0 3a 1a b9 bd 47 20 a7 3d 09 07 bd 3d b9 ac b2 3d
       -0.090382054 0.08160453 0.092298575 0.087243505
0003f0 a4 5c 1a 3d e5 09 21 3e f5 9b da 3d 98 02 f5 3d
       0.037686005 0.1572643 0.10674278 0.11963385

bias_ih_l0 f4 [120]
000000 96 50 1f 3b 7d 41 ec 3d 4b 28 3e bd 9c 45 f5 3c
       0.0024309508 0.115359284 -0.046425145 0.029940419
000010 e5 89 c5 3d cc 64 2f 3d 98 8c ff bd b9 c5 da bd
       0.09645442 0.042820737 -0.12477988 -0.10682244
000020 65 c3 24 be 69 23 90 bd b5 c7 bb bc 0e b9 92 bc
       -0.16090162 -0.07038004 -0.022922376 -0.017910507
000030 4a dc 0d bd ee 86 8e bd 0a 61 b0 3d 97 68 d3 3b
       -0.034633912 -0.069593295 0.08612259 0.006451677
000040 07 19 1d 3c b8 09 c7 3d 86 10 bc 3d ab 2d 12 bd
       0.0095884865 0.097186506 0.09182839 -0.035688084
000050 d6 bd 6c bd 50 40 c9 3c 64 4b 4a 3c d7 ba 03 be
       -0.05779823 0.0245668 0.012347076 -0.12864242
000060 56 a0 02 be c2 fb aa bd b3 a2 ca 3d 79 bc b8 3c
       -0.12756476 -0.083488 0.09894314 0.022550808
000070 b8 ff c6 3d ce 10 bc bd d8 8e b2 3d 09 24 02 be
       0.09716743 -0.09182893 0.087186515 -0.12709059
000080 96 49 80 3a df 1d 18 3b 1c 8a c9 bd d8 09 fb bd
       0.0009787555 0.0023211164 -0.098407954 -0.12257737
000090 f1 d2 62 3d cc 72 6b bc 6d d8 60 bd 22 4e d8 bd
       0.05537695 -0.014370631 -0.0548939 -0.10561778
0000a0 5a 5a c8 3d af 2b a2 bd 1c 62 a7 3d ef ee fd 3d
       0.09782858 -0.07918488 0.0817301 0.123990886
0000b0 54 c0 f1 3d 35 7a e5 bc 0e cc ac 3d 58 a6 1d be
       0.11804262 -0.028012374 0.08437358 -0.15395486
0000c0 6e 40 7f 3d 00 4e 14 be 4b eb c4 bc a7 64 11 3e
       0.062317304 -0.1448288 -0.024037978 0.14198552
0000d0 79 4a a2 bd 57 a5 20 3e 5b 4a 15 3e 6e 48 b1 3c
       -0.07924361 0.15688072 0.14579146 0.021640982
0000e0 f2 14 8a bd 76 a3 9c 3c 80 71 09 3e 9d c2 0e bd
       -0.06742276 0.019120913 0.13422203 -0.034853566
0000f0 55 50 10 be 15 54 9e 3d c6 b4 48 3c 9a 6b 82 3d
       -0.14093144 0.07730881 0.012250131 0.063681796
000100 41 3b f6 3d b8 8d 14 bd 99 68 2c 3d c3 d7 76 bd
       0.120230205 -0.036267966 0.04209194 -0.06026436
000110 9a eb 8d 3d c3 9c a7 bd 8c 71 fb bb e7 f0 9e bd
       0.06929703 -0.08184197 -0.007673448 -0.07760792
000120 80 b7 b7 3d 02 94 88 3d 3c e5 1f 3e 5f 46 28 3e
       0.08970547 0.06668855 0.1561479 0.16433094
000130 d0 28 5b 3d 22 4b 0a be ed 1b 10 3d d4 a5 ba bd
       0.05350572 -0.13505223 0.035182882 -0.091136605
000140 01 cd ec bc 61 da 84 bd 21 ba 7e 3d 36 41 12 bd
       -0.028906347 -0.06486965 0.062189225 -0.03570672
000150 55 02 71 3d d8 9c 2f 3d ce b7 d3 3d 40 20 c2 bd
       0.058840115 0.042874187 0.10337792 -0.094788074
000160 98 86 f3 3d 76 62 88 bd cb ea 68 bd 70 28 13 3e
       0.11890906 -0.06659405 -0.05686454 0.14370894
000170 f2 84 f3 bd d5 30 6d ba 15 60 5b 3b b9 fd a9 bd
       -0.11890592 -0.0009048109 0.0033474017 -0.08300347
000180 dd 06 80 bc fd c9 13 bd dd a3 08 be 74 6d 79 bc
       -0.015628273 -0.036081303 -0.13343759 -0.01522385
000190 88 63 f4 3c cb 5f e3 bc 30 37 29 3e d2 37 02 3e
       0.029832616 -0.027755639 0.16524959 0.12716606
0001a0 4e 15 9e bd 43 f2 07 3e 72 17 76 bd b4 85 18 bd
       -0.07718907 0.1327601 -0.060080953 -0.037236884
0001b0 c1 b0 43 3d 35 4d 7c 3d 22 28 15 be 69 7c 93 3c
       0.047775988 0.061597068 -0.1456609 0.01800366
0001c0 a9 2b 19 3e 37 fa f3 bc 04 98 91 3c db fd 8d bd
       0.14958061 -0.029782398 0.017772682 -0.06933185
0001d0 29 30 0c 3e dc 03 21 3e 13 c2 37 3d 1c 79 d9 bc
       0.13690247 0.15724128 0.044862818 -0.026547007

bias_hh_l0 f4 [120]
000000 36 f8 1a 3e 40 22 a8 3d 0e f6 27 3e 21 16 85 bb
       0.15133747 0.08209658 0.16402456 -0.004061476
000010 4d 6b 27 3e 94 7a 1f bd 84 62 58 3c ca aa a0 3d
       0.16349526 -0.03893526 0.013207082 0.078450754
000020 4c 11 a7 bc 2a 41 04 be 37 71 58 bd fd 20 a9 3d
       -0.02039399 -0.12915483 -0.052842345 0.08258245
000030 71 94 f1 3d 18 c2 2a be b1 e0 47 3d bd 6f c6 3d
       0.11795891 -0.16675603 0.048798267 0.09689281
000040 55 b9 eb bc 41 00 ce bd d2 6f f5 bd 7b 15 22 3e
       -0.028774897 -0.10058642 -0.11984219 0.15828507
000050 95 e1 81 bc d2 c8 a0 bd f5 88 c6 3d 94 60 58 3c
       -0.015854636 -0.078508034 0.09694091 0.01320662
000060 e4 3a f7 bb 34 de a7 bd 2d 6c a9 bd 21 53 95 3d
       -0.007544862 -0.08196679 -0.08272586 0.07291246
000070 29 4d 03 3e 3e 24 b4 bd e9 85 f6 bc 29 04 28 bd
       0.12822403 -0.08795975 -0.03009315 -0.041019592
000080 cb f9 9d 3c 4c 1f 13 be b3 85 15 be 3c 3f 36 3d
       0.01928415 -0.14367408 -0.14601783 0.0444939
000090 12 90 e9 bd b6 95 91 3d ce 2a 14 3e 76 21 9b 3d
       -0.11404432 0.07108633 0.14469454 0.075747415
0000a0 9a aa 03 be 05 7c c7 3d 71 21 12 3e 67 38 4a bd
       -0.12858048 0.09740452 0.1427057 -0.049370196
0000b0 c5 06 f2 bd 87 fa 0f 3e da 05 ab 3d 8c 4a f9 bd
       -0.118176974 0.14060412 0.083507255 -0.12172422
0000c0 b8 98 67 bd 62 8c f5 3d cd 61 e0 3c e9 ba 17 be
       -0.05654213 0.119896665 0.027390385 -0.14817394
0000d0 0c b3 f7 3d 36 d0 c9 bc a2 e2 e3 3d ea fb 8d 3d
       0.12094697 -0.024635416 0.11127211 0.069328144
0000e0 a5 15 08 be 31 d4 6e bd 43 55 df 3d 80 11 1b 3e
       -0.13289507 -0.05830783 0.10904934 0.15143394
0000f0 33 6f fe bd 2e e7 8b 3d 14 1c 27 3d a4 03 ff bd
       -0.12423553 0.068312034 0.04079826 -0.12451866
000100 6d 7d d3 3d ed 9c 67 3c 0e ef ab bd 7b 33 05 3d
       0.103266574 0.014136535 -0.083952054 0.0325198
000110 5b 30 04 be 6c 24 f9 3d 89 a7 b1 3d ce fd f5 3c
       -0.12909071 0.1216515 0.08674533 0.03002825
000120 3a 78 06 be 16 8d f0 3d 4f 59 42 3d 61 f3 46 bd
       -0.131318 0.1174566 0.047448453 -0.048571948
000130 c2 0c d2 3c 2d a2 13 be 6b 2f e9 3c 4f 1d 87 3d
       0.025640849 -0.14417334 0.028464993 0.06597387
000140 31 28 32 3e 46 61 1d 3c a3 88 97 3d c3 e6 35 3d
       0.17398144 0.009605711 0.07399108 0.044409525
000150 5d 05 95 bd 58 36 f4 bd 97 7e b8 bd e8 91 3e bd
       -0.072764136 -0.11924428 -0.0900852 -0.046525866
000160 a0 d9 0e 3e 12 26 57 3d 93 e9 d1 3d 42 fc 1a be
       0.13950205 0.05252654 0.10249629 -0.15135291
000170 c8 69 d3 3d d7 ed 04 bd 4f e4 8c 3d ea 3b 19 3e
       0.103229105 -0.032453384 0.06879484 0.14964262
000180 8a 98 70 bd b1 b8 7f 3d 69 13 d1 3d e9 ca 00 3e
       -0.058739223 0.062431995 0.1020878 0.12577404
000190 97 f9 f8 3d 2a 5d 7a bd 1b 54 ed 3c e6 bd 91 bd
       0.121569805 -0.061124004 0.028970769 -0.071162984
0001a0 aa 1d cf 3c 29 7f 80 3d 33 f3 72 bb 3b fa 77 3d
       0.0252827 0.06274254 -0.0037071228 0.060541373
0001b0 7f 75 3d bd 75 d6 13 3e cb 42 0d 3e 48 b1 4c 3d
       -0.04625463 0.14437278 0.13795011 0.049973756
0001c0 cb dd 12 bd 09 fe c7 3d 27 6a f7 3d a1 75 d5 3d
       -0.03585605 0.0976525 0.12080794 0.104228266
0001d0 ef 63 81 bd da 36 d2 bc 81 89 d8 bc 3c d2 02 be
       -0.06317889 -0.02566092 -0.026432754 -0.1277551

weight_ih_l1 f4 [120, 40]
000000 fc fc c6 bd ad ee 15 3e 5f cb a9 bd 57 3c e5 3d
       -0.09716222 0.14641829 -0.08290743 0.111931495
000010 ec 90 1b 3e c5 5e e2 3c ea 48 8a 3d 35 ea 43 3d
       0.15192002 0.02763308 0.067521885 0.04783078
000020 4a 00 ee bd 71 74 ce bd e5 a1 03 3e 0b dc 95 bc
       -0.11621149 -0.10080803 0.12854727 -0.018293401
000030 76 af a4 bd b2 17 13 bb 85 03 ef bd 67 15 b8 bd
       -0.08041279 -0.0022444543 -0.11670593 -0.08988457
000040 df dd 20 bd 61 b3 e1 ba f2 53 de bd a1 55 9c 3d
       -0.039274093 -0.0017219597 -0.10855855 0.0763352
000050 ec 41 03 be e5 b9 15 be aa 9e 20 3d 9b d5 0b be
       -0.12818116 -0.14621694 0.039213814 -0.13655703
000060 ae d2 04 3e 89 82 61 3b 4a 85 48 3d 6a 79 f9 bd
       0.12970993 0.003441008 0.04895524 -0.12181361
000070 2a 17 06 be ca 79 0e 3e 34 fe 78 bd e1 0b 8e bd
       -0.13094774 0.13913646 -0.060789302 -0.069358595
000080 b9 a8 9b bc 8e a3 64 bd 69 17 09 3d ef 7a 91 bd
       -0.019001352 -0.05582004 0.03346959 -0.07103526
000090 54 92 d3 3d 1c 60 14 be 41 51 88 bd 77 ae 81 bd
       0.10330644 -0.14489788 -0.06656123 -0.06332105
0000a0 6d ce 15 be 61 d0 86 bd 76 c7 95 3d 4a 1c ba 3d
       -0.14629526 -0.06582714 0.07313435 0.09087427
0000b0 9a 0d e1 bd 5d 86 1b be b6 4e 0c be 13 3b 1f be
       -0.109889224 -0.15187974 -0.13701901 -0.15549879
0000c0 d7 0d 0f 3e 6b 9f 90 bd 84 58 a3 3d a1 7a f5 3d
       0.13970123 -0.070616566 0.079758674 0.1198628
0000d0 f3 f7 c5 3d 60 58 15 be 3e d4 df bd 72 16 a8 bd
       0.09666433 -0.14584494 -0.10929154 -0.08207406
0000e0 74 23 0f 3e a0 45 ac bd 7e c0 3a 3c 78 28 79 3b
       0.13978368 -0.084117174 0.011398433 0.0038018506
0000f0 64 4b a9 3d 12 b1 04 be b1 f6 71 bd cf 8a b3 bd
       0.08266333 -0.12958172 -0.059073154 -0.0876671
000100 20 ab b8 3d 84 5f c4 3c 2c 5d 36 bc c0 1b 02 3d
       0.090170145 0.023971327 -0.011130612 0.031764746
000110 29 9d 1d be be 09 f3 bd 7a ee 10 3e 94 d5 40 3c
       -0.15391983 -0.118670925 0.14153472 0.011769671
000120 3b 5a f3 3d 0c 7f d1 bd 67 6b cb 3b 4f 87 fe 3b
       0.118824445 -0.102293104 0.0062078717 0.007767595
000130 c1 84 76 bd 48 62 d9 3d 3e 36 18 3e 5a 9f f2 39
       -0.060185198 0.10614449 0.14864442 0.00046276563
000140 a8 0e cd 3d 85 d0 2a 3e b2 2d df 3d 56 bb c0 bd
       0.10012561 0.16681106 0.108973876 -0.094107315
000150 86 87 29 3d 2e c5 2f bd a9 ef df bd b1 98 f9 3d
       0.04138901 -0.042912655 -0.109343834 0.12187327
000160 ae 9f 55 bd 83 2c 83 bd 09 d3 96 bd 65 b8 0c be
       -0.052154236 -0.06404974 -0.073644705 -0.13742216
000170 a5 bf fc bb 8d 3a a9 3d 1d ac 0b be 68 49 c3 3d
       -0.0077132755 0.08263121 -0.13639875 0.095354855
000180 cd f0 34 bc 99 ff d5 3d aa e9 0a 3e 07 80 e3 3b
       -0.0110437395 0.10449142 0.13565698 0.0069427523
000190 0e 89 0c 3e 8e b5 e4 3b d3 6b b1 bc 66 44 1f bd
       0.13724157 0.006979651 -0.02165786 -0.03888359
0001a0 d2 f7 ca bb fb 32 73 3d 1c 5d f6 bd 60 c0 19 3e
       -0.0061940933 0.05937479 -0.12029478 0.15014791
0001b0 0f de b5 3d 55 76 3f 3d 83 50 9c 3d 36 de 0b bc
       0.08880245 0.04674371 0.07632544 -0.008536866
0001c0 18 25 0e 3d fa 65 ce bd 9e 07 5b bd 88 e7 8b bd
       0.034703344 -0.10078044 -0.05347406 -0.068312705
0001d0 d9 d9 ba bd cf 41 5d bd 62 39 08 3e c1 65 b1 bd
       -0.091235824 -0.054017838 0.1330314 -0.08661986
0001e0 d6 84 2a 3e 27 c3 d7 3c a8 0a c0 3d 89 33 bd bd
       0.16652235 0.026338173 0.093770325 -0.09238345
0001f0 0f f0 fa 3d b3 06 05 3e 51 1d b7 bd 90 3a 80 3c
       0.12252819 0.12990837 -0.089411385 0.015652925
000200 1d dc 23 3c 70 e6 b9 3d b5 85 8f bd 3d 71 0e 3e
       0.01000121 0.090771556 -0.070079245 0.13910384
000210 42 84 26 bd 43 cb ed 3d c5 43 0c be 5c cb 08 be
       -0.040653475 0.11611035 -0.13697727 -0.13358825
000220 04 1b db bd 8c 7f ac 3d 1d 8b d4 bd 25 34 08 3e
       -0.10698512 0.08422765 -0.10378096 0.13301142
000230 e3 c7 10 bd 37 72 2d bd 90 65 51 bd 93 4f e2 bc
       -0.035346877 -0.042345252 -0.05112225 -0.027625835
000240 70 ec c9 3c ad 75 b5 bd 8b eb e3 3d 51 61 99 3d
       0.024648875 -0.088603355 0.11128911 0.07489265
000250 6f 9b cf bd 76 77 d8 bd 63 32 6d 3d c2 dd 08 3e
       -0.101370685 -0.1056966 0.05790938 0.13365844
000260 3d 67 f5 3d 23 3d ba 3d 3a 3b 49 3d 71 9a df bd
       0.11982582 0.09093692 0.04912875 -0.10918129
000270 24 e3 fe bc ff b8 10 be c0 b0 65 3c 67 81 ce bd
       -0.031114168 -0.1413307 0.014019191 -0.10083275
000280 a9 81 9b 3d 4a ca 8a bd 53 7b 8c 3d 0b 06 08 be
       0.0759309 -0.06776865 0.0685946 -0.13283555
000290 8e 2d b6 3d 08 65 88 bd 74 07 ac 3d 29 cd ab bd
       0.088954076 -0.06659895 0.08399859 -0.083887406
0002a0 33 29 e7 3d 2a f7 c2 3d 07 ee 8a 3d 9d 14 80 bc
       0.11287155 0.09519799 0.06783681 -0.01563483
0002b0 b9 e6 8c 3d 72 b4 94 bd c4 c1 08 bd fd eb 2a 3e
       0.06879944 -0.0726098 -0.033387914 0.16691585
0002c0 b9 ae b7 3d 29 9c 96 3d 84 00 fc bb c0 60 0f be
       0.089688726 0.07354004 -0.007690491 -0.14001751
0002d0 3a ed ff 3d bd d5 39 3d 44 dd 07 3e c0 ab db 37
       0.12496419 0.045369852 0.13268 2.6186812e-05
0002e0 e5 7d 87 3d 3d 9b 05 be 09 31 7c bd 08 e1 06 3e
       0.06615809 -0.130475 -0.0615702 0.1317178
0002f0 d6 49 26 bd a4 66 11 bd c5 6a 7f 3d 5c 23 ba 3c
       -0.04059776 -0.035498276 0.062357683 0.022721939
000300 09 52 fe 3d 95 c9 1c 3e 02 f7 85 3c 3e db 04 3e
       0.12417991 0.15311272 0.016353134 0.1297426
000310 81 a6 0f 3e f2 fa 3d 3d b5 93 bf 3d af 3a 21 3c
       0.1402836 0.0463819 0.09354345 0.009840651
000320 c3 42 f8 bd 63 94 a9 3d 80 24 c8 bd 85 4a 42 3d
       -0.12122109 0.08280256 -0.09772587 0.04743435
000330 e1 78 fe 3d 54 5f af bd ac a9 0a be fb 94 f1 3c
       0.124253996 -0.08563104 -0.13541287 0.029489985
000340 f8 86 17 bd f8 7f d2 3d 32 90 d0 3c 55 5e 01 be
       -0.03699395 0.10278314 0.025459383 -0.12633641
000350 24 86 b7 bd ff b8 3f 3d 99 6f 15 3e 05 57 ce 3c
       -0.08961132 0.046807285 0.14593352 0.025187979
000360 b2 d6 0c bd 40 b4 65 3c 70 b3 da bd db 70 4f bd
       -0.034384437 0.014020026 -0.10678756 -0.050644737
000370 07 6a 12 be 4a 36 8c 3d 9a e6 be bd a1 9a 30 be
       -0.14298259 0.06846292 -0.093213275 -0.17246486
000380 b2 fc 18 be c3 b2 33 3d 81 05 45 bd dd 3f 2d 3c
       -0.14940146 0.043871652 -0.048100952 0.010574308
000390 29 4f 25 3e 14 a2 28 3c 3b 48 ca 3d 44 b1 f0 bc
       0.16143478 0.010292549 0.09877058 -0.029381402
0003a0 42 f8 d3 bc 2c ad 90 3d f5 c7 99 3d 31 63 a1 bd
       -0.025875214 0.0706428 0.07508842 -0.078802474
0003b0 ad 45 01 bd 33 c3 03 3e 29 d0 8c bc 9e 5b eb bd
       -0.03156059 0.12867431 -0.017189102 -0.11492084
0003c0 a6 2b 8a 39 c2 4f 79 bd 53 8d b7 3d 98 d0 c6 3d
       0.00026353932 -0.06086708 0.08962502 0.09707755
0003d0 8a 0f 53 bd 8b 2c 19 be 46 c6 cd 3d 3c 03 1c 3e
       -0.05152849 -0.14958398 0.10047583 0.15235609
0003e0 2a c1 9b bd 2a 40 07 be 24 7d e0 3d 39 85 3f 3d
       -0.076052025 -0.1320807 0.10961369 0.04675791
0003f0 7a bc 45 bd cc ce 1d 3e 74 89 06 bd 11 d3 01 3d
       -0.04827545 0.15410918 -0.03284593 0.03169543

weight_hh_l1 f4 [120, 40]
000000 a5 73 96 bd a4 6d d6 3c 7d 70 d2 bd c8 a2 53 3b
       -0.07346276 0.026175328 -0.10275362 0.003229307
000010 c5 c6 e2 bd 2b e0 4c 3d a9 3f 5f bd f5 0a 37 bd
       -0.110730685 0.05001847 -0.05450407 -0.044688184
000020 88 77 e1 3d f7 d7 ee bc 06 b9 ce bc 90 95 8b 3d
       0.11009127 -0.029155714 -0.02523471 0.06815636
000030 3a c5 56 3d 84 b7 1a 3d b4 e2 db 3d 4f 42 91 3d
       0.052434184 0.03777267 0.107365996 0.070927255
000040 cf 5e 59 bd d5 00 91 bd f3 7e 4b bd 6f 5e 5f bc
       -0.053068932 -0.07080237 -0.049681615 -0.013633355
000050 04 da 23 be 1f 76 9d bd bc 49 14 3e 99 af 00 3e
       -0.16001135 -0.076885454 0.14481252 0.12566985
000060 d5 23 bf bd 6f a6 27 be f3 bb f6 3d f0 11 ea bd
       -0.09333006 -0.16372083 0.12047567 -0.114292026
000070 9b 0b a4 bd 01 3a 03 be 38 dd 98 3d 24 d6 14 3e
       -0.08010026 -0.12815095 0.07464069 0.14534813
000080 ff e1 83 bd d5 e6 e9 bc ff 1d 03 be d7 b7 1b 3e
       -0.0643959 -0.028552452 -0.12804411 0.15206848
000090 48 21 1b 3d da 09 5a bd 7b f8 c6 bc 2e cf a1 bd
       0.037873536 -0.05323205 -0.024288407 -0.079008445
0000a0 c0 02 79 bc 8f db 9d bd 36 27 eb bd 60 87 26 bd
       -0.01519841 -0.07707893 -0.11482088 -0.040656447
0000b0 c7 44 5b bd 16 07 a2 bc 1f e8 2d bd 35 80 c9 bd
       -0.053532388 -0.01977877 -0.042457696 -0.09838907
0000c0 f9 a4 04 bd 87 87 0e 3e d0 60 4b 3c f6 83 a5 bd
       -0.032383893 0.13918887 0.012413219 -0.0808181
0000d0 20 77 9d 3d 58 0f 9d 3d 94 b9 a0 3d e9 36 c9 bd
       0.07688737 0.07668942 0.07847896 -0.098249264
0000e0 ef 04 06 be e5 aa eb bd f9 ab 86 3c 16 9e c0 bd
       -0.1308782 -0.11507205 0.016439425 -0.094051525
0000f0 2e 53 05 be 34 4e 96 ba 47 a7 93 bd 63 68 dd bd
       -0.13020012 -0.0011467398 -0.0720964 -0.10810926
000100 61 1c a3 bd 25 77 06 bd 7c a0 87 3d e6 2b d2 bd
       -0.07964397 -0.03282847 0.06622407 -0.10262279
000110 69 5a 50 bd ad 89 0a 3e d9 22 89 bd e2 cb e4 3b
       -0.05086747 0.13529082 -0.066961 0.0069823125
000120 95 10 e9 3c 6c 59 0f 3e 50 78 a8 3d 63 4f 50 3c
       0.02845029 0.13998955 0.08226073 0.01271424
000130 1e d8 1e be 08 43 c9 3d 4d a9 69 3d b4 97 6a bd
       -0.1551213 0.09827238 0.057046223 -0.05727358
000140 6c 09 53 bd ff 20 1c be ef 9e f2 3c df a6 9d bd
       -0.051522657 -0.15246962 0.029616801 -0.07697844
000150 28 15 48 3d d8 72 0f be 8d f3 e3 3d 0b be 8e 3c
       0.0488483 -0.14008653 0.11130438 0.017424604
000160 08 f0 0f 3d 49 12 09 be 76 a4 8e 3d 69 e8 3a bd
       0.03514102 -0.13385881 0.06964962 -0.0456318
000170 1e 73 d5 3b b1 7a 08 be 94 3e ab 3d e2 6c 0a be
       0.006513967 -0.13328053 0.08361545 -0.13518098
000180 92 30 21 be b7 4f 3a bc 9b b6 89 bd 75 1c 27 3c
       -0.15741184 -0.011371545 -0.06724282 0.010199656
000190 15 24 83 3d 80 ba 91 3d 64 fb d3 bd 29 37 bd bd
       0.064033665 0.0711565 -0.10350683 -0.092390366
0001a0 c7 60 13 be 37 16 bc bd 4d 2a b5 3d ce 9d ce bd
       -0.14392386 -0.09183925 0.08845959 -0.100886926
0001b0 9d f4 3d 3d 4f 1e 9f 3b e3 18 e4 bd 58 cd 24 3d
       0.04637586 0.004855908 -0.11137559 0.040234894
0001c0 e7 1e f2 3d be 1e 43 3d 55 c9 12 be 75 84 eb bd
       0.118223004 0.04763674 -0.14334615 -0.114998735
0001d0 a3 8d ca bc b8 55 55 3a 28 52 5e 3d d8 d6 22 be
       -0.02472574 0.0008138078 0.05427757 -0.15902269
0001e0 68 02 08 be 3d 87 1f 3c d0 a2 32 3c a8 df 96 bd
       -0.13282168 0.009736833 0.010903075 -0.07366878
0001f0 c7 25 fd bd d2 74 f6 3d 1b 8b f5 bd 46 96 13 3d
       -0.12360721 0.120340005 -0.11989423 0.036031984
000200 3f d8 0f 3d eb 46 b8 bd 36 50 8d bd 2b a5 09 3e
       0.035118338 -0.089979015 -0.06900065 0.13441913
000210 73 4a d3 3d 09 61 9d bd fd 3f 2b be 07 59 31 bd
       0.103169344 -0.076845236 -0.16723628 -0.043297794
000220 f5 45 95 3d fa c4 88 bc 8e b1 4d bd b6 73 e5 bd
       0.07288734 -0.016695488 -0.050218157 -0.11203711
000230 e9 34 3e bc 52 9d 74 3d 70 5f 09 be b8 ab ac 3c
       -0.011609294 0.059720345 -0.13415313 0.021077976
000240 0b 36 a9 bc 7a 66 b9 3d bc 70 80 bd 8e 2c ba bc
       -0.020655653 0.09052749 -0.062715024 -0.022726323
000250 4e 0f 0e 3e 1d bb 58 3c ec 24 03 be 57 b6 0b 3d
       0.13873026 0.013228205 -0.12807053 0.03410944
000260 65 95 bc 3b 3e a8 aa 3d 78 76 ea bd 3b 3b b4 bd
       0.005755114 0.08332871 -0.11448377 -0.0880036
000270 7a ea 8f bd 06 e5 7f bd 45 16 1d be 8e 8d dc 3d
       -0.07027145 -0.062474273 -0.15340526 0.10769187
000280 41 9e ab bd bc 35 5c bc b1 7c 96 bd c4 bc 35 bd
       -0.08379794 -0.013440546 -0.07348002 -0.044369474
000290 9a 1c 87 3d 16 33 bf bd 27 21 3b 3d be 90 9d 3d
       0.06597252 -0.09335916 0.045685913 0.07693623
0002a0 7a 2c d4 bd 10 8c 14 3d 52 c7 80 bd 3c 92 0c 3d
       -0.10360046 0.036266387 -0.06288017 0.034319147
0002b0 b8 b7 74 3d a7 6a 9b 3b 7f a9 a4 bc 63 37 04 3c
       0.05974552 0.0047429386 -0.020100353 0.008069846
0002c0 88 6d 01 3e b7 8a 94 bd db e1 99 ba f4 ad 03 be
       0.12639439 -0.0725302 -0.0011740284 -0.12859327
0002d0 89 fd 7d 3c 56 0e b6 bd 8a 0e 3e bd 4c 14 f4 bd
       0.015502342 -0.08889453 -0.046400584 -0.11917934
0002e0 1e 48 e1 bc 8f 96 d1 bd 37 81 96 3c 3d e3 11 3d
       -0.027500208 -0.10233795 0.018372161 0.035617102
0002f0 d2 e2 e9 3d a2 ba 64 3d e4 31 11 be 6c aa f4 bd
       0.11420216 0.05584205 -0.14179188 -0.11946568
000300 25 47 d0 3d 83 db 58 bc 78 3e a2 3d 94 74 30 3c
       0.1016982 -0.013235929 0.07922071 0.010769982
000310 12 ba 34 bd 7f a3 80 bd 64 09 76 3d 47 79 3e 3d
       -0.044122763 -0.062811844 0.06006755 0.046502378
000320 d5 e1 d6 bd 1a 95 f7 bd 91 e8 0f be da 73 92 bd
       -0.10492293 -0.12088986 -0.14053561 -0.07151003
000330 77 55 c7 bd ea b2 0d 3e 40 ae bc bd 4a 3d 44 3d
       -0.09733098 0.13837782 -0.09212923 0.047910012
000340 e1 60 12 be 59 04 c7 bd 5e 76 3e 3c 3a 5e f0 bd
       -0.14294769 -0.09717626 0.011624901 -0.11736722
000350 2d 86 80 3d 3d b4 a3 3d 94 7b cd bd 62 a2 ac bd
       0.06275592 0.07993362 -0.10033336 -0.084294096
000360 1a 0e 5b bc 72 09 81 bd e3 1c 2b bd 5c 66 18 3e
       -0.013370061 -0.0630063 -0.041775595 0.14882797
000370 58 70 0b bd 03 d9 fc 3d 20 09 04 b9 1d 04 03 3e
       -0.034042686 0.12346079 -0.000125919 0.12794538
000380 b2 84 15 3e 4c aa a5 bd fd ea 14 3e 66 ac 15 3e
       0.146014 -0.08089122 0.14542766 0.14616546
000390 0c bc 3d 3d 87 ef ef 3d e3 0c 1f be 66 b6 15 3e
       0.046321914 0.11715608 -0.1553226 0.1462036
0003a0 ca c3 cb bc 63 d6 df 3c c9 81 e9 3d 6e 43 01 3e
       -0.024873633 0.027323907 0.11401708 0.12623379
0003b0 12 b2 e8 3d 7b 70 c0 3d 57 7e 29 3c 94 10 20 3e
       0.11362089 0.09396454 0.010345063 0.15631324
0003c0 f8 6b a0 bc 5b df f7 bd d8 2b ed bd c1 91 84 3d
       -0.019582734 -0.121031485 -0.11580628 0.06473113
0003d0 ab eb 00 3e 20 a4 27 be 68 74 2d bd 97 d9 ea 3d
       0.125899 -0.16371202 -0.04234734 0.11467283
0003e0 7b 93 e4 ba fc b4 ac 3d 33 87 19 be 90 e5 1c 3e
       -0.0017438972 0.084329575 -0.1499298 0.15321946
0003f0 78 1b 18 3e 1b 6c 00 3e d7 92 fb bd aa cc 0c 3e
       0.14854228 0.12541239 -0.12283867 0.13749948

bias_ih_l1 f4 [120]
000000 20 4b b5 3d 74 b3 de bd 10 48 2a 3d 3f af 5f 3d
       0.088522196 -0.10874072 0.04157263 0.054610487
000010 96 b8 7d 3d b3 58 df 3d 36 8d 08 be c6 de 0e 3e
       0.061943613 0.1090559 -0.13335118 0.13952169
000020 0a b3 26 be 06 6b ca 3d 00 4a c7 3d da ca 32 3d
       -0.16279235 0.09883694 0.09730911 0.043650486
000030 61 38 38 bd 6b e9 58 bd ec ed 0e 3e d8 b2 7d 3d
       -0.044975642 -0.05295698 0.13957947 0.061938137
000040 f2 38 60 bd cd 56 96 3d 65 d7 1c 3e ac e9 49 bd
       -0.054741807 0.07340775 0.15316541 -0.049295112
000050 fd 7d e0 bd 88 f3 24 3e 9f 0d e1 bc 2c 5f 9c 3c
       -0.1096153 0.16108525 -0.027472315 0.01908835
000060 1e e4 1a be 9c 89 11 3e 51 38 15 be 29 37 2e 3d
       -0.15126082 0.1421265 -0.14572264 0.042533074
000070 83 b6 10 be d6 d9 83 3d 7a c1 5c bd b1 c4 c2 3d
       -0.14132123 0.06438033 -0.05389545 0.09510172
000080 b1 40 8c 3d c5 85 2b bc d2 f4 d9 3d 44 d9 fd bc
       0.068482764 -0.010468905 0.10642399 -0.03098739
000090 f0 02 63 bd 20 56 a4 3d ba 57 d4 3d 64 3c 82 bd
       -0.055422723 0.080242395 0.10368295 -0.06359175
0000a0 ae 6c cc bd 94 c9 e2 bd 38 cd 8b 3d 86 84 29 3e
       -0.099816665 -0.11073604 0.06826252 0.1655446
0000b0 5d 38 80 3d 44 2e 8a 3c 17 3a 2a bd d8 d3 b0 bd
       0.062607504 0.016867764 -0.041559305 -0.08634156
0000c0 93 f1 8a bd 58 75 d5 bd 77 a5 e1 3d 74 54 47 bd
       -0.06784358 -0.10422772 0.11017888 -0.048664525
0000d0 e8 a0 02 be db ae b0 bd 1f cb a6 3d 9e db b6 bd
       -0.12756693 -0.08627101 0.08144211 -0.089286074
0000e0 ae 34 98 3d f1 8b b9 bc 1a 86 fd 3d 3d 7e d7 3d
       0.07431923 -0.022649737 0.123790935 0.10522125
0000f0 1e 87 08 3e 3c b1 a6 bd 87 de d3 bd 60 93 92 bb
       0.13332793 -0.081392735 -0.10345178 -0.004473135
000100 4c ed 10 3e 2f 33 89 3c 47 61 aa bb 92 d1 d5 3d
       0.14153022 0.016748039 -0.0051995846 0.10440363
000110 df d0 06 be 40 04 6a 3b dd 09 d4 bd 1d 55 75 bd
       -0.13165615 0.00357081 -0.10353444 -0.059895623
000120 a9 90 4d 3d 9a 63 90 bd a5 41 80 bd aa 36 b9 bc
       0.050186787 -0.070502475 -0.06262521 -0.022609074
000130 a7 4b 20 be 6b 89 9b bd e2 df 8f 3c b3 49 12 be
       -0.15653859 -0.0759457 0.01756281 -0.14285927
000140 39 62 07 be 75 11 25 3e 61 23 bc 3d ef a8 d3 bd
       -0.13221063 0.1611994 0.091864355 -0.10334956
000150 dc 91 ea 3d 50 23 79 3d 9b 04 9a 3d 21 41 a5 bd
       0.11453602 0.060824692 0.0752041 -0.08069063
000160 94 cc b4 bd 35 c8 db 3d 2a 6d 52 3d d6 3c 75 3d
       -0.08828083 0.10731546 0.05137364 0.05987247
000170 39 ad 28 3e db 22 fa bc 85 94 16 3e 74 9b 8a bd
       0.16472329 -0.030534199 0.14705093 -0.067679316
000180 c7 94 d3 bd bb 2c 4e bc c6 52 d7 3c c1 e3 15 be
       -0.103311114 -0.012583907 0.026284587 -0.14637662
000190 49 09 0e 3d ca 1e 48 3d 01 dc 12 3e e2 3b ac 3d
       0.034676824 0.048857488 0.14341737 0.08409859
0001a0 b5 2e fb 3d 70 17 8c ba 74 4c 04 be f5 37 da bd
       0.12264768 -0.0010688137 -0.1291979 -0.10655204
0001b0 81 03 61 3d 8a 74 08 3e ad 02 f6 bd ba bd 7b 3d
       0.054934982 0.13325706 -0.12012229 0.061460234
0001c0 db 5f 16 3d 49 92 25 be 9a 6a 10 3e 3e b8 92 3d
       0.03671251 -0.16169085 0.14103165 0.07164048
0001d0 19 09 f5 3b 67 6a 14 3d 79 e5 30 3c 7f 93 e6 3d
       0.007477891 0.036234286 0.010796898 0.112586014

bias_hh_l1 f4 [120]
000000 69 4e 8a 3d 14 7d cc bd 78 32 d5 3c 9e 9c 67 3d
       0.06753237 -0.09984794 0.026025042 0.056545846
000010 f1 77 f4 3d 0c a5 a9 bc 75 5a a2 3d 7a e0 c8 bd
       0.119369395 -0.020708583 0.079274096 -0.098084405
000020 11 a2 fd bd 3f 42 f2 bd b8 59 ca 3b be be 52 bd
       -0.12384427 -0.11829042 0.006175246 -0.051451437
000030 62 9d 88 bd 22 41 21 bd 6b 51 14 3e 06 9b c1 3d
       -0.066706434 -0.039368756 0.14484183 0.094533965
000040 71 cd be 3d c5 21 18 3e 75 72 ed 3d db 34 d3 bd
       0.093165286 0.14856632 0.115940966 -0.10312816
000050 16 b5 d7 bd fc 3e be 3c bd 28 e3 bd 30 c4 9a bd
       -0.10532586 0.023223393 -0.110917546 -0.07556951
000060 fe b8 38 bd 04 f4 22 3d f7 98 b9 3d 78 b3 c4 3d
       -0.045098297 0.039783493 0.09062379 0.096045434
000070 62 0d f3 3c 57 d0 81 bd ca 29 aa 3d 89 ab 7f 3d
       0.029669467 -0.06338566 0.08308752 0.062419448
000080 aa 7d 6c 3d c4 1f 8e bd 8a 09 ed bd 0b 80 db bd
       0.05773703 -0.069396526 -0.11574085 -0.10717782
000090 53 a0 0b be 16 65 da 3c 4a b4 37 3d 0a 75 0c 3e
       -0.13635378 0.02665953 0.04484967 0.13716522
0000a0 07 56 06 3e 51 65 01 3e 92 2a fb bd a0 95 d7 3d
       0.13118754 0.12636305 -0.12263979 0.105265856
0000b0 e5 da 16 3c 92 2a bc 3d 8b 70 a1 bd f2 28 1f 3e
       0.009207462 0.09187807 -0.07882794 0.15542963
0000c0 37 86 de 3d 68 83 15 3d 21 e3 95 3d 04 8c 9c bb
       0.10865443 0.036502272 0.07318712 -0.0047774334
0000d0 7c 11 74 bd 21 22 ce bd 6d e4 07 be 50 2d d7 bd
       -0.059586987 -0.10065103 -0.13270731 -0.105066895
0000e0 b2 2e b9 bd 4c eb 89 3d 7d 11 6b bd aa 33 13 3e
       -0.090421095 0.067343324 -0.057389725 0.14375177
0000f0 0e 9e ea 3d c9 1c bb 3c 24 a7 e5 3c 8b ec 36 3d
       0.11455928 0.022840874 0.0280338 0.04465918
000100 aa f6 2d be 0e b8 96 3d c5 9c 22 bd 4e c0 29 3e
       -0.16988626 0.073593244 -0.03970029 0.16577265
000110 86 2b 8b 3c d3 cf ac bd 47 f4 f0 bd c4 6b 9b 3d
       0.016988527 -0.08438077 -0.11765342 0.07588914
000120 60 94 7b 3d 72 03 3a bd 50 0d b8 3d 52 fa 65 bd
       0.0614208 -0.045413442 0.08986914 -0.056146927
000130 cd 54 cf bd 48 1b 74 3d 17 90 27 bd 0c 5d 63 3d
       -0.10123596 0.05959633 -0.0409089 0.05550866
000140 26 4d a4 3d 83 b5 fe 3d 2e cd 1f 3b d3 ef da bd
       0.080225274 0.12436964 0.0024383771 -0.10690274
000150 e6 0a 82 3a 53 4d 6b 3c 71 4b da 3d 76 81 b9 bd
       0.0009921461 0.014361697 0.106589206 -0.09057896
000160 52 2b 88 bc 50 19 0c be 21 7a fd 3c bc 8a 38 3d
       -0.01662222 -0.13681531 0.030942025 0.045054182
000170 73 e7 f5 bc a6 e3 5e bd 95 6a f2 bd c4 88 c5 bb
       -0.03001759 -0.05441632 -0.11836735 -0.0060282666
000180 47 29 11 3e 10 80 4e 3d c4 e3 db bd 82 5f 89 3d
       0.14175902 0.0504151 -0.10736802 0.0670767
000190 fe 52 90 39 a5 d7 10 bd 46 fb 1d 3e 7e cd 63 3d
       0.00027527654 -0.035361905 0.15427884 0.055615894
0001a0 e6 a1 d8 bd 0f 1c 11 bd ca 67 d2 3d a2 62 06 be
       -0.10577755 -0.03542715 0.102737024 -0.13123563
0001b0 2d f7 16 be 31 fc 65 bd 33 a6 b4 3d db 8e b2 3d
       -0.14742728 -0.05614871 0.088207625 0.08718654
0001c0 41 7d 09 be 0f 4d 29 be 29 1f 84 bd a4 d5 ec 3d
       -0.13426687 -0.16533302 -0.06451256 0.11564186
0001d0 a6 4b 15 be 62 6e b4 bd 06 56 5c 3d 43 cd ed 3d
       -0.14579639 -0.08810116 0.053792976 0.11611416

weight f4 [40, 40]
000000 c5 76 d9 bd 6c ab 6d 3d f6 b5 b2 bd 2b ba 99 bd
       -0.106183566 0.05802481 -0.087261125 -0.07506212
000010 13 f7 fa bd 4e a7 6e 3d 6f f3 d1 bd 05 ca a4 3d
       -0.12254157 0.058265023 -0.102515094 0.08046345
000020 96 cf a7 3d fb 65 c1 bd 16 d3 45 bd 17 e8 9e 3d
       0.08193891 -0.09443279 -0.04829701 0.077591114
000030 2a 8b ed bd cc d6 06 bd 09 7c d4 bd 39 93 83 bd
       -0.11598809 -0.03291969 -0.1037522 -0.06424565
000040 d5 98 94 3d 57 41 03 3e 71 3a b6 bd 2a 1b d2 3d
       0.07255713 0.12817894 -0.088978656 0.102590874
000050 b7 c4 a2 bd f8 69 58 3d 91 af 2b 3d 78 d1 0e 3e
       -0.07947677 0.052835435 0.04191548 0.13947093
000060 7e 82 c4 3d bc cc 06 be c1 0a c9 3d e6 b2 e6 bd
       0.09595202 -0.13164037 0.09816504 -0.11264591
000070 c1 68 0a bd 9e b6 10 3e bb c0 05 be 41 4a 12 3d
       -0.033791307 0.14132163 -0.13061802 0.035715345
000080 82 0f 5d 3d 01 6f 21 3d 79 5a 33 3d ba 93 06 3e
       0.053969868 0.039412502 0.043787453 0.1314229
000090 5e 55 ef bd c0 9f cf 3d 17 ed a2 bd cc ea 23 3e
       -0.116862044 0.10137892 -0.079553775 0.16007537
0000a0 70 2e c4 3d ea b0 d4 3d fe 22 57 bc 64 4d 04 be
       0.0957917 0.10385306 -0.013130901 -0.12920147
0000b0 ac dc ce bd c0 e4 8b bd de 70 ff 3d 27 8e 22 3e
       -0.101006836 -0.0683074 0.124726996 0.1587454
0000c0 7c 7c 22 3e 51 a4 52 bd 62 d7 04 be 90 8b f9 bd
       0.158678 -0.051426236 -0.12972787 -0.121848226
0000d0 91 ff 23 3d 45 32 d3 3d ce 33 64 bd b8 b5 c9 bd
       0.04003865 0.103123225 -0.055713467 -0.09849113
0000e0 d9 32 2d bc 53 fd 1f bd ea 8d e8 bd c0 10 6b 3d
       -0.010571205 -0.03905995 -0.11355193 0.05738902
0000f0 02 8b bd 3c 82 12 1d be de dc 8b bd 6b bb dc 3d
       0.023137573 -0.15339091 -0.068292364 0.10777935
000100 7c 71 d4 bd 7e 9c 2a 3c 8a 41 e4 bc c7 85 f2 3c
       -0.10373208 0.010413287 -0.027863283 0.029604806
000110 b0 7f e6 bd 48 76 eb bd 07 ad 11 3e 0d 90 c9 bd
       -0.11254823 -0.1149717 0.14226161 -0.09841929
000120 de 17 01 3e 10 66 b2 3d 11 b7 0d be 52 49 1e be
       0.12606761 0.08710873 -0.13839366 -0.15457657
000130 71 74 27 bc 11 ea f0 3d 78 51 11 3e 08 e9 8c 3b
       -0.010220633 0.117633946 0.14191234 0.0043002404
000140 e0 b4 d6 bd 59 22 fb 3d c7 6e c2 3d 54 0c 00 be
       -0.10483718 0.12262411 0.09493785 -0.12504703
000150 65 b5 0d 3e f8 b7 28 3d c9 6b 16 3d 2f 1f b3 bd
       0.13838728 0.04119107 0.036723886 -0.08746182
000160 bb 1e a0 3d db 61 d4 bb 67 a3 47 3d a0 0c bf bd
       0.07818361 -0.006481392 0.048739817 -0.0932858
000170 86 35 18 3e 4d 9a bd 3d ad 20 88 3d 2d 5e 3a 3d
       0.14864168 0.09257946 0.066468574 0.04549997
000180 ba 85 fe bd d0 4c e2 bc 9d 0d e3 bd 54 3f 37 bd
       -0.1242785 -0.027624518 -0.11086581 -0.04473813
000190 af 50 df bd dc 0a 0f be 52 50 26 bd ee a5 2c 3e
       -0.10904061 -0.13968986 -0.040603943 0.16860172
0001a0 ca 96 65 bd 36 61 96 bd 59 45 1a 3e cd 1f ec bd
       -0.056052007 -0.0734276 0.15065517 -0.11529503
0001b0 85 ac 0b be 4f 27 41 3c 8f e2 71 bd 3e 01 8c 3d
       -0.1364003 0.011789157 -0.059053954 0.068361744
0001c0 fe 9c 8c bc e7 6e d8 3c 6c 7d bd 3d 2c e5 76 3d
       -0.017164703 0.02642007 0.09252438 0.06027715
0001d0 de 26 a1 3d b4 2e 1f bd ba 38 08 3e 46 2b b1 3d
       0.078687415 -0.0388629 0.1330289 0.08650832
0001e0 39 9a 00 3e 7d be 02 bd eb 3c 2f bc 85 28 84 3b
       0.12558831 -0.031919945 -0.010695676 0.0040331506
0001f0 f5 da db bd e5 94 03 3e 26 95 00 3c 33 5f b4 bd
       -0.10735122 0.12849768 0.00784806 -0.0880722
000200 27 8c b3 bc 3a b4 4f bd 2c e0 2a 3d d5 b0 84 3d
       -0.021917416 -0.050708987 0.041717693 0.064790405
000210 60 7e 0a 3e 26 cd 19 3e 63 1a 03 3e df 20 a4 bc
       0.1352477 0.15019664 0.12803034 -0.020035205
000220 c2 cb 07 3e 67 e4 0c 3d 78 3c 73 bd 6e d0 ba bd
       0.13261321 0.03439751 -0.05938384 -0.09121786
000230 e4 ab 65 bc 49 c4 7c bc 83 3f bb 3c 0b 38 d1 bd
       -0.014018033 -0.015427657 0.022857433 -0.102157675
000240 84 e3 1c be eb 8b 9c bd 22 bb b0 3d 97 bb 0c 3e
       -0.15321165 -0.07643875 0.08629443 0.13743435
000250 a3 24 d9 3d 3a 5f ac 3d 9c 12 1f 3e c8 23 f1 bd
       0.10602691 0.084166005 0.15534443 -0.11774403
000260 28 4c 3c bc 48 d4 2e 3d 8d e2 19 bd cb 33 01 be
       -0.011492766 0.042682916 -0.03756957 -0.12617414
000270 ca e2 f0 bd 39 91 af bd 9a 89 ce 3d fa ec ba 3d
       -0.117620066 -0.08572621 0.10084839 0.09127231
000280 0e 07 20 3e 59 eb d8 3d ae 82 c5 3b 82 b6 b3 3d
       0.15627691 0.10591764 0.006027541 0.08775045
000290 93 ec 0d be b8 a8 32 3e f1 0a 92 bc 5d 71 87 bd
       -0.13859777 0.17447174 -0.017827483 -0.06613419
0002a0 79 35 62 3d 98 e7 f6 bc 7a 7b 0c 3e 53 5e a1 3c
       0.055226777 -0.03013973 0.13718978 0.019698298
0002b0 50 dc dd bd 90 0d 0e 3e b3 63 01 3e 24 3c 9d 3d
       -0.10833037 0.13872361 0.12635688 0.076774865
0002c0 f2 f5 81 bb a4 aa 6e 3d e6 15 d2 3c 7e d0 13 be
       -0.0039660865 0.058268204 0.025645208 -0.14435002
0002d0 44 c7 d3 bd 34 96 c7 3d 8a 28 09 bc 22 91 70 3d
       -0.10340741 0.09745446 -0.008371482 0.05873216
0002e0 d5 ae 10 3e 61 1a 18 bd cb 6f 0f bd f7 73 d5 3d
       0.14129193 -0.037134532 -0.035018723 0.10422509
0002f0 13 cc 6e bd 89 f0 ac 3d 10 2b f8 3d 69 cb f6 3c
       -0.05830009 0.08444316 0.121175885 0.03012629
000300 7e 34 9e 3d aa 88 86 bd af 94 7e bd b5 a9 9d 3d
       0.07724856 -0.06569035 -0.062153514 0.07698385
000310 d4 2f 13 3d b6 d6 1b be 73 3c 10 be b2 7b 7f bd
       0.035934284 -0.15218624 -0.1408556 -0.062373824
000320 80 ac d2 3d b6 3d 7b bd f0 38 20 be 9d a6 d3 3d
       0.10286808 -0.06133815 -0.1564672 0.10334513
000330 8c 09 19 3e 3a 2c 75 3c 65 40 f1 3c 7b 2e d8 3d
       0.14945048 0.014964158 0.029449651 0.105557404
000340 90 1d 00 be a8 f4 d3 bd ab 99 06 be 33 9d e7 3d
       -0.12511277 -0.10349399 -0.13144557 0.1130928
000350 bb 40 15 bd a1 f3 ab bc d6 85 d0 3b d0 e2 1e be
       -0.036438685 -0.020990195 0.0063636107 -0.1551621
000360 7a 9d 02 be 80 99 91 bc 72 aa e0 3d a8 56 9b bd
       -0.12755385 -0.01777339 0.1097001 -0.07584888
000370 52 d4 d3 bd a4 bc d7 bc 6c 84 e1 3d 20 21 6b bd
       -0.10343231 -0.026335068 0.110115856 -0.057404637
000380 bc c9 84 bd c3 23 2d bd fb ae e5 3d 52 df 25 be
       -0.0648379 -0.042270433 0.112150155 -0.16198471
000390 6c 2f 29 3d 49 ac 64 bd f4 34 97 bd 64 ff 6b bd
       0.04130499 -0.055828366 -0.07383147 -0.057616606
0003a0 69 e7 ae 3d 58 ec 06 3e 7e 73 a5 3d dd b7 01 be
       0.08540232 0.13176095 0.08078669 -0.12667795
0003b0 f9 4c 68 bd 9c 88 ed bc 27 9d 98 3d 6a 07 f9 3d
       -0.05671403 -0.028995804 0.074518494 0.12159617
0003c0 a1 e1 fa 3b ae 72 fb 3d 90 0e 0b 3e ec 8a b0 bd
       0.0076562916 0.12277733 0.13579774 -0.08620247
0003d0 9f b8 1c bc c5 f7 0b 3e 7c 64 eb 3d e2 79 2f bd
       -0.0095655015 0.13668735 0.11493775 -0.042840846
0003e0 a7 0d 3a bd 18 a3 e7 3d c3 bd 72 bd 71 fc 89 bd
       -0.045423176 0.113104045 -0.059263002 -0.067376025
0003f0 4c ca f2 bc af 66 17 bd 4f 00 d8 bd 08 b8 e2 3c
       -0.029637478 -0.03696316 -0.10546934 0.027675644

bias f4 [40]
000000 37 f5 b1 bd a8 a5 b5 bc 69 e9 64 3d e9 b2 17 bd
       -0.08689349 -0.022173718 0.05588666 -0.037035856
000010 89 2b 44 3d ec 51 16 be 28 13 13 3e 23 59 91 bd
       0.04789308 -0.14679688 0.14362776 -0.070970796
000020 ba de 10 be d1 23 9b 3d 41 21 ea 3d c0 53 d4 3d
       -0.14147463 0.07575191 0.11432124 0.103675365
000030 8c 7a 85 bd 82 03 b9 3b 61 a6 6d bd 83 13 85 bc
       -0.065175146 0.00564617 -0.05802 -0.016244655
000040 1e 0a af 3d ee 57 e8 3c 78 92 13 3d 02 ea be 3d
       0.085468516 0.02836224 0.036028355 0.09321977
000050 34 db dc bc d6 92 94 bd d5 be 8d bd 47 bc e9 bc
       -0.026959993 -0.07254569 -0.06921164 -0.02853216
000060 a0 93 ae 3c 5f 00 17 3d 9f 96 95 3c be 35 ee 3d
       0.021310627 0.03686559 0.018260298 0.11631344
000070 0a 64 01 be 32 b9 64 3c 80 b5 6b 3d 8f da 56 bc
       -0.12635818 0.01396017 0.05754614 -0.013113632
000080 de 98 f3 bc d6 a8 c7 bd 01 1c c4 3d 52 b1 43 ba
       -0.029735979 -0.09749 0.09575654 -0.00074650825
000090 0f 8b f5 bd 73 60 e6 3d 9e e2 05 3e 78 9e 27 3c
       -0.11989414 0.11248865 0.13074729 0.010230653
