Results/2330_generator1_adjusted.pth (torch, 160009 bytes, 32 tensors)

weight_ih_l0 f4 [120, 20]
00000000: ba4e 59be a5d8 10bd a6da 3dbe 5b95 543d
00000010: 6ef7 03be 9ff0 5ebd 7322 103d 1037 21be
00000020: f391 ad3c facc 01be 29fc db3c 48d9 88be
00000030: 95da 843d 54df ca3c 2f17 82be 154d ad3d
00000040: c8ae 603d 0c19 80be 4480 b3bd 0846 dd3d
00000050: ad0c 8c3c af2c a73c b16b 213d ee79 383e
00000060: cf7f e43d 5449 473e 665c cb3d ed39 3f3d
00000070: 75a8 3d3d 2d30 483c 1428 9b3d cc86 a43d
00000080: 3127 12be 814e e83b e5a4 ee3d ae2f f93d
00000090: 849e c63d a52c 83be e41a fabc f2d7 12be
000000a0: 671c e43d 118b 853e 728b 3e3e e5de ee3d
000000b0: 0baf 8a3e b7f3 913e e831 9d3d baa6 a13d
000000c0: 88ca 223e dbfd 163e 558c 8e3d 6850 79bd
000000d0: 744c 1c3e ff97 90bc f70a 983d 4c16 153e
000000e0: 8a6d 6bbe 1dfd a3bd 651a adbd dc85 46bd
000000f0: 14d6 a23d 6906 9cbd 563e 9a3d ea1c 42bd
00000100: 5969 9abd 1a93 093e ba76 aebb f99b 453e
00000110: 878b a6bd 00f3 2a3e c922 243e 5c0c a63c
00000120: f6d1 233c 221d 5f3e 9528 1cbe a22c b2bd
00000130: 5f8a 083e 8bc6 1dbd 567e f13d c0dd 29bd
00000140: 251c a5bd b5db 76bc 004e 7dbe 278d cabd
00000150: 9441 ccbb 5f95 6b3d fce7 cdbb bef9 8dbc
00000160: eae4 0bbe 3c9f eabd b735 fdbc 3f96 41bd
00000170: 9bd1 62be 6ca5 06be 4a0d 65bd 7642 84be
00000180: 9b97 6dbe 2ddd f73d e232 093e 7ac6 38be
00000190: c46a 1d3e f46a 3b3d 0dc2 a53c 61d6 e3bd
000001a0: dab7 7abd d62b 7dbd 6bc6 db3c a09d 8abd
000001b0: febd 1ebc 3e89 47bd 2490 5b3e e4d1 3d3e
000001c0: e934 b03e d6da 953e cc5f 7a3e da72 433c
000001d0: f407 373e ee5f 0d3e be90 c53d 9f65 893e
000001e0: 7b5e 093e f08f ba3d 8070 943d 5ad3 f13d
000001f0: ea89 b4bd 56d3 09bd bf73 d03d d8db aa3c
00000200: 68d4 073e d342 5a3c 91a3 a3bc 9a78 c1bd
00000210: 8619 1abd f96a 023d 8d90 863d 0151 edbd
00000220: 08d8 8c3d be23 6bbe 6885 5cbe c5af 5d3d
00000230: b9e7 96bd 0308 c6bc 43bb 493e a810 293d
00000240: eaac 7ebd 6648 85bd 73a8 333d fa83 a4bc
00000250: 9956 92bd 9a06 4b3e 5049 e83d f0db 063e
00000260: 236d 163e 9c08 953b f55c 953d 620c 50bd
00000270: d372 e7bd 9751 71bd 38a2 95bd 01ff 093e
00000280: 570c 323e 69c9 173e 5201 863d d647 48bd
00000290: 344e 3d3e d216 903c 85a1 513e 71ff 4a3d
000002a0: dca0 013e 272c df3d 37c0 1d3d d3bb c73c
000002b0: 3d5d c3bd 746b 773e a4d9 94bc c62e c0bc
000002c0: 7f29 343d 3c27 793b d713 f6bd 0f2b 9a3d
000002d0: df90 a03d e9db b33d 9164 383d 3669 c5bd
000002e0: f2c8 7f3d 703d fcbd 9db6 713d 8672 4bbd
000002f0: efe5 abbd 0a27 80bd eab7 9bbd 8168 4abc
00000300: ab80 81be d63a f83d 7bf6 3ebd eb46 81be
00000310: 5c43 b0bd a851 843c ace2 513d 84e9 233e
00000320: 7286 d9bd fd33 673d 3c19 19be 9c20 a9bd
00000330: 8597 a13d e692 3ebe 4b72 d2bd 2874 29be
00000340: ce94 993b c45c 49be c8dc 693d 2c38 7abd
00000350: 560d 1a3d 08bd 4fbc ecd6 01be 3be0 64be
00000360: 2712 a53d d8ac c63b f880 67be e827 b33c
00000370: 6c97 963c a2a8 cbbd 0e57 593e eda2 163e
00000380: e0a3 fb3c 7c10 033d 4c5f 3a3e abd2 c13d
00000390: 3981 88bd 500c 4cbd f14f d1bd ec52 643c
000003a0: 312f b03b e21a 48bd 7406 9fbd a035 9ebd
000003b0: 616e 30bd 2efb 8abd 128b 0fbe 4e54 2bbd
000003c0: 3604 cbba 0180 c4bd 5f4a ebbd 9045 60bd
000003d0: f4d5 86bd 358a 7d3d a4eb 963d f540 17be
000003e0: 8e1e 8b3d 003a acbc 8e1a 9bbd 152c 453e
000003f0: 5ffb 28bc c053 ff3c 341f 16be f7e4 50bc
-0.21221438 -0.03536286 -0.18540439 0.05190025 -0.12887356 -0.054428693 0.035189103 -0.15743661
0.021187758 -0.12675849 0.026853638 -0.26728272 0.06487004 0.024764694 -0.25408313 0.08461968
0.054854184 -0.2501911 -0.08764699 0.10804373 0.017095888 0.020407049 0.039409343 0.18015262
0.1115719 0.19461566 0.09929733 0.0466861 0.04630323 0.012218517 0.07576004 0.08033523
-0.14272763 0.0070894365 0.11652545 0.12167297 0.09698203 -0.2562 -0.0305304 -0.14340189
0.1113823 0.26082662 0.18607882 0.116636075 0.27086672 0.28506252 0.076755345 0.07893129
0.15897572 0.14745276 0.0696036 -0.060867697 0.1526354 -0.017650602 0.074239664 0.14559287
-0.22991005 -0.08007262 -0.084523 -0.048467502 0.079509884 -0.0761841 0.07531421 -0.047390856
-0.07539625 0.13435021 -0.005324212 0.1929778 -0.081320815 0.1669426 0.16028894 0.020269565
0.009998789 0.21788457 -0.15249856 -0.08699919 0.13334034 -0.038519423 0.11791675 -0.041471243
-0.08062009 -0.015067031 -0.24736786 -0.09890204 -0.0062334035 0.0575155 -0.006283758 -0.017331
-0.13661543 -0.11456153 -0.030909402 -0.047262426 -0.2215027 -0.13149041 -0.055920877 -0.25831956
-0.23202364 0.12102733 0.13398317 -0.18044463 0.15372759 0.045756295 0.020234132 -0.11124874
-0.06121049 -0.061809383 0.026828011 -0.06768346 -0.009688852 -0.04871487 0.21441704 0.18537098
0.34415367 0.2926852 0.24450606 0.011929238 0.17874128 0.13806126 0.09646748 0.26835343
0.13414948 0.09109485 0.0724802 0.1180789 -0.088153675 -0.03364881 0.10178327 0.020856783
0.1326462 0.013321596 -0.019975455 -0.09446831 -0.037621997 0.0318403 0.065705396 -0.11587716
0.06877142 -0.22962853 -0.21535265 0.054122705 -0.07368416 -0.024173742 0.19700341 0.04127565
-0.062176622 -0.065079495 0.043861818 -0.020082463 -0.071454234 0.19826737 0.11342108 0.13169837
0.1469007 0.0045481455 0.07293121 -0.05079306 -0.11301198 -0.0589157 -0.073063314 0.13476183
0.1738752 0.14822926 0.065432206 -0.048896633 0.18486863 0.017589007 0.20471771 0.049560014
0.12659019 0.10897093 0.03851339 0.024381554 -0.09539268 0.24162084 -0.018170185 -0.023459803
0.043984886 0.003801777 -0.12015503 0.07527744 0.07840132 0.08782179 0.045017783 -0.09639208
0.062447496 -0.12316406 0.059012044 -0.049669765 -0.08393466 -0.06257446 -0.07603438 -0.012354017
-0.25293478 0.12120597 -0.04662178 -0.2524942 -0.08606598 0.016152218 0.05124156 0.16007048
-0.106213465 0.056446064 -0.14951032 -0.08258173 0.07890228 -0.18610725 -0.10275706 -0.16548216
0.0046869284 -0.19664294 0.05709532 -0.061088726 0.037610374 -0.012679346 -0.12679642 -0.22351162
0.08060103 0.006063085 -0.22607791 0.021869615 0.01838275 -0.099442735 0.21224615 0.14710589
0.03071779 0.031998143 0.18200415 0.0946401 -0.06665272 -0.04981643 -0.10220326 0.013935786
0.0053767194 -0.048853762 -0.07764903 -0.07725072 -0.043074016 -0.0678619 -0.14017895 -0.041828446
-0.0015488926 -0.09594727 -0.114887945 -0.05475384 -0.06583777 0.061899383 0.07369164 -0.14770873
0.06792937 -0.02102375 -0.07573424 0.19255097 -0.010313838 0.031167865 -0.1466034 -0.012749902

weight_hh_l0 f4 [120, 40]
00000000: 0991 543d 07cb 153e 50bf ca3c 410d a83c
00000010: 3eac 0cbd 441a c7bd d26f 403d 380b 04be
00000020: ff8d 553d ba70 b03c b8e8 31be 82e9 86bd
00000030: f93e b8bd 67ed 5ebc bd62 e5bd 6ea9 303d
00000040: b5aa 4dbc 6136 59bd 49cd 8f3d c468 e93d
00000050: c814 233e dc7a d8b8 223d 163e 41a0 d13d
00000060: 717d 433e c31e 4fbd bda1 013e d40d 033e
00000070: b95d c6bb ffb4 533d 70a9 f63d fd2b 433d
00000080: c51a 41bd 0d4b ccbd ad80 d93c 25f4 aa3d
00000090: 4935 0fbc 70d5 163d dabb 01be 1caa 50bd
000000a0: fb3e 8dbd 2eeb acbd c10c 823c c134 703e
000000b0: 9879 b93d 3eaf 463d 39eb 8d3d c891 b83b
000000c0: 534d b5bd a628 1cbe fad3 b03d 0364 383e
000000d0: 4f32 5abd a8ad 9dbc 29c7 713c 8eeb 0cbe
000000e0: 62ae dbbd 05cd 243c 71a6 3ebe 28e4 14be
000000f0: 4a7e f83c 269e 88bd 4089 583d 50e4 243e
00000100: 8fc1 4ebd f9fa a6bc 526a 903a 9559 713c
00000110: c825 283e b191 c6bd 7566 923d 2cf4 9bbd
00000120: ea90 11be 0056 57bd c4e8 943d 485a 7eba
00000130: aeee 593e b144 cfbd a79d e03d a09d febd
00000140: 859b 3dbe 485a 0dbe 2c5c 5dbd 59fc fd3d
00000150: 3c2f eb3b 9f10 893e 6840 18bd 1a7d 843d
00000160: dd7c 1bbe 42bc 36be d140 943d 6739 c23c
00000170: 03a7 b43c 0d5c 94bd d517 bc3d e5eb 133e
00000180: cb8b 05be 5621 883c fad4 fd3d dbb5 82bc
00000190: 2c5d d13d 45dc 853c ff95 0fbe bc60 073e
000001a0: 0273 02bd d232 b5bd 65c7 3e3e 179a a1bd
000001b0: afd9 14be 5d45 4dbe abc8 0d3d 8512 b53d
000001c0: 9ce6 4cbe 5806 223c 0386 423d c762 b5bc
000001d0: 5fb2 dd3c c025 c9bd a64c d9bc 15c6 69be
000001e0: f28e d63d e9a8 15be 5e21 193d da22 173e
000001f0: face 5cbd 3d88 0e3d eb7c 09be ccdf 47be
00000200: 0c14 083e 25e9 5d3d 0f1b 303d ceef e53d
00000210: d7de 233e 2a78 61bc 3cfd f4bc 00fa dcbc
00000220: e86d bcbc a86a 3ebd 27eb ba3d d925 d53d
00000230: 494a 5ebc 91c6 25be bb0e 863d 5e03 523e
00000240: 6d2b 853d fc9f f1bd 08c1 5c3e 0568 ecbc
00000250: 26ef bc3d 54ac 303c 738c cabd 4a33 62bd
00000260: 3f36 0d3d 6762 a5bc 3dff 36be 5717 07bc
00000270: 5b57 053e aaf9 173d 34be e6bc 0f21 ec3d
00000280: 9474 b4bd fc8c 1e3e ff6a c3bc 0a4b 743d
00000290: bc3c f2bd 2c86 9abe 988d 243d 8345 82bb
000002a0: e8e2 36be a6fe 0a3c dbc5 aebd cd6e 893c
000002b0: d33e c6bd f643 a5bd f3c4 6c3e 6880 1fbe
000002c0: be32 dc3d 501a 8bbd 33c7 403d 5893 8d3b
000002d0: 8f9d 2ebe 7e5b 7ebc 0c99 d83d 4d55 c6bd
000002e0: 4aaa 73bd e48f fd3d d2c3 fbbc e4dc 13be
000002f0: e8f9 8cbc d9b4 873e 6047 483e 674b 1cbe
00000300: 8de1 233e b72a 1d3d cea2 1f3e 48f8 02be
00000310: 5c5a 5dbe 8873 133e c5cb 9f3d aac8 00bc
00000320: 40f2 163e 562a 8a3e 5375 083e dab4 553e
00000330: bac6 813e 8efe e2bc b33a 473d d080 c73c
00000340: 9f43 403c 1eaa d43c 28b6 363e 4594 29be
00000350: 1775 8dbe 7afa 973e cd66 913e 9913 fabc
00000360: 73e3 1e3e 4ef6 20be f7ad 843e 5e72 a43d
00000370: f7ec 94bd 130d b23d 8aec 1abe 8cfd cc3d
00000380: cf28 11be e972 553e 70e7 ecbc ea89 b3be
00000390: 3184 0b3e 55e8 61be 081f 113d 9e53 443e
000003a0: 7de0 f2bb aa2b 223e f3f4 d13d 5b3c 243c
000003b0: 1882 11be f6f2 15be d100 ea3c 1ced 96bd
000003c0: 9f73 13bd 632b ce3d 9bc9 2dbe 0980 3e3e
000003d0: 32ce e93d f665 93bd 13a2 183e 320d 75bd
000003e0: 14f0 e9bd 815d f7bc a690 603d 46e9 37be
000003f0: 7029 95bd 12d2 443c 5e8c 373d 22b9 283d
0.05189613 0.1462823 0.024749428 0.020514132 -0.03434395 -0.09721807 0.04698164 -0.12894905
0.05213737 0.021538127 -0.17373931 -0.06587507 -0.08996386 -0.013606406 -0.112004735 0.04313033
-0.012552907 -0.053030375 0.07021577 0.113969356 0.15925896 -0.00010322567 0.14671758 0.10235644
0.19090821 -0.050566446 0.12659355 0.12798244 -0.006053653 0.051686283 0.120440364 0.047649372
-0.04714467 -0.09975252 0.026550615 0.08347348 -0.0087407315 0.036824644 -0.12669316 -0.05094348
-0.06896778 -0.084432945 0.015875222 0.23457624 0.09056395 0.048506968 0.06929631 0.005632613
-0.08852639 -0.15249881 0.08634181 0.18006901 -0.053270634 -0.019247845 0.014756956 -0.13761732
-0.1072662 0.010058646 -0.1861818 -0.1454016 0.030333657 -0.066707894 0.052865267 0.1610272
-0.05047756 -0.020383345 0.0011018014 0.014730831 0.16420662 -0.09695757 0.071484484 -0.076149315
-0.14215437 -0.05257225 0.07270959 -0.0009702784 0.21282455 -0.10120524 0.1096757 -0.12432408
-0.18516357 -0.13803971 -0.05404298 0.12401647 0.0071772616 0.26770493 -0.037170798 0.06469174
-0.1518435 -0.17845252 0.07238925 0.023709012 0.022052294 -0.0724412 0.09184233 0.14445455
-0.13041608 0.016617458 0.12394138 -0.015955856 0.10222849 0.016340384 -0.14022063 0.13220495
-0.03184796 -0.08847584 0.1863075 -0.078907184 -0.14536165 -0.20045991 0.0346152 0.08841423
-0.20009845 0.009889208 0.047491085 -0.022141827 0.027062593 -0.09821653 -0.026525807 -0.22829469
0.104764834 -0.14615215 0.037385337 0.14759389 -0.053908326 0.034797896 -0.13426559 -0.19518965
0.13288897 0.054177422 0.042994555 0.1122738 0.16002975 -0.0137615595 -0.029905908 -0.026974678
-0.023001626 -0.046488434 0.09126883 0.104076095 -0.013567516 -0.16189028 0.06545778 0.20509097
0.065024234 -0.11798093 0.2155801 -0.028858194 0.092253014 0.010783274 -0.0989007 -0.055224694
0.03447556 -0.020188523 -0.17870803 -0.008245311 0.13021605 0.037103333 -0.028166868 0.11529743
-0.08811298 0.15483469 -0.02385473 0.059641875 -0.118279904 -0.3018049 0.040174097 -0.0039755716
-0.17859995 0.0084835645 -0.08533832 0.016776467 -0.096799515 -0.08069603 0.23122005 -0.15576327
0.10751866 -0.06792128 0.04706497 0.0043205433 -0.17052291 -0.015524743 0.105760664 -0.096842386
-0.059488572 0.123809606 -0.030733023 -0.14439732 -0.017209008 0.26505163 0.19558477 -0.15263139
0.1600401 0.038370814 0.15589449 -0.12790024 -0.216165 0.1439954 0.07802538 -0.007860342
0.14740849 0.26985425 0.13326006 0.2086977 0.2534693 -0.027709272 0.048639964 0.024353415
0.011734872 0.025960024 0.17842925 -0.16560467 -0.27628395 0.29683286 0.28398743 -0.030526923
0.15516452 -0.15718958 0.25913975 0.08029626 -0.0727176 0.086939 -0.15129295 0.10009298
-0.14175723 0.20844616 -0.028918952 -0.35066158 0.13624646 -0.22061284 0.035429984 0.19172522
-0.007412015 0.15836969 0.102517985 0.0100241555 -0.14209783 -0.14643463 0.028564842 -0.07369444
-0.035998937 0.10066869 -0.16971438 0.18603529 0.11416282 -0.07197182 0.14905576 -0.059827037
-0.114227444 -0.030195953 0.054825447 -0.1796008 -0.07283294 0.012012975 0.0448116 0.04119218

bias_ih_l0 f4 [120]
00000000: 18db babb 02e0 0f3e 1b79 1cbe cd2b 863d
00000010: e547 a33d 3e8f e73c 4e65 393e 168c b3bd
00000020: 92e9 6a3e df38 4c3d 1cb1 50bc d793 6e3e
00000030: 9b4a 63bd 479f f1bd 8731 a0bc 1a7e c1bd
00000040: 7350 d73d 0ce8 06be 71c4 3dbe 6389 0abe
00000050: acf1 5cbd ecf1 de3d 2670 a1bd e4f0 503e
00000060: a0fe 36bc 5167 b5bc 0f1b d1bd 5f40 fe3d
00000070: 1cb9 f4bb 7ed7 323e 8684 30be b3c6 c83d
00000080: c385 483e ed92 103e 5285 66bd 1006 263d
00000090: 137b ad3c 533d 923c d529 39be ee70 7c3d
000000a0: da1c 093e 49a7 3dbd 9564 5a3d c111 39bd
000000b0: 85c9 de3c e2b2 123e 2e38 78bd 5c71 243e
000000c0: cf91 eebd d8ad f13c ca14 1cbd d8f4 5b3e
000000d0: ac75 043e 9380 57bd e2ae 73bd c3b3 eabc
000000e0: 1876 d3bd 4a7b 2bbb 6c23 b6bd 3f1c d4bd
000000f0: 82d3 c83d 7760 f13c e03b 3b3e 001d 713d
00000100: e591 55bd cc0a e73b ae09 7bbd 8d65 9abd
00000110: 6924 abbc ffef e7bc 77e8 373e 4f52 053e
00000120: ce66 9f3d d27d d63d 877f 133e 88de c73c
00000130: 3bd4 3f3d 66db 233d 90f2 093d 3301 a3bd
00000140: 48bd 7d3d d2a7 d23d 29a5 f83d 07b9 c13d
00000150: 4e3d a13d f230 473d ca19 853d ef2b ac3c
00000160: 74d7 fdbd 8b2e 133e 34fb 153e 28a1 e2ba
00000170: 708f 18bd 0bc7 743e 191b 4c3d ad59 20be
00000180: 94f0 103e 4b09 51be edb9 8e3d 335c 2bbe
00000190: a8e8 36be 2a05 703e 9fe3 44bd c39e 07be
000001a0: 98b9 12be cb96 343e 1d00 d1bd 5f8f 17be
000001b0: b4eb 343e 0625 a7bd 13b5 373d 09b0 683e
000001c0: 8f77 b5bd 9e16 2c3e 05c1 343e 792c f73d
000001d0: 6236 27be 3753 35be c0ad 48be a774 153d
-0.0057023875 0.14050296 -0.15280573 0.06551323 0.07972697 0.028266545 0.18105051 -0.08766954
0.22940663 0.049858924 -0.012737539 0.23298584 -0.05549107 -0.11797958 -0.019554866 -0.0944788
0.10513391 -0.13174456 -0.18531968 -0.13528971 -0.053941414 0.10885987 -0.07882719 0.20404392
-0.011169106 -0.022143992 -0.10210239 0.124146216 -0.007468356 0.17465016 -0.17238054 0.09803524
0.19582276 0.14118548 -0.056279488 0.040533125 0.02117685 0.017851507 -0.18082364 0.061631136
0.13389912 -0.046302114 0.05331858 -0.045182947 0.027195701 0.14326051 -0.060600452 0.16058868
-0.116489045 0.02950184 -0.038105763 0.21480119 0.12935513 -0.052612852 -0.059492953 -0.02865017
-0.10325259 -0.0026166015 -0.08893475 -0.1035695 0.09805967 0.029464943 0.18284559 0.058865547
-0.05214109 0.0070508476 -0.06128853 -0.075389005 -0.020891385 -0.028312681 0.17959772 0.1301968
0.0778328 0.10473217 0.14404117 0.024398103 0.046833258 0.040004157 0.03367859 -0.07959213
0.06194809 0.102859154 0.12140877 0.09459119 0.07873021 0.048630662 0.064990595 0.021017043
-0.1239461 0.14373223 0.14646608 -0.001729046 -0.037246168 0.23904054 0.04983053 -0.15659209
0.14154273 -0.20413701 0.06969056 -0.1673439 -0.17862189 0.2343947 -0.04806864 -0.13244157
-0.14328611 0.17635648 -0.102051 -0.14800785 0.17668039 -0.081613585 0.04485042 0.22723402
-0.088606946 0.16805503 0.17651756 0.12069029 -0.16329339 -0.17707525 -0.1959753 0.0364882

bias_hh_l0 f4 [120]
00000000: 7426 303d 5ae8 2f3e 352a 893d 2011 07be
00000010: 9b5d 943d 193f c4bd e54f 443e 7bf2 393e
00000020: 12bc 2d3e 716d 4c3d addd 2f3e bbd1 91bd
00000030: dc65 e13d becd f8bd 5336 3fbd 4b5d 38bd
00000040: eaf0 983d 1d47 e0bd bc3d fbbd 97dd f3bd
00000050: c9f4 c13d ef01 9d3a 8d68 bfbd 17ff d73d
00000060: 380d 52bd 5354 13be d27d bb3d eb41 0f3e
00000070: 98f5 83bb c04c 1c3e f52b c2bd a0b9 1bbc
00000080: 60d0 b23c d5f5 9d3d 2bc6 9cbc 7957 203d
00000090: c701 663e 67d3 483e 2b1d babc 02df 81bd
000000a0: 3d76 433c 9248 2c3d bb99 363e e851 eb3d
000000b0: 50f4 5abc 50da 1e3e bd7b cabd aaee 8bbc
000000c0: 9459 0c3d 88b5 dcbc 3bb9 ec3d 9cc2 273e
000000d0: 7bc9 743e 4ff5 043d 8077 843c 623c b13c
000000e0: c164 14bd 512c 003e bd43 b9bc 9405 e1bd
000000f0: 936c 68bc 5e96 e93d bdd1 593e 06d9 473e
00000100: 5731 873c 5eb3 403e 047d efbd f1aa 803d
00000110: c9d2 be3d ad0c 8abd b565 033d 4f51 60bd
00000120: e008 393e 6e5f 533d c15d 4cbd 8e79 553d
00000130: d414 3e3e 7485 4abd fb28 3cbd 93d9 0bbd
00000140: 2bb9 b2bc 98af df3d 5a8d 133e 6bdd cfbd
00000150: 55ee d93c 45b9 df3d 7a60 3a3e fcb9 513e
00000160: 1747 1ebe 7bba bbbb d200 5e3e 8de5 12be
00000170: 218d 02be 3f8e d43d eb85 a03c 2223 66bb
00000180: eeb8 053e 5552 103d dac0 bcbd 77d4 e3bc
00000190: 9027 e6bd 5956 1a3d 5f53 f4bd 595b 14be
000001a0: 18e5 4bbd 235d 023e 1e78 23be 38cf 423d
000001b0: dd55 1c3e 166a 02be 2c9a 1a3d 9d50 e2bb
000001c0: 5bdf 34be b78d 653d 389e d83b fc5c 053e
000001d0: 77c2 45bd 1cf2 b1bd fd05 a4bd 5076 40bd
0.04300542 0.17178479 0.066975035 -0.13190126 0.07244416 -0.095823474 0.19171102 0.18158905
0.16966274 0.04990906 0.17174406 -0.07120081 0.11005756 -0.12148617 -0.046682667 -0.045010846
0.07467826 -0.10951064 -0.12267634 -0.11907499 0.09470517 0.0011978726 -0.09346113 0.105467014
-0.051282138 -0.14387636 0.09154858 0.1398999 -0.00402708 0.15263653 -0.094810404 -0.009504706
0.021827877 0.07712904 -0.019137463 0.03914592 0.22461616 0.19611894 -0.022718986 -0.063413635
0.011930046 0.042061396 0.17832081 0.11490232 -0.013363913 0.15512967 -0.098868825 -0.017081577
0.034265116 -0.02694203 0.115587674 0.16382831 0.23904984 0.032460507 0.016170263 0.021635238
-0.0362289 0.12516905 -0.022615308 -0.10987392 -0.014186042 0.114056334 0.21271415 0.19516382
0.01650302 0.18818423 -0.11693767 0.062826045 0.09317548 -0.06740699 0.032079417 -0.054765042
0.18069792 0.05160468 -0.0498941 0.052117877 0.18562633 -0.049443677 -0.04593752 -0.03414304
-0.02181681 0.10922164 0.1440939 -0.10149654 0.026602903 0.10924009 0.18200865 0.20481104
-0.15456806 -0.0057290173 0.2168 -0.14345379 -0.12749149 0.10378694 0.019595107 -0.0035116156
0.13058826 0.035234768 -0.09216471 -0.027811272 -0.11238015 0.037680004 -0.11929964 -0.14487971
-0.049779028 0.12730841 -0.1596379 0.0475609 0.15267129 -0.12735781 0.037744686 -0.0069065825
-0.17663328 0.056043353 0.006610658 0.13023752 -0.04828116 -0.08688757 -0.08008955 -0.04698783

weight f4 [40, 40]
00000000: e7f6 2d3e aca8 153e 25a4 f23b 64d7 f3ba
00000010: bcad 7b3e 8838 233d 20a6 23bc d19e 113e
00000020: f86d 9e3d f0ae 883e 7cc5 5b3d 44d6 c7bb
00000030: 52f9 8fbd 1868 a23d f00a 4c3e 01d6 0f3e
00000040: 6697 cf3d d72c 0d3c d779 943d 4864 7d3e
00000050: c0e8 3ebd 2614 2ebe 02d5 56bb 76ee 6c3e
00000060: dcc5 63be 82f7 45bd d9cc 0dbe aede 45be
00000070: 5cc5 9ebd d20b 403d 0690 c73d 71d3 2a3d
00000080: 4e03 f3bd b42b 013e 1463 fe3d a381 b4bd
00000090: 74b6 4e3d 8e6c 37be c7d7 fc3d fb26 47be
000000a0: f16b 33bb 3403 693e b313 23be 8b6a 093d
000000b0: 174c 543e 46ba 2f3e fe39 92bc a90e 3a3e
000000c0: bdb2 f2bd e2e7 203e 9c47 833e b706 9bbc
000000d0: d6cc 07be 80ac 213e 8acf 97bd 0778 05be
000000e0: 1cd3 f13d c437 57bc 9eef 213e b52f ecbd
000000f0: c21a 8dbe c2ff f2bd be12 febd 0e32 82bd
00000100: 0877 04be 972e 753e 1456 60bd a438 93be
00000110: 2949 dd3d 1209 71be 6f90 cd3d 0a6c 953d
00000120: 9783 58be 7b38 4f3e c00c 76bb 2542 2c3e
00000130: cd60 e2bd 01d8 80be 2134 14be 0fbf 163e
00000140: e2b1 aa3d 1092 be3c 1c2a fc3d 9221 5dbe
00000150: 3566 db3d a7f5 4f3d 5412 ecbd e491 2b3e
00000160: 8d68 8b3c c49d 363d 8d73 e9bd ee0a c03d
00000170: f4cc c8bd 1b04 363e 7469 a6bd 970a 803d
00000180: 18e6 383e e44c 29be 1572 f83c 868b 07bc
00000190: 695a 05be e28b 0d3d ebe0 1cbe dcae 733d
000001a0: 2b4b bfbd ad77 aa3d 77f6 44be 7ef4 2dbe
000001b0: b0ee 5f3d 6bf8 33be 3aef 023e 62ca 683d
000001c0: 29a1 45be 404a 433e 854b 07bd 9ab5 a0bd
000001d0: 1a78 4f3d 681a 23bd 61b7 e5bd af96 5cbe
000001e0: 0ea5 11bc 1b55 a33d 7ea1 e33d a320 61be
000001f0: 3b58 d13d c4db 70bd a5a5 0cbd 86ab 3fbb
00000200: 9ccd b03d 6a6a 1f3e 19da 803d be6f 943d
00000210: 7056 01be 9337 24bd 93ac a0bc 1a7b 423d
00000220: d2b7 103e 95eb 1a3c 5eb0 d93d d125 0f3e
00000230: e1a1 393d 8aa7 d9bd 49aa b1bd 05f1 bcbd
00000240: 529a 443d f822 3abc 4ac0 d9bc 903b d3bd
00000250: 06e4 983d b65f 73bd db2b ab3c 7fac d4bd
00000260: 74f7 9ebd e76f 7dbd 10d0 8f3d b0ba 373d
00000270: 9716 3dbd 6d7c d4bd de07 25bd f649 5ebe
00000280: ad61 f5bd 6aaa 473d f0d7 063e 086c 273e
00000290: 140e dc3d acf9 873d 9791 303d 2413 f2bd
000002a0: 77b9 e6bd 5e3c 013d 444f e83c cae8 aabc
000002b0: 44a7 143e b854 793e 1bfd 513d 2b11 763d
000002c0: f39b f63d fefc 2ebe 742b 413e 17f9 45be
000002d0: 7217 74bc f9d2 74bd 55e9 8fbe d508 363b
000002e0: 286f 8f3d 4205 acbc b930 de3d 5006 dcbd
000002f0: 42da 5fbd 8fa0 e1bd ec19 233e b018 fd3d
00000300: d3f4 c4bd 1af1 183e 0040 1d3d 324d 0c3e
00000310: 5653 533e b128 1bbe 3fd5 473d c0b3 80bd
00000320: 4594 423e d98d 6a3e 2d25 223d ffac 073e
00000330: 34fe 1a3e 8577 cebc fcd2 1d3d 8607 adbd
00000340: 047d 64be fead 663e 9217 893e 9e55 623d
00000350: 7781 cbbc be02 a23e b485 1f3d c2e4 7fbe
00000360: d3c0 063e 0435 71be 9eb3 16be 80b1 93be
00000370: 0a4d 9abd 9141 083e 2eeb c8bc ee86 84bc
00000380: d4e3 efbc 299c 393e 48ea 71be e855 22be
00000390: b238 5b3e 82a2 22be fc0f 043d 1858 833e
000003a0: f91b 41be d8d6 3c3e b44e 763e 7cca 1d3c
000003b0: 6179 7d3d 0f48 6dbe 9706 32be 8e5f 2abd
000003c0: 9f80 9e3d fe3d 703e 80d4 bb3d d338 23be
000003d0: 361a 5b3d b9ac 4b3c 37ee 79be 5f6a 563e
000003e0: c57b edbd 5695 40bb 4771 f4bb 106f debd
000003f0: ade2 35be c672 5b3b 68a8 393e 4bd3 6d3d
0.16988717 0.14615124 0.0074048215 -0.001860362 0.24577993 0.039848834 -0.009988338 0.1422074
0.077358186 0.26695967 0.053655133 -0.0060985405 -0.07029976 0.079300106 0.19926047 0.1404648
0.10136299 0.008616648 0.072498016 0.24745286 -0.046608686 -0.16999874 -0.003278077 0.2313784
-0.22243446 -0.048331745 -0.13847674 -0.19323227 -0.07752487 0.046886273 0.09744267 0.041705552
-0.11865865 0.12614328 0.124212414 -0.08813789 0.05046697 -0.17912504 0.12345844 -0.19448464
-0.002737757 0.22755128 -0.15925483 0.033548873 0.20732151 0.17160901 -0.017849918 0.18169655
-0.11850498 0.15713456 0.2564057 -0.0189241 -0.13261732 0.1578846 -0.07412632 -0.13034068
0.11807844 -0.013135854 0.15814063 -0.11532537 -0.27559477 -0.11865188 -0.124059185 -0.063572034
-0.12936032 0.23943554 -0.05476959 -0.2875415 0.1080497 -0.23538616 0.10037314 0.072959974
-0.21143948 0.2023639 -0.003754422 0.16822107 -0.110536195 -0.25164798 -0.1447301 0.1472132
0.0833471 0.023263007 0.12312719 -0.21594837 0.10712854 0.05077138 -0.11526933 0.16754872
0.017017627 0.04458405 -0.11398993 0.09377085 -0.09804717 0.17775004 -0.08125582 0.0625202
0.18056524 -0.16533238 0.030327836 -0.008273011 -0.1302277 0.03455723 -0.15320174 0.05949293
-0.09340509 0.083236076 -0.19234644 -0.16987798 0.05467099 -0.17575233 0.1278657 0.056833632
-0.19299759 0.19071293 -0.033031005 -0.07847138 0.050651647 -0.039820105 -0.112166174 -0.21541856
-0.00888945 0.07975217 0.111147866 -0.21985106 0.10221907 -0.058803335 -0.03433766 -0.0029246523
0.08632967 0.15567937 0.06291599 0.07247876 -0.1263063 -0.040092062 -0.01961354 0.04748068
0.14132622 0.009455581 0.106293425 0.1397927 0.045320395 -0.10627659 -0.086750574 -0.09225658
0.047998734 -0.011360876 -0.026580948 -0.10314095 0.07465367 -0.05941745 0.020894935 -0.103844635
-0.07762042 -0.061874297 0.07022107 0.044855773 -0.04616412 -0.10375295 -0.040290706 -0.21707901
-0.11981521 0.048746504 0.13168311 0.16349804 0.10744873 0.06639418 0.043107595 -0.11820057
-0.11265843 0.03155171 0.02835811 -0.020862956 0.14516932 0.24348724 0.05126677 0.060074966
0.12041464 -0.17088696 0.18864232 -0.19333301 -0.014898168 -0.05977151 -0.28107706 0.002777626
0.07003623 -0.0209986 0.10849137 -0.107433915 -0.054651506 -0.11016952 0.15927857 0.123582244
-0.09617009 0.14935723 0.038391113 0.13701323 0.20637259 -0.15152241 0.04878735 -0.062842846
0.19001873 0.22905673 0.039586235 0.13249587 0.15136033 -0.025203476 0.03853129 -0.084487006
-0.22313315 0.2252731 0.26775795 0.055257432 -0.024842007 0.31642717 0.03894587 -0.24989608
0.13159494 -0.2355538 -0.14716956 -0.2884636 -0.07534225 0.13306262 -0.024526205 -0.01617762
-0.029283442 0.18125977 -0.23624527 -0.15853083 0.21408346 -0.15882304 0.032241806 0.25653148
-0.18858327 0.18441331 0.2405346 0.009630796 0.061883334 -0.2317202 -0.17385326 -0.041595034
0.07739376 0.23461148 0.091713905 -0.15939645 0.053491794 0.012431317 -0.24407278 0.20939015
-0.11595873 -0.0029385886 -0.007459793 -0.10861027 -0.17762251 0.0033485158 0.18130648 0.058062833

bias f4 [40]
00000000: c517 bbbd c104 adbc ece5 7ebe aabd 4fba
00000010: d500 05bd 7b89 603e d4b9 1cbe c52c 83be
00000020: 17d2 083e 9d45 afbc 5661 b6bc 91cf 84bd
00000030: cacc ee3d ce85 083c 4cba f7bd 94ca 193e
00000040: 61c4 48be c5e6 2bbe 274f 9dbd a078 6d3e
00000050: 7995 dabd 1e58 213c 0372 f33c 8374 613d
00000060: e59b 05be ba3e 03bd 4ad0 28bd 6f39 44bd
00000070: 34c9 23be 732d 4abe a130 aebd 7b64 02be
00000080: e9e3 ae3d e119 403d 36f2 79bd b1a4 253d
00000090: 62f0 cf3d 7f30 d33c 8b9c 5f3c 806f 663d
-0.09135393 -0.02112043 -0.24892396 -0.00079246855 -0.032471497 0.21927445 -0.15305263 -0.25620094
0.13361393 -0.021395499 -0.02226321 -0.06484903 0.11660154 0.008332683 -0.1209608 0.15018684
-0.19606163 -0.1678725 -0.07681113 0.23190546 -0.10673041 0.009847669 0.029717451 0.055042755
-0.1304775 -0.032042243 -0.041214265 -0.047906335 -0.15994722 -0.197439 -0.08505369 -0.12733643
0.08539564 0.04689968 -0.061022006 0.040440265 0.10153271 0.02577996 0.013648163 0.05625868

weight f4 [40, 40]
00000000: 6196 373e 0ed1 bb3d f7e1 953d 93c4 10be
00000010: b031 783e 2a6d 7a3e 8b14 fdbd 6e53 173e
00000020: 9122 023e 0794 5f3e 7c07 073e 90e2 673d
00000030: 08f9 873e 56a9 0ebe 487e 41be 17d5 ff3d
00000040: 8b6e a53d 4a23 07be c22a 003e cd5d 983e
00000050: b915 0abe 503b 8a3e 1afc 2c3d 5fa9 c7bd
00000060: 69a1 6abe 9768 42be 4318 24be 9845 8abc
00000070: 65cc 8bbd 32f0 303d d427 b23d 8b45 b83d
00000080: fd9d 1c3e 6da3 d0bd 38d6 2d3e a942 473e
00000090: 4352 603e 8218 2cbe 8e13 bdbd 300f 20be
000000a0: 0bf7 58bd 574f 9cbb 9d5b 9cbd 960b 22bd
000000b0: 22a2 38bd a901 cdbc a69d a1be 0547 ee3d
000000c0: ef76 f33d ba47 0bbe 6d3e 0f3c a401 08be
000000d0: e16b c53d 0a41 73bd 8f30 183b 363d d9bc
000000e0: 8753 23bd 35a6 d43d f1d4 183e 6361 f9bc
000000f0: 920f f2bd 3fcb 5a3e fc80 e43d 2939 27be
00000100: fa7c 6d3d b19b 05be 2d16 86bc d54b 82be
00000110: 16d2 24be e5b8 863d e4f0 8bbe 6b87 193e
00000120: 9143 db3d 8169 42be cf37 673d 16e2 133e
00000130: b13d 723d 442d 08bb 2149 dcbc 4580 04be
00000140: c78e 703d f570 c6bc 19ea 9c3d e1a5 7c3e
00000150: 74e2 883d fb19 bcbd 6ec6 d73c f58b 0fbe
00000160: a0bc e8bc 2e59 c33d 2381 f1bc 1678 6f3d
00000170: 45f7 cdbc 65f5 cb3d 6143 0e3e 9ef7 233d
00000180: deb0 113e aa2b 083d 3434 0c3e d7d7 e63d
00000190: 623d 05be 3fa3 a93d 1847 d6bd e0a1 af3d
000001a0: da4f e1bc 16e1 a63d 63d2 343e db18 2bbc
000001b0: 20e9 093e e73e d3bb 6c6c dfbd 48a1 c4bd
000001c0: dd61 cdbc c25e 483d eb60 8ebd 729c e23c
000001d0: 29d5 e23c 4c9f dc3c 4810 d1bd 26d3 65bd
000001e0: 121e 893d 674c 243e a43d ffbc ddd2 12bd
000001f0: 5243 cd3d af7b 9d3e b49d f2bd d33b b5bd
00000200: 62ba a3bb 654f 1cbc c990 8b3e 6608 55bd
00000210: 9936 033e 4ae8 7cbd 3b33 663b 31f5 533e
00000220: 3ad6 0d3e 9459 40be f602 263d 1f06 953e
00000230: f0d7 48be 472d 1c3e 8a20 da3d 0ce6 fbbb
00000240: a87c e2bd 7baf d9bc 7697 dcbd af1d 27be
00000250: c174 95bd c1c4 773c dfb6 163e 48e4 873e
00000260: 8f2a b03d f4e9 76bd b576 213e cbc8 4e3e
00000270: 557c 523e aaa0 2ebe 2a55 a63c b661 13be
00000280: 8d62 133e a9c7 603e e211 11be 8549 debd
00000290: ba1e e23d f4b8 1a3e 1f52 453d f86d 2f3d
000002a0: 61ea 3e3e d2bf 13bc 5131 813e 16d6 e53d
000002b0: 13f4 ac3d 2453 2bbe d637 a8bd 4b8d 283e
000002c0: 84f7 9c3b 6d6e 5a3c 664e 373e 2344 4e3e
000002d0: c725 8ebe c939 f13b bfd9 eb3d 08b3 1bbe
000002e0: 598d 38be 2fba ffbd c9d9 29be f254 3cbe
000002f0: 1e21 d33d fc2a 333d dbb5 2abe a544 693e
00000300: e46f 253e 2f30 f0bd 3421 b83c b572 6fbd
00000310: 7f99 d13d cbf5 15be 47a8 e13d 41f2 58be
00000320: 2347 823d a0da 1e3e a939 073e f2cd e9ba
00000330: 92e2 303e dadc 5b3e 2e13 debc 8500 7a3e
00000340: c6a2 0e3e e636 c93c 2665 1e3e da7f 753d
00000350: 6ef7 9a3d 6033 30bd 625f b0bd 2e88 133e
00000360: 1640 3fbe 8e72 0cbe 886b 29bd b754 6e3e
00000370: cc3c 303c 5f0a eb3d 6ce4 3c3e 36a8 fabd
00000380: 2e91 f1bd f0f5 c3bd 42a5 a2bd 2b21 30bc
00000390: d398 bf3d a416 903e fd11 853d a3d9 c6bc
000003a0: c148 d2bb 5cff 42be 0ca2 0ebe 95bd 093d
000003b0: 9afb 213e daea 65bd bd8c 5cbe 7303 2fbe
000003c0: 3981 c7bd 0214 75bc 42c7 333e c7aa 90bc
000003d0: 3ee6 1abd 4fee c1bd 11c5 003e 3b29 c33d
000003e0: 1ea8 47bd d043 943b 1e44 503d 1234 82bd
000003f0: 7a44 1a3c 91d5 3d3e 0199 14bd 8faa a4bd
0.17928459 0.091707334 0.0731849 -0.14137487 0.24237704 0.24455705 -0.12357434 0.1477792
0.12708499 0.21833812 0.13186449 0.05661255 0.26557183 -0.13931784 -0.18895829 0.124918155
0.08077725 -0.13197055 0.12516311 0.29759064 -0.13484849 0.26998377 0.04223261 -0.09749102
-0.22913136 -0.1898521 -0.1602488 -0.016878888 -0.068260945 0.043197818 0.08699003 0.08997639
0.15294643 -0.10187421 0.16976249 0.19459023 0.2190638 -0.16806224 -0.092322454 -0.15630794
-0.052969974 -0.0047702002 -0.07634661 -0.03956183 -0.045076497 -0.025025206 -0.3156559 0.1163464
0.11887919 -0.1360158 0.008742911 -0.13281876 0.09639717 -0.059388198 0.0023222303 -0.026518445
-0.03987458 0.10383264 0.1492498 -0.030441945 -0.11819376 0.21366595 0.11157414 -0.16330399
0.057980515 -0.13047673 -0.016367996 -0.2544848 -0.16095766 0.065782346 -0.27332222 0.14993064
0.10706247 -0.18985559 0.056449708 0.14441714 0.059140865 -0.0020778934 -0.02689034 -0.12939556
0.058729913 -0.024223784 0.07661838 0.24672653 0.066838175 -0.09184643 0.026339736 -0.14018233
-0.028410256 0.09538494 -0.029480522 0.058464132 -0.025142321 0.09958915 0.1389289 0.040031068
0.14227626 0.033244766 0.13691789 0.11271637 -0.13011697 0.0828309 -0.10462779 0.08575797
-0.027503897 0.081484005 0.17658381 -0.010442938 0.13467836 -0.0064467075 -0.10909352 -0.096010745
-0.025071079 0.048918493 -0.069520794 0.02766249 0.027689533 0.026931427 -0.102081835 -0.05610957
0.066951886 0.1604477 -0.031157322 -0.035845626 0.10022606 0.30758426 -0.11846486 -0.08849301
-0.004996584 -0.0095404135 0.272589 -0.052009962 0.12813796 -0.061744966 0.003512575 0.20699002
0.13851252 -0.18784171 0.040530168 0.29106233 -0.19613624 0.15251647 0.106507376 -0.007687336
-0.110589325 -0.026572933 -0.107710764 -0.16319917 -0.0729766 0.015122593 0.14718197 0.26541352
0.086018674 -0.06028171 0.1576794 0.20193784 0.20555241 -0.17053476 0.020304281 -0.14392743
0.14393063 0.21951164 -0.14166978 -0.108538665 0.11041017 0.15109617 0.04817402 0.042829484
0.18644096 -0.0090179015 0.25232938 0.11222474 0.08444991 -0.16730934 -0.08213775 0.16460149
0.0047902483 0.013331992 0.17901 0.2014318 -0.27763197 0.007361625 0.11516141 -0.15205014
-0.1802267 -0.124866836 -0.16586985 -0.18391779 0.10309051 0.043742165 -0.16670935 0.22780092
0.16155964 -0.1172794 0.02247677 -0.058459003 0.10234355 -0.14644544 0.110184245 -0.21186163
0.063612245 0.15513086 0.1320559 -0.0017837866 0.1727393 0.21470967 -0.027108755 0.2441426
0.1392928 0.02456231 0.15468273 0.059936382 0.07566725 -0.043017745 -0.08611943 0.14407417
-0.1867679 -0.13715574 -0.041362315 0.23274504 0.010756683 0.114765875 0.18446511 -0.12239115
-0.11795269 -0.09568393 -0.07941677 -0.010750095 0.09355321 0.28142273 0.064975716 -0.0242737
-0.0064173643 -0.19042724 -0.13929003 0.033628065 0.15818635 -0.056132175 -0.21538062 -0.1709116
-0.09741444 -0.0149583835 0.1755648 -0.017659558 -0.037817232 -0.09469282 0.12575175 0.095293485
-0.048744313 0.0045246854 0.05084621 -0.06357588 0.00941574 0.185385 -0.03627873 -0.08040344

bias f4 [40]
00000000: 9e93 9a3d cf69 19bd 60ab 5b3d d5c0 4cbd
00000010: 1c72 103e 7801 8abd 6979 5c3d 0830 17be
00000020: 70c6 be3d 712e 133d 37fa f43c dbf7 153d
00000030: c37e 733b b217 9c3c 0e47 ab3d 3f77 593d
00000040: 08d8 49bd 722c 3fbc 08a4 fdba 8000 0dbd
00000050: f4d4 88bd f3c1 d9bc 4cee d1ba 3928 ee3c
00000060: 6466 dcbd a12f 3a3d aac6 963c 0964 aebd
00000070: ae5e 8ebd 7e8a 453d 2e3d b8bd cfb6 91bd
00000080: 75f2 0f3c c816 f83d e218 9bbd 1491 b93d
00000090: 2532 47bc 596b f13d 372e beb9 a942 313d
0.07547687 -0.037454423 0.053630233 -0.049988586 0.1410603 -0.067385614 0.053826723 -0.14764416
0.09315193 0.03593296 0.029904468 0.036613327 0.0037154413 0.019054268 0.08363162 0.053092238
-0.04927829 -0.011668311 -0.0019351253 -0.034424305 -0.066812426 -0.02658174 -0.0016016453 0.029071914
-0.10761717 0.04545558 0.018405277 -0.08515174 -0.069516525 0.04822778 -0.08996044 -0.07114946
0.008785834 0.1211372 -0.075731054 0.090608746 -0.0121579515 0.11788053 -0.00036274057 0.043276463

weight_ih_l0 f4 [120, 40]
00000000: d6e0 33be 06cb 1bbd 53b2 06bd 5025 6b3d
00000010: 623a 2d3b de0e 883d 6e55 d23d e399 a03c
00000020: 629e 4a3d 9671 7abd b468 5ebe 9c66 473e
00000030: 305d cd3d 8fa9 8cbd c6fa 28bd 3d61 bbbd
00000040: 6bef 9f3d 9d78 573e 1243 96bd 9f9b 1fbe
00000050: 42cf 41bd c929 813d 46f3 153e c1ec 26be
00000060: 499a 203e a67c 343e 4fe1 e73b 2e5d 5cbd
00000070: 6b2f e43d 6a57 1cbe 63f8 e8bd 8cb4 56be
00000080: 8de7 703e e8ed 14bd 5a5a 0c3e bfa3 10be
00000090: c2d8 14be daee 9fbc ca0f 013d aff3 24bd
000000a0: 3d87 1e3e c170 cf3b a840 eabd adfe 213e
000000b0: 1a39 ae3d 2865 1b3e 594d 84bd 586a c63b
000000c0: 434b 1ebe cab8 04be 2510 35bc 1744 35be
000000d0: cbfe 503d 59c5 15bd 3624 0ebe 27ce 25bd
000000e0: 6284 483e c7c7 113e 36a3 023e 26ac ecbc
000000f0: a4c5 febd 587a 913d e8c2 8aba 54e4 b3bd
00000100: 3b44 8dbd e9ac 77be d45f e63d da8a 64be
00000110: e27b ee3d eeb9 3a3d 92dc be3d 79be 8f3d
00000120: ec5c d13c 3930 12be 7f75 21be 107a ebbc
00000130: 85ee 483e b606 3cbd 68de b9bd 3142 79bd
00000140: 7710 033e dd9e 69be f680 893d af04 853e
00000150: f2f9 f6bd c43d da3d 70db 0b3e c001 303e
00000160: edf5 30be 2a9a cbbd 8c99 64be f593 6cbd
00000170: f5fa 64be d381 65be 4b17 c53b 4466 5f3d
00000180: 4682 60bd 41e1 32be f31e 31bd 4d06 923b
00000190: 044b 1bbc bac8 263e 90bc 4fbe 8852 4d3d
000001a0: bf73 3a3e 981e 333d 0b82 b93c 3131 9bbe
000001b0: 813b 453d 110c b2bd b04d dd3d 4965 393e
000001c0: 50f0 d3bb 9782 b1bd e163 223d a753 aabd
000001d0: b977 8a3e 9aa1 18be 679d 0c3e 6668 053e
000001e0: ffaf 523c 49f3 80bd f56d 53bd 8a28 043d
000001f0: 5b62 0e3e c739 463e b8a9 32be d684 a5bd
00000200: 93c9 353d 4ec4 41be 4ed8 06be f62a 3bbe
00000210: 9c62 b13d ebbc 5fbd ce03 eabd dd2f 1ebe
00000220: 120e 77bd 4ed5 9cbd 80df 813e 8128 c4bb
00000230: 241d 5cbd 7126 223e c247 bfbd 0684 32bd
00000240: d85a 2cbd 212c 6cbd 077c 863e 58b2 1bbe
00000250: 9348 34be 1140 8dbe af56 d23c e446 783e
00000260: 8ce7 8bbe 7c3b 62be 21ba 44bd 1584 f83d
00000270: 80b3 963d 81d5 963d 16be 6dbc 4362 96be
00000280: a888 84bd b7e7 dabd ef37 283e 6d2d 523e
00000290: f375 0abe 0166 e03c 2353 82bd 6ac2 68bd
000002a0: c8d4 1a3e 5222 cf3c c4ef 32be 0800 87bd
000002b0: 7497 ddbd f6cc 59be 5d33 81bd e2c6 023c
000002c0: dc05 0d3e 7a06 463e 5502 19be 2a32 b8bd
000002d0: 7cbf e1bc 5233 33bd 9723 ec3d 43b7 d73d
000002e0: 3f54 543e 6c1f 0abe c4f3 d2bb 40f2 753c
000002f0: 1a77 433e f37e 1a3c 373d bc3d d596 38be
00000300: 5878 d73d db67 313e e622 d5bd 1611 543d
00000310: 5f16 c23c f741 48be fef8 10bd 9fef 0bbd
00000320: 2d74 02be 051a 8fbe 24bd 2a3e 73c9 b7bd
00000330: 8d27 5b3d 27dc 993d 9f6b 67bd f179 09bd
00000340: 7608 e1bd e12a 913d a4e3 40bc 8646 42be
00000350: 3aef cfbd 5137 773d 6b2f 363e 7f2d 113e
00000360: 48f2 093e cd0d dbbd 1e6f 5abd 9a4b e8bd
00000370: c9df 91bd ea3a 26be bd42 20be ee48 273e
00000380: 0ea6 25bd 7921 173d 36af 8abd 5d01 42be
00000390: 42f5 843d c0fb e63d 5da5 693d 89fe bf3d
000003a0: c71d 963d f0bf 513b f1ba 56bc b4e5 dcbc
000003b0: 88fb 363e de8a 3dbe 3f9a 43bd 1c0a 1a3d
000003c0: 284d 3cbe ca07 edbd 0f6f b4bd 6bc9 8c3a
000003d0: ff62 ddbd 0535 86bc d8b1 783c cbba a2bd
000003e0: 7332 4fbd 9895 3c3d 57a1 b4bc cb03 0cbe
000003f0: f41f 333e 3307 6dbc 2677 8bbd 39a9 cf3d
-0.17566237 -0.038035415 -0.032884907 0.05740863 0.0026432504 0.06643461 0.10270201 0.019604629
0.049467452 -0.06114348 -0.21719629 0.19472736 0.1002754 -0.06868278 -0.04125478 -0.09149406
0.07809337 0.21042104 -0.073370114 -0.15586708 -0.047316797 0.06306798 0.14643583 -0.16301252
0.15683855 0.17625675 0.0070764194 -0.0537998 0.11141857 -0.15267721 -0.11375501 -0.2096731
0.2352583 -0.036359698 0.13706341 -0.14124964 -0.14535812 -0.019523073 0.0315092 -0.040271457
0.15481277 0.00633058 -0.114381135 0.15819807 0.08506985 0.15175307 -0.064600654 0.0060551576
-0.15458398 -0.12961116 -0.011051212 -0.17701755 0.05102424 -0.03656516 -0.13881001 -0.040479805
0.1958175 0.14236365 0.12757573 -0.02889068 -0.12440041 0.07103413 -0.0010586651 -0.087837845
-0.068977796 -0.24187054 0.112487465 -0.22318593 0.116447225 0.045587473 0.09319414 0.07018752
0.025557004 -0.14276208 -0.15767477 -0.028744727 0.19622238 -0.045904838 -0.09075624 -0.06085414
0.1279925 -0.22814508 0.067140505 0.25980136 -0.12059392 0.10656312 0.13657928 0.17188168
-0.17281313 -0.09941514 -0.22324198 -0.05775829 -0.22361358 -0.22412805 0.0060147396 0.054540887
-0.05481174 -0.1746874 -0.043242406 0.0044563175 -0.009478334 0.16287509 -0.20286775 0.050127536
0.18208216 0.04373035 0.022645017 -0.30310968 0.04815245 -0.08693708 0.10805833 0.18105043
-0.0064678565 -0.08667486 0.039646033 -0.08316737 0.27044466 -0.14905396 0.13731919 0.13028106
0.012859344 -0.06296403 -0.051618535 0.032265224 0.13904707 0.19357978 -0.17447555 -0.08081977
0.04438169 -0.1892254 -0.13168451 -0.18278107 0.08661386 -0.054623526 -0.11426507 -0.15447946
-0.060316153 -0.07657872 0.2536583 -0.0059862738 -0.05373873 0.15834977 -0.093398586 -0.04358294
-0.042078823 -0.057659272 0.262665 -0.15204751 -0.1760581 -0.2758794 0.0256761 0.24245793
-0.27325094 -0.22093004 -0.04802907 0.12134568 0.07358456 0.073649414 -0.014510652 -0.29371843
-0.064713776 -0.10688727 0.16427587 0.20525141 -0.13521557 0.02739239 -0.06363513 -0.056826033
0.15120232 0.02528492 -0.17474276 -0.06591803 -0.10819903 -0.21269593 -0.06308625 0.007981988
0.13771766 0.19338408 -0.14942296 -0.08993943 -0.027557127 -0.043750115 0.11530226 0.10533001
0.20735262 -0.13488549 -0.0064377505 0.01501137 0.19088402 0.009429681 0.09191363 -0.18026288
0.105210006 0.17324774 -0.10407047 0.051774107 0.023692308 -0.19556414 -0.035393707 -0.034164067
-0.1273963 -0.2794954 0.16673714 -0.0897397 0.053504515 0.07512694 -0.05649912 -0.033563558
-0.10987942 0.070882566 -0.011773024 -0.18972215 -0.10153051 0.06035549 0.17791526 0.14177512
0.13471329 -0.10695992 -0.053328626 -0.11342545 -0.07122762 -0.16233411 -0.15650459 0.16336414
-0.040441565 0.036897156 -0.067717 -0.18945833 0.06492092 0.11278486 0.05704247 0.093747206
0.07329898 0.0032005273 -0.013106094 -0.026965 0.17869389 -0.18510005 -0.047754522 0.037607297
-0.18388808 -0.11573751 -0.08810245 0.001074118 -0.10809898 -0.016382704 0.01517912 -0.07945784
-0.05058522 0.0460411 -0.02204959 -0.13673322 0.17492658 -0.014467048 -0.06809835 0.101396985

weight_hh_l0 f4 [120, 40]
00000000: 27ec 77bd c276 09bd a0da b23d c380 95bd
00000010: 892c 083e 3a85 eb3a 6549 3b3e 79a1 cdbd
00000020: f67c f23d 6778 5c3e ede4 e3bb df4d 8a3d
00000030: f77b ea3d 9572 5fbe 728a 733d c399 093d
00000040: b1c5 4abc 240b f7bd cdb2 fa3d 900d 67bd
00000050: 4ab9 19bd cf08 e33d 471c f3bc 78b4 843c
00000060: 1b37 9a3d 51ba a2bd 9c17 74bd 362f eebc
00000070: abe3 96bd a267 863d a4b3 f23d 64d3 5c3c
00000080: a49c 49be f954 74bc 2126 0fbe a09f 27be
00000090: 2b8f c8bd f617 49be 0da9 d53d 4cb5 513d
000000a0: 4d04 2b3e 4356 e13d 91a4 d43d 8fa4 12bd
000000b0: e24f 073c e4b5 513e dc3c 9e3b 939a 9b3d
000000c0: 6ba2 64bd 1ff2 1fbe 4c41 de3d 9456 08be
000000d0: 7a9e b5bc 5b0e 3c3e fff7 363e 7744 08bb
000000e0: f25b e4bb 495a 91bc 85e9 3abd dcc1 13be
000000f0: 03db be3d b381 513e efb0 32bd 818f 023e
00000100: e1c6 cbbc a4ab 97bd 462e bfbd 631b 6d3e
00000110: e66a febd 5152 2dbe d055 36be aaa0 21be
00000120: dae4 433e 0d20 a1bd be41 0cbd 0503 04bc
00000130: 8557 29be 4b46 523b 2e56 d4bd 8a6b 2b3e
00000140: bc3f 24be da64 a33d 61ae 85bd 9b17 9f3d
00000150: ad5b 78be d90f 3e3e 5efe d3bd 5656 b43d
00000160: 256b 79bc 03d6 60bd 6255 0e3e 1638 653d
00000170: 157e 37bb c47a 9f3d 48be 9fbd 8dcd 4cbe
00000180: 2318 483d 797c 44be daa5 c3bd c527 a8bc
00000190: f6fd c23d e5a3 2d3d d58d fcbd f1f5 62be
000001a0: 75c8 883d 3fd8 d93c d14a 33be 7c07 39be
000001b0: 348c c43d a73c 19be f605 d5bb 1a24 ad3d
000001c0: e9a8 d33d 25c7 37be 1e6c f03b 2e50 bfbc
000001d0: a806 e13d 4d83 f3bd ce48 dfbd 9adb b4bd
000001e0: e5f2 8d3c b539 353e 0b50 14be f410 c1bd
000001f0: 01ce 6c3d 6925 19bc 477a 5dbd 7945 93bd
00000200: 0430 283d 923c 0fbd 1b81 2dbe 2970 2d3d
00000210: 5d1f 35be 5da5 89bd fd0e 323e c573 df3c
00000220: 18ab a1bd 81ee e73d b05a 37be 3497 fc3c
00000230: 40d8 d73d ed87 a9bd 09b7 d8bb ea66 ba3d
00000240: e4db 54bc 58ae fcbd 820b 183d 760d e4bb
00000250: 3e23 c6bd c629 fdbd 5eff 87bd d9fd de3d
00000260: 8db4 c63d 4f1e a13c 8dd6 9cbb e079 973d
00000270: 4f0a 22be ba35 cfbd 83a3 6d3d 7da6 42bd
00000280: babf 88bd c425 b9bd 183e 893d c274 08bd
00000290: 9a19 dc3d bed4 38be 2517 fd3c 593e 16bd
000002a0: 5fa2 e33d e6fa 613e 1d74 6f3e 87c6 303e
000002b0: 211a 75bd 43e0 bc3d 9203 22be 4873 bebc
000002c0: 036e fabc 3b61 08be 4a02 b33d 88a7 533e
000002d0: 45a1 963d 7494 743d 0c28 52bd 28b7 d1bb
000002e0: eec8 7a3d 4154 7abd 5ccb 9bbd 2963 93ba
000002f0: 8eec 47bd 97ab 993c 4814 253e 3255 653e
00000300: a55c 2dbe 5745 34bd 48fa 21be be5a 713c
00000310: 6676 0f3e 1629 94bc 5557 2f3c e81d 143d
00000320: 5494 c0bd 7ace c53d db40 3d3e 04c4 293e
00000330: 0603 73bd b43b a33d 6214 163e f933 1b3e
00000340: 31cd 183e 228d 8e3d 0e4f d6bd 87b4 30bd
00000350: 3440 13bd 4e53 2f3d c277 a3bd 1961 3e3d
00000360: 144c 083e 09fe a9bd b734 1f3e c1ab 103e
00000370: 28d8 b13d 5995 9abd e2e9 f83d 31db 87bd
00000380: 8ba3 0f3c aa32 b8bc f555 01bd b61f ccbd
00000390: 7866 e73d 1692 b63d 47e3 e73d c974 1ebe
000003a0: 7d39 92bd 7337 27bd 9891 edbd dce6 d4bd
000003b0: 3eb9 e83c 8275 1f3e 6566 e5bd 645c 98bc
000003c0: 1ecd 0f3e 76a6 0a3c 916c ec3d e790 7b3e
000003d0: 8b96 dabd 313f e13c aab0 643e 7a11 c6bd
000003e0: 25bd 2e3d 855c 2c3e 1ff0 533e d7e7 b8bd
000003f0: 689c 223d d141 593d 4658 883c dfad 5cbb
-0.060527947 -0.033560522 0.08733106 -0.0729995 0.13298239 0.0017968782 0.18289717 -0.10040564
0.11840241 0.21530305 -0.0069547803 0.06753134 0.11449426 -0.21821053 0.059458204 0.033593904
-0.012376235 -0.12062672 0.12241135 -0.05640942 -0.03753022 0.110856645 -0.02967657 0.016199335
0.07530042 -0.07945693 -0.05959283 -0.029075246 -0.07367643 0.06562735 0.1185067 0.013478134
-0.1968866 -0.014912837 -0.13979389 -0.16369486 -0.09792932 -0.19638047 0.104326345 0.05119829
0.1670086 0.11002781 0.10382951 -0.035801467 0.008258792 0.20479542 0.0048290323 0.07597842
-0.055818956 -0.15619706 0.10852298 -0.13314277 -0.022170294 0.18364851 0.1786804 -0.0020792761
-0.0069689685 -0.017743247 -0.045632858 -0.1442942 0.09319117 0.20459633 -0.04362577 0.12750055
-0.024875106 -0.07405785 -0.09334998 0.23154978 -0.12422733 -0.16925932 -0.17806172 -0.15783945
0.19130269 -0.07867441 -0.034242384 -0.008057361 -0.16537292 0.0032085355 -0.10368 0.16740242
-0.16039938 0.0797822 -0.06527401 0.07768174 -0.24253722 0.18560733 -0.10351251 0.0880553
-0.015223299 -0.054891597 0.13899758 0.05596169 -0.0027998735 0.077870876 -0.07799965 -0.20000286
0.048851144 -0.19188108 -0.09553118 -0.020526776 0.095210955 0.04239263 -0.1233174 -0.22164132
0.06678859 0.026592372 -0.17509009 -0.18069261 0.09597054 -0.14964543 -0.0065009547 0.084541515
0.103349514 -0.17947061 0.0073371073 -0.023353662 0.10987598 -0.11890278 -0.10902558 -0.08830948
0.017327735 0.17697795 -0.14483659 -0.09427062 0.057813648 -0.009347298 -0.05407169 -0.07190985
0.041061416 -0.034969874 -0.16943781 0.042343292 -0.17687745 -0.06720994 0.1738853 0.027276883
-0.07893962 0.11324788 -0.17905688 0.030833818 0.10539293 -0.08277879 -0.0066136164 0.091016605
-0.012991879 -0.12337941 0.03712035 -0.0069596125 -0.09674691 -0.12361483 -0.06640504 0.10888261
0.09702406 0.019667773 -0.0047863186 0.07396293 -0.15824245 -0.101176694 0.058017265 -0.047522057
-0.06677194 -0.09040406 0.067012966 -0.033314474 0.107470706 -0.18049905 0.030894825 -0.036680553
0.11114954 0.22068366 0.23384137 0.17263232 -0.05983937 0.09222462 -0.15821674 -0.02324833
-0.030570036 -0.1331834 0.08740671 0.20669377 0.073549785 0.05971189 -0.051307723 -0.0064000078
0.061226778 -0.061115507 -0.07607147 -0.0011244762 -0.04880958 0.018758578 0.16121018 0.2239578
-0.16929872 -0.04401144 -0.15818131 0.014731107 0.14010009 -0.018085998 0.010701974 0.036161333
-0.09403291 0.09658523 0.18481772 0.1657868 -0.059329055 0.07970372 0.14656213 0.15156545
0.14922024 0.06960513 -0.10464297 -0.043140914 -0.0359499 0.042804055 -0.07981826 0.04647932
0.13310272 -0.083004065 0.15547453 0.14128019 0.08683807 -0.07548017 0.121539846 -0.06633604
0.008767019 -0.022485096 -0.031576116 -0.09966986 0.11298841 0.089145824 0.113226466 -0.15474238
-0.07139871 -0.040824365 -0.116000354 -0.103955954 0.028408643 0.1557217 -0.11201171 -0.018598743
0.1404309 0.008462539 0.11544145 0.24566995 -0.10673245 0.027495952 0.22333017 -0.09671302
0.04266085 0.16832168 0.20697068 -0.09028595 0.039699942 0.053041283 0.016643655 -0.0033672971

bias_ih_l0 f4 [120]
00000000: f7fb a7bd 2754 b7bc 7f8b 00be ae22 d33c
00000010: 3fd5 67bd 4086 093e bfcb afbd 156f fbbd
00000020: 0870 0e3e 7d3e bbbd dfa1 8cbd 6de5 01be
00000030: 1718 aabc d17c 663e 6935 e63d f6bd 6dbe
00000040: 88b9 aa3d 928c 12bd 27ee 1a3d 3858 b3bd
00000050: a9ec 62be b95f d1bd 46e8 5abe e520 10bb
00000060: 8a93 2ebe 806c fa3d 28e8 c03d 20af 3c3d
00000070: 34e3 28bc 8580 263d 9f94 e5bd 5699 2b3e
00000080: e11d 28bd cea8 c4be 7e6b 003d f819 84be
00000090: a6a7 8fbc 7d70 19bd da17 8c3e 35f6 5b3e
000000a0: 4371 e73c cfe2 5d3e f6ee 603e a065 ebbc
000000b0: c6da 8d3d 3abb 873a 44be 81bc 129f 143e
000000c0: fbf1 7dbd bbfb e43d cc03 043e 337a 833b
000000d0: 837f 5d3e 04df 1abd 2326 a8bc 926f 98bd
000000e0: 1a8f 7f3e 096e 16bd 353b 41bd d987 d4bd
000000f0: d5f5 fd3c 68b6 193e 6134 5bbd c6c6 cf3d
00000100: ce5a af3d 0480 263e f673 1f3e f2d1 5fbc
00000110: 6d03 423c 4f45 183c be28 6c3d d2f9 37be
00000120: 79a6 43bd 5cf3 253c f4cd 2b3e 297c b53d
00000130: edfd 403d eca0 7f3e 84d5 01be abe2 333e
00000140: df22 14bd 12ce 25be 7258 f3bc ce17 513c
00000150: b6b2 efbd 7439 09bc b98c 36be 7bc1 d83d
00000160: 4af2 cdbc bdef 963d cc3d a5bd d7e5 98bd
00000170: f51f 9bbd d287 ff3d 9be7 483d 86b8 383d
00000180: ca36 083e c219 95bd acef 563d 585d 8d3d
00000190: da59 62bd cf79 e4bd 29b7 293c d849 3ebc
000001a0: 31ca acbc a903 e9bd 814c 843c 8695 73bc
000001b0: de6e dabd 944c 863d 2699 d33d 473e 213e
000001c0: acb3 39bd e855 6abd e469 10bd 70d1 01be
000001d0: 857e 0cbe 3504 003e 1963 193d 1837 ff3d
-0.08202355 -0.022378994 -0.12553214 0.025773373 -0.05659985 0.13430119 -0.08583783 -0.122770466
0.13909924 -0.09142778 -0.06866812 -0.12685175 -0.02076344 0.22508551 0.11240656 -0.23216996
0.083361685 -0.03577859 0.037824776 -0.08757061 -0.22160591 -0.10223336 -0.21377668 -0.0021992263
-0.17048469 0.12227726 0.0941928 0.04606545 -0.010308076 0.04064991 -0.11209988 0.16757712
-0.04104412 -0.38410038 0.031352513 -0.25801063 -0.017535996 -0.037460793 0.27361947 0.2148064
0.02825225 0.21668552 0.21966156 -0.028734982 0.06926493 0.001035548 -0.015837796 0.14513806
-0.06199835 0.11180826 0.12892073 0.00401237 0.21630673 -0.03781034 -0.020525998 -0.07443155
0.24956933 -0.03672603 -0.047175605 -0.103774734 0.03100101 0.15010989 -0.05351675 0.10145335
0.085622415 0.16259772 0.1557158 -0.013660895 0.011841637 0.009293868 0.057656042 -0.17966393
-0.047766183 0.010128822 0.16777784 0.08861572 0.047117162 0.2496373 -0.12679106 0.17566936
-0.03616607 -0.16191891 -0.02970526 0.012762023 -0.11704008 -0.008375514 -0.17827119 0.105837785
-0.025139946 0.07369945 -0.080684274 -0.074657135 -0.07574455 0.124770775 0.049049 0.04509785
0.1330215 -0.072803035 0.052474663 0.069025695 -0.05526147 -0.11156046 0.01035861 -0.011614285
-0.021092506 -0.11377651 0.016149761 -0.014867192 -0.106656775 0.06557575 0.10331945 0.15746413
-0.045337364 -0.057210833 -0.035257235 -0.1267755 -0.13720138 0.12501605 0.037448023 0.1246168
