Results/2330_generator1.pth (torch, 159411 bytes, 32 tensors)

weight_ih_l0 f4 [120, 20]
0	0xbe330bc0	-0.17484951
1	0x3b03334e	0.0020019594
2	0xbe1797aa	-0.14803949
3	0x3db6d096	0.08926503
4	0xbdbb68f8	-0.091508806
5	0xbc87ee31	-0.01659307
6	0x3d958e00	0.07302475
7	0xbdf4f15a	-0.11960097
8	0x3d71c287	0.059023406
9	0xbdb61d30	-0.08892286
10	0x3da83e30	0.08214986
11	0xbe2b6a25	-0.1673971
12	0x3de3c0a6	0.11120729
13	0xbd204bd6	-0.039134823
14	0xbe47b121	-0.19501163
15	0x3dbe8598	0.09302825
16	0x3dd67d87	0.10473161
17	0xbe2d2863	-0.16909938
18	0xbd960f3a	-0.07327123
19	0x3cc24c4f	0.023718027
20	0xbd257ee2	-0.040404208
21	0xbd17eee0	-0.037093043
22	0xbc94330f	-0.018090753
23	0x3dfb3142	0.122652546
24	0x3d5d7a6c	0.05407183
25	0x3e0c972b	0.13729541
26	0x3d2bf031	0.04197711
27	0xbc2e3aae	-0.0106341075
28	0xbc34808e	-0.011016978
29	0xbd38bc93	-0.045101713
30	0x3dd2883e	0.102798924
31	0x3d9158ff	0.07097053
32	0xbe46a608	-0.19399273
33	0xbdca56dc	-0.09879848
34	0x3d90b8f7	0.07066529
35	0x3d9d2f77	0.07675069
36	0x3d876680	0.06611347
37	0xbe29cf7a	-0.16583052
38	0x3bfd49ee	0.0077297604
39	0xbdbaa6cd	-0.09113846
40	0x3cc0a6a1	0.023516955
41	0x3e311cc4	0.1729613
42	0x3dc92422	0.09821345
43	0x3cebb091	0.028770717
44	0x3e3b64b8	0.1830014
45	0x3e4a5c33	0.19761734
46	0xbc2f245a	-0.010689819
47	0xbc0b7dc7	-0.008513874
48	0x3d927ea2	0.071530595
49	0x3d75ca8e	0.060007624
50	0xbd26b940	-0.040704012
51	0xbdab0b38	-0.08351749
52	0x3e1626d3	0.14663248
53	0xbdc298b7	-0.09501784
54	0x3d601a36	0.054712497
55	0x3deb11b8	0.11477989
56	0xbe643580	-0.22286034
57	0xbdbd7f9c	-0.09252855
58	0xbd7d0b71	-0.06177849
59	0xbdc65a8a	-0.09685238
60	0x3d70e59d	0.058812726
61	0xbdc669ae	-0.096881256
62	0x3d5fb623	0.05461706
63	0xbd8b71bc	-0.068088025
64	0xbdc4cc9e	-0.0960934
65	0x3de7d14a	0.113192156
66	0xbcd8f12d	-0.02648219
67	0x3e2ff18b	0.17181985
68	0xbdd1e069	-0.10247881
69	0x3e15488f	0.1457846
70	0x3e084288	0.1330663
71	0xbd97e1b5	-0.07416097
72	0xbd6685b5	-0.056279857
73	0x3e18ca4d	0.14920922
74	0xbdfbcbdc	-0.122947425
75	0xbd5cb42d	-0.053882767
76	0x3e32eef6	0.17473969
77	0x3c8fb29c	0.017541222
78	0x3de9d667	0.11417847
79	0xbd1db41a	-0.038501836
80	0xbd3f1c30	-0.04665774
81	0x3c9aca6e	0.018895354
82	0xbe5a86f5	-0.21340545
83	0xbd84ff16	-0.06493966
84	0x3ce327e5	0.027728984
85	0x3dbbba4a	0.09166391
86	0x3ce4446f	0.027864663
87	0x3c89c4c1	0.016817452
88	0xbdd1da38	-0.102467
89	0xbda4af9e	-0.08041309
90	0xbd0f9920	-0.03505814
91	0xbcf60b2a	-0.03003462
92	0xbe131419	-0.14363135
93	0xbe22d848	-0.15902817
94	0xbc0b7eec	-0.008514147
95	0xbe3174aa	-0.1732966
96	0xbe012a99	-0.12613906
97	0x3e3218a1	0.17392208
98	0x3e2ee39d	0.17079015
99	0xbe67f3d1	-0.22651602
100	0x3e103580	0.14082909
101	0x3d0695e6	0.032857798
102	0x3bf05fe4	0.00733565
103	0xbdfe40e3	-0.1241472
104	0xbd97c673	-0.07410898
105	0xbd98e1fc	-0.07464978
106	0x3c652c4c	0.013987612
107	0xbda4e9b1	-0.080523856
108	0xbcb88f42	-0.022529248
109	0xbd7c2163	-0.061555278
110	0x3e1b2dc1	0.15154172
111	0x3db33fa6	0.08752374
112	0x3e73e595	0.23818047
113	0x3e6fd0fa	0.23419562
114	0x3e4dc735	0.20095523
115	0xbcd25914	-0.025677241
116	0x3de58cc7	0.11208492
117	0x3e2c864d	0.16848107
118	0x3de731b8	0.1128878
119	0x3ea261fd	0.31715384
120	0x3e3b0c1e	0.18266341
121	0x3e0ef59f	0.13960885
122	0x3df7cbd5	0.12099425
123	0x3e2a9751	0.16659285
124	0xbd225d2f	-0.039639648
125	0x3c7a6c58	0.01528462
126	0x3e1a557a	0.15071669
127	0x3d8eee2b	0.06979021
128	0x3e39f005	0.18157966
129	0x3d7eff1e	0.062255017
130	0xbc99a70f	-0.018756418
131	0xbdd048b2	-0.101701155
132	0xbd60a793	-0.05484731
133	0xbcae7d0c	-0.021299861
134	0x3de2e249	0.11078317
135	0xbdd1baec	-0.10240731
136	0x3e07fa73	0.13279133
137	0xbe1bd491	-0.15217806
138	0xbe09bc10	-0.13450646
139	0x3dbe7f3c	0.09301612
140	0xbe049e64	-0.12951046
141	0xbda3d70f	-0.080000035
142	0x3e1090bd	0.14117713
143	0xbc6e65ca	-0.014550636
144	0xbdf1ab83	-0.118002914
145	0xbdf799d4	-0.12089887
146	0xbc43e9a6	-0.011957562
147	0xbd9b7268	-0.07590181
148	0xbe025403	-0.1272736
149	0x3e11dde5	0.14244802
150	0x3e016cf9	0.12639226
151	0x3dab7ceb	0.083734356
152	0x3d98fa56	0.07469623
153	0xbda8d3bd	-0.08243511
154	0x3d869161	0.065706976
155	0xbda12d15	-0.07869927
156	0xbe17f333	-0.14838867
157	0x3cba48bc	0.02273976
158	0x3d432a7e	0.047647946
159	0x3e3d71e8	0.18500483
160	0x3e0beeb9	0.13665284
161	0x3de35791	0.11100686
162	0x3ce71854	0.028209843
163	0xbdb05f25	-0.086118974
164	0x3e173095	0.14764626
165	0xbca1765a	-0.019709755
166	0x3e2b6fe3	0.167419
167	0x3c48e364	0.012261245
168	0x3db6de6d	0.08929143
169	0x3d92c8dd	0.07167218
170	0x3cfb162b	0.030650219
171	0xbb47c0a0	-0.0030479804
172	0xbe3ee44e	-0.18641779
173	0x3e0de971	0.13858582
174	0xbdcd53fd	-0.10025785
175	0xbd875505	-0.06608013
176	0xbcaced61	-0.021109285
177	0x3d472a76	0.04862448
178	0xbdd96089	-0.10614116
179	0x3e02e20f	0.12781547
180	0x3dff7e69	0.12475283
181	0x3e0964bc	0.13417333
182	0x3dbb1fdd	0.09136937
183	0xbd4cf748	-0.050040513
184	0x3dded20b	0.10879906
185	0xbd9d3287	-0.07675653
186	0x3dd7e639	0.10541958
187	0xbb55cadd	-0.0032622137
188	0xbd19b608	-0.037527114
189	0xbc84707e	-0.016166922
190	0xbdb9c7f6	-0.09071343
191	0x3cdc9ee1	0.026931228
192	0xbe37baf5	-0.17942412
193	0x3dcc1519	0.099649616
194	0x3cd1dd2e	0.025618162
195	0xbe3ee878	-0.18643367
196	0xbd01a73a	-0.03165362
197	0x3ba35b40	0.004985243
198	0x3c9ae2b9	0.018906938
199	0x3db05931	0.08610762
200	0xbdc352b0	-0.09537256
201	0x3d89cdc0	0.06728697
202	0xbe0dff63	-0.13866954
203	0xbd92ecd9	-0.07174081
204	0x3db7cb45	0.089743175
205	0xbe3370ed	-0.17523547
206	0xbdbc2e54	-0.09188524
207	0xbe1e5231	-0.15461041
208	0x3c7eea0a	0.015558729
209	0xbe3e3acb	-0.18577115
210	0x3d0ee000	0.03488159
211	0xbdbb35a0	-0.091410875
212	0x3d67dadc	0.056605205
213	0xbd24af5c	-0.0402063
214	0xbd88362e	-0.06650959
215	0xbe6ed672	-0.23323992
216	0x3e079419	0.13240089
217	0x3dd19173	0.1023282
218	0xbe2ea604	-0.17055517
219	0x3ca86b20	0.020558894
220	0xbc8a65cf	-0.01689425
221	0xbe09f3fa	-0.13471976
222	0x3e353769	0.17696919
223	0x3de5069b	0.111829005
224	0xbb95655c	-0.004559202
225	0xbb52d5b2	-0.003217083
226	0x3e164fd7	0.14678894
227	0x3d736781	0.05942488
228	0xbdd0a021	-0.10186792
229	0xbdae2511	-0.085031636
230	0xbde38c75	-0.111107744
231	0x3dac4a2c	0.08412585
232	0xbba9ca10	-0.0051815584
233	0xbe041c5c	-0.12901443
234	0xbd83289d	-0.06404231
235	0xbd039318	-0.0321227
236	0xbd050282	-0.032473095
237	0x3d5a5168	0.05330029
238	0xbd819732	-0.06327666
239	0xbc3ec269	-0.011643031
240	0x3d4235ec	0.047414705
241	0xbd4071f4	-0.046983674
242	0xbd870359	-0.065924354
243	0xbbbdbbe4	-0.0057902206
244	0xbc8a3bb3	-0.01687417
245	0x3de399f7	0.11113351
246	0x3dfbc081	0.122925766
247	0xbdc9ad0c	-0.09847459
248	0x3deff368	0.11716348
249	0x3ce7196a	0.02821036
250	0xbdc955aa	-0.09830792
251	0x3e16fdb6	0.1474522
252	0x3dabc5a3	0.083873056
253	0x3d1b185c	0.037865028
254	0xbdb174e5	-0.08664874
255	0x3d51e4c3	0.051243555

weight_hh_l0 f4 [120, 40]
0	0x3d1710d4	0.036881283
1	0x3ddeb6a5	0.108746804
2	0x3baf0108	0.005340699
3	0xbd17f9e1	-0.037103537
4	0xbd921fdb	-0.07134982
5	0xbdb72786	-0.08943085
6	0x3bcb9e6f	0.006213955
7	0xbe1fd326	-0.1560789
8	0x3db36358	0.08759183
9	0x3c8ad390	0.016946584
10	0xbe33f9d2	-0.17575768
11	0xbd254456	-0.040348373
12	0xbdde4411	-0.108528264
13	0xbc612f57	-0.013744197
14	0xbe128922	-0.14310125
15	0x3d635828	0.055503994
16	0xbd321280	-0.043474674
17	0xbd3497f3	-0.044090223
18	0x3db0d46f	0.086342685
19	0x3df11177	0.11770909
20	0x3e237954	0.15964252
21	0xbca77537	-0.020441635
22	0x3e319157	0.17340599
23	0x3dee2146	0.1162744
24	0x3e40fc4c	0.18846244
25	0xbd6693cd	-0.056293298
26	0x3e2a69b5	0.16641887
27	0x3e1ccbc0	0.153121
28	0xbd42ecc4	-0.04758908
29	0x3d6cc5da	0.057805873
30	0x3dab2a3e	0.083576664
31	0x3c3315e2	0.01093051
32	0xbc9fd3c2	-0.019510154
33	0xbe054d66	-0.13017806
34	0x3c6f2486	0.01459611
35	0x3c9dda97	0.01926927
36	0xbc166ff7	-0.009181968
37	0x3d62131e	0.055194013
38	0xbdeb51e0	-0.11490226
39	0xbd1c959b	-0.038228612
40	0xbd553073	-0.052048158
41	0xbdd40a23	-0.10353496
42	0x3d6ed10e	0.05830484
43	0x3debb11f	0.115083925
44	0x3d5dfd45	0.054196615
45	0xbac702f7	-0.0015183379
46	0x3ba22e60	0.004949376
47	0x3c3f7e54	0.011687834
48	0xbd34e371	-0.044162218
49	0xbdf2e76d	-0.11860547
50	0x3ce09b03	0.027417665
51	0x3e3ff4c2	0.18745711
52	0xbdbfeb51	-0.09371055
53	0xbd6ab8a3	-0.05730499
54	0x3d3a80c4	0.045532957
55	0xbde88aa9	-0.11354572
56	0xbe1700db	-0.1474642
57	0x3c15cbcd	0.009142828
58	0xbe32ee68	-0.17473757
59	0xbdcc2803	-0.09968569
60	0x3be73c9f	0.007056787
61	0xbd39bbde	-0.04534518
62	0x3dbfea14	0.09370819
63	0x3d936c2d	0.07198367
64	0xbdb24dc2	-0.087062374
65	0xbc1476c0	-0.009061515
66	0xbb10ff74	-0.0022124918
67	0x3cbe1f05	0.02320815
68	0x3df1af2d	0.1180099
69	0xbcd92dab	-0.026511034
70	0x3d5d3c45	0.054012556
71	0xbe194920	-0.14969301
72	0xbd9fdee7	-0.07806187
73	0xbde80b8a	-0.11330326
74	0x3dc6c8ee	0.09706293
75	0xbd9b6fb4	-0.07589665
76	0x3e086fd5	0.1332391
77	0xbd0fdce9	-0.035122786
78	0x3da037f6	0.07823174
79	0xbe073e69	-0.13207401
80	0xbe0327b1	-0.1280811
81	0xbe4258f9	-0.18979253
82	0x3c423553	0.011853534
83	0x3d80fe1d	0.06298468
84	0xbd1c72de	-0.038195483
85	0x3e2a4ee4	0.16631657
86	0xbe08a24a	-0.13343158
87	0x3d56c1bf	0.052430864
88	0xbdd6f42e	-0.10495792
89	0xbdecce25	-0.115627564
90	0x3ca04e76	0.019568663
91	0x3d034447	0.032047536
92	0xbca7bb76	-0.02047513
93	0xbe168d56	-0.14702353
94	0x3db99a37	0.09062617
95	0x3de80f62	0.11331059
96	0xbe0f7de0	-0.14012861
97	0x3c3968b3	0.011316466
98	0x3d064f96	0.032790743
99	0x3d9edf63	0.077574514
100	0x3e188425	0.14894159
101	0x3d14f0c4	0.036362424
102	0xbdbf20f1	-0.09332455
103	0x3d92e430	0.071724296
104	0xbd4b330d	-0.049609233
105	0xbd9ed216	-0.077549145
106	0x3e004ad5	0.12528546
107	0xbd95b735	-0.073103346
108	0xbe60c51b	-0.2195019
109	0xbde525dd	-0.111888625
110	0x3d273cf6	0.04082962
111	0x3c92c464	0.017915912
112	0xbe0ad281	-0.13556863
113	0xbd6e35e7	-0.058156874
114	0x3dbab33b	0.09116217
115	0xbe1abe32	-0.15111616
116	0xbce6f18a	-0.028191347
117	0xbd079ece	-0.033110432
118	0x3c949c50	0.018140942
119	0xbe45a73e	-0.19302079
120	0x3dda71e9	0.10666258
121	0xbdf3909c	-0.118928164
122	0x3d6dc0be	0.05804514
123	0x3e3377dc	0.17526191
124	0xbe120d06	-0.1426278
125	0x3d04dde9	0.032438193
126	0xbdde5fa3	-0.10858085
127	0xbe3b47a5	-0.18289049
128	0x3db12d59	0.086512275
129	0x3d4c5b1a	0.04989157
130	0x3d595905	0.05306341
131	0x3dec56db	0.11540004
132	0x3e1f1ee9	0.15539135
133	0x3c120977	0.008913389
134	0xbd9f77b6	-0.07786505
135	0xbccd7131	-0.025078388
136	0xbd53472f	-0.051581558
137	0xbd93e167	-0.072207265
138	0x3e018c99	0.1265129
139	0xbcee2ecd	-0.02907505
140	0xbd1f727b	-0.038927536
141	0xbe1ccde5	-0.15312918
142	0x3dbf185b	0.09330817
143	0x3e353846	0.17697248
144	0x3b828efb	0.0039843298
145	0xbe1ae976	-0.15128121
146	0x3e531acc	0.20615691
147	0xbce1480c	-0.027500175
148	0x3daec4da	0.0853364
149	0x3ce58c08	0.028020874
150	0xbe1760cd	-0.1478302
151	0xbcf6fa99	-0.030148791
152	0x3d1648ea	0.03669063
153	0x3c1bf9b1	0.00951998
154	0xbe392c72	-0.18083361
155	0x3c06eca8	0.008235134
156	0x3dbf28c2	0.09333946
157	0x3d991b95	0.07475964
158	0xbd8a9f31	-0.067686446
159	0x3dbb26b6	0.09138243
160	0xbdd6d4e8	-0.104898274
161	0x3e0ea508	0.13930142
162	0xbd239d82	-0.039945133
163	0x3d8002c5	0.06250528
164	0xbe1cf19a	-0.15326539
165	0xbe5e12c5	-0.21686848
166	0x3d73fd00	0.05956745
167	0x3b8d5ea2	0.0043142596
168	0xbe3b5a63	-0.18296199
169	0xbc29c593	-0.010362047
170	0xbd65f890	-0.05614525
171	0x3d6da595	0.05801924
172	0xbde15999	-0.110034175
173	0xbd571246	-0.05250766
174	0x3e4900fc	0.19629282
175	0xbde877b6	-0.11350958
176	0x3db4cfee	0.08828722
177	0xbd8ce5a9	-0.06879742
178	0x3d803a91	0.06261171
179	0xbd7d218e	-0.06179958
180	0xbe37c09c	-0.17944568
181	0xbd118801	-0.035530094
182	0x3dd681d5	0.10473982
183	0xbd991a80	-0.074757576
184	0xbda456a7	-0.0802434
185	0x3dcfdd86	0.10149674
186	0xbc0c930a	-0.008579979
187	0xbe109187	-0.14118014
188	0xbd2f958a	-0.04286722
189	0x3e7869a2	0.24259046
190	0x3e3f2818	0.18667638
191	0xbdfdebc6	-0.12398486
192	0x3e2febdf	0.17179821
193	0x3d4da566	0.050206564
194	0x3e06f1ad	0.1317813
195	0xbdddc884	-0.10829261
196	0xbe3c3f3c	-0.18383497
197	0x3e0da752	0.13833359
198	0x3dbd52c1	0.092443
199	0x3c166668	0.009179689
200	0x3dd454a1	0.10367704
201	0x3e5a6dce	0.2133095
202	0x3deecb34	0.11659852
203	0x3e2c5ecf	0.16833042
204	0x3e2ab843	0.16671853
205	0xbcee10f0	-0.02906081
206	0x3caa8573	0.020815587
207	0xbc83ef7a	-0.016105402
208	0x3d986d34	0.07442704
209	0xbcb2c717	-0.021823449
210	0x3e06abf9	0.1315154
211	0xbde77105	-0.11300854
212	0xbe56c012	-0.20971707
213	0x3e85bb86	0.26119632
214	0x3e620585	0.22072418
215	0x3c754988	0.0149711445
216	0x3dbaaeda	0.091153815
217	0xbdc244e0	-0.09485793
218	0x3e35fdf0	0.1777265
219	0x3dd34ede	0.10317777
220	0xbcb9a05a	-0.02265947
221	0x3d58a161	0.052888278
222	0xbd7c51fa	-0.061601616
223	0x3e02d69b	0.12777178
224	0xbddbbf91	-0.10729898
225	0x3e2a5e10	0.16637444
226	0x3c6483de	0.013947455
227	0xbe8b327a	-0.27186948
228	0x3dc79090	0.0974437
229	0xbe3affe0	-0.18261671
230	0xbd82fdec	-0.06396088
231	0x3e143b60	0.14475775
232	0x3d11c8f0	0.03559202
233	0x3daf1192	0.08548273
234	0x3d884fe2	0.066558614
235	0x3bdc372c	0.006720444
236	0xbdddf24f	-0.10837232
237	0xbdca2461	-0.0987022
238	0x3d2b1c8a	0.041775264
239	0xbc9ebfcf	-0.01937857
240	0xbd858267	-0.06519013
241	0x3d639070	0.05555767
242	0xbe4e3380	-0.20136833
243	0x3e00dae1	0.12583496
244	0x3dafb195	0.08578793
245	0xbc987a4c	-0.018613003
246	0x3e0141f5	0.12622817
247	0xbda14915	-0.078752674
248	0xbda39733	-0.07987823
249	0xbd4ac667	-0.049505617
250	0x3cf3bcbf	0.029753087
251	0xbe167520	-0.14693117
252	0xbd60931a	-0.054827787
253	0xbc00e68c	-0.007867467
254	0x39b1c538	0.0003390701
255	0x3da8b225	0.082371034

bias_ih_l0 f4 [120]
0	0x3c9116ca	0.017711062
1	0x3dc82a34	0.097736746
2	0xbe64b0b0	-0.22333026
3	0x3d889e1f	0.06670784
4	0x3ddae0ae	0.106873855
5	0x3cbbcb95	0.022924224
6	0x3e309acf	0.17246555
7	0xbe131d46	-0.14366636
8	0x3e463b4e	0.1935856
9	0x3dc3b73e	0.09556435
10	0xbd218611	-0.039434496
11	0x3e2b0eed	0.16704912
12	0xbd7838cc	-0.06060104
13	0xbe07c055	-0.13256963
14	0x3d7a95a2	0.061177857
15	0xbd75c4d9	-0.06000218
16	0x3de0b19c	0.10971376
17	0xbdf17c47	-0.11791282
18	0xbde25972	-0.110522166
19	0xbe28efc5	-0.16497715
20	0xbda0be8e	-0.078488454
21	0x3da3e1aa	0.080020264
22	0xbda41b3a	-0.080130056
23	0x3e1b3903	0.15158467
24	0x3c63ff4e	0.01391585
25	0xbcdf677a	-0.027271021
26	0xbdc3dcaa	-0.09563573
27	0x3e0e4f2b	0.13897388
28	0xbcbd835a	-0.023133922
29	0x3e296bfc	0.16545099
30	0xbe331d20	-0.17491579
31	0x3db184bb	0.086678945
32	0x3e2707ba	0.16311541
33	0x3e050211	0.1298907
34	0xbd967e2e	-0.073482856
35	0xbc62587e	-0.0138150435
36	0xbd81d3d1	-0.06339229
37	0x3b0951ac	0.0020953221
38	0xbe404c4c	-0.18779105
39	0x3d9a8de3	0.07546594
40	0x3d8b9350	0.06815207
41	0xbdae6bde	-0.08516668
42	0xbc884fe6	-0.016639661
43	0xbdf06e3a	-0.11739774
44	0xbd95c89a	-0.07313652
45	0x3dec56f7	0.11540025
46	0xbddc4d40	-0.10756922
47	0x3de53c88	0.11193186
48	0xbe1f46db	-0.15554373
49	0xbd815ff8	-0.06317133
50	0xbd88c952	-0.06679024
51	0x3dcd8e31	0.100368865
52	0x3d58f0e9	0.052964125
53	0xbdd797f1	-0.105270274
54	0xbe146f41	-0.14495565
55	0xbdf29a38	-0.11845821
56	0xbe1a0f72	-0.15044954
57	0xbd891fa9	-0.06695492
58	0xbe2eb362	-0.17060617
59	0xbdff827f	-0.12476062
60	0x3d052d1b	0.03251372
61	0xbcd7eac3	-0.02635706
62	0x3e085cd6	0.13316664
63	0xbc60bc00	-0.013716698
64	0xbdd8e042	-0.10589649
65	0xbd8d54c4	-0.069009334
66	0xbdaa341f	-0.083107226
67	0xbe1a9aa3	-0.15098052
68	0xbdbd13d7	-0.092323
69	0xbdd00f25	-0.101591386
70	0x3d9d662f	0.076855056
71	0x3d96706c	0.073456615
72	0x3c96a71d	0.018390233
73	0x3d13fce5	0.03612985
74	0x3dba967b	0.09110733
75	0xbdb2ca4a	-0.0872999
76	0x3c48f897	0.0122663
77	0xbb9d88ba	-0.004807559
78	0xbd0cb9e0	-0.03435695
79	0xbe0138c2	-0.12619308
80	0x3ad184c4	0.0015985002
81	0x3d3c4e3a	0.04597304
82	0x3cef4933	0.029209709
83	0x3dd583e0	0.10425544
84	0x3d2af9c6	0.04174211
85	0xbccc51fa	-0.024941433
86	0x3cdf9b64	0.027295776
87	0xbd55c66e	-0.05219119
88	0xbd8eccd3	-0.06972661
89	0x3dc0ccb9	0.09414048
90	0x3dd31a5e	0.103077635
91	0x3d5257e6	0.051353358
92	0x3cdc516d	0.026894296
93	0x3e3d7e41	0.18505193
94	0xbccc89a7	-0.024967982
95	0xbe17c92e	-0.14822838
96	0x3ddb6824	0.107132226
97	0xbe1e59c4	-0.1546393
98	0x3c0a3082	0.008434417
99	0xbe077c3f	-0.1323099
100	0xbdf39652	-0.11893906
101	0x3e3ea637	0.18618093
102	0xbb2bc8ee	-0.0026212293
103	0xbda5ecb9	-0.08101792
104	0xbdaffa71	-0.0859269
105	0x3e044fd2	0.12921074
106	0xbd415dd4	-0.047208622
107	0xbdbd90d9	-0.09256143
108	0x3e051662	0.1299682
109	0xbd2a9eb1	-0.041655246
110	0xbbe1448c	-0.0068746265
111	0x3e3f7d7a	0.1870021
112	0xbd1b951f	-0.03798401
113	0x3e01f368	0.12690508
114	0x3e042c54	0.12907535
115	0x3d941ec6	0.07232432
116	0xbdd9b9b4	-0.10631123
117	0xbe06a5b6	-0.13149151
118	0xbe257da7	-0.16161214
119	0x3dac1e35	0.08404199

bias_hh_l0 f4 [120]
0	0x3d88069c	0.06641886
1	0x3e041d71	0.12901856
2	0xbb689f44	-0.003549532
3	0xbe05d7fb	-0.13070671
4	0x3dcbf665	0.099591054
5	0xbdcf3003	-0.101165794
6	0x3e3b8567	0.18312608
7	0x3e009b40	0.12559223
8	0x3e090dcc	0.1338417
9	0x3dc3d18a	0.09561451
10	0x3e14873e	0.14504716
11	0xbe0c6dc7	-0.13713752
12	0x3dd6eecb	0.10494765
13	0xbe0b5793	-0.13607626
14	0x3d0b7808	0.034050018
15	0xbc2c97a0	-0.010534197
16	0x3da25214	0.079258114
17	0xbdc3f34e	-0.09567891
18	0xbd441c8a	-0.04787878
19	0xbe18552b	-0.14876239
20	0x3d8faf18	0.07015818
21	0xbce270f3	-0.027641749
22	0xbdc213a3	-0.09476402
23	0x3d591e9c	0.053007707
24	0xbcd69b80	-0.026197195
25	0xbe189458	-0.14900339
26	0x3dc8bc35	0.09801523
27	0x3e1e70e8	0.15472758
28	0xbca1527f	-0.019692658
29	0x3e12e13f	0.14343737
30	0xbdc75d28	-0.09734565
31	0xbcaae494	-0.020860948
32	0xbc323fab	-0.010879437
33	0x3d86d41e	0.06583427
34	0xbd14da30	-0.036340892
35	0xbc7912b2	-0.015202211
36	0x3e0f6881	0.14004709
37	0x3e38b101	0.18036272
38	0xbcf330f2	-0.029686425
39	0xbd4b1328	-0.049578816
40	0xbd5c6f35	-0.053816993
41	0x3b5181b8	0.0031968188
42	0x3ddded32	0.10836257
43	0x3d2ed939	0.04268763
44	0xbde8d97f	-0.11369609
45	0x3e0252ea	0.12726942
46	0xbe155672	-0.14583758
47	0xbd86a1d6	-0.065738365
48	0xbb9cf180	-0.004789531
49	0xbdf4f8cd	-0.119615175
50	0x3db1fa4b	0.08690318
51	0x3d4a5379	0.049396012
52	0x3e26900a	0.16265884
53	0xbca57402	-0.020196918
54	0xbd8de92e	-0.06929241
55	0xbd8b9e37	-0.068172865
56	0xbdaadb2d	-0.08342586
57	0x3d7929a5	0.06083073
58	0xbdd5943a	-0.104286626
59	0xbe0635eb	-0.13106506
60	0xbda34a81	-0.07973195
61	0x3d6e8718	0.058234304
62	0x3e26f2b4	0.16303521
63	0x3dfb0c12	0.122581616
64	0xbd1895f9	-0.0372524
65	0x3de5a14b	0.11212405
66	0xbe0e1628	-0.1387564
67	0xbc512614	-0.012765426
68	0x3cb2203e	0.02174389
69	0xbe100fe5	-0.14068563
70	0xbd90b7e8	-0.07066327
71	0xbde45cd8	-0.11150521
72	0x3df854b2	0.12125529
73	0xbc8b3ea7	-0.016997648
74	0xbdd29774	-0.10282794
75	0xbd740a46	-0.05958011
76	0x3e1aaf4d	0.15105934
77	0xbdc108f7	-0.09425538
78	0xbde96abe	-0.113973126
79	0xbda55d1a	-0.08074398
80	0xbd9f7426	-0.077858254
81	0x3d4c7feb	0.04992668
82	0x3ce1c69b	0.027560523
83	0xbdc86de5	-0.09786586
84	0xbc4ad3e8	-0.012379624
85	0x3d559865	0.052147288
86	0x3e14c1be	0.14527032
87	0x3e07e2c8	0.13270104
88	0xbdd49b6e	-0.10381208
89	0xbd53ca9f	-0.051706906
90	0x3e2d49dc	0.16922706
91	0xbdbb60d6	-0.09149329
92	0xbd788b35	-0.060679633
93	0x3d66dce3	0.056362998
94	0xbd6b84ad	-0.057499576
95	0xbb039986	-0.002008052
96	0x3db455b2	0.088054076
97	0x3dab936e	0.08377729
98	0xbe1d1e56	-0.15343603
99	0xbbd0937f	-0.006365239
100	0xbd6303f5	-0.055423696
101	0xbc82ac46	-0.015951287
102	0xbd8d3bba	-0.068961576
103	0xbdc60f7e	-0.09670924
104	0x3bd78533	0.006577158
105	0x3db35987	0.0875731
106	0xbdd0da89	-0.10197932
107	0x3dd44bbd	0.103660084
108	0x3dd9d957	0.106371574
109	0xbdbbe4e7	-0.09174519
110	0xbc19e1e6	-0.009392237
111	0xbd50b4bc	-0.05095361
112	0xbdfda793	-0.12385478
113	0x3c75f671	0.0150123695
114	0xbd28ec19	-0.041240785
115	0x3db1c6e6	0.08680515
116	0xbbb30144	-0.0054627974
117	0xbd228017	-0.039672937
118	0xbd3609a2	-0.04444278
119	0x3a279520	0.0006392766

weight f4 [40, 40]
0	0x3dfcefca	0.12350424
1	0x3da1dec5	0.07903818
2	0xbd5fc1b3	-0.054628085
3	0x3d3b83e7	0.04578009
4	0x3e1fd3e5	0.15608175
5	0xbca267c3	-0.019824868
6	0xbb7893b7	-0.0037929842
7	0x3dac7ec5	0.08422617
8	0x3e14a080	0.14514351
9	0x3e5b6b38	0.2142762
10	0xbc989f90	-0.018630773
11	0xbd424084	-0.04742481
12	0xbbd1b1be	-0.0063993623
13	0x3c65ddf6	0.01402997
14	0x3e07a15b	0.13245146
15	0x3d9258b1	0.07145823
16	0x3d20b708	0.039237052
17	0x3d9bcc4c	0.07607326
18	0x3d3a2204	0.045442596
19	0x3e594df6	0.21221146
20	0x3c49b9ba	0.012312347
21	0xbe54eab4	-0.20792657
22	0x3d69d622	0.05708898
23	0x3e2245e5	0.15846975
24	0xbe30ab86	-0.17252931
25	0xbdd7ae5a	-0.10531302
26	0xbdd3b73f	-0.10337686
27	0xbe0a3265	-0.13495786
28	0xbe00b073	-0.1256731
29	0x3ddce01b	0.10784932
30	0x3cc63414	0.024194755
31	0xbce910c5	-0.02845038
32	0xbd395873	-0.045250367
33	0x3d8a22e9	0.0674494
34	0x3d7f272d	0.06229322
35	0xbccacda9	-0.02475627
36	0xbc80fbac	-0.015745007
37	0xbde8047e	-0.11328982
38	0x3d8f2922	0.06990267
39	0xbdf1d339	-0.11807866
40	0xbcba8a7a	-0.022771109
41	0x3e6f752a	0.23384538
42	0xbe27ab16	-0.16373858
43	0xbae6df62	-0.0017614181
44	0x3e456b71	0.19279267
45	0x3e0c9809	0.13729872
46	0xbcd5874d	-0.026065493
47	0x3e5ba899	0.21451034
48	0xbdb2ab48	-0.087240756
49	0x3e28bbcc	0.16477889
50	0x3e6072ca	0.21918789
51	0xbd239329	-0.039935265
52	0xbe0382b9	-0.12842835
53	0x3e0503aa	0.12989679
54	0xbd3bd79d	-0.04585992
55	0xbe02bcc6	-0.12767324
56	0x3dc74697	0.09730261
57	0x3c5f0584	0.013612155
58	0x3e34a9a0	0.17642832
59	0xbd99948f	-0.074990384
60	0xbe88da36	-0.26728982
61	0xbdc9f8ed	-0.09861932
62	0xbde4de83	-0.11175253
63	0xbda03b2f	-0.078237884
64	0xbdfadaf4	-0.12248793
65	0x3e774aa3	0.24149565
66	0xbd42e061	-0.047577266
67	0xbe892c1d	-0.26791468
68	0x3df90171	0.12158478
69	0xbe5da478	-0.21644771
70	0x3df81651	0.121136315
71	0x3d1b1a2d	0.03786676
72	0xbe3c1c42	-0.18370155
73	0x3e2e19d5	0.17002042
74	0xbc04ee01	-0.008113385
75	0x3e3dd000	0.18536377
76	0xbe003126	-0.12518749
77	0xbe6778e3	-0.22604708
78	0xbe44d521	-0.19221927
79	0x3e39b9d3	0.18137293
80	0x3cbd7862	0.023128692
81	0xbd0854bc	-0.033283934
82	0x3d1fe74e	0.03903895
83	0xbe0ffd22	-0.14061406
84	0x3d31896c	0.043343946
85	0xbd1b63a9	-0.03793684
86	0xbe4d4406	-0.2004548
87	0x3ddce889	0.1078654
88	0x3daee6e8	0.085401356
89	0xbc436357	-0.01192554
90	0xbe32d9c4	-0.17465883
91	0x3e0e5490	0.13899446
92	0xbd5c5b37	-0.053797927
93	0x3df1b156	0.11801402
94	0xbe0fe294	-0.14051276
95	0x3e084222	0.13306478
96	0x3e033ad2	0.12815407
97	0xbde1de70	-0.11028755
98	0xbd31a15f	-0.043366786
99	0x3d85bb52	0.06529869
100	0xbd9b2ced	-0.07576928
101	0xbd1d176e	-0.038352422
102	0xbddd5e60	-0.10809016
103	0x3e06158b	0.13094155
104	0xbd03ed3b	-0.032208662
105	0x3d0cbf6e	0.03436225
106	0xbe0a3d53	-0.13499956
107	0xbde1f17f	-0.1103239
108	0x3b262e38	0.0025357138
109	0xbe103e1d	-0.14086194
110	0x3d52ffa2	0.05151332
111	0xbbfa08ce	-0.007630444
112	0xbe07aba9	-0.13249077
113	0x3e0034ec	0.12520188
114	0xbdb2455a	-0.08704634
115	0xbc91f1a3	-0.017815417
116	0x3df8cc78	0.12148374
117	0x3cbcc9c3	0.023045426
118	0xbccb240d	-0.024797464
119	0xbe1cff36	-0.1533173
120	0xbd920ee9	-0.0713175
121	0x3d0f1c18	0.0349389
122	0x3d34f677	0.04418036
123	0xbe26e0e9	-0.16296734
124	0x3c1afc81	0.009459616
125	0xbd96a25a	-0.07355185
126	0xbd2dc5eb	-0.042425077
127	0xbdbb3d7f	-0.09142589
128	0x3e09b600	0.13448334
129	0x3d8a6c14	0.067588955
130	0x3d7c5b27	0.061610367
131	0x3e0ff622	0.14058736
132	0xbd3a9553	-0.045552563
133	0xbd7b0989	-0.06128839
134	0xbdbbf552	-0.091776505
135	0x3d3b0947	0.045663144
136	0x3d64da15	0.05587204
137	0x3d3dbc3f	0.046322104
138	0x3d662f15	0.056197245
139	0x3d21d6e9	0.039511595
140	0x3dabd5d3	0.08390393
141	0xbe28a117	-0.16467701
142	0xbcad97dd	-0.021190578
143	0xbd83a10d	-0.064272024
144	0x3dca242e	0.09870182
145	0xbd98c3b0	-0.074591994
146	0x3c83db50	0.016095787
147	0xbcfd476a	-0.030917842
148	0xbcca375b	-0.024684599
149	0xbd67c10d	-0.056580592
150	0xbdc4be8a	-0.09606655
151	0xbe05c522	-0.13063481
152	0xbd8892f8	-0.06668657
153	0xbdf239de	-0.118274435
154	0xbb31e703	-0.002714575
155	0x3dada0f6	0.084779665
156	0xbcdc2b57	-0.026876135
157	0xbdbb585f	-0.09147715
158	0xbcd95aa9	-0.026532488
159	0xbe1d8cd0	-0.15385747
160	0xbe0dc371	-0.13844086
161	0x3d1fb430	0.0389902
162	0x3e09a6e2	0.13442567
163	0x3e1b4d84	0.15166289
164	0x3e060c95	0.13090737
165	0x3ce775a9	0.028254347
166	0x3d3371a5	0.04380955
167	0xbdeec177	-0.11657994
168	0xbc36517b	-0.011127825
169	0x3d717492	0.05894906
170	0xbc9c8675	-0.019107083
171	0xbd7df7ea	-0.062004007
172	0x3e183855	0.14865239
173	0x3dfad508	0.12247664
174	0x3d90b0d9	0.07064981
175	0x3cdc4c24	0.026891775
176	0x3dc72455	0.09723727
177	0xbe19d8d1	-0.15024115
178	0x3dec698d	0.1154357
179	0xbe2890fb	-0.16461556
180	0x3c10cf59	0.008838498
181	0xbd49017d	-0.049073685
182	0xbe66c0c8	-0.22534478
183	0xbc84e565	-0.016222665
184	0x3dd159f6	0.10222237
185	0xbca4e7ea	-0.020130116
186	0x3de97126	0.113985345
187	0xbdc83506	-0.097757384
188	0x3b623234	0.0034514787
189	0xbdd35e93	-0.10320773
190	0x3e1b9c6c	0.15196389
191	0x3db1d633	0.086834334
192	0xbd9c5aba	-0.07634492
193	0x3d9cfebd	0.07665775
194	0x3d5dfece	0.05419808
195	0x3e224491	0.15846469
196	0x3e3e6c6c	0.18596047
197	0xbdfca664	-0.12336424
198	0x3cf35c2f	0.029707043
199	0xbd31eb3a	-0.04343722
200	0x3e6664f9	0.22499456
201	0x3e802d97	0.25034782
202	0x3d7320bb	0.059357386
203	0x3df1b96d	0.11802945
204	0x3e4e5674	0.20150167
205	0xbd31498e	-0.043283038
206	0x3d3c7241	0.0460074
207	0x3c0c7459	0.008572661
208	0xbe5351fe	-0.20636746
209	0x3e931ef9	0.28734568
210	0x3e81143c	0.2521075
211	0x3c307542	0.010770144
212	0xbde267a1	-0.11054922
213	0x3e87378b	0.26409563
214	0x3ddff01d	0.1093447
215	0xbe7b3e68	-0.24535525
216	0x3e0a46af	0.13503526
217	0xbe811342	-0.25210005
218	0xbe12c7e0	-0.14334059
219	0xbe720757	-0.23635612
220	0xbdbf218f	-0.09332573
221	0x3e17dd3a	0.14830485
222	0xbd737417	-0.059436884
223	0xbd509950	-0.05092746
224	0xbcac4985	-0.02103115
225	0x3e530c33	0.20610122
226	0xbe8b0032	-0.27148587
227	0xbe54080c	-0.20706195
228	0x3e832878	0.25616813
229	0xbe2b6e46	-0.16741285
230	0x3df94f42	0.1217332
231	0x3e694940	0.22781849
232	0xbe42454b	-0.18971746
233	0x3e384f8c	0.17999095
234	0x3e8937e5	0.26800457
235	0x3c1d21e5	0.009590601
236	0x3ce185a3	0.027529543
237	0xbe6d7939	-0.23190774
238	0xbe41e106	-0.18933496
239	0xbd3ff66d	-0.04686587
240	0xbc985936	-0.018597227
241	0x3e0722a6	0.13196811
242	0xbc0a3738	-0.008436017
243	0xbd64830c	-0.05578904
244	0xbd74c960	-0.05976236
245	0x3d85bf39	0.065306135
246	0xbe328b9c	-0.17436069
247	0x3dda1472	0.10648431
248	0xbcb83a08	-0.022488609
249	0xbddd9564	-0.108195096
250	0x3c860d00	0.01636362
251	0xbc874624	-0.016512938
252	0xbdac691e	-0.08418487
253	0xbd8c97c0	-0.068648815
254	0x3da9e246	0.08295111
255	0x3dfe3dbf	0.12414121

bias f4 [40]
0	0xbd03272c	-0.03201978
1	0xbd2c1629	-0.04201332
2	0xbe3fa16a	-0.18713918
3	0x3dbca24b	0.092106424
4	0xbd2901e7	-0.04126158
5	0x3e3bc72f	0.18337701
6	0xbd72ceb9	-0.059279177
7	0xbe6573f0	-0.22407508
8	0x3e0354c8	0.1282531
9	0xb9d85134	-0.00041259232
10	0xbd4bfff2	-0.049804635
11	0x3b853b7c	0.004065929
12	0x3df2068c	0.11817655
13	0xbb2a468b	-0.0025981988
14	0xbdf9fcb3	-0.12206402
15	0x3e1069b3	0.14102821
16	0xbe055e84	-0.13024336
17	0xbe40c755	-0.18826039
18	0xbde789ec	-0.113056034
19	0x3e469cfa	0.1939582
20	0xbd16794c	-0.03673677
21	0x3c93bc55	0.01803414
22	0x3c3fd96c	0.011709552
23	0x3dac90cf	0.084260575
24	0xbe118e1f	-0.14214371
25	0xbd46adfe	-0.048505776
26	0xbd08409f	-0.033264752
27	0xbd2daba7	-0.04240003
28	0xbe080c66	-0.1328598
29	0xbe40685b	-0.18789808
30	0x3d9a0896	0.07521169
31	0xbc293c57	-0.010329328
32	0x3d5f6f3b	0.054549437
33	0x3d2171ba	0.0394151
34	0xbca13bbb	-0.019681802
35	0x3ce084ea	0.027407128
36	0x3e30fbdc	0.17283577
37	0x3c2988e1	0.010347576
38	0x3d9be891	0.07612718
39	0x3d05d699	0.03267536

weight f4 [40, 40]
0	0x3e5c4077	0.21508966
1	0x3cc0f4da	0.023554254
2	0x3e3255bf	0.17415522
3	0xbd96fb4c	-0.0737215
4	0x3e5a70fc	0.21332163
5	0x3e37438d	0.17896862
6	0xbd413931	-0.047173683
7	0x3de590ca	0.11209257
8	0x3dcedeac	0.10101065
9	0x3e6161b0	0.22009921
10	0x3d78dff1	0.060760442
11	0x3dfeeb91	0.124472745
12	0x3e5e3d87	0.21703158
13	0xbd8b187e	-0.06791781
14	0xbe2c17e0	-0.16805983
15	0x3dd0a4fc	0.10187718
16	0x3e137fb7	0.14404188
17	0xbdeaa7d7	-0.11457794
18	0x3d8f4345	0.069952525
19	0x3e6f238b	0.23353402
20	0x3c0f986c	0.008764368
21	0x3e74c813	0.23904447
22	0xbc33a09e	-0.010963587
23	0xbd68cb36	-0.056834422
24	0xbe5c434a	-0.21510044
25	0xbe0879c7	-0.13327704
26	0xbdca0a47	-0.098652415
27	0x3d093ac0	0.033503294
28	0xbdafe381	-0.08588315
29	0x3c7b0c18	0.015322708
30	0x3e6d69c7	0.23184882
31	0x3d2e6452	0.04257614
32	0x3da24ca1	0.07924772
33	0xbd492147	-0.049104
34	0x3e457d85	0.19286163
35	0x3e35de63	0.17760615
36	0x3e7a8399	0.24464263
37	0xbdec7455	-0.11545626
38	0xbd073625	-0.03301062
39	0xbde93782	-0.113875404
40	0xbc6d31f2	-0.01447724
41	0xbd2858c1	-0.041100267
42	0x3c7adbaa	0.015311161
43	0x3d038b43	0.032115232
44	0xbdac5c24	-0.08416012
45	0xbd613148	-0.05497864
46	0xbe76829e	-0.24073264
47	0x3d871a5c	0.065968245
48	0x3deb3819	0.11485309
49	0xbe057028	-0.13031065
50	0xbcb0f492	-0.021600995
51	0xbd6cf4ce	-0.05785065
52	0x3d979377	0.074011736
53	0x3a7ca866	0.00096381304
54	0x3d20ae59	0.03922877
55	0xbccf1196	-0.02527694
56	0x3bf45fb0	0.007457696
57	0x3e023949	0.12717165
58	0x3db7092b	0.089372955
59	0xbd4c5a7f	-0.04989099
60	0xbccfd3dc	-0.025369577
61	0x3e26ea4e	0.16300318
62	0x3dbace88	0.09121424
63	0xbdd59476	-0.10428707
64	0x3ddeed08	0.10885054
65	0xbd70a5b7	-0.058751788
66	0x3d67c659	0.056585643
67	0xbe4e6533	-0.20155792
68	0xbe0939ee	-0.13401005
69	0x3cbd78c4	0.023128875
70	0xbde8520d	-0.11343775
71	0x3dd066f0	0.10175884
72	0x3d7667ec	0.0601577
73	0xbe0945ad	-0.13405485
74	0x3db71297	0.089390926
75	0x3e0d2281	0.13782693
76	0x3d9ca13b	0.0764794
77	0x3d4df4ef	0.050282415
78	0x3cf03b94	0.029325284
79	0xbd8bf264	-0.06833342
80	0x3d06b56f	0.032887872
81	0x3c0e9fd0	0.008705094
82	0x3d733d4c	0.05938463
83	0x3dee4c3e	0.11635636
84	0x3d9e5152	0.07730354
85	0xbd8e74ca	-0.069558695
86	0xbdb66e73	-0.08907785
87	0xbe099d07	-0.13438807
88	0xbd1b1ad4	-0.037867382
89	0x3dd03f40	0.10168314
90	0xbd165f45	-0.03671195
91	0xbc18a2b0	-0.0093161315
92	0xbc747435	-0.014920284
93	0xbae51f56	-0.0017480652
94	0x3cc27057	0.023735208
95	0x3d40919d	0.047013868
96	0x3dd1c5f3	0.10242834
97	0xbd241a25	-0.040063996
98	0x3e160055	0.14648564
99	0x3debc273	0.115116976
100	0xbe341884	-0.17587477
101	0x3dc563d7	0.096381836
102	0xbdf2ff75	-0.11865131
103	0xbd33767a	-0.04381416
104	0xbe1b8d10	-0.1519053
105	0xbcee5c36	-0.029096704
106	0x3d54b58e	0.051930957
107	0xbe090794	-0.13381797
108	0x3de9d570	0.11417663
109	0x3ccfd0c3	0.0253681
110	0xbe201be4	-0.1563564
111	0xbd739e79	-0.059477303
112	0x3b117d3e	0.0022199894
113	0xbda74d74	-0.0816907
114	0xbe01333c	-0.126172
115	0x3d4451a0	0.047929406
116	0x3d20308b	0.039108794
117	0xbdd0e139	-0.10199208
118	0xbdfec541	-0.12439967
119	0xbe32444c	-0.17408866
120	0x3d752b59	0.059855793
121	0x3e1472d0	0.14496922
122	0x3ceedc0f	0.029157666
123	0x3ca27496	0.019830983
124	0x3dd33d77	0.10314458
125	0x3e9085b4	0.28227007
126	0xbd72cc33	-0.05927677
127	0xbdc19dcc	-0.094539255
128	0xbccb1f61	-0.024795236
129	0xbcec93ef	-0.028879134
130	0x3e76c624	0.24099022
131	0xbc8b611c	-0.017014079
132	0x3ddc8767	0.107680134
133	0xba10ee1b	-0.00055286445
134	0x3d127bba	0.035762526
135	0x3e3d7487	0.18501483
136	0x3e0ebcc8	0.13939202
137	0xbe19489e	-0.14969108
138	0x3a438ea8	0.0007459917
139	0x3e86a225	0.2629558
140	0xbdb2b733	-0.08726349
141	0x3e27a84b	0.16372792
142	0x3da08352	0.07837547
143	0x3ce7911e	0.02826744
144	0xbdbff1b5	-0.09372274
145	0x3ca615d3	0.020274078
146	0xbd9b0e06	-0.07571034
147	0xbe021087	-0.12701617
148	0xbd4e94db	-0.05043493
149	0x3c8ba2cf	0.017045407
150	0x3e5297bb	0.20565693
151	0x3e619bde	0.22032115
152	0x3d88c831	0.066788085
153	0xbcba3b4b	-0.022733351
154	0x3e0847ed	0.13308688
155	0x3e612875	0.2198809
156	0x3e4c1c9b	0.19932787
157	0xbe08dd2c	-0.1336562
158	0x3c50b7cc	0.012739133
159	0xbddb1f51	-0.106993325
160	0x3e1b5ff8	0.15173328
161	0x3e4857b3	0.19564705
162	0xbd6eb45d	-0.058277477
163	0xbd76e85d	-0.060280193
164	0x3dd7fad1	0.10545886
165	0x3de25170	0.11050689
166	0x3ddf3612	0.10898985
167	0x3c3247de	0.010881392
168	0x3e286207	0.16443644
169	0xbcefa133	-0.02925167
170	0x3e570474	0.20997792
171	0x3e255a5e	0.16147754
172	0x3d6cb8a8	0.05779329
173	0xbde43afd	-0.111440636
174	0xbd3daf86	-0.04630997
175	0x3e103822	0.14083913
176	0x3c5b3379	0.013378971
177	0x3d09f8fd	0.03368472
178	0x3dec352b	0.115335785
179	0x3e23d542	0.1599932
180	0xbe13f9f9	-0.14450826
181	0x3c0ce1bf	0.008598744
182	0x3d91dccf	0.07122194
183	0xbe04f113	-0.12982588
184	0xbe2d4791	-0.16921832
185	0xbda949cd	-0.082660295
186	0xbe0b5695	-0.13607247
187	0xbe292e38	-0.16521537
188	0x3de9f39a	0.114234164
189	0x3c44f44c	0.012021136
190	0xbd658b94	-0.056041315
191	0x3e35e2ea	0.17762342
192	0x3e046b2d	0.1293151
193	0xbda6f192	-0.08151545
194	0x3b1171e2	0.0022193124
195	0xbd2a308e	-0.04155021
196	0x3de618d3	0.112352036
197	0xbdf8a3db	-0.12140628
198	0x3df8ee36	0.1215481
199	0xbe49d97f	-0.19711874
200	0x3d5447aa	0.051826157
201	0x3ddf78df	0.10911726
202	0x3e2ed1e3	0.17072253
203	0x3d590e91	0.052992407
204	0x3e1419c0	0.14462948
205	0x3e264320	0.16236544
206	0x3d0f7b35	0.03502961
207	0x3e47d995	0.19516595
208	0x3de3dbb9	0.11125893
209	0x3c7a0938	0.015260987
210	0x3db9067b	0.09034439
211	0x3dee506e	0.116364345
212	0x3d0fe796	0.035132967
213	0x3c7b901f	0.015354185
214	0xbd7edd45	-0.062222738
215	0x3df81fa2	0.121154085
216	0xbe1f9e20	-0.15587664
217	0xbdde6868	-0.10859758
218	0xbdb26314	-0.08710304
219	0x3e3943dd	0.18092294
220	0x3d995a2e	0.074879035
221	0x3dbaa239	0.09112973
222	0x3e09dc5e	0.1346297
223	0xbd9ad2ca	-0.07559736
224	0xbdb4f1b7	-0.08835166
225	0xbd35d561	-0.044392947
226	0xbc908b8c	-0.017644666
227	0x3d01be9c	0.03167592
228	0x3d4d2ee5	0.05009355
229	0x3e6444c6	0.2229186
230	0x3e0e44ac	0.13893384
231	0xbd85e592	-0.06537928
232	0xbd79da2a	-0.060999073
233	0xbe14bf6a	-0.14526144
234	0xbe03499f	-0.12821053
235	0x3d0caa4e	0.034342103
236	0x3e22b206	0.15888223
237	0xbc5a963c	-0.013341483
238	0xbe381927	-0.17978345
239	0xbe085fda	-0.13317814
240	0xbdb20dbf	-0.08694028
241	0xbd6a0736	-0.057135783
242	0x3ddb7a6d	0.1071671
243	0xbdb6bc5d	-0.08922646
244	0xbd85f0af	-0.065400474
245	0xbe0b7921	-0.13620426
246	0x3d437108	0.047715217
247	0x3e07e8ca	0.13272396
248	0xbdf2aaf2	-0.118490115
249	0xbd837052	-0.06417908
250	0x3c838129	0.0160528
251	0xbdf139d7	-0.1177861
252	0xbd2af391	-0.04173619
253	0x3e1af424	0.15132195
254	0xbd95e096	-0.07318227
255	0xbe0b1e58	-0.13585794

bias f4 [40]
0	0x3dfd2498	0.12360495
1	0x3cd7d946	0.026348721
2	0xbd150a75	-0.036386926
3	0xbd219ba9	-0.03945509
4	0x3e20c33f	0.1569948
5	0xbd01ed00	-0.03172016
6	0x3bbf4b58	0.005837839
7	0xbdb05eab	-0.086118065
8	0x3d98d41a	0.0746233
9	0x3c1a8e76	0.009433379
10	0x3d5f49ea	0.05451385
11	0x3d181f32	0.037139125
12	0x3accd0eb	0.0015626227
13	0x3d55d3c4	0.05220391
14	0x3d8732c7	0.06601482
15	0x37cb1bc0	2.4212408e-05
16	0xbdec57fd	-0.1154022
17	0xbd2547c0	-0.04035163
18	0x3c95184a	0.018200058
19	0xbc90bbd1	-0.017667683
20	0xbda59adc	-0.08086178
21	0x3abfddb6	0.0014638219
22	0x3c91953f	0.017771361
23	0x3d12e1c9	0.035859857
24	0xbdc8e55c	-0.09809372
25	0xbb6f14e2	-0.0036480953
26	0x3d82fa4b	0.06395396
27	0x3b135262	0.0022479524
28	0xbddc73f3	-0.10764303
29	0x3b8c239b	0.0042767054
30	0xbda211bf	-0.07913541
31	0xbd58b128	-0.052903324
32	0xbd0f508e	-0.034988932
33	0x3dbeeac5	0.093221225
34	0xbdcbb4fe	-0.09946631
35	0x3de2ae95	0.11068455
36	0x3af7a6e0	0.0018894337
37	0x3e124ad1	0.14286353
38	0xbd06b091	-0.03288323
39	0x3c8d7130	0.017265886

weight_ih_l0 f4 [120, 40]
0	0xbe499c92	-0.19688633
1	0xbd9ff757	-0.07810848
2	0xbdcba6b5	-0.09943906
3	0x3d6388cc	0.05555038
4	0xbad399ee	-0.0016143897
5	0x3d27e302	0.040987976
6	0x3c39940b	0.0113268
7	0x3cd1d5f3	0.025614714
8	0x3d4a9ed2	0.04946787
9	0xbccf713a	-0.025322545
10	0xbd938a80	-0.07204151
11	0x3dc1c702	0.09461786
12	0x3d9aa463	0.075508855
13	0xbe0228c1	-0.12710859
14	0xbcdd413d	-0.027008647
15	0xbbdbeb9e	-0.0067114374
16	0x3d01504a	0.03157071
17	0x3e2bee5d	0.16790147
18	0xbd6c336f	-0.05766624
19	0xbe2bdd17	-0.16783558
20	0x3d928f14	0.07156196
21	0x3d34b691	0.04411942
22	0x3c92491a	0.017857123
23	0xbe1bfef1	-0.15233971
24	0x3e00c07f	0.12573431
25	0x3e47d9f9	0.19516744
26	0x3d3116ff	0.04323482
27	0xbdb384aa	-0.08765538
28	0x3d8e4835	0.06947366
29	0xbd6a1982	-0.057153232
30	0xbe3ca45a	-0.1842207
31	0xbe2f0f28	-0.17095625
32	0x3e412421	0.18861438
33	0x3c4df07c	0.012569543
34	0x3e3457e4	0.17611653
35	0xbe19f333	-0.1503418
36	0xbe014039	-0.12622155
37	0xbd95ea79	-0.07320113
38	0x3e333574	0.1750086
39	0xbd9d2e4e	-0.076748475
40	0x3e100efa	0.14068213
41	0x3d9b0fea	0.07571395
42	0xbe2ff7a7	-0.17184316
43	0x3e11e77d	0.14248462
44	0x3da45ee4	0.080259115
45	0x3e2adae1	0.16685058
46	0xbdaa912d	-0.08328471
47	0x3d6aed93	0.057355475
48	0xbe1b67d8	-0.15176332
49	0xbdee5fcb	-0.11639365
50	0x3cd013c9	0.02540006
51	0xbe3c9053	-0.1841443
52	0x3cd48bbf	0.025945542
53	0xbc6c9622	-0.014440091
54	0xbe39522a	-0.1809775
55	0xbd01bf04	-0.031676307
56	0x3e23af16	0.15984759
57	0x3df97ebe	0.12182377
58	0x3e08039a	0.13282624
59	0xbd1d6c7d	-0.03843354
60	0xbdbf650e	-0.093454465
61	0x3dfe0d2f	0.12404858
62	0xbcd10389	-0.025514381
63	0xbdd9c24d	-0.10632763
64	0xbde40c1e	-0.11135124
65	0xbe5321ba	-0.20618334
66	0x3e10f9cb	0.14157788
67	0xbe389b9f	-0.18028115
68	0x3dcad14c	0.099032015
69	0x3cc3dd15	0.023909131
70	0x3d9a8796	0.07545392
71	0x3db1965b	0.08671256
72	0xbc75bdc7	-0.01499886
73	0xbe3385f7	-0.17531572
74	0xbe423f05	-0.18969353
75	0xbc86a8e6	-0.016437959
76	0x3e52c61e	0.20583388
77	0xbd52ce79	-0.05146644
78	0xbded2c6e	-0.1158074
79	0xbddbb6d0	-0.10728228
80	0x3deb6033	0.11492958
81	0xbe3ae54c	-0.18251532
82	0x3d79d883	0.060997497
83	0x3e636ad9	0.22208728
84	0xbe078b19	-0.13236655
85	0x3de62d54	0.112391144
86	0x3e349406	0.17634591
87	0x3e1d1fef	0.15344213
88	0xbe0c8fb0	-0.13726687
89	0xbdf3b206	-0.1189919
90	0xbe816d7e	-0.25278848
91	0x3c993873	0.018703675
92	0xbe3f6801	-0.18692018
93	0xbe2ccd4a	-0.16875187
94	0x3c87eae1	0.016591491
95	0x3d345a39	0.044031356
96	0xbd85a66e	-0.065258846
97	0xbe13b2b4	-0.14423639
98	0xbe06e394	-0.13172752
99	0xbc9a4c2d	-0.018835152
100	0xbd51f405	-0.051258106
101	0x3e2640fc	0.16235727
102	0xbe1cb0bc	-0.15301794
103	0x3c8a4da1	0.01688272
104	0x3e26d24e	0.16291162
105	0x3d8cb1c3	0.06869843
106	0xbc3b8751	-0.011445836
107	0xbe7b9b5d	-0.24570985
108	0x3dadacdc	0.08480236
109	0xbdff0559	-0.12452192
110	0x3e0e6e8a	0.13909355
111	0x3e171571	0.14754273
112	0x3cdde499	0.027086543
113	0xbe0476d6	-0.12935957
114	0x3d08524d	0.033281613
115	0xbda034cc	-0.0782257
116	0x3e64a5c1	0.22328855
117	0xbdf410c8	-0.11917263
118	0x3d87e7fb	0.06636044
119	0x3e246a55	0.16056187
120	0x3c0337b0	0.008008882
121	0x3ae7984b	0.0017669288
122	0xbdb1de62	-0.08684994
123	0x3b95aa12	0.004567393
124	0x3e02adeb	0.12761657
125	0x3e39cff3	0.18145733
126	0xbe3cc100	-0.18432999
127	0xbd94fa32	-0.072742835
128	0x3d6bc4e7	0.057560828
129	0xbe2c4a63	-0.16825251
130	0xbd6679ea	-0.05626861
131	0xbe302745	-0.1720248
132	0x3de38a1e	0.11110328
133	0xbccbd049	-0.024879592
134	0xbdcbe16f	-0.099551074
135	0xbdf6e980	-0.12056255
136	0xbde401a2	-0.11133124
137	0xbdb19db3	-0.08672657
138	0x3e2b2d18	0.1671642
139	0xbcd969aa	-0.026539642
140	0xbc9e7197	-0.019341273
141	0x3e17c819	0.14822425
142	0xbde3005a	-0.110840514
143	0xbda2e48b	-0.07953747
144	0xbdb9df49	-0.090757914
145	0xbd4d47d2	-0.05011732
146	0x3e8bd2b6	0.27309197
147	0xbde06df4	-0.10958472
148	0xbe43b46f	-0.19111799
149	0xbe83aa57	-0.25715896
150	0xba9fbcc1	-0.001218699
151	0x3e7f90a1	0.24957515
152	0xbe953f08	-0.29149652
153	0xbe5d0779	-0.21584882
154	0xbd15c9ff	-0.03656959
155	0x3db8b9cf	0.09019815
156	0x3d88c4e4	0.06678179
157	0x3d50fd43	0.05102278
158	0xb90c732c	-0.00013394345
159	0xbe8f85ba	-0.28031713
160	0xbdaf7156	-0.08566539
161	0xbd9c19fe	-0.07622145
162	0x3d979e1d	0.074032046
163	0x3e292b64	0.16520458
164	0xbe1600e2	-0.14648774
165	0x3c7b6877	0.015344731
166	0xbdc9ad33	-0.09847488
167	0xbd8b0921	-0.067888506
168	0x3e377222	0.17914632
169	0x3d1e873b	0.038703185
170	0xbda96a6d	-0.08272252
171	0xbd9ea41c	-0.07746145
172	0xbdd7a5f0	-0.10529697
173	0xbe43b2b1	-0.19111134
174	0xbd2504b6	-0.040287696
175	0x3dacf088	0.08444315
176	0x3da7e9c2	0.08198883
177	0x3e39316b	0.18085258
178	0xbe0be19e	-0.13660285
179	0xbdda058e	-0.10645591
180	0x3d20c55a	0.03925071
181	0xbd53afba	-0.051681258
182	0x3d55e769	0.052222643
183	0x3d949a2f	0.07255971
184	0x3e149e33	0.14513473
185	0xbdc784db	-0.09742137
186	0x3a74f856	0.0009344866
187	0x3d2e28f3	0.04251952
188	0x3e32e910	0.17471719
189	0x3dd331e4	0.1031225
190	0x3d1eff47	0.03881767
191	0xbe2f6aeb	-0.1713063
192	0x3db18941	0.08668757
193	0x3e477c92	0.19481114
194	0xbdcf8d61	-0.10134388
195	0x3d7fc287	0.062441375
196	0x3c1b1ef4	0.009467829
197	0xbe509e2f	-0.20372842
198	0x3d7e6236	0.06210538
199	0xbd3ecf97	-0.04658469
200	0xbde128a3	-0.10994079
201	0xbe849969	-0.25898293
202	0x3e0e02b2	0.13868216
203	0xbd963888	-0.07335001
204	0x3d81bc5f	0.06334757
205	0x3e0502f1	0.12989403
206	0xbd94a4b4	-0.07257977
207	0x3da17237	0.07883113
208	0xbdf95fac	-0.12176451
209	0x3d39f362	0.045398124
210	0xbca74187	-0.020416988
211	0xbe498236	-0.19678578
212	0xbdeed092	-0.116608754
213	0x3d4276b9	0.047476504
214	0x3e0290bc	0.12750524
215	0x3dc56626	0.09638624
216	0x3e02f4d0	0.12788701
217	0xbdf0fa47	-0.117664866
218	0xbdae1cec	-0.0850161
219	0xbdf19a96	-0.11797063
220	0xbd8d8290	-0.069096684
221	0xbdc80078	-0.097657144
222	0xbe279f84	-0.16369444
223	0x3e47888a	0.1948568
224	0xbd150c8d	-0.036388922
225	0x3c1a2fca	0.009410808
226	0xbd55c647	-0.052191045
227	0xbe2ff4f1	-0.17183281
228	0x3d81eca4	0.06343964
229	0x3d732171	0.059358064
230	0x3da8bf3d	0.08239601
231	0x3dc88bb7	0.097922735
232	0x3d3e3e21	0.04644597
233	0xbd6744db	-0.05646215
234	0xbd2e0185	-0.042481918
235	0xbd17e76a	-0.037085928
236	0x3e3e27cb	0.18569867
237	0xbe30a898	-0.17251813
238	0xbdae11d1	-0.08499492
239	0x3c1b980d	0.009496701
240	0xbe119a9b	-0.14219134
241	0xbe4271fd	-0.18988796
242	0xbd585a53	-0.052820515
243	0x3d5ee246	0.05441501
244	0xbd996b5a	-0.07491179
245	0x3d3ec96c	0.04657881
246	0x3c29555b	0.010335292
247	0x3d359544	0.044331804
248	0xbdad2017	-0.08453386
249	0xba22fee4	-0.0006217791
250	0xbda52584	-0.08063796
251	0xbe0c5cd7	-0.1370729
252	0x3e137ed9	0.14403857
253	0xbd49b2db	-0.049242835
254	0xbe09f432	-0.1347206
255	0x3d22bfa4	0.039733544

weight_hh_l0 f4 [120, 40]
0	0xbda1c7b7	-0.07899421
1	0xbca8510c	-0.020546459
2	0x3dc2450d	0.09485827
3	0xbe0a5c93	-0.13511877
4	0x3dec5b70	0.11540878
5	0xbc2bfd88	-0.010497458
6	0x3e3b7e4b	0.18309896
7	0xbd6a312a	-0.057175793
8	0x3dfdee49	0.12398965
9	0x3e5f6c34	0.2181862
10	0xbd3c8d07	-0.04603293
11	0x3d872a44	0.065998584
12	0x3dccfeba	0.10009523
13	0xbe643dc1	-0.22289182
14	0x3d918831	0.071060546
15	0xbc29ef7d	-0.01037204
16	0xbcddfebe	-0.02709901
17	0xbdedddc9	-0.11614568
18	0x3dfcf4c1	0.123513706
19	0xbd583caf	-0.052792247
20	0xbd7e5bc2	-0.062099226
21	0x3d1b42a5	0.037905354
22	0xbd12131c	-0.035662755
23	0x3db879ef	0.09007632
24	0x3dc29519	0.09501094
25	0xbdce0863	-0.100601934
26	0xbd3ee8c4	-0.0466087
27	0xbdf2f900	-0.11863899
28	0xbd56329a	-0.05229435
29	0x3d87ae66	0.06625061
30	0x3e027f5c	0.12743896
31	0x3d77ded4	0.06051524
32	0xbe4308b4	-0.19046289
33	0xbd15173f	-0.036399122
34	0xbe0f84ac	-0.14015454
35	0xbe1ee0d4	-0.15515453
36	0xbdd65f86	-0.104674384
37	0xbe099c22	-0.13438466
38	0x3e0642d0	0.13111424
39	0x3d71505d	0.05891453
40	0x3e23184e	0.1592724
41	0x3db1dbd2	0.086845055
42	0x3d6a7803	0.05724336
43	0xbcf5a365	-0.02998514
44	0x3c08a848	0.008340903
45	0x3e4752e2	0.19465211
46	0x3c5ed999	0.013601684
47	0x3d935013	0.07193007
48	0xbd3050a2	-0.043045647
49	0xbe1b4619	-0.15163459
50	0x3dc46dfe	0.09591292
51	0xbe21159c	-0.157309
52	0x3c900d74	0.01758454
53	0x3e2ca5c2	0.16860107
54	0x3e3a2fac	0.18182248
55	0xbd1fd78c	-0.03902392
56	0x3cfb1e89	0.030654209
57	0xbc95b955	-0.01827685
58	0xbc81ba98	-0.015836045
59	0xbe20613b	-0.1566209
60	0x3dbc406c	0.09191975
61	0x3e328e39	0.17437066
62	0xbd73c970	-0.059518278
63	0x3e1b1f8a	0.1514875
64	0xbdabc185	-0.0838652
65	0xbd70ef6e	-0.058822088
66	0xbd5a7db2	-0.05334253
67	0x3e5c4377	0.21510111
68	0xbe142684	-0.14467818
69	0xbe046bc2	-0.12931731
70	0xbe2a1ac3	-0.16611771
71	0xbe61f6a4	-0.22066742
72	0x3e418630	0.18898845
73	0xbd0cfaf9	-0.034419034
74	0xbd45b362	-0.048266776
75	0x3d2bf69d	0.041983236
76	0xbe294f4a	-0.16534153
77	0x3cb93216	0.02260689
78	0xbdbeed68	-0.093226254
79	0x3e16341b	0.14668314
80	0xbe0603a9	-0.13087334
81	0x3d836d4c	0.06417331
82	0xbd832f2b	-0.06405481
83	0x3d5e5d11	0.054287974
84	0xbe7001be	-0.23438165
85	0x3e5177f3	0.20455913
86	0xbe02f1b8	-0.12787521
87	0x3ce70d60	0.02820462
88	0xbcd3ef21	-0.025870861
89	0xbd8333f2	-0.06406392
90	0x3df9e28d	0.12201414
91	0x3df5d57c	0.120036095
92	0xbbc33a7a	-0.0059578987
93	0x3dadaffc	0.08480832
94	0xbd9bfb50	-0.076162934
95	0xbde85303	-0.11343958
96	0x3d8c62a4	0.06854752
97	0xbe4366d7	-0.19082199
98	0xbdfc9a0a	-0.12334068
99	0xbcd8b237	-0.026452167
100	0x3e293fdd	0.16528268
101	0x3e00776e	0.12545559
102	0xbdb145eb	-0.08655914
103	0xbe7b2ac1	-0.24528028
104	0x3d22a294	0.039705828
105	0x3b053eb4	0.0020331563
106	0xbe25a90b	-0.16177766
107	0xbde3cc96	-0.11123006
108	0x3d98dc6d	0.07463918
109	0xbe108294	-0.14112312
110	0xbc838eae	-0.016059246
111	0x3d0ab75a	0.033866264
112	0x3de6138d	0.11234198
113	0xbdf0eeee	-0.11764322
114	0x3c7a044a	0.015259812
115	0xbd6a2d98	-0.057172388
116	0x3d98d137	0.074617796
117	0xbe0e2f84	-0.13885313
118	0xbe31fa62	-0.1738067
119	0xbdbf5627	-0.09342604
120	0x3d8f9324	0.07010487
121	0x3e24a6a5	0.16079195
122	0xbe3f1f81	-0.18664362
123	0xb9b49ec3	-0.00034450562
124	0x3db9f104	0.09079173
125	0xbc2b39b3	-0.010450768
126	0xbd84e5d6	-0.0648915
127	0xbe1fb8bd	-0.15597816
128	0x3d3255e0	0.043538928
129	0xbcc0bddf	-0.023528038
130	0xbe341a58	-0.17588174
131	0x3d123d7f	0.03570318
132	0xbe26dd99	-0.1629547
133	0xbd7859e1	-0.06063259
134	0x3e43fcdf	0.19139431
135	0x3e04bb8e	0.12962171
136	0xbd20aafc	-0.039225563
137	0x3e0297ad	0.12753172
138	0xbe158048	-0.14599717
139	0x3d22b82f	0.039726432
140	0x3dea01b6	0.114261076
141	0xbd041274	-0.03224416
142	0x3d487222	0.04893697
143	0x3de2f57a	0.11081977
144	0xbd5004f7	-0.050785985
145	0xbde0d167	-0.1097744
146	0x3db1e0d4	0.08685461
147	0x3d3d6299	0.04623661
148	0xbe01cf02	-0.12676623
149	0xbd98a4fc	-0.07453343
150	0xbd6d3c12	-0.057918616
151	0x3d97e2a0	0.07416272
152	0x3dd36f66	0.10323982
153	0x3d9ab982	0.07554914
154	0xbad52b76	-0.0016263563
155	0x3d5ce6cd	0.053931046
156	0xbe362431	-0.17787243
157	0xbc7fb20f	-0.015606417
158	0x3c4287e5	0.01187322
159	0xbcf2c9be	-0.029637214
160	0xbd6a97e4	-0.05727376
161	0xbdccfc3c	-0.100090474
162	0x3d7832ec	0.060595438
163	0xbd567ab0	-0.052363098
164	0x3de5e5b6	0.112254545
165	0xbe3efc96	-0.18651041
166	0x3ca32b7b	0.019918194
167	0x3c23a5f6	0.009988299
168	0x3df5698f	0.11983024
169	0x3e6843db	0.22682135
170	0x3e538aff	0.20658492
171	0x3e24e623	0.16103415
172	0xbd9424e6	-0.072336
173	0x3da71cb2	0.0815977
174	0xbe18a262	-0.14905694
175	0xbb3c3b05	-0.0028721702
176	0xbc51209b	-0.012764121
177	0xbddc9da1	-0.10772253
178	0x3dcc7477	0.099831514
179	0x3e5a6d90	0.21330857
180	0x3d8e05d9	0.06934709
181	0x3d30b342	0.043139704
182	0xbd030bf1	-0.03199381
183	0x3d29e701	0.041480068
184	0x3d4ed72a	0.050498165
185	0xbd9eedc8	-0.07760197
186	0xbd230750	-0.039801896
187	0xbb925919	-0.0044661877
188	0xbd62471d	-0.0552436
189	0x3d39d1a8	0.04536596
190	0x3e28f5e9	0.16500057
191	0x3e48311d	0.19549985
192	0xbe2942c5	-0.16529377
193	0xbaf0c160	-0.0018368177
194	0xbe23bcb5	-0.15989955
195	0x3c1a678f	0.009424104
196	0x3dfcfdc6	0.12353091
197	0x3d35bb63	0.04436816
198	0x3cff9e49	0.031203406
199	0x3d22a558	0.039708465
200	0xbdfba15b	-0.122866355
201	0x3d9e892b	0.077410065
202	0x3e2d1d6d	0.16905756
203	0x3dee2105	0.11627392
204	0xbd82baa5	-0.06383256
205	0x3da298ef	0.07939326
206	0x3e24d363	0.16096263
207	0x3e2e263f	0.17006777
208	0x3e25b5ab	0.16182582
209	0x3d8e5737	0.06950229
210	0xbdc92aec	-0.0982264
211	0xbd49cc21	-0.049266938
212	0x3b82cbd7	0.0039915848
213	0x3cc87046	0.024467599
214	0xbdb987a1	-0.09059072
215	0xbc1e0dcf	-0.009646847
216	0x3e18ed80	0.14934349
217	0xbda56ec8	-0.080777705
218	0x3e330b70	0.17484832
219	0x3df3713f	0.11886834
220	0x3e0075c1	0.1254492
221	0xbddea95c	-0.108721465
222	0x3d9dd64f	0.07706892
223	0xbdb42585	-0.08796219
224	0xbcc1c075	-0.023651341
225	0xbbb2f957	-0.0054618525
226	0xbce05ad6	-0.027387064
227	0xbdec6e40	-0.11544466
228	0x3dc71d15	0.09722344
229	0x3e040406	0.1289216
230	0x3df37a42	0.11888553
231	0xbe47b4be	-0.19502541
232	0xbd9f079a	-0.07765122
233	0xbcf5fc94	-0.030027665
234	0xbe020438	-0.12696922
235	0xbd6b8886	-0.057503246
236	0x3d50b2a2	0.050951608
237	0x3e0f5275	0.13996299
238	0xbdd02f54	-0.10165277
239	0xbd4201fc	-0.047365174
240	0x3da14cbe	0.078759655
241	0xbc90a2ef	-0.017655818
242	0x3de43e70	0.111447215
243	0x3e3370ef	0.1752355
244	0xbdf0a1bb	-0.11749598
245	0x3cb367ec	0.02190014
246	0x3e811acc	0.25215757
247	0xbda29850	-0.079392076
248	0x3d72d0cd	0.05928116
249	0x3e303196	0.17206416
250	0x3e7089ff	0.23490141
251	0xbd91b1a0	-0.071139574
252	0x3d9c12eb	0.07620796
253	0x3cb21407	0.021738065
254	0xbc401c53	-0.011725503
255	0xbdbcc108	-0.09216505
