Results/2330_discriminator1.pth (torch, 250863 bytes, 35 tensors)

weight_ih_l0 f4 [120, 20]
00000000: a91e 7e3d 2e0c 38bd 5539 91bd 1a1f e3bd
00000010: ce5b 713d 456a e83b 28dc 013d c837 bbbc
00000020: bfac 67bd f0fe 92bd d97d dbbd 4e05 0b3e
00000030: b9d9 1c3e 261a 823c 6dc4 b0bc f0fb c63d
00000040: 0879 ba3d c52e 20bc ae5c 22bd 3dca dd3c
00000050: 7c4c 11be 2690 a3bd 44e1 093e 3d23 09be
00000060: 2462 e73d e96f 04bd 5159 7e3d 2317 27bd
00000070: dc00 073e 06f4 68bd 800f 263d 4021 4ebd
00000080: e84b 8dbc 1013 4a3d 06f9 9dbd 7147 943d
00000090: 5bee 383b 34a1 053e 4297 e9bd f559 853d
000000a0: b50b a3bd 12bb 333c a887 923c d882 b73d
000000b0: ae43 0abe 46bc f83d 541b 1d3d 5243 26be
000000c0: dc8c 2c3d c6c6 1dbe ba3a a3bc 0497 0e3e
000000d0: f968 f03d c3cf 183e 2aca 0bbe d7c5 673a
000000e0: 00c7 963d f1e0 493d c57c 093e 5d43 16be
000000f0: cca0 d03d 5690 ee3d e309 143e 50bf 883d
00000100: 9c56 d83b fc46 ad3d 04e4 563d a9f1 933b
00000110: 2342 153e 60b8 d6bd da14 f23d f0c8 f8bc
00000120: a265 13be 0e71 15be 0ed0 ad3d 9633 01be
00000130: 0f14 0b3e 87f1 0f3d 4d84 bdbd 4032 c0bc
00000140: 1f71 113d f008 bcbc 61fd c4bd 4262 a0bd
00000150: db90 fcbd 3103 c93d bdbb 8ebc 85fa ae3c
00000160: 2cdf 50bc 98a7 55bd a550 ae3d 321e e2bd
00000170: f5ea b7bd 3148 203d 83e4 0dbe 62e1 bfbc
00000180: 02d5 a8bd 97cf 113e a609 3a3d 7129 2bbe
00000190: d03d eebd 2d22 123e a956 0e3e 27ba 953d
000001a0: c97d 793d f785 093d 6666 5fbd 5fcc 313c
000001b0: fc76 ab3c e393 ac3d 85e5 24be d1ff cebc
000001c0: dced 30bd 470c efbb 7248 323d 5e8f a13d
000001d0: 6b46 0bbd 354e febc 623e 64bc c2ef a5bd
000001e0: b389 d63c eb27 2c3e 6905 be3d 4d93 0c3e
000001f0: 558e 0c3e 3f1b 903d b9ef 8b3c af62 d8bd
00000200: 4ff6 0f3e 981b 0ebd 4592 adbd d293 5f3d
00000210: 4750 8fbd 7d99 973d e542 153d cad7 f93c
00000220: 6fee 17be 273c 6e3d dd49 d03d c685 263d
00000230: 7f32 1ebe b7f2 dc3c dbbf b83d 7629 2b39
00000240: f520 00be fba2 04be a3b8 aabd 16a0 1dbe
00000250: cd5f febc e6ac c23c 497a acbd e843 0a3e
00000260: 23d7 983d 4931 113e c28b 183b fc46 eabd
00000270: 5999 1dbe fe05 0cbe 99c5 ed3d 9fd7 8cbc
00000280: 7ae8 f03d e268 a63d 85c6 7abc 0a79 8d39
00000290: 158c 673c 4596 0d3d 032f 0e3e ca15 543d
000002a0: 8d96 17bd 3f3a 2c3d aa52 32bd 8466 fcbd
000002b0: 2404 b9bc 96ab 903b 0cad 243e 957a f4bc
000002c0: 0f68 89bd 5036 c9bc 676c fa3d e13f 2a3e
000002d0: 82e6 b03d 6884 b73d a34b 62bd 3be0 c3bd
000002e0: 1575 983d 6455 02be e830 0cbe 82da 06be
000002f0: c74c bebb 6e24 f83d 0c0b 11be 6ce0 093e
00000300: 9d2f 823c 9309 c7bd 4d0f 2ebe 4ed0 0f3e
00000310: 0d13 a2bd 1215 90bd 4951 c63d 524d d0bc
00000320: 3f02 0a3e 96cf 1a3e 7b88 dfbc 8fb8 08be
00000330: 6982 9a3d bbab e03d 425b cfbd 21be f43c
00000340: b5b5 04be c905 8dbd eead 593c 067c a23d
00000350: 338f 11be 98e4 f7bc 8574 f5bd 0532 933d
00000360: 7454 f33d af27 c03d 0c61 a1bc a966 d13d
00000370: 47ca 063e b99f 01be dec4 f23c 1895 0c3e
00000380: 2bf3 2abd 6ee2 bfbd e4c9 bd3d 63ee 013e
00000390: 38ea b53d fca2 febc cbc4 f33d 9640 2abe
000003a0: 1b14 03bc 4009 973d c3ab 1d3e fe13 0ebc
000003b0: c1de 093e 83a6 11be 2c19 dd3b 2182 003e
000003c0: 5455 ee3d db59 013e 788a bfbd 1a69 ff3d
000003d0: fe98 fb3b 981c 053e fa25 543d 13f5 c8bd
000003e0: aa1b 003e 7c6c 7b3c cebe 0b3d 0eb9 763d
000003f0: f8ba 963d 761e cdbd 64db f4bc f68b e0bd
0.06204096 -0.04493349 -0.07091013 -0.110899165 0.058925442 0.0070927464 0.031704098 -0.022853747
-0.056561228 -0.07177532 -0.10717363 0.13576242 0.1531743 0.01588161 -0.021578038 0.09716022
0.09105116 -0.009776776 -0.039639167 0.027073974 -0.14189333 -0.079864785 0.13464838 -0.13392349
0.11298016 -0.03233329 0.062096898 -0.04079355 0.13183922 -0.056873344 0.040542126 -0.05032468
-0.017248109 0.049334586 -0.07713513 0.07240189 0.0028218243 0.13049775 -0.11405803 0.065112986
-0.07961217 0.010969894 0.017886952 0.08960503 -0.1350238 0.12145285 0.03835614 -0.16236618
0.04212652 -0.15407857 -0.019925464 0.13924795 0.11738772 0.14923005 -0.13651338 0.0008841431
0.07362175 0.049286786 0.13426502 -0.14674135 0.101869196 0.11648624 0.14456896 0.06677115
0.0066021215 0.08460805 0.052463546 0.004514892 0.1457601 -0.104843855 0.11820383 -0.030369252
-0.14394239 -0.14593908 0.08486949 -0.12617335 0.1358187 0.035142448 -0.0925375 -0.023461461
0.03550827 -0.02295348 -0.09618641 -0.07831241 -0.123323165 0.09815062 -0.017423505 0.021359691
-0.012748521 -0.052161783 0.085114755 -0.110409155 -0.08980361 0.039131347 -0.13856702 -0.0234229
-0.08243753 0.14239345 0.045419358 -0.16715027 -0.116328835 0.1427085 0.13900246 0.07310896
0.060910974 0.033575024 -0.054541014 0.0108519485 0.02093076 0.08426645 -0.1610318 -0.025268467
-0.04319559 -0.0072951647 0.04352612 0.07888673 -0.034002703 -0.031043151 -0.013930889 -0.08102371
0.026188707 0.16812102 0.09278376 0.13728066 0.1372617 0.07036447 0.017082082 -0.105656974
0.14058803 -0.034694284 -0.08475164 0.05458433 -0.069977336 0.074023224 0.03644075 0.030498404
-0.14837049 0.058162834 0.10170338 0.04065492 -0.1544895 0.026971204 0.090209685 0.00016323276
-0.12512572 -0.12952797 -0.08335998 -0.15393099 -0.03105154 0.023764085 -0.084217615 0.13502467
0.07462909 0.14178957 0.0023276662 -0.114393204 -0.15390529 -0.13674161 0.116099544 -0.01719266
0.117630914 0.081254736 -0.01530612 0.00026983797 0.014132519 0.034567136 0.13885121 0.051778592
-0.03700881 0.042047735 -0.043535866 -0.12324241 -0.022584982 0.004414986 0.16081637 -0.029843608
-0.06709301 -0.024562031 0.12227707 0.1662593 0.08637716 0.08960801 -0.055247914 -0.09564253
0.074442066 -0.12727886 -0.13690531 -0.13169292 -0.0058074924 0.121163234 -0.1416437 0.13464516
0.015891844 -0.09718623 -0.16998024 0.14044306 -0.0791379 -0.07035269 0.09683473 -0.025427494
0.1347742 0.1511825 -0.027286759 -0.13351654 0.07544405 0.10970255 -0.10124828 0.029875817
-0.1295994 -0.06885869 0.013286097 0.07933812 -0.14214782 -0.03026037 -0.11985115 0.07187275
0.118813425 0.09382569 -0.019699596 0.10224659 0.131631 -0.12658586 0.02963489 0.1372875
-0.04173581 -0.0936936 0.09267023 0.12688594 0.08882564 -0.031083576 0.1190277 -0.166262
-0.008000399 0.07374811 0.15397553 -0.008671759 0.1346388 -0.14223675 0.0067473855 0.1254964
0.11637369 0.12631933 -0.09352583 0.124712184 0.00767815 0.12999189 0.05179403 -0.09812369
0.12510553 0.015345689 0.034117512 0.060235076 0.0735988 -0.100155756 -0.02988977 -0.109641954

weight_hh_l0 f4 [120, 40]
00000000: 9143 03be 13fd 15be b61c 05be 75bc 0fbe
00000010: 6767 cf3d a3bb 163d d45e 253d ce1e cd3c
00000020: 2d1d 543d 9a59 a63d 1647 ecbd 547f c0bd
00000030: cc99 6a3d a1f4 bfbd 8700 b13c 8e14 123d
00000040: 6b0c b53d cf23 2bbd aefb 563d 4973 edbb
00000050: 3c02 f7bd f27b 993b 9604 0e3e 4839 72bd
00000060: acf0 b33b 2e79 db3c 8221 12be 2949 a3bd
00000070: 9832 56bd a1d4 ac3d 4368 033e 9631 773d
00000080: a5ab 06be bb02 c5bd 2d7a 413c 2284 ea3d
00000090: 1e2e a53d 18c6 2bbd 15e5 06be 0e54 0d3e
000000a0: 0bb5 8c3d 4969 b43c d8bd 1abd 6f69 d73d
000000b0: 7155 f3bc 9532 cbbc 8031 75bd 56de 113e
000000c0: b89b 21be 7083 17be a463 f63d f9b3 953c
000000d0: a8ea f6bd 7d79 a73d 3949 c23d f5a7 96bd
000000e0: ead9 1abd 51c3 f83d ee5d 84bc 1fe0 903d
000000f0: 15fc a8bd 04f2 8ebd 6b79 ecbd 592d b03b
00000100: c72f c53d 6f63 143e c0b5 fdbd d881 093e
00000110: 8577 6b3d e583 063e 09c2 d53d 894e 4a3c
00000120: fe2f aabd 34df 53bd d54c 2dbd 7f6f fa3d
00000130: 8699 003d 8245 08be a121 cdbd 6c29 81bd
00000140: bdf6 833c ada3 983d 6d21 b33d 778e b13d
00000150: 8896 af3d d7e4 a6bd bdaf e33d 7dc2 a0bd
00000160: 36d6 2cbd 4f30 bfbd d0f7 c6bd ffa3 753d
00000170: 1b73 d23d e9ee de3c 3577 5dbd 2846 08be
00000180: 63fe 94bb 43d6 bb3b 6ef8 02bd ac77 063d
00000190: 9f95 2a3e 08af d2bd a296 033e dfa8 5dbc
000001a0: 9859 943d dd2e 8b3d 2c8e 02be 512b aebd
000001b0: c01f b43d 3fd6 d7bd c8a0 09be bc0a 0dbd
000001c0: 53f7 173e 63ca 8cbd 1039 c9bd 1fd4 063e
000001d0: f5c3 cdbc 9799 36bc 8cc2 143e b96d 63bd
000001e0: 959a e73d 43cd cb3d 4a69 7c3b 149e 913d
000001f0: 161a 663d 1b84 30bd c6f6 a6bc 1a82 593d
00000200: dba9 94bd 28e5 bf3d f130 bf3b 74b0 4dbd
00000210: 82a1 a03d 8ac3 8bbc 9082 0c3d 317d 1fbe
00000220: 1eaf 1b3e 4b2d 793d c7e8 e03d 1098 eabd
00000230: 0520 8bbd f288 de3c 83b0 35bd 7895 cb3a
00000240: 8575 043b 0006 ac3d c9dd c7bd c1b3 83bd
00000250: fa8f 093e 6487 c5bd c7a3 223e 53a9 273d
00000260: ad29 fabc 1857 c93c a313 423c 6144 04be
00000270: 7672 003d 8f5c f5bd e807 c63d 49f6 1d3c
00000280: f460 1dbe fc6b 13be 92d6 023e b9d1 703d
00000290: 96ca e2bd c38a 4a3d 73b9 db3d 5678 413c
000002a0: e479 dabd f3de dc3d f209 e53d bddb 17be
000002b0: c518 12be 2f29 1bbe a8c5 bebd f903 423c
000002c0: 23b1 ca3d 40bc df3a e261 e43d f9ed 293d
000002d0: 2a97 c23c 8764 f1bd 45f9 cf3d 60e5 193e
000002e0: 6570 fc3d c07d cabc ad68 0a3e 0338 3c3d
000002f0: 6d58 45bd f523 603d 32f4 64bd bb6b d73d
00000300: f69e 90bd c4fe b2bd 9945 9c3d 153c 0a3e
00000310: f764 e0bd 149d f7bd 926c 18bd 0c06 bfbb
00000320: 7748 d23d 6e7b 07be c3a6 babd c175 e53d
00000330: 0592 b33d 5dca 74bd e2b6 6e3d ecda f6bd
00000340: 9981 b33d 9319 1d3e c296 c0bc fc61 6dbd
00000350: 97f6 0bbb 2082 ef3d 4424 c8bd 8a52 f3bd
00000360: b246 473d bc98 ed3d a458 bc3d a63b 98bd
00000370: a426 0fbe 772f 763d 67ee 283d 89a0 823c
00000380: 36e9 1dbe 311a 17be 682c c4bd 62e6 18be
00000390: 9a25 22be be62 d13d e9ad 16be 91ca 993d
000003a0: 301c 173e 9a8c 8c3d dbac e33c d013 ccbd
000003b0: d6ab e23d 9f29 213e 62cd a63c be71 d03d
000003c0: 7654 21be b764 c1bc 523f e13d ec22 c7bd
000003d0: 9f8a 93bd cea5 743d 21fc 30bd b7bd 1d3e
000003e0: e80b babd df52 a53d 99f9 b03d faa7 b43d
000003f0: d801 233d fba4 213e 958b dc3d 908b f63d
-0.12818743 -0.14647321 -0.12999234 -0.14036734 0.10127144 0.036800038 0.04037364 0.025039103
0.051785637 0.08122559 -0.11536996 -0.09399286 0.05727558 -0.09372831 0.021606697 0.035664134
0.08840259 -0.041782197 0.052486114 -0.007246409 -0.12060973 0.004683965 0.13868937 -0.05913666
0.005491337 0.026791181 -0.14270595 -0.079729386 -0.052294344 0.08438993 0.12832741 0.060350023
-0.13151415 -0.096196614 0.011808914 0.114509836 0.08065437 -0.041936964 -0.13173325 0.13801596
0.06870469 0.02202286 -0.037778705 0.10518157 -0.029703828 -0.024804393 -0.05986166 0.1424497
-0.15782058 -0.14796233 0.12030724 0.018274294 -0.12056476 0.08177469 0.09486622 -0.07356254
-0.037805475 0.12146629 -0.01615807 0.07073998 -0.08251206 -0.069797546 -0.11546596 0.0053764996
0.096282534 0.14491056 -0.12388182 0.13428438 0.05748703 0.13136251 0.104374 0.012347826
-0.08309935 -0.051726535 -0.0423096 0.122282974 0.03139641 -0.13307765 -0.1001618 -0.06306729
0.016108865 0.07453094 0.0874661 0.08669751 0.085736334 -0.081491165 0.11117504 -0.07849596
-0.042196475 -0.09335386 -0.09715235 0.059970852 0.10275861 0.02721353 -0.054068763 -0.13308012
-0.004546927 0.005732329 -0.031975202 0.03282897 0.16658638 -0.10287291 0.1285043 -0.013529032
0.07243651 0.06796048 -0.12749547 -0.08504356 0.08795118 -0.10538911 -0.1344024 -0.034434065
0.1484044 -0.0687454 -0.09825337 0.13166855 -0.025117854 -0.011145017 0.14527339 -0.05552456
0.11308781 0.0995126 0.0038514906 0.07110229 0.05617722 -0.043094736 -0.020381343 0.05310259
-0.0725896 0.0936988 0.0058346917 -0.050217107 0.07843305 -0.017061014 0.0343042 -0.155751
0.1520352 0.06083421 0.10981899 -0.11454785 -0.067932166 0.02716491 -0.044357788 0.0015532216
0.0020211649 0.08399582 -0.09759099 -0.0643077 0.13433829 -0.09644964 0.15882789 0.040932965
-0.03053745 0.024577662 0.011845502 -0.1291671 0.03135916 -0.11980545 0.09669477 0.0096412385
-0.15369016 -0.14396662 0.12777165 0.058793757 -0.110737965 0.04944874 0.10728731 0.0118084755
-0.1066778 0.10784712 0.111835375 -0.14829917 -0.14267261 -0.15152429 -0.09315044 0.0118417675
0.098970674 0.0017069653 0.11151482 0.041486714 0.023753721 -0.11786752 0.10154966 0.15028906
0.12326125 -0.024718165 0.13516493 0.045951854 -0.048180033 0.05472179 -0.055896945 0.10518595
-0.070615694 -0.08739999 0.07630462 0.13499482 -0.109567575 -0.12090507 -0.037212916 -0.0058295783
0.10267728 -0.13230678 -0.091138385 0.112041004 0.087680854 -0.0597633 0.05827988 -0.12053475
0.08764953 0.15341787 -0.023509387 -0.057954773 -0.0021356696 0.11694741 -0.09772542 -0.118809775
0.048651405 0.116013974 0.09196594 -0.07433252 -0.13979584 0.06010386 0.041242983 0.01594569
-0.15420994 -0.14756085 -0.09578782 -0.14931634 -0.15834656 0.10223912 -0.14714779 0.075093396
0.14756846 0.06862755 0.027792385 -0.099647164 0.11067931 0.15738533 0.020361606 0.101779446
-0.15754876 -0.023607595 0.109984055 -0.09723458 -0.07204174 0.059728436 -0.0432092 0.15404402
-0.09084302 0.08072447 0.08641357 0.088211015 0.03979668 0.15785591 0.10768811 0.12038338

bias_ih_l0 f4 [120]
00000000: 9475 3b3b 0346 f83d 3ba4 44bd 8d56 fb3c
00000010: 5ddc c23d 1606 3a3d 3b46 febd d3d1 d9bd
00000020: 56dc 2bbe b9e3 8ebd 668e 9fbc 7c7e 19bc
00000030: 2fb4 2ebd 3c68 8dbd e713 b23d f84d 5b3b
00000040: 5f5a 523c 53cd c23d 0d25 b03d da83 0bbd
00000050: 6d56 6abd bb77 c73c f8da 093c 2320 11be
00000060: 2539 03be 5fa8 aabd 9eef c83d 2223 a03c
00000070: 33eb c33d 8036 c5bd b9f0 aa3d 03a1 01be
00000080: e203 313a 5aa1 f8ba 2b3a d0bd 9903 f4bd
00000090: f900 503d 9710 78bc 1328 4fbd 9a64 cabd
000000a0: e03a c93d 48fa 9ebd b862 a83d 897b fe3d
000000b0: 6ce7 f23d c671 e4bc 8b95 ab3d 0371 1cbe
000000c0: 73ee 823d 1802 15be b92d b5bc 980e 123e
000000d0: f564 a3bd 24f6 203e f6f6 153e 32d5 ab3c
000000e0: d10f 89bd 2548 973c 119e 013e 372d 16bd
000000f0: c3aa 10be fdd9 993d e367 413c 47ee 803d
00000100: 0118 f83d 0ae2 16bd 141d 2a3d b11c 75bd
00000110: 8e7a 873d 50bd a8bd 43e2 2bbc d7d7 9fbd
00000120: 532d b93d 3259 873d 76ef 203e 49d3 283e
00000130: c0e0 5d3d 7288 09be 101c 123d e5f3 c5bd
00000140: ea81 edbc 5541 82bd 8699 733d 3ecf e5bc
00000150: a010 773d 72f6 293d b2ea d03d 256e bcbd
00000160: be87 de3d d0b1 86bd 240b 71bd 001d 0a3e
00000170: c41c f9bd 2284 10bb 3339 eb3b 9a2e b0bd
00000180: 95c6 8bbc de77 06bd fe42 0bbe 166c 6bbc
00000190: 3ee0 ea3c 3e65 e1bc c937 2a3e a3f8 0b3e
000001a0: 7202 a6bd d142 063e d95a 9ebd 3090 19bd
000001b0: 1136 523d 432d 7f3d ef8d 1cbe bfc8 b63c
000001c0: fd6d 1c3e c165 13bd d8db 153c f329 88bd
000001d0: 2930 153e 5d90 213e 0741 2b3d 4930 e3bc
0.0028604018 0.12122729 -0.048008185 0.030680919 0.09514687 0.04541596 -0.12415739 -0.10635724
-0.1678327 -0.069770284 -0.01947708 -0.009368535 -0.042652305 -0.06904647 0.08695202 0.003346322
0.012838929 0.09511819 0.08600817 -0.03406129 -0.05721133 0.024349084 0.008414023 -0.14172415
-0.12814768 -0.083328955 0.09811328 0.019548003 0.09566345 -0.09629536 0.083466955 -0.12659077
0.0006752593 -0.0018968985 -0.10167345 -0.11914749 0.050782178 -0.015140674 -0.050575327 -0.098824695
0.09825683 -0.07762581 0.08221954 0.12425906 0.118605465 -0.027886283 0.083781324 -0.15277486
0.06393137 -0.1455158 -0.022116529 0.1426338 -0.079782404 0.15718895 0.1464499 0.020975683
-0.0669247 0.018467018 0.12657954 -0.036664214 -0.1412764 0.07512281 0.011804554 0.06295448
0.121139534 -0.03683666 0.041531637 -0.059841815 0.06615172 -0.082392335 -0.010490957 -0.0780484
0.09041848 0.066088095 0.15716347 0.16486849 0.054169416 -0.13430956 0.035671294 -0.0966566
-0.028992612 -0.06360117 0.059472583 -0.028052922 0.06031859 0.041494794 0.102010146 -0.09200696
0.108657345 -0.06576884 -0.058848515 0.13487625 -0.1216369 -0.0022051414 0.0071784495 -0.086026385
-0.017062465 -0.032829158 -0.13599774 -0.014369031 0.02867138 -0.027514096 0.16622843 0.13669066
-0.08105935 0.13111426 -0.077321716 -0.037491024 0.051321093 0.062299024 -0.15288518 0.02231252
0.15276332 -0.035985712 0.009146653 -0.06648626 0.14569153 0.15777726 0.04181006 -0.027732985

bias_hh_l0 f4 [120]
00000000: ca68 1b3e c526 b43d 1257 263e ada4 59bb
00000010: 8714 263e 4ad9 14bd 7895 623c b09e a13d
00000020: bed8 dfbc 53a1 03be 9154 4abd 739f ba3d
00000030: 8328 e13d bb32 2abe 6746 4b3d a413 c03d
00000040: a718 d1bc a63c d2bd a6ad 00be eebf 233e
00000050: 9525 7abc f83a a1bd e97a be3d 87ed 0239
00000060: 7f2a 05bc d18a a7bd 421f abbd cb2c 8f3d
00000070: e5c2 013e ef49 bdbd 387f 0abd 11f8 25bd
00000080: 4e7d 9b3c 0871 17be b6dd 18be b64b 443d
00000090: 0ff9 f2bd fb01 903d e496 183e fc0a a93d
000000a0: 553a 03be 6cad ca3d bca1 123e 381f 49bd
000000b0: aadf f0bd 951b 103e 57cf a93d dbdf f6bd
000000c0: 41fc 60bd 3224 f43d 5f1f f03c f910 17be
000000d0: 9798 f63d bc49 c7bc d93b e53d 1b9f 8c3d
000000e0: 1893 07be d781 71bd 5aae cf3d d936 193e
000000f0: 0d24 ffbd 156d 873d dd48 253d 7b40 00be
00000100: 2d5a d53d a54b 5e3c cf14 adbd 90ee 063d
00000110: e168 07be dc03 f83d 5be2 ab3d 1f62 f23c
00000120: 51bd 05be 4152 ef3d 2b82 463d b8bf 44bd
00000130: 9e7c d73c 7ddf 12be af2f ed3c 7d9e 773d
00000140: 8023 323e 377f 333c 7d8b 903d f464 543d
00000150: 9cee 92bd cd94 f7bd 56e9 b7bd 0c24 33bd
00000160: e72f 043e 3061 5a3d 6c70 ce3d 67be 24be
00000170: 4ade cf3d c32c 0cbd d858 943d 6d1d 163e
00000180: 4604 76bd 1d1b 853d 074c cb3d 5b8e 013e
00000190: 14e1 f23d ebe6 78bd 109a f53c dfc4 78bd
000001a0: 3c8c a63c 0db9 723d c5dc b2bc f70b 773d
000001b0: 1e73 2ebd 716f 143e e6cd 043e f68b 673d
000001c0: f6a9 0fbd 4b6a bc3d 90e0 e83d aead e43d
000001d0: ff78 53bd 771b cfbc a579 f3bc 7117 04be
0.15176693 0.08796457 0.16244152 -0.0033209727 0.16218768 -0.036340035 0.013829581 0.07891595
-0.02732503 -0.12854509 -0.049397055 0.09112444 0.10994055 -0.16620915 0.049627688 0.09378746
-0.02552445 -0.10265474 -0.12566242 0.15991184 -0.015267749 -0.078725755 0.09300787 0.00012486252
-0.008127808 -0.08180774 -0.08355571 0.069909655 0.12672003 -0.09242617 -0.03381273 -0.040519778
0.018980648 -0.14789212 -0.14928326 0.047923766 -0.118639104 0.07031628 0.1490131 0.08254048
-0.1281522 0.09896359 0.1431951 -0.04910204 -0.117614105 0.14073022 0.082915 -0.12054416
-0.054928068 0.11920966 0.029311834 -0.14752568 0.12040823 -0.024327151 0.11193056 0.068662845
-0.13239706 -0.058961716 0.10140677 0.14962329 -0.12458048 0.066126026 0.04035269 -0.12524597
0.1041759 0.01356784 -0.084512345 0.032942355 -0.13223602 0.12110111 0.08392783 0.029587803
-0.130605 0.116856106 0.04846398 -0.0480344 0.02630454 -0.14343067 0.028953401 0.06045388
0.17396355 0.010955623 0.07057855 0.05185409 -0.071744174 -0.12088928 -0.08980052 -0.04373555
0.12908898 0.05331534 0.100800365 -0.16088258 0.1014982 -0.034222376 0.07243508 0.14659663
-0.06006267 0.06499312 0.099266104 0.1265196 0.118593365 -0.060767096 0.02998069 -0.060734626
0.02033054 0.05925851 -0.021833787 0.060314145 -0.042590253 0.14495637 0.12969169 0.05652996
-0.035074197 0.09199961 0.11370957 0.11165939 -0.051629063 -0.025281651 -0.02972109 -0.12899567

weight_ih_l1 f4 [120, 40]
00000000: d32a c4bd 60c4 103e a50c afbd 7e55 e73d
00000010: fa27 1e3e d5c8 ec3c a6c3 893d bdfe 413d
00000020: 0116 edbd a37b c9bd 942d 033e 2b8b a9bc
00000030: 6df6 a7bd 4b7c 57bb c01a f4bd a1d6 b8bd
00000040: 96be 0bbd 2b1d 64bb 061c e0bd 62c7 9a3d
00000050: fd05 03be 5204 13be 65b2 183d 1e67 0dbe
00000060: e7a7 073e 5096 453a 1b41 4a3d 0a62 f8bd
00000070: ebed 06be 9870 0f3e 56ef 6dbd d43f 89bd
00000080: 8928 a2bc c679 5bbd 98cf 0c3d 8668 95bd
00000090: 6de0 d43d fdd3 14be 1bee 84bd c39c 72bd
000000a0: 40eb 13be 23dd 83bd 287e 913d b44c ca3d
000000b0: ac5c e5bd dd75 1bbe 9fb7 0bbe 87b6 1fbe
000000c0: d6ab 0f3e 7679 8bbd c853 983d 8a9e f43d
000000d0: afbd c33d 6e63 15be 6c59 d6bd 89a2 aabd
000000e0: 5ace 123e c5b5 aebd a523 2f3c a0ca 343b
000000f0: c411 aa3d fcd9 04be ce77 71bd 6c29 b3bd
00000100: b50a b93d fbb1 c33c 8292 2cbc bc3a 043d
00000110: cff1 1ebe 413a f1bd 9179 123e 58ea 5f3c
00000120: 75de f23d 342a dabd ca16 f63b 6cfa 2b3c
00000130: c8d9 73bd 1ff7 d93d c508 1a3e d859 053b
00000140: aa32 cc3d 2665 2b3e 803f e13d 1ca1 c2bd
00000150: b13b 263d 6ddb 2cbd b129 e0bd dd7c f83d
00000160: 4076 57bd 152f 85bd 9b8b 97bd af24 0cbe
00000170: d712 10bc 937b ab3d 0ad4 0abe a34f c53d
00000180: c82c 41bc 659f d73d 5b0a 0b3e 5351 f03b
00000190: 3ce5 0c3e 572f c13b 75bb aabc 49c8 17bd
000001a0: 8a1b d3bb 7510 753d 02b3 f6bd 303f 1a3e
000001b0: 59c9 b73d 1522 3c3d 6904 9b3d d278 1abc
000001c0: 3de4 083d 11ca cfbd 408b 5ebd 9325 95bd
000001d0: 44ee bcbd 7c53 5ebd 7e55 073e 56a3 aebd
000001e0: f206 2b3e bf75 dd3c 51c6 c13d 7b93 bebd
000001f0: 4ab7 f73d 92c3 053e 2789 b8bd 5a9a 803c
00000200: 8c73 193c 779e b73d a38c 90bd ca62 123e
00000210: 36cb 28bd e6ca ef3d 7b6d 0bbe 5018 08be
00000220: 5a8c dcbd 36df ad3d 8386 d6bd fef6 083e
00000230: 1e71 13bd 9d6a 30bd cca1 54bd 597b e7bc
00000240: f466 ae3c ba14 b3bd 202e da3d d591 9a3d
00000250: cc41 cfbd 9c42 d7bd 93ad 643d 73c1 093e
00000260: bcb2 f33d bdd9 a73d 3365 463d b62b e1bd
00000270: cf60 f9bc 4202 10be 534d 5b3c 9dc0 d4bd
00000280: 3dab 9a3d 1649 8abd fa65 8d3d 98b2 08be
00000290: 8952 cc3d 8b0c 87bd 853e aa3d 4129 aabd
000002a0: 9e5e e53d 5d2f c13d ccbe 933d 30c4 b5bc
000002b0: 81ed 8e3d 9fef 92bd 170f 12bd 738e 2b3e
000002c0: dedf d33d 3550 983d 76f5 e1bb cc10 0ebe
000002d0: 1d10 fe3d 28bc 563d 8516 073e 4190 3bba
000002e0: 02bf 893d a35e 08be 45de 76bd 87ea 053e
000002f0: 2391 23bd 14bf 14bd 065f 9d3d f8cf b33c
00000300: 98f4 fb3d 96c5 2c3e b9d2 7c3c ec7d f93d
00000310: 880b 0f3e ff3f 3b3d 1b41 be3d dbf1 323c
00000320: 5543 f9bd 0fca aa3d 4cc5 c6bd e5a0 3f3d
00000330: 680e fd3d 4402 adbd 8b59 0bbe d908 e23c
00000340: cb92 21bd 4a25 d13d cc3b cd3c c998 00be
00000350: cd31 b8bd 207a 433d 5615 163e dbb8 d33c
00000360: 4452 0fbd ce63 6f3c d0b2 dbbd c28c 4dbd
00000370: c60a 13be 6c04 8b3d d2de bdbd d982 31be
00000380: b998 19be 3221 363d 1298 46bd 4634 373c
00000390: 5d75 233e 79bd 2f3c c43b c93d 13d4 edbc
000003a0: cd77 cdbc 330c 8f3d 7969 983d 4b9b a2bd
000003b0: ca65 00bd 945a 043e b4bc 91bc b04d efbd
000003c0: be36 a63a 5b0b 6ebd 6499 b23d 53e8 cc3d
000003d0: dac5 4ebd 85bb 18be 80fc cd3d 4e38 1c3e
000003e0: 28d4 9bbd 599f 04be 5679 d63d fd26 3d3d
000003f0: e4a2 51bd ecdd 1c3e 0d4b 0ebd dd0e c33c
-0.095784806 0.14137411 -0.08547334 0.11295603 0.15444937 0.028904358 0.0672677 0.047362078
-0.115764625 -0.09838035 0.12810355 -0.020696243 -0.08201299 -0.003288048 -0.11919165 -0.09025312
-0.034117304 -0.0034807425 -0.10942845 0.075575605 -0.12795253 -0.14357117 0.037279505 -0.13808867
0.13247643 0.0007537352 0.049378496 -0.121280745 -0.13176696 0.14007795 -0.058089577 -0.067016274
-0.01979472 -0.05358293 0.034377664 -0.07295327 0.10394368 -0.14533992 -0.064907275 -0.05923153
-0.1444521 -0.06438663 0.071041405 0.09877911 -0.111993164 -0.1518168 -0.13644265 -0.15596972
0.14030394 -0.06810276 0.07437855 0.119443014 0.09557664 -0.1458871 -0.104662746 -0.08331782
0.1433653 -0.085307635 0.010689651 0.0027586594 0.0830417 -0.1297378 -0.058952145 -0.08748135
0.09035245 0.023888579 -0.010532977 0.032282576 -0.1552193 -0.11778689 0.14304186 0.013666712
0.118588366 -0.10652581 0.007510041 0.010496717 -0.059533864 0.10642838 0.15042408 0.002034774
0.09970601 0.16737804 0.1099844 -0.095033854 0.04058427 -0.04220145 -0.10945452 0.12133191
-0.052603006 -0.06503121 -0.073996745 -0.13685869 -0.008793554 0.08373179 -0.13557449 0.0963433
-0.011790462 0.10528449 0.13578169 0.0073339134 0.13759321 0.005895536 -0.02084134 -0.03705624
-0.006442492 0.059830148 -0.12045862 0.15063167 0.08973951 0.04593094 0.075692005 -0.00942822
0.03342079 -0.10145963 -0.054332018 -0.07282557 -0.09225133 -0.054278836 0.13216206 -0.085272476
0.16701868 0.027033685 0.09461654 -0.093054734 0.120955065 0.13062885 -0.09010535 0.0156986
0.009365927 0.08965772 -0.07058074 0.14295498 -0.041209422 0.11708622 -0.13615982 -0.13290524
-0.107689574 0.0848984 -0.10474875 0.1337547 -0.03599655 -0.043070424 -0.051912114 -0.028257059
0.021289326 -0.08744188 0.10653329 0.075473465 -0.10119972 -0.105107516 0.055829596 0.13452701
0.11899325 0.08195827 0.048436355 -0.10994665 -0.03044167 -0.14063361 0.013385135 -0.103883006
0.07552192 -0.06752221 0.06904216 -0.13349378 0.0997668 -0.06594189 0.08312706 -0.0830865
0.111996874 0.09432862 0.07214126 -0.022188276 0.06978894 -0.0717461 -0.035658922 0.16753559
0.10345434 0.07437173 -0.0068957163 -0.13873595 0.12405417 0.052425534 0.13192184 -0.00071549794
0.06725885 -0.13317351 -0.060270566 0.13077746 -0.039933335 -0.03631504 0.0768414 0.021949753
0.12302512 0.16872248 0.0154311 0.12182221 0.13969243 0.04571533 0.09289762 0.010921921
-0.12171046 0.08339321 -0.097056 0.0467843 0.123562634 -0.08447698 -0.13608377 0.02759211
-0.039446633 0.102121904 0.025052927 -0.12558283 -0.08993874 0.04772389 0.14656577 0.025844982
-0.034990564 0.014611198 -0.10727465 -0.050183065 -0.14359578 0.06787953 -0.09271015 -0.1733507
-0.14999665 0.04446525 -0.04848487 0.011181897 0.1596274 0.010726326 0.098258525 -0.029031789
-0.02508154 0.06984749 0.07441992 -0.07939776 -0.031347074 0.12925178 -0.017790176 -0.116847396
0.0012681109 -0.0581163 0.08720663 0.1000525 -0.050481655 -0.14915283 0.10057926 0.15255854
-0.07608825 -0.12951411 0.10472362 0.04617976 -0.051180735 0.15319031 -0.034739543 0.023810798

weight_hh_l1 f4 [120, 40]
00000000: f979 92bd cb9e d83c 7210 d4bd dd86 313b
00000010: 2ce8 e8bd 8313 523d 2f7f 6bbd 6851 38bd
00000020: 4b11 e13d 8e56 e4bc 7924 c6bc ec56 823d
00000030: 84a8 583d a264 3f3d a3e4 df3d 576b 923d
00000040: 6875 51bd a145 8fbd 9f6a 51bd da29 66bc
00000050: 050a 26be 0f5f 99bd 8f9d 143e 8222 013e
00000060: 7337 c1bd 930e 28be 2e90 f93d 8820 e4bd
00000070: c1b7 9fbd 5449 04be d1aa 973d 6d1e 153e
00000080: 7a5c 84bd 78ce e1bc 3879 02be 6b1e 1c3e
00000090: 6fe2 243d 79b2 39bd 1c2b d4bc b272 a1bd
000000a0: 0d96 59bc c0f7 9cbd 4edb eebd b438 28bd
000000b0: ad9f 5fbd 35c5 96bc 00cf 41bd aaf0 cabd
000000c0: 124c 06bd b8dc 0d3e ecdc 563c ea77 9abd
000000d0: 5e29 9e3d dfd6 963d f461 a33d bfcd c0bd
000000e0: 3027 05be 5c84 f9bd 4366 483c 9d3c c1bd
000000f0: 0793 07be 41a8 5f3a e2b7 92bd 5eb3 dbbd
00000100: c003 a5bd d97e 07bd 5dd9 893d d189 d1bd
00000110: 7bcf 48bd 6ef0 0a3e c07a 8abd 3057 ea3b
00000120: 72a7 0e3d f037 0f3e 12bb a93d 9bea 563c
00000130: 8ac9 1ebe 5e4f ca3d f224 683d 697e 68bd
00000140: bd8b 50bd 8e9a 1ebe 77c0 033d 12ec 9abd
00000150: cb9d 493d 8381 10be 67f2 e53d c1a4 ae3c
00000160: db59 1c3d bbc0 09be 4f30 9a3d 934a 38bd
00000170: fbf5 a23b 0914 0cbe 065a aa3d deba 08be
00000180: 4e60 21be 646f 29bc 7456 89bd b2ff 1e3c
00000190: 1062 843d cb19 903d 8268 d6bd 2cb4 bebd
000001a0: 71ba 12be efc6 b9bd 4d15 b93d 893f cdbd
000001b0: 04e2 3b3d b0dc 23ba 8a0b e2bd af06 213d
000001c0: d901 f63d 2b25 373d 31db 12be 4035 edbd
000001d0: 7933 acbc 14f7 e3bb 8359 653d bb15 2abe
000001e0: 3adb 0bbe 43ff 233c b506 3f3c fbb7 95bd
000001f0: a89d fbbd 02e3 f43d f456 f4bd 7b54 103d
00000200: c7a0 093d c5d9 b6bd cb95 8cbd 8914 0a3e
00000210: d4d1 d83d 7bd1 9fbd e3e6 2bbe 5929 48bd
00000220: 3ea9 8b3d 9280 82bc d684 47bd e5f8 e3bd
00000230: cb58 2bbc fe5d 663d ae96 08be 6b54 b33c
00000240: be58 a1bc a411 ba3d 8b8d 80bd 610b f1bc
00000250: 34c3 0c3e 2342 453c a704 03be 879a 1b3d
00000260: 1afb b63b ca15 aa3d 3b52 e9bd 5663 a9bd
00000270: c1e7 9cbd 288f 7dbd 82e5 20be df16 e03d
00000280: 06e6 acbd 2090 6abc 751f 99bd dd99 32bd
00000290: 3872 773d 2bf6 c0bd 8d12 373d 538a 9f3d
000002a0: 133a d2bd ee2a 163d 3239 82bd 8c61 0c3d
000002b0: 2857 713d 1cf4 253c 5064 84bc 51b4 d13b
000002c0: 02b5 093e 4435 8bbd ac4c 4bbb 1ce3 02be
000002d0: b14c 803c e39b b3bd af91 40bd 74e6 f4bd
000002e0: 56ea ddbc 9ce2 cfbd 353e b23c 9ee6 213d
000002f0: f156 f33d 9eff 663d a650 10be a861 f6bd
00000300: c08f bc3d b32a 4cbc ab93 a03d dbc0 213c
00000310: 0df4 30bd 8288 7cbd d7da 783d 9ee6 383d
00000320: d4e6 d5bd 87a9 f4bd 69b9 0fbe 7505 a0bd
00000330: 92fb c5bd 6cf1 0c3e c762 bbbd 8b51 413d
00000340: d10e 13be 2711 c5bd 6761 453c f559 f0bd
00000350: f7f7 893d 0125 a03d e970 cebd f2c8 a9bd
00000360: e75f 74bc b463 7fbd 2eda 29bd 528c 183e
00000370: 0755 03bd d974 023e c8be 343a cf77 033e
00000380: 62ee 153e 15d2 a3bd 7479 153e 5fef 143e
00000390: 4e64 3b3d 14ec de3d 87cc 20be 9d8f 173e
000003a0: b7ba b9bc 2a09 ca3c 91bc ea3d bd1b 023e
000003b0: a073 e43d 7ac0 b33d a29c 2b3c bf1f 213e
000003c0: 4f45 9dbc 54bd f8bd 5f1e ebbd 28b3 643d
000003d0: dcc3 fd3d caf6 21be f2ac 3cbd 2bf3 f23d
000003e0: 2cb0 48ba 0b00 ac3d 0fe5 14be c7e3 243e
000003f0: 59e6 1e3e 5ee2 003e b8cc f8bd a0ac 0f3e
-0.07152171 0.026442906 -0.10354699 0.0027088441 -0.11372408 0.05128814 -0.05749434 -0.04499951
0.109896265 -0.027873304 -0.024187313 0.06364235 0.052895084 0.04672683 0.10932281 0.0714938
-0.051137358 -0.069957025 -0.051127072 -0.014048064 -0.1621476 -0.07488834 0.14513229 0.1261082
-0.09434404 -0.1641181 0.12185703 -0.11139017 -0.0779872 -0.12918597 0.074056275 0.14562388
-0.06462951 -0.027564272 -0.12741554 0.15245979 0.040255006 -0.04533622 -0.025899462 -0.078832045
-0.013280404 -0.07664442 -0.11662923 -0.0410697 -0.054595638 -0.018404583 -0.04731655 -0.09909184
-0.03278739 0.13853729 0.013114195 -0.07542403 0.07722734 0.07365202 0.079776675 -0.09414243
-0.1300323 -0.12183449 0.012231412 -0.09435389 -0.1323968 0.00085318467 -0.07163979 -0.10727571
-0.08057356 -0.033079956 0.06730912 -0.102313645 -0.049025994 0.13568279 -0.06761694 0.007151507
0.034827657 0.13986182 0.08287634 0.013117458 -0.15506569 0.09878419 0.05667586 -0.05676118
-0.050914515 -0.15488645 0.03216597 -0.07564558 0.04922275 -0.14111905 0.11227875 0.021318795
0.03817163 -0.13452427 0.075287454 -0.044992995 0.004973171 -0.13679518 0.08317952 -0.13352534
-0.15759394 -0.010341499 -0.06705943 0.009704517 0.064640164 0.070361696 -0.10469152 -0.09311709
-0.14328934 -0.09071147 0.09037266 -0.10021884 0.045869842 -0.00062508415 -0.11037357 0.039313015
0.12012071 0.04471318 -0.14341427 -0.11582422 -0.021020638 -0.0069569442 0.05599357 -0.16609852
-0.13657847 0.01000959 0.011659314 -0.07310482 -0.1228593 0.11957361 -0.119306475 0.035236817
0.033600595 -0.08928255 -0.06864508 0.13484396 0.105868965 -0.07803627 -0.16787295 -0.048867557
0.0681939 -0.015930448 -0.048710667 -0.11131457 -0.010458182 0.05624198 -0.1333873 0.02189084
-0.019695636 0.09085396 -0.06276997 -0.029424371 0.13746339 0.012039694 -0.12794743 0.037989166
0.005584133 0.08304937 -0.11392637 -0.082709 -0.07661391 -0.061904103 -0.1571255 0.10941862
-0.08442311 -0.014316589 -0.07476703 -0.043603767 0.060411662 -0.09421953 0.044695426 0.07790055
-0.10264983 0.036662035 -0.063585654 0.034272715 0.05892101 0.010129001 -0.016161114 0.006399669
0.13447955 -0.06797269 -0.0031021042 -0.12781948 0.01566157 -0.087699674 -0.047013935 -0.11958018
-0.02708928 -0.10150644 0.021758178 0.039526574 0.11881817 0.05639612 -0.14093265 -0.12030345
0.09207106 -0.012461352 0.078406654 0.0098726405 -0.043201495 -0.06165362 0.060755577 0.04514181
-0.104444176 -0.11946397 -0.14035572 -0.07813541 -0.09667124 0.1376397 -0.091497 0.047196906
-0.14361121 -0.09622412 0.012047148 -0.11735908 0.06736749 0.07819558 -0.1008013 -0.082902804
-0.014915443 -0.062350944 -0.041467838 0.14897278 -0.03206351 0.12739886 0.00068948837 0.12838672
0.14641717 -0.07999054 0.14597112 0.14544438 0.045749955 0.10884872 -0.15703021 0.14800878
-0.02267204 0.024662573 0.114617474 0.12705894 0.11154866 0.08776946 0.010474356 0.15734766
-0.019198088 -0.121454865 -0.11480402 0.05583492 0.12390873 -0.15816799 -0.04606337 0.11862787
-0.0007655646 0.08398446 -0.14540504 0.16102515 0.15517558 0.12586352 -0.12148422 0.14030695

bias_ih_l1 f4 [120]
00000000: 21de b43d 924b debd c447 203d 5a68 833d
00000010: 1f30 7a3d 9725 e33d 2d39 09be 071f 123e
00000020: 399f 25be 6475 cb3d c552 ca3d dce8 673d
00000030: b157 36bd 2dc1 4cbd 12df 0f3e 9c71 803d
00000040: 8680 5ebd 31a8 973d 8a64 1d3e 0fe7 41bd
00000050: bde2 dabd 8f2f 243e 592f f8bc 211a bf3c
00000060: b205 19be ba98 133e 1981 14be b03c 1f3d
00000070: 8b8a 10be 6f3a 963d 2f35 50bd 9837 ce3d
00000080: 8ee6 813d 10ac 1dbc d1e3 dd3d 5586 f8bc
00000090: 7be3 67bd 1d22 a43d 9b5e d33d c506 7fbd
000000a0: f170 cbbd 60c7 e2bd 061d 8d3d ad22 2a3e
000000b0: 0ea9 7e3d 1a3b 943c 1ec1 30bd 257b afbd
000000c0: 7e05 8cbd f6c2 d6bd eccc e23d 077f 48bd
000000d0: 0620 02be 626b b1bd 0775 a73d 0f19 b7bd
000000e0: 0439 993d fb8d b5bc cecc fe3d 25fc d53d
000000f0: 22f3 073e a42e a8bd d448 d5bd 5157 5dbb
00000100: 002a 143e aa3c 923c 57eb 8bbb b7b4 d63d
00000110: 0018 03be 8007 e3bb 16bd d5bd 30a5 73bd
00000120: ddb0 4b3d f96f 91bd 3468 81bd fc1e b5bc
00000130: 4b93 1fbe 9b85 9dbd 1599 8b3c 1297 10be
00000140: 4e35 07be b899 243e fe63 bf3d 03a9 eebd
00000150: 5bb5 dd3d 495c 833d 6029 913d f98e a2bd
00000160: 9909 b3bd d0e9 da3d 1b34 563d 0576 903d
00000170: 5767 2b3e 35b0 21bd 271d 143e 756b 81bd
00000180: 512e d9bd 7f3b 83bc fe7c ed3c 9a8a 16be
00000190: 995a 103d 29b1 313d 308e 0d3e 0751 a63d
000001a0: 79ad f83d 61ff 46bb 85c9 febd a970 d7bd
000001b0: 2813 693d 746d ed3d ee73 e8bd bb39 7c3d
000001c0: 580d 343d 4cc5 26be 5bb5 103e 4481 9d3d
000001d0: 43d2 183c be90 cd3c a0ed c23b 3b09 e53d
0.0883143 -0.10854258 0.03913094 0.06416388 0.061081048 0.11091154 -0.13400717 0.14269648
-0.1617402 0.099345 0.09879068 0.056618556 -0.044517223 -0.049988914 0.14049938 0.06271669
-0.05432179 0.07405127 0.15370384 -0.047339495 -0.10687778 0.16033767 -0.030296015 0.023327889
-0.14943579 0.1441373 -0.14502372 0.038876235 -0.1411535 0.07335364 -0.05083197 0.100691974
0.06342803 -0.009623542 0.10834468 -0.030337492 -0.056613427 0.08014319 0.10320779 -0.062262315
-0.09933651 -0.11073184 0.068903014 0.1661479 0.062172942 0.018094588 -0.04315292 -0.0856841
-0.06836985 -0.104864046 0.11074242 -0.048949268 -0.12707528 -0.0866306 0.08176618 -0.089403264
0.07481578 -0.022162428 0.12441407 0.104484834 0.13276342 -0.08212021 -0.104142815 -0.0033773968
0.14469147 0.017851193 -0.004269998 0.10483687 -0.12802124 -0.0069283843 -0.10436456 -0.059483707
0.049729217 -0.07101435 -0.06318703 -0.022109501 -0.15583532 -0.07691499 0.017040769 -0.14120129
-0.13203928 0.16074264 0.09345244 -0.1165333 0.108256064 0.06414086 0.0708797 -0.07937426
-0.08742065 0.106891274 0.052295785 0.070537604 0.1673864 -0.039474685 0.14464246 -0.06319324
-0.10604537 -0.01601958 0.028990265 -0.1470131 0.03524265 0.043381844 0.13823771 0.081209235
0.12142462 -0.003036462 -0.124407806 -0.10519535 0.056903034 0.11593142 -0.11350237 0.061578494
0.043958038 -0.162862 0.14131682 0.07690671 0.009327474 0.025093433 0.0059487373 0.11183401

bias_hh_l1 f4 [120]
00000000: 6de1 893d 3215 ccbd ec31 c13c 0a5f 873d
00000010: b3b3 f23d 7771 9abc 8702 a13d f85f c2bd
00000020: 647a fbbd e637 f1bd e8e5 fa3b bba0 1dbd
00000030: 0cad 87bd e318 15bd 9042 153e 3633 c33d
00000040: a8a9 bf3d 76ca 183e c28c ee3d 8933 cfbd
00000050: d619 d2bd 1f1f b83c 2af1 e8bd 7615 92bd
00000060: 433f 31bd 8230 2b3d 6307 bb3d 3836 bd3d
00000070: 176d f43c 79df 5ebd ef6f b03d a848 8b3d
00000080: 67c9 573d 9064 8cbd 8b1a e9bd 512b dabd
00000090: 73d8 0cbe 1795 d93c 0ac2 353d 89d1 0d3e
000000a0: e5d3 063e 6b66 013e c6da f9bd e9d1 d83d
000000b0: 39bc 0f3c c5ad be3d 0eb4 a4bd 4ad5 1f3e
000000c0: 4b72 dd3d 32e8 123d 960a 973d 9be0 a5bb
000000d0: f70d 72bd a8de cebd 778f 07be c16a d7bd
000000e0: 5c2a b8bd caea 8a3d 1284 68bd 9e72 123e
000000f0: 1076 e93d 2827 b53c edfd df3c 8369 3b3d
00000100: f7b9 2abe 6dfa 983d 07ce 1ebd e331 2a3e
00000110: 62f2 a83c 6a50 c2bd 80a7 f2bd b943 9c3d
00000120: 9fb4 793d 2c1c 3cbd c0e6 b63d 7dee 63bd
00000130: 17e4 cdbd e522 703d 7db3 29bd 8b27 6a3d
00000140: bcd3 a43d 3dd7 fd3d 0c4b bb3b 43d2 f0bd
00000150: 1d27 05bc 1225 973c ae5e d43d 25c4 b6bd
00000160: 4bd9 80bc 278a 0cbe 2bb8 023d 575e 633d
00000170: 52b0 dfbc 3f68 82bd c877 f7bd c8f0 bfba
00000180: 5c29 0e3e 3734 493d f9cb d5bd 7215 883d
00000190: fb05 003a 4815 27bd 7cb1 183e 713b 593d
000001a0: 5db1 e0bd 1342 19bd f362 dc3d 37ff 04be
000001b0: 6fce 14be 5636 94bd 774f c13d fef9 b33d
000001c0: 4457 04be 3aa0 2abe 98a1 83bd f7fa f63d
000001d0: 4b38 14be 0156 d5bd dd99 4a3d b400 ed3d
0.0673245 -0.0996498 0.023583375 0.06609924 0.11850681 -0.018852932 0.0786181 -0.09490961
-0.122792035 -0.1177824 0.0076568015 -0.038483363 -0.06624803 -0.036400687 0.14576173 0.09531252
0.09358531 0.14920983 0.11647941 -0.101172514 -0.10258834 0.022475777 -0.113741234 -0.071329996
-0.04327322 0.041794308 0.09132268 0.09238857 0.029837174 -0.05441234 0.086151 0.068009675
0.052682307 -0.06855118 -0.11382016 -0.10652793 -0.13754444 0.02656035 0.044374503 0.13849463
0.13166769 0.12636726 -0.12199931 0.10586912 0.008772903 0.09310488 -0.08042155 0.15608707
0.10812815 0.03586597 0.07375066 -0.0050621754 -0.05909535 -0.10101062 -0.13238321 -0.105184086
-0.089924544 0.06783064 -0.056766577 0.14301535 0.11399472 0.022113398 0.027342761 0.04575492
-0.16672502 0.0746964 -0.0387707 0.16620593 0.02062339 -0.09487994 -0.11848354 0.076301046
0.06096327 -0.045925304 0.08930731 -0.055647362 -0.1005327 0.058627028 -0.04143094 0.057166617
0.080481976 0.12394569 0.0057157334 -0.11758854 -0.008127001 0.018450294 0.10369621 -0.0892413
-0.015728613 -0.13724576 0.031913918 0.05550989 -0.027305756 -0.063675396 -0.12083393 -0.0014643902
0.13882965 0.04912206 -0.10439295 0.06644715 0.00048837037 -0.04079178 0.14911455 0.053035203
-0.10971329 -0.03741653 0.107610606 -0.12987982 -0.14531873 -0.07236926 0.09438985 0.087879166
-0.12923914 -0.16662684 -0.06427306 0.120595865 -0.14474599 -0.104167946 0.04946314 0.115724

weight f4 [40, 40]
00000000: 5ff6 d6bd fec7 6f3d ea2c aebd 84cf 9abd
00000010: a536 fdbd e2fa 703d b699 d2bd dfee b53d
00000020: 884e a63d 026c c2bd 2fc6 43bd 0fd3 9d3d
00000030: 807b ecbd 8214 0fbd b8ac d5bd 9727 7bbd
00000040: 487e 943d 8b1c 013e 91cb b8bd e300 d13d
00000050: 7cf4 a3bd a175 5a3d e25f 2e3d ed75 0f3e
00000060: bdd9 c33d fb6a 07be 3599 c73d 2e05 e8bd
00000070: 313a 08bd f5cc 113e 8757 06be cb7c 143d
00000080: 57a3 713d 9a39 1f3d 917a 353d df11 073e
00000090: a747 f0bd 5396 ce3d 6a77 a4bd 0f90 243e
000000a0: e020 c23d 2e75 d33d 8a94 61bc 58b9 03be
000000b0: 5f51 cebd 601b 8dbd 0a62 003e b882 243e
000000c0: a2fa 293e 9368 50bd 148c 05be f570 f1bd
000000d0: e7e4 213d 8d5d c23d 4c21 5ebd 59d9 c6bd
000000e0: a04d 38bc 4b13 23bd 15c2 e7bd e47e 6d3d
000000f0: 2b8b c23c deb8 1dbe 9541 8dbd 8f23 db3d
00000100: 101e d3bd 747c 2a3c aa77 e8bc a9ca ed3c
00000110: 2ec2 e7bd a401 eebd ba3c 123e ff1a cabd
00000120: 3623 023e c1d9 b13d 814b 0ebe e2db 1ebe
00000130: d8e7 2dbc d8cf de3d 1422 143e 32da 5d3b
00000140: 9970 d6bd 64d6 fb3d b30a c43d ecad 00be
00000150: d2db 0d3e 1097 2a3d c3c7 163d afe9 b8bd
00000160: d2ab 8d3d 4fe3 dcbb c23c 4a3d 81f4 c2bd
00000170: 1bd5 183e bcf6 cf3d 9927 863d 91ca 2a3d
00000180: 7463 febd aa5e dabc fab6 e3bd 5d9a 38bd
00000190: c654 e0bd b450 0ebe 38bc 23bd cd37 2d3e
000001a0: dd6c 66bd 392e 97bd 10c0 1a3e d189 ecbd
000001b0: d661 0bbe a913 3a3c 2079 74bd 1a7d 8a3d
000001c0: a919 87bc b0e0 ed3c ac9a be3d e130 793d
000001d0: 173e a03d 8464 fdbc ecf7 043e 1843 b23d
000001e0: 21f7 ff3d c081 07bd ec32 1abc b10a ab3b
000001f0: bb12 ddbd 0204 023e d4df 143c 1b25 c1bd
00000200: d490 b3bc e107 49bd c5e2 2b3d 2bf7 8e3d
00000210: 0a4f 093e 2205 183e 5513 013e 60f3 b1bc
00000220: 6622 073e 065c 163d 23a2 77bd 262a b8bd
00000230: da35 58bc 86d7 80bc 209a b03c 21cf d1bd
00000240: 7855 1bbe 3267 99bd 4037 bf3d 6ba2 0e3e
00000250: f391 d73d 3afa a53d b29e 203e ddad f4bd
00000260: 5c2a 18bc a225 333d d683 1dbd 4163 02be
00000270: 3278 edbd 33b3 adbd 028d d03d 185f b73d
00000280: 960b 203e 43ef da3d 44b2 063c 2d9f b23d
00000290: b94b 10be a36e 333e 03b0 aabc 3bb8 8abd
000002a0: 6951 603d 2b35 fbbc 2203 0d3e 29d5 da3c
000002b0: 3379 dcbd efe5 0d3e e9eb 013e 6173 963d
000002c0: 3ae0 5fbb ff92 763d c07e a83c 25a3 14be
000002d0: d4bd d4bd f2df c83d 344c e7bb 6e4c 733d
000002e0: 3daa 113e 1bb1 18bd e131 0cbd 259a d73d
000002f0: 009b 76bd 88e8 a63d 2877 f63d f61b f13c
00000300: d527 b03d 9cd6 85bd 26e3 7bbd 8074 9f3d
00000310: fce3 133d 19f3 1abe e22c 0fbe 51e3 7abd
00000320: 47ef ce3d 81b4 83bd c305 21be 9e69 d53d
00000330: d8a8 193e 6097 673c 3911 f73c eb37 dd3d
00000340: 60fd f7bd b877 d7bd 9c97 07be 7968 ed3d
00000350: 2e67 18bd 0886 e2bc b949 0f3c 942d 1ebe
00000360: 4695 03be 4f54 9abc 526c e13d 768e 9fbd
00000370: 63b6 d1bd 991a dfbc 646b dd3d 5ff7 6fbd
00000380: e2ca 82bd de13 30bd e322 e43d daaf 26be
00000390: 6e0d 253d 845d 65bd edea 95bd 876f 67bd
000003a0: 1df7 b33d 2ac5 033e 2443 a43d 4cc5 02be
000003b0: ffaa 6abd 41ec 04bd bdce 973d ee1f f33d
000003c0: fad6 fc3b 3838 fc3d 33bf 0b3e bbde b1bd
000003d0: daff 19bc f85c 0c3e 3391 eb3d 2708 37bd
000003e0: f2fe 68bd 48a9 e83d 0f09 70bd 9d20 90bd
000003f0: 22fb edbc dafa ecbc b2fd dabd f0c3 c73c
-0.1049621 0.058540337 -0.085046604 -0.07559112 -0.12363938 0.05883301 -0.10283224 0.08883452
0.081204474 -0.09493257 -0.047796424 0.07706272 -0.11546993 -0.034931667 -0.10433334 -0.061317053
0.07250649 0.12608545 -0.09023202 0.10205247 -0.08005616 0.053334836 0.04257191 0.14009829
0.09563015 -0.13224404 0.09746019 -0.11329113 -0.03325862 0.14238341 -0.13119327 0.036251824
0.058993664 0.038873293 0.04430634 0.13190411 -0.117324166 0.10087266 -0.08030589 0.16070579
0.09478927 0.103250846 -0.013768325 -0.12863672 -0.10074114 -0.06889987 0.12537399 0.1606549
0.16599515 -0.05088098 -0.13041717 -0.11789123 0.03952494 0.094905 -0.054230973 -0.097094245
-0.011248976 -0.03981332 -0.11316315 0.05798234 0.023748001 -0.15402552 -0.068972744 0.10700142
-0.10308468 0.0104056485 -0.028377373 0.0290273 -0.11316334 -0.11621407 0.14280978 -0.0986843
0.12708744 0.086841114 -0.1389599 -0.15513566 -0.010614358 0.10879487 0.14466125 0.0033851978
-0.10470695 0.12296751 0.09572353 -0.12566346 0.13853386 0.04164797 0.0368116 -0.090289466
0.06917538 -0.0067409645 0.04937435 -0.09519292 0.14925043 0.10154483 0.065505214 0.04169709
-0.12421313 -0.026656467 -0.111188844 -0.045069087 -0.10953669 -0.13897973 -0.03997442 0.16915818
-0.056256164 -0.07381863 0.15112329 -0.11549724 -0.1361154 0.011357226 -0.059685826 0.067621425
-0.016491728 0.029037803 0.09306845 0.06083763 0.07824343 -0.030931719 0.129852 0.08704203
0.12498308 -0.033082724 -0.009411555 0.0052197804 -0.10794588 0.12696841 0.009086568 -0.094309054
-0.021919645 -0.04907978 0.04196431 0.06980737 0.13409057 0.14845708 0.12605031 -0.021722496
0.13196716 0.036708854 -0.06045736 -0.08992414 -0.013196433 -0.01572777 0.021557868 -0.10244585
-0.15169322 -0.07490386 0.0933671 0.13929145 0.105258845 0.081043676 0.15685537 -0.11947224
-0.009287443 0.04373706 -0.038455807 -0.12733175 -0.11595191 -0.08481445 0.10183145 0.089536846
0.1562942 0.10690167 0.008221213 0.087217666 -0.14091386 0.17522673 -0.020835882 -0.067734204
0.05476514 -0.030665 0.13770726 0.02671297 -0.107653044 0.13857244 0.12687649 0.073462255
-0.003416075 0.06019878 0.020568252 -0.1451536 -0.10387769 0.09808339 -0.0070586447 0.05939906
0.14225097 -0.037278276 -0.034227256 0.105274476 -0.060206413 0.081498206 0.12034446 0.029432278
0.08601347 -0.06535074 -0.061495923 0.077858925 0.036106095 -0.15131797 -0.13981965 -0.061251942
0.10104232 -0.06430913 -0.15724854 0.104205355 0.15005815 0.014135212 0.03015958 0.10801681
-0.12108874 -0.105208814 -0.13241428 0.11592192 -0.037207775 -0.027651802 0.008745604 -0.15447074
-0.12849912 -0.01883903 0.110069886 -0.07790844 -0.10239866 -0.027234362 0.10811499 -0.05858552
-0.06386353 -0.042987697 0.111394666 -0.1627802 0.04029601 -0.055997387 -0.07320199 -0.056502845
0.087873675 0.12868181 0.080206186 -0.12770575 -0.05729198 -0.03245187 0.07412479 0.118713245
0.007716057 0.123154104 0.13647155 -0.086850606 -0.009399379 0.1370734 0.11502304 -0.04468551
-0.05688376 0.11360413 -0.05860239 -0.070374705 -0.029050414 -0.02892821 -0.1069292 0.024385422

bias f4 [40]
00000000: c8dd b0bd 51b1 b4bc 8994 5d3d e7ac 1dbd
00000010: 17ba 413d dff9 15be 9b7c 133e 0c06 9abd
00000020: 840f 0fbe f030 943d a404 eb3d 3b56 d33d
00000030: e2b2 84bd 31ee c83b 242a 57bd 67b3 38bd
00000040: 5922 b03d 541d f83c 19bf 103d 2900 c23d
00000050: 9051 d3bc f482 93bd cd28 8cbd ecc3 e4bc
00000060: cc1e 113c 91bf 283d a54d 9a3c 5494 ee3d
00000070: 2c5f 01be bf22 903c 2464 6d3d bc24 59bc
00000080: 0946 cdbc 2b3a c9bd 63cb bd3d 9b8c 493a
00000090: d79e f3bd 0ae3 e23d 8330 043e d1b2 323c
-0.086360514 -0.022057207 0.054096732 -0.03849497 0.04729661 -0.146461 0.14403002 -0.075206846
-0.13970762 0.072358966 0.114754945 0.103191815 -0.06479432 0.0061319103 -0.052530423 -0.045092966
0.08600301 0.030287422 0.035338495 0.09472687 -0.025795728 -0.07202712 -0.0684372 -0.027925454
0.00885744 0.041198317 0.018835852 0.11649385 -0.12633961 0.017594693 0.05795683 -0.013253387
-0.02505781 -0.09825548 0.092673086 0.00076884934 -0.11895531 0.110784605 0.12909131 0.010906891

weight f4 [40, 40]
00000000: b5ea a3bc 8608 8abc 0105 ed3d 9376 49bd
00000010: 8a35 dd3d ac19 cdbc afc5 d23d f12c f4bd
00000020: d97d 13be 0a4d ea3d 80d4 a6bd 8db5 293e
00000030: 1cea 0ebe f77b 4cbd 974b b63d 8259 10be
00000040: 8e9f e9bd 8be4 06be d0de 163e 49f3 0e3e
00000050: 41e6 ff3d da8c ff3d 9f38 0e3e 203d 15be
00000060: 5b45 243e e2df e03c 39fa aabd c066 413d
00000070: 762b 0e3e 1846 563c f9b2 94bd 17f7 bdbd
00000080: 44c1 a63c b665 623d c8b3 a83d 20ca 863d
00000090: 04eb 17be 08b9 d0bd 1169 04bc 2113 4bbc
000000a0: 8db7 173e 0463 98bc 1187 193d 845c fcbc
000000b0: 2333 7a3d 5026 c4bd a8a0 f23d d18c 933d
000000c0: 9e0a 273d 2ea0 1f3d 3c84 8d3c 0c2e c73d
000000d0: 1e1a e43d e040 7ebd 46b6 fe3b f557 d8bd
000000e0: fd45 dc3d c56e fe3d 3163 a4bd 7b0e 89bd
000000f0: fa2f 673d a043 493d bec1 2a3e fcba 923d
00000100: 519b b13d 1a88 96bd 8658 c6bc bb36 9d3d
00000110: cbb8 97bc 0310 0bbe 25a1 13bb 601d 593d
00000120: 6cc4 cd3d eb6b 84bd 9396 703d 78f7 06be
00000130: b2e7 b1bd 391d 0a3e 5e85 06bd 00b0 e43d
00000140: 4830 b83d a6a4 dd3d d73a d9bd 6dd4 ff3d
00000150: 4c1b 043e d0fd 053e 71e2 513d 2571 12be
00000160: 79df 62bc a558 0f3e 80ef f8bd 7bb2 11be
00000170: 2385 f83d 217c e13d f33f 503d 5efd 42bc
00000180: 06e9 003d 674f 603d 965b 083d 03bb 8f3d
00000190: d104 bfbd 9ce5 223d 57a1 2dbd b4c6 debd
000001a0: 7d82 50bd 5755 053e 87d0 963d 35fa 6abd
000001b0: 3aa8 07bc 4259 a73d 8601 a83d 6810 12bc
000001c0: 7e5f e53d 102d 25be 348c 19bd b62b f4bd
000001d0: a4fb 953d 4505 403d befa a13d d1b7 c8bd
000001e0: 9a67 f1ba 7f50 3abd 5e67 86b9 bd5c b0bd
000001f0: 8bbb 0bbe 48c3 393d ff88 223e 6066 9abd
00000200: e184 e93d a423 de3d 8f10 ae3c c4c0 253e
00000210: 866b 1d3e 6969 96bd bc1f 5e3d d833 0a3e
00000220: 566f 08be 33c8 8a3c 3316 f23d 3c44 093e
00000230: fbc1 05bd 9046 9dbd 7831 d13d fd88 ee3d
00000240: 02d6 bcbd f791 9a3d 8400 df3d b381 703d
00000250: 90eb 3ebc f9de 223e 67ad bdbd 00dc e6bd
00000260: c90a fc3c 02a9 ab3c f084 d83d 315d 283c
00000270: 5fea 4f3c af4c 62bd 2718 963d c27b 243e
00000280: 2154 0b3e 00b5 79bd 8ec6 1a3e 4ccf bf3d
00000290: bcc0 24be f104 0d3e b486 5ebd 3211 063e
000002a0: d653 c3bc 3f1c 15bd 58f4 6d3d 5596 b8bd
000002b0: cf05 23bd 6275 17bb 1927 583d d36e 8e3d
000002c0: a4e1 113e 629c 923d da08 50bd 8fb2 0e3c
000002d0: 808d 99bc 2eac 60bd ac6c bcbd 6444 65bd
000002e0: bf35 7dbd 86fc c9bd 5e2b e83d 7741 0abd
000002f0: 75c9 babd 0994 183e bccf ddbd 40a3 2f3e
00000300: 4550 4fbd 4103 2cbd 9c73 b7bd 0d1a 88bd
00000310: c7c3 023e c442 b33d 7623 4ebd b80e 86bd
00000320: 4323 2d3e 080e b2bd a866 fcbd e750 f23d
00000330: 9328 b93d bf99 8ebd ac1d ac3d f37c adbd
00000340: 8727 dabc e6b6 f73d c9ab 213d 5336 893d
00000350: 7492 8e3d 5ab4 6b3d be7f b4bd ac05 b3bd
00000360: 0638 c53d b274 d43d 0888 173e 62cf c6bd
00000370: 2ff2 e5bd 5a24 033e 7596 893d bd23 0dbe
00000380: 1210 abbd b91d f83d 5f37 43bd 4553 0c3e
00000390: b4a9 62bd 63ea 003e f382 febd fe62 13be
000003a0: 4850 013d 1bfa f23d 0cab d2bd 18d5 64bd
000003b0: 7a8c 88bb 8e95 2a3d 8e37 45bd 3d5f a8bd
000003c0: 1282 c93d 0e42 0c3e ae54 1fbe d03a 763d
000003d0: 1b2c 4bbd aacd 0e3a b013 01be a6de 4ebc
000003e0: 6a63 233e 4f41 cc3d 818b 61bb fb4f 0abe
000003f0: 1b7a 413d dce0 1f3d 8911 073e 0068 383d
-0.020009378 -0.016849767 0.1157322 -0.049185347 0.108012274 -0.025036655 0.102916114 -0.119226344
-0.14403476 0.11440475 -0.08146 0.16573162 -0.13956493 -0.04992291 0.08901136 -0.14096645
-0.11407386 -0.1317312 0.14733434 0.13959993 0.12495089 0.12478037 0.13888787 -0.14574099
0.16042082 0.027450506 -0.083485074 0.04721713 0.13883767 0.013078235 -0.07260699 -0.09275644
0.020355828 0.05527278 0.082374156 0.06581521 -0.14835745 -0.10191542 -0.00808169 -0.012394697
0.14816113 -0.018601902 0.037482325 -0.030805834 0.061083924 -0.0957762 0.11847049 0.07204593
0.04078161 0.03897112 0.017274968 0.097255796 0.11137794 -0.06207359 0.0077731935 -0.105636515
0.10755537 0.12423471 -0.08026732 -0.06692215 0.05644224 0.049136758 0.1667547 0.07164571
0.086722024 -0.07350178 -0.024212133 0.07676455 -0.018520733 -0.13580327 -0.002252647 0.05300653
0.1004723 -0.06465896 0.05873735 -0.1318034 -0.086867705 0.1348771 -0.032842033 0.11166382
0.08993584 0.1082242 -0.10606926 0.12491689 0.12901038 0.13085103 0.051241342 -0.14300974
-0.013847225 0.13998659 -0.12155056 -0.14228241 0.12134769 0.11010004 0.050842237 -0.011901228
0.03147223 0.054763224 0.03329047 0.070180915 -0.093270905 0.039769754 -0.042390194 -0.10877743
-0.050905693 0.13020836 0.07363992 -0.057367522 -0.008279854 0.081713215 0.082034156 -0.008915044
0.11199854 -0.16130471 -0.037487224 -0.119224 0.07323387 0.046880025 0.079091534 -0.09800685
-0.0018417716 -0.045486923 -0.00025635486 -0.086114384 -0.1364576 0.04535225 0.15872572 -0.07539058
0.11402298 0.10846642 0.02124813 0.16186816 0.15373048 -0.07344324 0.054229483 0.1349634
-0.13323721 0.016941166 0.118206404 0.13404936 -0.032655697 -0.07679474 0.102145135 0.11647222
-0.09220506 0.07547372 0.1088877 0.05871744 -0.011652842 0.1590537 -0.092615895 -0.112724304
0.030766862 0.020954613 0.10572231 0.010276125 0.012690156 -0.055248912 0.073288254 0.16062835
0.13606311 -0.06096363 0.15114805 0.093657106 -0.16089147 0.13771416 -0.05432768 0.13092497
-0.023843687 -0.03640389 0.058094352 -0.090130486 -0.03980046 -0.0023110737 0.05277166 0.06954732
0.14246231 0.07158734 -0.05078969 0.008709564 -0.01874423 -0.054851703 -0.09200415 -0.055973426
-0.061818834 -0.09862618 0.11336397 -0.03375384 -0.09120456 0.14900221 -0.10830638 0.17152119
-0.05061366 -0.04199529 -0.089575976 -0.06645594 0.12769996 0.08752969 -0.050326787 -0.06545776
0.16907983 -0.086940825 -0.123242676 0.11831837 0.09040942 -0.069629185 0.08404097 -0.08471098
-0.026630176 0.12095432 0.039470468 0.06699815 0.069615275 0.057545044 -0.088134274 -0.08741316
0.09629826 0.1037382 0.14797986 -0.09707524 -0.112278335 0.12806836 0.067181505 -0.13783164
-0.083526745 0.12115044 -0.047660228 0.1370364 -0.055337623 0.12589411 -0.1242732 -0.14393231
0.031570703 0.1186411 -0.10286531 -0.055867285 -0.0041671367 0.041646533 -0.048148684 -0.0822129
0.09839262 0.13697073 -0.15559646 0.06011468 -0.04960261 0.00054475165 -0.12605166 -0.012626326
0.15955892 0.09973394 -0.0034415426 -0.13507073 0.04723559 0.039032802 0.13190283 0.045021057
